dl_computer_vision/assignments/1/checkpoints/best_checkpoint-v10.ckpt (torch, 168892 bytes, 27 tensors)

model.lstm.weight_ih_l0 f4 [128, 1]
000000 9c 57 34 3f 97 67 1e 3f 4a 9c 28 bf 16 ed 0c bf
       0.7044618 0.61876816 -0.6586348 -0.55049264
000010 4f a2 15 3f df f3 1f bf 73 de 3d 3f 99 00 0d 3f
       0.5845079 -0.6248149 0.74167556 0.55079037
000020 ad 4f 2d 3e a3 49 38 bf 64 a5 22 bf ff e1 01 3f
       0.16924925 -0.7198736 -0.63533616 0.5073547
000030 cb 6b 03 bf ce 5c 11 bf fe ce fc be 8b 64 0b 3f
       -0.51336354 -0.56782234 -0.49376673 0.5445029
000040 3c de 1b 3f fa c4 c9 be 6f 94 2a 3f 5a 4b f1 3d
       0.6088598 -0.39408094 0.6663274 0.1178195
000050 51 dd 2e bf be 7f 0a bf 3e d5 0f 3f 9a 08 22 bf
       -0.6830645 -0.5410117 0.56184757 -0.63294375
000060 39 0d 47 be bf 5e 16 3f 07 bd 18 bf ca 65 29 3f
       -0.19438638 0.5873832 -0.5966343 0.6617094
000070 8a c6 08 3f 8e 6a 29 3f 06 bd 1e 3f 0a a6 1f 3f
       0.53427947 0.66178215 0.62007177 0.6236273
000080 f3 02 9b bd 27 b4 04 3e 5d 4f 19 3e b3 08 e2 3d
       -0.07568922 0.12959348 0.14971681 0.110368155
000090 c3 05 a2 3d d7 ef b1 bc 28 8c ab bd 98 f2 06 3e
       0.07911255 -0.02172081 -0.08376342 0.1317848
0000a0 16 af b2 3d 2f f2 05 3c 63 aa 85 bd f4 ea 55 bc
       0.08724801 0.008175417 -0.06526639 -0.0130565055
0000b0 bd b9 a9 3c 18 65 d4 3b b0 c2 4d 3c e7 d7 33 be
       0.02071845 0.006481778 0.012558624 -0.17562829
0000c0 b7 a4 c1 3d 6a 29 24 be d4 81 0d 3e d4 71 7e 3d
       0.09455245 -0.16031423 0.13819057 0.062120274
0000d0 27 0b 39 bd 58 7e d0 bd f8 ac 5f bd bd 38 a2 bd
       -0.04517665 -0.10180348 -0.054608315 -0.07920978
0000e0 fc ae 1b 3e 99 f1 39 bd b1 61 93 bd 78 43 b0 3a
       0.1520347 -0.04539642 -0.071963675 0.0013447842
0000f0 68 0b 9d 3d ec ff dd bc d4 10 0b 3e c2 b5 bd bb
       0.07668191 -0.027099572 0.13580638 -0.0057894895
000100 7f 2b 1f 3f ee f8 1e 3f d5 de 0c bf 29 05 af bd
       0.62175745 0.62098587 -0.55027515 -0.08545906
000110 67 c3 17 bf ca 5d 0f 3f 96 ba 13 3f ac 77 15 3f
       -0.59282535 0.56002486 0.5770658 0.5838573
000120 c1 cc ec bd e6 04 2e 3e b4 29 eb 3d 14 5c 11 3e
       -0.11562491 0.16994056 0.114825636 0.14195281
000130 29 55 0d 3f b0 1f fa be ee 72 e7 be 0a 88 e0 bd
       0.5520807 -0.488523 -0.45204872 -0.109634474
000140 4a 67 09 3f 05 c9 05 bf 3d f9 e2 bd 41 55 b9 bd
       0.5367323 -0.52259856 -0.11082695 -0.09049464
000150 8e 3b c0 3d 71 af fe be 8f 99 30 3e fb 63 28 bd
       0.09386359 -0.49743226 0.17246078 -0.041110974
000160 a9 b1 af bd 84 57 c8 3d 35 a8 11 bf 35 34 1e bf
       -0.08578808 0.09782317 -0.5689729 -0.6179841
000170 9f 04 0c be 52 74 16 3e 32 17 1d 3f 25 ff df bd
       -0.13673638 0.1469281 0.6136352 -0.10937337
000180 84 68 1e 3f e1 7d 21 3f 3c e2 0e bf cb ca 21 bf
       0.6187823 0.630827 -0.55813956 -0.6320006
000190 fd 7e 09 3f e7 8d 1e bf 8d b4 19 3f 0c 7b 14 3f
       0.53709394 -0.61935276 0.60041124 0.58000255
0001a0 3a 24 36 bf eb 49 99 be f8 c7 e1 be cd 70 02 3f
       -0.7114903 -0.29939207 -0.44097877 0.5095337
0001b0 31 3a 2b bf 7e 37 04 bf 6d 95 3d bf 76 ea 22 3f
       -0.6688567 -0.51647174 -0.7405613 0.6363901
0001c0 a6 dd 08 3f 3c 91 24 bf 2a 81 1e 3f 55 ae 2b bf
       0.5346321 -0.6428411 0.6191584 -0.67062885
0001d0 d7 cd 15 bf d9 d4 22 bf dc 9c 1a 3f a7 ac 25 3e
       -0.5851721 -0.6360603 0.603956 0.16179143
0001e0 c1 68 06 bf 4e ea 10 3f f0 d6 1d bf cc a6 2a 3f
       -0.5250359 0.5660752 -0.61656094 0.6666076
0001f0 13 5f 1f 3f 25 60 ff 3e 62 50 35 3f 33 e5 36 3f
       0.62254447 0.4987804 0.7082578 0.7144348

model.lstm.weight_hh_l0 f4 [128, 32]
000000 5c 46 93 3d 57 2e 1a 3e d1 fe 23 bd b7 ed ac bd
       0.07191154 0.1505674 -0.040037934 -0.08443778
000010 7d b5 03 be b1 85 08 be 2e 63 be bd a2 d3 3c bc
       -0.12862201 -0.13332249 -0.09296261 -0.011525067
000020 de 5b 68 bd bb 84 7e 3d ad ea 8f ba 0e 5c fe bd
       -0.056728236 0.0621383 -0.0010979973 -0.12419902
000030 1d 77 43 bd 4c 11 0b 3e 39 5a fd bd b0 52 17 3e
       -0.047721017 0.13580817 -0.12370724 0.14777637
000040 86 42 00 be 4c 53 f5 3c e1 08 da 3d 7c 50 4c bd
       -0.12525377 0.029946946 0.10646225 -0.049881443
000050 d9 65 f6 3c 6d b8 2a bc b1 d7 06 3e 11 f9 6e 3d
       0.030077862 -0.010419947 0.13168217 0.058342997
000060 61 c2 0a 3e e0 1a ed bd 2d 51 25 be 30 7e f7 bd
       0.13550712 -0.115773916 -0.16144247 -0.12084615
000070 6e 66 32 be bb 0f 3f 3d 58 05 bc 3d 70 92 78 bd
       -0.17421886 0.04664586 0.09180707 -0.06068653
000080 2c 49 12 3e 90 48 15 3e 77 58 0d be 41 ad 27 be
       0.14285725 0.14578462 -0.13803278 -0.16374685
000090 cd 66 12 3d 78 91 29 bd 45 9f 21 3e 5e c8 2b 3e
       0.03574257 -0.041398495 0.15783413 0.16775653
0000a0 f1 43 b8 bd 05 57 40 3d cb 0e ec bd 53 f6 a4 3d
       -0.08997334 0.04695799 -0.11526259 0.08054795
0000b0 9f 61 2a ba 5d 3f 82 3d 3d 56 06 be 71 ac cb bd
       -0.0006499532 0.06359742 -0.13118835 -0.09945
0000c0 d6 89 bc bd a2 d3 4e 3d 6a df d2 3b aa 2d e1 3d
       -0.092059776 0.050494798 0.0064353244 0.10995038
0000d0 ab ca bd bd 7b c6 25 3e 3e f4 39 bd cc 85 24 be
       -0.092671715 0.16188996 -0.045398943 -0.16066664
0000e0 4b 0f 08 be a8 c7 c4 3d 8b c8 77 bc 51 ff cc 39
       -0.13287084 0.09608394 -0.015123497 0.00039100138
0000f0 f5 bb 04 be 02 41 ca bd a2 21 f5 3d 94 a1 be 3d
       -0.12962325 -0.098756805 0.119693056 0.09308162
000100 39 49 fa 3d ec a4 53 3d 9e ef 23 3e ae d7 9c bc
       0.12220997 0.051670954 0.16009375 -0.019145813
000110 f1 44 a4 bd c1 22 eb bd fb ec fb 3c a8 91 ee 3d
       -0.08020962 -0.11481238 0.03075265 0.116488755
000120 43 2d c3 bd 22 2e 3a bd 5f 25 02 be b8 88 b7 bd
       -0.09530117 -0.045454152 -0.12709568 -0.08961624
000130 d1 e6 c7 bd 96 7e 32 be 80 be f5 3c 31 e4 24 3e
       -0.097608216 -0.17431101 0.029998064 0.16102673
000140 5d a7 2a 3e 73 fd 13 bc 1f 2c 00 be c3 a4 20 3e
       0.16665407 -0.009032595 -0.12516831 0.15687852
000150 bb 97 ca bd ff 31 3b bd 42 19 b2 3c 46 11 1d be
       -0.098922215 -0.045701977 0.02174056 -0.1533862
000160 54 f9 02 3e e2 78 78 bc fd 21 7f 3b 52 b6 58 bd
       0.12790424 -0.015165539 0.003893017 -0.05290825
000170 df 70 f0 3b 17 38 28 3e 3b 19 16 be 26 a7 f3 bc
       0.007337674 0.16427647 -0.14658062 -0.029742789
000180 fa 83 c4 bd 7c 63 32 3e 3f 40 dd 3d 61 f0 7d 3b
       -0.09595485 0.17420763 0.108032696 0.0038748013
000190 3d db f0 bd af 3a be bd a4 f7 9d bd 4e 31 1f 3e
       -0.117605664 -0.09288537 -0.07713249 0.15546152
0001a0 ad ea f2 bd 3c 5d c2 3d 3f da 0e bd fd f8 f5 3d
       -0.11861167 0.09490439 -0.034876104 0.12010381
0001b0 3b 40 6e bd df c0 8c bc 50 78 18 3d 77 84 de 3d
       -0.058166724 -0.017181812 0.037224114 0.108651094
0001c0 84 35 4e 39 f0 5a 1b bd 17 00 05 3e 2b ff c3 3d
       0.00019665627 -0.03792852 0.12988316 0.09570154
0001d0 ec fe a6 3d 49 ad b3 3d 42 4a 36 bd 77 a2 b9 bd
       0.08154091 0.08773286 -0.04450441 -0.09064191
0001e0 01 b0 b3 bd d3 05 e8 3d 4b 86 cb bd 77 6c f9 3d
       -0.087738045 0.11329236 -0.09937724 0.12178891
0001f0 0b 17 1d 3e 33 b6 2f 3e 05 ef 01 3e 30 3a 93 3d
       0.15340821 0.17159347 0.12688835 0.07188833
000200 18 82 bf 3d e7 75 1a 3e 79 2a 17 3e e4 b2 4f bd
       0.09350985 0.15084039 0.14762296 -0.050707713
000210 6f 12 af bd 30 89 a6 3d e4 f3 e4 bd 4f f7 88 bd
       -0.08548438 0.08131635 -0.11179331 -0.06687795
000220 70 9a 00 be 5b 12 12 bd 53 af 4f 3d 12 d0 25 be
       -0.12558913 -0.035662036 0.05070431 -0.16192654
000230 9e 22 c8 3c 58 f1 a6 3d ba 94 06 3e b3 a8 6c bd
       0.02443057 0.081515014 0.13142672 -0.05777807
000240 5a 41 8a 3d 21 1b 21 be cf 35 0b be 1b eb 9b 3c
       0.06750746 -0.15733005 -0.13594745 0.019033005
000250 84 61 00 be fc 7f a1 3d 70 07 c4 3d 5b 00 11 bc
       -0.125372 0.07885739 0.09571731 -0.008850182
000260 0a 19 33 be 5a f7 28 be ef c4 3a 3d 22 75 d7 3d
       -0.1749002 -0.16500607 0.045597967 0.10520388
000270 f1 9f a9 bd 5f 0d 0f 3e 49 ef e9 3c 9a a2 fc 3c
       -0.082824595 0.13969944 0.028556483 0.030839253
000280 43 68 30 3e 12 37 1d 3e cb 86 0d be 19 9e 38 bd
       0.17227273 0.15353039 -0.1382095 -0.04507265
000290 ad e8 f6 3d b2 78 16 be 13 ac 8d 3d 2a 14 6c bb
       0.12056098 -0.14694479 0.06917586 -0.003602276
0002a0 9c 68 04 3e 99 4f a7 bd 69 20 71 bd 19 eb ee bc
       0.1293053 -0.08169479 -0.0588688 -0.029164838
0002b0 df fa ef 3d 8d 25 8a 3b 2c b6 cf bd 8b 12 f9 3d
       0.11717772 0.004215902 -0.101421684 0.1216174
0002c0 60 db a4 3d 9a cb 3f 3d 21 41 13 bc d5 93 93 bd
       0.08049655 0.04682503 -0.008987696 -0.07205931
0002d0 4e 8e e6 3d 05 1d 27 be 17 7f 86 3c 4e 3f a5 bc
       0.11257611 -0.16319664 0.016418023 -0.020171788
0002e0 65 4e 12 be d5 d0 98 3d 54 36 bc bc 5a 04 45 bc
       -0.14287718 0.074617065 -0.022975124 -0.012024963
0002f0 c2 cb 86 39 9a e2 eb 3d 32 21 c2 bd 44 9c 60 3d
       0.00025710283 0.1151783 -0.09478988 0.054836527
000300 cd 6d 1f 3e 66 f8 e2 bd ae 2f 73 3d 56 08 6c bd
       0.1556923 -0.110825345 0.059371643 -0.057625137
000310 81 3a e0 bd b0 83 85 3d bc 63 cd 3c d5 73 59 bd
       -0.10948659 0.06519258 0.025071971 -0.05308898
000320 2c a2 b1 3d e1 1c f9 bb 44 29 02 3d e7 41 e6 3d
       0.0867351 -0.0076023196 0.031777635 0.112430386
000330 2c 5f f8 bd d4 e2 e3 3b 76 82 cd 3d 61 62 c1 bd
       -0.121275276 0.0069545303 0.10034649 -0.094425924
000340 39 9e 53 3d 6b 07 1d 3e 57 30 23 be b4 f7 d0 bd
       0.051664565 0.15334861 -0.15936409 -0.102034956
000350 26 58 cf 3c aa 2f 8e bd d6 09 34 3e a4 cf 85 bc
       0.025310587 -0.06942685 0.17581877 -0.016334362
000360 83 dc 14 be 98 40 97 3c b6 4b b2 3d a4 24 e9 bd
       -0.14537244 0.018463418 0.08705847 -0.11383942
000370 5c 58 02 be 51 27 be bd 8b db a6 3d 65 6c 98 bb
       -0.12729019 -0.09284843 0.08147343 -0.0046515935
000380 00 ad d6 bc 3b 86 ff 3d 19 5e f2 3c f8 da 07 be
       -0.02620554 0.12476774 0.029585885 -0.13267124
000390 cd a8 8e 3d 23 d3 03 be 1f b6 58 3d 0b bc 36 3d
       0.0696579 -0.12873511 0.05290806 0.044612925
0003a0 9a 07 85 3c 93 ba d3 bd 01 23 14 be 16 1d a6 bd
       0.016238976 -0.103383206 -0.14466478 -0.081110165
0003b0 e2 4a f7 3d 1c d6 87 bc 5f 2f 1c 3e 79 9a 13 3e
       0.1207483 -0.016581587 0.15252446 0.14414395
0003c0 f4 41 85 bd e5 4a 45 3d 41 04 85 bc 2f 73 38 3d
       -0.0650672 0.048167128 -0.01623738 0.045031723
0003d0 a1 7f fd bd 64 99 68 bd d2 93 d9 3d 0c 2a 16 3e
       -0.12377859 -0.05678691 0.106238976 0.14664477
0003e0 30 86 09 3e 63 41 2f be cb 33 d0 3c d2 4f 82 3c
       0.13430095 -0.17114787 0.025415322 0.015907202
0003f0 3f e3 7a 3c 1a db de 3d f7 67 60 bd 6c 5d 04 3e
       0.015312969 0.10881634 -0.05478665 0.12926263

model.lstm.bias_ih_l0 f4 [128]
000000 6e fc 02 3f 6a 79 2a 3f d5 aa 38 bf ef 0c f0 be
       0.5116643 0.66591513 -0.7213567 -0.46884868
000010 ba 55 95 bc 5f be 02 bf 3b 38 2d 3f 23 aa 37 3f
       -0.018229354 -0.51071733 0.67663926 0.71743983
000020 98 c2 d2 bd 27 a4 e2 bd 67 7b 2f bf e1 59 b5 3e
       -0.10291022 -0.11066466 -0.6854767 0.35420135
000030 f5 e6 b5 be 71 e4 e6 be a6 c2 36 bf 53 e8 ef 3e
       -0.3552777 -0.45096162 -0.7139076 0.46856937
000040 d3 08 15 3f 07 eb f1 bd 70 41 19 3f f6 59 1e 3e
       0.5821659 -0.11812406 0.59865475 0.15464005
000050 ba 4d f2 be 8d b5 3d bf fa 9b 0c 3f cf 72 f5 bd
       -0.47324926 -0.7410515 0.549255 -0.119847886
000060 71 da ea be 0c 47 31 3f 89 44 20 bf ff e7 df 3e
       -0.45869783 0.69249034 -0.62604576 0.43731686
000070 c8 41 2a 3f 47 3a db 3e e3 5f d5 3e 29 0c f6 3e
       0.66506624 0.428179 0.41674718 0.48056152
000080 89 45 3a 3d fe cc b9 3d 39 1a 05 3e b9 af ba 3c
       0.04547647 0.09072302 0.12998284 0.02278887
000090 e7 d6 1b 3e f5 84 2d 3e e6 92 b5 3d 45 81 9e 3c
       0.15218697 0.1694525 0.08865909 0.01934875
0000a0 40 ca af bd db c2 87 bd f0 9c 33 3d f8 45 06 3d
       -0.08583498 -0.066289626 0.04385084 0.03278157
0000b0 7d dc 31 be e3 66 4b bd a2 3c 14 3e 34 c4 00 be
       -0.17369266 -0.049658667 0.14476255 -0.12574846
0000c0 45 81 1a be f1 ff 48 bc e8 0f bf 3c fd f4 c8 bd
       -0.15088375 -0.012268052 0.023323014 -0.09812353
0000d0 b0 12 ee 3d c8 2a 9c bc 77 34 87 3d ee a0 0f 3e
       0.11624658 -0.019063368 0.06601804 0.14026234
0000e0 50 72 0a be e4 07 23 3d c7 fd 33 be 18 9e fa bd
       -0.1352017 0.039802447 -0.17577277 -0.12237185
0000f0 39 73 e5 bd ae 4c 7f bd 59 f6 3b 3d e9 06 28 be
       -0.112036176 -0.062328987 0.045889232 -0.16408886
000100 e7 db f7 3e 94 5e 9f 3c 72 e2 3b bf 7e d5 b3 3b
       0.4840996 0.019454278 -0.73392403 0.0054880967
000110 ec 0a 35 bc 93 f3 15 3f 65 65 2d 3f a0 da 21 3f
       -0.011049967 0.5857479 0.6773284 0.6322422
000120 bd 08 16 3e ea 88 29 be 02 25 f6 3d 69 13 24 3d
       0.14651771 -0.16556135 0.120187774 0.040057573
000130 ee 91 21 3f 6b ab ae be 48 0e c7 be d5 b8 1b 3e
       0.63113296 -0.34115157 -0.38878083 0.15207227
000140 a7 0c 25 3e e2 3d b9 be 92 90 b0 bd 1c bb 11 3d
       0.16118108 -0.36180025 -0.086213246 0.035578832
000150 03 7d b3 3a 3f fe a5 be e6 a3 0d be 33 ba 0c 3e
       0.0013693873 -0.32420537 -0.13832054 0.13742904
000160 a5 d1 99 bc d7 1c 06 be d8 f8 15 bf 6c 82 da be
       -0.018776724 -0.13096939 -0.5858283 -0.4267763
000170 1d a4 06 be c4 70 b3 3d b8 f6 f9 3e 77 0a 78 bc
       -0.13148542 0.08761743 0.48821044 -0.015139214
000180 d6 0d 18 3f 57 69 b1 3e a8 3e 29 bf a0 d1 1b bf
       0.5939611 0.3465068 -0.6611123 -0.6086674
000190 a2 d7 35 3f 04 c0 e4 be 9d 32 d9 3e c4 c6 e5 3e
       0.71032155 -0.44677746 0.42421427 0.4487821
0001a0 05 c0 ec be e8 2b 3a be 05 0f 3a 3d 2d 1e 14 3f
       -0.4624025 -0.18180811 0.04542448 0.57858545
0001b0 16 ee 36 bf ea 21 21 bf 26 cd 6c bf 7e 6c fe 3e
       -0.7145704 -0.62942374 -0.9250053 0.49692148
0001c0 6e 75 20 3f ae c3 02 bf 6b e7 1f 3f fb 73 1b bf
       0.62679183 -0.51079834 0.6246249 -0.6072385
0001d0 b0 a6 ba be 31 5a 4e bf a0 48 18 3f a4 79 17 3e
       -0.36455297 -0.8060637 0.59485817 0.14792496
0001e0 5e cf 1c bf 5a c8 e4 3e 30 6a 37 bf e5 16 39 3f
       -0.6125392 0.44684106 -0.71646404 0.7230056
0001f0 36 85 07 3f 0c ed 0a 3f b6 a2 c8 3e 67 07 bd 3e
       0.5293764 0.54267955 0.3918664 0.3691971

model.lstm.bias_hh_l0 f4 [128]
000000 27 c3 80 3e 66 17 d8 3e f2 3d 04 bf 1b 6b dd be
       0.2514889 0.42205352 -0.5165702 -0.43245777
000010 57 02 99 bc 20 38 15 bf 8a eb 46 3f 0c 64 d6 3e
       -0.018677874 -0.58288765 0.77703154 0.41873205
000020 8b 12 f9 bd aa 35 1a be c5 33 06 bf 7d c6 ce 3e
       -0.1216174 -0.15059534 -0.52422744 0.4038581
000030 16 70 92 be e6 24 2f bf f9 17 e4 be 03 56 48 3f
       -0.2860114 -0.6841568 -0.4454954 0.78256243
000040 db 80 f6 3e 4d 43 2d be 7b 09 11 3f 57 9a 1c 3e
       0.48145184 -0.16920204 0.5665509 0.15293251
000050 f5 f2 ea be d7 6e 24 bf 7f d6 1b 3f c5 1b 12 bd
       -0.45888487 -0.6423163 0.6087417 -0.035671014
000060 0f f6 c1 be ce 6b d0 3e 04 0e 31 bf 52 12 f9 3e
       -0.3788304 0.40707248 -0.6916201 0.4864679
000070 e6 79 2c 3f 99 f2 02 3f f6 47 19 3f f2 3f cb 3e
       0.673735 0.51151425 0.5987543 0.39697224
000080 1e 22 2c bd 5f 5c 9a bd 99 47 bf 3b f2 3b 88 bd
       -0.042024724 -0.0753715 0.0058373925 -0.06652059
000090 e0 af 2a 3e 9a 75 81 3d 51 e0 d1 bd b4 ba 17 3e
       0.16668653 0.06321259 -0.10247863 0.14817315
0000a0 e3 29 4b 3d 90 d0 2f 3e 41 5b 5e bd 0a 0f b3 3d
       0.049600493 0.17169404 -0.054286245 0.08743103
0000b0 96 68 b6 3d cd 70 b9 bc d6 6e ac bc c2 20 85 3c
       0.08906667 -0.022636795 -0.021048944 0.016250972
0000c0 80 d7 8e bd 42 c8 98 3c 7e e4 36 bd 79 f2 0d be
       -0.06974697 0.018650178 -0.0446515 -0.13862027
0000d0 3f 88 31 3e 32 14 8d 3b 2f 7a 70 3d e0 25 0c 3e
       0.1733713 0.004305386 0.058710273 0.13686323
0000e0 04 17 ff 3d c6 6f 98 3d 81 49 21 3d b3 a4 10 be
       0.12455562 0.07443194 0.03937674 -0.14125328
0000f0 52 63 4a bd f5 73 36 3d f5 f2 a0 3d ef 51 f3 bb
       -0.049411125 0.04454418 0.078588404 -0.0074255387
000100 2c c7 19 3f c8 a6 61 3e 6f 00 2d bf c3 bd 6e bd
       0.6006954 0.22036278 -0.67578787 -0.05828644
000110 29 4a 2e be ec ac 13 3f f3 ae 2a 3f 24 1e 21 3f
       -0.17020477 0.5768573 0.666732 0.62936616
000120 ad 54 1e 3c a1 61 d6 bd 59 48 07 be 2e d2 12 bd
       0.009663743 -0.1046784 -0.13211192 -0.035844974
000130 5d 3d ac 3e 97 b1 a3 be 9b bf 50 be c3 89 af bd
       0.33640566 -0.31971428 -0.20385592 -0.08571198
000140 3b a3 02 3d 8d 6d c4 be f0 90 e5 bd b5 3b 25 3e
       0.03189395 -0.3836483 -0.11209285 0.16136058
000150 1c f9 23 be 3d 8f 08 bf 74 ea d0 3d 93 ee 92 3d
       -0.16012996 -0.53343564 0.102009684 0.07174411
000160 c0 33 85 3c 18 86 e5 bd 88 fc 30 bf a9 32 e9 be
       0.016260028 -0.11207217 -0.6913533 -0.45546463
000170 28 f3 9c bd 06 0b b7 3c e3 57 f9 3e b2 5f c3 3d
       -0.07663566 0.022344124 0.48699865 0.09539737
000180 8f a8 ed 3e 5b 87 07 3f 99 f6 15 bf b0 b3 2a bf
       0.46417663 0.5294091 -0.58579403 -0.6668043
000190 10 5f 46 3f 03 9d 01 bf a7 3b da 3e ad 92 f5 3e
       0.77488804 -0.50630206 0.42623636 0.47963467
0001a0 2f 50 fa be 05 cf 87 3d 7f 8d 30 be 9c 2f cf 3e
       -0.488893 0.06631283 -0.17241476 0.4046601
0001b0 bf f2 e5 be 99 38 02 bf 5b dd 33 bf 18 46 32 3e
       -0.44911763 -0.5086761 -0.70259637 0.17409551
0001c0 87 f7 08 3f 65 7f d3 be ec 60 05 3f 39 9f f2 be
       0.53502697 -0.41308132 0.52101016 -0.47387102
0001d0 7e 24 f6 be 38 6e 66 bf 05 8d 1b 3f 2c f6 11 be
       -0.48074716 -0.9001193 0.60762054 -0.14254063
0001e0 c2 0e 07 bf af 84 18 3f 9d 61 f2 be 5a d4 3d 3f
       -0.52756894 0.5957746 -0.47340098 0.7415215
0001f0 2c b4 12 3f d2 58 e7 3e 69 c3 f8 3e a1 e8 60 3e
       0.5730617 0.45184952 0.48586586 0.21963741

model.lstm.weight_ih_l1 f4 [128, 32]
000000 84 ee 90 3f 99 03 66 3f a0 9f e7 be 0a ce f4 3e
       1.1322789 0.8984924 -0.45238972 0.47813445
000010 0b bd 9f bf 44 1a ec 3e fc 6c 72 3f c5 8f 6c 3f
       -1.2479566 0.4611379 0.94697547 0.92406875
000020 3b ad c4 bd 6a ae 8e 3d af db 38 bf 48 b2 47 3f
       -0.096033536 0.069668606 -0.7221021 0.7800641
000030 00 94 11 3f 0c fc 2d bf 67 47 2c 3f 82 8b 97 bf
       0.56866455 -0.6796272 0.6729645 -1.183945
000040 df 04 9a 3f 1c ec e6 be 66 75 86 bf 44 63 c8 3e
       1.2032737 -0.45102012 -1.0504577 0.39138234
000050 e2 8c 10 be 5f 68 05 3f 34 44 93 3f 66 8b b1 3d
       -0.14116243 0.5211238 1.1505189 0.08669166
000060 d9 53 32 3f 95 04 77 3f 7e 22 27 bf f9 90 6c bf
       0.6965919 0.96491367 -0.65287006 -0.9240871
000070 d2 59 93 bf 71 41 7b 3f 1f c2 57 3f 5f 91 89 bf
       -1.1511786 0.9814673 0.8428058 -1.0747489
000080 c6 f9 6b 3f 0b 65 95 3f 70 6f d1 3e 60 4b cb 3e
       0.92178 1.1671461 0.40905333 0.39705944
000090 b8 d1 90 bf f0 bb 2b bf dc b5 84 3f 12 1f 91 3f
       -1.1314001 -0.67083645 1.0367999 1.1337607
0000a0 fa 67 48 bd 63 fd 61 3e 1e 1f 2e 3f 35 c2 36 3f
       -0.048927285 0.22069316 0.6801623 0.71390086
0000b0 6f 82 02 bf b8 2b 1a bf 74 04 d6 3e 61 84 a9 bf
       -0.50980276 -0.6022296 0.41800272 -1.3243524
0000c0 54 26 a9 3f 5e 46 17 3f 07 f8 51 bf ee 28 14 bf
       1.3214822 0.59091747 -0.82019085 -0.57874954
0000d0 80 55 14 3f 94 14 d2 3e 6a d6 8d 3f d0 30 f4 3d
       0.5794296 0.41031325 1.1081059 0.11923373
0000e0 8d 6d 35 3f cb 45 8d 3f d8 40 c9 3e 62 4f 5a bf
       0.70870286 1.1036924 0.39307284 -0.8527738
0000f0 bc 81 98 bf be 3f a7 3f e5 30 90 3f 10 b9 88 bf
       -1.1914592 1.3066328 1.1264921 -1.0681477
000100 7d 2a 5b bf 41 2d 68 bf 22 5e f7 be 67 14 05 3f
       -0.85611707 -0.9069405 -0.48314005 0.51984257
000110 16 5d 11 3f d0 a3 cd 3e 85 4b 4b bf 19 6b 42 bf
       0.5678266 0.40164042 -0.7941211 -0.7594467
000120 75 32 fc bc 62 44 c9 bd 96 f7 ce be 63 f9 45 bf
       -0.030785779 -0.09827496 -0.40423268 -0.7733366
000130 e0 f6 1d 3f d8 60 1b bf ce 88 03 3f 9a ab 1b 3f
       0.61704826 -0.60694647 0.5138062 0.6080872
000140 3a 78 4d bf 27 95 22 bf 4d 6a 69 3f 79 49 d5 3e
       -0.80261576 -0.6350884 0.9117783 0.41657618
000150 8d d1 0a be 06 b0 1b 3f 51 b9 5d bf ba fe 3b be
       -0.135565 0.60815465 -0.86610895 -0.18358889
000160 fa dc f2 3e 86 d0 39 bf 5e 31 ed be 6b fe 47 3f
       0.47434217 -0.72583807 -0.46326727 0.78122586
000170 ef ec 0c 3f 4a 06 fa be 70 4a 71 bf 9c 5c 2d 3f
       0.5504903 -0.48832923 -0.9425421 0.67719436
000180 e2 29 94 3f e8 66 6c 3f be ec 0c 3f 66 86 18 bf
       1.1575282 0.9234452 0.5504874 -0.59580076
000190 f8 4b 5f bf 1b cc 03 bf b0 83 5d 3f 64 66 58 3f
       -0.87225294 -0.51483315 0.86529064 0.84531236
0001a0 1d f0 ec bd e1 4b 7e bd c6 25 11 3f c0 5a 47 3f
       -0.115692355 -0.062084083 0.5669826 0.7787285
0001b0 a3 03 22 bf a7 0c 13 3f a8 08 fb be 3d 3d 65 bf
       -0.632868 0.5744118 -0.49030042 -0.8954657
0001c0 d8 2b 5a 3f 99 89 fe 3e d8 f0 71 bf a9 c1 1b bf
       0.8522315 0.49714354 -0.94508123 -0.60842377
0001d0 d7 22 0c 3f a4 47 3d bf 81 1d 59 3f c2 25 9f 3e
       0.5474066 -0.7393744 0.84810644 0.31083494
0001e0 b9 66 08 bf c2 80 79 3f cd 74 38 3f dd 39 76 bf
       -0.5328174 0.97462094 0.72053224 -0.9618204
0001f0 d0 fb 6c bf a8 0b 74 3f 03 fd 77 3f a5 0f 8c bf
       -0.92571735 0.95330286 0.9687044 -1.0942274
000200 57 c0 5b bf 95 7e 5b bf 8e 07 2e bf 70 4a e7 3e
       -0.8584036 -0.85740024 -0.6798028 0.4517398
000210 94 fc 50 3f f4 f4 0b 3f 5e 00 46 bf 8c fb 4b bf
       0.81635404 0.54670644 -0.7734431 -0.79680705
000220 da 24 a4 bd f1 c9 8f 3d 32 09 32 bf 94 c8 3b bf
       -0.080148414 0.07020939 -0.6954528 -0.7335293
000230 ce 45 20 3f 87 83 28 bf 9d c9 35 3f 61 16 28 3f
       0.62606514 -0.65825695 0.7101076 0.6565915
000240 c4 78 62 bf 92 c9 23 bf 61 47 3e 3f 3c 9b c9 3e
       -0.88465524 -0.63979447 0.74327666 0.39376247
000250 fb a1 d0 bd e7 b4 03 3f ca 0e 34 bf 40 ef d0 bd
       -0.10187145 0.5144791 -0.70335066 -0.10201883
000260 29 cc 17 3f f7 46 66 bf 01 62 04 bf 02 bb 58 3f
       0.592959 -0.89952034 -0.5171204 0.8466035
000270 e0 e1 57 3f d1 c6 22 bf 9f 54 70 bf 99 91 6b 3f
       0.8432903 -0.6358462 -0.9387912 0.9201904
000280 d5 22 0e bf da bb 40 bf 46 41 13 bf 14 43 05 3f
       -0.555219 -0.7528664 -0.57521474 0.5205548
000290 6b 33 19 3f d6 8a be 3e 40 47 2d bf 00 bb 0a bf
       0.5984408 0.37215298 -0.67686844 -0.5419159
0002a0 0a b0 f7 3d ec 6c d7 bd 89 f9 2f bf f4 c6 5b bf
       0.12094124 -0.10518822 -0.68740135 -0.85850453
0002b0 a3 c3 12 3f 2d 12 1d bf 15 f2 07 3f c7 ea 0b 3f
       0.5732977 -0.6135586 0.5310376 0.54655117
0002c0 3a 24 2d bf e2 7e 03 bf 1d 8d 51 3f d6 c3 0c 3f
       -0.676334 -0.5136548 0.81855947 0.5498632
0002d0 6a b2 8e be 5e 94 de 3e b6 5a 18 bf 53 55 5f be
       -0.27870494 0.4347257 -0.59513414 -0.21809892
0002e0 87 7c f8 3e 2c be 00 bf c2 91 24 bf b8 d8 46 3f
       0.48532507 -0.5029018 -0.6428491 0.77674437
0002f0 ae 1b 02 3f 20 37 92 be 5b fb 02 bf d9 1d 37 3f
       0.50823486 -0.28557682 -0.5116479 0.7152992
000300 06 78 68 3f 92 56 9b 3f 61 91 2e 3f 5f d9 f8 be
       0.9080814 1.2135794 0.6819058 -0.4860334
000310 9f d1 85 bf bb d4 27 bf c5 b9 67 3f a4 14 87 3f
       -1.0454596 -0.65558976 0.90517837 1.0553174
000320 1a c2 53 be f7 8e a1 3e e4 a6 32 3f 8b 16 5f 3f
       -0.20679513 0.31554386 0.69785905 0.8714377
000330 f7 90 d6 be 0e df 31 3f 84 28 29 bf fc 7b 7b bf
       -0.41907474 0.6948098 -0.66077447 -0.9823606
000340 30 2e 4f 3f 83 aa cc 3e 6c 41 9e bf 83 39 2a bf
       0.8092985 0.3997384 -1.2363715 -0.66494006
000350 59 e4 0f 3f 72 ba f6 be 98 37 89 3f 20 fc 9d 3e
       0.56207806 -0.4818912 1.0720091 0.3085642
000360 8a e4 ce be 69 c4 52 3f 26 46 ff 3e 13 68 89 bf
       -0.40408736 0.8233095 0.49858207 -1.0734886
000370 cc 56 50 bf 9d 41 6d 3f 7c 82 96 3f 5c b4 83 bf
       -0.8138244 0.9267824 1.1758571 -1.0289416
000380 d7 b2 1f bf 25 2f 3f bf 92 32 c5 be ba d3 f4 3e
       -0.6238226 -0.7468131 -0.38515145 0.47817785
000390 9c d2 c1 3e ec ae 0a 3f 97 5e 20 bf 2a c5 24 bf
       0.37855995 0.5417316 -0.6264433 -0.6436335
0003a0 28 3f 01 be c1 ab 2d be cc 72 e3 be 0f 11 ac 3e
       -0.12621748 -0.1696005 -0.4442352 0.33606765
0003b0 aa af e1 3e 45 01 01 bf 70 81 37 3f 72 f1 0a 3f
       0.44079334 -0.5039256 0.7168188 0.54274666
0003c0 07 4e fc be ca a4 e1 be b8 68 2f 3f ec 68 c4 3e
       -0.4927828 -0.44071037 0.68519163 0.383613
0003d0 de 2e 86 be d6 47 13 3f 49 bc 24 bf 65 fa e5 bd
       -0.26207632 0.5753149 -0.643498 -0.112293996
0003e0 cd 3a 01 3f 14 de fd be ba 65 db be cb 5f 26 3f
       0.5048035 -0.49583495 -0.4285105 0.6498992
0003f0 07 68 22 3f 70 3c be 3f 81 66 2b bf b3 0a 38 3f
       0.63439983 1.4862194 -0.66953284 0.71891326

model.lstm.weight_hh_l1 f4 [128, 32]
000000 54 46 de bc f5 91 cc 3c 4f a1 22 3e 95 c6 9b 3d
       -0.027133144 0.024971941 0.15881847 0.07606236
000010 d1 c6 6e bd 98 83 4b bc 7b b8 82 bd 51 23 0e 3e
       -0.058295075 -0.012421511 -0.06382843 0.1388066
000020 c9 4e f3 3d 6f 20 13 3e d6 4e 29 be 01 51 84 bd
       0.118802615 0.14367841 -0.1653398 -0.06460763
000030 94 51 c8 3d 39 46 5b bd 71 64 b9 3d 3f 20 dd 3d
       0.09781185 -0.053533766 0.09052361 0.10797166
000040 e7 61 34 be 79 5d ca 3d fa 8b 30 be 9c 52 af 3d
       -0.17615472 0.0988111 -0.17240897 0.08560678
000050 7e 07 a2 3d 95 40 18 be da cf 27 be 26 91 fa bd
       0.07911585 -0.14868386 -0.16387883 -0.12234716
000060 e4 9b 84 3d df 0a 94 3d fd 48 d2 3c d9 75 27 be
       0.06475046 0.07228636 0.02566957 -0.16353549
000070 ab 87 01 be f6 d4 8e 3d 1c 66 30 be 88 bf be 3c
       -0.1264941 0.06974213 -0.17226452 0.023284689
000080 f3 44 05 3d c3 85 2d be 60 fa 18 3e 7d a7 b4 3d
       0.03253646 -0.16945557 0.1493926 0.08821008
000090 f9 69 aa 3d ff 88 2a 3e 8d dd 86 3d 1b f3 7b 3c
       0.08320994 0.16653822 0.06585226 0.015377785
0000a0 0b 9a a1 bd 70 11 6a 3d 02 e3 04 be f7 76 ed 3d
       -0.078907095 0.057145536 -0.12977222 0.11594956
0000b0 47 82 05 3e 30 22 97 3d 50 74 09 3e 1d d3 cc 3d
       0.13037978 0.073795676 0.13423276 0.10001204
0000c0 f9 ef 14 3e 7a 1b ef 3b 9c c3 f8 bc 54 e7 ff 3c
       0.14544667 0.0072969766 -0.030366711 0.031238236
0000d0 69 38 d5 bc 7e b6 be 3d 98 e0 6b bd 7b b0 af bd
       -0.026027875 0.09312151 -0.057587236 -0.08578583
0000e0 81 bf 27 be 04 43 34 be 7f 7a 8c bd bb 15 de 3c
       -0.16381647 -0.1760369 -0.06859302 0.027109971
0000f0 e6 e6 0d be 69 ee d9 3d 56 9b 68 bd d8 c4 f6 3c
       -0.13857612 0.10641176 -0.056788765 0.03012316
000100 8c a5 e1 3c 3e c9 a8 3d 1d cc 56 bc ce 50 ef 3d
       0.02754476 0.08241509 -0.013110188 0.11685334
000110 9b bf b6 bd 40 08 27 3e 73 4d 0c 3e b5 4f 31 3e
       -0.089232646 0.16311741 0.1370142 0.17315562
000120 6d 71 08 bd b3 e7 8d bd 36 7e 07 bc 1b ba 81 3d
       -0.033311296 -0.06928959 -0.008269837 0.06334325
000130 17 5e 2c 3c a2 dc 04 be 1c 0f c3 bc d6 4f ed bd
       0.01052048 -0.1297479 -0.023810916 -0.11587493
000140 a1 ab 7a bc 44 b8 8f bd ae ef 8f 3d d4 0b 0c 3e
       -0.015299709 -0.07017568 0.07028137 0.13676387
000150 8a 52 f9 bd c4 52 a3 bd be 31 0d be 78 0b 0f 3d
       -0.12173946 -0.07974771 -0.13788506 0.034923047
000160 18 89 78 bd 45 44 01 be 25 75 e2 bd bf 4c 1f 3a
       -0.060677618 -0.12623699 -0.110575 0.0006076805
000170 56 04 d6 3b 58 97 1e 3e d7 9e 30 be eb 2a aa bd
       0.0065312786 0.1548742 -0.17248093 -0.08308967
000180 e8 7f 0c be cc 0d 15 3e 53 3c b9 38 83 1d 6b bd
       -0.13720667 0.14556044 8.832724e-05 -0.05740119
000190 d5 c8 b9 3d b4 3c 28 3e 2c fc 0c be c0 c8 88 bd
       0.09071509 0.16429406 -0.13768071 -0.06678915
0001a0 37 54 13 3e 63 dc 8b bd 48 6b e2 bd 39 d2 bb bd
       0.14387594 -0.06829145 -0.110556185 -0.09170956
0001b0 22 82 f8 bd 2c 83 00 bd 05 fe dc bc e3 bb 9a bd
       -0.12134196 -0.031375095 -0.026976595 -0.07555368
0001c0 92 e7 7f bd fe 3d a9 3d 90 89 02 be 48 d6 a6 3d
       -0.062476702 0.08263777 -0.12747788 0.0814634
0001d0 f4 dd 85 bc a0 aa 82 3d 6e 75 09 be 5f 3c 10 be
       -0.016341187 0.063802004 -0.13423702 -0.1408553
0001e0 92 68 0a be 1b fc 11 be ed 2d 18 3e 2d a2 0b 3e
       -0.13516453 -0.14256327 0.1486127 0.13636084
0001f0 d0 22 92 bd 36 b7 3e 3d cd 4a 02 3e a3 39 ad 3d
       -0.07135546 0.046561442 0.12723847 0.08458259
000200 73 90 d0 3d c3 12 0f 3d ac a0 f6 bc ca 38 94 bd
       0.101838015 0.034930002 -0.030105911 -0.07237394
000210 c1 49 9b bb 91 6f df bc 2e 4f ea bd fb db 13 3d
       -0.0047390168 -0.027274879 -0.114408836 0.03609846
000220 85 b3 d7 3c a2 18 25 3e eb 28 d5 bd da 98 5d 3d
       0.026330719 0.16122678 -0.10408195 0.05410085
000230 0f 7c f0 bd a8 b4 73 bd 69 b3 09 be a9 a0 23 be
       -0.11742412 -0.05949846 -0.13447346 -0.15979256
000240 e2 7a 55 3d cd 0f ca 3d 7a 7f 90 3c 35 8b c1 3d
       0.052119143 0.09866295 0.01763891 0.0945038
000250 8c 47 eb 3c 1a 3c ba 3c 9e de 1f be 8f be 0c bd
       0.02872064 0.022733737 -0.15612265 -0.03436142
000260 72 37 0a 3e 1e f8 03 3e 10 00 af 3d 39 b1 09 be
       0.13497713 0.12887618 0.08544934 -0.13446511
000270 db 9b 48 3d 8d b8 ac 3c bf f0 86 bd d3 94 0b 3e
       0.04897676 0.021084094 -0.065888874 0.1363099
000280 a9 43 85 bd 20 e9 33 be f0 ce 25 3e de ec 24 be
       -0.06507046 -0.17569399 0.16192222 -0.16105983
000290 b3 b4 94 3d c8 42 ed bd fd 9d 92 3d 78 34 02 be
       0.07261028 -0.11585003 0.0715904 -0.12715328
0002a0 cc fd 74 3d 53 0e ad bd d2 bf f4 ba d7 88 ca bc
       0.059812352 -0.08449998 -0.001867289 -0.024723453
0002b0 ef 7e 0d 3e 5b a8 05 3e 1b 4b 25 be 6c 47 a7 bd
       0.13817953 0.13052504 -0.16141932 -0.081679195
0002c0 a1 12 79 bd 60 e8 82 bd a2 af 16 3e 8f 40 b5 bc
       -0.06080878 -0.06391978 0.14715436 -0.02212551
0002d0 f0 55 86 3d 65 09 81 3d 64 ed 6e 3c 0f 0f a8 3d
       0.0655936 0.0630062 0.0145829655 0.08205997
0002e0 40 87 a7 ba 66 1e 21 be 29 22 0c bd 78 25 f7 bc
       -0.0012781397 -0.15734252 -0.034212265 -0.030169234
0002f0 89 ba 62 bd 3d a2 94 3c 37 09 03 3e b8 5b 70 3b
       -0.055353675 0.018143767 0.12796484 0.0036675762
000300 db a2 73 bd af ce 24 3e 68 f0 bc bd 8e d8 7a bd
       -0.059481483 0.16094469 -0.09225541 -0.06124168
000310 08 77 12 3e b0 26 f9 bd fd 59 a0 bd 37 35 96 3d
       0.1430322 -0.12165582 -0.07829664 0.07334369
000320 27 0a fb 3d 69 24 d6 3b ba 80 0b be 8a c6 e6 3b
       0.12257796 0.006535102 -0.13623324 0.0070427107
000330 18 47 2b bd 0f 76 89 3d fa dd 1e 3c e1 1b e4 bd
       -0.041815847 0.06711971 0.009696478 -0.1113813
000340 82 43 08 3e 5e ee c9 3d c4 2a 01 3e 82 b7 5a bd
       0.13307002 0.09859918 0.1261397 -0.053397663
000350 9a be 30 3d fe 3b 4d 3d a4 10 dc bd 37 e7 d0 3d
       0.04315052 0.05010604 -0.107453614 0.10200351
000360 c9 76 23 be 57 b7 e7 3c 22 86 9a 3d 6e ca 31 3e
       -0.15963282 0.028285665 0.07545115 0.17362377
000370 53 c0 21 3e 0b fe 85 3d 81 72 49 bd c7 db fa bd
       0.15796022 0.065425955 -0.049181465 -0.122489505
000380 04 66 25 3e 13 fc 54 3d 1a ad fe 3d 29 b7 bf bd
       0.16152197 0.05199821 0.1243536 -0.09361107
000390 42 93 d4 3d 0c 2a 17 3e 24 f7 ed 3d 38 e8 31 be
       0.1037965 0.14762133 0.11619404 -0.1737374
0003a0 22 ca 72 3c 2d c3 0a be b4 0a 27 3e 6e a9 23 be
       0.0148187 -0.13551016 0.16312677 -0.15982601
0003b0 2d ca b7 bd fc 2a 10 be 8e f1 16 3e 45 5e 38 3d
       -0.08974109 -0.14078897 0.14740583 0.045011777
0003c0 ff 6f e1 bd 37 7c 2b bd 74 1d f8 3c 7f 9e 33 be
       -0.1100769 -0.041866507 0.030287482 -0.1754093
0003d0 9d ee a8 3d 1a 8f ee 3d 2e 9f 47 3b 85 0a d3 3d
       0.08248637 0.11648388 0.0030459869 0.10304741
0003e0 89 bc 22 be 1e f2 54 bd eb e6 c4 bc d1 9f 14 3e
       -0.15892233 -0.051988713 -0.024035892 0.1451409
0003f0 d7 cb 0e bc 60 51 04 be 4d 35 21 3e e7 f7 d4 bd
       -0.008715591 -0.12921667 0.15742989 -0.10398846

model.lstm.bias_ih_l1 f4 [128]
000000 1a 80 66 3f 09 78 7e 3f 2d 57 6b bf 15 25 66 3f
       0.9003922 0.9940191 -0.91929895 0.8990033
000010 71 25 46 bf 75 dd 41 bf 5e 66 62 3f 0f 6b 3e bf
       -0.7740088 -0.7572854 0.8843745 -0.7438211
000020 af aa 05 bf 6c b9 61 bf b9 1d 8d 3f 73 f5 3e 3f
       -0.5221357 -0.88173556 1.1024696 0.74593276
000030 17 f9 6a 3f de 03 73 3f 2a 33 23 bf 48 63 4d bf
       0.9178633 0.94927776 -0.63749945 -0.80229616
000040 3c 3f 90 3f f3 05 43 bf 89 39 86 3f 0c e5 78 3f
       1.1269298 -0.7618095 1.0486308 0.972245
000050 16 15 79 bf 41 f0 8e 3f 43 ff 83 3f 57 09 88 3f
       -0.972978 1.116707 1.0312275 1.062785
000060 44 b3 4c bf 7a 96 8c 3f 86 e6 92 3f 47 53 86 3f
       -0.7996104 1.0983422 1.14766 1.0494164
000070 8a 08 85 3f b9 45 33 3f c8 fe 95 3f 1a 23 7e 3f
       1.0393231 0.70028263 1.1718378 0.9927231
000080 be bf 0c 3e 3a 02 83 3c 9d 2a 35 bd ad 20 cd bc
       0.13745019 0.015992273 -0.044230092 -0.025039995
000090 a6 1b f5 bb ab d2 fd bd c0 d5 05 3e d1 b3 39 bb
       -0.0074801026 -0.12393697 0.1306982 -0.0028335939
0000a0 4f b1 e2 bc a6 bf 1f 3e a2 0b ab bd 03 c0 6c bd
       -0.027672438 0.15600452 -0.08351828 -0.057800304
0000b0 77 95 2f be 5b 72 94 3d 8a 25 76 3d eb 35 47 bd
       -0.1714686 0.07248374 0.060094394 -0.048635405
0000c0 da ef f2 3d 7f da 0a 3e 3c e7 ae bd 08 59 f2 bc
       0.11862154 0.13559912 -0.08540198 -0.029583469
0000d0 6b 50 83 3d d9 f0 2e be c9 12 1a 3d 77 f8 33 be
       0.06411823 -0.17084064 0.03761557 -0.1757525
0000e0 c6 f9 12 be e0 ee 08 3d af 26 1e be 15 db 4b bd
       -0.14353094 0.033430934 -0.15444444 -0.04976948
0000f0 df 3a 92 bb 06 93 0b be 33 b1 de bd b8 00 94 bd
       -0.0044625844 -0.13630304 -0.10873642 -0.072266996
000100 ab 2e 3d 3f 0a 3c 2c bf ab bc 98 3e cc f2 82 3f
       0.73899335 -0.6727911 0.29831442 1.0230346
000110 28 4b bd be f9 2a 72 be e2 32 63 3f 57 fe 09 bf
       -0.36971402 -0.23649205 0.88749516 -0.53903717
000120 31 fa 13 3f 11 27 1c bf 3c 20 80 3f 9e a0 d6 3e
       0.57803637 -0.6099711 1.0009837 0.41919416
000130 3c 84 e5 3e 97 c5 7f 3f 54 6b 0a bf 3f ca d3 3e
       0.4482745 0.99910873 -0.5407002 0.4136524
000140 6e ae 72 3f a1 cd fe 3e 04 d8 75 bf fa 38 5f bf
       0.9479741 0.49766257 -0.9603274 -0.87196314
000150 bc 2e e1 3d 32 17 20 3f 3b 5b 87 bf 8f 06 54 bf
       0.10995242 0.62535393 -1.0574716 -0.8282251
000160 8e a7 94 3e 14 44 71 bf 19 92 74 3f a1 d7 4e 3f
       0.29034084 -0.94244504 0.9553543 0.80797774
000170 00 e5 37 3f f8 2c 04 bf 6a 1a 05 bf 5a 9d 6b bf
       0.718338 -0.51631117 -0.5199343 -0.92036974
000180 de 76 92 3f 77 a3 90 3f 00 15 45 bf 7c 09 6c 3f
       1.1442525 1.1299886 -0.7698517 0.9220197
000190 c5 f1 77 bf 7d da 0e bf 95 b0 99 3f d9 9e 1a bf
       -0.96853286 -0.55802137 1.2007014 -0.6039863
0001a0 76 fa 48 bf de 6f 5c bf 7e 21 67 3f 47 b6 62 3f
       -0.78507173 -0.86108196 0.9028548 0.88559383
0001b0 f7 2c 78 3f 4c 84 8c 3f 2e 12 39 bf c4 f2 2a bf
       0.9694361 1.0977874 -0.72293365 -0.6677668
0001c0 0e 11 8f 3f c1 7f 5f bf 04 41 8b 3f 7b 09 8d 3f
       1.117708 -0.8730431 1.0879216 1.1018518
0001d0 79 66 49 bf 01 0e 9a 3f 83 51 71 3f 50 f4 91 3f
       -0.78671986 1.2035524 0.94265 1.1402683
0001e0 9c 4d 3f bf bb 08 68 3f d3 b3 65 3f 2b 3c 81 3f
       -0.747278 0.9063832 0.89727515 1.0096487
0001f0 0f 3a 88 3f 6d f7 32 3f 47 56 9f 3f b8 72 5f 3f
       1.0642718 0.6990879 1.2448205 0.8728442

model.lstm.bias_hh_l1 f4 [128]
000000 86 a7 5f 3f 25 4e 68 3f ff 6a 6e bf 7c 0a 9a 3f
       0.87364995 0.9074424 -0.93132013 1.203445
000010 c5 d3 61 bf b3 2a 3a bf 07 3e 8a 3f 7b 49 34 bf
       -0.8821376 -0.72721404 1.0800179 -0.7042462
000020 78 37 1e bf 8b c7 41 bf 87 97 79 3f cb eb 77 3f
       -0.6180339 -0.75695103 0.9749684 0.96844167
000030 91 28 84 3f bc 06 6e 3f 67 3b 38 bf 82 b1 2f bf
       1.032488 0.92979026 -0.7196564 -0.6863023
000040 f6 ab 60 3f 02 9d 7c bf 1a 69 92 3f 5b 60 87 3f
       0.8776239 -0.98677075 1.1438324 1.057628
000050 1d 55 3a bf 43 d6 86 3f 21 8c 62 3f 51 7c 89 3f
       -0.7278612 1.0534137 0.8849507 1.0741063
000060 5b 5a 4b bf 98 1c 73 3f 12 3a 9e 3f 5f a5 83 3f
       -0.79434747 0.94965506 1.2361472 1.0284842
000070 50 a4 97 3f de d0 39 3f d7 0d 9d 3f 92 92 72 3f
       1.1847019 0.7258433 1.2269849 0.947549
000080 fe ed de bd d4 c7 90 bc 1f bd b6 3c bc 68 61 3d
       -0.10885237 -0.01767341 0.022306977 0.055031523
000090 d7 8f 23 be de 59 24 3e a6 e2 13 be 43 5c 66 3d
       -0.1597284 0.16049907 -0.14441928 0.05624033
0000a0 ad 83 63 3d a5 04 89 bd de 52 0d be 63 5d 22 3e
       0.055545498 -0.06690339 -0.13801143 0.15855937
0000b0 5b 6e 5f 3d b1 be 19 be 08 8c cc 3d 16 53 48 3d
       0.054548603 -0.15014149 0.09987646 0.048907362
0000c0 c3 09 cb 3c 63 df e0 bd 2e 94 27 3e b0 09 12 be
       0.024784928 -0.10980108 0.1636512 -0.14261508
0000d0 2b 39 ff 3d ac e6 88 bc 7f 21 35 bd 8d 2c 88 bd
       0.12462076 -0.016711555 -0.044221397 -0.066491224
0000e0 9e 1f 09 3e c1 f1 97 3d 6e e9 7c 3d 80 8d 17 3e
       0.13390967 0.07419158 0.061746053 0.14800072
0000f0 c8 39 01 3e 72 54 f6 3c a0 43 31 be 87 45 fc bd
       0.12619698 0.030069564 -0.17310953 -0.12317949
000100 d1 42 e5 3e 3e 21 3f bf 9a 32 bb 3e e7 bc 5f 3f
       0.4477754 -0.746601 0.36562043 0.8739762
000110 e8 a3 03 bf 07 d7 3b be 91 d1 57 3f eb 75 0c bf
       -0.51421976 -0.18343745 0.8430415 -0.5486743
000120 1f bd af 3e b7 a9 04 bf 11 7e 81 3f 3c cb 22 3f
       0.34323975 -0.51821464 1.0116597 0.6359136
000130 63 c9 43 3f e8 c9 79 3f 16 75 d7 be d5 45 da 3e
       0.76479167 0.9757371 -0.42081517 0.42631403
000140 e1 13 71 3f f7 39 11 3f 0f b9 65 bf f1 c2 5e bf
       0.9417096 0.5672907 -0.897355 -0.87016207
000150 8d 16 05 3e 68 69 18 3f d3 0c 6b bf 59 8b 4b bf
       0.12996884 0.5953584 -0.91816443 -0.795095
000160 38 fe 0a 3f 4f 6e 61 bf 60 d9 49 3f 80 64 67 3f
       0.5429416 -0.8805894 0.7884731 0.90387726
000170 51 58 46 3f 36 a3 11 bf 89 c5 e9 be 29 f9 48 bf
       0.7747851 -0.56889665 -0.4565852 -0.7850519
000180 75 a5 61 3f d9 98 86 3f d8 04 59 bf 8e 4f 6f 3f
       0.8814309 1.0515395 -0.84773016 0.93480766
000190 a3 09 6a bf 78 a5 51 bf d7 8b 9a 3f 18 91 34 bf
       -0.91420954 -0.8189311 1.2073926 -0.70533895
0001a0 e2 73 14 bf 89 3a 4a bf 65 ed 8d 3f 8e 60 51 3f
       -0.57989323 -0.7899557 1.1088072 0.81787956
0001b0 d1 02 8f 3f ff 60 95 3f 55 11 53 bf 8b 72 11 bf
       1.1172734 1.1670226 -0.8244832 -0.56815404
0001c0 58 52 95 3f 9b 1f 30 bf d3 00 7f 3f a5 21 8a 3f
       1.1665754 -0.68798226 0.9961063 1.0791517
0001d0 7f b5 77 bf 5d c8 85 3f e1 91 85 3f 32 b2 6f 3f
       -0.96761316 1.0451771 1.0435144 0.9363128
0001e0 3b 57 62 bf b1 93 6c 3f 38 ed 74 3f ae 74 7a 3f
       -0.88414353 0.9241286 0.9567447 0.9783429
0001f0 c2 51 6e 3f ab f8 49 3f 1a 84 95 3f 97 63 93 3f
       0.930935 0.7889506 1.1680939 1.1514767

model.linear.weight f4 [1, 32]
000000 50 ef 2d 40 6a 78 30 c0 79 72 1b 3e a1 e0 3b 40
       2.7177315 -2.7573495 0.15180387 2.9355853
000010 86 3f bf 3a 8d d3 d1 be dd 5d 3c 40 a3 15 02 bf
       0.0014591075 -0.40981713 2.943229 -0.50814265
000020 1e 33 dc 3e 09 69 6f be 58 28 36 40 ba 1b 25 40
       0.4300775 -0.23379911 2.8462124 2.5798173
000030 6e 33 2d 40 da dc 37 40 c9 4c 03 3f 30 dc d7 3e
       2.706264 2.8728547 0.5128904 0.42160177
000040 48 0a 3d 40 a4 57 4d 3e 6e 43 38 c0 d9 9d 3e c0
       2.9537525 0.20052963 -2.8791156 -2.9783843
000050 53 74 85 3e ef a8 32 40 5f 82 3a c0 61 a5 3e c0
       0.2606531 2.791561 -2.9142072 -2.978844
000060 20 b5 48 3d e1 84 3d c0 f1 67 3b 40 67 ba 3c 40
       0.04900086 -2.9612353 2.928219 2.948877
000070 19 a0 3f 40 46 d6 1f c0 ce e3 2f c0 e7 8c 3d c0
       2.9941466 -2.4974532 -2.748279 -2.961725

exp_avg f4 [128, 1]
000000 1d 9e a8 b2 63 28 18 ba 0f db df 37 e0 0c 7f 37
       -1.9629676e-08 -0.0005804358 2.6685679e-05 1.5202182e-05
000010 2c c1 95 b0 43 01 45 36 a3 71 db ba 2a 43 f0 bd
       -1.089608e-09 2.9356022e-06 -0.001674224 -0.117315605
000020 00 00 00 00 da 7d e9 31 05 b0 63 38 7e 56 a1 bb
       0.0 6.7955e-09 5.428495e-05 -0.0049236408
000030 e6 2f 0f 32 ab b1 0f 3e 10 85 1f 36 37 35 15 be
       8.334586e-09 0.14032619 2.37703e-06 -0.14571081
000040 2c 39 89 b3 9f 04 42 30 81 f7 a4 b6 96 e3 ec 2b
       -6.389959e-08 7.0583356e-10 -4.916394e-06 1.6831976e-12
000050 1d f0 8f 33 22 2f d6 3a 12 17 01 bd 8b 6d 33 30
       6.702633e-08 0.0016340951 -0.031516142 6.527549e-10
000060 07 d3 17 37 94 e8 d1 bc 09 7b 2a 38 22 6f 69 b7
       9.049435e-06 -0.025623597 4.0645744e-05 -1.3913757e-05
000070 a6 34 7e bf 4c a7 1d b4 63 08 b8 ba 2e 7c 03 bb
       -0.99299085 -1.4682627e-07 -0.0014040585 -0.002006303
000080 00 00 00 00 00 00 00 00 00 00 00 00 00 00 00 00
       0.0 0.0 0.0 0.0
000090 00 00 00 00 00 00 00 00 00 00 00 00 00 00 00 00
       0.0 0.0 0.0 0.0
0000a0 00 00 00 00 00 00 00 00 00 00 00 00 00 00 00 00
       0.0 0.0 0.0 0.0
0000b0 00 00 00 00 00 00 00 00 00 00 00 00 00 00 00 00
       0.0 0.0 0.0 0.0
0000c0 00 00 00 00 00 00 00 00 00 00 00 00 00 00 00 00
       0.0 0.0 0.0 0.0
0000d0 00 00 00 00 00 00 00 00 00 00 00 00 00 00 00 00
       0.0 0.0 0.0 0.0
0000e0 00 00 00 00 00 00 00 00 00 00 00 00 00 00 00 00
       0.0 0.0 0.0 0.0
0000f0 00 00 00 00 00 00 00 00 00 00 00 00 00 00 00 00
       0.0 0.0 0.0 0.0
000100 75 ee d1 b6 eb 5b 17 b1 3c 0e a8 35 9e ab 24 0f
       -6.2564454e-06 -2.2025641e-09 1.2521118e-06 8.1188765e-30
000110 cf 25 b0 31 c0 8b 5f b5 ef 42 2b ba 37 af 70 bc
       5.1265725e-09 -8.3277337e-07 -0.0006533106 -0.014690212
000120 00 00 00 00 00 00 00 00 00 00 00 00 00 00 00 00
       0.0 0.0 0.0 0.0
000130 57 b2 de b3 f3 da 2d 32 8b 4b 08 35 00 00 00 00
       -1.03701204e-07 1.0119709e-08 5.077388e-07 0.0
000140 2f 4c c5 b2 5f 87 49 32 00 00 00 00 00 00 00 00
       -2.2968463e-08 1.173052e-08 0.0 0.0
000150 00 00 00 00 d2 58 11 36 00 00 00 00 f2 17 52 2d
       0.0 2.1658384e-06 0.0 1.1942435e-11
000160 76 ad a5 20 00 00 00 00 fe 6d 4b 39 3d 02 6d 38
       2.8066874e-19 0.0 0.00019400564 5.6507288e-05
000170 00 00 00 00 00 00 00 00 6e 0e b8 b8 00 00 00 00
       0.0 0.0 -8.7764914e-05 0.0
000180 1f d2 d8 ba 51 d5 7f b3 94 d5 a0 36 31 b6 04 3a
       -0.0016542113 -5.9565824e-08 4.7932353e-06 0.0005062549
000190 83 d8 5a bf 8d 7a 44 36 d4 d0 03 b8 6d c3 0e bd
       -0.8548662 2.927761e-06 -3.142732e-05 -0.03485434
0001a0 70 b0 26 33 dc 71 24 2f 54 d1 db 30 5b dc a6 bb
       3.8810356e-08 1.4956164e-10 1.5993842e-09 -0.0050921864
0001b0 85 5a 89 36 15 9b 84 39 60 1e 66 3b 33 57 7d b2
       4.093456e-06 0.00025292547 0.003511332 -1.4746365e-08
0001c0 85 f3 d3 bf f6 d6 b6 38 18 00 3e bb c0 fc f4 36
       -1.6558691 8.718476e-05 -0.0028991755 7.3011906e-06
0001d0 a5 49 6a 33 8d 12 06 3b e2 8f 08 b7 00 00 00 00
       5.454935e-08 0.0020457834 -8.139732e-06 0.0
0001e0 30 39 36 3b 10 34 91 be 62 c0 30 38 bd 1b 09 b7
       0.0027805082 -0.28360033 4.214084e-05 -8.172295e-06
0001f0 44 b6 e7 b4 8e 48 9e c0 03 a5 3f b3 76 37 38 b2
       -4.315972e-07 -4.946357 -4.462073e-08 -1.072282e-08

exp_avg_sq f4 [128, 1]
000000 a6 f7 97 28 35 7e 77 37 f1 eb 05 33 b9 d8 2d 32
       1.6871768e-14 1.4751732e-05 3.1181063e-08 1.0119202e-08
000010 99 bc 6f 24 67 71 cf 2f 22 f1 6e 38 15 41 1a 3f
       5.1984612e-17 3.7733658e-10 5.6968194e-05 0.6025556
000020 00 00 00 00 fb b2 11 27 b3 8b 0a 34 dc dc 5f 3a
       0.0 2.0219818e-15 1.2903074e-07 0.00085396855
000030 b5 2b 5b 27 a0 b9 5c 3f c4 a3 56 2f c0 dc 40 3f
       3.0416049e-15 0.8622074 1.9521368e-10 0.7533684
000040 35 4b 49 2a c3 b1 c8 23 3f 75 91 30 4e f8 15 1b
       1.7878479e-13 2.1759328e-17 1.0583462e-09 1.2405223e-22
000050 a5 79 5d 2a 7a cf c3 38 3a c1 0c 3d ea 13 ac 23
       1.9670947e-13 9.33697e-05 0.034363963 1.8656711e-17
000060 43 10 e5 32 e4 81 eb 3c 11 58 9b 33 9f a0 11 32
       2.6666504e-08 0.02874846 7.233769e-08 8.476632e-09
000070 22 06 0c 42 5e fc f2 2a fa 05 b5 38 94 cf 38 39
       35.00599 4.316295e-13 8.631866e-05 0.00017624936
000080 00 00 00 00 00 00 00 00 00 00 00 00 00 00 00 00
       0.0 0.0 0.0 0.0
000090 00 00 00 00 00 00 00 00 00 00 00 00 00 00 00 00
       0.0 0.0 0.0 0.0
0000a0 00 00 00 00 00 00 00 00 00 00 00 00 00 00 00 00
       0.0 0.0 0.0 0.0
0000b0 00 00 00 00 00 00 00 00 00 00 00 00 00 00 00 00
       0.0 0.0 0.0 0.0
0000c0 00 00 00 00 00 00 00 00 00 00 00 00 00 00 00 00
       0.0 0.0 0.0 0.0
0000d0 00 00 00 00 00 00 00 00 00 00 00 00 00 00 00 00
       0.0 0.0 0.0 0.0
0000e0 00 00 00 00 00 00 00 00 00 00 00 00 00 00 00 00
       0.0 0.0 0.0 0.0
0000f0 00 00 00 00 00 00 00 00 00 00 00 00 00 00 00 00
       0.0 0.0 0.0 0.0
000100 23 8f eb 30 b9 e6 74 25 c3 f4 96 2e 00 00 00 00
       1.7139182e-09 2.1241798e-16 6.864689e-11 0.0
000110 f2 d7 a5 26 18 8d 05 2e 32 c5 9c 37 66 d0 1a 3c
       1.1507707e-15 3.0366015e-11 1.8688475e-05 0.0094491
000120 00 00 00 00 00 00 00 00 00 00 00 00 00 00 00 00
       0.0 0.0 0.0 0.0
000130 da 89 04 2b 93 9a a1 27 f9 ea 41 2d 00 00 00 00
       4.708713e-13 4.4854066e-15 1.1022954e-11 0.0
000140 79 74 ec 27 58 14 d9 27 00 00 00 00 00 00 00 00
       6.562944e-15 6.0251656e-15 0.0 0.0
000150 00 00 00 00 c5 de 39 2f 00 00 00 00 84 ee eb 1d
       0.0 1.6904796e-10 0.0 6.24506e-21
000160 9d 68 1c 04 00 00 00 00 9b 31 dd 35 23 1f 16 34
       1.8385748e-36 0.0 1.648022e-06 1.3981166e-07
000170 00 00 00 00 00 00 00 00 df 11 b5 34 00 00 00 00
       0.0 0.0 3.372688e-07 0.0
000180 f4 45 fb 38 37 79 ba 29 fc 42 8a 30 65 46 3c 37
       0.000119816425 8.281087e-14 1.005986e-09 1.1222063e-05
000190 39 8e cf 41 11 56 ce 2f cb bd 39 33 e2 df 59 3d
       25.944445 3.7532336e-10 4.3246285e-08 0.053192027
0001a0 e4 82 94 29 f5 89 90 21 db 0d 02 25 8a 05 67 3a
       6.595226e-14 9.794336e-19 1.1280397e-16 0.0008812776
0001b0 15 ad 49 30 51 f9 3b 36 3f 4a 82 39 0f 86 2b 28
       7.336934e-10 2.8010293e-06 0.0002485085 9.521476e-15
0001c0 24 af c2 42 0e af b2 34 29 f4 c0 39 29 66 20 31
       97.34207 3.3282453e-07 0.00036803007 2.3341136e-09
0001d0 c3 b1 12 2a 37 86 eb 38 bc 5b 47 31 00 00 00 00
       1.3029078e-13 0.00011230673 2.9010456e-09 0.0
0001e0 f5 27 b3 39 c6 62 61 40 80 fb a6 33 e1 f4 48 31
       0.0003417131 3.5216537 7.775725e-08 2.9243028e-09
0001f0 b6 f7 98 2c 20 ef 2f 44 cc 4e c4 29 a4 62 b5 27
       4.3476013e-12 703.7363 8.7178176e-14 5.034454e-15
