dl_computer_vision/assignments/1/checkpoints/best_checkpoint-v17.ckpt (torch, 75964 bytes, 27 tensors)

model.lstm.weight_ih_l0 f4 [80, 1]
0.17668147 22.47119 22.596926 22.573391 -21.07754 18.421993 22.483164 22.566015
0.19691645 0.17110139 -22.52118 -10.648442 -0.17907315 22.442936 0.16764435 -10.256576
0.22045456 -22.534784 22.512894 0.17239842 0.1329326 0.16553545 0.056161728 -0.06571636
0.059303485 0.22356695 -0.10256605 -0.07752892 -0.22079213 0.12870146 0.092803985 -0.09631471
0.13105525 0.11932655 -0.10910208 -0.1623655 -0.05535325 0.13926962 -0.03806846 0.14542662
22.524729 -0.18573168 22.568106 -22.601812 -0.03178761 -0.24129608 0.20332675 -22.556656
-0.1209809 0.13085325 -0.1642653 -0.0951262 -0.1038071 0.117869906 0.21924102 -0.135137
0.067623466 -0.18999754 0.10474241 0.18720423 0.22115122 8.456161 22.585855 22.560772
-20.753544 18.396006 0.18600327 22.570858 0.047295768 -22.506227 -22.625723 -10.728391
-0.10648756 12.284434 22.533659 0.21125117 -8.691578 0.1944769 22.485773 -22.34144
00000000: fdeb 343e ffc4 b341 81c6 b441 4e96 b441
00000010: cd9e a8c1 3e60 9341 85dd b341 3387 b441
00000020: 77a4 493e 3435 2f3e 602b b4c1 0560 2ac1
00000030: f45e 37be 228b b341 f6aa 2b3e ef1a 24c1
00000040: d7be 613e 3d47 b4c1 681a b441 3689 303e
00000050: 7c1f 083e 2082 293e d709 663d 4d96 86bd
00000060: 36e8 723d bcee 643e 260e d2bd 7bc7 9ebd
00000070: 5517 62be 51ca 033e 0410 be3d a640 c5bd
00000080: 5933 063e 7a61 f43d e970 dfbd 2443 26be
00000090: 17ba 62bd b29c 0e3e aced 1bbd b7ea 143e
000000a0: a532 b441 7230 3ebe 7b8b b441 83d0 b4c1
000000b0: ba33 02bd 5216 77be e334 503e 0874 b4c1
000000c0: d6c4 f7bd 65fe 053e 2a35 28be 86d1 c2bd
000000d0: d198 d4bd c765 f13d b880 603e 5b61 0abe
000000e0: 2c7e 8a3d b78e 42be 3083 d63d 77b2 3f3e
000000f0: 7775 623e 6f4c 0741 d5af b441 767c b441
00000100: 4207 a6c1 052b 9341 a477 3e3e 1e91 b441
00000110: 35b9 413d c10c b4c1 7b01 b5c1 7da7 2bc1
00000120: 2616 dabd 0b8d 4441 ef44 b441 3a52 583e
00000130: b410 0bc1 f424 473e dde2 b341 45bb b2c1

model.lstm.weight_hh_l0 f4 [80, 20]
0.038979452 0.008354126 -0.04614331 -0.17538282 0.098936915 0.1699982 -0.060271338 0.155156
-0.20435241 -0.043716677 0.070050225 0.11665738 0.1111588 -0.18764992 0.100098796 -0.14447556
0.0483569 0.19081092 0.0032268963 -0.13250893 0.16156664 0.0072255908 -0.049434446 0.09414984
-0.21182942 -0.16513553 -0.110111676 0.102068305 0.055087466 -0.0011884047 0.02051721 -0.06326811
-0.048546586 -0.17845336 0.17500311 0.20562686 0.1029793 0.03764311 -0.1494487 -0.016464243
-0.13924013 -0.116724364 -0.051321745 0.048974443 0.21904172 -0.011611303 0.2188302 -0.12912509
-0.18597265 -0.14260492 0.18779036 0.14944758 -0.013342318 -0.0350329 -0.20473444 -0.07889725
0.02199062 0.012513289 0.12353481 -0.12294838 0.16830976 -0.025443746 0.14351855 0.097621284
0.028945092 0.10875557 0.09049635 0.03366787 -0.11630104 0.19988596 -0.026629644 0.07311729
-0.11698898 -0.009341437 0.025015676 0.079349495 0.09275283 -0.2121453 -0.07745436 -0.1010445
0.07280926 -0.081523344 -0.11838778 -0.16737619 -0.055805124 -0.120168984 -0.1797665 -0.14495169
-0.11429288 -0.010875464 -0.11193745 0.16709766 -0.025968656 -0.18459165 -0.09140084 -0.11090533
0.09724058 -0.008853393 -0.0116890855 0.20849828 0.039352957 0.1199096 0.037643615 -0.16279218
0.1463321 -0.042536136 -0.04419694 -0.15749641 -0.03163876 -0.057093676 0.10539393 -0.21489441
-0.10673838 -0.20204493 0.13008878 0.07219044 0.19520216 -0.20649596 -0.19124678 0.17139253
-0.15730438 -0.06931692 -0.17128465 0.20153722 -0.09388526 0.113609046 -0.16263667 -0.20365702
-0.1989755 0.14067698 -0.14495619 -0.15809207 -0.031222314 0.1112915 -0.13285553 0.08105279
-0.14716737 0.02427456 -0.066495754 -0.14014463 -0.14910318 -0.06970706 -0.0032714652 0.079999395
-0.20763399 0.030697858 -0.1413484 -0.16889168 -0.08871095 0.21686696 0.07322637 -0.09817845
-0.028682584 0.076786816 -0.15374377 0.20712635 -0.095226936 -0.12772493 0.2218051 -0.1115761
-0.19458456 -0.10417226 0.21334557 0.16621001 -0.10210613 0.057082534 -0.032267842 0.08835714
0.08976968 0.15492874 0.019929817 0.0072488347 -0.14224139 -0.20089318 0.1614137 -0.11992084
-0.19734071 0.05015125 0.097227864 0.08260257 -0.21238112 0.10031322 -0.20659149 0.0695427
-0.20434053 -0.14944386 -0.07414147 0.17311873 0.15531562 -0.17332439 -0.17797358 -0.21375956
0.18141644 0.21667627 0.16905515 -0.10047676 -0.1320489 -0.09685327 -0.08240976 -0.12555361
0.064350426 0.15398951 0.037643027 -0.00430969 -0.11139004 -0.09471327 -0.00045568444 0.044088848
-0.14222558 0.066911906 -0.09122621 0.20339805 0.15590632 -0.08762464 -0.0426893 -0.041883517
0.02749703 0.034577586 0.16892989 -0.062790625 0.10012713 0.09492031 0.040149704 0.14272156
-0.1253335 -0.05531988 -0.13430634 0.098901115 0.047496233 -0.19106466 -0.040977426 -0.10983088
-0.05734128 -0.108369306 0.1678151 0.08079164 0.20051315 0.008672798 -0.22190657 -0.10010914
-0.13419929 0.1968516 0.15751003 0.03257729 -0.18441172 -0.19005579 0.21417741 -0.085457616
0.04533598 0.21816814 -0.090976365 -0.018199041 0.09801491 -0.12694326 0.16928442 -0.09780345
00000000: eba8 1f3d bedf 083c c400 3dbd 8e97 33be
00000010: 709f ca3d 0214 2e3e 14df 76bd 37e1 1e3e
00000020: c241 51be 4210 33bd 7e76 8f3d 10ea ee3d
00000030: 3aa7 e33d 4d27 40be 9900 cd3d 67f1 13be
00000040: e311 463d f063 433e 567a 533b 6cb0 07be
00000050: ba71 253e a6c4 ec3b c67b 4abd a2d1 c03d
00000060: d0e9 58be 4a19 29be 3b82 e1bd 3009 d13d
00000070: 65a3 613d 3fc4 9bba b513 a83c b692 81bd
00000080: c9d8 46bd 7abc 36be 0434 333e d98f 523e
00000090: d0e6 d23d a92f 1a3d 1409 19be 05e0 86bc
000000a0: f794 0ebe 2f0d efbd c036 52bd 6d99 483d
000000b0: 794c 603e 563d 3ebc 0615 603e 5e39 04be
000000c0: 9d6f 3ebe 0607 12be 1e4c 403e c908 193e
000000d0: bd99 5abc a87e 0fbd e8a5 51be e294 a1bd
000000e0: ac25 b43c 8a04 4d3c d2ff fc3d 5ccc fbbd
000000f0: 6559 2c3e 676f d0bc 87f6 123e abed c73d
00000100: 421e ed3c 3ebb de3d 2656 b93d 52e7 093d
00000110: 3d2f eebd e8ae 4c3e 6926 dabc 85be 953d
00000120: eb97 efbd d40c 19bc aded cc3c fd81 a23d
00000130: 32f5 bd3d 9e3c 59be 64a0 9ebd 6bf0 cebd
00000140: 051d 953d b6f5 a6bd 4b75 f2bd aa64 2bbe
00000150: ea93 64bd 281b f6bd b614 38be 376e 14be
00000160: 6312 eabd 012f 32bc 763f e5bd a61b 2b3e
00000170: 38bc d4bc 9805 3dbe 5d30 bbbd 5522 e3bd
00000180: 1226 c73d d20d 11bc 9483 3fbc 9380 553e
00000190: 9130 213d 2a93 f53d 3130 1a3d feb2 26be
000001a0: 15d8 153e 5f3a 2ebd da07 35bd bd46 21be
000001b0: a597 01bd 0fdb 69bd c6d8 d73d 480d 5cbe
000001c0: a799 dabd dee4 4ebe fe35 053e 95d8 933d
000001d0: 13e3 473e ad73 53be 32d6 43be 8681 2f3e
000001e0: 6614 21be 08f6 8dbd 3e65 2fbe c65f 4e3e
000001f0: ea46 c0bd dcab e83d 3a8a 26be 778b 50be
00000200: 3cc0 4bbe a00d 103e 656f 14be e3e2 21be
00000210: f0c5 ffbc ccec e33d 480b 08be 01ff a53d
00000220: 0bb3 16be 71db c63c ed2e 88bd 1382 0fbe
00000230: 81ae 18be 93c2 8ebd 1466 56bb b9d6 a33d
00000240: 019e 54be 137a fb3c a3bd 10be f1f1 2cbe
00000250: 16ae b5bd 5f12 5e3e b5f7 953d c811 c9bd
00000260: bdf7 eabc 6842 9d3d 026f 1dbe ee18 543e
00000270: 5706 c3bd 53ca 02be e020 633e 0382 e4bd
00000280: 2d41 47be 4458 d5bd 4377 5a3e f532 2a3e
00000290: 051d d1bd 60cf 693d 492b 04bd 97f4 b43d
000002a0: 2ad9 b73d a4a5 1e3e db43 a33c a287 ed3b
000002b0: baa7 11be f1b6 4dbe a249 253e 0f99 f5bd
000002c0: af13 4abe 666b 4d3d 671f c73d 892b a93d
000002d0: 707a 59be 0471 cd3d b88c 53be 676c 8e3d
000002e0: a53e 51be d007 19be 7cd7 97bd 0946 313e
000002f0: 0f0b 1f3e f37b 31be b53e 36be c9e3 5abe
00000300: 3bc5 393e 62e0 5d3e cb1c 2d3e c2c6 cdbd
00000310: d437 07be 025b c6bd 73c6 a8bd 2091 00be
00000320: 28ca 833d 6daf 1d3e 932f 1a3d 4d38 8dbb
00000330: 7620 e4bd 08f9 c1bd eee8 eeb9 8296 343d
00000340: 95a3 11be 1c09 893d cfd4 babd 9447 503e
00000350: e8a5 1f3e 8c74 b3bd fada 2ebd 0d8e 2bbd
00000360: 7441 e13c 3aa1 0d3d f5fb 2c3e 5f98 80bd
00000370: 740f cd3d 9465 c23d 0474 243d 9a25 123e
00000380: 6d57 00be 1997 62bd 9a87 09be ab8c ca3d
00000390: 698b 423d 74a6 43be f2d7 27bd 03ef e0bd
000003a0: b1de 6abd baf0 ddbd b9d7 2b3e 1676 a53d
000003b0: 5253 4d3e 5a18 0e3c 7a3b 63be 0506 cdbd
000003c0: 8a6b 09be 7793 493e 4f4a 213e c46f 053d
000003d0: 6dd6 3cbe fc9d 42be 5351 5b3e 6704 afbd
000003e0: 38b2 393d 7867 5f3e d151 babd 2816 95bc
000003f0: 0bbc c83d 6afd 01be e558 2d3e 2d4d c8bd

model.lstm.bias_ih_l0 f4 [80]
0.021956846 22.319244 22.696209 22.76105 -2.4910111 1.1696188 22.534925 22.358387
-0.074897915 -0.06797937 -22.364868 -0.24801268 -0.073869854 22.346134 0.012571266 -0.35651582
0.12245447 -22.601868 22.705515 -0.13666263 -0.22133842 -0.22234511 0.20770942 0.05101184
-0.07136637 0.052215464 -0.13384885 0.06800254 0.14947343 -0.065945126 -0.01231121 0.06701797
0.20527945 0.048452493 -0.10796515 0.12269702 -0.011307425 0.13247982 -0.17933829 -0.18842576
22.560358 0.09382685 22.581295 -22.024612 -0.039303932 -0.15554337 0.2025514 -17.586214
0.19064173 -0.15305786 0.08334139 0.08134731 0.10148822 -0.031292632 -0.0017892312 -0.059260435
-0.11281134 0.1090191 -0.15249363 0.004094629 -0.12018794 -0.007263934 22.661787 22.632309
-2.3176649 1.1591513 -0.12016459 22.442377 0.21974967 -22.331488 -22.601944 -0.20182286
0.12130817 0.29486907 22.389652 -0.089316204 -0.31265086 0.17038976 22.652441 -8.684151
00000000: d8de b33c d08d b241 d691 b541 a116 b641
00000010: ba6c 1fc0 12b6 953f 8747 b441 fadd b241
00000020: 1464 99bd c538 8bbd 40eb b2c1 09f7 7dbe
00000030: 1449 97bd e2c4 b241 b6f7 4d3c 3e89 b6be
00000040: 69c9 fa3d a0d0 b4c1 e5a4 b541 4af1 0bbe
00000050: 8aa6 62be 70ae 63be c7b1 543e cbf1 503d
00000060: 8828 92bd e2df 553d ac0f 09be ea44 8b3d
00000070: 900f 193e 3d0e 87bd f5b4 49bc b840 893d
00000080: c734 523e 1f76 463d d51c ddbd 9348 fb3d
00000090: c742 39bc caa8 073e 75a4 37be aff2 40be
000000a0: 9d7b b441 4b28 c03d 7ea6 b441 6832 b0c1
000000b0: 29fd 20bd c346 1fbe a269 4f3e 91b0 8cc1
000000c0: 9637 433e 33bb 1cbe e4ae aa3d 6b99 a63d
000000d0: 0ed9 cf3d b42c 00bd a384 eaba 12bb 72bd
000000e0: a209 e7bd 6845 df3d 4a27 1cbe 3d2c 863b
000000f0: 1825 f6bd 4b06 eebb 574b b541 f80e b541
00000100: 9f54 14c0 125f 943f da18 f6bd fd89 b341
00000110: 0f06 613e e3a6 b2c1 c8d0 b4c1 a7aa 4ebe
00000120: 6b70 f83d 14f9 963e 021e b341 6aeb b6bd
00000130: c613 a0be a77a 2e3e 3338 b541 48f2 0ac1

model.lstm.bias_hh_l0 f4 [80]
0.2192878 22.331278 22.367521 22.633823 -2.7185345 1.1434484 22.360369 22.341799
-0.06059776 0.14248891 -22.62762 -0.12873212 -0.036154963 22.357327 -0.07431436 -0.26089832
-0.10537794 -22.71631 22.481026 0.13419786 0.041330513 0.18155287 0.02208229 0.06494805
0.14857805 -0.111152515 0.066975914 0.21839845 -0.13286296 -0.18913506 0.21478625 0.1817655
-0.10179551 -0.1739845 0.13642621 0.06803349 -0.13845858 0.13239814 0.035869043 -0.018949596
22.462582 0.13556683 22.580881 -22.147667 0.19762622 0.059700776 -0.19081716 -17.841785
0.18892045 -0.08814235 0.17713937 -0.16630934 0.03358441 0.1894883 0.074659556 -0.0358068
-0.16216858 0.03560235 -0.1800768 0.1650717 0.023468241 -0.058131095 22.539824 22.649498
-2.3143332 1.0007445 -0.04870415 22.527822 -0.17168118 -22.731613 -22.486582 -0.23860444
0.21610133 0.15243164 22.386473 -0.12269709 0.03800056 0.0504848 22.60451 -8.246322
00000000: fb8c 603e 75a6 b241 aff0 b241 1212 b541
00000010: 78fc 2dc0 845c 923f 09e2 b241 01bc b241
00000020: 5b35 78bd 9de8 113e 5e05 b5c1 5ad2 03be
00000030: 3a17 14bd cedb b241 2132 98bd 7794 85be
00000040: 64d0 d7bd 01bb b5c1 24d9 b341 2a6b 093e
00000050: 2f4a 293d ffe8 393e ebe5 b43c 7c03 853d
00000060: d824 183e eea3 e3bd ab2a 893d d8a3 5f3e
00000070: 3a0d 08be 9fac 41be edf0 5b3e bc20 3a3e
00000080: 2a7a d0bd fe28 32be 50b3 0b3e 2455 8b3d
00000090: 16c8 0dbe 6193 073e 6beb 123d 2f3c 9bbc
000000a0: 5eb3 b341 08d2 0a3e a5a5 b441 6c2e b1c1
000000b0: 875e 4a3e cd88 743d 9365 43be fabb 8ec1
000000c0: 5d74 413e fa83 b4bd 0664 353e ff4c 2abe
000000d0: ce8f 093d 3909 423e 1ce7 983d 27aa 12bd
000000e0: 850f 26be c5d3 113d 0d66 38be 8e08 293e
000000f0: 7840 c03c df1a 6ebd 8f51 b441 2c32 b541
00000100: 091e 14c0 6518 803f 017e 47bd fb38 b441
00000110: 31cd 2fbe 58da b5c1 85e4 b3c1 b954 74be
00000120: ab49 5d3e 0a17 1c3e 7f17 b341 9d48 fbbd
00000130: 7aa6 1b3d 26c9 4e3d 09d6 b441 eff0 03c1

model.lstm.weight_ih_l1 f4 [80, 20]
-22.577936 -22.331701 22.498074 -22.469759 0.36590204 -0.13302991 22.723366 -22.458225
0.07805088 22.704678 -22.581646 -0.15764026 -0.02602469 22.251429 22.571611 0.098089546
-0.06586192 -22.707409 22.29111 0.57060415 22.654907 22.410149 -22.323685 22.736551
-0.70128804 0.08143618 -22.444548 22.563862 -0.08735663 -22.474558 22.646017 -0.16329424
0.003866213 -22.470697 -22.32801 -0.090405256 -0.014270308 22.410769 -22.422922 -1.229123
-22.62495 -22.685696 22.627178 -22.426422 0.73704296 -0.44040778 22.384336 -22.706476
0.012856834 22.585585 -22.457912 -0.122569926 0.11306892 22.486835 22.606106 -0.239143
0.07899078 -22.70257 22.578356 1.326773 22.53048 22.682241 -22.632208 22.66159
-1.7943149 0.30218238 -22.631227 22.579435 0.016934542 -22.327631 22.440458 0.16067624
0.1406432 -22.65042 -22.623465 0.22499366 -0.063533925 22.524672 -22.491772 -2.7492664
22.54875 22.378628 -22.50242 22.388386 -2.5221617 0.79476357 -22.524733 22.470224
0.17095582 -22.702728 22.716513 0.11102124 -0.06476972 -22.435223 -22.702148 0.04263422
-0.01201257 22.53986 -22.757479 -4.2390285 -22.646282 -22.635464 22.558027 -22.624989
0.30990922 -0.2299008 22.491728 -22.683466 -0.13744147 22.329697 -22.382824 0.05934063
0.19045824 22.08239 22.36271 0.03892904 0.2264134 -22.590902 22.5044 0.16540098
-22.641523 -22.424927 22.615345 -22.603434 0.61054254 -0.09315229 22.629644 -22.609257
-0.087624975 22.38299 -22.54543 -0.21085851 -0.10293763 22.21728 22.60304 -0.046953186
0.00023969745 -22.523628 22.304869 0.81135094 -22.567833 -22.464075 22.669924 -22.320293
1.8814611 -0.47816542 22.512905 -22.745028 -0.1950434 22.34692 -22.661842 0.048477966
0.10646601 22.447659 22.702206 -0.14484818 0.045409534 -22.337713 22.57412 2.8673701
22.494532 22.650543 -22.653727 22.626852 0.00041291473 -0.18998179 -22.506771 22.41459
0.08955511 -22.70378 22.183008 -0.17830303 0.21078394 -21.40374 -22.701954 0.12627378
-0.16589113 22.454739 -22.263824 -0.13748115 -22.648386 -22.428389 22.640625 -22.375776
0.19498064 0.18389282 22.331272 -22.652933 -0.17935005 22.500275 -22.603989 -0.12691306
-0.081724755 21.556719 22.535603 0.028103685 -0.076924175 -22.559269 22.574408 0.2869744
22.502874 22.528252 -22.418127 22.341974 -0.6449538 0.3305468 -22.607107 22.619478
0.023611516 -22.584084 22.302181 -0.081585735 -0.14108284 -22.496998 -22.399866 -0.09381056
-0.22574738 22.737974 -22.6127 -0.9570977 22.592035 22.608168 -22.630762 22.460575
-1.5031852 0.50001466 -22.744925 22.704714 -0.14088824 -22.607697 22.360798 0.22026575
-0.024586419 -22.6423 -22.41423 -0.07387505 -0.20606196 22.50027 -22.738653 -2.1723537
22.443537 22.531116 -22.472654 22.752846 -0.6238754 0.29906717 -22.480885 22.349236
-0.13996635 -22.529121 22.299746 0.14536238 0.21172297 -22.227047 -22.756273 -0.1872617
00000000: 9d9f b4c1 53a7 b2c1 0efc b341 11c2 b3c1
00000010: 8357 bb3e fe38 08be 74c9 b541 72aa b3c1
00000020: 24d9 9f3d 2ea3 b541 36a7 b4c1 736c 21be
00000030: bb31 d5bc ed02 b241 a992 b441 2ce3 c83d
00000040: 9de2 86bd c6a8 b5c1 3154 b241 1d13 123f
00000050: 403d b541 fc47 b341 e896 b2c1 75e4 b541
00000060: 9d87 33bf 03c8 a63d 6f8e b3c1 ca82 b441
00000070: 08e8 b2bd e5cb b3c1 0b2b b541 9b36 27be
00000080: 4a60 7d3b fdc3 b3c1 c49f b2c1 6426 b9bd
00000090: 03ce 69bc 4149 b341 2562 b3c1 e753 9dbf
000000a0: e6ff b4c1 4e7c b5c1 7604 b541 5069 b3c1
000000b0: d9ae 3c3f 217d e1be 1f13 b341 dda6 b5c1
000000c0: 78a5 523c 47af b441 cea9 b3c1 f105 fbbd
000000d0: ae90 e73d 0ae5 b341 4ed9 b441 e7e1 74be
000000e0: ebc5 a13d dd9e b5c1 79a0 b441 b3d3 a93f
000000f0: 6c3e b441 3b75 b541 c30e b5c1 f04a b541
00000100: 1cac e5bf a6b7 9a3e c10c b5c1 afa2 b441
00000110: 4fba 8a3c fd9e b2c1 0f86 b341 5088 243e
00000120: c504 103e 0f34 b5c1 dbfc b4c1 bd64 663e
00000130: 131e 82bd 8732 b441 26ef b3c1 fbf3 2fc0
00000140: d763 b441 6e07 b341 f504 b4c1 6a1b b341
00000150: 196b 21c0 a075 4b3f a732 b4c1 05c3 b341
00000160: 0b0f 2f3e 309f b5c1 6bbb b541 1b5f e33d
00000170: fda5 84bd 567b b3c1 009e b5c1 38a1 2e3d
00000180: 5fd0 44bc a251 b441 510f b6c1 1fa6 87c0
00000190: 962b b5c1 6e15 b5c1 d776 b441 faff b4c1
000001a0: 6cac 9e3e 1e6b 6bbe 0fef b341 bd77 b5c1
000001b0: 75bd 0cbe 38a3 b241 0610 b3c1 290f 733d
000001c0: 7c07 433e bca8 b041 d5e6 b241 0f74 1f3d
000001d0: ead8 673e 2bba b4c1 0309 b441 e05e 293e
000001e0: d721 b5c1 4066 b3c1 3aec b441 d5d3 b4c1
000001f0: 844c 1c3f a1c6 bebd 8309 b541 c2df b4c1
00000200: b974 b3bd 5d10 b341 0a5d b4c1 4beb 57be
00000210: f7d0 d2bd fdbc b141 07d3 b441 fc51 40bd
00000220: 4b57 7b39 6430 b4c1 5f70 b241 b2b4 4f3f
00000230: ec8a b4c1 6db6 b3c1 015c b541 f68f b2c1
00000240: b8d3 f03f 19d2 f4be 6e1a b441 d1f5 b5c1
00000250: 75b9 47be 7ec6 b241 744b b5c1 d590 463d
00000260: da0a da3d ce94 b341 1e9e b541 1553 14be
00000270: 59ff 393d a3b3 b2c1 cc97 b441 fe82 3740
00000280: cdf4 b341 5034 b541 d53a b5c1 cb03 b541
00000290: 7a7c d839 968a 42be de0d b4c1 1551 b341
000002a0: ab68 b73d 57a1 b5c1 cd76 b141 1295 36be
000002b0: bfd7 573e dc3a abc1 9a9d b5c1 ea4d 013e
000002c0: 5ddf 29be 4ea3 b341 501c b2c1 dcc7 0cbe
000002d0: e52f b5c1 576d b3c1 0020 b541 9701 b3c1
000002e0: 01a9 473e 664e 3c3e 72a6 b241 3539 b5c1
000002f0: 8aa7 37be 9000 b441 f8d4 b4c1 7ff5 01be
00000300: 4f5f a7bd 2974 ac41 ea48 b441 b339 e63c
00000310: 6c8a 9dbd 6279 b4c1 6398 b441 4fee 923e
00000320: e305 b441 dc39 b441 5358 b3c1 5dbc b241
00000330: b11b 25bf 6e3d a93e 5bdb b4c1 b1f4 b441
00000340: f06c c13c 34ac b4c1 de6a b241 6c16 a7bd
00000350: 0578 10be daf9 b3c1 ed32 b3c1 c01f c0bd
00000360: 522a 67be 5fe7 b541 cfe6 b4c1 5b04 75bf
00000370: 7dbc b441 87dd b441 cd0b b5c1 42af b341
00000380: 5f68 c0bf f600 003f 9bf5 b5c1 41a3 b541
00000390: 0245 10be 90dc b4c1 eae2 b241 588d 613e
000003a0: 7569 c9bc 6e23 b5c1 5850 b3c1 cd4b 97bd
000003b0: e801 53be 8e00 b441 c3e8 b5c1 d807 0bc0
000003c0: 5d8c b341 ba3f b441 ffc7 b3c1 d405 b641
000003d0: 4cb6 1fbf 551f 993e dad8 b3c1 3ccb b241
000003e0: 5753 0fbe a43b b4c1 e165 b241 e0d9 143e
000003f0: e8cd 583e fed0 b1c1 d90c b6c1 88c1 3fbe

model.lstm.weight_hh_l1 f4 [80, 20]
-0.14253785 0.07195256 0.071160585 0.07427003 -0.18741015 -0.011750555 0.15722859 0.18786693
0.17577422 -0.21291451 0.16492619 -0.09659505 -0.09468806 -0.22151187 -0.028897244 0.0072397185
0.124219075 -0.20364702 0.15218674 -0.20217614 0.11453063 0.20559624 -0.14194913 -0.21773551
0.17397352 -0.19747685 0.012484954 -0.11510746 -0.056474056 -0.100878194 -0.1922427 0.04154608
0.19406423 0.08229821 -0.10002019 -0.15597805 -0.20976868 -0.17652056 0.22288114 0.09349773
-0.14359759 0.022859233 -0.22173168 0.10816832 0.038748585 -0.1564802 0.20131826 0.0042923633
0.09291479 -0.0150488885 0.19338469 -0.022703322 0.013247929 0.057580654 -0.012878157 -0.09492353
-0.21482092 0.07289781 0.057753786 0.13261156 0.2000895 -0.08415446 0.06551087 0.19630817
0.0511854 -0.15580197 0.21469644 -0.068684615 -0.123231895 -0.07681779 -0.07802466 0.057173643
-0.046882264 0.1512778 -0.067607895 0.19637753 -0.2030866 -0.008188432 -0.18886136 -0.10384655
-0.11788305 0.11166681 -0.1401619 0.010495563 0.016627405 -0.21483873 -0.03176071 -0.2111143
0.18363987 0.074077524 0.059937444 -0.04191468 0.07341208 -0.21597475 -0.117752835 -0.20899326
0.05757935 0.21996652 0.13724475 0.072209634 -0.0718425 0.21203768 -0.114681125 0.024645532
0.039402377 0.11432727 -0.12395894 0.079804994 -0.12170472 0.03259867 -0.06320987 -0.16904445
0.18316372 -0.19437465 -0.19584203 -0.01705118 0.048299886 0.051315185 0.16839783 0.13609353
-0.12604685 0.14277454 -0.22116089 -0.21412744 -0.0014371054 -0.037280798 0.07015443 0.030535763
-0.16500013 0.21805672 -0.014872986 -0.045275867 -0.0018396643 0.014322619 -0.036413547 -0.06152881
0.091880456 -0.032397952 -0.18362257 -0.12444778 -0.1458473 0.058317453 0.120811746 0.19724376
-0.18445855 0.029429298 -0.19091502 -0.09383442 -0.19300042 -0.097526066 0.12385461 0.03138974
-0.021754768 -0.0098376395 0.028198324 -0.20153463 -0.03835325 0.11144613 0.094522655 -0.16556475
-0.018087354 0.06779612 -0.17312066 0.04219022 -0.06935795 0.08035576 0.21569489 0.060718626
0.102758855 0.2003461 0.11982192 0.14714697 0.08471191 0.16796933 0.05229029 -0.10777927
0.10469091 -0.21636371 -0.0020168468 0.05809701 -0.009621939 -0.12608862 -0.06840843 0.056121636
0.07795885 -0.19042303 0.046505243 -0.11702451 0.19543073 0.06447779 -0.012367854 -0.0990107
-0.18097566 0.1409644 0.069327 -0.12374508 -0.09100961 0.18491931 -0.11148328 -0.11884962
0.22297163 -0.11666393 0.13961403 0.027341306 0.1732931 0.157702 -0.057555865 -0.1322572
0.08326945 -0.1724765 -0.10373081 0.12899493 -0.15328313 0.08001414 0.18269244 0.07054049
0.13950874 -0.16653135 0.06902019 -0.16460241 0.14907132 -0.041575402 -0.06911684 0.18399613
-0.1504947 -0.11758159 0.16141255 -0.02029671 0.09974326 -0.047482 -0.19890772 -0.16756447
-0.2100372 0.15197267 0.12511887 0.017312624 0.10799753 -0.0029379185 0.0018898842 -0.20072776
0.02854621 0.0048927367 -0.01655426 -0.19121324 -0.047266405 0.07338956 -0.036709506 0.05930018
0.18772267 0.07380281 -0.027260724 -0.1491238 0.12868457 0.087455004 0.044990517 0.17704634
00000000: 71f5 11be dd5b 933d a4bc 913d e31a 983d
00000010: 72e8 3fbe 6685 40bc 8800 213e 3060 403e
00000020: 28fe 333e 4306 5abe 69e2 283e a0d3 c5bd
00000030: d0eb c1bd 02d4 62be eab9 ecbc 293b ed3b
00000040: 9266 fe3d d888 50be d7d6 1b3e 4307 4fbe
00000050: 098f ea3d d287 523e 1d5b 11be 0ff6 5ebe
00000060: 1d26 323e 5f37 4abe b18d 4c3c 76bd ebbd
00000070: 5751 67bd 3a99 cebd 45db 44be 392c 2a3d
00000080: c6b8 463e f78b a83d 63d7 ccbd b6b8 1fbe
00000090: 9acd 56be cec1 34be f43a 643e bd7b bf3d
000000a0: 3f0b 13be 4943 bb3c a10d 63be 5a87 dd3d
000000b0: d6b6 1e3d 583c 20be 6026 4e3e f4a6 8c3b
000000c0: 1c4a be3d 9d8f 76bc a306 463e 51fc b9bc
000000d0: d70d 593c b1d9 6b3d e8fe 52bc 4567 c2bd
000000e0: 04fa 5bbe 724b 953d 3c8f 6c3d 53cb 073e
000000f0: 43e4 4c3e 2c59 acbd 902a 863d 0205 493e
00000100: c8a7 513d 8d8a 1fbe 62d9 5b3e 85aa 8cbd
00000110: 0161 fcbd a552 9dbd 65cb 9fbd e92e 6a3d
00000120: 9e07 40bd 91e8 1a3e 0276 8abd 3117 493e
00000130: eff5 4fbe c628 06bc df64 41be 80ad d4bd
00000140: ab6c f1bd 92b1 e43d 9a86 0fbe 95f5 2b3c
00000150: 3236 883c affe 5bbe 8517 02bd 592e 58be
00000160: 170c 3c3e f5b5 973d f780 753d baae 2bbd
00000170: 1359 963d 7c28 5dbe 6628 f1bd 5402 56be
00000180: 53d8 6b3d e73e 613e e389 0c3e a5e2 933d
00000190: 2922 93bd 6820 593e f0dd eabd 6de5 c93c
000001a0: 6364 213d 6a24 ea3d 2fde fdbd cd70 a33d
000001b0: 5340 f9bd 2f86 053d 2d74 81bd fd19 2dbe
000001c0: 458f 3b3e 260a 47be d08a 48be ebae 8bbc
000001d0: 1ad6 453d df2f 523d 7b70 2c3e 1a5c 0b3e
000001e0: 6d12 01be 7d33 123e 0078 62be 3944 5bbe
000001f0: 415d bcba c0b3 18bd 20ad 8f3d 2326 fa3c
00000200: cbf5 28be 434a 5f3e d3ad 73bc 3073 39bd
00000210: e420 f1ba 6ba9 6a3c 5f26 15bd a205 7cbd
00000220: d22b bc3d b7b3 04bd 8e07 3cbe 7ade febd
00000230: ff58 15be 48de 6e3d 266c f73d 45fa 493e
00000240: b4e2 3cbe b615 f13c 3a7f 43be 432c c0bd
00000250: e7a1 45be bfbb c7bd 7ca7 fd3d 8792 003d
00000260: 0e37 b2bc 0d2e 21bc 2c00 e73c 185f 4ebe
00000270: 4c18 1dbd de3d e43d 1895 c13d ce89 29be
00000280: ee2b 94bc b1d8 8a3d 8b46 31be a7cf 2c3d
00000290: 8a0b 8ebd 9091 a43d 1fdf 5c3e 18b4 783d
000002a0: 3c73 d23d 8727 4d3e 3265 f53d b2ad 163e
000002b0: 707d ad3d 2700 2c3e 582e 563d 61bb dcbd
000002c0: 3068 d63d 738e 5dbe 132d 04bb 21f7 6d3d
000002d0: 56a5 1dbc 601d 01be b819 8cbd cddf 653d
000002e0: e4a8 9f3d 41fe 42be 487c 3e3d 8caa efbd
000002f0: fe1e 483e ee0c 843d 8aa2 4abc 1fc6 cabd
00000300: af51 39be f958 103e 50fb 8d3d 0f6e fdbd
00000310: 3f63 babd 7d5b 3d3e 5951 e4bd 6e67 f3bd
00000320: ad52 643e 80ed eebd fbf6 0e3e e0fa df3c
00000330: bf73 313e a27c 213e b3bf 6bbd 6e6e 07be
00000340: 2c89 aa3d ae9d 30be d270 d4bd 3f17 043e
00000350: 41f6 1cbe 74de a33d ba13 3b3e 8877 903d
00000360: 61db 0e3e 3287 2abe 755a 8d3d 898d 28be
00000370: 27a6 183e f84a 2abd 218d 8dbd 7b69 3c3e
00000380: 481b 1abe 9ece f0bd 5549 253e 4945 a6bc
00000390: 3246 cc3d 7c7c 42bd 77ae 4bbe 0596 2bbe
000003a0: fe13 57be b99e 1b3e 291f 003e 34d3 8d3c
000003b0: cf2d dd3d 188a 40bb feb5 f73a 948b 4dbe
000003c0: bed9 e93c 4053 a03b cd9c 87bc 67cd 43be
000003d0: 6b9a 41bd 444d 963d b55c 16bd bfe4 723d
000003e0: 5f3a 403e ed25 973d e251 dfbc e9b3 18be
000003f0: e3c5 033e 9c1b b33d fa47 383d a34b 353e

model.lstm.bias_ih_l1 f4 [80]
22.4099 -22.582819 22.707108 -22.688507 -22.377731 22.662043 22.678284 22.45353
-22.64279 22.76293 -22.697315 -22.557102 -22.549677 22.36973 -22.411615 -22.392561
-22.687836 -22.338814 22.733238 22.394892 -0.004683727 0.030082477 0.17327476 0.13162702
0.17187999 0.22045766 0.073550135 0.050029915 0.19830668 0.1225403 0.18684171 -0.11644906
-0.055533312 0.11000833 0.16920908 0.04487355 -0.0095255505 0.04156666 0.02280648 0.10207787
22.442904 -22.360647 22.711048 -22.554092 -22.597733 22.688791 22.529497 -22.640646
-22.424706 22.481865 22.523958 -22.474749 22.424852 -22.710115 22.419033 -22.443352
22.721466 22.54779 -22.558353 -22.66587 22.719046 -22.686838 22.502773 -22.71949
-22.435335 22.46543 22.740288 22.588264 -22.399311 22.750051 -22.60418 -22.464945
-22.571022 22.420963 -22.612131 -22.511253 -22.737377 -22.723646 22.678928 22.41087
00000000: 7a47 b341 9da9 b4c1 28a8 b541 1082 b5c1
00000010: 9805 b3c1 dd4b b541 206d b541 d4a0 b341
00000020: 6f24 b5c1 7b1a b641 1a94 b5c1 f274 b4c1
00000030: bd65 b4c1 35f5 b241 fd4a b3c1 f723 b3c1
00000040: b080 b5c1 e4b5 b2c1 acdd b541 bd28 b341
00000050: f379 99bb 876f f63c f06e 313e 3cc9 063e
00000060: 4f01 303e a7bf 613e 74a1 963d 2bec 4c3d
00000070: e810 4b3e 69f6 fa3d 6f53 3f3e d87c eebd
00000080: e676 63bd 0c4c e13d 2545 2d3e 54cd 373d
00000090: 0e11 1cbc cd41 2a3d a8d4 ba3c 340e d13d
000000a0: 118b b341 9be2 b2c1 3ab0 b541 c86e b4c1
000000b0: 28c8 b4c1 a582 b541 693c b441 0b20 b5c1
000000c0: cc65 b3c1 dcda b341 1131 b441 49cc b3c1
000000d0: 1966 b341 51ae b5c1 2e5a b341 fc8b b3c1
000000e0: 90c5 b541 e061 b441 8277 b4c1 b453 b5c1
000000f0: 9bc0 b541 a57e b5c1 ae05 b441 84c1 b5c1
00000100: 917b b3c1 33b9 b341 1cec b541 c4b4 b441
00000110: ca31 b3c1 1b00 b641 5cd5 b4c1 35b8 b3c1
00000120: 7491 b4c1 225e b341 a5e5 b4c1 0c17 b4c1
00000130: 26e6 b5c1 07ca b5c1 726e b541 7649 b341

model.lstm.bias_hh_l1 f4 [80]
22.539404 -22.580189 22.476784 -22.473742 -22.756266 22.431118 22.639893 22.595993
-22.511835 22.427105 -22.415329 -22.74787 -22.353798 22.474716 -22.583437 -22.591925
-22.419882 -22.758955 22.44492 22.435057 0.1757778 -0.14798102 -0.18390888 0.10555251
-0.1589217 0.2095108 0.09761118 -0.21885829 -0.17782667 0.051789716 -0.06370056 0.057493277
-0.03296455 0.19013388 -0.058017254 -0.14084136 0.06613582 -0.1513775 -0.036837615 0.041870162
22.699131 -22.334684 22.661331 -22.509079 -22.349886 22.432903 22.57742 -22.600655
-22.406317 22.382837 22.645315 -22.368063 22.431213 -22.573294 22.329044 -22.726799
22.410067 22.635504 -22.460352 -22.520683 22.445766 -22.692938 22.636719 -22.588253
-22.750513 22.649334 22.720463 22.443216 -22.384533 22.60649 -22.697222 -22.365263
-22.348663 22.45885 -22.543716 -22.48626 -22.68356 -22.484892 22.573965 22.343443
00000000: b350 b441 3aa4 b4c1 74d0 b341 39ca b3c1
00000010: d50c b6c1 ee72 b341 801e b541 98c4 b441
00000020: 3d18 b4c1 b66a b341 9852 b3c1 a3fb b5c1
00000030: 94d4 b2c1 38cc b341 e1aa b4c1 43bc b4c1
00000040: eb5b b3c1 5712 b6c1 328f b341 ff7a b341
00000050: 18ff 333e 5688 17be 9c52 3cbe ea2b d83d
00000060: 5fbc 22be 008a 563e 5fe8 c73d 631c 60be
00000070: 3218 36be 7421 543d 7075 82bd 127e 6b3d
00000080: d605 07bd 75b2 423e 80a3 6dbd b838 10be
00000090: 3772 873d b402 1bbe 0ae3 16bd 0c80 2b3d
000000a0: d297 b541 6fad b2c1 684a b541 9812 b4c1
000000b0: 91cc b2c1 9676 b341 8e9e b441 24ce b4c1
000000c0: 2340 b3c1 0d10 b341 9b29 b541 cbf1 b2c1
000000d0: 2073 b341 1b96 b4c1 e2a1 b241 7cd0 b5c1
000000e0: d147 b341 8315 b541 cdae b3c1 5c2a b4c1
000000f0: ee90 b341 238b b5c1 0018 b541 beb4 b4c1
00000100: 0d01 b6c1 d631 b541 82c3 b541 b58b b341
00000110: 8613 b3c1 17da b441 e993 b5c1 0fec b2c1
00000120: 10ca b2c1 baab b341 8859 b4c1 dce3 b3c1
00000130: ee77 b5c1 0fe1 b3c1 7b97 b441 5fbf b241

model.linear.weight f4 [1, 20]
36.07126 22.448355 36.389248 22.334002 22.336494 36.37945 36.198162 -37.273365
22.500725 35.914795 -22.353895 22.480476 -22.430235 -36.32769 -22.483456 22.539436
-22.35706 -22.436867 -35.97917 -36.312904
00000000: f848 1042 3b96 b341 978e 1142 09ac b241
00000010: 24b1 b241 8f84 1142 ebca 1042 ed17 15c2
00000020: 7c01 b441 c0a8 0f42 c7d4 b2c1 04d8 b341
00000030: 1f71 b3c1 8e4f 11c2 1ede b3c1 c450 b441
00000040: 42db b2c1 b47e b3c1 acea 0fc2 6a40 11c2

exp_avg f4 [80, 1]
0.0 -0.00066450925 -0.0013115022 -0.03157211 7.953673e-09 -2.7813243e-09 -0.004334604 -0.20706931
-5.736005e-12 0.0 1.7153781e-05 5.0654886e-10 -7.458031e-14 -5.0584626e-05 0.0 4.590246e-10
0.0 2.214705 -0.0004967073 0.0 0.0 0.0 0.0 0.0
0.0 0.0 0.0 0.0 0.0 0.0 0.0 0.0
0.0 0.0 0.0 0.0 0.0 0.0 0.0 0.0
-0.093083926 0.0 -0.006422949 5.1665434e-06 1.7775203e-12 4.881396e-12 0.0 2.395353e-07
0.0 0.0 0.0 0.0 0.0 0.0 0.0 0.0
7.1554665e-16 0.0 0.0 0.0 0.0 -3.2961647e-10 -0.007928117 -0.28817353
7.0629556e-09 -2.7817937e-09 0.0 -0.1509757 -5.7772914e-12 0.1504793 0.0003042334 5.0690613e-10
-7.4579266e-14 -6.816997e-10 -0.5023242 0.0 3.4021594e-10 0.0 -0.00051444705 3.7202554e-08
00000000: 0000 0000 7632 2eba b6e6 abba c251 01bd
00000010: a0a4 0832 9321 3fb1 4b09 8ebb fa09 54be
00000020: 57d1 c9ac 0000 0000 77e5 8f37 353d 0b30
00000030: 9ff0 a7a9 d42a 54b8 0000 0000 f859 fc2f
00000040: 0000 0000 babd 0d40 7635 02ba 0000 0000
00000050: 0000 0000 0000 0000 0000 0000 0000 0000
00000060: 0000 0000 0000 0000 0000 0000 0000 0000
00000070: 0000 0000 0000 0000 0000 0000 0000 0000
00000080: 0000 0000 0000 0000 0000 0000 0000 0000
00000090: 0000 0000 0000 0000 0000 0000 0000 0000
000000a0: c9a2 bebd 0000 0000 9a77 d2bb 455c ad36
000000b0: eb29 fa2b b5bf ab2c 0000 0000 7b99 8034
000000c0: 0000 0000 0000 0000 0000 0000 0000 0000
000000d0: 0000 0000 0000 0000 0000 0000 0000 0000
000000e0: 063e 4e26 0000 0000 0000 0000 0000 0000
000000f0: 0000 0000 6535 b5af efe4 01bc 7b8b 93be
00000100: 6aae f231 d529 3fb1 0000 0000 6099 1abe
00000110: 3745 cbac 3f17 1a3e 8481 9f39 5956 0b30
00000120: 05f0 a7a9 5a62 3bb0 5298 00bf 0000 0000
00000130: 2309 bb2f 0000 0000 f5db 06ba a4c8 1f33

exp_avg_sq f4 [80, 1]
0.0 4.434938e-07 1.7275219e-06 0.0010011352 6.3536166e-17 7.769423e-18 1.8870545e-05 0.04306426
3.3044904e-23 0.0 2.9553243e-10 2.5770822e-19 5.586421e-27 2.5699363e-09 0.0 2.1162038e-19
0.0 4.9262605 2.4779152e-07 0.0 0.0 0.0 0.0 0.0
0.0 0.0 0.0 0.0 0.0 0.0 0.0 0.0
0.0 0.0 0.0 0.0 0.0 0.0 0.0 0.0
0.008702316 0.0 4.1433766e-05 2.6809312e-11 3.173325e-24 2.3931705e-23 0.0 5.76268e-14
0.0 0.0 0.0 0.0 0.0 0.0 0.0 0.0
5.1423486e-31 0.0 0.0 0.0 0.0 1.0911969e-19 6.3128515e-05 0.08340529
5.0102386e-17 7.7720435e-18 0.0 0.022892838 3.3522322e-23 0.022742542 9.296069e-08 2.5807177e-19
5.5862673e-27 4.6673645e-19 0.2534275 0.0 1.162505e-19 0.0 2.6580727e-07 1.3900514e-15
00000000: 0000 0000 5319 ee34 33dd e735 8638 833a
00000010: 2281 9224 1052 0f23 304c 9e37 2664 303d
00000020: 9ccb 1f1a 0000 0000 7e78 a22f c41f 9820
00000030: 0a4d dd13 cc9a 3031 0000 0000 56d6 7920
00000040: 0000 0000 eda3 9d40 3508 8534 0000 0000
00000050: 0000 0000 0000 0000 0000 0000 0000 0000
00000060: 0000 0000 0000 0000 0000 0000 0000 0000
00000070: 0000 0000 0000 0000 0000 0000 0000 0000
00000080: 0000 0000 0000 0000 0000 0000 0000 0000
00000090: 0000 0000 0000 0000 0000 0000 0000 0000
000000a0: 2994 0e3c 0000 0000 2bc9 2d38 34d1 eb2d
000000b0: 2d86 7518 0874 e719 0000 0000 97c3 8129
000000c0: 0000 0000 0000 0000 0000 0000 0000 0000
000000d0: 0000 0000 0000 0000 0000 0000 0000 0000
000000e0: f6e0 260d 0000 0000 0000 0000 0000 0000
000000f0: 0000 0000 67d3 0020 dd63 8438 65d0 aa3d
00000100: 750e 6724 705e 0f23 0000 0000 c389 bb3c
00000110: a01a 221a 914e ba3c aea1 c733 b456 9820
00000120: 7b4b dd13 9cc1 0921 40c1 813e 0000 0000
00000130: 8f3e 0920 0000 0000 46b4 8e34 d853 c826

exp_avg f4 [80, 20]
0.0 0.0 0.0 0.0 0.0 0.0 0.0 0.0
0.0 0.0 0.0 0.0 0.0 0.0 0.0 0.0
0.0 0.0 0.0 0.0 0.0 0.0 0.0 0.0
0.0 0.0 0.0 0.0 0.0 0.0 0.0 0.0
0.0 0.0 0.0 0.0 0.0 0.0 0.0 0.0
0.0 0.0 0.0 0.0 0.0 0.0 0.0 0.0
0.0 0.0 0.0 0.0 0.0 0.0 0.0 0.0
0.0 0.0 0.0 0.0 0.0 0.0 0.0 0.0
0.0 0.0 0.0 0.0 0.0 0.0 0.0 0.0
0.0 0.0 0.0 0.0 0.0 0.0 0.0 0.0
0.0 0.0 0.0 0.0 0.0 0.0 0.0 0.0
0.0 0.0 0.0 0.0 0.0 0.0 0.0 0.0
0.0 0.0 0.0 0.0 0.0 0.0 0.0 0.0
0.0 0.0 0.0 0.0 0.0 0.0 0.0 0.0
0.0 0.0 0.0 0.0 0.0 0.0 0.0 0.0
0.0 0.0 0.0 0.0 0.0 0.0 0.0 0.0
0.0 0.0 0.0 0.0 0.0 0.0 0.0 0.0
0.0 0.0 0.0 0.0 0.0 0.0 0.0 0.0
0.0 0.0 0.0 0.0 0.0 0.0 0.0 0.0
0.0 0.0 0.0 0.0 0.0 0.0 0.0 0.0
0.0 0.0 0.0 0.0 0.0 0.0 0.0 0.0
0.0 0.0 0.0 0.0 0.0 0.0 0.0 0.0
0.0 0.0 0.0 0.0 0.0 0.0 0.0 0.0
0.0 0.0 0.0 0.0 0.0 0.0 0.0 0.0
0.0 0.0 0.0 0.0 0.0 0.0 0.0 0.0
0.0 0.0 0.0 0.0 0.0 0.0 0.0 0.0
0.0 0.0 0.0 0.0 0.0 0.0 0.0 0.0
0.0 0.0 0.0 0.0 0.0 0.0 0.0 0.0
0.0 0.0 0.0 0.0 0.0 0.0 0.0 0.0
0.0 0.0 0.0 0.0 0.0 0.0 0.0 0.0
0.0 0.0 0.0 0.0 0.0 0.0 0.0 0.0
0.0 0.0 0.0 0.0 0.0 0.0 0.0 0.0
00000000: 0000 0000 0000 0000 0000 0000 0000 0000
00000010: 0000 0000 0000 0000 0000 0000 0000 0000
00000020: 0000 0000 0000 0000 0000 0000 0000 0000
00000030: 0000 0000 0000 0000 0000 0000 0000 0000
00000040: 0000 0000 0000 0000 0000 0000 0000 0000
00000050: 0000 0000 0000 0000 0000 0000 0000 0000
00000060: 0000 0000 0000 0000 0000 0000 0000 0000
00000070: 0000 0000 0000 0000 0000 0000 0000 0000
00000080: 0000 0000 0000 0000 0000 0000 0000 0000
00000090: 0000 0000 0000 0000 0000 0000 0000 0000
000000a0: 0000 0000 0000 0000 0000 0000 0000 0000
000000b0: 0000 0000 0000 0000 0000 0000 0000 0000
000000c0: 0000 0000 0000 0000 0000 0000 0000 0000
000000d0: 0000 0000 0000 0000 0000 0000 0000 0000
000000e0: 0000 0000 0000 0000 0000 0000 0000 0000
000000f0: 0000 0000 0000 0000 0000 0000 0000 0000
00000100: 0000 0000 0000 0000 0000 0000 0000 0000
00000110: 0000 0000 0000 0000 0000 0000 0000 0000
00000120: 0000 0000 0000 0000 0000 0000 0000 0000
00000130: 0000 0000 0000 0000 0000 0000 0000 0000
00000140: 0000 0000 0000 0000 0000 0000 0000 0000
00000150: 0000 0000 0000 0000 0000 0000 0000 0000
00000160: 0000 0000 0000 0000 0000 0000 0000 0000
00000170: 0000 0000 0000 0000 0000 0000 0000 0000
00000180: 0000 0000 0000 0000 0000 0000 0000 0000
00000190: 0000 0000 0000 0000 0000 0000 0000 0000
000001a0: 0000 0000 0000 0000 0000 0000 0000 0000
000001b0: 0000 0000 0000 0000 0000 0000 0000 0000
000001c0: 0000 0000 0000 0000 0000 0000 0000 0000
000001d0: 0000 0000 0000 0000 0000 0000 0000 0000
000001e0: 0000 0000 0000 0000 0000 0000 0000 0000
000001f0: 0000 0000 0000 0000 0000 0000 0000 0000
00000200: 0000 0000 0000 0000 0000 0000 0000 0000
00000210: 0000 0000 0000 0000 0000 0000 0000 0000
00000220: 0000 0000 0000 0000 0000 0000 0000 0000
00000230: 0000 0000 0000 0000 0000 0000 0000 0000
00000240: 0000 0000 0000 0000 0000 0000 0000 0000
00000250: 0000 0000 0000 0000 0000 0000 0000 0000
00000260: 0000 0000 0000 0000 0000 0000 0000 0000
00000270: 0000 0000 0000 0000 0000 0000 0000 0000
00000280: 0000 0000 0000 0000 0000 0000 0000 0000
00000290: 0000 0000 0000 0000 0000 0000 0000 0000
000002a0: 0000 0000 0000 0000 0000 0000 0000 0000
000002b0: 0000 0000 0000 0000 0000 0000 0000 0000
000002c0: 0000 0000 0000 0000 0000 0000 0000 0000
000002d0: 0000 0000 0000 0000 0000 0000 0000 0000
000002e0: 0000 0000 0000 0000 0000 0000 0000 0000
000002f0: 0000 0000 0000 0000 0000 0000 0000 0000
00000300: 0000 0000 0000 0000 0000 0000 0000 0000
00000310: 0000 0000 0000 0000 0000 0000 0000 0000
00000320: 0000 0000 0000 0000 0000 0000 0000 0000
00000330: 0000 0000 0000 0000 0000 0000 0000 0000
00000340: 0000 0000 0000 0000 0000 0000 0000 0000
00000350: 0000 0000 0000 0000 0000 0000 0000 0000
00000360: 0000 0000 0000 0000 0000 0000 0000 0000
00000370: 0000 0000 0000 0000 0000 0000 0000 0000
00000380: 0000 0000 0000 0000 0000 0000 0000 0000
00000390: 0000 0000 0000 0000 0000 0000 0000 0000
000003a0: 0000 0000 0000 0000 0000 0000 0000 0000
000003b0: 0000 0000 0000 0000 0000 0000 0000 0000
000003c0: 0000 0000 0000 0000 0000 0000 0000 0000
000003d0: 0000 0000 0000 0000 0000 0000 0000 0000
000003e0: 0000 0000 0000 0000 0000 0000 0000 0000
000003f0: 0000 0000 0000 0000 0000 0000 0000 0000

exp_avg_sq f4 [80, 20]
0.0 0.0 0.0 0.0 0.0 0.0 0.0 0.0
0.0 0.0 0.0 0.0 0.0 0.0 0.0 0.0
0.0 0.0 0.0 0.0 0.0 0.0 0.0 0.0
0.0 0.0 0.0 0.0 0.0 0.0 0.0 0.0
0.0 0.0 0.0 0.0 0.0 0.0 0.0 0.0
0.0 0.0 0.0 0.0 0.0 0.0 0.0 0.0
0.0 0.0 0.0 0.0 0.0 0.0 0.0 0.0
0.0 0.0 0.0 0.0 0.0 0.0 0.0 0.0
0.0 0.0 0.0 0.0 0.0 0.0 0.0 0.0
0.0 0.0 0.0 0.0 0.0 0.0 0.0 0.0
0.0 0.0 0.0 0.0 0.0 0.0 0.0 0.0
0.0 0.0 0.0 0.0 0.0 0.0 0.0 0.0
0.0 0.0 0.0 0.0 0.0 0.0 0.0 0.0
0.0 0.0 0.0 0.0 0.0 0.0 0.0 0.0
0.0 0.0 0.0 0.0 0.0 0.0 0.0 0.0
0.0 0.0 0.0 0.0 0.0 0.0 0.0 0.0
0.0 0.0 0.0 0.0 0.0 0.0 0.0 0.0
0.0 0.0 0.0 0.0 0.0 0.0 0.0 0.0
0.0 0.0 0.0 0.0 0.0 0.0 0.0 0.0
0.0 0.0 0.0 0.0 0.0 0.0 0.0 0.0
0.0 0.0 0.0 0.0 0.0 0.0 0.0 0.0
0.0 0.0 0.0 0.0 0.0 0.0 0.0 0.0
0.0 0.0 0.0 0.0 0.0 0.0 0.0 0.0
0.0 0.0 0.0 0.0 0.0 0.0 0.0 0.0
0.0 0.0 0.0 0.0 0.0 0.0 0.0 0.0
0.0 0.0 0.0 0.0 0.0 0.0 0.0 0.0
0.0 0.0 0.0 0.0 0.0 0.0 0.0 0.0
0.0 0.0 0.0 0.0 0.0 0.0 0.0 0.0
0.0 0.0 0.0 0.0 0.0 0.0 0.0 0.0
0.0 0.0 0.0 0.0 0.0 0.0 0.0 0.0
0.0 0.0 0.0 0.0 0.0 0.0 0.0 0.0
0.0 0.0 0.0 0.0 0.0 0.0 0.0 0.0
00000000: 0000 0000 0000 0000 0000 0000 0000 0000
00000010: 0000 0000 0000 0000 0000 0000 0000 0000
00000020: 0000 0000 0000 0000 0000 0000 0000 0000
00000030: 0000 0000 0000 0000 0000 0000 0000 0000
00000040: 0000 0000 0000 0000 0000 0000 0000 0000
00000050: 0000 0000 0000 0000 0000 0000 0000 0000
00000060: 0000 0000 0000 0000 0000 0000 0000 0000
00000070: 0000 0000 0000 0000 0000 0000 0000 0000
00000080: 0000 0000 0000 0000 0000 0000 0000 0000
00000090: 0000 0000 0000 0000 0000 0000 0000 0000
000000a0: 0000 0000 0000 0000 0000 0000 0000 0000
000000b0: 0000 0000 0000 0000 0000 0000 0000 0000
000000c0: 0000 0000 0000 0000 0000 0000 0000 0000
000000d0: 0000 0000 0000 0000 0000 0000 0000 0000
000000e0: 0000 0000 0000 0000 0000 0000 0000 0000
000000f0: 0000 0000 0000 0000 0000 0000 0000 0000
00000100: 0000 0000 0000 0000 0000 0000 0000 0000
00000110: 0000 0000 0000 0000 0000 0000 0000 0000
00000120: 0000 0000 0000 0000 0000 0000 0000 0000
00000130: 0000 0000 0000 0000 0000 0000 0000 0000
00000140: 0000 0000 0000 0000 0000 0000 0000 0000
00000150: 0000 0000 0000 0000 0000 0000 0000 0000
00000160: 0000 0000 0000 0000 0000 0000 0000 0000
00000170: 0000 0000 0000 0000 0000 0000 0000 0000
00000180: 0000 0000 0000 0000 0000 0000 0000 0000
00000190: 0000 0000 0000 0000 0000 0000 0000 0000
000001a0: 0000 0000 0000 0000 0000 0000 0000 0000
000001b0: 0000 0000 0000 0000 0000 0000 0000 0000
000001c0: 0000 0000 0000 0000 0000 0000 0000 0000
000001d0: 0000 0000 0000 0000 0000 0000 0000 0000
000001e0: 0000 0000 0000 0000 0000 0000 0000 0000
000001f0: 0000 0000 0000 0000 0000 0000 0000 0000
00000200: 0000 0000 0000 0000 0000 0000 0000 0000
00000210: 0000 0000 0000 0000 0000 0000 0000 0000
00000220: 0000 0000 0000 0000 0000 0000 0000 0000
00000230: 0000 0000 0000 0000 0000 0000 0000 0000
00000240: 0000 0000 0000 0000 0000 0000 0000 0000
00000250: 0000 0000 0000 0000 0000 0000 0000 0000
00000260: 0000 0000 0000 0000 0000 0000 0000 0000
00000270: 0000 0000 0000 0000 0000 0000 0000 0000
00000280: 0000 0000 0000 0000 0000 0000 0000 0000
00000290: 0000 0000 0000 0000 0000 0000 0000 0000
000002a0: 0000 0000 0000 0000 0000 0000 0000 0000
000002b0: 0000 0000 0000 0000 0000 0000 0000 0000
000002c0: 0000 0000 0000 0000 0000 0000 0000 0000
000002d0: 0000 0000 0000 0000 0000 0000 0000 0000
000002e0: 0000 0000 0000 0000 0000 0000 0000 0000
000002f0: 0000 0000 0000 0000 0000 0000 0000 0000
00000300: 0000 0000 0000 0000 0000 0000 0000 0000
00000310: 0000 0000 0000 0000 0000 0000 0000 0000
00000320: 0000 0000 0000 0000 0000 0000 0000 0000
00000330: 0000 0000 0000 0000 0000 0000 0000 0000
00000340: 0000 0000 0000 0000 0000 0000 0000 0000
00000350: 0000 0000 0000 0000 0000 0000 0000 0000
00000360: 0000 0000 0000 0000 0000 0000 0000 0000
00000370: 0000 0000 0000 0000 0000 0000 0000 0000
00000380: 0000 0000 0000 0000 0000 0000 0000 0000
00000390: 0000 0000 0000 0000 0000 0000 0000 0000
000003a0: 0000 0000 0000 0000 0000 0000 0000 0000
000003b0: 0000 0000 0000 0000 0000 0000 0000 0000
000003c0: 0000 0000 0000 0000 0000 0000 0000 0000
000003d0: 0000 0000 0000 0000 0000 0000 0000 0000
000003e0: 0000 0000 0000 0000 0000 0000 0000 0000
000003f0: 0000 0000 0000 0000 0000 0000 0000 0000

exp_avg f4 [80]
0.0 -5.64962e-06 -1.0935438e-05 -0.0002560904 7.265296e-11 -2.5577094e-11 -3.6345333e-05 -0.0016609544
-5.3631995e-14 0.0 1.4959345e-07 4.6948257e-12 -7.051197e-16 -4.4009866e-07 0.0 4.242601e-12
0.0 0.017400648 -4.2621355e-06 0.0 0.0 0.0 0.0 0.0
0.0 0.0 0.0 0.0 0.0 0.0 0.0 0.0
0.0 0.0 0.0 0.0 0.0 0.0 0.0 0.0
-0.00075858674 0.0 -5.3380452e-05 4.574968e-08 1.6715214e-14 4.5879773e-14 0.0 2.1608793e-09
0.0 0.0 0.0 0.0 0.0 0.0 0.0 0.0
6.8088624e-18 0.0 0.0 0.0 0.0 -3.0492507e-12 -6.5273816e-05 -0.002298334
6.445121e-11 -2.5581513e-11 0.0 -0.0012169001 -5.4021935e-14 0.0012277531 2.6072016e-06 4.698196e-12
-7.0511e-16 -6.2903155e-12 -0.0039476776 0.0 3.1451796e-12 0.0 -4.4180306e-06 3.388353e-10
00000000: 0000 0000 de91 bdb6 5977 37b7 df43 86b9
00000010: fbc3 9f2e 7ffa e0ad 8171 18b8 62b4 d9ba
00000020: 7b89 71a9 0000 0000 ef9f 2034 3b2f a52c
00000030: a73c 4ba6 b346 ecb4 0000 0000 f445 952c
00000040: 0000 0000 ce8b 8e3c 7703 8fb6 0000 0000
00000050: 0000 0000 0000 0000 0000 0000 0000 0000
00000060: 0000 0000 0000 0000 0000 0000 0000 0000
00000070: 0000 0000 0000 0000 0000 0000 0000 0000
00000080: 0000 0000 0000 0000 0000 0000 0000 0000
00000090: 0000 0000 0000 0000 0000 0000 0000 0000
000000a0: e5db 46ba 0000 0000 d3e4 5fb8 4e7e 4433
000000b0: a98e 9628 c79f 4e29 0000 0000 977e 1431
000000c0: 0000 0000 0000 0000 0000 0000 0000 0000
000000d0: 0000 0000 0000 0000 0000 0000 0000 0000
000000e0: e333 fb22 0000 0000 0000 0000 0000 0000
000000f0: 0000 0000 6b92 56ac 9de3 88b8 a59f 16bb
00000100: ceba 8d2e 7204 e1ad 0000 0000 6480 9fba
00000110: 0d4b 73a9 8fec a03a 62f7 2e36 964d a52c
00000120: ef3b 4ba6 2052 ddac 855b 81bb 0000 0000
00000130: 8552 5d2c 0000 0000 983e 94b6 d446 ba2f

exp_avg_sq f4 [80]
0.0 3.2057072e-11 1.2010412e-10 6.5867646e-08 5.3014183e-21 6.570341e-22 1.3267306e-09 2.7707733e-06
2.8889051e-27 0.0 2.2475564e-14 2.2137288e-23 4.9935696e-31 1.9452956e-13 0.0 1.8077985e-23
0.0 0.00030409984 1.8244838e-11 0.0 0.0 0.0 0.0 0.0
0.0 0.0 0.0 0.0 0.0 0.0 0.0 0.0
0.0 0.0 0.0 0.0 0.0 0.0 0.0 0.0
5.7795756e-07 0.0 2.8618714e-09 2.1021395e-15 2.8061404e-28 2.114112e-27 0.0 4.6897145e-18
0.0 0.0 0.0 0.0 0.0 0.0 0.0 0.0
4.6562316e-35 0.0 0.0 0.0 0.0 9.338385e-24 4.279209e-09 5.3053227e-06
4.172031e-21 6.5726113e-22 0.0 1.4872887e-06 2.9310662e-27 1.5139361e-06 6.8270736e-12 2.2169085e-23
4.993432e-31 3.9740238e-23 1.5651965e-05 0.0 9.935196e-24 0.0 1.9603917e-11 1.1530893e-19
00000000: 0000 0000 0efd 0c2e 4e0e 042f 1f73 8d33
00000010: 2c48 c81d 8d93 461c 2f58 b630 86f1 3936
00000020: f5e1 6413 0000 0000 1f71 ca28 4519 d619
00000030: f40c 220d 5405 5b2a 0000 0000 ecd6 ae19
00000040: 0000 0000 976f 9f39 b97b a02d 0000 0000
00000050: 0000 0000 0000 0000 0000 0000 0000 0000
00000060: 0000 0000 0000 0000 0000 0000 0000 0000
00000070: 0000 0000 0000 0000 0000 0000 0000 0000
00000080: 0000 0000 0000 0000 0000 0000 0000 0000
00000090: 0000 0000 0000 0000 0000 0000 0000 0000
000000a0: f124 1b35 0000 0000 93aa 4431 a179 1727
000000b0: 3bdc b111 497f 2713 0000 0000 1a05 ad22
000000c0: 0000 0000 0000 0000 0000 0000 0000 0000
000000d0: 0000 0000 0000 0000 0000 0000 0000 0000
000000e0: 5791 7706 0000 0000 0000 0000 0000 0000
000000f0: 0000 0000 71a1 3419 5208 9331 6004 b236
00000100: 689d 9d1d 1ea5 461c 0000 0000 da9e c735
00000110: 1639 6813 7332 cb35 d034 f02c ff67 d619
00000120: cf0b 220d 082c 401a 574c 8337 0000 0000
00000130: b52c 4019 0000 0000 1970 ac2d fc21 0820

exp_avg f4 [80]
0.0 -5.64962e-06 -1.0935438e-05 -0.0002560904 7.265296e-11 -2.5577094e-11 -3.6345333e-05 -0.0016609544
-5.3631995e-14 0.0 1.4959345e-07 4.6948257e-12 -7.051197e-16 -4.4009866e-07 0.0 4.242601e-12
0.0 0.017400648 -4.2621355e-06 0.0 0.0 0.0 0.0 0.0
0.0 0.0 0.0 0.0 0.0 0.0 0.0 0.0
0.0 0.0 0.0 0.0 0.0 0.0 0.0 0.0
-0.00075858674 0.0 -5.3380452e-05 4.574968e-08 1.6715214e-14 4.5879773e-14 0.0 2.1608793e-09
0.0 0.0 0.0 0.0 0.0 0.0 0.0 0.0
6.8088624e-18 0.0 0.0 0.0 0.0 -3.0492507e-12 -6.5273816e-05 -0.002298334
6.445121e-11 -2.5581513e-11 0.0 -0.0012169001 -5.4021935e-14 0.0012277531 2.6072016e-06 4.698196e-12
-7.0511e-16 -6.2903155e-12 -0.0039476776 0.0 3.1451796e-12 0.0 -4.4180306e-06 3.388353e-10
00000000: 0000 0000 de91 bdb6 5977 37b7 df43 86b9
00000010: fbc3 9f2e 7ffa e0ad 8171 18b8 62b4 d9ba
00000020: 7b89 71a9 0000 0000 ef9f 2034 3b2f a52c
00000030: a73c 4ba6 b346 ecb4 0000 0000 f445 952c
00000040: 0000 0000 ce8b 8e3c 7703 8fb6 0000 0000
00000050: 0000 0000 0000 0000 0000 0000 0000 0000
00000060: 0000 0000 0000 0000 0000 0000 0000 0000
00000070: 0000 0000 0000 0000 0000 0000 0000 0000
00000080: 0000 0000 0000 0000 0000 0000 0000 0000
00000090: 0000 0000 0000 0000 0000 0000 0000 0000
000000a0: e5db 46ba 0000 0000 d3e4 5fb8 4e7e 4433
000000b0: a98e 9628 c79f 4e29 0000 0000 977e 1431
000000c0: 0000 0000 0000 0000 0000 0000 0000 0000
000000d0: 0000 0000 0000 0000 0000 0000 0000 0000
000000e0: e333 fb22 0000 0000 0000 0000 0000 0000
000000f0: 0000 0000 6b92 56ac 9de3 88b8 a59f 16bb
00000100: ceba 8d2e 7204 e1ad 0000 0000 6480 9fba
00000110: 0d4b 73a9 8fec a03a 62f7 2e36 964d a52c
00000120: ef3b 4ba6 2052 ddac 855b 81bb 0000 0000
00000130: 8552 5d2c 0000 0000 983e 94b6 d446 ba2f

exp_avg_sq f4 [80]
0.0 3.2057072e-11 1.2010412e-10 6.5867646e-08 5.3014183e-21 6.570341e-22 1.3267306e-09 2.7707733e-06
2.8889051e-27 0.0 2.2475564e-14 2.2137288e-23 4.9935696e-31 1.9452956e-13 0.0 1.8077985e-23
0.0 0.00030409984 1.8244838e-11 0.0 0.0 0.0 0.0 0.0
0.0 0.0 0.0 0.0 0.0 0.0 0.0 0.0
0.0 0.0 0.0 0.0 0.0 0.0 0.0 0.0
5.7795756e-07 0.0 2.8618714e-09 2.1021395e-15 2.8061404e-28 2.114112e-27 0.0 4.6897145e-18
0.0 0.0 0.0 0.0 0.0 0.0 0.0 0.0
4.6562316e-35 0.0 0.0 0.0 0.0 9.338385e-24 4.279209e-09 5.3053227e-06
4.172031e-21 6.5726113e-22 0.0 1.4872887e-06 2.9310662e-27 1.5139361e-06 6.8270736e-12 2.2169085e-23
4.993432e-31 3.9740238e-23 1.5651965e-05 0.0 9.935196e-24 0.0 1.9603917e-11 1.1530893e-19
00000000: 0000 0000 0efd 0c2e 4e0e 042f 1f73 8d33
00000010: 2c48 c81d 8d93 461c 2f58 b630 86f1 3936
00000020: f5e1 6413 0000 0000 1f71 ca28 4519 d619
00000030: f40c 220d 5405 5b2a 0000 0000 ecd6 ae19
00000040: 0000 0000 976f 9f39 b97b a02d 0000 0000
00000050: 0000 0000 0000 0000 0000 0000 0000 0000
00000060: 0000 0000 0000 0000 0000 0000 0000 0000
00000070: 0000 0000 0000 0000 0000 0000 0000 0000
00000080: 0000 0000 0000 0000 0000 0000 0000 0000
00000090: 0000 0000 0000 0000 0000 0000 0000 0000
000000a0: f124 1b35 0000 0000 93aa 4431 a179 1727
000000b0: 3bdc b111 497f 2713 0000 0000 1a05 ad22
000000c0: 0000 0000 0000 0000 0000 0000 0000 0000
000000d0: 0000 0000 0000 0000 0000 0000 0000 0000
000000e0: 5791 7706 0000 0000 0000 0000 0000 0000
000000f0: 0000 0000 71a1 3419 5208 9331 6004 b236
00000100: 689d 9d1d 1ea5 461c 0000 0000 da9e c735
00000110: 1639 6813 7332 cb35 d034 f02c ff67 d619
00000120: cf0b 220d 082c 401a 574c 8337 0000 0000
00000130: b52c 4019 0000 0000 1970 ac2d fc21 0820
