dl_computer_vision/assignments/1/checkpoints/best_checkpoint-v8.ckpt (torch, 168892 bytes, 27 tensors)

model.lstm.weight_ih_l0 f4 [128, 1]
00000000: 6402 083e d918 933e 2499 97be e60f d03d
00000010: 8ee1 f43d 68a1 a53d 425a e53e f85c 5e3e
00000020: 9a0c 9fbe 50ee f4bd 16da b7be 7242 983d
00000030: 02da 253e 2d80 c9be 0d1b 8cbd 5b35 a73d
00000040: ec94 313e 0087 343e 2a19 243e e1f3 9a3d
00000050: 9f7d a53e a4a7 0e3e 839f 2f3e 691c 4bbe
00000060: bb85 a5bd 2d5d 6a3e d412 193e dcd1 73bd
00000070: 0958 40be fcfd 253e 8995 463e 9503 2f3e
00000080: ba23 a23d 49c7 50bd 9122 10bc 466b e0bd
00000090: 80c2 df3d 0d10 fc3d b450 d8bc b915 983d
000000a0: 16b4 39bc 9cd0 033e d293 f33d 13d4 bebd
000000b0: 9aca e2bd 7c19 8dbd e7cb a9bd 526e dd3d
000000c0: ca19 0d3e b03b 013e fe4f 9ebd 1b5b 03be
000000d0: a38c f1bd 77f5 7dbc 5370 053e 3167 b23d
000000e0: 2bbc 103d 1ea8 b0bd 2627 b43d 4983 8fbc
000000f0: d6b1 cf3b 603d 3e3c be67 aa3d 072e b53d
00000100: dde4 013e f1c3 eb3d 3fbe edbd d20c 09be
00000110: 6fcb 96bd da1c 783e b2cf 0abe a645 113e
00000120: 0c3b 893d a800 a83c 4a26 b4bd 2f85 c03d
00000130: 2734 df3d 0eec ccbd ae94 e93d 44f1 ee3d
00000140: 37a7 e73d 7f8b 01be fd23 e2bd b50d 95be
00000150: cce9 e3bd e665 8e3e 3666 fe3d 9b5f a2bd
00000160: 9201 2bbd 7a36 c23d dcd3 0e3e cd69 a7bd
00000170: b9af 43bd 3d54 b83d 5e4e bb3d 0477 15be
00000180: 1dae 043e 6d94 ab3d 9641 aa3d fed6 3e3e
00000190: f619 91be 2a0b b93e 8fea 4b3e b951 a2be
000001a0: 0073 2e3e 2658 fdbd cbca b03d ff98 193e
000001b0: e01e ad3d 43ab 7e3e 2d8a 12be 79a4 adbe
000001c0: 68df 133e 1f57 9b3d 4297 96be 6c78 7e3e
000001d0: 29b2 313e d365 a23d 0735 ea3d 1520 073e
000001e0: 7a57 0dbe 286b d23d 1c1a a43d df99 2cbe
000001f0: 12fe fc3d c59c bb3d 1c03 aa3d 8e0b 333e
0.13282162 0.28729895 -0.29609025 0.101592824 0.11957084 0.080874264 0.44795424 0.21715152
-0.31064302 -0.11959517 -0.35908574 0.074345484 0.16196445 -0.39355603 -0.06841097 0.081644736
0.17341965 0.17629623 0.16025224 0.075660475 0.32322404 0.13931137 0.17150693 -0.19835056
-0.08082148 0.22887106 0.14948589 -0.05952631 -0.18783583 0.16210169 0.1939298 0.1709121
0.079169706 -0.050971303 -0.008797304 -0.10957961 0.1092577 0.12307749 -0.02640567 0.07426018
-0.01133444 0.12872547 0.11893429 -0.09317794 -0.110737994 -0.068896264 -0.082908444 0.108120576
0.13779369 0.12620425 -0.07730101 -0.12827723 -0.117944025 -0.015500418 0.1303113 0.087110884
0.0353357 -0.08625816 0.087965295 -0.017518656 0.0063383384 0.011611313 0.083205685 0.0884667
0.1268496 0.11511982 -0.11608552 -0.13383797 -0.07363021 0.24229756 -0.13555792 0.14186725
0.067007154 0.020508125 -0.087963656 0.09400403 0.10898619 -0.10005961 0.114053115 0.116671115
0.113111906 -0.1265087 -0.110420205 -0.2911202 -0.111285776 0.27812117 0.12421839 -0.079283915
-0.041749544 0.09483047 0.13948005 -0.08174477 -0.047775004 0.09000442 0.09145807 -0.14596182
0.12957044 0.08377919 0.08313291 0.186367 -0.2834012 0.3614133 0.19913696 -0.31702974
0.17036057 -0.123703286 0.0863243 0.1499977 0.084531546 0.24870019 -0.14310522 -0.33914545
0.14440691 0.075849764 -0.29412276 0.24850625 0.17353119 0.07929578 0.114358954 0.13195832
-0.13802901 0.10274345 0.080127925 -0.16855572 0.123531476 0.09160761 0.08301374 0.17484877

model.lstm.weight_hh_l0 f4 [128, 32]
00000000: 2c84 fdbd 9c93 913d 3d0e 3e3d febc 4d3d
00000010: 187e 053e b1c6 cfbc 9cc7 053e 81e0 be3c
00000020: fad9 a2bc d875 08be 577e 1abd 0102 c53d
00000030: 7989 bc3d 1f6e 9c3d 285b debd a744 3cbd
00000040: e65c 033e 811f b3bd 9f5e d33d 07e6 053e
00000050: d22f b93d cb00 a6bd 8833 05be d0fa 6dbd
00000060: 1189 21bd 4525 fa3d a811 aa3d 16a3 883d
00000070: 198c f3bd 94f5 ddbc c853 0abe 345c 13be
00000080: 423d cbbd bcdc 093d 2ece 253d 86b2 84bd
00000090: dd72 2a3d 42f3 853c 3a58 8d3d 0ec9 03be
000000a0: 81dd d5bd c954 a03d 5103 dbbc 51a8 46bd
000000b0: 7d70 fcbd f130 123e 904e bb3d 4cfc 56bd
000000c0: 2b0a efbd 5c79 193c cb05 c1bc 6180 163d
000000d0: 724d e93d 399f 97bd 76a7 18bd 0764 cf3c
000000e0: b15e b2bd 3b36 13be 9b70 8abd 4a57 54bd
000000f0: c613 b1bc 1681 f8bd 0bbe bbbc 1196 a23c
00000100: 3c1e d93d a915 00bd ec35 dfbc ecca 94bd
00000110: 6818 60bc d670 853d 7c4d 0e3e 20d4 123e
00000120: 5959 643d 7f37 d5bd 92be 033e 7e1a debd
00000130: d4ec a93d 703c a33d 5381 e93d 4055 bdbd
00000140: a0a4 06be 4ea3 0ebe 5a75 9cbc 74ea 39bd
00000150: c8b7 68bd 11a4 e7bd 2c86 133e 786d cb3d
00000160: 3565 12bd 5d19 203d 4ecc 11be dfa7 a7bd
00000170: 3a92 dd3c e304 c33c cdf2 433c 0ec6 033e
00000180: ad5d bcbd 3113 bfbd b685 49bd 3eca 03be
00000190: 5b5d b9bd eca0 b4bc 2372 c93d b08a f0bb
000001a0: 3e0c 09be bac6 a3bd 3f51 c1bd 4043 87bd
000001b0: 8849 3dbc 3f2b 96bc 0b5d c3bd f840 c6bd
000001c0: 3359 133e 94a0 863d 65ab 6e3d 0874 bc3c
000001d0: e6cd 57bd 8e9e 29bc 163c a23c d1d1 023e
000001e0: ad26 a63c 18c6 ab3d d5d5 b23d 3f45 a73d
000001f0: a5d2 083d 0019 38bd 371f 1fbd 4736 473d
00000200: 68c6 8bbc c6ce 0abe b752 c63d e375 83bd
00000210: 5e88 163d f70a 213d 3349 0abd 6d24 97bc
00000220: 05b7 2d3d 44f4 0dbd 3ecd 333d 49a3 143e
00000230: 2024 603d e3ad d3bd b26c e6bd 95a5 b83b
00000240: 01db c73d 8b4c c6bd cb71 c23d 3ff4 d83c
00000250: df34 033e 194d 7ebd a7a1 e3bd d20d ccbd
00000260: b3ce 48bd 43bf debd ae0b 91bd f59e 0c3e
00000270: 8d55 a4bc 72e4 c2bd 75eb 69bd ac99 b9bd
00000280: 9bd6 123e a3da b2bd 7d89 103d a73f afbd
00000290: 96a2 0abe 5f55 b4bc 8427 09bd 7cac 6fbd
000002a0: cb2c 1e3d 9cc0 fc3d e0fb 0bbe 52b8 07bc
000002b0: 36fc ecbc b1a6 983d 3174 d2bd 9e80 0ebe
000002c0: ce6f 253c 5084 04be bad7 eabd 86dc 08bd
000002d0: 67a3 04be 42fd 1abd fcc1 fe3d 71ea 553d
000002e0: 898c 58bd 1007 873d 2af6 78bd 2c6a 07be
000002f0: 9055 4cbd 1d64 8abd e9da 093e 3012 67bd
00000300: be93 83bd c6a3 ff3d e828 563d 051e c43d
00000310: 79c0 f43d 9940 0f3e a03e c73d a579 43bd
00000320: 1ca2 31bd ca73 e9ba 47af 91bd b448 fc3a
00000330: ca68 d43c 38fb ffbb 8816 f3bd ee03 3cbc
00000340: 6684 023e cbc9 a83c 29de 8b3d 2829 8abd
00000350: de46 533d 80aa af3b 2bed ae3b 62be b0bc
00000360: 10b7 13bd d389 103e bfa6 c23b 23e8 9bbd
00000370: 6af1 7fbd b198 bb3c 4167 423d 1b06 053e
00000380: 23d0 e5bd 9f5d 14be 5f00 d4bc 2dc9 45bc
00000390: 2387 c1bd e6a2 813c 917e 04bd 56e4 96bd
000003a0: f81f a8bd 0404 cebd c75e 603d 9593 d4bd
000003b0: e3e1 05bb 2b85 83bd 6416 c53d e664 103e
000003c0: 9d72 e43d f7a5 2cbd f27a 05be 9bb8 33bd
000003d0: d5af e2bd dc38 283b e297 edbd 711c 523d
000003e0: 0da1 843d fb69 e2bd c34c dd3d 78aa 07be
000003f0: 8662 ab3c f0c7 fdbd 9a17 48bd 94ad 0a3e
-0.123787254 0.071082324 0.046400297 0.050229065 0.13036382 -0.025363298 0.13064426 0.023300411
-0.01987933 -0.13326204 -0.037718143 0.09619523 0.09205908 0.076381914 -0.108572304 -0.04596391
0.12828407 -0.08746243 0.10320782 0.1307603 0.09042324 -0.0810562 -0.13007939 -0.05810052
-0.039437357 0.1221414 0.08304149 0.06671731 -0.11891956 -0.02709464 -0.13508523 -0.14390641
-0.099237934 0.033657774 0.04047983 -0.06479363 0.04161345 0.016351346 0.069015935 -0.12869665
-0.10442639 0.078286715 -0.02673498 -0.048500363 -0.12326143 0.14276482 0.09145844 -0.052486703
-0.11671861 0.009367313 -0.023562333 0.036743525 0.11391725 -0.07403416 -0.03726908 0.025316251
-0.08709467 -0.14376156 -0.06759759 -0.051841058 -0.021615874 -0.12133996 -0.022917768 0.019846948
0.1060147 -0.031270657 -0.027247392 -0.07265267 -0.013677694 0.06515662 0.13896745 0.14338732
0.05574927 -0.10410976 0.12865666 -0.10844897 0.082971245 0.07970512 0.1140162 -0.09244776
-0.13148737 -0.13929483 -0.019098926 -0.045389608 -0.056815892 -0.1131059 0.14406651 0.09932989
-0.03574105 0.03908669 -0.14238092 -0.08186316 0.027047265 0.023806041 0.011959744 0.1286852
-0.09197555 -0.09329832 -0.049199782 -0.12870118 -0.09051009 -0.02204939 0.09836223 -0.0073407516
-0.13383576 -0.079968885 -0.094393246 -0.06604624 -0.011553176 -0.018331168 -0.09539231 -0.096803606
0.14389496 0.065735966 0.058268923 0.023004547 -0.052686594 -0.010352744 0.019804042 0.12775351
0.020282114 0.08387393 0.087321915 0.081675045 0.03340401 -0.044945717 -0.03884813 0.048635747
-0.01706238 -0.1355544 0.09683745 -0.064189695 0.036751144 0.039317098 -0.033761214 -0.018449986
0.04241087 -0.034656778 0.043896906 0.14515413 0.05472195 -0.10335901 -0.11251201 0.0056349733
0.097585686 -0.09682568 0.094943605 0.026483653 0.12813137 -0.062085245 -0.11114817 -0.099635735
-0.04902525 -0.10876324 -0.07082306 0.13732512 -0.020060325 -0.09516229 -0.057109315 -0.09062514
0.14339678 -0.08733108 0.03528737 -0.085570626 -0.13538584 -0.022013364 -0.03348495 -0.058514103
0.038616937 0.12341425 -0.13670301 -0.0082836915 -0.028928857 0.07453669 -0.10276068 -0.13916251
0.010097457 -0.12941098 -0.11466928 -0.033413433 -0.12952958 -0.03783918 0.12439343 0.052225534
-0.0528684 0.06593144 -0.060781635 -0.13224095 -0.049886286 -0.06757376 0.13462414 -0.05641383
-0.06424664 0.12482409 0.052285105 0.09576038 0.11950774 0.13989486 0.09728742 -0.04772343
-0.04336749 -0.0017810997 -0.071135096 0.0019247741 0.025928874 -0.00781193 -0.11869532 -0.011475546
0.12745818 0.020604035 0.06829483 -0.06746131 0.051581256 0.0053609014 0.005338331 -0.021575157
-0.036063254 0.14115076 0.005940288 -0.07612636 -0.06248609 0.022899957 0.04746175 0.1299061
-0.112213396 -0.14488839 -0.025879083 -0.01207189 -0.094496034 0.015824746 -0.032347266 -0.073677704
-0.082092226 -0.1005936 0.054777887 -0.103797115 -0.0020428828 -0.06421884 0.09623411 0.1410099
0.11154673 -0.042150464 -0.13035181 -0.043877225 -0.110686935 0.0025668656 -0.11601235 0.051296655
0.064760305 -0.110553704 0.10805657 -0.13248622 0.020921003 -0.12391651 -0.048850633 0.13542777

model.lstm.bias_ih_l0 f4 [128]
00000000: 1392 80bc 6def 863e 590c 50be c9ab 903d
00000010: c3b3 bebd 09e5 933e 9b4f c03e c995 4a3e
00000020: bffa 85be dbaa 953d 28f3 89be a415 5a3d
00000030: 875a c7bb 5c24 f3be a8a3 d33d 114d 9b3e
00000040: 5a3a 2f3e 670b e93b 89b2 c33d 748a b23d
00000050: 3e95 a1bb d069 533e 3517 6abd e4e7 ce3d
00000060: 8806 1c3d 4b75 6f3e 0d04 ec3c 098d eebc
00000070: 8a5b 903d e1d2 553d f80c 3d3e 1e8a d23d
00000080: a458 df3b cb51 f9bd 680d 8dbc 1cc9 0dbe
00000090: 635c 01be daad 50bd 6c1e e83d 3705 0dbd
000000a0: f6e2 bcbd a391 af3d c97b bcbd c163 0abe
000000b0: ea29 0a3e a64f 143e f5e6 923d b3f7 71bd
000000c0: 74ef 05be 8039 5fbd 6dd7 473d 7d3e dcbd
000000d0: 19df e23d b463 853c 10dd 0dbe e11e 0bbe
000000e0: 2aa2 333c bab0 373d ae73 03be 874e a9bd
000000f0: b917 b63d 59f2 7c3d 8837 64bc a465 153d
00000100: acdb c1bd a061 cd3c a684 2ebb 35b4 c83b
00000110: 9946 843d 3f95 8c3e 6125 fa3c c982 103e
00000120: 5210 083e cefe 68bd ee28 0abe 19ea 0a3d
00000130: 6999 033e af4b 26be cb97 0ebe 08a5 9b3d
00000140: 7839 523d d0bc 333d c09d ce3d bccf 80be
00000150: aad5 10be abeb 863e 896e 9f3c 77e7 c83b
00000160: 507e f6bd 02b7 ecbc 037b 75bd 687d 25bd
00000170: 4cdb 92bd f4c9 09bd 375e 343d 4c82 ddbd
00000180: 768e b53d 0155 513e 118c e83d fd90 073e
00000190: fd59 bcbe 4176 babd aede 94bd 4a70 d1be
000001a0: 49d2 223d 27f2 d4bd e8b8 ff3d c47e 3c3e
000001b0: 11cc 6d3e fc3f 6b3e 6d3c 803d 2ed0 c3be
000001c0: 51a7 293e 44a1 073e ec72 9dbe 3bd5 203e
000001d0: 09ae 283d 2a92 8a3c 9ba4 8abd 0477 e4bd
000001e0: d6ce ffbd 730a 753e 8695 333d 6b2b 0bbd
000001f0: 8ae7 213d 0892 e43d b1b2 763e be67 b93e
-0.015694654 0.26354542 -0.2031721 0.070640154 -0.093116306 0.28885677 0.37560734 0.19783701
-0.26167867 0.07307979 -0.26943326 0.053243294 -0.0060837897 -0.47488678 0.10333949 0.30332235
0.17112103 0.007111955 0.09555537 0.08717814 -0.004931121 0.20645833 -0.05715104 0.101028234
0.038092166 0.23384587 0.028810525 -0.029119985 0.0704871 0.052203063 0.18461978 0.1028025
0.0068159867 -0.12173804 -0.017218307 -0.13846248 -0.12632899 -0.050947048 0.113339275 -0.0344288
-0.09222977 0.085727 -0.09203298 -0.13514616 0.13492551 0.14483508 0.07172958 -0.059074115
-0.13079625 -0.054498196 0.04878943 -0.10754106 0.11077709 0.016282894 -0.1385386 -0.13585998
0.010963956 0.044846274 -0.12837097 -0.08266931 0.088912435 0.06175456 -0.013929255 0.036473885
-0.09465727 0.025070965 -0.0026629358 0.006124998 0.06458778 0.27457616 0.030535402 0.1411239
0.13287476 -0.056883626 -0.13492176 0.03391466 0.1285149 -0.16239808 -0.13925092 0.075998366
0.051324338 0.043881238 0.10088682 -0.2515849 -0.14144006 0.26351675 0.019461887 0.0061311084
-0.12035811 -0.028895859 -0.059931766 -0.0404028 -0.07170734 -0.033639863 0.044035163 -0.10815868
0.08865063 0.20442583 0.113548405 0.13238902 -0.36787406 -0.091045864 -0.07269035 -0.40905982
0.039751325 -0.103977494 0.1248644 0.18407732 0.23222376 0.22973627 0.06261525 -0.38244766
0.16567732 0.13245112 -0.3075174 0.15706341 0.041181598 0.0169154 -0.06769677 -0.11155513
-0.12490623 0.23929767 0.04384377 -0.033976953 0.039527453 0.11160666 0.24091603 0.36211962

model.lstm.bias_hh_l0 f4 [128]
00000000: e9dc b5bd fae4 183e b383 c1be 851a 033e
00000010: ed38 083e 329a 863e 0d19 e83e 1742 523e
00000020: 91bf efbe 5d78 fdbd 37fc 06bf f0da 543d
00000030: 7f08 af3d 2a1f eebe cdb7 babd 7e98 953e
00000040: b73a fd3d b7d2 f8bc 8535 483c 0ee4 6f3e
00000050: 12f0 c7bc c51f 563e 30e2 253e 8049 fdbd
00000060: 5db6 c33c dab0 163e 77b0 86bd c6a2 0fbe
00000070: 7dc4 973d d08d f43d 85b1 503e 7e36 c6bc
00000080: 1155 bd3d 56d0 ff3d 9f9a d8bd 287e 56bd
00000090: 4449 043d ac76 113e f3a8 2a3d 9013 473d
000000a0: fa82 053e e744 c6bd da97 20bd 1aef afbd
000000b0: 7f1f 4d3d 1451 b7bd 04dc 92bd bd16 4bbd
000000c0: e856 173d 8b74 c13d f4d7 1fbc b03f d1bd
000000d0: 2c01 6fbd 1d8a 6bbd a35e 42bd 4710 7cbd
000000e0: d187 193d bc3e 02be d524 6dbc 4eac cb3d
000000f0: e50a 133e be0b c43d c188 913d 7c90 6a3d
00000100: 0606 83bd ebfb c93d baca aabd 16e4 2fbd
00000110: 40d1 f83c a7d6 c13e 92cb 1cbd 5026 aebc
00000120: cccf e63d 6608 da3d 15f3 d2bb 6630 0c3e
00000130: c5ef c6bc dbfc 853d a87f d33c e63a e5bc
00000140: 5d63 193e f9ce abbd 0879 91bd 2e71 b3be
00000150: f31b ecbd 8de2 dc3e 988c 5bbd f936 0abe
00000160: 81bc 993c 5cd6 f1bc ae9a 0fbe ecf4 e13d
00000170: ac65 013b 1d3c a73d fa42 0d3e 3fe8 98bd
00000180: 85f2 d2bd 705f 823e 7417 803e 8162 243e
00000190: e2e7 f7be d49f 913d a635 8e3d 53bb cdbe
000001a0: f419 853d 099c d83d f3e2 2cbd cb1c 823e
000001b0: 57b2 ce3d 16f9 703e ad22 2a3c 0d2f 07bf
000001c0: 2a83 97bd c8ed e93d 577c 8fbe a709 343d
000001d0: 1110 a6bd 765f a13c b867 193e acdd 6dbd
000001e0: 67d6 8b3d 094c b43d bdab 08bd d786 15be
000001f0: b870 d8bc b102 063e a8bf a43e 1130 5b3e
-0.08880026 0.14931098 -0.3779579 0.12803085 0.13302965 0.26289517 0.45331612 0.20533024
-0.4682584 -0.12376473 -0.527286 0.051966608 0.085465424 -0.4650815 -0.091170885 0.29217905
0.123647146 -0.030373914 0.012219791 0.2342684 -0.024406467 0.20910557 0.16199565 -0.12367535
0.023890669 0.14715901 -0.06576627 -0.14026937 0.07410524 0.11941111 0.20380218 -0.024195906
0.09244741 0.12490909 -0.10576367 -0.052366406 0.032296434 0.14205426 0.04166503 0.04860264
0.13038245 -0.09681111 -0.039207317 -0.08590527 0.050078865 -0.08951011 -0.07170871 -0.04958223
0.036948115 0.09446057 -0.009756077 -0.102172256 -0.058350727 -0.057504762 -0.047453534 -0.06153896
0.03748304 -0.12719244 -0.0144741135 0.09944974 0.14359625 0.09572552 0.07106162 0.057266697
-0.06397633 0.09862503 -0.08339448 -0.04294213 0.030373216 0.3785908 -0.038280077 -0.021258503
0.11270103 0.10646133 -0.006437669 0.13690338 -0.024284253 0.06542369 0.025817707 -0.027982187
0.1497931 -0.08389086 -0.07103163 -0.35047287 -0.115287684 0.43141595 -0.053600878 -0.13497533
0.018766643 -0.02952116 -0.1402385 0.11033043 0.001974444 0.081657626 0.13795081 -0.074661724
-0.10300163 0.25463438 0.25017893 0.16053201 -0.484191 0.07110563 0.069438264 -0.4018198
0.06499091 0.10576636 -0.042208623 0.25412592 0.100926094 0.23532519 0.010384244 -0.5280617
-0.073980644 0.11422306 -0.2802455 0.043954518 -0.08108533 0.01969884 0.14980972 -0.05807273
0.068280034 0.08803565 -0.033366907 -0.14602219 -0.026420936 0.13086964 0.32177472 0.21405055

model.lstm.weight_ih_l1 f4 [128, 32]
00000000: 93cb 073f 036c ec3e 372e 1abf a086 9ebf
00000010: fadf a7be 0413 38be 38ea 75bd 70d2 fb3e
00000020: e6a3 f33e 9eb9 bebd c9e1 cdbe 35f6 273f
00000030: e455 113f 3771 0bbf 00d6 b0bd 61ca f23e
00000040: 1caf 1a3f 2325 17bf f204 d7be 1ec1 053f
00000050: e3b4 06bf 2a77 42bf dd2f dc3e 7fdd 17bd
00000060: 476b 06be 957b 4d3f a6ab 123f 47cb c53d
00000070: 2877 4c3d d885 223f c32f 0d40 83af 82c0
00000080: 6795 e43e 415f 423f caea fabe 8203 c3bf
00000090: 49ee dfbe 2d0e 21be 789f 1039 d39f 413e
000000a0: fa18 d63e d771 7fbc 58dc c1be 7c47 293f
000000b0: 439d 2a3f fd4d f2be d796 30bd ec9d 343f
000000c0: 12e0 e43e 7c1f 19bf c6a9 debe dfd9 973e
000000d0: 0474 0bbf 00ea 67bf 86d1 0d3f b47a 1cbc
000000e0: ead9 01be 3e78 993f a666 143f 3108 8cbb
000000f0: 9756 36bd 088d 213f bcef 1840 6b86 87c0
00000100: 1741 083f a3a4 4c3f c99a f0be 4ece f0bf
00000110: f6d0 c8be aeea 70bd 3c2d 2e3d ed8c 823e
00000120: 56ed b23e cc7d 89bc 509d 0fbf 4f05 f93e
00000130: 8be5 703f 7801 06bf 0adf 04be 099d 383f
00000140: e8ec 2b3f 6ec3 fdbe 3ca9 11bf 29d5 a43e
00000150: 9e44 10bf fc3b 89bf a2fc 233f 54fc 113e
00000160: d2c1 b9bd 8c9f af3f 5ec0 e73e 3ac7 b23d
00000170: c093 4bbd dec7 403f a3c7 2240 28fc 87c0
00000180: ae20 243f 7970 733f 970f ffbe 8802 d5bf
00000190: 684d 16bf 5905 46be d07e d73d 98e7 ba3e
000001a0: a983 193f c76d 913d eff7 efbe 2688 fc3e
000001b0: 8059 243f 3763 03bf 80ad 39bc 5933 f93e
000001c0: d426 1c3f 92dd d4be ce4a e1be c72a d83e
000001d0: a2d1 28bf 2a30 81bf b980 303f 65bc 58bd
000001e0: 1310 8f3d a2fd 8f3f ed7b 203f e2af 9a3d
000001f0: 5c84 abbd 1573 353f 4e99 2540 9c8b 88c0
00000200: 4232 e23e 4552 2a3f d63c 16bf 89b2 e9bf
00000210: cb8b e7be 987e febd 04f8 b33c cb30 c63e
00000220: 6dde c73e afb5 103e bc41 edbe 3bf9 1c3f
00000230: 0918 413f 6b97 99be a4e3 a4bc 5371 1e3f
00000240: a900 cd3e 581b 07bf abbf 05bf ad42 a83e
00000250: 4e95 c0be 772b 89bf b745 093f 52df 98bd
00000260: c0eb e6bc 50cd 9e3f 3f9e f03e cf42 c13d
00000270: 0705 16be c812 f93e 047f 3140 d029 81c0
00000280: 3a6a f43e e897 783f f8a6 d4be ecf2 c5bf
00000290: 0834 b6be e89b eebd 0c3b 58bb bc09 043f
000002a0: de12 073f f648 6dbc 4732 b3be 5b53 d43e
000002b0: 46a9 4d3f 6935 f6be 7e63 0cbe 5801 1e3f
000002c0: 03b6 103f 8893 0abf 29e4 d0be e593 e43e
000002d0: 13b4 08bf d0d3 58bf 2966 ce3e 7437 a63d
000002e0: 560a c4bd f092 9b3f b78a d23e 34b2 0dbc
000002f0: 4eef 0abe 042d 3b3f f1f4 2240 0c0e 8dc0
00000300: 768a 243f 9be1 4b3f 06b0 0dbf 7778 ebbf
00000310: b81e e2be 4051 1bbd 09e4 aebd c7f8 ae3e
00000320: c2e0 0a3f d460 98bd 84f6 c1be 5212 dd3e
00000330: f1d8 653f 8634 a6be dd6b 4abd 7514 483f
00000340: 79a5 0e3f 76b7 bfbe e1ee 0ebf ffa3 063f
00000350: c314 00bf 5e76 96bf 55e5 103f 0454 9abd
00000360: 70e8 3f3d 5c85 c63f 52b9 143f 6766 91bd
00000370: 6089 b83d 171e 273f 9376 3140 713d 7dc0
00000380: a478 f13e e7bc 2c3f c212 1abf 4aa1 e3bf
00000390: 226c 14bf 7cd3 86bd 8479 57bd cef1 e73e
000003a0: 1ec6 fc3e 6119 ae3b ca28 c2be bedd 163f
000003b0: 6cff 403f 7f16 15bf 4b77 0abe 5661 2e3f
000003c0: 6ad1 1d3f ecb0 f0be cdee ecbe 993b 063f
000003d0: 2db0 29bf 1808 82bf 6309 eb3e b137 7a3d
000003e0: 2ec6 6fbc cec5 b73f 2bd5 1d3f a062 2a3c
000003f0: ed51 26bd 4011 0a3f 0d6d 2a40 fd2a 85c0
0.53045005 0.46176156 -0.6022677 -1.2384834 -0.32788068 -0.17976004 -0.06003782 0.4918399
0.47585982 -0.093127474 -0.40211323 0.6561006 0.56771684 -0.5446963 -0.08634567 0.47420028
0.60423446 -0.5904104 -0.4199596 0.522478 -0.5261976 -0.7596308 0.43005267 -0.03707647
-0.1312686 0.80266696 0.57293165 0.09657913 0.049918324 0.6348548 2.2060401 -4.083925
0.44645235 0.75926596 -0.49007255 -1.5235445 -0.43736485 -0.15728064 0.00013792317 0.18908624
0.4181593 -0.015591106 -0.3786342 0.661247 0.6664621 -0.47325125 -0.043112602 0.7055347
0.44702202 -0.59813666 -0.43488902 0.2965841 -0.544739 -0.9059143 0.5539783 -0.009550739
-0.12680784 1.198982 0.5796913 -0.0042734374 -0.044516172 0.6310582 2.3896322 -4.2351584
0.5322432 0.79938716 -0.46993092 -1.8812959 -0.39221925 -0.058817558 0.042523608 0.25498143
0.34946698 -0.016783617 -0.56099415 0.48636863 0.94100255 -0.5234599 -0.12975708 0.72114617
0.67158365 -0.49563164 -0.56898856 0.32193878 -0.563547 -1.0721431 0.6405736 0.14256412
-0.090701714 1.3720565 0.45263952 0.08729406 -0.049701452 0.75304973 2.5434349 -4.249531
0.64112365 0.95093495 -0.49816582 -1.6641397 -0.5871186 -0.19337977 0.105222344 0.36504817
0.5996652 0.071010165 -0.46868846 0.49322623 0.64199066 -0.51323265 -0.0113328695 0.48671988
0.60996747 -0.41575295 -0.44002384 0.42220137 -0.65944874 -1.0092824 0.68946415 -0.052914042
0.06985488 1.1249278 0.62689096 0.07553078 -0.08374855 0.70878726 2.587482 -4.267042
0.4417897 0.66531783 -0.5868658 -1.825761 -0.4522384 -0.124264896 0.021968849 0.387091
0.39036885 0.14131807 -0.46339214 0.61317796 0.754273 -0.29998335 -0.020128079 0.6189167
0.40039566 -0.527761 -0.5224559 0.3286337 -0.3761391 -1.071639 0.53622 -0.0746447
-0.028188586 1.2406406 0.46995732 0.09436571 -0.14650355 0.4864714 2.7733774 -4.036354
0.47737294 0.9710679 -0.41533637 -1.5464759 -0.35586572 -0.116508305 -0.003299418 0.51577353
0.52763164 -0.014482727 -0.34999296 0.41469845 0.80336416 -0.48087624 -0.13709828 0.617208
0.5652773 -0.54131365 -0.40799072 0.44644085 -0.5339977 -0.846982 0.40312317 0.081160456
-0.09572284 1.2154217 0.41121456 -0.008648444 -0.1356785 0.73115563 2.5462 -4.4079647
0.64273775 0.7964112 -0.55346715 -1.8396138 -0.44164062 -0.037919283 -0.08539588 0.34174177
0.54249203 -0.074403435 -0.3788339 0.4317804 0.8978415 -0.32461947 -0.049419273 0.78156215
0.5572124 -0.37444657 -0.5583325 0.5259399 -0.5003168 -1.1754873 0.5659993 -0.07535556
0.04685253 1.5509448 0.58095276 -0.0709961 0.09010577 0.6528029 2.7728622 -3.956875
0.47162354 0.6747574 -0.6018487 -1.7783597 -0.579775 -0.06583306 -0.05260612 0.4530167
0.493699 0.005313084 -0.37921745 0.589321 0.7538974 -0.5823745 -0.13522069 0.6811727
0.61647666 -0.4700998 -0.4627594 0.5243469 -0.6628445 -1.015872 0.459056 0.061088268
-0.014634652 1.435724 0.61653394 0.010399491 -0.040605474 0.5393257 2.662906 -4.1614976

model.lstm.weight_hh_l1 f4 [128, 32]
00000000: 26ab 81bc b4d4 d63c 4bad ae3c fb1b c3bd
00000010: 24fd bebd 6016 f9bd 155c 8a3c bf69 d3bd
00000020: 1af4 103e 8a2e fd3d 3fa4 17bd e288 553d
00000030: cc84 173d 036c 093c 344e b13d 54f9 05bc
00000040: 153a 6dbd 4390 febd 924b 10bc 4b0e 0d3e
00000050: 18de d6bc aa42 ea3d 4b8d f2bd 1343 03bd
00000060: 5682 12bd 263c b23d 8b23 07be 8ab3 b1bd
00000070: e02d 3cbd 9722 0abe d7f6 bc3d c051 b03d
00000080: 41fb 3dbd 0431 9b3d 9c51 cf3d 5d0a f43d
00000090: 3bbf 8e3d afbd b1bd 7767 e0bd 623e c4bd
000000a0: eee5 0dbd 15f9 d7bd f220 32bd 2339 babd
000000b0: dbf9 a03d b347 143e 4b26 a43c 7fec 08be
000000c0: e2d9 d7bc fd2b 023e e6e4 e1bd 95b1 693d
000000d0: cac0 ecbd b8e2 523d 3997 f2bd c181 80bc
000000e0: 048b 53bd 3b4f 8f3d eef6 0f3e 4c93 7abc
000000f0: 17e3 ce3b 7584 51bb 787f fc3d 0d5a bb3d
00000100: 827f ea3d 87ae 433c 6322 d1bd 3cb7 8bbd
00000110: 2495 01bd 203c 823d ac9d 203d 81a0 a7bd
00000120: 6b31 25bd cf22 e4bd 0a3b a4bc 637c 843d
00000130: 37ac a13b 1eb2 1e3d e45e 04be 4d26 65bd
00000140: 7e11 5b3d bf05 36bd 53ef eabd 1e40 ebbd
00000150: 8ec9 c3bb 035c a43d 0fbd 833d e914 aa3d
00000160: be8c 3fbd 92b5 d3bd a9ac ebbd c23e 34bd
00000170: 1be6 9cbd 2c29 0f3e aecd 413d 453f 2d3d
00000180: 63f2 873d c40d e83d 1610 4ebd 84ce 42bc
00000190: 68e1 31bd 32ce 03bd 303b ed3d 6ac2 0ebd
000001a0: 9a58 51b9 5bdf e4bc 6dd9 3abd cf51 db3c
000001b0: 43b8 723d 6e18 fa3d d7ee 0ebe 3bb2 663d
000001c0: 2fd4 51bd 4a1f 8abd a23b 76bd bbc3 f7bd
000001d0: d1a4 623d 1062 f43d d872 503d 64e9 e43d
000001e0: 78d7 9e3c 597e fc3d 1be8 3ebd c5ea 8d3d
000001f0: f9d4 8f3d 18e2 9a3d cf63 e03d c65f 86bb
00000200: 3e6a 043e 09da 863d 96b2 3fbc da56 113e
00000210: d069 f23d 4d50 b8bd 5fa9 123e 09ab a63d
00000220: 8aae aebd 8df7 303d 6689 bb3d 958e fbbd
00000230: fbe3 a8bd a7b5 023d 33f9 1bbd 24a7 c8bc
00000240: 705f ce3d 6260 b33d f66f 9dbd bb80 5cbd
00000250: 18aa a33d 72d8 a93d e59b 7bbc 3b90 9e3d
00000260: 8dc2 f03d ab81 003d ac27 ef3c 4c47 3bbd
00000270: d698 8abd cac4 2a3d 07cd 80bd 5a48 5cbd
00000280: 8b38 d23d 359b b9bd d01c 09be 5acc 4c3d
00000290: deb8 1e3c ca03 cebb 4631 04be 88aa 07bd
000002a0: 09fc adbd 227e febd 4f95 413d 5450 98bd
000002b0: fd8e bbba 253c df3d 7b5a f5ba 0df9 b83d
000002c0: ab53 10bd e166 08be 8d1e 65bd 44eb cfbd
000002d0: 4cee 853d 3604 adbd 26a0 573d 9f98 0b3d
000002e0: f57c e8bc 6eb7 023e 7d19 f5bd fefc 783d
000002f0: b2fd 2f3b 5423 bebb a723 623d dc6d 593b
00000300: 6933 883d dba0 533d 4e44 0fbe df21 093e
00000310: dbaf 3f3d 6ccd 20bd b1ed 3e3d fb54 133e
00000320: 853b 09be c57d 3b3d 42c4 a83d e1f3 0c3e
00000330: 7329 e63d d892 913d 1e07 bd3d 76c0 0f3e
00000340: 3b10 9a3d 72c6 abbd 3c23 0bbe 4706 0c3e
00000350: c971 8ebc 60f9 f23d 1d7d a33c 3f7c 25bd
00000360: b62b fe3d c9c9 00be e078 5b3d 420a 39bd
00000370: d3e7 cd3d 601f 8ebc 1f75 d4bc c7c8 e23b
00000380: 69c5 f43d 9642 fdbd ca4f 41ba ef83 e3bb
00000390: 3ffd 04bc 78bc 983b e54e 8d3d 52f1 35bc
000003a0: 8a16 f73d f8c8 11be 0ca5 123e 70f7 adbd
000003b0: aa03 913c d8b9 133e c97b d4bc 53e9 323d
000003c0: 513a 8cbd f8a0 393d 0532 f5bd 9167 b93c
000003d0: 5d73 ebbd fbf8 13bd 5140 c9bd e8c2 d5bd
000003e0: c8b9 c3bd c62d 05be 16e5 443d 235a e4bd
000003f0: fa93 533d 5ac5 03be 3f3b 2c3d 164a 3ebd
-0.01582868 0.026224472 0.021322867 -0.09526821 -0.093256265 -0.12162471 0.016889611 -0.10322904
0.14155617 0.12362392 -0.03702187 0.052132495 0.03699188 0.008387568 0.08657494 -0.00817712
-0.05791672 -0.124298595 -0.00880708 0.13774984 -0.02622895 0.114384964 -0.11843356 -0.03204639
-0.03576883 0.08702879 -0.13197152 -0.086768225 -0.045942187 -0.13489757 0.092267685 0.086093426
-0.046382193 0.07577708 0.10122988 0.11916039 0.06970068 -0.086787574 -0.10957234 -0.09582211
-0.034643106 -0.105455555 -0.04348845 -0.09092929 0.07860156 0.14480476 0.02003779 -0.13371466
-0.026349012 0.12712093 -0.11029987 0.05705412 -0.11560209 0.051485747 -0.1184525 -0.015686871
-0.051646248 0.06997534 0.1405904 -0.015293907 0.0063136923 -0.003196982 0.12329 0.09148035
0.114501014 0.011943466 -0.10211637 -0.068220586 -0.031636372 0.06359124 0.039212868 -0.081849106
-0.04033033 -0.11139452 -0.020047683 0.064690374 0.0049338597 0.038744085 -0.12926823 -0.05594473
0.05348348 -0.044439074 -0.11471429 -0.11486839 -0.005974955 0.08025362 0.064325444 0.083047695
-0.04676508 -0.10337366 -0.11507542 -0.044005163 -0.07661077 0.1398055 0.047315292 0.042296667
0.066380285 0.113307506 -0.05030831 -0.0118900575 -0.043427855 -0.032179065 0.11583555 -0.034853376
-0.000199648 -0.027938535 -0.04561751 0.026772408 0.059257757 0.12211691 -0.13958298 0.056322318
-0.051227745 -0.06744249 -0.060115464 -0.120978795 0.055332962 0.119327664 0.050890774 0.11177328
0.019389853 0.123287864 -0.04660807 0.06929544 0.07023043 0.07562655 0.10956537 -0.0041007726
0.12931153 0.06584556 -0.011700293 0.14193287 0.118365884 -0.08999691 0.14322422 0.08138091
-0.085293844 0.043204833 0.09157066 -0.12283055 -0.08246609 0.03191152 -0.03807945 -0.024493761
0.10076797 0.08758618 -0.076873705 -0.053833704 0.07991427 0.08293237 -0.015356992 0.077423535
0.117558576 0.03137366 0.029193722 -0.04572229 -0.067674324 0.04169158 -0.06289106 -0.053779937
0.10264691 -0.090628065 -0.13389897 0.049999572 0.00968763 -0.006287073 -0.12909421 -0.033121616
-0.084953375 -0.12426402 0.047261532 -0.074371964 -0.0014309582 0.109001435 -0.0018718982 0.09031878
-0.035236042 -0.13320495 -0.05593734 -0.10152295 0.06539592 -0.08448069 0.052642964 0.034081098
-0.028379897 0.12765285 -0.11967752 0.060788147 0.0026854095 -0.0058025513 0.055209782 0.0033177054
0.06650431 0.051667076 -0.139909 0.13391827 0.04679857 -0.039258406 0.0466134 0.14387886
-0.13401611 0.04577424 0.08240558 0.13764907 0.112383746 0.07108086 0.09229873 0.14038262
0.07522627 -0.0838746 -0.1358766 0.1367427 -0.017388241 0.11863971 0.01995712 -0.040401693
0.12410681 -0.12576975 0.053582072 -0.0451758 0.100539826 -0.017348945 -0.025934754 0.006920907
0.119517155 -0.12366216 -0.0007374255 -0.006943218 -0.008117019 0.004661139 0.068998136 -0.0111048985
0.12064846 -0.1423682 0.14320773 -0.084944606 0.017701942 0.14426363 -0.025937932 0.043679547
-0.068470605 0.045319527 -0.11972431 0.022632392 -0.11496613 -0.03612612 -0.098267205 -0.10437566
-0.09556919 -0.13005742 0.048070036 -0.11150005 0.051654793 -0.12868252 0.04204869 -0.046457373

model.lstm.bias_ih_l1 f4 [128]
00000000: decb 043f 5f56 223f 9df9 273f 58ec 073f
00000010: e76f 093f 4624 b03e 54fb cc3e bfe8 063f
00000020: 1602 1b3f babc 133f 037e 213f b656 0c3f
00000030: 90fb 203f d7de 2f3f 05d4 1f3f 9c2e 0d3f
00000040: bd19 203f 2a83 fd3e 0466 f63e 85a4 2f3f
00000050: 5cb5 3c3f 479e e23e 5890 243f b1ae 143f
00000060: 903b 0b3f 4072 fb3e dfcd 113f 3ac1 f03e
00000070: 7821 023f 50e3 163f 87df 283f b71f 213f
00000080: 21dc 93bd bdb0 dfbd 420d 393d 05c6 593d
00000090: e8f0 123e 53de 993c 9608 27bc 2b8d 33bd
000000a0: 9bb7 b1bc d82b ecbd aede 9cbd 7e36 053e
000000b0: 3450 d33d fd41 9d3c e861 ca3d 9289 13be
000000c0: d550 3abd c764 0bbe 608e 3fbd f45c 073e
000000d0: da8f 50bd 7e8d abbd e4f5 413d 27f5 06bd
000000e0: deb5 113e 7d90 693d ebda 623d 4813 f0bc
000000f0: 8a24 0b3e b072 82bd 6f54 1e3d 8e91 88bd
00000100: 7146 04bf 1f23 83be bc9f 97be e327 ce3e
00000110: 8d74 a53e d8e6 a6be 32ec 793e a19e e63e
00000120: 8250 b33e a0f3 c33e e4ea bbbe f115 ba3e
00000130: 2570 a7be 47fe ecbe 4ff5 ae3e 2381 503e
00000140: 36d3 7e3e 9a0b aabe 09ca d3be be85 c23e
00000150: c3c8 9dbe c509 813e a98e a03e 4ac4 6c3e
00000160: e339 95be 18a3 a23e 09bb c73e 6d97 7a3e
00000170: ad57 893e bc31 9d3e a9b7 823e b73d 303e
00000180: 16c3 0b3f 2266 2c3f d81a 143f 05a9 253f
00000190: 071f 253f b9bb 143f 4a02 2b3f 133c 013f
000001a0: 03da 0c3f a02b 1f3f b335 1d3f 1b33 333f
000001b0: 21f5 eb3e 261b fc3e f0a7 2d3f 1c6d 2c3f
000001c0: 0200 ea3e c575 003f 0baa 2c3f 70bc f83e
000001d0: 9aa0 0e3f 559d c23e 57fd 123f 7f0b 2f3f
000001e0: 966e f03e a068 fd3e de47 f53e 1e0f 1a3f
000001f0: 4201 043f fb2a f63e 100a 553f 05ca 093f
0.51873577 0.6341304 0.65615255 0.53095007 0.53686374 0.34402674 0.40035498 0.5269889
0.6055006 0.5770985 0.63082904 0.5481981 0.62883854 0.686994 0.6243289 0.55149245
0.62539274 0.49514133 0.48124707 0.6861041 0.7371423 0.4426138 0.6428275 0.5807906
0.5438776 0.49110603 0.5695476 0.4702242 0.5083232 0.589406 0.65966076 0.6293902
-0.07219721 -0.10922382 0.04517866 0.05316736 0.14349711 0.01878277 -0.010194918 -0.0438358
-0.021693995 -0.115318 -0.0765966 0.13009068 0.10318032 0.019196505 0.098819554 -0.14407948
-0.045487244 -0.13612662 -0.04676664 0.13219053 -0.050918438 -0.08376597 0.04735364 -0.03294864
0.14229533 0.05702256 0.055384558 -0.029306069 0.13588157 -0.06369531 0.03865474 -0.06668387
-0.51669985 -0.25612733 -0.29614055 0.40264806 0.32315484 -0.32597995 0.24406508 0.450429
0.3502236 0.3827181 -0.36702645 0.36344865 -0.32702747 -0.46287748 0.3417153 0.20361762
0.24885258 -0.33211976 -0.41365078 0.37992662 -0.30817232 0.25202766 0.3135884 0.23121753
-0.29145727 0.31765056 0.39009884 0.24471827 0.26824704 0.30702007 0.25530747 0.17211042
0.5459455 0.6734334 0.5785346 0.6471103 0.6450047 0.5809894 0.6680037 0.5048229
0.5502016 0.6217594 0.61410064 0.69999856 0.46085456 0.49239463 0.6783438 0.6735399
0.4570313 0.501797 0.67446965 0.48581266 0.5571381 0.3801066 0.57417816 0.68376917
0.4695937 0.49493885 0.47906393 0.60179317 0.5156442 0.48079666 0.8321848 0.5382388

model.lstm.bias_hh_l1 f4 [128]
00000000: aeae 063f 1373 d13e 2bd7 083f e2f5 f33e
00000010: 5890 1e3f 9c78 133f e064 dc3e 40a0 263f
00000020: 0154 203f 6ca1 0f3f 7d1c 1e3f 7188 093f
00000030: 4ce4 053f eff6 f33e 82e8 273f 3634 1d3f
00000040: 841f f83e a6ce f43e fadd fc3e 4f99 eb3e
00000050: 03f6 fd3e ae79 073f a1d7 e23e c489 213f
00000060: 66a3 223f 4bc2 0d3f 76d7 1f3f 6991 233f
00000070: 3afa f73e 3c44 073f 07ba 583f b81c ec3e
00000080: 07c9 34bd 6f05 05be bf38 5cbd fff9 87bd
00000090: 385d fc3d ce4e 0b3e db18 683d 721a 58bd
000000a0: 5d31 f9bc b7fb 2cbd 4781 dcbd f92b 7fba
000000b0: 2dd1 9e3d fcf5 813c 3f20 093e 271c bf3d
000000c0: 7afd f8bd 6bd0 3fbd bc33 fabc 0e32 07be
000000d0: 058a 05be 06f8 93bd c252 b53d 4f2d 1bbd
000000e0: 8c7a cd3c 5986 d33c 0268 09be 096c a23d
000000f0: 181b 7c3d 5b18 d3bd 38f3 253b 7dce 96bc
00000100: 3145 bcbe e6f2 a9be 7d71 bbbe cd50 ad3e
00000110: 012b 273e f0d9 3bbe 6d1f a13e 04af 683e
00000120: 7ab8 003f f917 e13e 6907 c9be 2893 a83e
00000130: b9c9 91be 55e8 dcbe f2ac a63e 5fed 573e
00000140: 1d8c a83e 00a1 c3be 653a 87be 7d35 a63e
00000150: 9967 e3be a9db 923e c238 a13e ecad 613e
00000160: 3ebe c9be b1b8 f73d a88c d13e 78d9 b03e
00000170: d8bb b43e 0c03 953e 66d7 783e 14de ce3e
00000180: a23a 233f 23f0 173f 95eb 213f aa62 f43e
00000190: ff53 233f f933 063f 4155 133f a23a 1a3f
000001a0: 2b12 3a3f 41bb ed3e c823 e73e fee3 303f
000001b0: 20e6 153f d2ef fc3e 71fe ea3e e4ea f73e
000001c0: 9861 063f c526 223f 48ba 0d3f d550 203f
000001d0: 0601 1b3f ec39 e43e 01bc 263f 6920 133f
000001e0: 4d52 ec3e 37c6 373f d368 383f f146 073f
000001f0: 11aa 163f b0a2 233f ada7 543f 0cd1 363f
0.5261029 0.40908107 0.5345332 0.4764853 0.61939 0.5760591 0.43045712 0.6508827
0.6262818 0.56105685 0.6176222 0.5372382 0.5230148 0.47649333 0.65589154 0.6140779
0.48461545 0.4781391 0.49388105 0.46015403 0.49601755 0.52920043 0.44305137 0.6310084
0.63530576 0.5537459 0.6243814 0.63893753 0.48433095 0.5283849 0.84658855 0.4611566
-0.044137027 -0.12990354 -0.053765055 -0.0663948 0.123224676 0.1360428 0.05666433 -0.052759595
-0.030419046 -0.04223224 -0.10766845 -0.00097340305 0.07754741 0.015864365 0.13391207 0.093315415
-0.12157722 -0.046829622 -0.030542247 -0.13202688 -0.13040932 -0.07225041 0.088536754 -0.037885007
0.025082849 0.025820898 -0.13418582 0.07930762 0.061549276 -0.1030738 0.0025321972 -0.018409008
-0.3677154 -0.3319313 -0.36610022 0.3385071 0.16324998 -0.18344855 0.31469288 0.22723013
0.5028149 0.43963602 -0.39263466 0.3292477 -0.28474215 -0.43146005 0.32553822 0.21086644
0.32919398 -0.3820877 -0.2641174 0.32462683 -0.44414976 0.28683212 0.31488615 0.22039002
-0.39402956 0.12095774 0.40927625 0.34540915 0.35299563 0.29103887 0.24300918 0.40403807
0.6376134 0.59350795 0.63250095 0.47731525 0.6380004 0.52423054 0.5755196 0.60245717
0.7268397 0.46431926 0.45144486 0.6909789 0.5855427 0.49401718 0.45897248 0.48421395
0.52492666 0.6334041 0.5536237 0.6262334 0.60548437 0.4457544 0.6513062 0.5747133
0.4615654 0.71786827 0.7203495 0.52842623 0.5885325 0.63920116 0.8306835 0.7141273

model.linear.weight f4 [1, 32]
00000000: 649d 02c1 538d 01c1 071e 00c1 d24d 0041
00000010: f4c1 0041 5254 01c1 dae6 ff40 b30c ff40
00000020: 6d79 0241 d4e4 0041 2751 00c1 f2c8 0141
00000030: d41f 00c1 d3cf 00c1 6003 0041 cffa 0041
00000040: 5b7a 0141 cb32 00c1 fca1 00c1 0b2b 0241
00000050: 71e5 fec0 8465 0041 cf3f 0141 b36c 0341
00000060: 3061 00c1 1922 0141 f394 ff40 9441 0141
00000070: 165a 0041 f15a 0241 0b07 0741 902a 0141
-8.163425 -8.097003 -8.007331 8.018999 8.047352 -8.083086 7.99693 7.9703
8.154645 8.055866 -8.019813 8.111559 -8.007771 -8.050738 8.000824 8.061233
8.092372 -8.012401 -8.039547 8.135509 -7.965508 8.024784 8.078078 8.214038
-8.023727 8.070825 7.9869323 8.07851 8.021994 8.1472025 8.439219 8.072891

exp_avg f4 [128, 1]
00000000: cacc 5035 d5a4 2bb6 5282 e33d c884 c138
00000010: 079f f623 2383 d2b8 503e 8dba c9be 9fba
00000020: e474 2e3c 7221 142a f25b 103b 3e21 873a
00000030: 0400 0080 1f9a 2923 f61b 682c b8cc 0d2c
00000040: 0400 0080 0400 0080 0400 0080 69cb 3bba
00000050: 45ab ceb2 fee6 25b5 0400 0080 5e76 b22d
00000060: da13 1dac 0400 0080 18ee d930 0da2 c3ab
00000070: 9102 4b2e 0400 0080 0400 0080 0400 0080
00000080: 0000 0000 0000 0000 0000 0000 0000 0000
00000090: 0000 0000 0000 0000 0000 0000 0000 0000
000000a0: 0000 0000 0000 0000 0000 0000 0000 0000
000000b0: 0000 0000 0000 0000 0000 0000 0000 0000
000000c0: 0000 0000 0000 0000 0000 0000 0000 0000
000000d0: 0000 0000 0000 0000 0000 0000 0000 0000
000000e0: 0000 0000 0000 0000 0000 0000 0000 0000
000000f0: 0000 0000 0000 0000 0000 0000 0000 0000
00000100: 0000 0000 0400 0080 0400 0000 0000 0000
00000110: 30f3 0ca3 d228 aa81 0000 0000 d908 62b5
00000120: ce12 e833 e09f ab27 0000 0000 0400 0080
00000130: 0000 0000 0400 0000 0000 0000 0000 0000
00000140: 0400 0080 0000 0000 0000 0000 08ef 203d
00000150: 0400 0000 1695 16ac 0400 0080 fdc7 b7a0
00000160: 4886 2526 0400 0080 0000 0000 e13e 8b1e
00000170: 84a7 4da7 0400 0080 0400 0080 0400 0000
00000180: 06cd ea35 8f91 da39 91dd 5039 0400 0080
00000190: c3b4 b62d 3616 b3a9 de54 9bae 79de 473b
000001a0: 0400 0080 7a21 142a 786b 2b34 8497 0232
000001b0: 7650 003a 0400 0080 b039 682c 63a0 bc30
000001c0: affd b032 13e6 473a c546 0f35 0400 0080
000001d0: 0400 0080 663b 16bb c07a 7336 0c8e 3023
000001e0: 3d18 1dac 8810 c338 1c79 2f3a 3ed5 c3ab
000001f0: 436a 1624 4dd0 0339 c7c4 133a 0400 0080
7.7784046e-07 -2.557693e-06 0.11108841 9.2276896e-05 2.6738724e-17 -0.000100380064 -0.0010776017 -0.0012187596
0.010647986 1.3156644e-13 0.002202746 0.001030959 -6e-45 9.194145e-18 3.2984704e-12 2.0150947e-12
-6e-45 -6e-45 -6e-45 -0.00071637944 -2.405944e-08 -6.180343e-07 -6e-45 2.0288823e-11
-2.2322062e-12 -6e-45 1.5856498e-09 -1.3900561e-12 4.6159136e-11 -6e-45 -6e-45 -6e-45
0.0 0.0 0.0 0.0 0.0 0.0 0.0 0.0
0.0 0.0 0.0 0.0 0.0 0.0 0.0 0.0
0.0 0.0 0.0 0.0 0.0 0.0 0.0 0.0
0.0 0.0 0.0 0.0 0.0 0.0 0.0 0.0
0.0 -6e-45 6e-45 0.0 -7.640912e-18 -6.250671e-38 0.0 -8.4204436e-07
1.08067624e-07 4.763537e-15 0.0 -6e-45 0.0 6e-45 0.0 0.0
-6e-45 0.0 0.0 0.039290458 6e-45 -2.1399041e-12 -6e-45 -3.1133747e-19
5.742786e-16 -6e-45 0.0 1.4743204e-20 -2.8540275e-15 -6e-45 -6e-45 6e-45
1.7494028e-06 0.0004168865 0.00019918966 -6e-45 2.0771279e-11 -7.95305e-14 -7.0636594e-11 0.0030497594
-6e-45 1.3156655e-13 1.5964713e-07 7.601447e-09 0.0004894802 -6e-45 3.3001206e-12 1.3724385e-09
2.0604459e-08 0.0007625531 5.3374634e-07 -6e-45 -6e-45 -0.0022923588 3.6281272e-06 9.571059e-18
-2.2324497e-12 9.301404e-05 0.0006693767 -1.391477e-12 3.2616072e-17 0.00012570732 0.0005636927 -6e-45

exp_avg_sq f4 [128, 1]
00000000: 69db 3136 0d0f c341 151b 743d b07a 0a41
00000010: c28d e431 cccf 5443 4518 0a3a d5ab b03c
00000020: ee26 b03d b5cc c817 c87f 0641 4818 6944
00000030: 9ac8 c22b d61f 0137 d07a bc1c 3576 2544
00000040: c122 c42a 3799 4029 1789 9520 2e43 4c44
00000050: a3ab 5937 e001 f534 e6fc 4c2b cda6 9923
00000060: 1533 9d1b 22dd 1a37 ff01 8929 46c1 9826
00000070: a88e ca26 3f20 bf20 c642 1d29 9dc7 8f29
00000080: 0000 0000 0000 0000 0000 0000 0000 0000
00000090: 0000 0000 0000 0000 0000 0000 0000 0000
000000a0: 0000 0000 0000 0000 0000 0000 0000 0000
000000b0: 0000 0000 0000 0000 0000 0000 0000 0000
000000c0: 0000 0000 0000 0000 0000 0000 0000 0000
000000d0: 0000 0000 0000 0000 0000 0000 0000 0000
000000e0: 0000 0000 0000 0000 0000 0000 0000 0000
000000f0: 0000 0000 0000 0000 0000 0000 0000 0000
00000100: 0000 0000 80ac ae24 7aff 402a 0000 0000
00000110: 0135 143a 71e1 583d 0000 0000 b625 1c33
00000120: 15e7 093e 91ec 1213 0000 0000 fe11 fc1f
00000130: 0000 0000 4a5d 1e2c 0000 0000 0000 0000
00000140: 077c 9a2c 0000 0000 0000 0000 e2f1 bd41
00000150: 85e7 9324 5060 ad3c 15bf 1329 eaa0 4007
00000160: 5dfe cd0f 179b 6d24 0000 0000 2945 be02
00000170: 395d 5915 a1aa 7a24 5b92 1d20 dd61 5223
00000180: 974d 8136 691e 4544 b7c5 a941 1ec3 152b
00000190: 8f22 d23d 8198 fe25 410c 0c23 6276 c03b
000001a0: 55a2 7a27 c7cc c817 2534 023a 1165 0532
000001b0: 6138 6643 765c 8337 c7b7 bc1c a69a 683c
000001c0: d8a6 5e31 e92b dd43 9dc9 c441 391e ae2d
000001d0: d692 7928 dbb8 5942 022f ae32 7183 060c
000001e0: 513c 9d1b 3c2d 1542 fdcd 8c42 62ef 6427
000001f0: ef31 cd0d dfbf 5243 a472 0641 d3d6 fc3c
2.6502769e-06 24.382349 0.05959614 8.654953 6.6517893e-09 212.8117 0.00052678987 0.02156631
0.08601175 1.2976372e-24 8.406197 932.3794 1.3840207e-12 7.696412e-06 1.2472543e-21 661.847
3.484071e-13 4.2765457e-14 2.53323e-19 817.0497 1.297417e-05 4.563617e-07 7.2826326e-13 1.6658936e-17
2.6006482e-22 9.230602e-06 6.0843684e-14 1.0599506e-15 1.4055233e-15 3.2377997e-19 3.491892e-14 6.385103e-14
0.0 0.0 0.0 0.0 0.0 0.0 0.0 0.0
0.0 0.0 0.0 0.0 0.0 0.0 0.0 0.0
0.0 0.0 0.0 0.0 0.0 0.0 0.0 0.0
0.0 0.0 0.0 0.0 0.0 0.0 0.0 0.0
0.0 7.57527e-17 1.7141662e-13 0.0 0.000565365 0.052949373 0.0 3.635588e-08
0.13467057 1.8544427e-27 0.0 1.0675592e-19 0.0 2.2504936e-12 0.0 0.0
4.390713e-12 0.0 0.0 23.743107 6.41433e-17 0.02116409 3.2806294e-14 1.4491763e-34
2.0312538e-29 5.152255e-17 0.0 2.7957687e-37 4.389634e-26 5.4354637e-17 1.3346842e-19 1.1404846e-17
3.8535322e-06 788.47516 21.22154 5.3206213e-13 0.10260498 4.4165317e-16 7.59201e-18 0.0058734873
3.478247e-15 1.297639e-24 0.00049668766 7.764599e-09 230.22023 1.5659472e-05 1.2488302e-21 0.014197027
3.2400091e-09 442.34305 24.598444 1.9794931e-11 1.3854117e-14 54.430523 2.0277643e-08 1.0362539e-31
2.601245e-22 37.294174 70.40232 3.1771126e-15 1.26461215e-30 210.7495 8.402988 0.030864155

exp_avg f4 [128, 32]
00000000: 0000 0000 0000 0000 0000 0000 0000 0000
00000010: 0000 0000 0000 0000 0000 0000 0000 0000
00000020: 0000 0000 0000 0000 0000 0000 0000 0000
00000030: 0000 0000 0000 0000 0000 0000 0000 0000
00000040: 0000 0000 0000 0000 0000 0000 0000 0000
00000050: 0000 0000 0000 0000 0000 0000 0000 0000
00000060: 0000 0000 0000 0000 0000 0000 0000 0000
00000070: 0000 0000 0000 0000 0000 0000 0000 0000
00000080: 0000 0000 0000 0000 0000 0000 0000 0000
00000090: 0000 0000 0000 0000 0000 0000 0000 0000
000000a0: 0000 0000 0000 0000 0000 0000 0000 0000
000000b0: 0000 0000 0000 0000 0000 0000 0000 0000
000000c0: 0000 0000 0000 0000 0000 0000 0000 0000
000000d0: 0000 0000 0000 0000 0000 0000 0000 0000
000000e0: 0000 0000 0000 0000 0000 0000 0000 0000
000000f0: 0000 0000 0000 0000 0000 0000 0000 0000
00000100: 0000 0000 0000 0000 0000 0000 0000 0000
00000110: 0000 0000 0000 0000 0000 0000 0000 0000
00000120: 0000 0000 0000 0000 0000 0000 0000 0000
00000130: 0000 0000 0000 0000 0000 0000 0000 0000
00000140: 0000 0000 0000 0000 0000 0000 0000 0000
00000150: 0000 0000 0000 0000 0000 0000 0000 0000
00000160: 0000 0000 0000 0000 0000 0000 0000 0000
00000170: 0000 0000 0000 0000 0000 0000 0000 0000
00000180: 0000 0000 0000 0000 0000 0000 0000 0000
00000190: 0000 0000 0000 0000 0000 0000 0000 0000
000001a0: 0000 0000 0000 0000 0000 0000 0000 0000
000001b0: 0000 0000 0000 0000 0000 0000 0000 0000
000001c0: 0000 0000 0000 0000 0000 0000 0000 0000
000001d0: 0000 0000 0000 0000 0000 0000 0000 0000
000001e0: 0000 0000 0000 0000 0000 0000 0000 0000
000001f0: 0000 0000 0000 0000 0000 0000 0000 0000
00000200: 0000 0000 0000 0000 0000 0000 0000 0000
00000210: 0000 0000 0000 0000 0000 0000 0000 0000
00000220: 0000 0000 0000 0000 0000 0000 0000 0000
00000230: 0000 0000 0000 0000 0000 0000 0000 0000
00000240: 0000 0000 0000 0000 0000 0000 0000 0000
00000250: 0000 0000 0000 0000 0000 0000 0000 0000
00000260: 0000 0000 0000 0000 0000 0000 0000 0000
00000270: 0000 0000 0000 0000 0000 0000 0000 0000
00000280: 0000 0000 0000 0000 0000 0000 0000 0000
00000290: 0000 0000 0000 0000 0000 0000 0000 0000
000002a0: 0000 0000 0000 0000 0000 0000 0000 0000
000002b0: 0000 0000 0000 0000 0000 0000 0000 0000
000002c0: 0000 0000 0000 0000 0000 0000 0000 0000
000002d0: 0000 0000 0000 0000 0000 0000 0000 0000
000002e0: 0000 0000 0000 0000 0000 0000 0000 0000
000002f0: 0000 0000 0000 0000 0000 0000 0000 0000
00000300: 0000 0000 0000 0000 0000 0000 0000 0000
00000310: 0000 0000 0000 0000 0000 0000 0000 0000
00000320: 0000 0000 0000 0000 0000 0000 0000 0000
00000330: 0000 0000 0000 0000 0000 0000 0000 0000
00000340: 0000 0000 0000 0000 0000 0000 0000 0000
00000350: 0000 0000 0000 0000 0000 0000 0000 0000
00000360: 0000 0000 0000 0000 0000 0000 0000 0000
00000370: 0000 0000 0000 0000 0000 0000 0000 0000
00000380: 0000 0000 0000 0000 0000 0000 0000 0000
00000390: 0000 0000 0000 0000 0000 0000 0000 0000
000003a0: 0000 0000 0000 0000 0000 0000 0000 0000
000003b0: 0000 0000 0000 0000 0000 0000 0000 0000
000003c0: 0000 0000 0000 0000 0000 0000 0000 0000
000003d0: 0000 0000 0000 0000 0000 0000 0000 0000
000003e0: 0000 0000 0000 0000 0000 0000 0000 0000
000003f0: 0000 0000 0000 0000 0000 0000 0000 0000
0.0 0.0 0.0 0.0 0.0 0.0 0.0 0.0
0.0 0.0 0.0 0.0 0.0 0.0 0.0 0.0
0.0 0.0 0.0 0.0 0.0 0.0 0.0 0.0
0.0 0.0 0.0 0.0 0.0 0.0 0.0 0.0
0.0 0.0 0.0 0.0 0.0 0.0 0.0 0.0
0.0 0.0 0.0 0.0 0.0 0.0 0.0 0.0
0.0 0.0 0.0 0.0 0.0 0.0 0.0 0.0
0.0 0.0 0.0 0.0 0.0 0.0 0.0 0.0
0.0 0.0 0.0 0.0 0.0 0.0 0.0 0.0
0.0 0.0 0.0 0.0 0.0 0.0 0.0 0.0
0.0 0.0 0.0 0.0 0.0 0.0 0.0 0.0
0.0 0.0 0.0 0.0 0.0 0.0 0.0 0.0
0.0 0.0 0.0 0.0 0.0 0.0 0.0 0.0
0.0 0.0 0.0 0.0 0.0 0.0 0.0 0.0
0.0 0.0 0.0 0.0 0.0 0.0 0.0 0.0
0.0 0.0 0.0 0.0 0.0 0.0 0.0 0.0
0.0 0.0 0.0 0.0 0.0 0.0 0.0 0.0
0.0 0.0 0.0 0.0 0.0 0.0 0.0 0.0
0.0 0.0 0.0 0.0 0.0 0.0 0.0 0.0
0.0 0.0 0.0 0.0 0.0 0.0 0.0 0.0
0.0 0.0 0.0 0.0 0.0 0.0 0.0 0.0
0.0 0.0 0.0 0.0 0.0 0.0 0.0 0.0
0.0 0.0 0.0 0.0 0.0 0.0 0.0 0.0
0.0 0.0 0.0 0.0 0.0 0.0 0.0 0.0
0.0 0.0 0.0 0.0 0.0 0.0 0.0 0.0
0.0 0.0 0.0 0.0 0.0 0.0 0.0 0.0
0.0 0.0 0.0 0.0 0.0 0.0 0.0 0.0
0.0 0.0 0.0 0.0 0.0 0.0 0.0 0.0
0.0 0.0 0.0 0.0 0.0 0.0 0.0 0.0
0.0 0.0 0.0 0.0 0.0 0.0 0.0 0.0
0.0 0.0 0.0 0.0 0.0 0.0 0.0 0.0
0.0 0.0 0.0 0.0 0.0 0.0 0.0 0.0

exp_avg_sq f4 [128, 32]
00000000: 0000 0000 0000 0000 0000 0000 0000 0000
00000010: 0000 0000 0000 0000 0000 0000 0000 0000
00000020: 0000 0000 0000 0000 0000 0000 0000 0000
00000030: 0000 0000 0000 0000 0000 0000 0000 0000
00000040: 0000 0000 0000 0000 0000 0000 0000 0000
00000050: 0000 0000 0000 0000 0000 0000 0000 0000
00000060: 0000 0000 0000 0000 0000 0000 0000 0000
00000070: 0000 0000 0000 0000 0000 0000 0000 0000
00000080: 0000 0000 0000 0000 0000 0000 0000 0000
00000090: 0000 0000 0000 0000 0000 0000 0000 0000
000000a0: 0000 0000 0000 0000 0000 0000 0000 0000
000000b0: 0000 0000 0000 0000 0000 0000 0000 0000
000000c0: 0000 0000 0000 0000 0000 0000 0000 0000
000000d0: 0000 0000 0000 0000 0000 0000 0000 0000
000000e0: 0000 0000 0000 0000 0000 0000 0000 0000
000000f0: 0000 0000 0000 0000 0000 0000 0000 0000
00000100: 0000 0000 0000 0000 0000 0000 0000 0000
00000110: 0000 0000 0000 0000 0000 0000 0000 0000
00000120: 0000 0000 0000 0000 0000 0000 0000 0000
00000130: 0000 0000 0000 0000 0000 0000 0000 0000
00000140: 0000 0000 0000 0000 0000 0000 0000 0000
00000150: 0000 0000 0000 0000 0000 0000 0000 0000
00000160: 0000 0000 0000 0000 0000 0000 0000 0000
00000170: 0000 0000 0000 0000 0000 0000 0000 0000
00000180: 0000 0000 0000 0000 0000 0000 0000 0000
00000190: 0000 0000 0000 0000 0000 0000 0000 0000
000001a0: 0000 0000 0000 0000 0000 0000 0000 0000
000001b0: 0000 0000 0000 0000 0000 0000 0000 0000
000001c0: 0000 0000 0000 0000 0000 0000 0000 0000
000001d0: 0000 0000 0000 0000 0000 0000 0000 0000
000001e0: 0000 0000 0000 0000 0000 0000 0000 0000
000001f0: 0000 0000 0000 0000 0000 0000 0000 0000
00000200: 0000 0000 0000 0000 0000 0000 0000 0000
00000210: 0000 0000 0000 0000 0000 0000 0000 0000
00000220: 0000 0000 0000 0000 0000 0000 0000 0000
00000230: 0000 0000 0000 0000 0000 0000 0000 0000
00000240: 0000 0000 0000 0000 0000 0000 0000 0000
00000250: 0000 0000 0000 0000 0000 0000 0000 0000
00000260: 0000 0000 0000 0000 0000 0000 0000 0000
00000270: 0000 0000 0000 0000 0000 0000 0000 0000
00000280: 0000 0000 0000 0000 0000 0000 0000 0000
00000290: 0000 0000 0000 0000 0000 0000 0000 0000
000002a0: 0000 0000 0000 0000 0000 0000 0000 0000
000002b0: 0000 0000 0000 0000 0000 0000 0000 0000
000002c0: 0000 0000 0000 0000 0000 0000 0000 0000
000002d0: 0000 0000 0000 0000 0000 0000 0000 0000
000002e0: 0000 0000 0000 0000 0000 0000 0000 0000
000002f0: 0000 0000 0000 0000 0000 0000 0000 0000
00000300: 0000 0000 0000 0000 0000 0000 0000 0000
00000310: 0000 0000 0000 0000 0000 0000 0000 0000
00000320: 0000 0000 0000 0000 0000 0000 0000 0000
00000330: 0000 0000 0000 0000 0000 0000 0000 0000
00000340: 0000 0000 0000 0000 0000 0000 0000 0000
00000350: 0000 0000 0000 0000 0000 0000 0000 0000
00000360: 0000 0000 0000 0000 0000 0000 0000 0000
00000370: 0000 0000 0000 0000 0000 0000 0000 0000
00000380: 0000 0000 0000 0000 0000 0000 0000 0000
00000390: 0000 0000 0000 0000 0000 0000 0000 0000
000003a0: 0000 0000 0000 0000 0000 0000 0000 0000
000003b0: 0000 0000 0000 0000 0000 0000 0000 0000
000003c0: 0000 0000 0000 0000 0000 0000 0000 0000
000003d0: 0000 0000 0000 0000 0000 0000 0000 0000
000003e0: 0000 0000 0000 0000 0000 0000 0000 0000
000003f0: 0000 0000 0000 0000 0000 0000 0000 0000
0.0 0.0 0.0 0.0 0.0 0.0 0.0 0.0
0.0 0.0 0.0 0.0 0.0 0.0 0.0 0.0
0.0 0.0 0.0 0.0 0.0 0.0 0.0 0.0
0.0 0.0 0.0 0.0 0.0 0.0 0.0 0.0
0.0 0.0 0.0 0.0 0.0 0.0 0.0 0.0
0.0 0.0 0.0 0.0 0.0 0.0 0.0 0.0
0.0 0.0 0.0 0.0 0.0 0.0 0.0 0.0
0.0 0.0 0.0 0.0 0.0 0.0 0.0 0.0
0.0 0.0 0.0 0.0 0.0 0.0 0.0 0.0
0.0 0.0 0.0 0.0 0.0 0.0 0.0 0.0
0.0 0.0 0.0 0.0 0.0 0.0 0.0 0.0
0.0 0.0 0.0 0.0 0.0 0.0 0.0 0.0
0.0 0.0 0.0 0.0 0.0 0.0 0.0 0.0
0.0 0.0 0.0 0.0 0.0 0.0 0.0 0.0
0.0 0.0 0.0 0.0 0.0 0.0 0.0 0.0
0.0 0.0 0.0 0.0 0.0 0.0 0.0 0.0
0.0 0.0 0.0 0.0 0.0 0.0 0.0 0.0
0.0 0.0 0.0 0.0 0.0 0.0 0.0 0.0
0.0 0.0 0.0 0.0 0.0 0.0 0.0 0.0
0.0 0.0 0.0 0.0 0.0 0.0 0.0 0.0
0.0 0.0 0.0 0.0 0.0 0.0 0.0 0.0
0.0 0.0 0.0 0.0 0.0 0.0 0.0 0.0
0.0 0.0 0.0 0.0 0.0 0.0 0.0 0.0
0.0 0.0 0.0 0.0 0.0 0.0 0.0 0.0
0.0 0.0 0.0 0.0 0.0 0.0 0.0 0.0
0.0 0.0 0.0 0.0 0.0 0.0 0.0 0.0
0.0 0.0 0.0 0.0 0.0 0.0 0.0 0.0
0.0 0.0 0.0 0.0 0.0 0.0 0.0 0.0
0.0 0.0 0.0 0.0 0.0 0.0 0.0 0.0
0.0 0.0 0.0 0.0 0.0 0.0 0.0 0.0
0.0 0.0 0.0 0.0 0.0 0.0 0.0 0.0
0.0 0.0 0.0 0.0 0.0 0.0 0.0 0.0
