dl_computer_vision/assignments/1/checkpoints/best_checkpoint-v19.ckpt (torch, 75964 bytes, 27 tensors)

model.lstm.weight_ih_l0 f4 [80, 1]
00000000: 13bd 523e cde5 5f3e d11f 36bf 75d9 383e
00000010: 4c66 023e 3c63 113f 11f5 dc3d 33db 3d3f
00000020: 1e67 053f d808 2c3f 19b8 123f 58f5 1dbe
00000030: e293 2abf 1a25 54be cf6d 063f ae57 553e
00000040: 4789 7dbe 20f0 273f d7d3 3d3f 2e5f 293e
00000050: 2715 b43d ceaa 733d 7445 d3bc a80b c73d
00000060: 6863 ecbd bcf7 2c3d 80a5 4d3e d5d4 d63d
00000070: f892 3a3d 36d1 433e d13c 9d3d a879 243e
00000080: da44 b43d bc7a 8a3c 92e4 4fbe 8007 04be
00000090: 3ff3 7ebb 3fca 70bc 8920 913d b6f2 bf3c
000000a0: bf8c 213e afaa 4bbe c818 0f3f 8695 03be
000000b0: 8a34 3e3e b5aa 3e3e 3029 10bf 4c9e 593e
000000c0: 576c 083e 2126 243f 5557 4fbe a51f b23d
000000d0: 7b4a 0c3e e0ab 0dbe d6d3 553e 1377 413e
000000e0: 7700 bbbb cc92 c63d 6239 cebd 3de3 063f
000000f0: a91e 2b3f 4bc1 053f 5b83 21bf d881 3c3f
00000100: 8b95 3bbf d52a 1b3f 7537 39bf 5c21 2d3f
00000110: c9f0 0f3f 5b4d 323f 8309 073f ab0e bfbe
00000120: 092e 23bf 2771 2bbe f872 433e cd9e 04bf
00000130: d870 8fbe 74e6 073f c994 4d3e 9c57 0bbf
0.20579939 0.21865006 -0.711423 0.18051703 0.12734336 0.56792045 0.1078893 0.74162596
0.5211047 0.67200994 0.5731216 -0.15425622 -0.666319 -0.20717278 0.52511305 0.20834228
-0.24759398 0.65600777 0.74151367 0.16540214 0.08793097 0.059489064 -0.025789954 0.0971902
-0.11542398 0.042228445 0.20082664 0.10489813 0.045550317 0.19122776 0.076776154 0.16062033
0.08802195 0.016904227 -0.20302036 -0.12893486 -0.003890231 -0.014696657 0.07086284 0.023431163
0.15776347 -0.1988933 0.5589719 -0.12850007 0.1857473 0.18619807 -0.5631285 0.21251792
0.13322578 0.6412068 -0.20248158 0.08697442 0.13700287 -0.13835096 0.2088159 0.1889308
-0.0057068425 0.09695968 -0.10069539 0.5269049 0.6684366 0.52248067 -0.6309106 0.73635626
-0.7327506 0.6061223 -0.72350246 0.6762903 0.56226784 0.69649285 0.5274889 -0.37315878
-0.6374212 -0.16742383 0.19086826 -0.5180481 -0.2801578 0.5308602 0.20076288 -0.54430556

model.lstm.weight_hh_l0 f4 [80, 20]
00000000: 196d 05be 2212 61bd 2851 123d 02e8 403d
00000010: 7133 20bd 02d5 ac3d afde 81bd 417c b73d
00000020: 11a5 fd3d 5965 c63d ed21 333d 39a5 d13d
00000030: 222f 3bbd 1e17 173e 692b 4bbe 9452 973d
00000040: c0cd efbd f2e8 e0bd 6c57 04bd f665 dbbd
00000050: 026c 9cbc 7f19 323e 36ca 613e 2831 d8bd
00000060: 6551 2a3e 59fc 053e e487 373e 5c12 2a3e
00000070: 2e80 c5b9 ffc0 5c3e 9a25 bcbd 7181 ee3d
00000080: 177c 22bd d9a0 6f3d 70eb 4b3e c63b 5a3e
00000090: fc61 8bbd 98f8 5abe 5e19 12bb e920 103e
000000a0: 4ba3 55be 66e2 63bd 0acc 5cbe e170 01bd
000000b0: ea8b 06bd 0a7b 473d 0153 103e a4e5 cc3d
000000c0: 9a6b 23bc efea 0dbd 6687 85bd a3b2 b83d
000000d0: ff2f 843d b25a e93d 546d afbd 2f32 423e
000000e0: 8b9d 00be 4cf1 103e aebf 5dbe fa6a f9bc
000000f0: 756e 54bd e000 353e 8045 4f3e 70f9 aa3d
00000100: 0699 f1bc bc92 23bd 8458 f93d 6bb0 113e
00000110: 43ac 29be c36b d5bd 6f4f 983d a69b 513d
00000120: 6cca 28bd 80f4 02be 1500 273d 258d a53c
00000130: d2d5 a5bd fc36 ba3d 1c3c 06be e84c 51be
00000140: ddfb 1f3e 07f6 23be 1a0a 1ebd a0d8 4a3d
00000150: 2ab8 173e 2657 ddbd a90d 36be 1ea2 92bd
00000160: ff39 1f3e e150 233d 7d2d 10bd 4e2c eebd
00000170: 373b d6bd 9cb5 c5bd 27b2 ca3d 695c 9bbd
00000180: 2d96 073d 1e3d debd 7f60 0c3e 5788 173d
00000190: cbac 283d 44cc a8bd 3e22 163e d3b8 91bd
000001a0: c066 4fbe 8aae 433e ea6c 5cbe 437e 47be
000001b0: 07a6 a7bd 6bac a3bd 19ea dbbd e58a 59bd
000001c0: 2251 51bb 08e2 cb3d e897 9c3d 3219 60be
000001d0: fb4e 853d 7c5f 0bbd 3757 8dbd 6f10 fb3d
000001e0: 8dc3 693d f9c3 80bd edee d6bc 8712 883d
000001f0: d341 fc3d 81d7 40be f3a4 58be 2401 95bc
00000200: b197 353e 099f 06be d9f9 4f3e 8e31 41be
00000210: 9224 adbd f5d1 133e d24a 503e f29c 0dbe
00000220: 4eb2 ca3d 2ae4 293e 113e 0f3e 97fd 3a3e
00000230: 78ff 2e3e 2cab 57be 49a4 55be 7190 3ebe
00000240: 766c be3d 4590 e5bd 6517 2c3e b631 05be
00000250: f0a0 81bd 72e9 293d def9 8a3d 5b77 8d3c
00000260: ea0c f5bd e77f 5dbe a9c9 95bd 1686 46be
00000270: 7c3e 4b3e fd84 1bbe 3754 093d c5d8 3e3e
00000280: 141f 90bd 710b 6abc e036 d33d b999 143d
00000290: 007d 54be 58dc 433e b80f 4dbd b3b2 ccbc
000002a0: b47b da3d 9c3e 47be 5e99 2dbe 48cf 133e
000002b0: 55b9 39be c54c c0bd a08a 353e 5adb 523e
000002c0: 9cfd 1bbe 3bb8 a33d c588 e93d a218 0b3e
000002d0: 79da 633e 1521 0b3e 9c1c bf3d edf9 413e
000002e0: 6fce 5ebd e16c ad3d 3df2 92bd 4c65 0ebe
000002f0: e200 4bbe 2ff8 cc3d 7d0b c6bb cd7b 47be
00000300: 1295 4c3e 1a87 5a3e 0492 c73c c899 dbbd
00000310: 5262 233d 2cd7 693d 3d5e 393e 8395 de3d
00000320: 616c 11be bcb0 283c a4c5 16be a17f 593e
00000330: bd7a 103e 151d 913c fb6d b5bd 3cbd 4abe
00000340: 4f0e 003e 231a 073e 80b7 8bbd ab20 3f3e
00000350: c0ea 243c 34ce 2ebe 41be 853d aaa0 c13d
00000360: 1b16 40be cf9c c9bc 2038 20be 4e32 193e
00000370: b824 45be 33d0 dabd afb7 363e d833 573e
00000380: b457 42be 2c10 debd 18af 2dbc 5115 4cbe
00000390: 7bde 8dbd 1910 283d 74fc 65bc c3ef 2f3e
000003a0: 64b1 d63d 9eef 95bc 60c9 b2bd 03ee 1f3e
000003b0: bca3 37be db9b 303e c5af 15be 2696 1ebe
000003c0: 30c2 debd 3f95 393e c36c 393e 0b9d 9a3d
000003d0: 3270 f53d f6d5 463e b702 1fbe 4724 00be
000003e0: 5156 1bbe f59c 42be 44c6 32be 7e38 2ebe
000003f0: a16e 10be 44ea 1f3c f6d6 d0bd ad28 34be
-0.13029899 -0.054948933 0.035721928 0.04709626 -0.03911156 0.084390655 -0.06341302 0.089592464
0.123849995 0.09687299 0.043733526 0.10236592 -0.045699246 0.14754912 -0.19840778 0.073887974
-0.117091656 -0.10981931 -0.032309934 -0.10712807 -0.01909447 0.17392538 0.22049794 -0.10556251
0.16632612 0.13084544 0.17922932 0.16608566 -0.0003767027 0.21557997 -0.091868594 0.11645783
-0.039669123 0.058503006 0.19914031 0.21311864 -0.068057984 -0.21383893 -0.0022292952 0.14075054
-0.20863073 -0.055635832 -0.2156221 -0.03160179 -0.032848276 0.048701324 0.14094163 0.10004738
-0.009974385 -0.03464788 -0.06519966 0.09018447 0.06454467 0.11394252 -0.085657746 0.18964456
-0.12560098 0.14154547 -0.21655151 -0.030446518 -0.051863153 0.17676115 0.20241356 0.08348358
-0.029491913 -0.03993486 0.12175086 0.14227454 -0.16569619 -0.104209445 0.07437026 0.05117383
-0.04120867 -0.12788582 0.040771563 0.020208905 -0.080974236 0.09092519 -0.13108867 -0.20439494
0.15623422 -0.1601182 -0.038583852 0.049522996 0.14816347 -0.10807638 -0.17778648 -0.07159828
0.15549468 0.039872054 -0.03519963 -0.11629544 -0.10460513 -0.0965378 0.09897261 -0.07585985
0.033102203 -0.10851501 0.13708685 0.03699526 0.041180413 -0.082420856 0.146615 -0.071153305
-0.2025404 0.1910955 -0.21525922 -0.19481759 -0.08185964 -0.079918705 -0.1073801 -0.053110976
-0.0031939228 0.099552214 0.07646161 -0.21884611 0.06509205 -0.034026608 -0.069014005 0.12258994
0.057071257 -0.06287379 -0.026236976 0.06644159 0.123172425 -0.18832208 -0.21156673 -0.01818902
0.17733647 -0.13146605 0.20310153 -0.1886656 -0.08454241 0.14435561 0.20341042 -0.13829401
0.0989729 0.16590944 0.1398852 0.182608 0.17089641 -0.2106139 -0.20863451 -0.18609788
0.09298031 -0.11209158 0.168058 -0.13007244 -0.063295245 0.041482396 0.0678594 0.017268827
-0.11965354 -0.21630822 -0.07313854 -0.19387087 0.19848055 -0.1518745 0.03352758 0.18637379
-0.07037178 -0.014284954 0.10313201 0.036279414 -0.20750809 0.19127023 -0.05006382 -0.024987554
0.10668126 -0.19457477 -0.16953036 0.1443454 -0.18137105 -0.093896426 0.17728662 0.20591488
-0.15233463 0.079941235 0.1140304 0.13583615 0.2225131 0.13586839 0.09331629 0.18942995
-0.05439609 0.08468033 -0.071751095 -0.13905829 -0.19824556 0.10008275 -0.00604385 -0.1948082
0.19978741 0.213406 0.024361618 -0.10722691 0.039888687 0.05708997 0.18102355 0.10868361
-0.142015 0.010296043 -0.14723831 0.21240093 0.14109321 0.017714063 -0.08858868 -0.1979875
0.12505458 0.13193564 -0.06822109 0.18664806 0.010065734 -0.17070848 0.06530429 0.09454472
-0.18758433 -0.024610905 -0.1564641 0.14960596 -0.19252288 -0.10684242 0.17843507 0.2101587
-0.18978769 -0.10842928 -0.010600828 -0.19930007 -0.069272004 0.041030977 -0.01403724 0.17181306
0.10483053 -0.018302735 -0.087298155 0.15618138 -0.17933553 0.17246954 -0.14617832 -0.15486965
-0.10876882 0.18123339 0.18107896 0.07549485 0.1198429 0.19417557 -0.1552838 -0.12513839
-0.15169646 -0.19005187 -0.17458445 -0.17013738 -0.14104702 0.009760443 -0.101972505 -0.17593642

model.lstm.bias_ih_l0 f4 [80]
00000000: a550 acbc a280 58bc 6816 f4bd 571f 793b
00000010: c029 28be 79bd d13e a7b8 123e 8773 8a3f
00000020: f3c5 403f 5bbd c13e 1042 1d3f c9d0 223e
00000030: 6a79 d6be 6ec2 abbc f5f2 1c3f 558f 28bd
00000040: 2d89 0ebe d10d 083f 8868 993e 3e0f 8e3d
00000050: 4525 4d3e 3ef0 d93c 3bf6 ecbc 843b 06be
00000060: 1c30 d93c 7a68 363e 572c c43d cf02 43be
00000070: 064a 00bc 102b 323d a5b0 cb3d 637b 24be
00000080: 8536 b83d e03a e33d 47db 0b3e 129a 01be
00000090: 823c 533c 5714 c13c 0121 d3bc 3c3e 54be
000000a0: 7167 8e3d caa6 cbbd 415b aebd 2618 3fbe
000000b0: 7ded 0cbe deb0 9ebd 59f3 0fbe 5930 463e
000000c0: 85b9 00be 5437 303f d64b babd a45d 613e
000000d0: a7ce 013e ae6f 2a3e 20d1 28be 548d bcbc
000000e0: b446 51be 70e5 8b3d 1334 34be d7f1 1b3f
000000f0: ccb9 053f 84d0 013f 4bf0 2cba 66c7 803f
00000100: cc72 d3be 13bd 3c3f 7a18 01bf 192f b53d
00000110: 24cf 32be ded0 db3e 7c74 293f 88e3 e6bd
00000120: e33d d1be 1fb5 283d 3641 d63d 7c68 0ebe
00000130: 1a3c 533e 8173 1b3f 816c 433e 6504 dfbe
-0.021034548 -0.013214262 -0.11918336 0.0038013065 -0.16422176 0.4096487 0.14328252 1.0816506
0.75302047 0.3783978 0.6142893 0.15899958 -0.41889507 -0.020966735 0.61308223 -0.041152317
-0.13919516 0.5314608 0.29962564 0.06936501 0.20033748 0.026603814 -0.028926006 -0.13108641
0.026512198 0.17813292 0.0957877 -0.1904404 -0.007830149 0.0434981 0.09945802 -0.16062693
0.08994774 0.11095214 0.13657866 -0.1265643 0.012892844 0.02356927 -0.025772573 -0.20726866
0.06953324 -0.09943922 -0.08513499 -0.18661556 -0.1376247 -0.077485785 -0.14057674 0.1935438
-0.1257077 0.68834424 -0.09096496 0.22008377 0.12676488 0.16644165 -0.16486025 -0.02301661
-0.20437127 0.06830871 -0.1759799 0.60915893 0.5223663 0.50708795 -0.0006597086 1.0060852
-0.4129852 0.73726004 -0.50427973 0.08846874 -0.1746183 0.4293279 0.66193366 -0.11273867
-0.40867528 0.041188356 0.10461657 -0.13907045 0.20628396 0.6072312 0.1908436 -0.4355804

model.lstm.bias_hh_l0 f4 [80]
00000000: fac5 19be 488b 003e a465 a1be f33e 64be
00000010: f7c6 1f3e d01d 403f 142b e83c 0eb5 573f
00000020: 2d47 093f c150 463f c059 3a3f 1794 c0bd
00000030: 2b9b 49bf bde6 2a3d 8f08 3f3f f3ed d0bd
00000040: 9cb7 673c b101 e03e 4054 8d3e 0649 d7bd
00000050: cd10 2a3d 1a6c 1abe 9468 a9bd bdcc 363e
00000060: 20b2 443c a42b 16be a2aa 623e 1f44 a3bd
00000070: 89c0 083e 24e6 33be bb3f 5b3e 1ae6 39be
00000080: 05a8 1d3d 3a99 27bd 2e04 fd3c 9e32 643d
00000090: 974a 60be 9024 50be 3fb3 14be 7ca5 fcbc
000000a0: 88e0 c0bd 9be6 a73d 9555 3cbd 4288 33be
000000b0: b8b2 dfbd 3672 3abd 3496 5fbc b9ed a83c
000000c0: d78f d03d bde2 3b3f 4a0c ff3a 7f6e b3bd
000000d0: 0d1c 92bd 9fd3 95bd c10c 573d 587c 42be
000000e0: b039 43be 9004 59bd 7219 3abe fd65 db3e
000000f0: 240e c63e 1e80 373f 4a1f 83be b708 723f
00000100: 8137 c0be 6087 263f 5e53 cdbe a92a 4f3d
00000110: 41c9 da3b 4f65 373f 8e22 0f3f ab4b 5a3e
00000120: 25a9 ccbe 58cf 63be 2dfb dc3b 80f2 e8bd
00000130: cb9e a2bc 565c 0a3f 8ee6 4fbc 7933 25bf
-0.15016928 0.12553132 -0.31522858 -0.22289638 0.15603243 0.7504549 0.028340854 0.8426064
0.5362423 0.7746697 0.727932 -0.09403246 -0.7875239 0.041723955 0.74622434 -0.10201635
0.014142897 0.4375129 0.2760334 -0.10511975 0.04151993 -0.150803 -0.082719 0.17851539
0.012005359 -0.14665085 0.22135404 -0.079719774 0.13354696 -0.1756826 0.2141103 -0.18154183
0.038490314 -0.040917613 0.030885782 0.055712335 -0.21903454 -0.20326447 -0.14521502 -0.030840628
-0.09417826 0.081982814 -0.045980055 -0.17532447 -0.1092276 -0.045519076 -0.013646651 0.020621167
0.10183685 0.7339285 0.0019458618 -0.0876131 -0.071342565 -0.07315754 0.052502397 -0.18992746
-0.19064975 -0.052982867 -0.18173769 0.42851248 0.38682663 0.71679866 -0.2560981 0.9454455
-0.37542346 0.65050316 -0.40102667 0.050577793 0.0066768234 0.7163896 0.559121 0.21317928
-0.39972797 -0.22247064 0.0067438097 -0.11374378 -0.019851109 0.54047143 -0.012689246 -0.64531666

model.lstm.weight_ih_l1 f4 [80, 20]
00000000: c87e a93f 6ac6 9abf 1af3 a5bd 4205 aabf
00000010: 3b32 153f aa67 933f 0d81 d63e edf9 a93f
00000020: 2cf3 863f d739 9d3f a27a 99bf 581f 493e
00000030: c9f6 253f e2e7 5f3e 7111 ae3f 1885 53be
00000040: 542d 66bd 5007 b83f d2cf c0bf 9266 8d3e
00000050: ef6c b53f 6f77 a6bf fd93 06be 5906 bdbf
00000060: ca8f c83e a8fa 753f c009 223f 7c51 963f
00000070: d3e9 a03f 22b4 943f c77f b3bf 9153 fc3d
00000080: e529 2a3f 0cbf d73c 85dc 9a3f adaf 043e
00000090: 9581 0e3e 24f0 a83f b1af c5bf 7e04 583e
000000a0: 6965 aa3f f5b9 7abf 02ef a03d b952 a7bf
000000b0: 6160 873e 2a10 a03f a361 a73e 85f7 9e3f
000000c0: 499e ae3f 220d cf3f a37d abbf 921f 57be
000000d0: 7d74 403f a4ff 67bd 7c8e 7c3f 3473 123c
000000e0: f364 b3bd 7985 9d3f 7c37 c7bf 0203 153f
000000f0: c7c5 87bf 395e 803f a828 163e 756c 383f
00000100: 923c 85be 8b31 5ebf 719b 30bf 554f 9cbf
00000110: 6f44 97bf e3fd 59bf c7b7 8a3f d1ad d03d
00000120: 7483 09bf 3512 3e3d 89c1 6bbf 0d3b e3bd
00000130: 08ac 63be 838e a0bf 0a80 3f3f 0a95 abbd
00000140: 95df 793f 56e8 acbf 67e7 1fbe e76a 9bbf
00000150: c6e9 a9be c4c8 bf3f cad7 2cbf 2578 aa3f
00000160: 0ae3 c33f b8b4 8d3f 5ca1 acbf 8b78 023d
00000170: 45bf babe 3089 33be c0b9 d03f 98fe f83d
00000180: 2a0c a3bd 5c56 943f c893 a3bf fb2d d63d
00000190: 68bd cb3f 5f1b 71bf 3aa1 c13d df8a c5bf
000001a0: 3f41 a83e 6ac2 8d3f 31f6 133f 6fa7 8a3f
000001b0: 69a2 933f 605e cc3f 07e5 a6bf 215e f9bd
000001c0: 9132 083f 86e9 433e a94b 923f 2ab7 1cbe
000001d0: 42ca 5abe 2897 a33f a71a c0bf b08a ac3e
000001e0: 874f bb3f 1fa9 abbf 3618 ae3c a517 c6bf
000001f0: aa7a 9c3e 41cb 983f f4c3 143f b348 873f
00000200: c451 b63f 7f33 b43f 9a42 9bbf 2ce7 dabd
00000210: 2644 063f b5c2 35be 1915 b63f f2a5 c8bd
00000220: fee0 5d3c 86bc b63f 8aea 92bf f466 813e
00000230: fb04 89bf e402 713f 1be9 163e d40b 3b3f
00000240: 039d c9be 21fa 4dbf 106a 05bf fe58 adbf
00000250: d769 9bbf 91e0 89bf 9db2 753f 1cff 9f3d
00000260: 30f1 c3be 37c4 1cbe 25ed 76bf 7193 c93c
00000270: 4481 bc3c 0631 69bf 25fa 523f 7523 5cbe
00000280: a305 6fbf 072b 853f 29be ccbc 22ce 793f
00000290: 4b4f a6be db01 3ebf 8d37 ddbe f8ab 63bf
000002a0: 151d 4fbf 0bb6 9bbf 0902 413f 73d4 a3bd
000002b0: ff3b 45bf 060b 3d3e 7685 4ebf 71aa 42bc
000002c0: de1b 343e 5772 4bbf 2809 9a3f e6d6 c03e
000002d0: 74f9 a63f efbc 93bf 2a02 563e daf2 9ebf
000002e0: 45bd 84bd e844 9e3f 8b3f 71be 19e3 a63f
000002f0: 623c 863f f7ee 9e3f 8cae 8bbf bac1 8fbd
00000300: 318f 3bbf 0e6f 2c3d d45d a83f 6d93 29be
00000310: c4fe cf3c fd8a 8f3f cce1 9cbf 51ce 023f
00000320: 29c5 c43f 34e6 79bf 6385 8e3c 4d55 ccbf
00000330: 1eaf c13e b324 a03f 4b46 9a3e 3acb 843f
00000340: 8ea6 a53f a0eb c93f 7a26 b9bf e24b 0ebe
00000350: f4d3 483f 901d aabd 1c9e 933f 6172 303e
00000360: c94f 7a3d 1c2f 963f 79fb b7bf bce0 533e
00000370: d48d b23f bd6c a0bf f091 16be 4bf3 a1bf
00000380: 9374 0dbe 7f98 983f 00b5 a8be d60d b73f
00000390: b3b7 953f 0429 b23f 16e6 97bf 09ce 2c3e
000003a0: ae0a 10bf 70d1 0a3d c176 963f 0544 133e
000003b0: 480d 2f3e 7728 c03f 548c a3bf a0f8 ce3e
000003c0: fddb c03f 2c1b 8cbf b272 c73d 91a4 cbbf
000003d0: 3c90 a63d fe22 6f3f 6131 663e c3b1 b83f
000003e0: eddd 873f 1cf7 d23f 5cc9 a1bf 8ef9 20be
000003f0: aaa1 173f 5250 533e 934a 883f 320a 9a3d
1.3241816 -1.2091801 -0.081030086 -1.3282855 0.5827977 1.1516011 0.41895333 1.3279396
1.054296 1.2283276 -1.199055 0.19640863 0.6482969 0.218658 1.3599073 -0.2065624
-0.056195572 1.4377232 -1.5063422 0.27617317 1.4173869 -1.3005198 -0.1314239 -1.4767562
0.39172202 0.96085596 0.6329613 1.1743617 1.2571357 1.1617472 -1.402337 0.123206265
0.66470176 0.026336215 1.2098547 0.1295764 0.13916619 1.3198285 -1.5444242 0.21095464
1.3312198 -0.9794 0.07858087 -1.307212 0.2644072 1.2504933 0.32691678 1.2419287
1.3642055 1.6175883 -1.3397716 -0.21008137 0.75177747 -0.056640282 0.98654914 0.008938599
-0.08759489 1.2306358 -1.5563807 0.58207715 -1.0607232 1.0028754 0.14663947 0.7204049
-0.26022774 -0.86794347 -0.68987185 -1.221171 -1.1817759 -0.85153025 1.0837334 0.10189403
-0.53716207 0.046404082 -0.92092186 -0.110952474 -0.22233593 -1.2543491 0.7480475 -0.08378036
0.97606784 -1.3508403 -0.15615617 -1.2141999 -0.33186167 1.4983144 -0.6751677 1.3317915
1.5303662 1.1070776 -1.3486743 0.03185324 -0.36474052 -0.17532802 1.6306686 0.12157935
-0.079613045 1.1588855 -1.2779474 0.10457989 1.5917177 -0.9418239 0.0945458 -1.5433005
0.3286228 1.1074955 0.57797533 1.0832347 1.1533939 1.5966301 -1.3038644 -0.12176157
0.5320216 0.19132051 1.142934 -0.15304247 -0.21366218 1.2780504 -1.5008134 0.3369956
1.4633645 -1.3410987 0.021251779 -1.5475966 0.30562335 1.1937028 0.581115 1.0569061
1.4243703 1.4078215 -1.21297 -0.10688624 0.52447736 -0.17750056 1.4225188 -0.097972766
0.013542412 1.4276283 -1.1477826 0.2527386 -1.0704645 0.94145036 0.1473736 0.73064923
-0.39377603 -0.8045979 -0.52114964 -1.3542783 -1.2141675 -1.0771657 0.9597567 0.0781233
-0.3826995 -0.15309225 -0.96455604 0.024606438 0.023010857 -0.9109043 0.8241294 -0.21497901
-0.93367976 1.0403756 -0.02499302 0.9758016 -0.3248237 -0.7422158 -0.43206444 -0.8893428
-0.8090375 -1.216493 0.7539373 -0.07999506 -0.7704467 0.18461236 -0.80672395 -0.011881457
0.17588755 -0.79471344 1.2034044 0.37663954 1.3044877 -1.1542033 0.20899263 -1.2417862
-0.06481413 1.2364779 -0.23559396 1.3038055 1.0487177 1.2416676 -1.0912642 -0.07019372
-0.7326537 0.042098098 1.3153634 -0.16560145 0.025390036 1.1214291 -1.2256408 0.51096064
1.5372669 -0.9761689 0.017397588 -1.5963532 0.37828916 1.25112 0.30131754 1.037452
1.2941453 1.5775032 -1.4464867 -0.13896134 0.78448415 -0.0830642 1.1532626 0.17231132
0.061111245 1.1733127 -1.4373618 0.20691198 1.3949533 -1.2533184 -0.14704108 -1.2652372
-0.13814001 1.1921538 -0.32950592 1.4301097 1.1696686 1.3918767 -1.1867092 0.16875471
-0.56266296 0.03389114 1.1754991 0.14381416 0.1709491 1.5012349 -1.27772 0.4042406
1.5067135 -1.0945792 0.09738673 -1.5909597 0.08132979 0.9341277 0.22479774 1.4429249
1.0614601 1.6481662 -1.2639575 -0.15720198 0.59231055 0.20636109 1.0647758 0.07521476

model.lstm.weight_hh_l1 f4 [80, 20]
00000000: 03f2 143e 9f0a 30be 6659 a7bd 8966 01be
00000010: 3805 85bd 1a14 94bd 6f45 c9bd cabc e3bd
00000020: 8c26 2a3e 76cb d1bd 70ea 5d3b a28f f13d
00000030: c677 2abd 6751 f13d 607f 5b3e 05b4 40bc
00000040: d3be 8c3d 77d8 4dbd ffcf fdbc 6f8b 563e
00000050: 6b5e 2f3e fb7b abbd 9077 073e 4bb0 0d3e
00000060: 0af0 463e 45e5 d7bd e12e 683d 0ecc bebd
00000070: 725a b6bd 5c2f 1fbe bc8c 033e bace b9bd
00000080: c996 54be ae5a c2bd 9bc3 32be ecd9 2abe
00000090: 9389 40be 8d4d 9abd 0dca 5b3e fb17 15be
000000a0: 3a27 ecba 5710 c93d 0294 61be 5e90 1a3e
000000b0: bdd8 303e 7d80 ec3d fced 7abc dc66 203e
000000c0: bed7 5f3e 4ccf 14be 9021 40be d22b 703b
000000d0: d1a6 8d3c 625d a03d eb00 d33b 92f8 aabb
000000e0: 494b 5d3e c976 203e f561 2dbe 0ba1 85bd
000000f0: 3b72 443e d1a1 ae3d 8c8b f6bd 9274 433e
00000100: 6dc7 453d 13ef 2e3b 66c7 983c 5f3e a03d
00000110: 70f9 d8bc 1e40 083e 89ff 303e 509c f23d
00000120: 3e34 febd bab1 113d 08f8 e33b b680 81bd
00000130: 8f61 963d d6d4 043d 4d33 813d 9703 cebd
00000140: af4f 48be b7c7 e8bd 7336 12be 7ec3 b2bd
00000150: 6128 043e bd28 3fbe 354c 373e b5d5 1abe
00000160: bfa8 183e 549d 4e3e d302 ee3d d65b 583e
00000170: 4f04 94bd 3332 c63d 3bae 1fbc cc77 47be
00000180: e7c6 273e 28fd 683d 7e38 483e 0207 14bd
00000190: 5fb5 dc3d 0309 463e 7b7c 7d3b b48a 2f3e
000001a0: 929c 5fbe 33e6 403e 6870 d63d 02fa 0ebe
000001b0: beac 24be 911a 913c 97a1 36be 5b9c 09bd
000001c0: 8ca3 30be a0ed 7dbc 0d93 e6bd 61a7 623e
000001d0: 35d0 b83d e850 d7bd b95a 8fbd 7c26 39be
000001e0: 0f5d 173e 9e97 0fbd ab9c 9abd d800 15be
000001f0: dd5e 733d e454 44be eb3d d13d fbf0 b1bd
00000200: 1c60 c03c e20f 68bd 9fc0 0d3e 9cd4 24be
00000210: 8f0e 3dbe 2aed 56be 2c1a 4bbd 2330 4a3d
00000220: 1c2f 90bc df10 d83d 5924 eb3d 86b0 fbbb
00000230: 5176 25be c958 fcbc 520b cf3d 1f29 ca3d
00000240: 7185 5c3e 597e 8fbc 5973 0f3e 1029 63be
00000250: 75e4 bfbc 4b97 5abe 9fe0 06be d7d4 0b3e
00000260: e21d e03d fa40 f83d 4a30 143e 1c4c 3bbe
00000270: f54b ddbc 1145 a13d db1d 48bd cfb1 e4bd
00000280: 720d 5ebe 8711 343e f661 143e 6c61 013e
00000290: e2f8 f839 9b7d 073d 6fbd 0c3e e62d d1bd
000002a0: 5e1b 1bbe 5e5c 36be e091 cebd e04b b1bd
000002b0: 2740 68bd f995 483e da00 d63d 4926 613e
000002c0: 0ac4 14bc 0f7b 4e3e 0ead ae3c e549 36be
000002d0: dd63 03be 609a 4b3e 8483 ca3c 5a52 063e
000002e0: f84b 55bd 7eaf 34be 3c65 3abe 11f3 08be
000002f0: 8ca2 103d b25b 6f3d 7c8b 343e f061 55bd
00000300: 41dd fa3d d24e 3fbe 2880 f63d 1640 b5bd
00000310: c390 8cbc d081 53be a755 cd3c b723 073d
00000320: 5c04 20be 9d07 7abd 9b0c 81bd b3cd 43be
00000330: 4ec5 19be 64fc 303e 8410 c5bd b57a 58b9
00000340: 4f01 533d 34f4 54bd 10d3 563e 6fc8 e4bd
00000350: 5766 913d 3988 413d bb18 283e 66cb d7b9
00000360: fcff 4cbe 9e6d 02be 1c02 5d3d e371 0abe
00000370: 1a4b 64be 664c 0ebd 0997 323d b179 9c3d
00000380: 23b5 6dbd 4fdb 0dbc d1dc f83c 7441 433e
00000390: 50c1 17be 7f20 e83d fbd1 923d cd21 6abd
000003a0: 65db 24be 9c7c 263e db46 4bbe 03eb 8a3d
000003b0: 1cf3 523d 2e13 60be d3e1 53be 71a1 90bd
000003c0: 1059 00be 8fbe 32bd 4201 663c de30 3c3e
000003d0: 5c85 51be 941a 143e e332 82bd 856a 30be
000003e0: 89b7 23be 20ba 65bd 0e6b 12be 4f0b 4fbc
000003f0: 0e1a e8bd 7a8b b0bd 0876 ac3d 64e6 9bbd
0.14545445 -0.17191552 -0.08171348 -0.1263677 -0.06495136 -0.072303966 -0.098276965 -0.11119993
0.16616267 -0.10243885 0.003386166 0.11794974 -0.04161813 0.117831044 0.21435308 -0.01176167
0.06872334 -0.050255265 -0.03098297 0.20951627 0.17125861 -0.08373257 0.13229203 0.13836782
0.19427505 -0.105417766 0.056685332 -0.09316264 -0.0890397 -0.1554541 0.12846655 -0.09072633
-0.20760645 -0.09489952 -0.1745743 -0.16684693 -0.1880248 -0.07534323 0.21463795 -0.14559929
-0.0018017062 0.0981757 -0.22029117 0.15094134 0.17270179 0.11547945 -0.015315529 0.15664238
0.21859643 -0.14532202 -0.18762803 0.0036647213 0.017291458 0.07830311 0.0064393184 -0.00521762
0.2161075 0.15670313 -0.16931899 -0.06524857 0.191842 0.08526958 -0.12038335 0.19087437
0.04828589 0.0026692792 0.018649768 0.07824396 -0.026486129 0.13305709 0.17284979 0.118462205
-0.12412308 0.035569884 0.006957058 -0.06323378 0.073428266 0.03242954 0.06308613 -0.100592785
-0.19561647 -0.113662176 -0.14278583 -0.087286934 0.12906028 -0.18667884 0.17900164 -0.15120585
0.14908122 0.20177203 0.116216324 0.21128783 -0.07227384 0.096775435 -0.00974613 -0.19479293
0.16384469 0.056882054 0.195528 -0.036139496 0.10776781 0.19339375 0.0038678932 0.17142755
-0.2183707 0.18837814 0.104706585 -0.13962558 -0.16081521 0.017712863 -0.17835079 -0.033596378
-0.17249888 -0.015498549 -0.112585165 0.22134162 0.09024087 -0.105134785 -0.06999726 -0.18081087
0.14781593 -0.035056703 -0.07549413 -0.14551103 0.05941664 -0.19173008 0.10216888 -0.086885415
0.023483329 -0.056655772 0.1384301 -0.16096729 -0.18462585 -0.20988908 -0.049585506 0.049362313
-0.017600589 0.10550093 0.11481542 -0.0076809553 -0.16158415 -0.030804055 0.10109581 0.098711245
0.21535279 -0.017516302 0.14008845 -0.22183633 -0.023424366 -0.21346776 -0.13171624 0.1365541
0.109432 0.12121768 0.14471546 -0.18290752 -0.027013758 0.078745015 -0.048856597 -0.11166727
-0.21684816 0.17584811 0.14490494 0.1263482 0.00047487678 0.03307877 0.13744138 -0.102138326
-0.15147159 -0.17808673 -0.10086417 -0.0865705 -0.056701805 0.1958846 0.10449381 0.21987261
-0.0090799425 0.2016413 0.021322753 -0.17801626 -0.12831064 0.19883108 0.024720915 0.13117352
-0.052074403 -0.1764507 -0.1820268 -0.13373972 0.035311267 0.058437057 0.17631334 -0.052095354
0.12249232 -0.18682411 0.120361626 -0.08850114 -0.017158872 -0.20654988 0.025065256 0.032993045
-0.15626663 -0.061042417 -0.063012324 -0.19121437 -0.15016672 0.1728378 -0.09622291 -0.00020645077
0.05151492 -0.051990703 0.20978951 -0.11171042 0.07099598 0.047249053 0.16415684 -0.0004115954
-0.20019525 -0.12737128 0.05395709 -0.13520007 -0.22294274 -0.034740828 0.04360107 0.07640398
-0.058034074 -0.008658244 0.030378731 0.19067937 -0.14819837 0.11334323 0.07168957 -0.05716114
-0.16099317 0.16258472 -0.19851248 0.06783106 0.05150138 -0.21882316 -0.20691614 -0.070620425
-0.12533975 -0.043638762 0.014038386 0.18378016 -0.20461029 0.14463264 -0.06357362 -0.17228134
-0.15987982 -0.056085706 -0.1429865 -0.0126369735 -0.113330945 -0.08620353 0.0842095 -0.07612303

model.lstm.bias_ih_l1 f4 [80]
00000000: 9249 ba3f bc5a b03f 2efc 9a3f c402 4fbf
00000010: 653d 9c3f c00f ba3f ab23 a03f eaca 55bf
00000020: c7ef 8bbf 169c a73f 3c3e c53f b187 953f
00000030: c1e4 9d3f 634e c93f 1a43 853f b148 993f
00000040: 56c4 a73f 2b09 7c3f 5796 823f 4d1e 723f
00000050: dff0 cabd 8ecf 3ebe 6458 8fbd b9e8 1a3d
00000060: 49c2 64be 7da7 4b3c 096f 89bd 06f3 24be
00000070: 0d63 7fb9 fbe2 593e 198d a1bd 26fa 173e
00000080: b166 12be 2841 03be 87c2 ff3c a784 c53d
00000090: 7bc1 00be dbf3 613e eeab 673d 5bff 323e
000000a0: c089 8bbf bc2f 9d3f 9e7a 9cbf 26c0 96bd
000000b0: 5a0e a33f f828 913f 0827 74bf efaa 093e
000000c0: 0303 f33e a79f 77bf f626 7bbf 6f81 a23f
000000d0: 73c0 9d3f e0bd 86bf 7730 8e3f 81b8 983f
000000e0: 4225 933f 398c 493f 22b8 2d3f afc2 2c3f
000000f0: 8dd8 a93f 60ff c93f b0e8 b63f c779 83bf
00000100: fbde 963f dac8 be3f 5f89 a73f d8c4 53bf
00000110: 197b 9bbf 2cae b33f 7c86 c13f 7fa7 983f
00000120: c88b d03f e1f9 c33f c822 8c3f 419b d13f
00000130: 9ba5 ac3f 3390 943f 9b12 a23f 1f11 9f3f
1.4553702 1.377769 1.2108209 -0.80863595 1.2206236 1.4536057 1.2510885 -0.8351275
-1.0932549 1.3094509 1.5409617 1.1682035 1.2335435 1.5727047 1.0411103 1.1975309
1.3106792 0.9845149 1.020213 0.94577485 -0.09909224 -0.18633863 -0.06999281 0.037819598
-0.22339739 0.012430069 -0.067106314 -0.16108331 -0.00024355594 0.21277992 -0.0788824 0.14841518
-0.14296986 -0.12817824 0.031220688 0.09644442 -0.12573807 0.2206568 0.05656045 0.17480223
-1.0901413 1.2280192 -1.222492 -0.07360868 1.2738755 1.1340628 -0.95372057 0.13444112
0.47463235 -0.96727985 -0.98106325 1.269575 1.2324356 -1.0526695 1.110854 1.1931306
1.1495745 0.7872959 0.6785909 0.67484564 1.3269211 1.5781059 1.428976 -1.0271538
1.1786798 1.4905045 1.3088797 -0.82722235 -1.2146941 1.4037528 1.5119166 1.1926116
1.6292658 1.5310632 1.0948114 1.6375505 1.3488039 1.1606506 1.2661928 1.24271

model.lstm.bias_hh_l1 f4 [80]
00000000: 56b4 a03f 36c7 ad3f da1b c83f 3319 61bf
00000010: d68d 7d3f 9a96 ac3f 6b61 b13f 1527 8bbf
00000020: 16be 92bf b74f b73f 783b a43f 8d91 893f
00000030: be54 ad3f 8d5e b73f dbd8 aa3f 3e85 bd3f
00000040: d8fe a13f 979e 8d3f 2975 783f bac8 993f
00000050: 6b49 e0bc c928 f03d c033 6c3b 2ffb 7dbd
00000060: b573 e73d bbce 603e 5ef0 5fbd e790 783c
00000070: 33cb 04be 1802 d53b 0a39 09be 7291 583e
00000080: af59 c0bc f163 4f3e fd30 103e 43a2 523e
00000090: e5e3 7b3d 2958 16be 3534 26be 48d8 26be
000000a0: 7371 9fbf af6e 993f e491 67bf 60d0 02bc
000000b0: a236 923f 4d97 533f 05f4 96bf 36d6 21be
000000c0: 6ffd fb3e 8de7 20bf 7356 70bf 8794 a43f
000000d0: f25e 993f 9bb3 66bf eb4f 653f f80a 863f
000000e0: 52b8 913f 018e 573f 456e 4e3f fdef 083f
000000f0: 0416 cc3f e558 bf3f b9c7 b43f d018 85bf
00000100: ca7c b93f 2906 a53f f21e a23f 8907 57bf
00000110: 09b6 78bf a15d 9b3f 3d34 a23f 9532 983f
00000120: 594f b53f 8ed9 cd3f a867 ae3f 7a90 c13f
00000130: fbe3 a53f 2724 a73f f0c9 793f 5c4e a13f
1.2555034 1.3576419 1.56335 -0.87929076 0.9904455 1.348346 1.3857855 -1.0871302
-1.146426 1.4321202 1.2830648 1.0747544 1.3541486 1.432573 1.3347429 1.4806287
1.2655897 1.1064023 0.9705377 1.2014382 -0.027378758 0.11726529 0.0036041588 -0.062007125
0.11301366 0.21953861 -0.05467259 0.015171266 -0.1296814 0.0065004937 -0.13400665 0.21149233
-0.023480264 0.20252968 0.14081188 0.2056971 0.061496634 -0.14682068 -0.16230853 -0.16293442
-1.2456497 1.1986903 -0.90456986 -0.007984251 1.1422923 0.8265274 -1.1793219 -0.15804371
0.49216792 -0.6285332 -0.9388191 1.2857827 1.19821 -0.90117806 0.8957507 1.0472097
1.1384375 0.84201056 0.8063701 0.53491193 1.5944219 1.4949003 1.412345 -1.0398197
1.4491208 1.2892505 1.2665694 -0.8399587 -0.97152764 1.2137948 1.2672192 1.1890436
1.416484 1.6082017 1.3625383 1.5122216 1.2960199 1.3057908 0.9757376 1.2602038

model.linear.weight f4 [1, 20]
00000000: 5b9a 77c1 8192 7541 34d7 76c1 c4d1 8bbe
00000010: 67cb 7a41 f312 7641 d362 77c1 f569 16be
00000020: 570a 0ebe 2f57 77c1 38e5 74c1 8e3b 7c41
00000030: 250f 7541 1439 77c1 2e4d 7b41 e03a 7641
00000040: f7c2 7741 b6ba 7841 9ae5 7741 54e2 7c41
-15.475184 15.348268 -15.42754 -0.27308476 15.674659 15.379626 -15.461627 -0.14688857
-0.13871132 -15.458785 -15.305962 15.76454 15.316197 -15.451435 15.706343 15.389374
15.485099 15.545584 15.493555 15.805256

exp_avg f4 [80, 1]
00000000: 0000 0000 0000 0000 0400 0000 0000 0000
00000010: f103 0000 0400 0080 e61d 0080 0400 0080
00000020: 0400 0080 0400 0080 0400 0080 764b 1f92
00000030: 0400 0000 0b62 8f1c 0400 0080 0000 0000
00000040: c2a9 5393 0400 0080 0400 0080 0000 0000
00000050: 0000 0000 0000 0000 0000 0000 0000 0000
00000060: 0000 0000 0000 0000 0000 0000 0000 0000
00000070: 0000 0000 0000 0000 0000 0000 0000 0000
00000080: 0000 0000 0000 0000 0000 0000 0000 0000
00000090: 0000 0000 0000 0000 0000 0000 0000 0000
000000a0: 0000 0000 0000 0000 0400 0080 0000 0000
000000b0: 0000 0000 0000 0000 0400 0000 0000 0000
000000c0: 0000 0000 0400 0080 0000 0000 0000 0000
000000d0: 0000 0000 0000 0000 0400 0080 0000 0000
000000e0: 526e ee12 0000 0000 0000 0000 0400 0080
000000f0: 0400 0080 0400 0080 0400 0000 0400 0080
00000100: 58d8 f403 0400 0080 3774 1284 0400 0080
00000110: 0400 0080 0400 0080 0400 0080 764b 1f92
00000120: 0400 0000 0b62 8f1c 0000 0000 9b46 af13
00000130: c4a9 5393 0400 0080 0000 0000 dc39 1513
0.0 0.0 6e-45 0.0 1.414e-42 -6e-45 -1.0726e-41 -6e-45
-6e-45 -6e-45 -6e-45 -5.0264566e-28 6e-45 9.48829e-22 -6e-45 0.0
-2.6715641e-27 -6e-45 -6e-45 0.0 0.0 0.0 0.0 0.0
0.0 0.0 0.0 0.0 0.0 0.0 0.0 0.0
0.0 0.0 0.0 0.0 0.0 0.0 0.0 0.0
0.0 0.0 -6e-45 0.0 0.0 0.0 6e-45 0.0
0.0 -6e-45 0.0 0.0 0.0 0.0 -6e-45 0.0
1.5047108e-27 0.0 0.0 -6e-45 -6e-45 -6e-45 6e-45 -6e-45
1.4390701e-36 -6e-45 -1.721558e-36 -6e-45 -6e-45 -6e-45 -6e-45 -5.0264566e-28
6e-45 9.48829e-22 0.0 4.4245833e-27 -2.6715645e-27 -6e-45 0.0 1.883497e-27

exp_avg_sq f4 [80, 1]
00000000: 0000 0000 0000 0000 26dd 0f26 0000 0000
00000010: 55ff bb16 4a02 0739 f206 191a d448 3f3d
00000020: debb 8742 02c9 0233 772b 2c38 f837 7c1e
00000030: 1d5d 0e2f f45b 8206 5883 1843 0000 0000
00000040: b685 bb1e 7458 a32f 8b0a 4d29 0000 0000
00000050: 0000 0000 0000 0000 0000 0000 0000 0000
00000060: 0000 0000 0000 0000 0000 0000 0000 0000
00000070: 0000 0000 0000 0000 0000 0000 0000 0000
00000080: 0000 0000 0000 0000 0000 0000 0000 0000
00000090: 0000 0000 0000 0000 0000 0000 0000 0000
000000a0: 0000 0000 0000 0000 e549 8a24 0000 0000
000000b0: 0000 0000 0000 0000 0ac0 0f26 0000 0000
000000c0: 0000 0000 ae6a 9832 0000 0000 0000 0000
000000d0: 0000 0000 0000 0000 c34c 3e1f 0000 0000
000000e0: f815 971b 0000 0000 0000 0000 dbf0 9132
000000f0: 81ae 1236 a7dc d23e e8c5 0c26 f7ab 933a
00000100: 7ba9 c32b f5ec 2437 4c61 cd2d f998 8426
00000110: 9529 0b23 c8f2 af2f f8bd 1143 26d3 e41e
00000120: a375 082f f45b 8206 0000 0000 5d70 8920
00000130: f18f bb1e e06f 9b43 0000 0000 135a 6d42
0.0 0.0 4.9912803e-16 0.0 3.0372617e-25 0.00012875456 3.164527e-23 0.046700314
67.86693 3.04508e-08 4.1048475e-05 1.3352343e-20 1.2947905e-10 4.903568e-35 152.51306 0.0
1.9854697e-20 2.9712377e-10 4.552829e-14 0.0 0.0 0.0 0.0 0.0
0.0 0.0 0.0 0.0 0.0 0.0 0.0 0.0
0.0 0.0 0.0 0.0 0.0 0.0 0.0 0.0
0.0 0.0 5.997314e-17 0.0 0.0 0.0 4.9873353e-16 0.0
0.0 1.7743641e-08 0.0 0.0 0.0 0.0 4.029756e-20 0.0
2.4995051e-22 0.0 0.0 1.698975e-08 2.185727e-06 0.4118397 4.884047e-16 0.001126646
1.3902624e-12 9.830333e-06 2.334901e-11 9.200803e-16 7.5440104e-18 3.200482e-10 145.74207 2.4227768e-20
1.2410921e-10 4.903568e-35 0.0 2.3283059e-19 1.9858928e-20 310.87402 0.0 59.337963

exp_avg f4 [80, 20]
00000000: 0000 0000 0000 0000 0000 0000 0000 0000
00000010: 0000 0000 0000 0000 0000 0000 0000 0000
00000020: 0000 0000 0000 0000 0000 0000 0000 0000
00000030: 0000 0000 0000 0000 0000 0000 0000 0000
00000040: 0000 0000 0000 0000 0000 0000 0000 0000
00000050: 0000 0000 0000 0000 0000 0000 0000 0000
00000060: 0000 0000 0000 0000 0000 0000 0000 0000
00000070: 0000 0000 0000 0000 0000 0000 0000 0000
00000080: 0000 0000 0000 0000 0000 0000 0000 0000
00000090: 0000 0000 0000 0000 0000 0000 0000 0000
000000a0: 0000 0000 0000 0000 0000 0000 0000 0000
000000b0: 0000 0000 0000 0000 0000 0000 0000 0000
000000c0: 0000 0000 0000 0000 0000 0000 0000 0000
000000d0: 0000 0000 0000 0000 0000 0000 0000 0000
000000e0: 0000 0000 0000 0000 0000 0000 0000 0000
000000f0: 0000 0000 0000 0000 0000 0000 0000 0000
00000100: 0000 0000 0000 0000 0000 0000 0000 0000
00000110: 0000 0000 0000 0000 0000 0000 0000 0000
00000120: 0000 0000 0000 0000 0000 0000 0000 0000
00000130: 0000 0000 0000 0000 0000 0000 0000 0000
00000140: 0000 0000 0000 0000 0000 0000 0000 0000
00000150: 0000 0000 0000 0000 0000 0000 0000 0000
00000160: 0000 0000 0000 0000 0000 0000 0000 0000
00000170: 0000 0000 0000 0000 0000 0000 0000 0000
00000180: 0000 0000 0000 0000 0000 0000 0000 0000
00000190: 0000 0000 0000 0000 0000 0000 0000 0000
000001a0: 0000 0000 0000 0000 0000 0000 0000 0000
000001b0: 0000 0000 0000 0000 0000 0000 0000 0000
000001c0: 0000 0000 0000 0000 0000 0000 0000 0000
000001d0: 0000 0000 0000 0000 0000 0000 0000 0000
000001e0: 0000 0000 0000 0000 0000 0000 0000 0000
000001f0: 0000 0000 0000 0000 0000 0000 0000 0000
00000200: 0000 0000 0000 0000 0000 0000 0000 0000
00000210: 0000 0000 0000 0000 0000 0000 0000 0000
00000220: 0000 0000 0000 0000 0000 0000 0000 0000
00000230: 0000 0000 0000 0000 0000 0000 0000 0000
00000240: 0000 0000 0000 0000 0000 0000 0000 0000
00000250: 0000 0000 0000 0000 0000 0000 0000 0000
00000260: 0000 0000 0000 0000 0000 0000 0000 0000
00000270: 0000 0000 0000 0000 0000 0000 0000 0000
00000280: 0000 0000 0000 0000 0000 0000 0000 0000
00000290: 0000 0000 0000 0000 0000 0000 0000 0000
000002a0: 0000 0000 0000 0000 0000 0000 0000 0000
000002b0: 0000 0000 0000 0000 0000 0000 0000 0000
000002c0: 0000 0000 0000 0000 0000 0000 0000 0000
000002d0: 0000 0000 0000 0000 0000 0000 0000 0000
000002e0: 0000 0000 0000 0000 0000 0000 0000 0000
000002f0: 0000 0000 0000 0000 0000 0000 0000 0000
00000300: 0000 0000 0000 0000 0000 0000 0000 0000
00000310: 0000 0000 0000 0000 0000 0000 0000 0000
00000320: 0000 0000 0000 0000 0000 0000 0000 0000
00000330: 0000 0000 0000 0000 0000 0000 0000 0000
00000340: 0000 0000 0000 0000 0000 0000 0000 0000
00000350: 0000 0000 0000 0000 0000 0000 0000 0000
00000360: 0000 0000 0000 0000 0000 0000 0000 0000
00000370: 0000 0000 0000 0000 0000 0000 0000 0000
00000380: 0000 0000 0000 0000 0000 0000 0000 0000
00000390: 0000 0000 0000 0000 0000 0000 0000 0000
000003a0: 0000 0000 0000 0000 0000 0000 0000 0000
000003b0: 0000 0000 0000 0000 0000 0000 0000 0000
000003c0: 0000 0000 0000 0000 0000 0000 0000 0000
000003d0: 0000 0000 0000 0000 0000 0000 0000 0000
000003e0: 0000 0000 0000 0000 0000 0000 0000 0000
000003f0: 0000 0000 0000 0000 0000 0000 0000 0000
0.0 0.0 0.0 0.0 0.0 0.0 0.0 0.0
0.0 0.0 0.0 0.0 0.0 0.0 0.0 0.0
0.0 0.0 0.0 0.0 0.0 0.0 0.0 0.0
0.0 0.0 0.0 0.0 0.0 0.0 0.0 0.0
0.0 0.0 0.0 0.0 0.0 0.0 0.0 0.0
0.0 0.0 0.0 0.0 0.0 0.0 0.0 0.0
0.0 0.0 0.0 0.0 0.0 0.0 0.0 0.0
0.0 0.0 0.0 0.0 0.0 0.0 0.0 0.0
0.0 0.0 0.0 0.0 0.0 0.0 0.0 0.0
0.0 0.0 0.0 0.0 0.0 0.0 0.0 0.0
0.0 0.0 0.0 0.0 0.0 0.0 0.0 0.0
0.0 0.0 0.0 0.0 0.0 0.0 0.0 0.0
0.0 0.0 0.0 0.0 0.0 0.0 0.0 0.0
0.0 0.0 0.0 0.0 0.0 0.0 0.0 0.0
0.0 0.0 0.0 0.0 0.0 0.0 0.0 0.0
0.0 0.0 0.0 0.0 0.0 0.0 0.0 0.0
0.0 0.0 0.0 0.0 0.0 0.0 0.0 0.0
0.0 0.0 0.0 0.0 0.0 0.0 0.0 0.0
0.0 0.0 0.0 0.0 0.0 0.0 0.0 0.0
0.0 0.0 0.0 0.0 0.0 0.0 0.0 0.0
0.0 0.0 0.0 0.0 0.0 0.0 0.0 0.0
0.0 0.0 0.0 0.0 0.0 0.0 0.0 0.0
0.0 0.0 0.0 0.0 0.0 0.0 0.0 0.0
0.0 0.0 0.0 0.0 0.0 0.0 0.0 0.0
0.0 0.0 0.0 0.0 0.0 0.0 0.0 0.0
0.0 0.0 0.0 0.0 0.0 0.0 0.0 0.0
0.0 0.0 0.0 0.0 0.0 0.0 0.0 0.0
0.0 0.0 0.0 0.0 0.0 0.0 0.0 0.0
0.0 0.0 0.0 0.0 0.0 0.0 0.0 0.0
0.0 0.0 0.0 0.0 0.0 0.0 0.0 0.0
0.0 0.0 0.0 0.0 0.0 0.0 0.0 0.0
0.0 0.0 0.0 0.0 0.0 0.0 0.0 0.0

exp_avg_sq f4 [80, 20]
00000000: 0000 0000 0000 0000 0000 0000 0000 0000
00000010: 0000 0000 0000 0000 0000 0000 0000 0000
00000020: 0000 0000 0000 0000 0000 0000 0000 0000
00000030: 0000 0000 0000 0000 0000 0000 0000 0000
00000040: 0000 0000 0000 0000 0000 0000 0000 0000
00000050: 0000 0000 0000 0000 0000 0000 0000 0000
00000060: 0000 0000 0000 0000 0000 0000 0000 0000
00000070: 0000 0000 0000 0000 0000 0000 0000 0000
00000080: 0000 0000 0000 0000 0000 0000 0000 0000
00000090: 0000 0000 0000 0000 0000 0000 0000 0000
000000a0: 0000 0000 0000 0000 0000 0000 0000 0000
000000b0: 0000 0000 0000 0000 0000 0000 0000 0000
000000c0: 0000 0000 0000 0000 0000 0000 0000 0000
000000d0: 0000 0000 0000 0000 0000 0000 0000 0000
000000e0: 0000 0000 0000 0000 0000 0000 0000 0000
000000f0: 0000 0000 0000 0000 0000 0000 0000 0000
00000100: 0000 0000 0000 0000 0000 0000 0000 0000
00000110: 0000 0000 0000 0000 0000 0000 0000 0000
00000120: 0000 0000 0000 0000 0000 0000 0000 0000
00000130: 0000 0000 0000 0000 0000 0000 0000 0000
00000140: 0000 0000 0000 0000 0000 0000 0000 0000
00000150: 0000 0000 0000 0000 0000 0000 0000 0000
00000160: 0000 0000 0000 0000 0000 0000 0000 0000
00000170: 0000 0000 0000 0000 0000 0000 0000 0000
00000180: 0000 0000 0000 0000 0000 0000 0000 0000
00000190: 0000 0000 0000 0000 0000 0000 0000 0000
000001a0: 0000 0000 0000 0000 0000 0000 0000 0000
000001b0: 0000 0000 0000 0000 0000 0000 0000 0000
000001c0: 0000 0000 0000 0000 0000 0000 0000 0000
000001d0: 0000 0000 0000 0000 0000 0000 0000 0000
000001e0: 0000 0000 0000 0000 0000 0000 0000 0000
000001f0: 0000 0000 0000 0000 0000 0000 0000 0000
00000200: 0000 0000 0000 0000 0000 0000 0000 0000
00000210: 0000 0000 0000 0000 0000 0000 0000 0000
00000220: 0000 0000 0000 0000 0000 0000 0000 0000
00000230: 0000 0000 0000 0000 0000 0000 0000 0000
00000240: 0000 0000 0000 0000 0000 0000 0000 0000
00000250: 0000 0000 0000 0000 0000 0000 0000 0000
00000260: 0000 0000 0000 0000 0000 0000 0000 0000
00000270: 0000 0000 0000 0000 0000 0000 0000 0000
00000280: 0000 0000 0000 0000 0000 0000 0000 0000
00000290: 0000 0000 0000 0000 0000 0000 0000 0000
000002a0: 0000 0000 0000 0000 0000 0000 0000 0000
000002b0: 0000 0000 0000 0000 0000 0000 0000 0000
000002c0: 0000 0000 0000 0000 0000 0000 0000 0000
000002d0: 0000 0000 0000 0000 0000 0000 0000 0000
000002e0: 0000 0000 0000 0000 0000 0000 0000 0000
000002f0: 0000 0000 0000 0000 0000 0000 0000 0000
00000300: 0000 0000 0000 0000 0000 0000 0000 0000
00000310: 0000 0000 0000 0000 0000 0000 0000 0000
00000320: 0000 0000 0000 0000 0000 0000 0000 0000
00000330: 0000 0000 0000 0000 0000 0000 0000 0000
00000340: 0000 0000 0000 0000 0000 0000 0000 0000
00000350: 0000 0000 0000 0000 0000 0000 0000 0000
00000360: 0000 0000 0000 0000 0000 0000 0000 0000
00000370: 0000 0000 0000 0000 0000 0000 0000 0000
00000380: 0000 0000 0000 0000 0000 0000 0000 0000
00000390: 0000 0000 0000 0000 0000 0000 0000 0000
000003a0: 0000 0000 0000 0000 0000 0000 0000 0000
000003b0: 0000 0000 0000 0000 0000 0000 0000 0000
000003c0: 0000 0000 0000 0000 0000 0000 0000 0000
000003d0: 0000 0000 0000 0000 0000 0000 0000 0000
000003e0: 0000 0000 0000 0000 0000 0000 0000 0000
000003f0: 0000 0000 0000 0000 0000 0000 0000 0000
0.0 0.0 0.0 0.0 0.0 0.0 0.0 0.0
0.0 0.0 0.0 0.0 0.0 0.0 0.0 0.0
0.0 0.0 0.0 0.0 0.0 0.0 0.0 0.0
0.0 0.0 0.0 0.0 0.0 0.0 0.0 0.0
0.0 0.0 0.0 0.0 0.0 0.0 0.0 0.0
0.0 0.0 0.0 0.0 0.0 0.0 0.0 0.0
0.0 0.0 0.0 0.0 0.0 0.0 0.0 0.0
0.0 0.0 0.0 0.0 0.0 0.0 0.0 0.0
0.0 0.0 0.0 0.0 0.0 0.0 0.0 0.0
0.0 0.0 0.0 0.0 0.0 0.0 0.0 0.0
0.0 0.0 0.0 0.0 0.0 0.0 0.0 0.0
0.0 0.0 0.0 0.0 0.0 0.0 0.0 0.0
0.0 0.0 0.0 0.0 0.0 0.0 0.0 0.0
0.0 0.0 0.0 0.0 0.0 0.0 0.0 0.0
0.0 0.0 0.0 0.0 0.0 0.0 0.0 0.0
0.0 0.0 0.0 0.0 0.0 0.0 0.0 0.0
0.0 0.0 0.0 0.0 0.0 0.0 0.0 0.0
0.0 0.0 0.0 0.0 0.0 0.0 0.0 0.0
0.0 0.0 0.0 0.0 0.0 0.0 0.0 0.0
0.0 0.0 0.0 0.0 0.0 0.0 0.0 0.0
0.0 0.0 0.0 0.0 0.0 0.0 0.0 0.0
0.0 0.0 0.0 0.0 0.0 0.0 0.0 0.0
0.0 0.0 0.0 0.0 0.0 0.0 0.0 0.0
0.0 0.0 0.0 0.0 0.0 0.0 0.0 0.0
0.0 0.0 0.0 0.0 0.0 0.0 0.0 0.0
0.0 0.0 0.0 0.0 0.0 0.0 0.0 0.0
0.0 0.0 0.0 0.0 0.0 0.0 0.0 0.0
0.0 0.0 0.0 0.0 0.0 0.0 0.0 0.0
0.0 0.0 0.0 0.0 0.0 0.0 0.0 0.0
0.0 0.0 0.0 0.0 0.0 0.0 0.0 0.0
0.0 0.0 0.0 0.0 0.0 0.0 0.0 0.0
0.0 0.0 0.0 0.0 0.0 0.0 0.0 0.0

exp_avg f4 [80]
00000000: 0000 0000 0000 0000 0400 0000 0000 0000
00000010: 0b00 0000 0400 0080 4a00 0080 0400 0080
00000020: 0400 0080 0400 0080 0400 0080 daa7 c38e
00000030: 0400 0000 b9ee 2e19 0400 0080 0000 0000
00000040: 6afb 0190 0400 0080 0400 0080 0000 0000
00000050: 0000 0000 0000 0000 0000 0000 0000 0000
00000060: 0000 0000 0000 0000 0000 0000 0000 0000
00000070: 0000 0000 0000 0000 0000 0000 0000 0000
00000080: 0000 0000 0000 0000 0000 0000 0000 0000
00000090: 0000 0000 0000 0000 0000 0000 0000 0000
000000a0: 0000 0000 0000 0000 0400 0080 0000 0000
000000b0: 0000 0000 0000 0000 0400 0000 0000 0000
000000c0: 0000 0000 0400 0080 0000 0000 0000 0000
000000d0: 0000 0000 0000 0000 0400 0080 0000 0000
000000e0: c273 920f 0000 0000 0000 0000 0400 0080
000000f0: 0400 0080 0400 0080 0400 0000 0400 0080
00000100: 67a0 9600 0400 0080 8030 b480 0400 0080
00000110: 0400 0080 0400 0080 0400 0080 dca7 c38e
00000120: 0400 0000 b9ee 2e19 0000 0000 883e 5710
00000130: 69fb 0190 0400 0080 0000 0000 dd57 b70f
0.0 0.0 6e-45 0.0 1.5e-44 -6e-45 -1.04e-43 -6e-45
-6e-45 -6e-45 -6e-45 -4.8232847e-30 6e-45 9.043799e-24 -6e-45 0.0
-2.5634447e-29 -6e-45 -6e-45 0.0 0.0 0.0 0.0 0.0
0.0 0.0 0.0 0.0 0.0 0.0 0.0 0.0
0.0 0.0 0.0 0.0 0.0 0.0 0.0 0.0
0.0 0.0 -6e-45 0.0 0.0 0.0 6e-45 0.0
0.0 -6e-45 0.0 0.0 0.0 0.0 -6e-45 0.0
1.44413e-29 0.0 0.0 -6e-45 -6e-45 -6e-45 6e-45 -6e-45
1.3832866e-38 -6e-45 -1.6547788e-38 -6e-45 -6e-45 -6e-45 -6e-45 -4.8232854e-30
6e-45 9.043799e-24 0.0 4.2449446e-29 -2.5634444e-29 -6e-45 0.0 1.8079037e-29

exp_avg_sq f4 [80]
00000000: 0000 0000 0000 0000 d2f9 411f 0000 0000
00000010: 8335 0810 45c8 5331 26df 5a13 fcc6 f135
00000020: b20b 023b 5c30 1a2c 4890 c130 ce55 b017
00000030: 6c45 3128 7ea3 3000 4624 493b 0000 0000
00000040: dd8a 0218 6e2e ad28 62e7 8922 0000 0000
00000050: 0000 0000 0000 0000 0000 0000 0000 0000
00000060: 0000 0000 0000 0000 0000 0000 0000 0000
00000070: 0000 0000 0000 0000 0000 0000 0000 0000
00000080: 0000 0000 0000 0000 0000 0000 0000 0000
00000090: 0000 0000 0000 0000 0000 0000 0000 0000
000000a0: 0000 0000 0000 0000 5f7d bd1d 0000 0000
000000b0: 0000 0000 0000 0000 07f9 431f 0000 0000
000000c0: 0000 0000 1e1d b72b 0000 0000 0000 0000
000000d0: 0000 0000 0000 0000 80df 0f18 0000 0000
000000e0: 9a18 d814 0000 0000 0000 0000 d830 af2b
000000f0: 72a4 2b2f 03c7 5937 20bb 3d1f 4e44 8433
00000100: 0daf fe24 9276 862f 3ef4 0327 67fa a01f
00000110: 3dd5 281c 47e1 d828 40a7 853b 565c 2018
00000120: 94bb 2928 7ea3 3000 0000 0000 b072 be19
00000130: 2b92 0218 5926 0c3c 0000 0000 8c22 1e3b
0.0 0.0 4.1075986e-20 0.0 2.6862495e-29 3.0818381e-09 2.762549e-27 1.8013811e-06
0.0019843397 2.1911561e-12 1.4083605e-09 1.1395394e-24 9.840527e-15 4.466754e-39 0.0030691787 0.0
1.6872214e-24 1.9226994e-14 3.737891e-18 0.0 0.0 0.0 0.0 0.0
0.0 0.0 0.0 0.0 0.0 0.0 0.0 0.0
0.0 0.0 0.0 0.0 0.0 0.0 0.0 0.0
0.0 0.0 5.0157514e-21 0.0 0.0 0.0 4.1498847e-20 0.0
0.0 1.3011014e-12 0.0 0.0 0.0 0.0 1.8595155e-24 0.0
2.182013e-26 0.0 0.0 1.2448055e-12 1.5610782e-10 1.2980544e-05 4.0177093e-20 6.1591535e-08
1.1045149e-16 2.4458707e-10 1.8312306e-15 6.817689e-20 5.586214e-22 2.4078516e-14 0.0040787756 2.0726133e-24
9.422059e-15 4.466754e-39 0.0 1.9691861e-23 1.6875902e-24 0.008554065 0.0 0.0024129478

exp_avg f4 [80]
00000000: 0000 0000 0000 0000 0400 0000 0000 0000
00000010: 0b00 0000 0400 0080 4a00 0080 0400 0080
00000020: 0400 0080 0400 0080 0400 0080 daa7 c38e
00000030: 0400 0000 b9ee 2e19 0400 0080 0000 0000
00000040: 6afb 0190 0400 0080 0400 0080 0000 0000
00000050: 0000 0000 0000 0000 0000 0000 0000 0000
00000060: 0000 0000 0000 0000 0000 0000 0000 0000
00000070: 0000 0000 0000 0000 0000 0000 0000 0000
00000080: 0000 0000 0000 0000 0000 0000 0000 0000
00000090: 0000 0000 0000 0000 0000 0000 0000 0000
000000a0: 0000 0000 0000 0000 0400 0080 0000 0000
000000b0: 0000 0000 0000 0000 0400 0000 0000 0000
000000c0: 0000 0000 0400 0080 0000 0000 0000 0000
000000d0: 0000 0000 0000 0000 0400 0080 0000 0000
000000e0: c273 920f 0000 0000 0000 0000 0400 0080
000000f0: 0400 0080 0400 0080 0400 0000 0400 0080
00000100: 67a0 9600 0400 0080 8030 b480 0400 0080
00000110: 0400 0080 0400 0080 0400 0080 dca7 c38e
00000120: 0400 0000 b9ee 2e19 0000 0000 883e 5710
00000130: 69fb 0190 0400 0080 0000 0000 dd57 b70f
0.0 0.0 6e-45 0.0 1.5e-44 -6e-45 -1.04e-43 -6e-45
-6e-45 -6e-45 -6e-45 -4.8232847e-30 6e-45 9.043799e-24 -6e-45 0.0
-2.5634447e-29 -6e-45 -6e-45 0.0 0.0 0.0 0.0 0.0
0.0 0.0 0.0 0.0 0.0 0.0 0.0 0.0
0.0 0.0 0.0 0.0 0.0 0.0 0.0 0.0
0.0 0.0 -6e-45 0.0 0.0 0.0 6e-45 0.0
0.0 -6e-45 0.0 0.0 0.0 0.0 -6e-45 0.0
1.44413e-29 0.0 0.0 -6e-45 -6e-45 -6e-45 6e-45 -6e-45
1.3832866e-38 -6e-45 -1.6547788e-38 -6e-45 -6e-45 -6e-45 -6e-45 -4.8232854e-30
6e-45 9.043799e-24 0.0 4.2449446e-29 -2.5634444e-29 -6e-45 0.0 1.8079037e-29

exp_avg_sq f4 [80]
00000000: 0000 0000 0000 0000 d2f9 411f 0000 0000
00000010: 8335 0810 45c8 5331 26df 5a13 fcc6 f135
00000020: b20b 023b 5c30 1a2c 4890 c130 ce55 b017
00000030: 6c45 3128 7ea3 3000 4624 493b 0000 0000
00000040: dd8a 0218 6e2e ad28 62e7 8922 0000 0000
00000050: 0000 0000 0000 0000 0000 0000 0000 0000
00000060: 0000 0000 0000 0000 0000 0000 0000 0000
00000070: 0000 0000 0000 0000 0000 0000 0000 0000
00000080: 0000 0000 0000 0000 0000 0000 0000 0000
00000090: 0000 0000 0000 0000 0000 0000 0000 0000
000000a0: 0000 0000 0000 0000 5f7d bd1d 0000 0000
000000b0: 0000 0000 0000 0000 07f9 431f 0000 0000
000000c0: 0000 0000 1e1d b72b 0000 0000 0000 0000
000000d0: 0000 0000 0000 0000 80df 0f18 0000 0000
000000e0: 9a18 d814 0000 0000 0000 0000 d830 af2b
000000f0: 72a4 2b2f 03c7 5937 20bb 3d1f 4e44 8433
00000100: 0daf fe24 9276 862f 3ef4 0327 67fa a01f
00000110: 3dd5 281c 47e1 d828 40a7 853b 565c 2018
00000120: 94bb 2928 7ea3 3000 0000 0000 b072 be19
00000130: 2b92 0218 5926 0c3c 0000 0000 8c22 1e3b
0.0 0.0 4.1075986e-20 0.0 2.6862495e-29 3.0818381e-09 2.762549e-27 1.8013811e-06
0.0019843397 2.1911561e-12 1.4083605e-09 1.1395394e-24 9.840527e-15 4.466754e-39 0.0030691787 0.0
1.6872214e-24 1.9226994e-14 3.737891e-18 0.0 0.0 0.0 0.0 0.0
0.0 0.0 0.0 0.0 0.0 0.0 0.0 0.0
0.0 0.0 0.0 0.0 0.0 0.0 0.0 0.0
0.0 0.0 5.0157514e-21 0.0 0.0 0.0 4.1498847e-20 0.0
0.0 1.3011014e-12 0.0 0.0 0.0 0.0 1.8595155e-24 0.0
2.182013e-26 0.0 0.0 1.2448055e-12 1.5610782e-10 1.2980544e-05 4.0177093e-20 6.1591535e-08
1.1045149e-16 2.4458707e-10 1.8312306e-15 6.817689e-20 5.586214e-22 2.4078516e-14 0.0040787756 2.0726133e-24
9.422059e-15 4.466754e-39 0.0 1.9691861e-23 1.6875902e-24 0.008554065 0.0 0.0024129478
