dl_computer_vision/assignments/1/checkpoints/best_checkpoint-v5.ckpt (torch, 168892 bytes, 27 tensors)

model.lstm.weight_ih_l0 f4 [128, 1]
0.11100778 0.060004927 -0.08186363 0.16018537 -0.071744084 0.16812295 0.03968599 0.116791
0.040975638 -0.012458375 0.1366823 0.04511977 -0.08856309 -0.06359855 -0.1457101 0.013898439
0.1454457 0.090067856 -0.11830786 -0.02531118 -0.09427644 0.058595654 0.16426076 0.104727216
-0.068383515 -0.09537593 -0.12837277 0.12158243 -0.0099135395 -0.13622555 0.06583744 -0.036457736
0.11894059 0.059292488 0.051395573 -0.121043384 -0.10688832 -0.11744781 -0.10389575 0.13574529
-0.029789269 0.05754527 0.13372917 0.13374485 0.036623407 0.029761832 -0.17341498 0.0003649576
0.14527494 0.089287095 0.015744358 -0.048860777 0.15379617 -0.0010880659 -0.13707945 0.12464901
-0.06152876 -0.095722675 -0.09040989 -0.06946879 0.07164563 0.091897495 0.010503746 -0.115518644
0.09853359 -0.029772786 -0.1694809 -0.12803248 -0.04550422 0.16413103 0.13698432 0.12687635
-0.12791611 -0.113457255 -0.12149526 -0.12822986 0.07761351 0.03584761 -0.14511488 0.11032031
0.008001308 0.10612197 -0.14405102 -0.059287522 0.13649128 -0.046930805 -0.026178049 0.037386965
0.1357466 -0.0037933313 0.0680742 -0.04418361 0.07388633 -0.06164767 -0.08865938 -0.11050951
-0.0073070806 0.016008308 0.099723816 0.16307704 0.001702959 0.14963283 -0.065083206 0.034899946
0.14658198 0.10739418 -0.17524861 -0.13642076 0.044576224 -0.16197084 0.013361056 0.052063607
-0.070366405 -0.09603203 -0.0061765118 -0.058863822 0.029015215 0.15521066 0.020982336 0.06490933
-0.0030998434 -0.08665077 0.018084038 0.13183916 -0.0781784 0.05518998 0.023110352 -0.102669284
00000000: 0c58 e33d bac7 753d 1ea8 a7bd a207 243e
00000010: 90ee 92bd 6c28 2c3e c78d 223d 1f30 ef3d
00000020: 12d6 273d 361e 4cbc 72f6 0b3e 82cf 383d
00000030: 9160 b5bd f53f 82bd 0735 15be 47b6 633c
00000040: b8ef 143e 7f75 b83d 644b f2bd 6459 cfbc
00000050: 0214 c1bd ff01 703d f933 283e 397b d63d
00000060: a80c 8cbd 7554 c3bd 2774 03be 3600 f93d
00000070: 666c 22bc b67e 0bbe c8d5 863d b554 15bd
00000080: 2097 f33d aedc 723d 2a84 523d 98e5 f7bd
00000090: 43e8 dabd 7a88 f0bd 4cc7 d4bd d000 0b3e
000000a0: a008 f4bc 97b4 6b3d 4df0 083e 69f4 083e
000000b0: 6d02 163d 16cf f33c b293 31be c857 bf39
000000c0: f4c2 143e 27dc b63d 50fa 803c 3d22 48bd
000000d0: be7c 1d3e 6f9d 8eba 8e5e 0cbe fb47 ff3d
000000e0: 9505 7cbd 400a c4bd d228 b9bd a745 8ebd
000000f0: f2ba 923d c134 bc3d e717 2c3c 0a95 ecbd
00000100: fbcb c93d 0fe6 f3bc 678c 2dbe f21a 03be
00000110: a262 3abd f711 283e 9e45 0c3e e0eb 013e
00000120: 71fc 02be 475c e8bd 82d2 f8bd b04e 03be
00000130: d5f3 9e3d f2d4 123d ff98 14be 9def e13d
00000140: eb17 033c 7a56 d93d 1c82 13be 79d7 72bd
00000150: 5fc4 0b3e 843a 40bd 5973 d6bc 1323 193d
00000160: 2801 0b3e 8a99 78bb 7c6a 8b3d dff9 34bd
00000170: b751 973d 4482 7cbd 0d93 b5bd cf52 e2bd
00000180: 3c70 efbb db23 833c 003c cc3d abfd 263e
00000190: d235 df3a 5939 193e 584a 85bd 3ff3 0e3d
000001a0: 9619 163e 7bf1 db3d 5f74 33be e2b1 0bbe
000001b0: 8f95 363d afdb 25be 55e8 5a3c a640 553d
000001c0: 431c 90bd 71ac c4bd 5664 cabb 311b 71bd
000001d0: 51b1 ed3c 8bef 1e3e 26e3 ab3c 2fef 843d
000001e0: be26 4bbb f575 b1bd fa24 943c d800 073e
000001f0: ff1b a0bd e30e 623d ec51 bd3c 4644 d2bd

model.lstm.weight_hh_l0 f4 [128, 32]
-0.009505944 0.021217227 -0.13444398 0.108857706 0.10296612 -0.13286607 -0.13150088 -0.09114579
0.064499736 -0.0791352 -0.07787529 -0.06185563 -0.08535012 0.03246492 0.04891089 -0.053556193
-0.12204897 0.11435002 -0.050201047 0.12832358 -0.063404635 0.06457625 -0.08605979 -0.007933261
0.0788513 0.05807242 -0.033786565 -0.06688769 0.025014512 0.023469314 -0.16392773 -0.067193024
-0.13913733 0.033378266 -0.070136674 0.019267047 -0.10345728 -0.12259155 -0.11175065 0.06499638
0.120490685 0.15157637 -0.070587516 -0.11355732 -0.08493459 0.06192979 -0.055382963 -0.061491378
-0.103680596 0.04551267 0.07805843 -0.12576447 -0.016603205 -0.09223441 0.066646785 0.121136926
-0.04932418 0.12808758 -0.14447084 -0.10113973 -0.06936333 -0.02972453 -0.00015426493 -0.042297833
0.11049033 0.045255616 0.012998804 -0.16975531 0.13290256 -0.14383988 -0.12284337 0.023960114
-0.11973716 -0.043506205 0.033281896 -0.13403183 0.07194989 -0.08935584 -0.17451438 -0.1079148
-0.07913889 -0.12798771 -0.15366282 -0.07268877 0.1359049 0.02274094 -0.1102993 -0.051628415
-0.04974506 0.15405229 -0.10837254 -0.042907026 0.020859914 0.17079334 -0.1699255 0.002056182
0.10142644 -0.02426435 -0.11570131 0.06713377 -0.022444816 -0.014299258 -0.063953176 0.108893596
-0.12530412 0.101311855 -0.10111798 -0.14261319 -0.07399159 0.03580483 0.092861116 0.0589723
0.0609971 0.087024905 0.13828257 0.030001605 -0.0864562 -0.022078097 0.02728466 -0.036912136
-0.062998846 0.030958056 0.03585918 0.12020405 0.10825261 -0.009622966 0.0065449527 0.04645183
0.04291189 -0.15322424 0.11418771 0.16250843 0.030911926 0.14393722 -0.087252945 0.16225247
0.1634204 -0.070245706 0.007857775 0.1329349 0.1420586 -0.1337937 -0.116557606 -0.14531873
0.11409537 -0.10622934 -0.0072438694 -0.10391925 -0.0064590364 0.073247045 0.00014314514 -0.11361725
-0.17582875 -0.08827818 0.16085377 0.165711 0.056487463 -0.0005863836 -0.11518655 -0.13854493
-0.032491222 -0.024251621 -0.1673612 0.14173523 0.12100608 -0.15941289 -0.04500619 0.058495764
-0.028377084 0.15033387 -0.04492173 0.11318084 -0.107360214 0.14677422 0.08350821 0.039509017
-0.10800367 -0.058912955 -0.10210468 0.1407369 0.11388941 -0.15109031 0.11403303 0.17196818
-0.15873368 0.015618192 0.14464316 0.1699654 -0.06485651 0.14645891 -0.16956022 -0.044459168
0.17327195 0.010241614 -0.014821921 0.03512397 0.06995989 -0.12569936 0.06357362 -0.043161087
0.059863873 0.07420494 0.14969774 0.025735814 -0.06855125 -0.16746166 0.16677886 -0.121721976
0.14111148 -0.062172215 0.008289865 0.11579513 -0.049527433 0.053353004 -0.08009301 -0.0693776
0.12047765 0.1399397 0.0712402 -0.14310205 -0.10882013 -0.11420946 -0.0858469 -0.08901076
-0.10067778 -0.041337095 0.09462646 0.044634562 -0.044167154 0.1299571 0.12629578 0.16335143
0.113561764 0.049598873 0.16921881 -0.036881242 -0.050271288 0.1472443 -0.15774272 0.070119776
0.048365 -0.14419104 -0.170335 -0.013332519 0.13596724 -0.0049023177 -0.0833007 -0.1328991
0.02768811 -0.028077105 -0.05515299 0.10223626 -0.008277095 -0.16644289 -0.16915658 -0.13149527
00000000: d2be 1bbc c0cf ad3c afab 09be caf0 de3d
00000010: e7df d23d 0b0e 08be 2ba8 06be a5aa babd
00000020: 7018 843d a311 a2bd 147d 9fbd 545c 7dbd
00000030: 0bcc aebd f0f9 043d c956 483d bd5d 5bbd
00000040: cff4 f9bd 5830 ea3d 9d9f 4dbd 4267 033e
00000050: 4ada 81bd 8e40 843d 1d40 b0bd 82fa 01bc
00000060: ca7c a13d 59dd 6d3d c863 0abd 6afc 88bd
00000070: 3ceb cc3c b842 c03c acdc 27be 7f9c 89bd
00000080: 047a 0ebe a6b7 083d d1a3 8fbd edd5 9d3c
00000090: 69e1 d3bd 4711 fbbd 86dd e4bd d21c 853d
000000a0: d2c3 f63d d636 1b3e 3090 90bd bd90 e8bd
000000b0: 30f2 adbd 17aa 7d3d 3fd9 62bd 62de 7bbd
000000c0: 7e56 d4bd 7e6b 3a3d 19dd 9f3d 67c8 00be
000000d0: 7203 88bc 65e5 bcbd 1c7e 883d a316 f83d
000000e0: 2708 4abd 6429 033e 2af0 13be 5922 cfbd
000000f0: 5d0e 8ebd dc80 f3bc 2dc2 21b9 7e40 2dbd
00000100: c148 e23d f45d 393d f0f8 543c 56d4 2dbe
00000110: 9c17 083e c34a 13be 4e95 fbbd 0048 c43c
00000120: c238 f5bd 9033 32bd 9952 083d a43f 09be
00000130: 775a 933d 3200 b7bd e6b3 32be 6f02 ddbd
00000140: 9213 a2bd 360f 03be c959 1dbe dadd 94bd
00000150: a72a 0b3e 354b ba3c 99e4 e1bd 5178 53bd
00000160: 7ac1 4bbd e2bf 1d3e 6cf2 ddbd 47bf 2fbd
00000170: 69e2 aa3c 73e4 2e3e f300 2ebe 02c1 063b
00000180: aab8 cf3d 08c6 c6bc cff4 ecbd 6e7d 893d
00000190: 31de b7bc 6f47 6abc e2f9 82bd 9b03 df3d
000001a0: b94f 00be 977c cf3d f216 cfbd 3109 12be
000001b0: e788 97bd 16a8 123d f82d be3d f08c 713d
000001c0: 18d8 793d 1d3a b23d f299 0d3e edc5 f53c
000001d0: f30f b1bd 20dd b4bc 1484 df3c 2e31 17bd
000001e0: 8a05 81bd c09b fd3c 13e1 123d 8a2d f63d
000001f0: 8bb3 dd3d a5a9 1dbc 0b77 d63b 4644 3e3d
00000200: 61c4 2f3d d1e6 1cbe 3fdb e93d 9c68 263e
00000210: 023b fd3c 4764 133e acb1 b2bd 8325 263e
00000220: ad57 273e fbdc 8fbd e6bd 003c 1620 083e
00000230: cf77 113e 3701 09be c1b5 eebd 6fce 14be
00000240: d5aa e93d c58e d9bd fb5d edbb 9ed3 d4bd
00000250: 53a6 d3bb 8c02 963d 3b19 1639 29b0 e8bd
00000260: 740c 34be 31cb b4bd dab6 243e 25b0 293e
00000270: 665f 673d 8ab7 19ba ede6 ebbd b9de 0dbe
00000280: 8415 05bd 56ab c6bc bc60 2bbe 0a23 113e
00000290: 09d2 f73d 223d 23be 6958 38bd 4199 6f3d
000002a0: 0f77 e8bc 1ff1 193e d9ff 37bd 5bcb e73d
000002b0: acdf dbbd fb4b 163e 5a06 ab3d 35d4 213d
000002c0: 0731 ddbd b64e 71bd 421c d1bd 551d 103e
000002d0: da3e e93d 6bb7 1abe 268a e93d 6d18 303e
000002e0: 158b 22be 72e3 7f3c 561d 143e 690b 2e3e
000002f0: 7dd3 84bd 53f9 153e 32a1 2dbe d11a 36bd
00000300: 346e 313e 71cc 273c a4d7 72bc 27de 0f3d
00000310: 2147 8f3d 55b7 00be e332 823d aec9 30bd
00000320: d233 753d c2f8 973d 5d4a 193e ead3 d23c
00000330: 9964 8cbd 127b 2bbe 14c8 2a3e 5f49 f9bd
00000340: 877f 103e 4ba8 7ebd 37d2 073c ff25 ed3d
00000350: 47dd 4abd ae88 5a3d ce07 a4bd d815 8ebd
00000360: fcbc f63d 5a4c 0f3e 62e6 913d 5889 12be
00000370: 17dd debd a6e6 e9bd 80d0 afbd 464b b6bd
00000380: 2730 cebd 1651 29bd 84cb c13d bbd2 363d
00000390: 9ee8 34bd 7913 053e ae53 013e 9945 273e
000003a0: 1293 e83d 3028 4b3d b247 2d3e c910 17bd
000003b0: 44e9 4dbd 36c7 163e 4f87 21be f59a 8f3d
000003c0: 611a 463d d1a6 13be 4c6c 2ebe a370 5abc
000003d0: ff3a 0b3e 9fa3 a0bb 8f99 aabd b416 08be
000003e0: 2dd2 e23c f501 e6bc 1ae8 61bd 3f61 d13d
000003f0: a79c 07bc 0170 2abe 6237 2dbe b2a6 06be

model.lstm.bias_ih_l0 f4 [128]
-0.09665847 -0.051776264 0.061019737 0.021259565 -0.027474606 0.065297686 -0.027225625 0.15523005
0.14030048 0.22894163 -0.08109947 0.05388528 0.19291466 -0.06999656 0.026299883 -0.08857751
-0.15396135 -0.09841958 -0.02973033 -0.09557883 -0.014303582 -0.043804303 0.097136974 0.17677554
0.0823128 -0.15603928 -0.007964369 0.14427993 0.108476005 0.17865945 -0.0046469956 0.12855235
0.11964551 -0.112449355 0.13606073 0.08619875 0.0154806925 0.024092097 0.019874647 0.08761216
0.1407474 -0.14879759 0.05809398 -0.083297774 -0.14344862 0.004472643 0.024107458 0.16721061
0.05081578 -0.011574077 -0.07346252 0.07944574 0.03130559 -0.17281295 -0.0039713825 -0.013384676
-0.16913922 -0.15961246 -0.12890658 0.12765539 0.028569203 -0.05951675 -0.0032537947 -0.09236483
-0.14950117 -0.16338883 0.1677859 0.10082462 -0.07902265 -0.13987489 0.11088721 0.066340774
-0.018306794 -0.06859877 0.07527307 -0.04668309 0.058841374 -0.17373697 -0.021905337 -0.05149504
0.10938121 -0.117871515 0.055525526 -0.15090054 -0.015167437 -0.13438158 -0.008762182 -0.09031104
0.026463078 0.07942653 -0.0519874 0.058006726 0.102435455 0.17081046 -0.022457575 0.12512222
-0.08669718 0.18646955 0.10779573 -0.13568483 -0.06772653 0.10958359 0.15504955 0.08037726
0.06363108 -0.12829137 0.015553924 -0.08033664 0.008196943 0.11339557 0.11905661 0.09139021
0.058563113 0.0787751 -0.15028104 -0.09986333 -0.02746068 -0.13256752 -0.11973719 0.05445639
0.19378257 -0.0038360946 -0.119189315 0.07544254 -0.11555784 0.17079131 0.20033787 -0.06575372
00000000: e0f4 c5bd 5913 54bd d5ef 793d 8a28 ae3c
00000010: 6d12 e1bc cbba 853d 4608 dfbc a0f4 1e3e
00000020: eeaa 0f3e ad6f 6a3e 7b17 a6bd d0b6 5c3d
00000030: 6c8b 453e 5b5a 8fbd da72 d73c 2068 b5bd
00000040: 0ba8 1dbe 3490 c9bd 058d f3bc d5be c3bd
00000050: 9259 6abc 246c 33bd c0ef c63d a604 353e
00000060: 9d93 a83d c3c8 1fbe fc7c 02bc 1ebe 133e
00000070: ab28 de3d 81f2 363e d345 98bb 3aa3 033e
00000080: b508 f53d d94b e6bd 8153 0b3e f888 b03d
00000090: bba2 7d3c ca5c c53c 28d0 a23c 016e b33d
000000a0: 1620 103e 655e 18be f4f3 6d3d 0698 aabd
000000b0: 32e4 12be 408f 923b 017d c53c 4239 2b3e
000000c0: 3524 503d 33a1 3dbc 8573 96bd 73b4 a23d
000000d0: 4a3a 003d e1f5 30be 5f22 82bb 664b 5bbc
000000e0: d532 2dbe 7371 23be 1600 04be 18b8 023e
000000f0: f609 ea3c d6c7 73bd 9e3d 55bb c629 bdbd
00000100: d616 19be 674f 27be 11d0 2b3e 237d ce3d
00000110: a1d6 a1bd 5d3b 0fbe d518 e33d acdd 873d
00000120: 21f8 95bc 837d 8cbd c428 9a3d c536 3fbd
00000130: a703 713d 1be8 31be d272 b3bc 77ec 52bd
00000140: 4103 e03d 9f66 f1bd bc6e 633d ac85 1abe
00000150: d780 78bc 539b 09be 418f 0fbc fff4 b8bd
00000160: 19c9 d83c 60aa a23d bdf0 54bd 7698 6d3d
00000170: aec9 d13d f0e8 2e3e f3f8 b7bc 0a20 003e
00000180: 4b8e b1bd e0f1 3e3e 02c4 dc3d f7f0 0abe
00000190: 35b4 8abd 5c6d e03d 4fc5 1e3e d59c a43d
000001a0: 0351 823d d05e 03be e3d5 7e3c 8987 a4bd
000001b0: 794c 063c f03b e83d f4d3 f33d ca2a bb3d
000001c0: e0df 6f3d d754 a13d 46e3 19be 2585 ccbd
000001d0: 38f5 e0bc c8bf 07be c638 f5bd aa0d 5f3d
000001e0: f06e 463e fd66 7bbb 8719 f4bd 9e81 9a3d
000001f0: 97a9 ecbd ebe3 2e3e 5f25 4d3e e3a9 86bd

model.lstm.bias_hh_l0 f4 [128]
-0.0553519 0.14317584 0.030514551 -0.03169641 -0.12326355 0.04944569 -0.10912518 -0.044753555
0.16101095 0.048754234 -0.018009152 0.13447125 -0.022931444 -0.030191049 0.16148007 0.043033425
-0.063800916 -0.17296153 -0.093940616 0.09922766 0.19857614 0.15386936 -0.066413626 -0.12999187
-0.10294249 -0.09486161 0.052128166 -0.05881721 0.14419515 0.17281817 -0.067661114 0.14897598
-0.0778945 -0.15530337 -0.046501268 0.13667326 -0.11351805 0.01655067 0.06728992 -0.09210991
-0.04763264 -0.15892237 0.101431705 0.03267764 -0.003125015 -0.15800503 0.0058728075 0.13558713
-0.1611504 -0.04575653 -0.011986315 0.004076834 -0.17244753 0.0005086928 0.0012384395 -0.0926511
-0.14956696 -0.13610731 -0.048729446 -0.14531906 -0.006983899 -0.1446809 0.053269424 -0.17522427
0.13625653 -0.17025492 -0.10644244 0.06978346 -0.107878245 -0.0034447557 -0.08985583 0.07130336
-0.11342398 0.13620861 -0.06648053 -0.1573551 -0.08762401 0.0041390876 0.116139024 0.027655426
0.13567813 0.07518075 -0.12696852 0.009550193 0.01605791 0.09115183 -0.09823974 0.025121672
0.1238428 0.061184812 0.057076387 0.078332394 -0.11512712 -0.10207968 0.15398492 0.11054337
0.044905595 0.23450923 -0.12100728 -0.092586115 0.09953533 -0.13116774 -0.14027222 -0.0185696
0.02189947 -0.013786153 -0.09977258 -0.062611796 0.1719153 0.076439224 0.097628355 0.19704443
0.05084178 0.085435055 0.014003609 0.085966505 0.07199667 -0.022367992 0.16709793 -0.15195084
-0.12209964 -0.10229287 -0.120917305 -0.10673542 -0.047767572 -0.13210346 -0.13227998 -0.09818468
00000000: adb8 62bd b09c 123e a7f9 f93c 18d4 01bd
00000010: 9a71 fcbd 9087 4a3d 067d dfbd 814f 37bd
00000020: 0ee0 243e 85b2 473d ee87 93bc d5b2 093e
00000030: b9da bbbc 3853 f7bc 085b 253e d143 303d
00000040: 0eaa 82bd d41c 31be f063 c0bd df37 cb3d
00000050: 8b57 4b3e ee8f 1d3e de03 88bd 971c 05be
00000060: 83d3 d2bd ce46 c2bd 5884 553d 51ea 70bd
00000070: e5a7 133e 3ff7 303e e991 8abd 298d 183e
00000080: 2787 9fbd d907 1fbe 1d78 3ebd 13f4 0b3e
00000090: 277c e8bd 4595 873c 4ccf 893d 1fa4 bcbd
000000a0: 711a 43bd 8cbc 22be 6dbb cf3d fdd8 053d
000000b0: 0dcd 4cbb 12cc 21be ae70 c03b 5ad7 0a3e
000000c0: 9c04 25be 336b 3bbd 4062 44bc f696 853b
000000d0: 1696 30be cc59 053a 2253 a23a dcbf bdbd
000000e0: 1528 19be b75f 0bbe 8798 47bd 85ce 14be
000000f0: 31d9 e4bb 3b27 14be 0a31 5a3d fe6d 33be
00000100: d586 0b3e 4e57 2ebe 7efe d9bd a1ea 8e3d
00000110: 45ef dcbd 69c1 61bb 5506 b8bd 7f07 923d
00000120: d54a e8bd 457a 0b3e f226 88bd b221 21be
00000130: 3874 b3bd 2fa1 873b 4cda ed3d a28d e23c
00000140: 35ef 0a3e 5df8 993d 0904 02be 6a78 1c3c
00000150: e18b 833c d0ad ba3d eb31 c9bd f7cb cd3c
00000160: 4ba1 fd3d ed9c 7a3d eec8 693d bc6c a03d
00000170: c4c7 ebbd 270f d1bd 39ae 1d3e 9064 e23d
00000180: eeee 373d 3023 703e aad2 f7bd ca9d bdbd
00000190: 2ed9 cb3d d650 06be 85a3 0fbe 461f 98bc
000001a0: 8466 b33c 51df 61bc 9155 ccbd 9d3a 80bd
000001b0: 900a 303e 2b8c 9c3d 60f1 c73d 04c6 493e
000001c0: 783f 503d 93f8 ae3d 656f 653c 350f b03d
000001d0: fd72 933d 143d b7bc b81b 2b3e 0099 1bbe
000001e0: 600f fabd ed7e d1bd 7ea3 f7bd 1a98 dabd
000001f0: eea7 43bd 2146 07be 6774 07be 0d15 c9bd

model.lstm.weight_ih_l1 f4 [128, 32]
-0.10442087 0.14291549 -0.17196983 0.027339205 -0.10520526 -0.13251136 0.06111192 0.01786515
-0.09475977 -0.071061105 0.058314446 0.041857757 -0.07187923 0.1157449 -0.07655271 -0.0113904765
0.07926766 -0.056855373 0.12577884 -0.008415708 -0.045801006 0.07832244 0.09853813 0.042761687
-0.012598037 0.028452743 -0.07066316 0.0012531687 -0.027477423 0.08780254 -0.056037895 -0.03945232
0.02279042 -0.049731918 0.08928357 0.00172523 -0.018413365 -0.11165522 0.116919346 -0.045370407
-0.11787821 -0.028673204 -0.112944655 -0.0526832 -0.006155494 -0.15691322 -0.00262332 0.1335254
-0.12836255 -0.13161072 -0.0677546 -0.16160837 -0.03858906 -0.15458927 -0.08900388 0.19746472
0.1942392 -0.14934538 -0.042340446 0.116917215 -0.09307093 -0.07321519 0.07175728 -0.13794424
0.112802535 -0.038544565 0.14312592 -0.047031097 0.11840169 0.20253891 0.09967966 0.09892447
0.11295126 0.021627791 -0.047309168 -0.12330185 0.1656658 -0.0842512 -0.15943114 0.14685282
-0.10228611 0.19297566 0.05375774 -0.16919856 0.10406667 -0.21992008 -0.024108576 0.09993387
0.055691157 0.15167159 0.16656855 -0.16244882 0.09282346 0.07113413 -0.08484962 0.13166314
-0.015624867 0.028462943 -0.02989895 -0.1087892 0.028461928 0.118390664 -0.12901556 0.0010613638
0.07120028 -0.012932356 -0.06835064 0.13648608 -0.004256143 -0.03829298 0.092646256 0.07454224
0.01879868 0.07668924 -0.05391193 -0.15046282 0.16225813 0.08734981 -0.09260003 0.070759505
0.12355118 0.14029512 0.11239501 -0.19562764 -0.088744685 0.0064594033 -0.13139118 -0.15921658
0.15795183 0.06079136 -0.16656558 0.074785225 -0.0030630555 0.120827876 -0.12093909 -0.008271727
-0.13840711 -0.057530526 0.07362005 0.019257478 -0.099453636 -0.0677011 -0.050899692 0.18787578
0.0048302803 -0.05683362 0.0013102434 -0.088218026 -0.058823925 -0.22448976 -0.15810901 0.17362991
0.17347047 0.17047188 -0.07706609 0.08927059 0.16352062 0.060447402 0.009549522 0.049459323
0.044452783 0.023331441 0.15547113 0.13110329 0.035787128 -0.089091904 -0.020005565 -0.085496835
0.049789604 -0.17908992 0.119044036 0.13264994 0.0069272295 0.1741084 0.028760508 -0.023333719
0.07592835 0.06068948 -0.04219588 -0.06130656 0.1654123 0.06580393 -0.20250015 -0.08613286
-0.032431275 -0.096444234 -0.056707073 -0.049510885 0.0037274344 -0.04367749 -0.10955855 0.050509483
0.1300572 -0.149685 0.023695875 -0.21751156 -0.056157712 -0.0097849425 0.1283804 0.031045891
0.03629273 0.032379236 -0.023618765 0.006955301 -0.1386256 -0.024924666 -0.026687527 0.14278688
0.15333602 -0.016263532 -0.18504171 -0.12053093 0.01889324 -0.14359212 -0.093205415 -0.10272985
-0.0072379443 0.14970233 -0.15192872 -0.19214925 -0.061786268 -0.04333878 0.04954781 0.128789
0.15040293 -0.10613314 -0.123999774 -0.1903812 -0.16441065 -0.08880413 0.14761361 -0.04089037
0.074368335 -0.11278861 0.105104394 0.07578533 0.09584411 0.05426432 0.075696684 0.035306532
0.08692227 0.1309158 -0.0337356 -0.0048934803 -0.12721883 0.046925496 -0.1251494 -0.0034983743
0.08927143 -0.15812589 0.14030376 -0.1335196 0.09699755 -0.056796268 -0.11043864 -0.016184317
00000000: 9cda d5bd 7058 123e dc18 30be 78f6 df3c
00000010: db75 d7bd 0fb1 07be 7e50 7a3d ef59 923c
00000020: 6911 c2bd 7c88 91bd 21db 6e3d 0a73 2b3d
00000030: 6b35 93bd aa0b ed3d abc7 9cbd 1f9f 3abc
00000040: 1557 a23d 2ee1 68bd 2bcc 003e 0ae2 09bc
00000050: d699 3bbd 8467 a03d 5cce c93d e126 2f3d
00000060: ff67 4ebc ba15 e93c d9b7 90bd 5d41 a43a
00000070: 5518 e1bc d1d1 b33d fe87 65bd c298 21bd
00000080: fab2 ba3c b2b3 4bbd 4eda b63d 1d21 e23a
00000090: a0d7 96bc 7eab e4bd 6973 ef3d 52d6 39bd
000000a0: 226a f1bd 11e4 eabc 874f e7bd 57ca 57bd
000000b0: 07b4 c9bb dcad 20be 02ec 2bbb e2ba 083e
000000c0: 7971 03be f6c4 06be ecc2 8abd aa7c 25be
000000d0: 900f 1ebd a64c 1ebe ab47 b6bd 3134 4a3e
000000e0: a4e6 463e ffed 18be 2d6d 2dbd 4b72 ef3d
000000f0: f99b bebd d8f1 95bd 7bf5 923d 4141 0dbe
00000100: 0405 e73d e8e0 1dbd 9a8f 123e aea3 40bd
00000110: 967c f23d 5c66 4f3e d924 cc3d ea98 ca3d
00000120: fd52 e73d c42c b13c 42c7 41bd ae85 fcbd
00000130: 4ca4 293e e58b acbd eb41 23be 9660 163e
00000140: 617b d1bd 699b 453e 1331 5c3d 6342 2dbe
00000150: e820 d53d bb32 61be 597f c5bc 21aa cc3d
00000160: 691c 643d cc4f 1b3e f290 2a3e fc58 26be
00000170: 3a1a be3d c5ae 913d a3c5 adbd b4d2 063e
00000180: 71ff 7fbc 1e2b e93c a5ee f4bc dfcc debd
00000190: fd28 e93c ce76 f23d a81c 04be 761d 8b3a
000001a0: 74d1 913d 3ce2 53bc 6cfb 8bbd 02c3 0b3e
000001b0: 1d77 8bbb 1ad9 1cbd 52bd bd3d 9aa9 983d
000001c0: b0ff 993c 400f 9d3d c2d2 5cbd ed12 1abe
000001d0: ff26 263e 75e4 b23d 16a5 bdbd 5cea 903d
000001e0: 6708 fd3d 86a9 0f3e 5b2f e63d 9d52 48be
000001f0: c6bf b5bd 67a9 d33b 698b 06be ac09 23be
00000200: 20be 213e 5c00 793d 2b90 2abe ff28 993d
00000210: 8bbd 48bb 9b74 f73d eaae f7bd 2386 07bc
00000220: 98ba 0dbe 21a5 6bbd 1cc6 963d dcc1 9d3c
00000230: 59ae cbbd e0a6 8abd 327c 50bd 8262 403e
00000240: 5447 9e3b 5fca 68bd 79bc ab3a a7ab b4bd
00000250: 5bf1 70bd a5e0 65be 54e7 21be 0acc 313e
00000260: 3ea2 313e 2e90 2e3e d4d4 9dbd 80d3 b63d
00000270: f371 273e b297 773d 9975 1c3c dc95 4a3d
00000280: 1f14 363d 9421 bf3c d333 1f3e f13f 063e
00000290: 8695 123d d175 b6bd b6e2 a3bc f718 afbd
000002a0: 2ff0 4b3d 5963 37be 5ccd f33d 63d5 073e
000002b0: d0fd e23b 7949 323e 289b eb3c 5b26 bfbc
000002c0: 5380 9b3d 8895 783d 96d5 2cbd 961c 7bbd
000002d0: d861 293e 36c4 863d 335c 4fbe 6d66 b0bd
000002e0: a8d6 04bd 8e84 c5bd ad45 68bd edcb 4abd
000002f0: f947 743b 2be7 32bd 3c60 e0bd 08e3 4e3d
00000300: b72d 053e 0647 19be da1d c23c 5abb 5ebe
00000310: a105 66bd 0651 20bc 2776 033e f453 fe3c
00000320: b0a7 143d 17a0 043d 247c c1bc 4be9 e33b
00000330: dff3 0dbe d02e ccbc cd9f dabc b936 123e
00000340: 1e04 1d3e 193b 85bc 937b 3dbe ecd8 f6bd
00000350: ffc5 9a3c d009 13be 7be2 bebd 0764 d2bd
00000360: 472c edbb 914b 193e 3493 1bbe c6c2 44be
00000370: 9913 7dbd 0184 31bd a5f2 4a3d 43e1 033e
00000380: 3a03 1a3e 555c d9bd 98f3 fdbd 4af3 42be
00000390: 445b 28be f1de b5bd 0628 173e a97c 27bd
000003a0: 6d4e 983d b7fd e6bd f940 d73d 5735 9b3d
000003b0: eb49 c43d 4344 5e3d dd06 9b3d 959d 103d
000003c0: 4e04 b23d cb0e 063e 572e 0abd 7d59 a0bb
000003d0: a745 02be f334 403d 2a27 00be fb44 65bb
000003e0: f1d3 b63d c1eb 21be caab 0f3e 5db9 08be
000003f0: a7a6 c63d 34a3 68bd a72d e2bd f994 84bc

model.lstm.weight_hh_l1 f4 [128, 32]
-0.02912396 -0.07569861 0.14822705 -0.0705376 -0.07132062 -0.12158879 -0.17649986 -0.09178883
-0.06478252 0.13837504 0.10998353 -0.06458778 0.0841755 0.10795153 -0.112753935 0.10479024
0.056825038 0.09668537 -0.052917097 0.03563264 -0.11752875 -0.039745416 0.012370968 0.14793037
-0.057654094 0.1655692 -0.12780952 0.09745441 -0.029040804 0.08858131 -0.110958986 -0.09947638
0.020813469 0.13730127 -0.13038796 -0.13184962 0.037242357 0.11857691 -0.16449106 0.059387676
-0.040524207 0.039725356 0.10748611 0.13268243 -0.055812314 0.059247475 0.08691992 0.044689562
0.16136351 0.089426644 0.10421713 0.054650873 -0.059638787 -0.08215867 -0.15944868 0.089243665
-0.10878547 0.14636725 0.10451537 -0.119859815 -0.12651491 -0.06315527 -0.0026032983 -0.014186646
-0.1158472 0.06159548 0.12450128 0.07190214 -0.06364184 0.14869303 0.13498428 0.009753827
-0.15362102 0.13236505 -0.05146495 -0.10562283 -0.1373747 -0.08918213 0.07368228 -0.040483493
-0.1568604 -0.059134018 -0.025253717 0.023819933 0.11662013 -0.12716025 -0.094288245 -0.0789958
0.099743955 -0.12374491 -0.08928132 -0.04333825 -0.010052837 0.14558703 0.052601986 -0.07026851
-0.08498403 -0.11192098 -0.08899732 0.07142222 0.17612313 0.15608913 0.08296589 -0.13109358
-0.048301615 -0.049282856 -0.062311407 0.054882154 0.03653941 -0.04424011 0.16871125 0.068167716
-0.025149867 0.10431158 -0.13146825 -0.0033401472 -0.00010750637 0.007074747 0.06752706 -0.05992117
0.09787653 -0.016740395 -0.018424742 -0.1576656 0.09449755 0.14855725 0.062151417 -0.04907541
0.07824822 -0.135558 0.0510757 -0.026842054 0.09501553 -0.064085476 -0.09931656 0.06655676
0.041198134 -0.046480175 0.1195329 -0.0082864305 0.056371182 -0.08002024 -0.02474082 -0.11762848
0.10674249 -0.08688338 0.019956749 0.09381045 -0.02357407 0.073348664 -0.13870513 0.077491894
-0.01607559 0.15592381 0.09461474 0.011374368 -0.121422075 -0.17644289 0.13193072 -0.015564059
0.12621915 -0.038885687 0.11295546 -0.044525843 -0.16331463 0.07900733 -0.09392086 0.086217985
-0.15615433 -0.01184643 0.094714224 0.041098163 -0.06430038 0.14406471 0.09691174 -0.002131435
-0.035611294 -0.00992823 0.13390058 -0.061728686 0.01812141 -0.016346216 0.011797223 -0.008755457
0.078693375 -0.09672699 0.029854301 -0.10656378 0.13279419 -0.09710446 -0.070601635 -0.008800322
0.17250451 0.10370789 0.1178912 -0.023267366 -0.11324123 -0.0016677555 0.15015337 0.095487155
-0.0979722 -0.1263135 0.07458226 -0.049194768 0.061913583 0.005211191 -0.16871013 0.047606148
-0.084258676 -0.008181695 0.14103937 -0.11674628 -0.15611771 0.10588473 0.029036822 -0.013959917
-0.12194588 -0.03532577 0.12708281 -0.023800377 -0.030773284 -0.004223568 0.0016714855 0.17660713
0.15547824 0.13434677 -0.09116438 0.087526746 -0.14042471 0.1532031 0.10066244 -0.12562916
-0.16230404 -0.026014615 -0.05286256 -0.13749664 0.042820897 0.17149921 -0.1410774 -0.15021229
0.0772427 -0.007468849 -0.056131113 -0.1496529 -0.04538269 0.036672004 0.011691499 -0.09913014
0.023456711 0.0021487575 0.043092996 0.025526682 0.031299435 0.12959196 0.13743097 0.15036047
00000000: 5f95 eebc df07 9bbd d5c8 173e 0476 90bd
00000010: 8c10 92bd 8b03 f9bd 61bc 34be c8fb bbbd
00000020: b3ac 84bd 30b2 0d3e 0c3f e13d 9946 84bd
00000030: 3464 ac3d b115 dd3d 89eb e6bd 449c d63d
00000040: 5fc1 683d fb02 c63d 99bf 58bd 88f3 113d
00000050: eab2 f0bd 17cc 22bd 9aaf 4a3c 0f7b 173e
00000060: b326 6cbd f98a 293e 80e0 02be 2d96 c73d
00000070: fbe6 edbc 1e6a b53d 773e e3bd 46ba cbbd
00000080: 0281 aa3c b498 0c3e 6c84 05be 9603 07be
00000090: 718b 183d 73d8 f23d 5870 28be 7e40 733d
000000a0: b6fc 25bd 0eb7 223d ad21 dc3d e7dd 073e
000000b0: 749b 64bd 7bad 723d 1203 b23d 670c 373d
000000c0: 7a3c 253e 5125 b73d ca6f d53d 98d9 5f3d
000000d0: cd47 74bd ce42 a8bd 8446 23be 62c5 b63d
000000e0: ebca debd 4ce1 153e 280c d63d 1079 f5bd
000000f0: 208d 01be 8d57 81bd 199c 2abb 1b6f 68bc
00000100: 4c41 edbd 8b4b 7c3d 87fa fe3d 6e41 933d
00000110: a756 82bd fc42 183e 5239 0a3e 84ce 1f3c
00000120: d44e 1dbe b48a 073e e9cc 52bd c850 d8bd
00000130: f4ab 0cbe 1fa5 b6bd bce6 963d 05d2 25bd
00000140: 03a0 20be 8336 72bd e2e0 cebc 0522 c33c
00000150: 89d6 ee3d 4c36 02be 321a c1bd 8dc8 a1bd
00000160: 8f46 cc3d f96d fdbd 20d9 b6bd 7383 31bd
00000170: a8b4 24bc c414 153e 2e75 573d f0e8 8fbd
00000180: 1b0c aebd d436 e5bd 3a44 b6bd d045 923d
00000190: 9f59 343e d4d5 1f3e 05ea a93d 653d 06be
000001a0: ead7 45bd d2dc 49bd 3f3a 7fbd 1ccc 603d
000001b0: 59aa 153d 1e35 35bd a4c2 2c3e 849b 8b3d
000001c0: 1807 cebc 4fa1 d53d 9d9f 06be 5fe6 5abb
000001d0: 0b75 e1b8 47d3 e73b a14b 8a3d e76f 75bd
000001e0: 7d73 c83d 2723 89bc 7cef 96bc 1773 21be
000001f0: ee87 c13d 641f 183e 7c92 7e3d 4c03 49bd
00000200: 9a40 a03d b7cf 0abe c134 513d dee3 dbbc
00000210: 8197 c23d 3f3f 83bd 7b66 cbbd e94e 883d
00000220: 60bf 283d ff61 3ebd aacd f43d cfc3 07bc
00000230: 78e5 663d a7e1 a3bd 43ad cabc 33e7 f0bd
00000240: ce9b da3d eaef b1bd 567c a33c b11f c03d
00000250: 681e c1bc d337 963d b808 0ebe 12b4 9e3d
00000260: f5b0 83bc 7eaa 1f3e 5fc5 c13d 8f5b 3a3c
00000270: 23ac f8bd 72ad 34be d918 073e 6500 7fbc
00000280: 983f 013e 9946 1fbd 3155 e73d bb60 36bd
00000290: f33b 27be 98ce a13d 9459 c0bd 0e93 b03d
000002a0: ece6 1fbe 8717 42bc 88f9 c13d 8c56 283d
000002b0: ebaf 83bd b385 133e aa79 c63d 8caf 0bbb
000002c0: 26dd 11bd 04aa 22bc 3c1d 093e 38d7 7cbd
000002d0: 5a73 943c 80e8 85bc 2449 413c 0c73 0fbc
000002e0: fe29 a13d cd18 c6bd 0291 f43c 1c3e dabd
000002f0: 33fb 073e b4de c6bd 9797 90bd 3a2f 10bc
00000300: 06a5 303e cd64 d43d f170 f13d 349b bebc
00000310: 05eb e7bd 9798 daba cec1 193e c58e c33d
00000320: a6a5 c8bd 5358 01be 95be 983d 7480 49bd
00000330: 1999 7d3d a3c2 aa3b 59c2 2cbe aafe 423d
00000340: d08f acbd 840c 06bc a06c 103e ac18 efbd
00000350: 52dd 1fbe 18da d83d a1de ed3c 23b8 64bc
00000360: c3be f9bd c1b1 10bd ff21 023e 02f9 c2bc
00000370: 4118 fcbc db65 8abb bf15 db3a 80d8 343e
00000380: b035 1f3e 3392 093e 64b4 babd 3941 b33d
00000390: 7fcb 0fbe 46e1 1c3e 1c28 ce3d eea4 00be
000003a0: 0833 26be 9a1c d5bc 6986 58bd ebcb 0cbe
000003b0: f764 2f3d 7d9d 2f3e 9876 10be 40d1 19be
000003c0: 6c31 9e3d 3fbd f4bb bde9 65bd 9c3e 19be
000003d0: 33e3 39bd 6235 163d b38d 3f3c be04 cbbd
000003e0: 4a28 c03c 2bd2 0c3b 4882 303d 551d d13c
000003f0: d633 003d c1b3 043e b4ba 0c3e 18f8 193e

model.lstm.bias_ih_l1 f4 [128]
-0.13405086 0.14219008 0.07598906 0.12236932 -0.08253577 0.1953896 0.07141 0.17745322
0.010770841 0.12222665 0.020671057 0.16974826 0.047918294 0.088911645 -0.047285754 0.1076297
-0.119949766 -0.09619454 0.09264903 -0.0660254 -0.14893906 0.19735475 0.043583285 -0.07250689
-0.016870696 -0.10728601 -0.10751887 0.08439182 -0.053512644 0.005374722 0.23101436 0.058996357
-0.061781853 0.040245976 -0.17156547 0.16402753 -0.11093015 -0.111722894 -0.11792327 -0.1627569
0.0005793873 0.17315727 -0.037404474 0.03030363 0.15843631 0.0267381 0.09431691 0.057493344
-0.119845144 0.04438876 -0.07065624 0.16672663 0.038636997 0.02471391 0.04541725 0.022128357
0.038037162 0.033949126 0.15173778 0.00046305463 0.09291472 -0.06834644 -0.115863726 0.010804986
-0.03007499 -0.122532606 0.096755765 -0.08450269 0.1383318 0.008419182 -0.12477831 0.009818998
0.0016187257 0.005413193 0.2192114 0.089391276 -0.078326106 -0.046967305 -0.06291094 -0.09070845
-0.08983395 0.11341985 -0.091442116 -0.17410213 0.0809848 -0.12483223 0.026043845 -0.16102454
-0.22136728 0.033910524 0.018433947 -0.14911155 -0.085342884 0.041719683 -0.023075946 -0.0291491
0.10042908 0.14673619 0.21356614 -0.0057778936 0.19249968 -0.11879846 0.23815031 0.107414424
0.18901119 0.18412453 0.013609442 -0.0070372378 -0.074972615 0.13748439 0.17101973 0.2246084
-0.045695744 0.22541338 -0.045157257 0.04376226 0.1449338 -0.09254945 0.053073063 0.044410788
0.059261557 -0.09753518 0.0489311 0.123292156 0.10488962 0.08177472 0.1156315 0.23152569
00000000: a144 09be 479a 113e 27a0 9b3d c49c fa3d
00000010: 8408 a9bd 3614 483e 683f 923d 4cb6 353e
00000020: 2e78 303c f751 fa3d 5956 a93c 7dd2 2d3e
00000030: f945 443d 4f17 b63d b5ae 41bd f66c dc3d
00000040: 39a8 f5bd a501 c5bd c6be bd3d 5338 87bd
00000050: 7b83 18be 5d17 4a3e 6384 323d 7e7e 94bd
00000060: 6a34 8abc c5b8 dbbd da32 dcbd 9ed5 ac3d
00000070: 1330 5bbd 701e b03b 078f 6c3e 2aa6 713d
00000080: f80e 7dbd f7d8 243d dcae 2fbe d5f6 273e
00000090: 592f e3bd f9ce e4bd c181 f1bd bfa9 26be
000000a0: 06e2 173a 2450 313e 6f35 19bd 513f f83c
000000b0: 213d 223e dc09 db3c 3929 c13d 247e 6b3d
000000c0: 5f71 f5bd fdd0 353d 38b4 90bd 63ba 2a3e
000000d0: d441 1e3d d374 ca3c 7007 3a3d 8746 b53c
000000e0: dbcc 1b3d 3d0e 0b3d 2661 1b3e 24c6 f239
000000f0: 134a be3d 38f9 8bbd f649 edbd 6507 313c
00000100: d35f f6bc 60f2 fabd e327 c63d bf0f adbd
00000110: daa6 0d3e 9cf0 093c c58b ffbd dddf 203c
00000120: 6c2b d43a 2761 b13b f478 603e c612 b73d
00000130: 7069 a0bd ca60 40bd 73d7 80bd 5ac5 b9bd
00000140: ddfa b7bd ab48 e83d 0146 bbbd d447 32be
00000150: 5cdb a53d 0aa8 ffbd e759 d53c 9ee3 24be
00000160: 1bae 62be c3e5 0a3d ca02 973c b3b0 18be
00000170: 40c8 aebd 42e2 2a3d c409 bdbc 18ca eebc
00000180: c3ad cd3d 0342 163e 15b1 5a3e 7c54 bdbb
00000190: a31e 453e 9b4c f3bd addd 733e 18fc db3d
000001a0: 268c 413e 248b 3c3e 23fa 5e3c a198 e6bb
000001b0: 3e8b 99bd b5c8 0c3e cc1f 2f3e bfff 653e
000001c0: 762b 3bbd c4d2 663e d1f6 38bd 0e40 333d
000001d0: 8769 143e 918a bdbd 2463 593d 16e8 353d
000001e0: 3fbc 723d 86c0 c7bd fa6b 483d 9980 fc3d
000001f0: 5ed0 d63d 8179 a73d 35d0 ec3d 1215 6d3e

model.lstm.bias_hh_l1 f4 [128]
-0.088622056 0.14131251 -0.061486278 0.21281189 0.034000855 -0.09141645 0.11887964 0.22507286
0.024839696 0.11033582 0.09034669 0.1378485 -0.02157925 -0.014200973 -0.031463318 0.07029022
0.13711032 0.09371424 -0.02971164 -0.12641585 -0.084081575 -0.053751215 0.15889192 -0.07966186
-0.08402518 0.083426535 0.19285525 0.23103984 0.06430814 -0.08619004 0.08413981 0.13652012
0.15837573 -0.039249327 0.16551307 0.047151003 0.10908532 -0.124389276 0.12527433 -0.08496951
0.08492549 0.16754852 -0.08269827 0.0186226 0.14119278 -0.14337431 0.03899927 -0.007213608
0.075423025 -0.015464171 -0.07189224 -0.026288318 -0.104343414 -0.0021391057 0.14756599 0.17353454
-0.1192591 0.05395545 -0.015368224 -0.059188955 0.1070486 -0.14906947 -0.11942165 -0.12187981
0.018600222 0.010097086 0.22086306 -0.07748691 -0.09811886 0.10229503 0.12193717 -0.20347352
0.20147261 -0.07666936 -0.08401808 0.11329399 -0.12240296 -0.073293015 -0.024674626 -0.15182462
-0.026815714 0.20065685 -0.04601652 -0.16488215 0.03937019 0.08791268 0.0033835275 -0.067264535
-0.19734037 -0.14009354 0.0017116899 0.020700771 -0.06637542 0.18768686 -0.18419535 0.042345226
0.020761142 -0.041926004 0.02595978 0.09693727 0.18076015 0.055015005 -0.078140676 -0.028485032
-0.06682093 0.1475281 0.04302742 0.11486148 -0.0652313 -0.16916835 0.14401434 0.09851236
0.05517792 -0.07372394 -0.14143711 0.16885917 0.18120956 -0.084268905 -0.011624274 -0.08721762
0.14569211 -0.07248844 -0.009071306 0.021735786 0.04840741 0.20067714 0.03093531 0.0717839
00000000: 7b7f b5bd 3ab4 103e 09d9 7bbd 5ceb 593e
00000010: 7b44 0b3d 8c38 bbbd 2b77 f33d 8079 663e
00000020: 9e7c cb3c bff7 e13d af07 b93d 2828 0d3e
00000030: f8c6 b0bc 33ab 68bc aedf 00bd 52f4 8f3d
00000040: a666 0c3e 40ed bf3d d365 f3bc 2873 01be
00000050: f632 acbd 3c2a 5cbd 90b4 223e c225 a3bd
00000060: 6515 acbd 88db aa3d d97b 453e b595 6c3e
00000070: fcb3 833d 6784 b0bd 7e51 ac3d eecb 0b3e
00000080: 3f2d 223e e7c3 20bd 427c 293e 6921 413d
00000090: 2068 df3d cebf febd ea47 003e 7f04 aebd
000000a0: 6aed ad3d d791 2b3e b65d a9bd 6c8e 983c
000000b0: d794 103e b7d0 12be b3bd 1f3d 2160 ecbb
000000c0: 6377 9a3d 6f5d 7dbc 3d3c 93bd 995a d7bc
000000d0: 00b2 d5bd 3d30 0cbb 8a1b 173e 0ab3 313e
000000e0: 1d3e f4bd 6400 5d3d 01cb 7bbc 1e70 72bd
000000f0: 4c3c db3d aba5 18be 5793 f4bd 1f9c f9bd
00000100: 7e5f 983c 406e 253c ed29 623e 75b1 9ebd
00000110: 8af2 c8bd 0f80 d13d 32ba f93d 5d5b 50be
00000120: d64e 4e3e d304 9dbd ac11 acbd ae06 e83d
00000130: 67ae fabd a61a 96bd 7122 cabc ea77 1bbe
00000140: a1ac dbbc fd78 4d3e d27b 3cbd ded6 28be
00000150: a342 213d 900b b43d 2cbe 5d3b fdc1 89bd
00000160: 9813 4abe ae74 0fbe c85a e03a aa94 a93c
00000170: d6ef 87bd fc30 403e b59d 3cbe 3072 2d3d
00000180: 4513 aa3c 9aba 2bbd 9ba9 d43c 0c87 c63d
00000190: 3019 393e 6a57 613d 3808 a0bd 7159 e9bc
000001a0: 69d9 88bd 9b11 173e 853d 303d 7f3c eb3d
000001b0: fd97 85bd 783a 2dbe 7f78 133e d9c0 c93d
000001c0: 3e02 623d 94fc 96bd e4d4 10be 6be9 2c3e
000001d0: 008f 393e 2d95 acbd bd73 3ebc 279f b2bd
000001e0: 5030 153e d274 94bd d19f 14bc 3f0f b23c
000001f0: d946 463d 4f7e 4d3e 0c6c fd3c 7003 933d

model.linear.weight f4 [1, 32]
-0.15728159 -0.18370226 0.14221947 0.1407525 0.11185273 0.07997643 0.2031841 -0.10205777
0.20111528 -0.14471345 0.061628703 0.1840591 -0.15811022 0.021749372 -0.15613282 -0.122692734
0.15041952 0.20964256 0.03982356 -0.0352477 -0.13977715 -0.09489416 -0.074159384 -0.11925725
-0.1581084 -0.14941302 0.2211266 -0.16584392 0.020015769 0.24343075 -0.13453828 -0.22604394
00000000: 6d0e 21be 721c 3cbe fba1 113e 6c21 103e
00000010: 0b13 e53d afca a33d 7e0f 503e aa03 d1bd
00000020: 2af1 4d3e c32f 14be 616e 7c3d fd79 3c3e
00000030: a5e7 21be bd2b b23c 48e1 1fbe 5446 fbbd
00000040: 9307 1a3e 8aac 563e 071e 233d e45f 10bd
00000050: be21 0fbe df57 c2bd e0e0 97bd 253d f4bd
00000060: 2be7 21be baff 18be 036f 623e fdd2 29be
00000070: 1cf8 a33c e945 793e 67c4 09be 1078 67be

exp_avg f4 [128, 1]
-1.9672216e-05 -0.06111547 -0.0019131129 -6.5928074e-13 -0.0006670281 0.0 -6.626892e-05 -4.0860818e-05
-0.7372746 -182.09328 -5.521531e-16 -1.0488262e-08 -0.0013879853 1.3060486e-10 -3.7397467e-07 -258.6587
-4.6959414e-10 -1.172878e-10 6.8251557e-06 -0.0013873058 -0.0006888664 -0.053512502 0.0 -0.00024980018
-0.005797133 -2.5193356e-09 -6.7161923e-06 -2.5612895e-05 -0.00059748924 -7.3107417e-06 -0.032808863 -9.706447e-07
0.0 0.0 0.0 0.0 0.0 0.0 0.0 0.0
0.0 0.0 0.0 0.0 0.0 0.0 0.0 0.0
0.0 0.0 0.0 0.0 0.0 0.0 0.0 0.0
0.0 0.0 0.0 0.0 0.0 0.0 0.0 0.0
0.0 0.15103675 0.0 0.0 3.1307923e-08 0.0 0.0 0.0
0.0 0.0 0.0 0.0 -8.100531e-11 3.4093323e-13 0.0 0.0
-0.0024951946 0.0 0.0 9.595287e-09 0.0 0.0024847018 0.6442349 -0.046758603
0.0 1.657597e-08 -8.33766e-12 0.0077342745 -2.3207637e-10 4.8091284e-11 9.905655e-12 0.0
-593.51575 -114.20902 -1.5183838e-08 -4.059376e-08 -0.0002966754 -1.2156185e-06 -0.011338233 -3.0125186
-1.826981e-06 -2.7530363e-05 -6.362867e-09 -2.9742139e-06 -6.7329524e-06 1.3073585e-10 -6.4053594e-08 -0.45952916
-0.008839558 -1.6027725e-05 4.718686e-06 -0.0014329902 -2.7309356e-05 -4.278384e-08 -67.08711 -0.069754474
-0.0039374614 -2.519224e-09 -1.1207424e-06 -1.603462e-05 -0.0007874429 -1.8051587e-08 -38.48354 -9.879051e-07
00000000: c305 a5b7 3754 7abd 6bc1 faba 2f92 39ab
00000010: 80db 2eba 0000 0000 dbf9 8ab8 f861 2bb8
00000020: 07be 3cbf e117 36c3 b525 1fa6 dd2f 34b2
00000030: 0fed b5ba 009a 0f2f b0c6 c8b4 5054 81c3
00000040: c014 01b0 95f5 00af a403 e536 42d6 b5ba
00000050: 0b95 34ba ed2f 5bbd 0000 0000 9df7 82b9
00000060: e0f5 bdbb 9f20 2db1 a75b e1b6 46db d6b7
00000070: d3a0 1cba cb4e f5b6 9662 06bd 1947 82b5
00000080: 0000 0000 0000 0000 0000 0000 0000 0000
00000090: 0000 0000 0000 0000 0000 0000 0000 0000
000000a0: 0000 0000 0000 0000 0000 0000 0000 0000
000000b0: 0000 0000 0000 0000 0000 0000 0000 0000
000000c0: 0000 0000 0000 0000 0000 0000 0000 0000
000000d0: 0000 0000 0000 0000 0000 0000 0000 0000
000000e0: 0000 0000 0000 0000 0000 0000 0000 0000
000000f0: 0000 0000 0000 0000 0000 0000 0000 0000
00000100: 0000 0000 61a9 1a3e 0000 0000 0000 0000
00000110: 6d77 0633 0000 0000 0000 0000 0000 0000
00000120: 0000 0000 0000 0000 0000 0000 0000 0000
00000130: ef21 b2ae a8ed bf2a 0000 0000 0000 0000
00000140: 6b86 23bb 0000 0000 0000 0000 85d8 2432
00000150: 0000 0000 61d6 223b 94ec 243f f385 3fbd
00000160: 0000 0000 f262 8e32 7cad 12ad cc6f fd3b
00000170: b12b 7faf f981 532e 1b43 2e2d 0000 0000
00000180: 0261 14c4 056b e4c2 9d6d 82b2 5059 2eb3
00000190: 198b 9bb9 5528 a3b5 ffc3 39bc 1bcd 40c0
000001a0: 9736 f5b5 01f1 e6b7 5fa0 dab1 9b98 47b6
000001b0: 9feb e1b6 dfbe 0f2f d68d 89b3 6847 ebbe
000001c0: cbd3 10bc 4773 86b7 3455 9e36 2cd3 bbba
000001d0: 6516 e5b7 54c1 37b3 9a2c 86c2 6fdb 8ebd
000001e0: d205 81bb a81e 2db1 6a6c 96b5 1682 86b7
000001f0: 666c 4eba dc0f 9bb2 25ef 19c2 2998 84b5

exp_avg_sq f4 [128, 1]
9.712912e-10 0.03175482 2.6225574e-05 8.332248e-13 0.0007161297 0.0 2.2625464e-08 2.989671e-08
9.535148 718.15936 1.3123255e-28 7.68138e-16 3.611694e-06 4.1899242e-19 3.0953805e-12 156489.05
4.3150894e-18 8.0204406e-16 1.9864853e-08 2.5318363e-06 1.0350951e-06 0.0781849 0.0 9.212521e-07
3.7479746e-05 3.5794295e-15 1.5267657e-10 1.8360728e-08 7.1399637e-07 2.6986724e-10 0.020680532 4.0492184e-12
0.0 0.0 0.0 0.0 0.0 0.0 0.0 0.0
0.0 0.0 0.0 0.0 0.0 0.0 0.0 0.0
0.0 0.0 0.0 0.0 0.0 0.0 0.0 0.0
0.0 0.0 0.0 0.0 0.0 0.0 0.0 0.0
0.0 0.54903793 0.0 0.0 1.01829454e-13 0.0 0.0 0.0
0.0 0.0 0.0 0.0 1.3178154e-19 3.8770115e-24 0.0 0.0
0.00015823808 0.0 0.0 3.1904528e-16 0.0 0.00066832284 14.081808 0.077217
0.0 3.9353244e-15 6.210319e-22 0.0038988728 2.9769336e-19 2.2567665e-20 1.4755161e-12 0.0
7091.37 34906.527 7.537449e-15 6.932098e-12 2.6182095e-05 2.7104442e-11 0.00019557256 77.969
1.6893563e-10 2.5062574e-09 1.2908421e-15 3.2785556e-11 2.7268957e-10 4.1992175e-19 7.816048e-14 1.1279022
0.00057462836 2.1327487e-06 4.0839825e-09 2.715485e-06 3.1336405e-09 1.5929525e-11 18315.5 0.057669584
1.7830025e-05 3.578689e-15 7.2123718e-12 7.0817627e-09 1.2313074e-06 3.2242243e-15 11733.601 4.202962e-12
00000000: 457e 8530 5811 023d fefe db37 2d88 6a2b
00000010: a7ba 3b3a 0000 0000 ec59 c232 c867 0033
00000020: f78f 1841 338a 3344 665b 2611 9566 5d26
00000030: 6e60 7236 5854 f720 6bd1 592c 43d2 1848
00000040: de32 9f22 682c 6726 46a3 aa32 9ee8 2936
00000050: 99ed 8a35 681f a03d 0000 0000 f64b 7735
00000060: 9233 1d38 69f6 8027 a2de 272f abb7 9d32
00000070: 75a9 3f35 705c 942f 386a a93c 1e78 8e2c
00000080: 0000 0000 0000 0000 0000 0000 0000 0000
00000090: 0000 0000 0000 0000 0000 0000 0000 0000
000000a0: 0000 0000 0000 0000 0000 0000 0000 0000
000000b0: 0000 0000 0000 0000 0000 0000 0000 0000
000000c0: 0000 0000 0000 0000 0000 0000 0000 0000
000000d0: 0000 0000 0000 0000 0000 0000 0000 0000
000000e0: 0000 0000 0000 0000 0000 0000 0000 0000
000000f0: 0000 0000 0000 0000 0000 0000 0000 0000
00000100: 0000 0000 c08d 0c3f 0000 0000 0000 0000
00000110: af4c e529 0000 0000 0000 0000 0000 0000
00000120: 0000 0000 0000 0000 0000 0000 0000 0000
00000130: 8794 1b20 10fc 9518 0000 0000 0000 0000
00000140: b6ec 2539 0000 0000 0000 0000 c6ea b725
00000150: 0000 0000 6332 2f3a 164f 6141 f223 9e3d
00000160: 0000 0000 f6c8 8d27 04b2 3b1c 3b84 7f3b
00000170: 26ba af20 4425 d51e 12a9 cf2b 0000 0000
00000180: f69a dd45 875a 0847 59c8 0728 cae6 f32c
00000190: 9fa1 db37 c769 ee2d 9c12 4d39 21f0 9b42
000001a0: 27bf 392f 8c3a 2c31 ab07 ba26 4131 102e
000001b0: a5e9 952f c8e0 f720 7300 b029 195f 903f
000001c0: a8a2 163a 5820 0f36 1753 8c31 ad3b 3636
000001d0: 9657 5731 1a1e 8c2d 0017 8f46 f136 6c3d
000001e0: b091 9537 94ef 8027 45c3 fd2c d853 f331
000001f0: 6643 a535 7154 6827 6756 3746 ebe0 932c

exp_avg f4 [128, 32]
0.0 0.0 0.0 0.0 0.0 0.0 0.0 0.0
0.0 0.0 0.0 0.0 0.0 0.0 0.0 0.0
0.0 0.0 0.0 0.0 0.0 0.0 0.0 0.0
0.0 0.0 0.0 0.0 0.0 0.0 0.0 0.0
0.0 0.0 0.0 0.0 0.0 0.0 0.0 0.0
0.0 0.0 0.0 0.0 0.0 0.0 0.0 0.0
0.0 0.0 0.0 0.0 0.0 0.0 0.0 0.0
0.0 0.0 0.0 0.0 0.0 0.0 0.0 0.0
0.0 0.0 0.0 0.0 0.0 0.0 0.0 0.0
0.0 0.0 0.0 0.0 0.0 0.0 0.0 0.0
0.0 0.0 0.0 0.0 0.0 0.0 0.0 0.0
0.0 0.0 0.0 0.0 0.0 0.0 0.0 0.0
0.0 0.0 0.0 0.0 0.0 0.0 0.0 0.0
0.0 0.0 0.0 0.0 0.0 0.0 0.0 0.0
0.0 0.0 0.0 0.0 0.0 0.0 0.0 0.0
0.0 0.0 0.0 0.0 0.0 0.0 0.0 0.0
0.0 0.0 0.0 0.0 0.0 0.0 0.0 0.0
0.0 0.0 0.0 0.0 0.0 0.0 0.0 0.0
0.0 0.0 0.0 0.0 0.0 0.0 0.0 0.0
0.0 0.0 0.0 0.0 0.0 0.0 0.0 0.0
0.0 0.0 0.0 0.0 0.0 0.0 0.0 0.0
0.0 0.0 0.0 0.0 0.0 0.0 0.0 0.0
0.0 0.0 0.0 0.0 0.0 0.0 0.0 0.0
0.0 0.0 0.0 0.0 0.0 0.0 0.0 0.0
0.0 0.0 0.0 0.0 0.0 0.0 0.0 0.0
0.0 0.0 0.0 0.0 0.0 0.0 0.0 0.0
0.0 0.0 0.0 0.0 0.0 0.0 0.0 0.0
0.0 0.0 0.0 0.0 0.0 0.0 0.0 0.0
0.0 0.0 0.0 0.0 0.0 0.0 0.0 0.0
0.0 0.0 0.0 0.0 0.0 0.0 0.0 0.0
0.0 0.0 0.0 0.0 0.0 0.0 0.0 0.0
0.0 0.0 0.0 0.0 0.0 0.0 0.0 0.0
00000000: 0000 0000 0000 0000 0000 0000 0000 0000
00000010: 0000 0000 0000 0000 0000 0000 0000 0000
00000020: 0000 0000 0000 0000 0000 0000 0000 0000
00000030: 0000 0000 0000 0000 0000 0000 0000 0000
00000040: 0000 0000 0000 0000 0000 0000 0000 0000
00000050: 0000 0000 0000 0000 0000 0000 0000 0000
00000060: 0000 0000 0000 0000 0000 0000 0000 0000
00000070: 0000 0000 0000 0000 0000 0000 0000 0000
00000080: 0000 0000 0000 0000 0000 0000 0000 0000
00000090: 0000 0000 0000 0000 0000 0000 0000 0000
000000a0: 0000 0000 0000 0000 0000 0000 0000 0000
000000b0: 0000 0000 0000 0000 0000 0000 0000 0000
000000c0: 0000 0000 0000 0000 0000 0000 0000 0000
000000d0: 0000 0000 0000 0000 0000 0000 0000 0000
000000e0: 0000 0000 0000 0000 0000 0000 0000 0000
000000f0: 0000 0000 0000 0000 0000 0000 0000 0000
00000100: 0000 0000 0000 0000 0000 0000 0000 0000
00000110: 0000 0000 0000 0000 0000 0000 0000 0000
00000120: 0000 0000 0000 0000 0000 0000 0000 0000
00000130: 0000 0000 0000 0000 0000 0000 0000 0000
00000140: 0000 0000 0000 0000 0000 0000 0000 0000
00000150: 0000 0000 0000 0000 0000 0000 0000 0000
00000160: 0000 0000 0000 0000 0000 0000 0000 0000
00000170: 0000 0000 0000 0000 0000 0000 0000 0000
00000180: 0000 0000 0000 0000 0000 0000 0000 0000
00000190: 0000 0000 0000 0000 0000 0000 0000 0000
000001a0: 0000 0000 0000 0000 0000 0000 0000 0000
000001b0: 0000 0000 0000 0000 0000 0000 0000 0000
000001c0: 0000 0000 0000 0000 0000 0000 0000 0000
000001d0: 0000 0000 0000 0000 0000 0000 0000 0000
000001e0: 0000 0000 0000 0000 0000 0000 0000 0000
000001f0: 0000 0000 0000 0000 0000 0000 0000 0000
00000200: 0000 0000 0000 0000 0000 0000 0000 0000
00000210: 0000 0000 0000 0000 0000 0000 0000 0000
00000220: 0000 0000 0000 0000 0000 0000 0000 0000
00000230: 0000 0000 0000 0000 0000 0000 0000 0000
00000240: 0000 0000 0000 0000 0000 0000 0000 0000
00000250: 0000 0000 0000 0000 0000 0000 0000 0000
00000260: 0000 0000 0000 0000 0000 0000 0000 0000
00000270: 0000 0000 0000 0000 0000 0000 0000 0000
00000280: 0000 0000 0000 0000 0000 0000 0000 0000
00000290: 0000 0000 0000 0000 0000 0000 0000 0000
000002a0: 0000 0000 0000 0000 0000 0000 0000 0000
000002b0: 0000 0000 0000 0000 0000 0000 0000 0000
000002c0: 0000 0000 0000 0000 0000 0000 0000 0000
000002d0: 0000 0000 0000 0000 0000 0000 0000 0000
000002e0: 0000 0000 0000 0000 0000 0000 0000 0000
000002f0: 0000 0000 0000 0000 0000 0000 0000 0000
00000300: 0000 0000 0000 0000 0000 0000 0000 0000
00000310: 0000 0000 0000 0000 0000 0000 0000 0000
00000320: 0000 0000 0000 0000 0000 0000 0000 0000
00000330: 0000 0000 0000 0000 0000 0000 0000 0000
00000340: 0000 0000 0000 0000 0000 0000 0000 0000
00000350: 0000 0000 0000 0000 0000 0000 0000 0000
00000360: 0000 0000 0000 0000 0000 0000 0000 0000
00000370: 0000 0000 0000 0000 0000 0000 0000 0000
00000380: 0000 0000 0000 0000 0000 0000 0000 0000
00000390: 0000 0000 0000 0000 0000 0000 0000 0000
000003a0: 0000 0000 0000 0000 0000 0000 0000 0000
000003b0: 0000 0000 0000 0000 0000 0000 0000 0000
000003c0: 0000 0000 0000 0000 0000 0000 0000 0000
000003d0: 0000 0000 0000 0000 0000 0000 0000 0000
000003e0: 0000 0000 0000 0000 0000 0000 0000 0000
000003f0: 0000 0000 0000 0000 0000 0000 0000 0000

exp_avg_sq f4 [128, 32]
0.0 0.0 0.0 0.0 0.0 0.0 0.0 0.0
0.0 0.0 0.0 0.0 0.0 0.0 0.0 0.0
0.0 0.0 0.0 0.0 0.0 0.0 0.0 0.0
0.0 0.0 0.0 0.0 0.0 0.0 0.0 0.0
0.0 0.0 0.0 0.0 0.0 0.0 0.0 0.0
0.0 0.0 0.0 0.0 0.0 0.0 0.0 0.0
0.0 0.0 0.0 0.0 0.0 0.0 0.0 0.0
0.0 0.0 0.0 0.0 0.0 0.0 0.0 0.0
0.0 0.0 0.0 0.0 0.0 0.0 0.0 0.0
0.0 0.0 0.0 0.0 0.0 0.0 0.0 0.0
0.0 0.0 0.0 0.0 0.0 0.0 0.0 0.0
0.0 0.0 0.0 0.0 0.0 0.0 0.0 0.0
0.0 0.0 0.0 0.0 0.0 0.0 0.0 0.0
0.0 0.0 0.0 0.0 0.0 0.0 0.0 0.0
0.0 0.0 0.0 0.0 0.0 0.0 0.0 0.0
0.0 0.0 0.0 0.0 0.0 0.0 0.0 0.0
0.0 0.0 0.0 0.0 0.0 0.0 0.0 0.0
0.0 0.0 0.0 0.0 0.0 0.0 0.0 0.0
0.0 0.0 0.0 0.0 0.0 0.0 0.0 0.0
0.0 0.0 0.0 0.0 0.0 0.0 0.0 0.0
0.0 0.0 0.0 0.0 0.0 0.0 0.0 0.0
0.0 0.0 0.0 0.0 0.0 0.0 0.0 0.0
0.0 0.0 0.0 0.0 0.0 0.0 0.0 0.0
0.0 0.0 0.0 0.0 0.0 0.0 0.0 0.0
0.0 0.0 0.0 0.0 0.0 0.0 0.0 0.0
0.0 0.0 0.0 0.0 0.0 0.0 0.0 0.0
0.0 0.0 0.0 0.0 0.0 0.0 0.0 0.0
0.0 0.0 0.0 0.0 0.0 0.0 0.0 0.0
0.0 0.0 0.0 0.0 0.0 0.0 0.0 0.0
0.0 0.0 0.0 0.0 0.0 0.0 0.0 0.0
0.0 0.0 0.0 0.0 0.0 0.0 0.0 0.0
0.0 0.0 0.0 0.0 0.0 0.0 0.0 0.0
00000000: 0000 0000 0000 0000 0000 0000 0000 0000
00000010: 0000 0000 0000 0000 0000 0000 0000 0000
00000020: 0000 0000 0000 0000 0000 0000 0000 0000
00000030: 0000 0000 0000 0000 0000 0000 0000 0000
00000040: 0000 0000 0000 0000 0000 0000 0000 0000
00000050: 0000 0000 0000 0000 0000 0000 0000 0000
00000060: 0000 0000 0000 0000 0000 0000 0000 0000
00000070: 0000 0000 0000 0000 0000 0000 0000 0000
00000080: 0000 0000 0000 0000 0000 0000 0000 0000
00000090: 0000 0000 0000 0000 0000 0000 0000 0000
000000a0: 0000 0000 0000 0000 0000 0000 0000 0000
000000b0: 0000 0000 0000 0000 0000 0000 0000 0000
000000c0: 0000 0000 0000 0000 0000 0000 0000 0000
000000d0: 0000 0000 0000 0000 0000 0000 0000 0000
000000e0: 0000 0000 0000 0000 0000 0000 0000 0000
000000f0: 0000 0000 0000 0000 0000 0000 0000 0000
00000100: 0000 0000 0000 0000 0000 0000 0000 0000
00000110: 0000 0000 0000 0000 0000 0000 0000 0000
00000120: 0000 0000 0000 0000 0000 0000 0000 0000
00000130: 0000 0000 0000 0000 0000 0000 0000 0000
00000140: 0000 0000 0000 0000 0000 0000 0000 0000
00000150: 0000 0000 0000 0000 0000 0000 0000 0000
00000160: 0000 0000 0000 0000 0000 0000 0000 0000
00000170: 0000 0000 0000 0000 0000 0000 0000 0000
00000180: 0000 0000 0000 0000 0000 0000 0000 0000
00000190: 0000 0000 0000 0000 0000 0000 0000 0000
000001a0: 0000 0000 0000 0000 0000 0000 0000 0000
000001b0: 0000 0000 0000 0000 0000 0000 0000 0000
000001c0: 0000 0000 0000 0000 0000 0000 0000 0000
000001d0: 0000 0000 0000 0000 0000 0000 0000 0000
000001e0: 0000 0000 0000 0000 0000 0000 0000 0000
000001f0: 0000 0000 0000 0000 0000 0000 0000 0000
00000200: 0000 0000 0000 0000 0000 0000 0000 0000
00000210: 0000 0000 0000 0000 0000 0000 0000 0000
00000220: 0000 0000 0000 0000 0000 0000 0000 0000
00000230: 0000 0000 0000 0000 0000 0000 0000 0000
00000240: 0000 0000 0000 0000 0000 0000 0000 0000
00000250: 0000 0000 0000 0000 0000 0000 0000 0000
00000260: 0000 0000 0000 0000 0000 0000 0000 0000
00000270: 0000 0000 0000 0000 0000 0000 0000 0000
00000280: 0000 0000 0000 0000 0000 0000 0000 0000
00000290: 0000 0000 0000 0000 0000 0000 0000 0000
000002a0: 0000 0000 0000 0000 0000 0000 0000 0000
000002b0: 0000 0000 0000 0000 0000 0000 0000 0000
000002c0: 0000 0000 0000 0000 0000 0000 0000 0000
000002d0: 0000 0000 0000 0000 0000 0000 0000 0000
000002e0: 0000 0000 0000 0000 0000 0000 0000 0000
000002f0: 0000 0000 0000 0000 0000 0000 0000 0000
00000300: 0000 0000 0000 0000 0000 0000 0000 0000
00000310: 0000 0000 0000 0000 0000 0000 0000 0000
00000320: 0000 0000 0000 0000 0000 0000 0000 0000
00000330: 0000 0000 0000 0000 0000 0000 0000 0000
00000340: 0000 0000 0000 0000 0000 0000 0000 0000
00000350: 0000 0000 0000 0000 0000 0000 0000 0000
00000360: 0000 0000 0000 0000 0000 0000 0000 0000
00000370: 0000 0000 0000 0000 0000 0000 0000 0000
00000380: 0000 0000 0000 0000 0000 0000 0000 0000
00000390: 0000 0000 0000 0000 0000 0000 0000 0000
000003a0: 0000 0000 0000 0000 0000 0000 0000 0000
000003b0: 0000 0000 0000 0000 0000 0000 0000 0000
000003c0: 0000 0000 0000 0000 0000 0000 0000 0000
000003d0: 0000 0000 0000 0000 0000 0000 0000 0000
000003e0: 0000 0000 0000 0000 0000 0000 0000 0000
000003f0: 0000 0000 0000 0000 0000 0000 0000 0000
