dl_computer_vision/assignments/1/checkpoints/best_checkpoint-v1.ckpt (torch, 168892 bytes, 27 tensors)

model.lstm.weight_ih_l0 f4 [128, 1]
-0.10247305 0.16113277 -0.07049456 0.098475434 0.1293266 0.14921598 0.021909004 0.16012387
-0.076387376 0.12627555 -0.078844994 -0.17239486 -0.06265403 -0.10115682 0.12674902 -0.04678734
-0.03364925 0.017559672 0.018615087 0.07166734 -0.13376161 0.16060202 0.056355897 0.14754891
-0.14549464 0.14678344 -0.109965146 -0.107233405 0.016457353 0.11358046 0.01124797 0.17479442
-0.12649035 0.0508346 -0.09390415 -0.17297648 0.1647847 0.13057528 -0.012079672 0.024650333
0.047375735 -0.017076548 -0.062205184 0.16319923 -0.011400865 0.010802696 -0.020627186 0.039299622
-0.008127142 0.04602632 -0.10289681 -0.14368694 0.040485952 -0.16658156 -0.00053486635 0.06966629
0.026657429 -0.12608305 0.15815882 0.03842354 -0.025162796 -0.0610943 -0.15135756 -0.06633176
0.035191752 -0.08460027 0.071610235 -0.15541244 -0.1649195 0.07311112 -0.10111895 -0.13680126
-0.077187665 -0.055430878 0.06698575 0.020834254 -0.09292124 -0.118027315 0.11267711 0.079676844
-0.017203385 0.058133032 0.12211359 -0.059505533 -0.09355318 0.11165136 -0.040439405 -0.17148563
0.15329058 -0.16546436 0.042934787 -0.011826444 -0.08695148 -0.15871224 -0.087441824 0.082848005
-0.09590047 0.15880467 0.13006118 0.03878813 0.020985985 0.12404043 0.029523397 0.13737684
-0.04943532 0.019365527 0.09522342 -0.17281578 0.08204453 -0.09543372 0.1668774 0.068737306
0.109264776 0.1275359 0.15934962 0.16948482 -0.14612474 0.04468196 0.05948252 0.05696476
-0.055408176 0.0214639 -0.14247346 -0.15177669 0.16137503 0.13879886 0.02290313 0.02436984
00000000: 64dd d1bd fdff 243e 745f 90bd 7dad c93d
00000010: 316e 043e 13cc 183e 837a b33c 83f7 233e
00000020: fc70 9cbd 614e 013e 7c79 a1bd 4788 30be
00000030: c250 80bd 4f2b cfbd 7fca 013e 15a4 3fbd
00000040: ccd3 09bd 4dd9 8f3c ab7e 983c 54c6 923d
00000050: cef8 08be db74 243e 71d5 663d 1017 173e
00000060: 8cfc 14be 664e 163e 6835 e1bd 309d dbbd
00000070: 92d1 863c df9c e83d 6849 383c 4ffd 323e
00000080: b086 01be f137 503d d250 c0bd bf20 31be
00000090: 52bd 283e 87b5 053e d1e9 45bc 7fef c93c
000000a0: 0f0d 423d 1ee4 8bbc ddca 7ebd b31d 273e
000000b0: b2ca 3abc cbfd 303c 58fa a8bc a4f8 203d
000000c0: b427 05bc 1886 3c3d 90bb d2bd ab22 13be
000000d0: 99d4 253d 5b94 2abe 4636 0cba 33ad 8e3d
000000e0: ae60 da3c ea1b 01be 63f4 213e 0062 1d3d
000000f0: 3522 cebc 043e 7abd 7afd 1abe f2d8 87bd
00000100: 3a25 103d e842 adbd 63a8 923d 7024 1fbe
00000110: a8e0 28be 48bb 953d 7417 cfbd a115 0cbe
00000120: 9114 9ebd 7d0b 63bd d32f 893d 99ac aa3c
00000130: 7e4d bebd 4eb8 f1bd 42c3 e63d 9d2d a33d
00000140: 1dee 8cbc e71c 6e3d b116 fa3d 13bc 73bd
00000150: cf98 bfbd 78a9 e43d caa3 25bd ee99 2fbe
00000160: 35f8 1c3e 7d6f 29be 63dc 2f3d b4c3 41bc
00000170: 9e13 b2bd 7685 22be b314 b3bd 37ac a93d
00000180: 7767 c4bd b19d 223e c22e 053e 4de0 1e3d
00000190: cdea ab3c e908 fe3d 0ddb f13c 84ac 0c3e
000001a0: b17c 4abd 74a4 9e3c 7f04 c33d 9ff6 30be
000001b0: f606 a83d c172 c3bd e9e1 2a3e 25c6 8c3d
000001c0: 36c6 df3d c598 023e 8c2c 233e 6e8d 2d3e
000001d0: b9a1 15be 6e04 373d f1a3 733d e153 693d
000001e0: aff3 62bd 10d5 af3c 90e4 11be 596b 1bbe
000001f0: 7f3f 253e 4a21 0e3e 589f bb3c 42a3 c73c

model.lstm.weight_hh_l0 f4 [128, 32]
-0.06562321 0.0041050753 -0.09330853 -0.027580066 -0.088764876 -0.15254144 0.08059979 0.16533372
-0.15708965 0.15465012 -0.00340769 -0.1490187 -0.058680676 0.16857286 0.06678821 0.05105035
-0.13919336 -0.031214302 0.06614098 0.13987975 0.16681293 0.07758368 0.10009276 -0.15251313
-0.08492941 0.015519296 0.06513285 0.046814047 0.082531966 -0.03307125 0.16388749 0.09216667
0.07011568 0.16559315 -0.10944401 -0.15083212 -0.17279063 0.04383068 -0.011690003 0.05181679
-0.0707138 -0.092722416 0.08229165 -0.09177509 0.14319938 0.022961067 -0.05878701 -0.13928367
-0.10852921 -0.09484049 -0.117348686 -0.082050525 -0.041887566 -0.09116044 -0.022671498 -0.17131881
0.10453061 -0.09907465 -0.009647856 -0.049227037 -0.11125915 9.61645e-05 0.013344519 -0.10875838
0.09851464 0.055918142 0.10197112 0.089339904 -0.05875085 0.072375655 -0.12117022 -0.053324275
0.10775478 0.1345092 -0.037883427 0.16086788 -0.13820995 0.08953993 -0.09059152 0.008214997
-0.17362846 -0.11231048 -0.106761 -0.13876562 -0.06308156 -0.07176219 0.16225155 0.14700374
-0.11966902 0.00864009 -0.077276975 -0.15837279 -0.13403706 -0.13837412 -0.095387176 -0.042297233
0.16244772 0.081571 0.079770505 0.015169878 -0.12007573 -0.14555803 -0.16182248 -0.15761977
0.07782456 -0.105049886 -0.0949133 0.02189353 0.048404835 -0.038543954 -0.09455246 -0.17459221
-0.11865444 -0.046518657 -0.16968344 0.02244323 -0.11089301 0.07569453 -0.04861772 -0.08245766
-0.008337792 -0.022151764 -0.008821079 0.028452441 0.0152949905 -0.037539065 0.04970635 -0.14445688
-0.12735803 0.05160216 0.08556721 0.17581475 -0.1597597 0.08576463 -0.098148175 0.12605582
0.0069787833 -0.09169083 0.011533407 0.049578857 0.043926273 0.17318349 0.15988201 0.12693684
0.036028627 0.061319362 0.05379196 0.03651612 0.05485227 -0.065780625 -0.11823651 0.052395593
0.017402932 -0.0130869495 -0.14238155 -0.060810566 -0.06022894 0.11356767 0.03457701 -0.0015053571
-0.077723116 0.1374501 -0.12037974 -0.021386568 -0.08231055 -0.11590798 0.032089185 -0.1023779
-0.0890983 -0.040423088 -0.047797877 0.060921684 -0.105287 -0.04795911 -0.16687104 0.09469118
0.009757444 -0.10561347 -0.16457377 0.066020586 0.063264586 0.0006018449 -0.13031706 -0.1008563
0.158541 0.0532939 -0.05888104 -0.15896678 -0.051695134 0.06134174 0.061838716 -0.14698733
0.008915277 -0.09083814 0.11047036 0.0862608 0.06349861 0.117466256 -0.17541736 0.12734954
0.14254051 -0.05579859 -0.051723182 -0.11595339 0.062328547 -0.098792724 0.107139476 -0.13682918
0.114760615 0.025788466 0.06239771 0.15538725 -0.043756463 -0.07196218 -0.059467766 0.01506882
-0.06508095 0.08797616 0.00083411013 -0.000228233 0.055226617 0.17124228 -0.11733617 -0.1276024
0.039700292 0.014358308 -0.11741106 0.046247464 0.16343598 -0.14454222 -0.10616168 0.1086316
-0.1565633 -0.12436192 0.06523623 -0.048647348 -0.06272502 -0.056002267 0.13655336 0.072933555
-0.14898884 0.13987476 0.009048482 -0.13832615 -0.12987915 -0.04141493 -0.17261349 0.14641495
0.027817816 -0.047563333 -0.026446631 0.04202996 -0.052917056 0.07500638 0.08872448 0.07594478
00000000: 7665 86bd de83 863b 8b18 bfbd 97ef e1bc
00000010: 5cca b5bd d333 1cbe 8111 a53d 3e4d 293e
00000020: 1cdc 20be 9a5c 1e3e 8d53 5fbb 5c98 18be
00000030: 265b 70bd 5d9e 2c3e 42c8 883d 2c1a 513d
00000040: b488 0ebe 23b5 ffbc ec74 873d a33c 0f3e
00000050: 02d1 2a3e 31e4 9e3d 6ffd cc3d 672c 1cbe
00000060: 78ef adbd a544 7e3c 5f64 853d 16c0 3f3d
00000070: 8506 a93d b875 07bd 1fd2 273e e1c1 bc3d
00000080: cf98 8f3d 4091 293e 2e24 e0bd bc73 1abe
00000090: 07f0 30be cd87 333d 6d87 3fbc d83d 543d
000000a0: 66d2 90bd 40e5 bdbd 8688 a83d 94f4 bbbd
000000b0: dca2 123e d918 bc3c a6ca 70bd 61a0 0ebe
000000c0: 9044 debd bb3b c2bd 8254 f0bd 1b0a a8bd
000000d0: 4c92 2bbd 53b2 babd 94b9 b9bc 336e 2fbe
000000e0: 2514 d63d a6e7 cabd 0a12 1ebc 4aa2 49bd
000000f0: d6db e3bd ecab c938 f8a2 5a3c b7bc debd
00000100: 0bc2 c93d 6c0a 653d 3cd6 d03d d7f7 b63d
00000110: bba4 70bd b039 943d 1828 f8bd 8e6a 5abd
00000120: 8aae dc3d c8bc 093e a72b 1bbd 8dba 243e
00000130: e986 0dbe b660 b73d 0c88 b9bd 3298 063c
00000140: a9cb 31be 0903 e6bd 83a5 dabd 9318 0ebe
00000150: e830 81bd 0ef8 92bd 4525 263e 2688 163e
00000160: 0815 f5bd 2a8f 0d3c 6443 9ebd 7a2c 22be
00000170: 0341 09be f2b1 0dbe 5a5a c3bd dd3f 2dbd
00000180: b258 263e b20e a73d b85e a33d 148b 783c
00000190: 44ea f5bd 2a0d 15be cbb4 25be 1467 21be
000001a0: 7c62 9f3d 6524 d7bd e761 c2bd 0f5a b33c
000001b0: 2644 463d 44e0 1dbd b8a4 c1bd 4dc8 32be
000001c0: 1901 f3bd 598a 3ebd 7fc1 2dbe ddda b73c
000001d0: e01b e3bd bc05 9b3d 6023 47bd 90df a8bd
000001e0: 3c9b 08bc 9e77 b5bc 4986 10bc 1815 e93c
000001f0: d797 7a3c 90c2 19bd e398 4b3d 81ec 13be
00000200: 256a 02be c95c 533d dd3d af3d c808 343e
00000210: 0c98 23be 5ea5 af3d e901 c9bd c714 013e
00000220: 47ae e43b 67c8 bbbd 9df6 3c3c 3313 4b3d
00000230: 09ec 333d 0357 313e 1cb8 233e bbfb 013e
00000240: c192 133d 032a 7b3d f554 5c3d ed91 153d
00000250: c6ac 603d feb7 86bd fc25 f2bd c39c 563d
00000260: 9890 8e3c a56a 56bc 78cc 11be 8014 79bd
00000270: 9fb2 76bd 2b96 e83d 9fa0 0d3d 674f c5ba
00000280: 4c2d 9fbd b8bf 0c3e a789 f6bd e232 afbc
00000290: 6f92 a8bd 2a61 edbd f36f 033d 81ab d1bd
000002a0: 2b79 b6bd ae92 25bd b5c7 43bd 0489 793d
000002b0: b6a0 d7bd c670 44bd 3ee0 2abe 73ed c13d
000002c0: b0dd 1f3c e04b d8bd 0786 28be cd35 873d
000002d0: dd90 813d 21c5 1d3a d671 05be bf8d cebd
000002e0: 9258 223e b44a 5a3d 3f2d 71bd 30c8 22be
000002f0: 47be 53bd 7a41 7b3d 984a 7d3d d983 16be
00000300: 6211 123c 5909 babd 493e e23d 81a9 b03d
00000310: 8f0b 823d 2692 f03d 9ca0 33be eb67 023e
00000320: 24f6 113e 108d 64bd b0db 53bd f978 edbd
00000330: 384c 7f3d d753 cabd f16b db3d f31c 0cbe
00000340: 9d07 eb3d 5542 d33c be94 7f3d d61d 1f3e
00000350: fa39 33bd e860 93bd 7994 73bd 36e3 763c
00000360: 2949 85bd d82c b43d 2fa8 5a3a d451 6fb9
00000370: 4e35 623d 235a 2f3e f24d f0bd 34aa 02be
00000380: c69c 223d 1c3f 6b3c 3675 f0bd fb6d 3d3d
00000390: c35b 273e e002 14be 4b6b d9bd 3f7a de3d
000003a0: 2152 20be 76b1 febd 939a 853d 7142 47bd
000003b0: fa75 80bd a262 65bd a5d4 0b3e 305e 953d
000003c0: 8890 18be 543b 0f3e 1640 143c 5fa5 0dbe
000003d0: 0aff 04be b4a2 29bd 97c1 30be cded 153e
000003e0: 30e2 e33c c5d1 42bd 9ba6 d8bc 9b27 2c3d
000003f0: 8ebf 58bd f29c 993d 2eb5 b53d f088 9b3d

model.lstm.bias_ih_l0 f4 [128]
0.0061247777 0.07603181 -0.03401129 -0.024576178 0.06441525 0.13604628 0.06880397 0.011575174
0.0844258 -0.02864218 -0.044680037 -0.015341078 0.16118382 0.04653031 -0.028326936 -0.06236996
-0.064673394 0.124864146 -0.047213893 0.15714245 -0.025043752 0.13355912 -0.06021216 -0.13736628
0.14670958 0.046321046 -0.14392087 0.14902662 0.07684745 0.12587397 0.17116682 0.0343094
-0.015105614 0.051640343 0.0021687364 0.017098865 -0.1722503 0.06710128 -0.030095113 -0.13460419
0.071609594 -0.002638521 0.0719192 0.07036683 0.15809369 0.09069594 -0.1375428 0.07680485
-0.17562553 0.08552941 -0.14686783 0.1012788 0.030190703 -0.010150548 -0.06215037 -0.14491501
-0.013225929 0.15396181 -0.14267676 0.15824491 -0.029944902 0.074643746 -0.08164377 -0.14677168
0.013613069 -0.15799382 0.094561405 -0.076821916 -0.0325732 -0.017245771 0.081138425 0.02002337
-0.15349548 0.041978087 0.034205154 -0.10835295 -0.08935727 0.030560816 0.12217374 0.15825605
0.01933834 -0.14271311 0.02612092 0.095650844 -0.015753241 0.10862446 0.0032380542 0.057406325
-0.11426651 0.0009778737 0.10473477 -0.1567109 0.08082155 -0.13082547 0.008387431 -0.038133655
0.009895086 0.13616852 0.17612514 0.17527235 -0.093988664 -0.11277812 0.16395146 0.088279925
0.07732934 0.06175032 -0.0660048 -0.048204742 0.07272678 0.106698535 -0.010636912 0.10601684
0.043855686 -0.05080327 0.14381047 -0.15835129 0.046220977 -0.12805647 0.02062226 -0.08136654
-0.1752008 0.06173155 0.078619115 0.15840945 0.07150936 0.18425131 0.0038767387 0.04050346
00000000: 5cb2 c83b 91b6 9b3d 6c4f 0bbd fb53 c9bc
00000010: 25ec 833d b74f 0b3e 19e9 8c3d cca5 3d3c
00000020: 6fe7 ac3d 01a3 eabc 6a02 37bd 2559 7bbc
00000030: 5f0d 253e 9196 3e3d e40d e8bc a577 7fbd
00000040: 7c73 84bd c6b8 ff3d 5b63 41bd f3e9 203e
00000050: 8e28 cdbc b9c3 083e 07a1 76bd bfa9 0cbe
00000060: 093b 163e 23bb 3d3d fe5f 13be 6f9a 183e
00000070: 3262 9d3d 1be5 003e 5b46 2f3e 0388 0c3d
00000080: 8a7d 77bc d384 533d 5c21 0e3b eb12 8c3c
00000090: 6262 30be 656c 893d 078a f6bc aed5 09be
000000a0: 0da8 923d 09eb 2cbb 604a 933d 7c1c 903d
000000b0: 50e3 213e cbbe b93d 05d8 0cbe dc4b 9d3d
000000c0: 2ed7 33be 0b2a af3d 8564 16be 426b cf3d
000000d0: 7e52 f73c 7c4e 26bc 6391 7ebd 9a64 14be
000000e0: 91b1 58bc 2aa8 1d3e db19 12be f40a 223e
000000f0: 034f f5bc d2de 983d d934 a7bd 514b 16be
00000100: 5a09 5f3c 22c9 21be 69a9 c13d cf54 9dbd
00000110: 7a6b 05bd 0147 8dbc e72b a63d 0d08 a43c
00000120: eb2d 1dbe 37f1 2b3d b41a 0c3d 27e8 ddbd
00000130: f200 b7bd ad5a fa3c 3a36 fa3d e00d 223e
00000140: 706b 9e3c 6323 12be 8afb d53c 97e4 c33d
00000150: f10c 81bc 8076 de3d 8935 543b e522 6b3d
00000160: 8f04 eabd ff2b 803a 2f7f d63d d278 20be
00000170: c585 a53d 1df7 05be 6f6b 093c 0932 1cbd
00000180: 001f 223c c36f 0b3e 265a 343e 987a 333e
00000190: 217d c0bd 37f8 e6bd e4e2 273e 1bcc b43d
000001a0: d85e 9e3d e7ed 7c3d 862d 87bd 5672 45bd
000001b0: c7f1 943d c384 da3d 7146 2ebc 5b1f d93d
000001c0: 05a2 333d 1717 50bd 0d43 133e d726 22be
000001d0: 3552 3d3d 3c21 03be 04f0 a83c 80a3 a6bd
000001e0: d767 33be 39da 7c3d 0f03 a13d 1636 223e
000001f0: 8073 923d 60ac 3c3e e210 7e3b f5e6 253d

model.lstm.bias_hh_l0 f4 [128]
0.14820084 -0.15975225 0.15590638 -0.09907487 0.016982056 0.16275302 0.09141861 0.011399928
0.038892813 -0.03420211 0.15783903 0.045727015 0.090396844 -0.0060331165 -0.021409601 0.08260052
0.055575993 0.21108156 -0.07640919 0.08841959 0.038304854 -0.12796889 0.019665597 0.16045828
-0.06821316 -0.087140836 -0.014038824 -0.0127725825 -0.06605887 -0.049600203 0.2343046 0.15916947
-0.10899 -0.10580703 0.016174795 -0.12955965 0.1025609 0.15392722 -0.086785845 0.07200765
-0.084322244 0.14782964 -0.13398711 0.049751744 0.05725506 0.04735188 0.08749231 0.16640298
-0.09704766 0.12766421 -0.09556604 -0.08802912 -0.008664999 0.034611486 -0.04662525 0.15198046
-0.09786012 0.16836743 0.13489707 -0.12244805 0.07901309 0.030875588 -0.037854914 0.09665697
0.11808577 -0.08981181 -0.094845966 0.0058080177 -0.11468509 -0.056996405 0.026826669 -0.06879752
0.13301545 0.05711523 -0.06850267 -0.09079494 0.17453317 0.031613283 0.14936768 0.14119853
0.09222373 0.17625153 0.09848063 -0.118710764 0.0002468866 -0.038559906 0.045235097 -0.16235866
-0.056271944 0.12691958 0.029640729 -0.09342547 -0.097052336 0.13211355 -0.0910368 0.015788747
-0.052682064 0.045305032 0.027324663 0.17266297 0.24320714 0.05382797 0.0861581 -0.048500735
-0.06692279 0.21429995 0.09104404 0.16125378 -0.08913486 -0.019300267 0.08429592 -0.025883157
0.048677556 0.08071864 0.03958924 -0.0049676416 0.13767774 0.16943024 0.004893937 0.14459956
-0.041703913 0.104975566 -0.034662645 -0.1153568 -0.065032296 0.123807795 0.15420671 0.036994707
00000000: f6c1 173e 1896 23be eca5 1f3e c4e7 cabd
00000010: f41d 8b3c baa8 263e ae39 bb3d c3c6 3a3c
00000020: 124e 1f3d 8317 0cbd 8ea0 213e 404c 3b3d
00000030: fb21 b93d 73b1 c5bb 3063 afbc 762a a93d
00000040: a7a3 633d c425 583e 6c7c 9cbd 5415 b53d
00000050: 8de5 1c3d 470a 03be bf19 a13c 2d4f 243e
00000060: 57b3 8bbd e576 b2bd 1803 66bc 1844 51bc
00000070: df49 87bd 9529 4bbd 8ced 6f3e 52fd 223e
00000080: 2636 dfbd 5bb1 d8bd 0181 843c 49ab 04be
00000090: 730b d23d 199f 1d3e c7bc b1bd bf78 933d
000000a0: 24b1 acbd a760 173e eb33 09be 7cc8 4b3d
000000b0: 4884 6a3d 0cf4 413d 2b2f b33d 8b65 2a3e
000000c0: ecc0 c6bd 68ba 023e 21b8 c3bd 9c48 b4bd
000000d0: a4f7 0dbc c6c4 0d3d 1efa 3ebd c4a0 1b3e
000000e0: e36a c8bd 8368 2c3e 7522 0a3e 0bc6 fabd
000000f0: 9dd1 a13d cdee fc3c c10d 1bbd 17f4 c53d
00000100: f4d6 f13d 41ef b7bd 9a3e c2bd 2f51 be3b
00000110: 04e0 eabd 1075 69bd 9ac3 db3c b7e5 8cbd
00000120: 3435 083e a9f1 693d 214b 8cbd b3f2 b9bd
00000130: d3b8 323e ee7c 013d d7f3 183e 5996 103e
00000140: ccdf bc3d 487b 343e 36b0 c93d a11e f3bd
00000150: 8f70 8139 fef0 1dbd 7048 393d 5941 26be
00000160: 697d 66bd 35f7 013e 1dd1 f23c da55 bfbd
00000170: 60c3 c6bd c648 073e 8071 babd 6757 813c
00000180: 26c9 57bd c591 393d f9d7 df3c 90ce 303e
00000190: 4b0b 793e b87a 5c3d a873 b03d b5a8 46bd
000001a0: d10e 89bd 7271 5b3e 4c75 ba3d b61f 253e
000001b0: 568c b6bd 981b 9ebc 57a3 ac3d ea08 d4bc
000001c0: 1e62 473d d04f a53d 5428 223d 99c7 a2bb
000001d0: 65fb 0c3e 1f7f 2d3e 525d a03b e811 143e
000001e0: b9d1 2abd 6efd d63d 6bfa 0dbd 3040 ecbd
000001f0: a72f 85bd f18e fd3d 5de8 1d3e c387 173d

model.lstm.weight_ih_l1 f4 [128, 32]
-0.16462436 -0.18573776 0.13234977 0.12503073 -0.16633132 -0.04690548 0.06373898 0.015538581
0.03440865 -0.21651459 0.011752932 0.14346424 -0.1512198 -0.0736909 0.0029404669 0.04451584
0.080745466 -0.057389542 -0.10242921 -0.041714657 0.15756169 -0.02209788 -0.20822766 -0.06488965
0.072503135 -0.12993465 -0.10719958 0.17035644 -0.08381704 -0.123678684 -0.027282136 0.13602781
0.11630133 -0.08523433 0.19421077 -0.121215135 -0.07456116 0.063789845 -0.21557793 0.037892543
-0.02304359 -0.055402327 0.08169241 0.17455964 -0.07129445 -0.008637407 0.16406828 0.13024858
-0.12605923 0.11668268 0.03404021 0.10190268 -0.0010957178 0.14952609 0.118710764 -0.121254385
0.038192347 -0.2357955 0.14891931 -0.12692788 0.03788886 -0.13582501 -0.056514733 0.053095035
-0.12687418 -0.06144359 0.18019408 -0.09273872 0.021908099 -0.022229033 -0.061115056 -0.03356829
-0.04808512 -0.16016655 0.17832255 0.0043842294 0.05510499 0.070180535 -0.009341891 0.015155215
-0.031067993 -0.025265835 0.18777622 0.06789793 -0.00017822544 0.0210417 -0.042787947 -0.17543934
-0.116794534 0.030155376 -0.13425101 0.012784711 -0.18012147 -0.083591394 0.02862185 -0.07059093
0.09627947 -0.0072559444 0.16453159 -0.15913205 -0.1695 0.040339336 0.057942595 -0.061506018
-0.009452618 -0.06714279 0.16727826 -0.04405307 -0.02752665 -0.13091862 0.25290632 0.037601758
-0.033687968 0.1790898 0.00021727967 -0.010602386 0.15906157 0.07659839 -0.25287485 -0.25902945
0.13399649 -0.09290073 -0.014519055 0.12873356 -0.07981365 0.03335937 -0.054373283 0.2455822
-0.08592861 -0.01752021 -0.05152317 0.10406006 -0.16363919 -0.088623345 0.09216681 -0.16659002
-0.12354891 0.15161128 0.10976515 0.09861514 0.03321834 0.11180431 0.12513559 0.00960079
0.058199834 0.09938109 -0.12177918 -0.13589576 -0.019391188 -0.16237265 -0.17441687 -0.11649002
0.0127584 -0.088472724 0.13149303 -0.024907218 -0.12539943 -0.039101977 -0.13833196 0.10681077
-0.17281327 0.08003343 0.11916937 -0.21604306 0.005263911 -0.007961844 -0.21078943 -0.19968937
-0.1092892 -0.07328896 0.20627052 -0.053118326 -0.19077446 -0.017205046 0.10023985 0.11287266
0.07129123 0.22147416 0.06539271 -0.065841764 -0.16755334 0.24052729 -0.03781313 -0.06766747
-0.13903217 0.0073678256 0.001378724 0.09814756 -0.0019940836 -0.22735405 0.056390185 -0.0028695033
0.11076413 0.07257947 0.18452284 0.019973615 -0.19837643 0.18746817 -0.11643595 -0.03135017
-0.1295619 -0.060653616 0.018353254 -0.015729029 -0.051838372 -0.11941447 0.1391453 0.112146676
-0.17835167 -0.07929013 0.031007629 0.084230445 -0.16867924 0.21376054 -0.15665025 -0.1904947
-0.17028111 -0.14390056 0.16885735 -0.05505392 -0.22389388 -0.12734121 0.08010749 -0.085342966
-0.045550667 0.012596172 0.22021686 -0.073445454 -0.16377318 0.03857901 0.03743991 -0.00073066377
-0.08009623 -0.20084152 0.16634315 0.11313594 -0.19205083 -0.024956288 0.19395435 -0.049411017
-0.039898034 0.24198931 -0.031445645 0.03626908 0.13002138 0.07129563 -0.2020227 0.041449036
-0.1593602 -0.26454943 -0.00363919 0.1428637 -0.2167101 -0.20969152 -0.22095196 0.05118178
00000000: 4a93 28be 0a32 3ebe b386 073e 0e08 003e
00000010: c252 2abe f61f 40bd 9589 823d 8895 7e3c
00000020: 16f0 0c3d 00b6 5dbe 5f8f 403c 4ae8 123e
00000030: 5dd9 1abe 41eb 96bd d9b4 403b 3e56 363d
00000040: e15d a53d 4c11 6bbd 68c6 d1bd fddc 2abd
00000050: da57 213e 9d06 b5bc a239 55be dde4 84bd
00000060: 867c 943d 970d 05be 748b dbbd eb71 2e3e
00000070: 45a8 abbd 404b fdbd c97e dfbc e04a 0b3e
00000080: 642f ee3d 568f aebd 30df 463e a43f f8bd
00000090: 85b3 98bd 40a4 823d 76c0 5cbe 3635 1b3d
000000a0: e9c5 bcbc 8ded 62bd 5a4e a73d c3bf 323e
000000b0: d302 92bd e983 0dbc 8401 283e e25f 053e
000000c0: ac15 01be 54f7 ee3d bf6d 0b3d 5ab2 d03d
000000d0: 309e 8fba 5e1d 193e a11e f33d 3854 f8bd
000000e0: 946f 1c3d 6074 71be 4e7e 183e 62f9 01be
000000f0: 5931 1b3d b615 0bbe fe7b 67bd 2e7a 593d
00000100: 4eeb 01be 46ac 7bbd cc84 383e cced bdbd
00000110: 9d78 b33c a919 b6bc c853 7abd e77e 09bd
00000120: e7f4 44bd b302 24be 309a 363e 95a9 8f3b
00000130: c5b5 613d d0ba 8f3d bb0e 19bc 944d 783c
00000140: 4e82 febc 4cfa cebc 6948 403e 120e 8b3d
00000150: 07e2 3ab9 a55f ac3c 6a42 2fbd 5fa6 33be
00000160: f931 efbd 6808 f73c 1979 09be f776 513c
00000170: c371 38be f731 abbd 5f78 ea3c fa91 90bd
00000180: 2c2e c53d 46c3 edbb f87a 283e 83f3 22be
00000190: 6891 2dbe dc3a 253d 3755 6d3d bced 7bbd
000001a0: 27df 1abc 2982 89bd fe4a 2b3e fe70 34bd
000001b0: 927f e1bc 880f 06be f07c 813e 4d04 1a3d
000001c0: 65fc 09bd 5163 373e 91d5 6339 a1b5 2dbc
000001d0: 09e1 223e 9edf 9c3d d078 81be 829f 84be
000001e0: 6036 093e bd42 bebd 55e1 6dbc bbd2 033e
000001f0: 5775 a3bd d6a3 083d 85b6 5ebd e679 7b3e
00000200: 57fb afbd 8b86 8fbc f609 53bd 711d d53d
00000210: 0891 27be 2880 b5bd f4c1 bc3d 9396 2abe
00000220: 3607 fdbd fd3f 1b3e 8dcc e03d bcf6 c93d
00000230: f40f 083d a8f9 e43d 8b23 003e a24c 1d3c
00000240: f362 6e3d 5088 cb3d 5d67 f9bd 4228 0bbe
00000250: 45da 9ebc 0445 26be 569a 32be 5292 eebd
00000260: 9c08 513c 3031 b5bd 1ca6 063e 390a ccbc
00000270: b568 00be 6529 20bd e5a6 0dbe 9bbf da3d
00000280: f6f5 30be 91e8 a33d 120f f43d 643a 5dbe
00000290: e37c ac3b 6572 02bc 2fd9 57be 5f7b 4cbe
000002a0: 04d3 dfbd 8618 96bd 9438 533e 9a92 59bd
000002b0: 615a 43be 99f1 8cbc 8d4a cd3d c829 e73d
000002c0: 2301 923d 1fca 623e 9dec 853d 0cd8 86bd
000002d0: 1a93 2bbe c94c 763e f1e1 1abd 3e95 8abd
000002e0: 735e 0ebe cd6d f13b 4db6 b43a 9701 c93d
000002f0: 2caf 02bb 80cf 68be 65f9 663d 470e 3cbb
00000300: 4ed8 e23d 8ca4 943d 8ef3 3c3e b59f a33c
00000310: 3123 4bbe a8f7 3f3e f975 eebd 0969 00bd
00000320: e0ab 04be ed6f 78bd 9059 963c 2ada 80bc
00000330: 7954 54bd 938f f4bd 1b7c 0e3e 28ad e53d
00000340: d2a1 36be dd62 a2bd b603 fe3c 0381 ac3d
00000350: 40ba 2cbe 0be4 5a3e ec68 20be 0b11 43be
00000360: 2c5e 2ebe ab5a 13be f1e8 2c3e 3880 61bd
00000370: 7044 65be bc65 02be 650f a43d 4bc8 aebd
00000380: 5693 3abd 2d60 4e3c 8780 613e 926a 96bd
00000390: 28b4 27be 0605 1e3d 975a 193d 048a 3fba
000003a0: 7e09 a4bd 66a9 4dbe dc55 2a3e d1b3 e73d
000003b0: f9a8 44be 2171 ccbc f89b 463e 3563 4abd
000003c0: 1f6c 23bd 0ccc 773e 26cd 00bd e38e 143d
000003d0: 5324 053e 7103 923d 0adf 4ebe 77c6 293d
000003e0: 522f 23be 0673 87be 7a7f 6ebb dd4a 123e
000003f0: 41e9 5dbe 60b9 56be 3b41 62be fca3 513d

model.lstm.weight_hh_l1 f4 [128, 32]
0.07815479 0.0573537 0.17560497 0.030877022 0.09414591 -0.012872675 0.07353493 -0.0928005
0.16568242 -0.1401298 -0.041960374 -0.033430383 0.08602552 -0.10186038 0.055926654 0.017660975
0.10520079 0.0923259 0.10793378 0.14927481 -0.1674979 -0.022511845 -0.057555377 -0.026735231
-0.03546449 0.052913114 0.15397848 -0.13815577 -0.1734717 -0.01034415 0.14157961 0.0053262217
0.0017161623 -0.0651935 -0.02119033 0.1102492 -0.016461309 0.030939462 -0.049126897 0.060901497
0.092915095 0.06957799 -0.13426962 0.14463349 0.03754564 -0.048569523 0.14412609 -0.037477132
-0.14867449 -0.0029360931 -0.0999075 0.011440125 -0.03497515 0.0074646045 -0.044882942 -0.106488146
0.009433957 -0.02159319 -0.15621698 0.15737836 -0.036928993 -0.059164584 -0.13135733 0.08818291
-0.005750677 0.13866074 0.027199522 0.07530566 0.09837834 -0.06081792 0.058745287 -0.008589388
0.078136176 -0.16375616 -0.13793577 -0.025689906 -0.14491329 0.07634852 0.1360571 0.08306272
0.0061937245 0.1731057 0.15144603 0.027951885 -0.042813152 0.10508375 -0.0032051664 -0.09909913
0.058014438 -0.13261981 -0.052973848 -0.12441475 -0.09272554 0.067460515 0.12327101 -0.05794593
-0.018268144 -0.13788037 -0.010234547 0.16364776 0.025189813 0.045801762 0.05130081 -0.044968247
-0.15169565 -0.074688844 -0.13586761 -0.07524609 -0.11632738 -0.12992255 -0.078749165 0.12739493
0.018888293 -0.04244049 0.11060547 -0.061507948 0.17283137 -0.14549729 0.06963626 -0.018369464
0.096170574 -0.16978702 -0.066621244 -0.023362242 -0.027837245 0.004719444 0.11857737 0.14527212
0.03485737 0.039644174 0.0124612795 0.044484906 0.057541363 -0.10682806 -0.0832893 0.07812697
-0.12461208 -0.075833045 0.034416344 -0.03830599 0.050279085 0.081188686 -0.006976739 -0.0063220984
-0.17468186 -0.059967652 -0.17187773 -0.0646964 -0.062359758 -0.12796572 0.012379779 -0.052835416
0.0345329 0.041551698 -0.06479953 0.0065718605 -0.14233305 -0.08954545 -0.015725488 0.14383858
0.13677157 0.13426647 -0.08279817 0.17494336 0.0056310906 -0.068936035 0.11433559 0.09134776
0.09695285 0.052977663 0.08637919 0.07075256 0.054237723 -0.04932056 -0.14407252 -0.10105457
0.15319666 0.008272148 -0.07746282 -0.07027782 -0.089038216 -0.103314236 0.110741496 -0.1630548
-0.12359786 -0.020324383 0.15644597 -0.16105556 0.11134913 -0.016069554 0.014431265 -0.013095421
-0.13240325 0.08779147 -0.01630273 -0.053959094 -0.13675632 0.12527464 0.022294704 0.094965644
0.037794773 0.15737186 0.060828097 0.17177476 -0.11555877 0.12485851 -0.17289756 -0.15328255
0.13623308 0.07467928 0.13585038 0.03639775 0.012097879 0.009925168 0.10740501 0.04543964
0.16350472 0.124474555 -0.06437828 0.15146779 0.15359019 -0.06462521 0.00015420356 -0.12583396
0.018660426 0.16929394 -0.16777663 0.0386717 0.0046141194 0.12670122 -0.17570281 0.101068735
0.1107898 -0.1252136 0.06991021 -0.1344273 -0.07241989 -0.17007701 -0.1618233 -0.074506745
-0.1682495 -0.11631248 -0.13664368 -0.005808692 -0.0026140756 0.11174444 0.055981383 -0.14530051
0.021487804 -0.113355026 0.016382031 -0.124276526 -0.012299299 -0.16238922 0.1578354 -0.14389266
00000000: 9e0f a03d b7eb 6a3d cad1 333e cff1 fc3c
00000010: 92cf c03d eae7 52bc 7b99 963d 300e bebd
00000020: a7a8 293e 307e 0fbe a4de 2bbd 4cee 08bd
00000030: 262e b03d 2d9c d0bd 5913 653d c0ad 903c
00000040: 8373 d73d 5d15 bd3d 630c dd3d 7fdb 183e
00000050: 9284 2bbe c36a b8bc 30bf 6bbd d803 dbbc
00000060: 3743 11bd 6cbb 583d 89ac 1d3e b578 0dbe
00000070: 91a2 31be 827a 29bc 3ffa 103e 9687 ae3b
00000080: daf0 e03a 2b84 85bd 5897 adbc 55ca e13d
00000090: ded9 86bc c174 fd3c 4939 49bd d973 793d
000000a0: 454a be3d e87e 8e3d fa7d 09be cd1a 143e
000000b0: 75c9 193d d6f0 46bd ca95 133e 9f81 19bd
000000c0: 203e 18be 786b 40bb 4e9c ccbd 5d6f 3b3c
000000d0: 1a42 0fbd a499 f43b 2dd7 37bd 7516 dabd
000000e0: e290 1a3c 34e4 b0bc 58f7 1fbe cb27 213e
000000f0: db42 17bd 9056 72bd 8982 06be 3e99 b43d
00000100: 2d70 bcbb 15fd 0d3e 88d1 de3c db39 9a3d
00000110: 957a c93d 361c 79bd e69e 703d 81ba 0cbc
00000120: dc05 a03d b2af 27be 093f 0dbe a373 d2bc
00000130: 2664 14be 9d5c 9c3d 8d52 0b3e ca1c aa3d
00000140: baf4 ca3b 9f42 313e ab14 1b3e 5afb e43c
00000150: d85c 2fbd 2636 d73d c50d 52bb 7cf4 cabd
00000160: 8ca0 6d3d 7dcd 07be 1bfb 58bd 29cd febd
00000170: e3e6 bdbd bd28 8a3d 8375 fc3d b658 6dbd
00000180: 13a7 95bc 8330 0dbe cdae 27bc 4793 273e
00000190: de5a ce3c a19a 3b3d cc20 523d a030 38bd
000001a0: 1b56 1bbe 77f6 98bd e120 0bbe 9f1a 9abd
000001b0: 0d3d eebd 6b0a 05be 3e47 a1bd d173 023e
000001c0: 9fbb 9a3c 14d6 2dbd 1f85 e23d c2ef 7bbd
000001d0: b5fa 303e 3efd 14be 759d 8e3d 8f7b 96bc
000001e0: 14f5 c43d a6dc 2dbe b870 88bd 2c62 bfbc
000001f0: ef0a e4bc 91a5 9a3b b1d8 f23d 37c2 143e
00000200: 9ac6 0e3d ee61 223d 652a 4c3c ce35 363d
00000210: 7eb0 6b3d abc8 dabd 9593 aabd 0801 a03d
00000220: 9e34 ffbd 5b4e 9bbd 27f8 0c3d bee6 1cbd
00000230: 71f1 4d3d 4146 a63d 219d e4bb 9b29 cfbb
00000240: cddf 32be a4a0 75bd b700 30be 8c7f 84bd
00000250: f26c 7fbd 7209 03be 8ed4 4a3c f369 58bd
00000260: 5f72 0d3d 1d32 2a3d 9eb5 84bd c358 d73b
00000270: c1bf 11be 9b63 b7bd bdd2 80bc 6c4a 133e
00000280: d90d 0c3e 267d 093e 1692 a9bd 5a24 333e
00000290: 0385 b83b 562e 8dbd c728 ea3d 8914 bb3d
000002a0: 378f c63d 1bff 583d 93e7 b03d b8e6 903d
000002b0: 6028 5e3d 5b04 4abd bf87 13be b3f5 cebd
000002c0: 96df 1c3e e787 073c d4a4 9ebd d1ed 8fbd
000002d0: ab59 b6bd 6a96 d3bd 70cc e23d d6f7 26be
000002e0: e020 fdbd 527f a6bc 5f33 203e c0eb 24be
000002f0: 030b e43d 4ca4 83bc 1d71 6c3c 2d8e 56bc
00000300: b894 07be 04cc b33d 4e8d 85bc 3604 5dbd
00000310: d909 0cbe ff47 003e 62a3 b63c 597d c23d
00000320: b1ce 1a3d 1726 213e e226 793d b9e5 2f3e
00000330: 14aa ecbd d2b5 ff3d 0f0c 31be 1af6 1cbe
00000340: af80 0b3e 73f1 983d 5d1c 0b3e cf15 153d
00000350: 2f36 463c 2c9d 223c 28f7 db3d ea1e 3a3d
00000360: c86d 273e 84ec fe3d c2d8 83bd 5f1a 1b3e
00000370: bf46 1d3e 395a 84bd b4b1 2139 9eda 00be
00000380: c0dd 983c 645b 2d3e a3cd 2bbe 3766 1e3d
00000390: 0a32 973b f7bd 013e 70eb 33be 20fd ce3d
000003a0: c3e5 e23d fe37 00be 162d 8f3d 4fa7 09be
000003b0: e150 94bd ab28 2ebe 02b5 25be fe96 98bd
000003c0: 9949 2cbe 3d35 eebd 52ec 0bbe d756 bebb
000003d0: e950 2bbb 45da e43d bc4c 653d a8c9 14be
000003e0: 3107 b03c ae26 e8bd 9c33 863c b184 febd
000003f0: 0083 49bc 5c49 26be 9a9f 213e 9958 13be

model.lstm.bias_ih_l1 f4 [128]
0.17334636 -0.08139966 -0.054014873 -0.00067135703 0.10020629 0.1587353 0.118397206 0.049817543
-0.036526293 -0.102156386 0.21930537 -0.04516251 0.03548605 -0.08046222 -0.06637523 0.16137627
0.031764023 0.17910194 -0.03983472 -0.082348995 0.010886283 -0.061750017 -0.10916032 0.121005595
0.05011158 -0.07619869 0.08359068 0.16105957 0.21460967 0.098116904 0.09874552 -0.054289248
-0.13394213 -0.15718554 0.1121547 -0.07943249 -0.015046398 0.12826586 -0.1394277 0.08958518
0.13947439 -0.028498676 0.06504636 -0.1292323 0.06111396 -0.06661212 0.02306186 -0.15795206
-0.16958787 0.10349543 0.0381106 -0.0892008 -0.12322105 -0.110215396 0.029596454 -0.16040024
-0.14733021 0.1626233 -0.0013807988 -0.09664724 0.14137743 0.1721371 0.102816224 0.044230886
-0.10762849 0.097615555 0.040326826 0.2228158 0.026335228 0.023161456 0.04815421 0.08434368
-0.005305346 -0.13412118 0.039912067 -0.012186525 0.117431074 -0.015588384 0.18660125 -0.07758538
-0.17418525 0.17481154 -0.046086278 -0.08909708 -0.0981159 -0.027927497 0.078162685 0.20195153
-0.0008653263 -0.114256576 -0.09754442 -0.10863338 0.23449609 -0.042921383 0.05885717 -0.0733761
-0.110630184 0.021369703 0.07929813 0.03158562 -0.16168927 0.13478586 0.09142714 0.17604451
0.1087651 0.11049901 -0.050816793 0.18027084 0.2079921 0.11279669 0.17770423 0.052790157
0.09673076 0.1681662 0.15194389 0.13808928 0.23780662 -0.08047148 0.04100396 -0.005425422
0.0807386 0.22928038 0.12978363 0.07568256 0.17578968 -0.026474215 0.20208874 0.16399153
00000000: b581 313e ddb4 a6bd b33e 5dbd 02fe 2fba
00000010: f538 cd3d 828b 223e 3c7a f23d 7b0d 4c3d
00000020: 989c 15bd 5e37 d1bd 9691 603e 53fc 38bd
00000030: d259 113d 60c9 a4bd bdef 87bd d23f 253e
00000040: fe1a 023d 8066 373e bb29 23bd 97a6 a8bd
00000050: 615c 323c 96ed 7cbd 728f dfbd c8d1 f73d
00000060: cd41 4d3d 0f0e 9cbd 9731 ab3d cdec 243e
00000070: a3c2 5b3e 84f1 c83d 173b ca3d 675e 5ebd
00000080: 2028 09be 3ff5 20be 5db1 e53d 80ad a2bd
00000090: 2b85 76bc 2058 033e 23c6 0ebe 6f78 b73d
000000a0: 60d2 0e3e 0e76 e9bc 0737 853d 7955 04be
000000b0: a252 7a3d ef6b 88bd 3aec bc3c 2fbe 21be
000000c0: 71a8 2dbe 69f5 d33d dc19 1c3d e9ae b6bd
000000d0: 515b fcbd 9cb8 e1bd 4374 f23c f63f 24be
000000e0: bbdd 16be b986 263e ebfb b4ba fdee c5bd
000000f0: 3fc5 103e b544 303e 5091 d23d 722b 353d
00000100: 536c dcbd aaea c73d be2d 253d d329 643e
00000110: fabc d73c 18bd bd3c 593d 453d 61bc ac3d
00000120: 78d8 adbb 1057 09be d67a 233d fea9 47bc
00000130: b47f f03d 6c66 7fbc 6614 3f3e 15e5 9ebd
00000140: 9e5d 32be cc01 333e f7c4 3cbd 8878 b6bd
00000150: fdf0 c8bd 35c8 e4bc c213 a03d 62cc 4e3e
00000160: 11d7 62ba 5aff e9bd 5ec5 c7bd 2d7b debd
00000170: be1f 703e 55ce 2fbd 3714 713d 3546 96bd
00000180: 1492 e2bd 840f af3c 0f67 a23d ec5f 013d
00000190: df91 25be 4e05 0a3e 273e bb3d 0345 343e
000001a0: 3dc0 de3d 4e4d e23d 4525 50bd eb98 383e
000001b0: e2fb 543e f301 e73d 19f8 353e 7e3a 583d
000001c0: c71a c63d c333 2c3e 2e97 1b3e 4767 0d3e
000001d0: 9483 733e 3bce a4bd c5f3 273d bdc7 b1bb
000001e0: 475a a53d 7ac8 6a3e 00e6 043e 75ff 9a3d
000001f0: 3602 343e 74e0 d8bc 5af0 4e3e 65ed 273e

model.lstm.bias_hh_l1 f4 [128]
-0.0017970665 0.121534966 0.25583294 -0.048467454 -0.0781505 0.18857673 0.21297672 0.1292137
0.01190665 0.19106774 -0.052395407 0.0056220563 0.029455611 0.16675025 0.237297 0.223752
0.097229786 0.12618482 0.09350884 0.1506394 0.015565538 0.17334594 0.109440885 -0.09095484
-0.11024227 0.13460031 -0.054872204 0.17972688 0.01333821 0.20869674 -0.005483987 0.015962668
-0.050750665 -0.14854467 0.1533833 -0.10074155 -0.16408706 0.011363207 0.072192505 -0.11955604
-0.040825296 -0.07361587 -0.11851959 -0.03815755 0.09811972 0.1407749 -0.1578099 -0.0095388815
0.043117706 -0.0065265107 -0.14653385 0.14496504 -0.16295864 -0.05185776 -0.015864594 -0.0066804043
0.022037799 0.10357666 0.060185675 0.015280428 0.102355435 -0.14478439 -0.06889121 0.05772116
-0.121427596 0.10460165 0.16043349 -0.041527167 0.11856709 0.18722987 0.033208262 0.02728265
0.055184998 0.046163365 -0.081811585 0.018921092 -0.11055476 0.14295188 0.1016161 0.058532674
0.05085806 -0.04485852 0.11804836 -0.12770177 0.22106281 0.22672412 0.042184453 0.019015899
-0.020613493 0.056737922 -0.12340601 -0.052628785 0.00984623 -0.017065434 0.109131485 0.0053429697
0.09533653 0.12829928 -0.026599882 -0.08232382 -0.030498281 -0.012379178 0.1626602 0.109263696
0.1319488 0.12660138 0.0054560853 0.1352708 0.17732532 0.091476984 0.25614783 0.249641
0.19521639 -0.04757453 -0.07189067 -0.02500991 0.2680567 0.090258464 0.08960473 0.014104827
0.20615904 0.038156025 -0.042311307 0.07975557 -0.017765531 0.16013716 0.13012862 0.25684866
00000000: 8c8b ebba 53e7 f83d 89fc 823e cf85 46bd
00000010: 5f0d a0bd 421a 413e 9216 5a3e 9950 043e
00000020: 1c14 433c 43a7 433e 919c 56bd 3a39 b83b
00000030: e54c f13c 94c0 2a3e fcfd 723e 3f1f 653e
00000040: 6920 c73d 9836 013e 9081 bf3d 3741 1a3e
00000050: 9906 7f3c 9981 313e 8b22 e03d 8846 babd
00000060: b3c6 e1bd aad4 093e adc1 60bd 530a 383e
00000070: 8288 5a3c 99b4 553e 04b3 b3bb 24c4 823c
00000080: eedf 4fbd 181c 18be 8310 1d3e 9651 cebd
00000090: 7006 28be bf2c 3a3c aad9 933d ccd9 f4bd
000000a0: 6d38 27bd ebc3 96bd 66ba f2bd 174b 1cbd
000000b0: fef2 c83d 4c27 103e eb98 21be f848 1cbc
000000c0: 319c 303d 57dc d5bb f80c 16be b771 143e
000000d0: a1de 26be cd68 54bd 77f6 81bc 4be7 dabb
000000e0: 9d88 b43c 0020 d43d 4185 763d c35a 7a3c
000000f0: ba9f d13d 5c42 14be d616 8dbd 066d 6c3d
00000100: 08af f8bd 6439 d63d ad48 243e 6418 2abd
00000110: 4dd3 f23d 30b9 3f3e 6305 083d dd7f df3c
00000120: aa09 623d cc15 3d3d d58c a7bd 6800 9b3c
00000130: 896a e2bd fa61 123e 1a1c d03d f5bf 6f3d
00000140: 8b50 503d 91bd 37bd 57c3 f13d 41c4 02be
00000150: 4a5e 623e 5e2a 683e 9bc9 2c3d 3bc7 9b3c
00000160: a1dd a8bc 0666 683d 4abc fcbd 4891 57bd
00000170: 1552 213c cfcc 8bbc 5480 df3d 1414 af3b
00000180: cc3f c33d e360 033e ffe7 d9bc 6499 a8bd
00000190: 88d7 f9bc 09d2 4abc 6590 263e a5c5 df3d
000001a0: 961d 073e cba3 013e f6c8 b23b 6e84 0a3e
000001b0: c594 353e 4958 bb3d cf25 833e e4a1 7f3e
000001c0: cee6 473e 83dd 42bd 6a3b 93bd 95e1 ccbc
000001d0: ba3e 893e 6ed9 b83d af82 b73d ef17 673c
000001e0: 5b1b 533e 7e49 1c3d 9f4e 2dbd e356 a33d
000001f0: 0589 91bc fffa 233e 7040 053e ab81 833e

model.linear.weight f4 [1, 32]
-0.10302792 -0.09170618 0.13603003 0.1265434 0.09796465 0.24521844 -0.11198274 0.16436343
-0.018585224 -0.08960963 -0.16474256 0.19369838 0.26819727 0.15280208 0.20929427 0.2387319
-0.1546927 0.12922941 0.05945327 -0.22223406 0.14388776 0.2294602 0.19760232 0.16234252
-0.169454 -0.12321425 -0.13741706 0.1390018 0.23825896 0.15224376 0.21394281 -0.2686404
00000000: 4d00 d3bd 73d0 bbbd 754b 0b3e 9894 013e
00000010: b1a1 c83d 8b1a 7b3e 3557 e5bd e34e 283e
00000020: 0a40 98bc 4185 b7bd 46b2 28be de58 463e
00000030: 2751 893e 2678 1c3e 3d51 563e 2376 743e
00000040: c367 1ebe b754 043e 4685 733d 5391 63be
00000050: 5057 133e 9df7 6a3e 4358 4a3e 1e3d 263e
00000060: 5985 2dbe c157 fcbd 0fb7 0cbe 7d56 0e3e
00000070: 28fa 733e cae5 1b3e d313 5b3e 3c8b 89be

exp_avg f4 [128, 1]
3.0648564e-10 -1.2387635e-29 -0.054183956 -0.0012214911 -3.770361e-05 -7.7861716e-07 -43.609653 -1.2250659e-25
1.5997415e-06 -7.5815246e-05 -0.025974693 8.523739e-16 -0.19527629 1.877423e-09 -3.9756716e-05 -1.2305785
-2.4585023 -86.36851 -86.54359 -0.027039805 -2.249772e-12 0.0 -0.20740946 -1.9186173e-06
5.199637e-09 -3.841999e-06 -1.1172727e-11 1.6932986e-11 -156.97481 -0.00022650922 -328.1413 0.0
0.0 0.0 0.0 0.0 0.0 0.0 0.0 0.0
0.0 0.0 0.0 0.0 0.0 0.0 0.0 0.0
0.0 0.0 0.0 0.0 0.0 0.0 0.0 0.0
0.0 0.0 0.0 0.0 0.0 0.0 0.0 0.0
3.1598294e-13 3.997391e-31 -2.136235e-08 0.0 0.0 -1.7718019e-05 0.0 0.0
2.3187007e-14 0.0022133498 -3.3102168e-08 6.133354e-17 0.0 0.0 0.0 -1.2691678e-08
0.1340816 -0.00096065714 0.0 0.00046651895 0.0 0.0 0.04117523 0.0
0.0 0.0 -3.4253811e-15 -3.2596569e-12 8.149436e-11 0.0 2.0335425e-10 -1.1282912e-06
3.064832e-10 -1.782417e-11 -1.7195159e-08 -2.7841022 -93.85609 -0.00010459667 -20.057878 -2.3626944e-05
1.596086e-06 -136.81909 -5.105252e-07 8.523739e-16 -1.3056788e-05 1.8773911e-09 0.0 -0.00030078614
-3.2160021e-06 -0.00010330781 -7.520623e-16 0.0 -2.249773e-12 -1.8412199 -0.23481934 -0.23499817
5.1891127e-09 -90.29102 -1.1172796e-11 1.6933203e-11 -1.2576023e-13 -1.430618e-05 -77.54553 -53.366817
00000000: 057e a82f 4740 7b8f ffef 5dbd 711a a0ba
00000010: f123 1eb8 2a02 51b5 4970 2ec2 e3a7 1796
00000020: b3b6 d635 00ff 9eb8 e1c8 d4bc 18ae 7526
00000030: 82f6 47be fa03 0131 73c0 26b8 9983 9dbf
00000040: 1a58 1dc0 adbc acc2 5116 adc2 9582 ddbc
00000050: 4a50 1eac 0000 0000 2563 54be 98c1 00b6
00000060: 7ea8 b231 85ea 80b6 7d8d 44ad b2f1 942d
00000070: 8df9 1cc3 1b83 6db9 1612 a4c3 0000 0000
00000080: 0000 0000 0000 0000 0000 0000 0000 0000
00000090: 0000 0000 0000 0000 0000 0000 0000 0000
000000a0: 0000 0000 0000 0000 0000 0000 0000 0000
000000b0: 0000 0000 0000 0000 0000 0000 0000 0000
000000c0: 0000 0000 0000 0000 0000 0000 0000 0000
000000d0: 0000 0000 0000 0000 0000 0000 0000 0000
000000e0: 0000 0000 0000 0000 0000 0000 0000 0000
000000f0: 0000 0000 0000 0000 0000 0000 0000 0000
00000100: f1e1 b12a 06b9 010d 4e80 b7b2 0000 0000
00000110: 0000 0000 28a1 94b7 0000 0000 0000 0000
00000120: 99d9 d028 d90d 113b 382c 0eb3 ef6c 8d24
00000130: 0000 0000 0000 0000 0000 0000 970a 5ab2
00000140: b04c 093e 9cd4 7bba 0000 0000 1d97 f439
00000150: 0000 0000 0000 0000 5ca7 283d 0000 0000
00000160: 0000 0000 0000 0000 21d3 76a7 c260 65ac
00000170: 3f35 b32e 0000 0000 2297 5f2f ca6f 97b5
00000180: ad7d a82f 76c8 9cad 8eb4 93b2 bb2e 32c0
00000190: 51b6 bbc2 e95a dbb8 8976 a0c1 7a32 c6b7
000001a0: 1939 d635 b0d1 08c3 060b 09b5 18ae 7526
000001b0: 7a0e 5bb7 6a03 0131 0000 0000 d5b2 9db9
000001c0: 7fd2 57b6 f5a6 d8b8 67c4 58a6 0000 0000
000001d0: 4f50 1eac 18ad ebbf 7b74 70be 5ca3 70be
000001e0: eb4b b231 0195 b4c2 cd8d 44ad 2ff2 942d
000001f0: eb97 0daa 9304 70b7 5017 9bc2 9f77 55c2

exp_avg_sq f4 [128, 1]
5.964043e-16 7.582714e-15 0.00062202284 5.7258785e-06 9.388817e-09 9.0057415e-12 19332.15 1.9839958e-13
3.4458065e-08 3.5821653e-08 0.00012986061 1.0134026e-29 0.006022063 4.3778956e-16 5.1269384e-09 0.15207773
21.779802 68803.92 49192.527 0.0065001044 1.6569578e-23 0.0 0.23067272 1.7096031e-11
1.181571e-15 2.3426427e-10 4.772543e-22 2.2480317e-21 129490.945 4.062448e-07 133350.92 0.0
0.0 0.0 0.0 0.0 0.0 0.0 0.0 0.0
0.0 0.0 0.0 0.0 0.0 0.0 0.0 0.0
0.0 0.0 0.0 0.0 0.0 0.0 0.0 0.0
0.0 0.0 0.0 0.0 0.0 0.0 0.0 0.0
1.4388408e-21 4.964504e-15 4.434654e-16 0.0 0.0 8.4516305e-09 0.0 0.0
7.464995e-22 8.3717474e-05 6.7908447e-16 5.7696866e-32 0.0 0.0 0.0 1.4429613e-16
0.045253262 1.9853942e-05 0.0 5.814182e-06 0.0 0.0 0.027788086 0.0
0.0 0.0 5.833061e-29 8.728844e-23 4.0477647e-12 0.0 1.247926e-13 8.849466e-11
5.9637186e-16 3.5513966e-12 1.4278495e-16 30.267578 60504.652 8.170594e-08 3494.805 1.0147076e-08
3.3814285e-08 116495.336 1.1152654e-13 1.0134026e-29 8.287541e-11 4.3775322e-16 0.0 2.7189767e-08
2.5010454e-11 7.310082e-08 2.3417927e-13 0.0 1.6569599e-23 22.5404 0.29240087 0.18817788
1.1682635e-15 66669.75 4.772616e-22 2.2480933e-21 9.461795e-13 2.228046e-09 5942.9556 36460.508
00000000: dfe6 2b26 1999 0828 3f0f 233a ec20 c036
00000010: 744c 2132 416e 1e2d 4d08 9746 c960 5f2a
00000020: 0bff 1333 53da 1933 312b 0839 df8a 4d0f
00000030: ba54 c53b 565e fc25 0729 b031 44ba 1b3e
00000040: 093d ae41 f661 8647 8728 4047 d4fe d43b
00000050: 4a40 a019 0000 0000 7835 6c3e d760 962d
00000060: 4748 aa26 c4c9 802f c33d 101c 42db 291d
00000070: 79e9 fc47 dc19 da34 bb39 0248 0000 0000
00000080: 0000 0000 0000 0000 0000 0000 0000 0000
00000090: 0000 0000 0000 0000 0000 0000 0000 0000
000000a0: 0000 0000 0000 0000 0000 0000 0000 0000
000000b0: 0000 0000 0000 0000 0000 0000 0000 0000
000000c0: 0000 0000 0000 0000 0000 0000 0000 0000
000000d0: 0000 0000 0000 0000 0000 0000 0000 0000
000000e0: 0000 0000 0000 0000 0000 0000 0000 0000
000000f0: 0000 0000 0000 0000 0000 0000 0000 0000
00000100: 756e d91c 78dd b227 f1a3 ff25 0000 0000
00000110: 0000 0000 aa32 1132 0000 0000 0000 0000
00000120: 9a9d 611c 7a91 af38 97bb 4326 25ca 950b
00000130: 0000 0000 0000 0000 0000 0000 b35c 2625
00000140: 7c5b 393d 048c a637 0000 0000 7117 c336
00000150: 0000 0000 0000 0000 d7a3 e33c 0000 0000
00000160: 0000 0000 0000 0000 bbe2 9310 ed0c d31a
00000170: 066b 8e2c 0000 0000 0581 0c2a 119a c22e
00000180: 7ae4 2b26 46e8 792c ae9e 2425 0024 f241
00000190: a758 6c47 5176 af33 e16c 5a45 5053 2e32
000001a0: 333b 1133 ab87 e347 ac22 fb29 df8a 4d0f
000001b0: b53e b62e f958 fc25 0000 0000 ee8e e932
000001c0: 89fe db2d 9afb 9c33 cad4 832a 0000 0000
000001d0: 5740 a019 bd52 b441 91b5 953e b4b1 403e
000001e0: 515d a826 e036 8247 543e 101c 73dc 291d
000001f0: b629 852b 331c 1931 a5b7 b945 826c 0e47

exp_avg f4 [128, 32]
0.0 0.0 0.0 0.0 0.0 0.0 0.0 0.0
0.0 0.0 0.0 0.0 0.0 0.0 0.0 0.0
0.0 0.0 0.0 0.0 0.0 0.0 0.0 0.0
0.0 0.0 0.0 0.0 0.0 0.0 0.0 0.0
0.0 0.0 0.0 0.0 0.0 0.0 0.0 0.0
0.0 0.0 0.0 0.0 0.0 0.0 0.0 0.0
0.0 0.0 0.0 0.0 0.0 0.0 0.0 0.0
0.0 0.0 0.0 0.0 0.0 0.0 0.0 0.0
0.0 0.0 0.0 0.0 0.0 0.0 0.0 0.0
0.0 0.0 0.0 0.0 0.0 0.0 0.0 0.0
0.0 0.0 0.0 0.0 0.0 0.0 0.0 0.0
0.0 0.0 0.0 0.0 0.0 0.0 0.0 0.0
0.0 0.0 0.0 0.0 0.0 0.0 0.0 0.0
0.0 0.0 0.0 0.0 0.0 0.0 0.0 0.0
0.0 0.0 0.0 0.0 0.0 0.0 0.0 0.0
0.0 0.0 0.0 0.0 0.0 0.0 0.0 0.0
0.0 0.0 0.0 0.0 0.0 0.0 0.0 0.0
0.0 0.0 0.0 0.0 0.0 0.0 0.0 0.0
0.0 0.0 0.0 0.0 0.0 0.0 0.0 0.0
0.0 0.0 0.0 0.0 0.0 0.0 0.0 0.0
0.0 0.0 0.0 0.0 0.0 0.0 0.0 0.0
0.0 0.0 0.0 0.0 0.0 0.0 0.0 0.0
0.0 0.0 0.0 0.0 0.0 0.0 0.0 0.0
0.0 0.0 0.0 0.0 0.0 0.0 0.0 0.0
0.0 0.0 0.0 0.0 0.0 0.0 0.0 0.0
0.0 0.0 0.0 0.0 0.0 0.0 0.0 0.0
0.0 0.0 0.0 0.0 0.0 0.0 0.0 0.0
0.0 0.0 0.0 0.0 0.0 0.0 0.0 0.0
0.0 0.0 0.0 0.0 0.0 0.0 0.0 0.0
0.0 0.0 0.0 0.0 0.0 0.0 0.0 0.0
0.0 0.0 0.0 0.0 0.0 0.0 0.0 0.0
0.0 0.0 0.0 0.0 0.0 0.0 0.0 0.0
00000000: 0000 0000 0000 0000 0000 0000 0000 0000
00000010: 0000 0000 0000 0000 0000 0000 0000 0000
00000020: 0000 0000 0000 0000 0000 0000 0000 0000
00000030: 0000 0000 0000 0000 0000 0000 0000 0000
00000040: 0000 0000 0000 0000 0000 0000 0000 0000
00000050: 0000 0000 0000 0000 0000 0000 0000 0000
00000060: 0000 0000 0000 0000 0000 0000 0000 0000
00000070: 0000 0000 0000 0000 0000 0000 0000 0000
00000080: 0000 0000 0000 0000 0000 0000 0000 0000
00000090: 0000 0000 0000 0000 0000 0000 0000 0000
000000a0: 0000 0000 0000 0000 0000 0000 0000 0000
000000b0: 0000 0000 0000 0000 0000 0000 0000 0000
000000c0: 0000 0000 0000 0000 0000 0000 0000 0000
000000d0: 0000 0000 0000 0000 0000 0000 0000 0000
000000e0: 0000 0000 0000 0000 0000 0000 0000 0000
000000f0: 0000 0000 0000 0000 0000 0000 0000 0000
00000100: 0000 0000 0000 0000 0000 0000 0000 0000
00000110: 0000 0000 0000 0000 0000 0000 0000 0000
00000120: 0000 0000 0000 0000 0000 0000 0000 0000
00000130: 0000 0000 0000 0000 0000 0000 0000 0000
00000140: 0000 0000 0000 0000 0000 0000 0000 0000
00000150: 0000 0000 0000 0000 0000 0000 0000 0000
00000160: 0000 0000 0000 0000 0000 0000 0000 0000
00000170: 0000 0000 0000 0000 0000 0000 0000 0000
00000180: 0000 0000 0000 0000 0000 0000 0000 0000
00000190: 0000 0000 0000 0000 0000 0000 0000 0000
000001a0: 0000 0000 0000 0000 0000 0000 0000 0000
000001b0: 0000 0000 0000 0000 0000 0000 0000 0000
000001c0: 0000 0000 0000 0000 0000 0000 0000 0000
000001d0: 0000 0000 0000 0000 0000 0000 0000 0000
000001e0: 0000 0000 0000 0000 0000 0000 0000 0000
000001f0: 0000 0000 0000 0000 0000 0000 0000 0000
00000200: 0000 0000 0000 0000 0000 0000 0000 0000
00000210: 0000 0000 0000 0000 0000 0000 0000 0000
00000220: 0000 0000 0000 0000 0000 0000 0000 0000
00000230: 0000 0000 0000 0000 0000 0000 0000 0000
00000240: 0000 0000 0000 0000 0000 0000 0000 0000
00000250: 0000 0000 0000 0000 0000 0000 0000 0000
00000260: 0000 0000 0000 0000 0000 0000 0000 0000
00000270: 0000 0000 0000 0000 0000 0000 0000 0000
00000280: 0000 0000 0000 0000 0000 0000 0000 0000
00000290: 0000 0000 0000 0000 0000 0000 0000 0000
000002a0: 0000 0000 0000 0000 0000 0000 0000 0000
000002b0: 0000 0000 0000 0000 0000 0000 0000 0000
000002c0: 0000 0000 0000 0000 0000 0000 0000 0000
000002d0: 0000 0000 0000 0000 0000 0000 0000 0000
000002e0: 0000 0000 0000 0000 0000 0000 0000 0000
000002f0: 0000 0000 0000 0000 0000 0000 0000 0000
00000300: 0000 0000 0000 0000 0000 0000 0000 0000
00000310: 0000 0000 0000 0000 0000 0000 0000 0000
00000320: 0000 0000 0000 0000 0000 0000 0000 0000
00000330: 0000 0000 0000 0000 0000 0000 0000 0000
00000340: 0000 0000 0000 0000 0000 0000 0000 0000
00000350: 0000 0000 0000 0000 0000 0000 0000 0000
00000360: 0000 0000 0000 0000 0000 0000 0000 0000
00000370: 0000 0000 0000 0000 0000 0000 0000 0000
00000380: 0000 0000 0000 0000 0000 0000 0000 0000
00000390: 0000 0000 0000 0000 0000 0000 0000 0000
000003a0: 0000 0000 0000 0000 0000 0000 0000 0000
000003b0: 0000 0000 0000 0000 0000 0000 0000 0000
000003c0: 0000 0000 0000 0000 0000 0000 0000 0000
000003d0: 0000 0000 0000 0000 0000 0000 0000 0000
000003e0: 0000 0000 0000 0000 0000 0000 0000 0000
000003f0: 0000 0000 0000 0000 0000 0000 0000 0000

exp_avg_sq f4 [128, 32]
0.0 0.0 0.0 0.0 0.0 0.0 0.0 0.0
0.0 0.0 0.0 0.0 0.0 0.0 0.0 0.0
0.0 0.0 0.0 0.0 0.0 0.0 0.0 0.0
0.0 0.0 0.0 0.0 0.0 0.0 0.0 0.0
0.0 0.0 0.0 0.0 0.0 0.0 0.0 0.0
0.0 0.0 0.0 0.0 0.0 0.0 0.0 0.0
0.0 0.0 0.0 0.0 0.0 0.0 0.0 0.0
0.0 0.0 0.0 0.0 0.0 0.0 0.0 0.0
0.0 0.0 0.0 0.0 0.0 0.0 0.0 0.0
0.0 0.0 0.0 0.0 0.0 0.0 0.0 0.0
0.0 0.0 0.0 0.0 0.0 0.0 0.0 0.0
0.0 0.0 0.0 0.0 0.0 0.0 0.0 0.0
0.0 0.0 0.0 0.0 0.0 0.0 0.0 0.0
0.0 0.0 0.0 0.0 0.0 0.0 0.0 0.0
0.0 0.0 0.0 0.0 0.0 0.0 0.0 0.0
0.0 0.0 0.0 0.0 0.0 0.0 0.0 0.0
0.0 0.0 0.0 0.0 0.0 0.0 0.0 0.0
0.0 0.0 0.0 0.0 0.0 0.0 0.0 0.0
0.0 0.0 0.0 0.0 0.0 0.0 0.0 0.0
0.0 0.0 0.0 0.0 0.0 0.0 0.0 0.0
0.0 0.0 0.0 0.0 0.0 0.0 0.0 0.0
0.0 0.0 0.0 0.0 0.0 0.0 0.0 0.0
0.0 0.0 0.0 0.0 0.0 0.0 0.0 0.0
0.0 0.0 0.0 0.0 0.0 0.0 0.0 0.0
0.0 0.0 0.0 0.0 0.0 0.0 0.0 0.0
0.0 0.0 0.0 0.0 0.0 0.0 0.0 0.0
0.0 0.0 0.0 0.0 0.0 0.0 0.0 0.0
0.0 0.0 0.0 0.0 0.0 0.0 0.0 0.0
0.0 0.0 0.0 0.0 0.0 0.0 0.0 0.0
0.0 0.0 0.0 0.0 0.0 0.0 0.0 0.0
0.0 0.0 0.0 0.0 0.0 0.0 0.0 0.0
0.0 0.0 0.0 0.0 0.0 0.0 0.0 0.0
00000000: 0000 0000 0000 0000 0000 0000 0000 0000
00000010: 0000 0000 0000 0000 0000 0000 0000 0000
00000020: 0000 0000 0000 0000 0000 0000 0000 0000
00000030: 0000 0000 0000 0000 0000 0000 0000 0000
00000040: 0000 0000 0000 0000 0000 0000 0000 0000
00000050: 0000 0000 0000 0000 0000 0000 0000 0000
00000060: 0000 0000 0000 0000 0000 0000 0000 0000
00000070: 0000 0000 0000 0000 0000 0000 0000 0000
00000080: 0000 0000 0000 0000 0000 0000 0000 0000
00000090: 0000 0000 0000 0000 0000 0000 0000 0000
000000a0: 0000 0000 0000 0000 0000 0000 0000 0000
000000b0: 0000 0000 0000 0000 0000 0000 0000 0000
000000c0: 0000 0000 0000 0000 0000 0000 0000 0000
000000d0: 0000 0000 0000 0000 0000 0000 0000 0000
000000e0: 0000 0000 0000 0000 0000 0000 0000 0000
000000f0: 0000 0000 0000 0000 0000 0000 0000 0000
00000100: 0000 0000 0000 0000 0000 0000 0000 0000
00000110: 0000 0000 0000 0000 0000 0000 0000 0000
00000120: 0000 0000 0000 0000 0000 0000 0000 0000
00000130: 0000 0000 0000 0000 0000 0000 0000 0000
00000140: 0000 0000 0000 0000 0000 0000 0000 0000
00000150: 0000 0000 0000 0000 0000 0000 0000 0000
00000160: 0000 0000 0000 0000 0000 0000 0000 0000
00000170: 0000 0000 0000 0000 0000 0000 0000 0000
00000180: 0000 0000 0000 0000 0000 0000 0000 0000
00000190: 0000 0000 0000 0000 0000 0000 0000 0000
000001a0: 0000 0000 0000 0000 0000 0000 0000 0000
000001b0: 0000 0000 0000 0000 0000 0000 0000 0000
000001c0: 0000 0000 0000 0000 0000 0000 0000 0000
000001d0: 0000 0000 0000 0000 0000 0000 0000 0000
000001e0: 0000 0000 0000 0000 0000 0000 0000 0000
000001f0: 0000 0000 0000 0000 0000 0000 0000 0000
00000200: 0000 0000 0000 0000 0000 0000 0000 0000
00000210: 0000 0000 0000 0000 0000 0000 0000 0000
00000220: 0000 0000 0000 0000 0000 0000 0000 0000
00000230: 0000 0000 0000 0000 0000 0000 0000 0000
00000240: 0000 0000 0000 0000 0000 0000 0000 0000
00000250: 0000 0000 0000 0000 0000 0000 0000 0000
00000260: 0000 0000 0000 0000 0000 0000 0000 0000
00000270: 0000 0000 0000 0000 0000 0000 0000 0000
00000280: 0000 0000 0000 0000 0000 0000 0000 0000
00000290: 0000 0000 0000 0000 0000 0000 0000 0000
000002a0: 0000 0000 0000 0000 0000 0000 0000 0000
000002b0: 0000 0000 0000 0000 0000 0000 0000 0000
000002c0: 0000 0000 0000 0000 0000 0000 0000 0000
000002d0: 0000 0000 0000 0000 0000 0000 0000 0000
000002e0: 0000 0000 0000 0000 0000 0000 0000 0000
000002f0: 0000 0000 0000 0000 0000 0000 0000 0000
00000300: 0000 0000 0000 0000 0000 0000 0000 0000
00000310: 0000 0000 0000 0000 0000 0000 0000 0000
00000320: 0000 0000 0000 0000 0000 0000 0000 0000
00000330: 0000 0000 0000 0000 0000 0000 0000 0000
00000340: 0000 0000 0000 0000 0000 0000 0000 0000
00000350: 0000 0000 0000 0000 0000 0000 0000 0000
00000360: 0000 0000 0000 0000 0000 0000 0000 0000
00000370: 0000 0000 0000 0000 0000 0000 0000 0000
00000380: 0000 0000 0000 0000 0000 0000 0000 0000
00000390: 0000 0000 0000 0000 0000 0000 0000 0000
000003a0: 0000 0000 0000 0000 0000 0000 0000 0000
000003b0: 0000 0000 0000 0000 0000 0000 0000 0000
000003c0: 0000 0000 0000 0000 0000 0000 0000 0000
000003d0: 0000 0000 0000 0000 0000 0000 0000 0000
000003e0: 0000 0000 0000 0000 0000 0000 0000 0000
000003f0: 0000 0000 0000 0000 0000 0000 0000 0000
