dl_computer_vision/assignments/1/checkpoints/best_checkpoint-v6.ckpt (torch, 168892 bytes, 27 tensors)

model.lstm.weight_ih_l0 f4 [128, 1]
0	0x3c8d0e94	0.017218865
1	0x3dd518de	0.10405134
2	0xbe178c63	-0.14799647
3	0x3da437aa	0.080184296
4	0x3cfb612c	0.030685984
5	0x3db5443d	0.08850906
6	0xbdba24be	-0.09089039
7	0xbd563950	-0.05230075
8	0x3e080792	0.13284138
9	0x3d47d8e6	0.048790835
10	0x3e05a2fe	0.13050458
11	0x3cd2e97f	0.025746105
12	0x3e255c23	0.16148429
13	0xbe12157b	-0.14266007
14	0xbd12a6c2	-0.035803564
15	0xbc4f37d6	-0.01264759
16	0xbe15f29a	-0.14643326
17	0x3e105b6f	0.14097379
18	0xba837349	-0.0010028864
19	0x3cab1361	0.020883264
20	0x3cc74a16	0.02432732
21	0x3e3275d4	0.1742776
22	0x3e0f1719	0.13973655
23	0x3cde3272	0.027123664
24	0xbe1c4fdc	-0.15264839
25	0x3c91febc	0.017821662
26	0x3d605a53	0.05477364
27	0x3d310e94	0.043226793
28	0x3c85ba05	0.016324053
29	0xbdbbfd5d	-0.091791846
30	0xbdc245c8	-0.09485966
31	0xbd11d42a	-0.035602726
32	0x3e08951f	0.13338135
33	0x3e0a38de	0.13498256
34	0x3d4edc60	0.050503135
35	0xbcef546c	-0.02921506
36	0xbe26af1f	-0.16277741
37	0xbe11f2e3	-0.1425281
38	0xbe173759	-0.14767207
39	0xbe03c444	-0.12867838
40	0xbe22b43b	-0.15889065
41	0xbdde9141	-0.10867549
42	0xbd722d02	-0.059124954
43	0xbe26eb84	-0.1630078
44	0x3d36d7e6	0.04463949
45	0xbdc5aee6	-0.096525
46	0xbc559919	-0.01303699
47	0xbd948b2d	-0.07253108
48	0xbc0db6ea	-0.008649567
49	0x3e21f3b0	0.15815616
50	0x3e133758	0.1437658
51	0x3e228730	0.15871882
52	0x3dc5f22d	0.09665332
53	0x3bf254d4	0.007395366
54	0xbd82af46	-0.06381087
55	0x3e09bd3d	0.13451095
56	0x3e0b1763	0.1358314
57	0xbc043a5b	-0.008070554
58	0xbd31cca2	-0.043408044
59	0x3d83cf19	0.06435985
60	0xbdfef723	-0.12449481
61	0xbe11c541	-0.14235403
62	0xbdb62f39	-0.08895726
63	0x3e310664	0.17287594
64	0xbcfac824	-0.030613013
65	0xbd0d2265	-0.03445663
66	0x3e266931	0.16251065
67	0xbd47b26f	-0.048754152
68	0x3e1485af	0.14504121
69	0xbdd6ff3d	-0.104979016
70	0x3e24a5fc	0.16078943
71	0xbdc8cef3	-0.098050974
72	0xbdaf98f5	-0.08574096
73	0xbe0734f6	-0.13203797
74	0xbdcd884b	-0.100357614
75	0x3e297a4c	0.16550559
76	0x3db3e64a	0.087841585
77	0xbe1a32cb	-0.15058438
78	0x3da0a328	0.078436196
79	0x3e290e67	0.165094
80	0xbe050475	-0.12989981
81	0xbdab5615	-0.08366028
82	0x3d92066f	0.07130133
83	0x3d8002a5	0.062505044
84	0xbdcce0b5	-0.10003797
85	0xbe1603c1	-0.1464987
86	0xbd6de4be	-0.058079474
87	0x3e24a1ff	0.16077422
88	0x3e29d129	0.16583695
89	0xbdb509a9	-0.08839733
90	0xbd38b7df	-0.04509723
91	0x3dfcb95a	0.123400405
92	0xbd94de40	-0.07268953
93	0xbd988fb6	-0.07449286
94	0x3d6830c2	0.056687124
95	0x3e26df92	0.16296223
96	0x3e03953f	0.12849902
97	0xbd116cd3	-0.035504173
98	0x3df196f5	0.11796371
99	0x3c7127b2	0.014718937
100	0x3983ea60	0.0002516089
101	0xbe244b54	-0.1604436
102	0x3e268473	0.16261463
103	0x3d66d605	0.05635645
104	0x3d1b1b28	0.037867695
105	0xbdeb29b6	-0.11482565
106	0x3c5b157b	0.013371821
107	0x3e1c5439	0.15266503
108	0x3c8f3197	0.017479701
109	0x3d5d3a40	0.05401063
110	0x3dd09cfc	0.101861924
111	0xbc6abf64	-0.014327858
112	0xbd428000	-0.04748535
113	0x3e24c8e4	0.16092259
114	0xbd3434df	-0.043995734
115	0x3c7c9b85	0.015417938
116	0x3c64d166	0.01396594
117	0x3e24d186	0.16095552
118	0x3e3018bc	0.17196935
119	0xbe159fa8	-0.14611685
120	0xbdbe1351	-0.09281028
121	0x3e0471ee	0.12934086
122	0x3e26025e	0.1621184
123	0x3c4609d1	0.012087301
124	0x3dae53ff	0.08512115
125	0x3db6c0ec	0.08923516
126	0x3dad8152	0.084719315
127	0x3da244ea	0.079233006

model.lstm.weight_hh_l0 f4 [128, 32]
0	0xbd9245f7	-0.07142251
1	0xbc54ef37	-0.012996486
2	0x3d25387d	0.040337075
3	0x3e09c00a	0.13452163
4	0xbe19f90f	-0.15036415
5	0x3df6c331	0.120489486
6	0xbd50ad47	-0.0509465
7	0x3deee6db	0.11665126
8	0x3e1366cc	0.14394683
9	0x3dad0699	0.08448524
10	0x3ddd3b8e	0.10802375
11	0xbd97508c	-0.0738841
12	0x3c53f705	0.012937312
13	0xbae5ebba	-0.0017541565
14	0xbdbcfe77	-0.09228223
15	0xbd5d89a3	-0.05408634
16	0x3e0df6e9	0.1386372
17	0xbdbdacb6	-0.092614576
18	0xbde0eb77	-0.10982411
19	0xbd7b7615	-0.06139191
20	0x3e0d1ab5	0.13779719
21	0x3bdc0219	0.0067141172
22	0x3d3ba44c	0.045810983
23	0x3b45a9ff	0.003016114
24	0xbde416a4	-0.11137131
25	0xbd7790ed	-0.060440946
26	0xbd61934b	-0.05507211
27	0xbd755bc0	-0.059901953
28	0xbda981b3	-0.08276691
29	0xbdb5c72d	-0.088758804
30	0xbc9a0b61	-0.018804254
31	0xbd01c78d	-0.031684447
32	0x3e0369ed	0.12833376
33	0xbd573245	-0.052538175
34	0x3e2122ef	0.15735982
35	0xbd20419f	-0.03912508
36	0xbd6c2247	-0.057649877
37	0xbdc71bab	-0.09722074
38	0xbe0e972f	-0.1392486
39	0x3e0dfc51	0.13865782
40	0xbcd9c677	-0.026583893
41	0x3da2018d	0.07910452
42	0x3e0368b2	0.12832907
43	0xbca12686	-0.01967169
44	0x3d56572d	0.05232923
45	0xbe01f300	-0.12690353
46	0xbe0b8116	-0.13623461
47	0x3cda67c1	0.026660802
48	0xbae5770e	-0.0017506795
49	0xbdaf650b	-0.08564194
50	0xbd04f7c6	-0.032462858
51	0x3c826ffa	0.015922535
52	0xbde3d516	-0.11124627
53	0xbda08a27	-0.078388505
54	0x3d4d608d	0.050140906
55	0x3d8efdf7	0.06982034
56	0x3dc684e1	0.096933134
57	0xbe1ec7e8	-0.15505946
58	0xbc38b23c	-0.011272963
59	0x3d9cbdfd	0.07653425
60	0xbded4c3f	-0.115868084
61	0xbdc1bee9	-0.09460241
62	0x3d0481d7	0.032350387
63	0xbdd0c3af	-0.10193574
64	0xbd80eab9	-0.0629477
65	0x3e20eaa4	0.15714508
66	0x3dacbc98	0.08434409
67	0x3c9f5bec	0.019453011
68	0x3dc2f242	0.09518863
69	0xbdd1bf1d	-0.1024153
70	0xbe2077ec	-0.15670747
71	0x3dc1b23a	0.09457822
72	0x3e050eab	0.12993877
73	0x3db47bc1	0.08812667
74	0x3e07630a	0.13221374
75	0x3e1c91c3	0.15289979
76	0x3c283216	0.010265848
77	0xbcd4a9a7	-0.025959803
78	0xbc154547	-0.009110755
79	0xbcdbadd2	-0.026816282
80	0x3d8a5b0d	0.06755648
81	0x3e152109	0.14563383
82	0xbe1afd48	-0.15135682
83	0xbd45446a	-0.048160948
84	0xbe068570	-0.1313684
85	0xbdebfee1	-0.11523224
86	0xbc242bbf	-0.0100201955
87	0x3e286827	0.16445981
88	0xbc912755	-0.01771895
89	0x3e1ef491	0.15522982
90	0xbe308ceb	-0.17241256
91	0x3a962e72	0.0011457934
92	0x3dfc4cb6	0.12319319
93	0x3ae7c08a	0.0017681282
94	0x3c244fb8	0.010028772
95	0xbdc83acf	-0.09776842
96	0xbd8ace41	-0.06777621
97	0x3e343dfe	0.17601773
98	0x3deb6a1c	0.11494848
99	0xbe19614d	-0.14978524
100	0xba2f66d2	-0.00066910416
101	0x3e19dde5	0.15026052
102	0x3da9a29f	0.08282971
103	0x3bfdac47	0.0077414843
104	0x3dc60629	0.09669144
105	0xbdf5f4ac	-0.12009558
106	0x3cefad6e	0.029257502
107	0xbe049f16	-0.12951311
108	0x3dd5f9e5	0.10448054
109	0xbda463ac	-0.080268234
110	0xbd0da9ec	-0.03458588
111	0xbd4c59dc	-0.049890384
112	0x3d573245	0.052538175
113	0x3b45e8ed	0.003019865
114	0xbcfa6809	-0.030567186
115	0x3dfc8945	0.123308696
116	0x3daa6f1c	0.08321974
117	0x3e1c51e2	0.15265611
118	0x3e02aff5	0.12762435
119	0xbe15b1fb	-0.14618675
120	0xbe073225	-0.13202722
121	0xbe01e3e0	-0.12684584
122	0xbb982e36	-0.0046441806
123	0xbe2d1c64	-0.16905361
124	0x3e0b1001	0.13580324
125	0xbdded5a8	-0.108805954
126	0xbc8671b9	-0.016411649
127	0x3e150af5	0.14554961
128	0x3d9159ea	0.07097228
129	0x3dda0223	0.10644939
130	0x3e07280a	0.13198867
131	0x3dac8e9f	0.0842564
132	0x3baca898	0.0052691214
133	0xbe2e8655	-0.17043431
134	0x3c958605	0.018252382
135	0xbca1b550	-0.019739777
136	0x3e142f35	0.14471133
137	0x3be959fd	0.007121323
138	0xbda39d87	-0.0798903
139	0x3d91c2b0	0.07117212
140	0xbc1ac372	-0.009446012
141	0xbde6faa9	-0.112782784
142	0xbdf1e6dc	-0.11811611
143	0x3b0a1298	0.0021068212
144	0x3d7f1503	0.062275898
145	0xbe21afb9	-0.15789689
146	0xbd961f95	-0.073302425
147	0x3ca8e809	0.020618455
148	0xbe1fa948	-0.1559192
149	0x3dff7638	0.1247372
150	0xbde52743	-0.11189129
151	0xbd076a72	-0.0330605
152	0xbdb611d5	-0.0889012
153	0x3e07deaf	0.13268541
154	0x3dfb9dac	0.12285933
155	0x3d13ab93	0.036052298
156	0xbd2bea0d	-0.041971255
157	0x3dca5312	0.09879126
158	0xbe00ecb2	-0.12590292
159	0xbe2e060d	-0.16994496
160	0xbe10f1ac	-0.1415469
161	0x3d86d600	0.06583786
162	0xbd8f6855	-0.07002322
163	0xbd39f946	-0.04540374
164	0x3d552478	0.052036732
165	0x3e1e86cf	0.15481113
166	0xbe0347fc	-0.12820429
167	0xbe2c68bb	-0.16836827
168	0xbd0524f1	-0.032505933
169	0xbe1bc72a	-0.15212694
170	0x3e2ba2a8	0.16761267
171	0x3d37310a	0.0447245
172	0xbd2f977b	-0.042869072
173	0x3db2a943	0.0872369
174	0xbd466380	-0.048434734
175	0xbdc81ebf	-0.09771489
176	0x3da98079	0.08276457
177	0x3d6071fa	0.054796197
178	0xbd944a30	-0.07240713
179	0x3e1bc6dc	0.15212578
180	0xbde9d33f	-0.11417245
181	0x3a244878	0.0006266902
182	0x3d8001c4	0.06250337
183	0xbd681a1f	-0.056665536
184	0xbd50dc96	-0.050991617
185	0xbbbbeb6e	-0.0057348525
186	0x3aaef007	0.001334668
187	0xbd490362	-0.04907549
188	0x3dc6b50d	0.097025014
189	0xbe120e46	-0.14263257
190	0x3da5ee59	0.08102102
191	0xbc15b33b	-0.00913697
192	0x3b3ef5d9	0.0029138236
193	0x3e203d7d	0.15648456
194	0xbdea0182	-0.11426069
195	0x3e22873b	0.15871899
196	0x3e1fedc4	0.15618044
197	0x3d856cb0	0.06514871
198	0xbe2bdb83	-0.16782956
199	0x3e2caf79	0.16863813
200	0xbdd46cb3	-0.10372295
201	0x3bbf9300	0.005846381
202	0xbdaddaa2	-0.084889665
203	0xbe30338e	-0.17207167
204	0xbe277708	-0.16354
205	0xbd5538c1	-0.052056078
206	0x3dd717c9	0.105025835
207	0xbd62d60b	-0.05537991
208	0x3e174815	0.14773591
209	0x3d57feb1	0.052733127
210	0xbe01192f	-0.12607263
211	0x3d2a810d	0.04162698
212	0xbc5f18bb	-0.013616736
213	0xbe0bfba3	-0.1367021
214	0x3d8c7937	0.068590574
215	0x3e27c189	0.16382422
216	0xbe03fe29	-0.12889923
217	0x3dfb4811	0.12269605
218	0xbcbe7a1a	-0.023251582
219	0xbde15ede	-0.110044226
220	0x3be157b2	0.006876909
221	0x3e079b70	0.13242888
222	0xbd308b1f	-0.043101426
223	0x3d2e9dac	0.042630836
224	0x3db5e565	0.08881644
225	0x3d6a1bb4	0.057155326
226	0x3deabc49	0.11461694
227	0xbd98b0a7	-0.07455569
228	0x3d6ac788	0.057319194
229	0xbdff748a	-0.124734
230	0xbe1b511f	-0.15167664
231	0x3d1ebd5a	0.0387548
232	0xbe30f2a0	-0.17280054
233	0x3d4f61e9	0.050630484
234	0x3ab687dd	0.0013925988
235	0x3df10069	0.11767656
236	0x3e1ca768	0.15298235
237	0xbe15c42b	-0.14625613
238	0xbe30fde1	-0.17284347
239	0xbd76b1b9	-0.060228083
240	0xbdc626b9	-0.096753545
241	0x3dfc4baa	0.12319119
242	0xbd8b9924	-0.06816319
243	0x3e2a3faf	0.16625856
244	0x3d72bc22	0.05926145
245	0xbdceeeac	-0.10104117
246	0xbdb5d43a	-0.0887837
247	0x3c6cf3ea	0.0144624505
248	0xbe1c9735	-0.15292056
249	0xbdfcb040	-0.123383045
250	0xbd73e572	-0.059544988
251	0xbe15f0df	-0.14642666
252	0xbe17b096	-0.14813456
253	0xbe228a5c	-0.15873092
254	0x3d86e76c	0.06587109
255	0xbdeccd7f	-0.11562633

model.lstm.bias_ih_l0 f4 [128]
0	0x3e4a883c	0.19778532
1	0xbc214449	-0.009842941
2	0xbd8e5709	-0.069501944
3	0x3dce58f6	0.10075562
4	0x3d212ec3	0.039351236
5	0x3de9dfa1	0.11419607
6	0x3c19307c	0.0093499385
7	0xbdd3cd2a	-0.10341866
8	0x3d6d92a6	0.058001183
9	0x3d3370eb	0.04380886
10	0xbdd657e2	-0.10465981
11	0xbc8e0c71	-0.017339917
12	0x3d19dd44	0.03756453
13	0xbd7f5d0d	-0.0623446
14	0xbdf5bbe6	-0.119987294
15	0x3dc76bca	0.09737356
16	0xbe0f94dc	-0.14021629
17	0xbdaf4965	-0.08558921
18	0x3e46d399	0.19416656
19	0x3e61384f	0.21994136
20	0x3e485f5b	0.19567625
21	0x3c57ed1a	0.013179088
22	0x3dde5080	0.10855198
23	0xbe244613	-0.16042356
24	0x3e224624	0.15847069
25	0x3e4e0e44	0.2012263
26	0x3e414f56	0.1887792
27	0xbd8a2f99	-0.0674736
28	0x3de9b04f	0.11410581
29	0x3cb24696	0.021762174
30	0xbd7295b7	-0.05922481
31	0x3da5e6ba	0.08100648
32	0xbd687d50	-0.056760132
33	0x3e100563	0.14064555
34	0xbe16fc17	-0.14744602
35	0xbda61b2f	-0.081106536
36	0xbe25b5bb	-0.16182606
37	0xbd4d834f	-0.050174054
38	0xbe028fd4	-0.12750179
39	0xbdb97f49	-0.09057481
40	0x3d380bb6	0.044933043
41	0xbd158cf0	-0.03651136
42	0x3b10c7b2	0.0022091684
43	0x3d23173e	0.039817087
44	0xbe032493	-0.1280692
45	0xbde4b253	-0.11166825
46	0xbe0e3d6d	-0.1389062
47	0x3d0d34ad	0.034474064
48	0xbdc1ea05	-0.09468464
49	0x3d8daf04	0.06918147
50	0x3e167674	0.14693624
51	0xbdf89edb	-0.12139674
52	0x3d2aa041	0.041656736
53	0x3e219ef9	0.157833
54	0xbe193fff	-0.14965819
55	0xbe1571c9	-0.14594187
56	0xbc8628cd	-0.016376877
57	0xbdb51e6c	-0.08843693
58	0xbd25d375	-0.040484864
59	0xbdd55e5d	-0.10418389
60	0xbd9e12a1	-0.07718397
61	0x3dbc8576	0.09205143
62	0x3d9f3d43	0.077753566
63	0x3d2466ec	0.040137216
64	0x3ce44d1e	0.027868804
65	0x3be92c10	0.0071158484
66	0xbe194fbd	-0.14971824
67	0xbdec736d	-0.11545453
68	0xbdf5c264	-0.11999968
69	0xbdb95481	-0.09049321
70	0x3d28d02b	0.04121415
71	0xbe0578fe	-0.13034436
72	0xbd5d9da6	-0.054105423
73	0x3de526ee	0.11189066
74	0x3e1e7c03	0.15476994
75	0xbd412ad9	-0.047160003
76	0xbdb9ad4f	-0.09066259
77	0x3c946fc6	0.018119704
78	0xbdb51436	-0.088417456
79	0x3c45d1ae	0.012073917
80	0xbd62eca6	-0.055401467
81	0xbe2c6b51	-0.16837813
82	0xbd12d9c6	-0.035852216
83	0x3ccaf9cd	0.024777317
84	0x3db48a8a	0.08815487
85	0x3e05dbe5	0.13072164
86	0xbc87c8cd	-0.016575241
87	0x3c1b0a6c	0.009462934
88	0x3e282384	0.16419798
89	0xbdc998c0	-0.09843588
90	0xbe43fc63	-0.19139247
91	0xbe2442d5	-0.1604112
92	0xbaeb565c	-0.0017954814
93	0x3e01b794	0.12667686
94	0x3d4b8238	0.049684733
95	0x3c9c16a3	0.019053763
96	0x3e3f153b	0.18660443
97	0xbd01d6fc	-0.031699166
98	0xbe0e276c	-0.13882226
99	0x3e2d2c74	0.16911489
100	0x3d5fcb06	0.054636978
101	0x3deed2b6	0.11661284
102	0xbd96ee48	-0.07369667
103	0x3e46ae35	0.19402392
104	0x3dc4bf43	0.09606793
105	0x3e268724	0.1626249
106	0x3c8de968	0.01732321
107	0xbd30afb0	-0.0431363
108	0xbdca09d7	-0.09865158
109	0x3d5ac23f	0.053407904
110	0x38bb19c5	8.921655e-05
111	0xbdc34d99	-0.09536285
112	0xbd732d7f	-0.05936956
113	0x3d0e6654	0.034765556
114	0x3e27f24b	0.16401021
115	0xbdb0f087	-0.08639627
116	0x3d56e5a9	0.052465115
117	0x3b142b51	0.0022608826
118	0x3dfff2d5	0.124974884
119	0xbdd027d2	-0.10163845
120	0x3dce1fcf	0.10064661
121	0xbdd31500	-0.1030674
122	0xbd96c6a9	-0.0736211
123	0xbdd28a15	-0.10280243
124	0xbdac405b	-0.08410712
125	0xbad8034c	-0.0016480475
126	0x3d4c520c	0.049882933
127	0x3e3dd344	0.18537623

model.lstm.bias_hh_l0 f4 [128]
0	0xbba5ff3f	-0.005065828
1	0x3e1cb774	0.15304357
2	0xbdd4dc09	-0.10393531
3	0xbda4bb15	-0.080434956
4	0xbd9aba93	-0.075551175
5	0xbe1d0cbb	-0.15336888
6	0x3d325798	0.043540567
7	0x3cc08fb2	0.02350602
8	0x3cf09f08	0.029372707
9	0xbc09419d	-0.00837746
10	0x3e1c6aae	0.1527507
11	0xbe051f0d	-0.13000126
12	0xbdfdfd1c	-0.124017924
13	0x3dafe490	0.08588517
14	0x3e57e951	0.21085097
15	0x3d4bebbf	0.049785372
16	0xbcbec871	-0.023288937
17	0x3e1ce60c	0.15322131
18	0x3d073c36	0.033016406
19	0x3de31240	0.11087465
20	0xbd2e50c0	-0.042557478
21	0x3e2249fd	0.15848537
22	0x3d95c152	0.073122635
23	0x3db8f442	0.090309635
24	0xbe074c44	-0.13212687
25	0x3d8c17fd	0.06840513
26	0xbd9bc0c4	-0.076051265
27	0x3df1ccf7	0.11806672
28	0x3d0ba626	0.034094
29	0x3d1bca3f	0.038034674
30	0x3d614441	0.054996733
31	0x3e4f5043	0.20245461
32	0xbdda37d8	-0.106551826
33	0xbbc79a8f	-0.006091423
34	0x3e21914d	0.15778084
35	0xbc45dd70	-0.012076721
36	0x3d6f3eb9	0.058409426
37	0x3dcc4f30	0.09976041
38	0x3dcd93e2	0.10037972
39	0x3cac0694	0.02099923
40	0xbddbfd56	-0.10741679
41	0x3d5b91fa	0.05360601
42	0x3e246835	0.16055377
43	0xbdaf7223	-0.08566692
44	0x3e043971	0.12912537
45	0xbda694d7	-0.08133858
46	0xbc0abf92	-0.0084685255
47	0x3c05095d	0.008119908
48	0xbe2a5a22	-0.16635945
49	0xbdbc213f	-0.09186029
50	0xbc1d4faa	-0.009601513
51	0x3c8f34bc	0.0174812
52	0x3cd59755	0.026073137
53	0xbddc9316	-0.10770242
54	0xbc43c44d	-0.011948657
55	0xbdbc61eb	-0.09198364
56	0x3de424a6	0.11139803
57	0x3ba6e948	0.0050937273
58	0xbd5b4c54	-0.05353959
59	0x3b3a68a4	0.0028443718
60	0x3d8da16d	0.06915555
61	0xbd86dc8a	-0.06585033
62	0x3da81f48	0.082090914
63	0x3e134f46	0.14385709
64	0xbe36e1ed	-0.17859621
65	0xbd8b4031	-0.06799353
66	0xbd8efdf1	-0.06982029
67	0xbe28f58d	-0.1649992
68	0xbd46d21e	-0.048540227
69	0xbd405e2f	-0.04696482
70	0xbe2916c8	-0.16512597
71	0x3dde0b83	0.108420394
72	0xbda6fb6f	-0.08153426
73	0xbe2fd097	-0.17169414
74	0x3dd35858	0.103195846
75	0xbe0e0c6d	-0.13871928
76	0xbabac2ea	-0.0014248763
77	0xbd193a07	-0.037408855
78	0xbd9e8f63	-0.077421926
79	0xbdd93f00	-0.106077194
80	0xbdd0407e	-0.10168551
81	0xbe2c391c	-0.1681866
82	0xbc1527c6	-0.009103721
83	0x3db74357	0.08948391
84	0x3e2b56b5	0.16732295
85	0xbdc52739	-0.09626622
86	0xbe37ae8e	-0.17937681
87	0xbda5c22d	-0.08093677
88	0xbdd432c0	-0.10361242
89	0x3e1c7b4f	0.15281413
90	0x3da5eec4	0.081021816
91	0x3e21f302	0.15815356
92	0xbc06a086	-0.008216983
93	0xbd925068	-0.071442425
94	0xbd831e49	-0.06402261
95	0x3e284cf9	0.16435613
96	0x3d437820	0.047721982
97	0xbe029033	-0.1275032
98	0x3d0e3945	0.034722585
99	0x3cc9843d	0.024599189
100	0x3e194371	0.14967133
101	0xbe269f03	-0.16271596
102	0xbd34333e	-0.04399418
103	0xbd42fa50	-0.047601998
104	0x3dd34345	0.10315565
105	0xbdcc77e1	-0.099838026
106	0xbdb038b6	-0.08604567
107	0x3e29f905	0.165989
108	0x3dbfcb70	0.093649745
109	0xbdcdb57d	-0.10044382
110	0xbd98acce	-0.07454835
111	0xbd7b26e2	-0.06131638
112	0x3e0502e2	0.12989381
113	0xbdb0ffd9	-0.08642549
114	0xbd95e41e	-0.073189005
115	0xbd3fde40	-0.046842813
116	0xbdd43430	-0.103615165
117	0x3e1d623a	0.15369502
118	0x3decdc15	0.11565415
119	0xbdeb30ca	-0.11483915
120	0xbdde33be	-0.10849713
121	0x3c499b31	0.012305067
122	0xbdd5babe	-0.10436009
123	0xbb8fb2d3	-0.004385331
124	0xbe031206	-0.12799844
125	0x3da15499	0.07877464
126	0xbdefe697	-0.117139034
127	0x3d6ac971	0.057321016

model.lstm.weight_ih_l1 f4 [128, 32]
0	0x3d56a34e	0.052401833
1	0xbe1211d9	-0.14264621
2	0x3dbee25e	0.0932052
3	0x3dd23c6f	0.10265433
4	0x3e32a2cf	0.17444919
5	0x3d8cfcbd	0.068841435
6	0x3c8f68f2	0.017506097
7	0xbcbe1f3f	-0.023208259
8	0xbda15c77	-0.078789644
9	0x3dd8d0d5	0.105867065
10	0x3dc708ea	0.09718497
11	0xbd732745	-0.059363622
12	0x3d5c5ff5	0.05380245
13	0x3e1ed718	0.15511739
14	0x3d832fee	0.06405626
15	0x3d9d9620	0.0769465
16	0x3dc26cc3	0.09493401
17	0x3d2deedd	0.042464126
18	0x3d5929d3	0.053018402
19	0xbd55e89d	-0.05222379
20	0x3db4aed8	0.08822411
21	0x3c73dcea	0.014884213
22	0x3dd0289e	0.10163997
23	0xbdf1d88f	-0.118088834
24	0x3b8eb0ad	0.0043545575
25	0x3e17df68	0.14831316
26	0x3d65ee08	0.056135207
27	0x3e26e04d	0.16296501
28	0xbe0e5b92	-0.13902119
29	0x3d7d02a2	0.06177009
30	0xbc45f6be	-0.012082754
31	0x3e24e98c	0.16104716
32	0xbdbfca83	-0.09364798
33	0x3d8df1fb	0.0693092
34	0x3c3d79af	0.011564656
35	0xbd658071	-0.056030694
36	0x3d36013b	0.044434767
37	0x3df62fee	0.120208606
38	0x3da7162a	0.08158524
39	0xbd61c6eb	-0.055121344
40	0xbe2c8d0e	-0.16850683
41	0x3bcdb6ae	0.0062778806
42	0xbe697929	-0.22800125
43	0x3e1817fd	0.14852901
44	0x3e1062cd	0.1410019
45	0xbcf0ab64	-0.0293786
46	0x3cf356b9	0.029704439
47	0x3d190e9e	0.037367456
48	0xbe1a691b	-0.15079157
49	0x3d187ef3	0.037230443
50	0x3e177afe	0.14793012
51	0xbd09bf67	-0.0336298
52	0x3c0d961e	0.008641748
53	0xbd90c7b8	-0.07069343
54	0xbd7f4fe4	-0.06233205
55	0xbcd32668	-0.02577515
56	0xbdf90549	-0.12159211
57	0x3c8a0d68	0.016852096
58	0xbe56d572	-0.2097986
59	0x3d1581c8	0.036500722
60	0x3d9a749d	0.075417735
61	0xbe2592fc	-0.16169351
62	0xbdf6e04a	-0.120544985
63	0x3e63091b	0.22171442
64	0xbe06c1c0	-0.13159847
65	0x3df4de80	0.11956501
66	0x3d7e3120	0.062058568
67	0xbe1aa63d	-0.15102477
68	0x3df95fa5	0.12176446
69	0x3ce1bc95	0.027555743
70	0x3e24ede1	0.16106369
71	0xbe595986	-0.21225557
72	0x3d84e2ed	0.06488595
73	0xbde599a7	-0.112109475
74	0xbdd70c07	-0.10500341
75	0x3dc95d1b	0.098322116
76	0xbd1243bc	-0.035709128
77	0x3d9d51e8	0.07681638
78	0x3e2c57a2	0.16830304
79	0x3e106583	0.14101224
80	0xbafd1f25	-0.001931165
81	0xbe1713c7	-0.14753638
82	0xbd4f4687	-0.05060437
83	0x3d773ca2	0.06036056
84	0xbcef862b	-0.029238781
85	0xbd9f6508	-0.07782942
86	0x3d9990ab	0.07498296
87	0x3def6b3b	0.116903745
88	0xbde04435	-0.109505095
89	0xbd9cc00b	-0.07653817
90	0xbe6189e5	-0.22025259
91	0xba63b3d0	-0.0008686157
92	0xbdad3ac3	-0.084584735
93	0xbda5973c	-0.08085486
94	0x3e201846	0.1563426
95	0x3d01c972	0.031686254
96	0xbdc641e6	-0.09680538
97	0x3daaa67c	0.083325356
98	0xbd013069	-0.03154031
99	0x3c8b1b78	0.016980872
100	0xbac45233	-0.001497811
101	0xbe1ce2b3	-0.15320854
102	0xbcee6288	-0.029099718
103	0xbe46799c	-0.19382328
104	0xbdd15875	-0.1022195
105	0xbd4e2724	-0.050330296
106	0xbe2c8ad5	-0.16849835
107	0x3e57b985	0.21066864
108	0x3e69f6b0	0.2284801
109	0x3db4b004	0.08822635
110	0x3d191bf0	0.03738016
111	0x3b635120	0.0034685805
112	0xbe123323	-0.1427732
113	0xbe4789d7	-0.19486175
114	0xbd6c2934	-0.05765648
115	0xbd87ec24	-0.06636837
116	0xbe201ba1	-0.1563554
117	0x3d54186d	0.051781107
118	0xbdd7af09	-0.10531432
119	0xbe2b85cd	-0.1675026
120	0xbd177adf	-0.036982413
121	0x3c44d914	0.012014646
122	0xbe484cb8	-0.19560516
123	0x3d515304	0.05110456
124	0x3d8e169f	0.069379084
125	0xbdc869f5	-0.09785835
126	0xbd878072	-0.06616296
127	0xbdb4d0ec	-0.08828911
128	0x3c92499b	0.017857363
129	0x3d6cdd4b	0.05782823
130	0xbd89ef89	-0.06735141
131	0xbcb4e098	-0.02207975
132	0xbdb97ab7	-0.09056609
133	0x3dc7bd99	0.0975296
134	0xbcbc0c69	-0.022955136
135	0xbe0d9516	-0.13826403
136	0xbe499162	-0.19684365
137	0x3c967c31	0.018369766
138	0xbe1b34f5	-0.1515692
139	0x3d1da7cd	0.038490105
140	0x3e1e38b2	0.15451315
141	0xbe322359	-0.17396297
142	0x3c63b277	0.01389753
143	0xbe1e8860	-0.1548171
144	0x3cbc0ca8	0.022955254
145	0x3d65daef	0.056116994
146	0xbe015419	-0.12629737
147	0x3e4b802a	0.1987311
148	0xbcee1c3e	-0.029066201
149	0x3d573bb1	0.05254716
150	0xbdb43a43	-0.08800175
151	0x3d174adc	0.036936626
152	0xbdd2a5ab	-0.10285505
153	0x3dcdab15	0.10042397
154	0xbd074681	-0.033026222
155	0x3e499845	0.19686992
156	0x3de82ae0	0.11336303
157	0xbd0f0ec2	-0.034926184
158	0x3db383fd	0.08765409
159	0xbd3b1dda	-0.045682766
160	0xbd4f61d8	-0.05063042
161	0x3d9e5aac	0.07732138
162	0x3bf2c3eb	0.007408609
163	0xbe6ed9d7	-0.23325287
164	0x3e2a3572	0.1662195
165	0x3da27680	0.07932758
166	0x3c70e243	0.0147023825
167	0xbc747eba	-0.014922792
168	0x3da426cf	0.08015215
169	0xbd8410f1	-0.06448544
170	0x3d842471	0.06452263
171	0xbce171bd	-0.027520055
172	0x3e24d870	0.1609819
173	0x3d8d1ba9	0.068900414
174	0x3c6fcfc4	0.0146369375
175	0x3c87c6ad	0.016574228
176	0xbd039f37	-0.03213426
177	0xbd801485	-0.06253914
178	0xbcb5e54e	-0.022204068
179	0x3ada17b0	0.001663914
180	0xbdd5c377	-0.104376726
181	0x3d8e5301	0.069494255
182	0xbe237e8c	-0.15966243
183	0xbd331263	-0.043718707
184	0xbd4ab00f	-0.04948431
185	0x3d3ee1c4	0.046602026
186	0xbe3a5847	-0.18197738
187	0x3e5c99b1	0.21543004
188	0xbe73789d	-0.23776479
189	0x3ddc4fb0	0.10757387
190	0x3ddaff14	0.106931835
191	0xbdefb951	-0.11705268
192	0x3e42eb29	0.19035019
193	0x3dc1d0af	0.09463631
194	0xbcdaa229	-0.026688652
195	0x3d81dd32	0.06341018
196	0x3e3c4b98	0.18388212
197	0x3dd72138	0.10504383
198	0x3d4f412e	0.05059927
199	0x3da7d1c8	0.081943095
200	0xbd19c738	-0.037543505
201	0xbe1c18cd	-0.15243836
202	0xbcef5483	-0.029215103
203	0xbc444321	-0.011978895
204	0x3e2a8c12	0.16654995
205	0x3e34463f	0.17604922
206	0x3cf2bbc6	0.029630553
207	0xbd87419f	-0.06604313
208	0x3e1bf318	0.15229452
209	0x3e0a4d7a	0.13506117
210	0x3d3fb9dc	0.04680811
211	0xbcfff279	-0.03124355
212	0xbe0cf3ef	-0.13764928
213	0x3c0e7f73	0.008697378
214	0xbe204297	-0.15650402
215	0x3e188b41	0.14896871
216	0x3e0b8110	0.13623452
217	0xbc599bbb	-0.013281758
218	0xbe02016e	-0.12695858
219	0x3dc84aee	0.09779917
220	0x3e10a61c	0.14125866
221	0xbe1244a4	-0.14283997
222	0x3e2a6e06	0.16643533
223	0x3d89420d	0.06702051
224	0xbe3b9e8f	-0.18322204
225	0xbd708888	-0.058723956
226	0xbddc9261	-0.10770107
227	0xbe23a465	-0.1598068
228	0xbd712213	-0.058870386
229	0xbd6d810a	-0.05798439
230	0xbe0bb7de	-0.13644359
231	0xbe354c46	-0.17704877
232	0x3dc1e359	0.09467191
233	0x3d009186	0.031388782
234	0xbe2239ba	-0.15842333
235	0x3dfb37f2	0.1226653
236	0x3dc08946	0.09401183
237	0xbdb4b658	-0.08823842
238	0x3b97e6fe	0.0046356907
239	0xbdc564e6	-0.096383855
240	0x3e190777	0.14944254
241	0x3ce7363e	0.028224107
242	0xbde20788	-0.11036593
243	0xbd9b5855	-0.075852074
244	0x3dc13a5e	0.09434961
245	0xbe54ed5a	-0.20793667
246	0xbe3ba492	-0.18324497
247	0x3d5c083a	0.053718783
248	0xbba9390a	-0.0051642703
249	0xbe3e3a82	-0.18577006
250	0x3d968677	0.07349866
251	0x3d07cfca	0.033157147
252	0xbd4f3360	-0.050586104
253	0x3d384af9	0.044993374
254	0x3e3c0834	0.18362504
255	0xbd4b11f5	-0.049577672

model.lstm.weight_hh_l1 f4 [128, 32]
0	0x3e328fa0	0.17437601
1	0x3daf2701	0.08552361
2	0x3c3cdaf1	0.011526809
3	0xbe25aae8	-0.16178477
4	0x3ddf0a2b	0.10890611
5	0x3cf10d43	0.029425269
6	0xbc0118ad	-0.007879418
7	0x3c87d177	0.016579373
8	0xbd64f58b	-0.05589823
9	0xbd68a675	-0.05679937
10	0x3e24e3db	0.16102545
11	0x3cc62168	0.024185851
12	0xbc6bb0f1	-0.014385448
13	0x3d5001a6	0.050782822
14	0xbe1de06a	-0.15417638
15	0xbe1618e1	-0.14657928
16	0xbca113be	-0.019662734
17	0x3d870e1a	0.065944865
18	0xbe09b37f	-0.13447379
19	0xbd3ff046	-0.046860002
20	0xbdd2a98b	-0.10286244
21	0xbafa8ce5	-0.0019115476
22	0x3de86d4e	0.11348973
23	0x3dda19e4	0.106494695
24	0x3de6b639	0.11265225
25	0x3ddab5b1	0.10679186
26	0x3bb81c54	0.0056186114
27	0xbd858743	-0.0651994
28	0x3c5782ae	0.013153715
29	0x3b97f84c	0.0046377536
30	0x3daa4164	0.083132535
31	0x3df2ea78	0.118611276
32	0x3e2c7851	0.16842772
33	0xbe158ca5	-0.14604433
34	0x3e15c89f	0.14627312
35	0xbe0c6d40	-0.1371355
36	0xbd46d7ee	-0.04854577
37	0x3d732c90	0.05936867
38	0xbdb5f32c	-0.08884272
39	0x3d5f3537	0.05449411
40	0xbdc990dc	-0.09842083
41	0x3ceb5899	0.02872877
42	0x3de34e9b	0.11098977
43	0x3e126893	0.14297704
44	0x3d5709ad	0.052499462
45	0x3db8a29d	0.09015391
46	0x3dccf983	0.10008528
47	0xbdcf4373	-0.10120287
48	0xbe081980	-0.13290977
49	0xbe347951	-0.17624404
50	0xbe077e94	-0.1323188
51	0xbd304392	-0.04303319
52	0x3d524cb9	0.0513427
53	0x3d92c947	0.07167297
54	0x3de853b7	0.11344092
55	0x3e276b9e	0.16349646
56	0x3d985964	0.07438925
57	0x3e06a43c	0.13148588
58	0x3d4add8b	0.049527686
59	0x3e18c9e9	0.14920773
60	0x3db8817b	0.090090714
61	0x3df61e75	0.12017528
62	0x3cdfa79c	0.027301602
63	0xbe05d887	-0.1307088
64	0x3e2e6783	0.17031674
65	0x3c74840f	0.014924063
66	0x3c42c235	0.011887123
67	0x3d99a1e0	0.07501578
68	0x3d3ab1e5	0.04557981
69	0x3d23ff81	0.04003859
70	0x3cf8240d	0.030290628
71	0x3d0b33bc	0.033984885
72	0x3e1ae62d	0.15126868
73	0x3e1d276e	0.15347072
74	0x3cc5b133	0.024132347
75	0xbe0556ab	-0.13021342
76	0x3e245b7e	0.16050526
77	0xbe17f212	-0.14838436
78	0x3d839e30	0.06426656
79	0xbe282a36	-0.16422352
80	0x3c88d9b3	0.01670537
81	0xbd08523f	-0.03328156
82	0x3d629558	0.055318207
83	0xbdc13155	-0.094332375
84	0x3de1aafe	0.11018942
85	0x3dc90b2f	0.09816586
86	0xbdd089d5	-0.101825394
87	0x3d0ba950	0.034097016
88	0x3d9246c3	0.07142403
89	0x3dc8734d	0.09787617
90	0xbe2ea8ce	-0.17056581
91	0xbd585824	-0.052818432
92	0xbc917d07	-0.017759813
93	0x3ddb260b	0.107006155
94	0x3dacb613	0.084331654
95	0x3d5f6d2a	0.054547466
96	0x3d481bb2	0.048854537
97	0xbd69d931	-0.057091895
98	0xbda70d75	-0.081568636
99	0x3c8f93ee	0.017526593
100	0x3e2e1af1	0.17002465
101	0x3d84035e	0.06445955
102	0x3c8b74b9	0.017023431
103	0x3dbeca59	0.093159385
104	0xbd8ec5e7	-0.069713406
105	0xbe326aa7	-0.17423497
106	0x3d78a766	0.06070652
107	0xbd5f2d86	-0.054486774
108	0xbe150306	-0.14551935
109	0x3de0e468	0.10981065
110	0x3da6791b	0.08128568
111	0xbd263cc0	-0.04058528
112	0x3d9bc475	0.076058306
113	0x3d709db7	0.05874416
114	0x3e3448e3	0.17605929
115	0xbe06869f	-0.13137291
116	0x3d818003	0.063232444
117	0x3d76ebc0	0.060283422
118	0x3cf177c5	0.029476056
119	0xbde51f92	-0.11187662
120	0xbbb5e4b3	-0.0055509447
121	0xbdb905f6	-0.0903434
122	0x3c04ace9	0.008097866
123	0xbca3b6ce	-0.019984629
124	0x3dc010b6	0.09378187
125	0xbe24ce62	-0.16094354
126	0xbce42443	-0.027849322
127	0xbe0f94ef	-0.14021657
128	0x3df3fa08	0.11912924
129	0x3d9d6e61	0.07687069
130	0xbdf55040	-0.11978197
131	0x3dcc6220	0.09979653
132	0x3e2fa13e	0.17151353
133	0x3d2d37f7	0.0422897
134	0x3e1b45d4	0.15163356
135	0x3d9ccd2e	0.076563224
136	0x3e22592e	0.15854332
137	0xbdf286c1	-0.118421085
138	0x3db6662d	0.08906207
139	0x3e13bb83	0.14426999
140	0x3df8a689	0.12141139
141	0x3dfafc92	0.12255205
142	0xbd1956ef	-0.037436422
143	0xbc10957e	-0.008824704
144	0xbd9f83d7	-0.07788818
145	0xbdecee36	-0.11568873
146	0x3c499879	0.012304419
147	0xbdaf8e5d	-0.085720755
148	0xbd854884	-0.06507972
149	0x3e2d319b	0.16913454
150	0xbd6dd1a8	-0.058061272
151	0x3e03b07d	0.12860294
152	0x3d6462f3	0.055758428
153	0xbd9cc3b6	-0.076545164
154	0x3dd492e5	0.103795804
155	0x3cdcd9ad	0.026959265
156	0xbde9520e	-0.11392604
157	0x3e20ca05	0.15702064
158	0xbe1e1db2	-0.15441015
159	0x3cc51ce2	0.024061624
160	0xbdf30ffd	-0.11868284
161	0xbd75c3fb	-0.060001355
162	0x3cb7c52e	0.02243289
163	0xbe2ce7cc	-0.16885298
164	0x3de4cc5d	0.11171792
165	0xbd8941cd	-0.06702004
166	0x3cd6aa38	0.026204214
167	0xbcb7a14b	-0.022415778
168	0x3e0bb53e	0.13643357
169	0x3e1e98b3	0.15487938
170	0x3de53e9e	0.11193584
171	0x3e0a9a87	0.1353551
172	0x3cd5aab0	0.026082367
173	0xbdf04f04	-0.11733821
174	0x3dc4dd11	0.096124776
175	0xbe2d58c3	-0.16928391
176	0xbd11d22a	-0.03560082
177	0xbcdcdc54	-0.02696053
178	0xbd839a52	-0.06425919
179	0x3e0cb3cb	0.1374046
180	0x3ddf08f7	0.10890382
181	0x3e124faf	0.1428821
182	0xbe10069e	-0.14065024
183	0xbdb3436f	-0.08753096
184	0x3dae0eb4	0.08498898
185	0x3c31e30a	0.010857353
186	0x3d899934	0.06718674
187	0x3dd5007c	0.10400483
188	0xbe2a81b6	-0.16651043
189	0xbd9e3363	-0.07724645
190	0xbdfef3b6	-0.12448828
191	0xbd03455e	-0.032048576
192	0xbd02ebda	-0.031963207
193	0x3ce10826	0.027469706
194	0x3e073b4c	0.13206214
195	0x3e0d6716	0.13808855
196	0x3cade244	0.021226056
197	0xbc8d45b1	-0.017245146
198	0xbcef8a35	-0.029240707
199	0x3e17580f	0.14779685
200	0xbdeff4f5	-0.11716644
201	0xbd6ca775	-0.057776887
202	0xbd030138	-0.031983584
203	0xbe1e6a8e	-0.15470335
204	0xbe164a44	-0.14676768
205	0xbe06f035	-0.13177569
206	0xbdf0e05c	-0.11761543
207	0xbe2ba92d	-0.16763754
208	0xbde8a593	-0.11359706
209	0x3c930ed7	0.017951412
210	0xbd75fd4d	-0.06005602
211	0xbdba5379	-0.090979524
212	0x3e335ac5	0.17515095
213	0xbb5251da	-0.0032092244
214	0xbe06848e	-0.13136503
215	0x3dc71cd7	0.09722298
216	0x3d7fa970	0.062417448
217	0xbdd5f355	-0.104468025
218	0x3d8a6116	0.06756799
219	0x3c59b3c5	0.013287489
220	0xbe186e1a	-0.1488575
221	0xbd14a2d1	-0.036288086
222	0xbdcbdca3	-0.099541925
223	0xbdea6a01	-0.11446
224	0x3dcf25b7	0.101146154
225	0x3db3477d	0.0875387
226	0x3d2bd7d8	0.04195389
227	0xbe1c6e3d	-0.15276428
228	0xbd1cf325	-0.03831782
229	0xbdce404b	-0.10070857
230	0x3dd0b8f7	0.10191529
231	0xbc068cdb	-0.0082122935
232	0x3b812ab5	0.0039418587
233	0x3e2398f8	0.15976322
234	0xbe3005e0	-0.17189741
235	0x3e1dfd5e	0.15428683
236	0xbe0bfc7a	-0.13670531
237	0xbd6f9cc5	-0.058499116
238	0x3c36ea10	0.011164203
239	0xbc867bfa	-0.016416539
240	0x3d5771cd	0.052598763
241	0xbd9fe2ae	-0.078069076
242	0x3d736af1	0.05942816
243	0xbd96cea0	-0.07363629
244	0x3d662895	0.056191046
245	0x3d87cef2	0.066312686
246	0xbdb0ba44	-0.08629277
247	0x3c980013	0.018554723
248	0x3cebc825	0.02878196
249	0xbd2ba79b	-0.041907888
250	0xbd2afaf0	-0.04174322
251	0x3e0d30c5	0.13788135
252	0xbd8d3dc2	-0.06896545
253	0x3e09a2b8	0.13440979
254	0xbdcec6f4	-0.10096541
255	0x3e2e9568	0.17049181

model.lstm.bias_ih_l1 f4 [128]
0	0x3c706360	0.01467213
1	0x3d14ac08	0.036296874
2	0xbda174e6	-0.07883625
3	0x3e25924b	0.16169088
4	0x3ca99f46	0.02070583
5	0x3dfe58b1	0.1241926
6	0x3ccfe313	0.025376832
7	0xbda1e1ec	-0.07904419
8	0x3e321d5d	0.17394014
9	0x3d2bf82e	0.04198473
10	0x3e34754d	0.17622872
11	0x3e642efd	0.2228355
12	0xbdfde4f5	-0.12397186
13	0xbc603756	-0.013685068
14	0x3da2fcc8	0.079583704
15	0x3dd8d31c	0.10587141
16	0xbd8eaab5	-0.069661535
17	0xbd74dbe9	-0.059780035
18	0x3dbf67f9	0.09346003
19	0xbccd7326	-0.025079321
20	0x3d427952	0.04747898
21	0xbdbf8aac	-0.093526214
22	0x3da29ea8	0.079404175
23	0x3d091ca5	0.033474583
24	0x3e11b523	0.14229254
25	0x3e4d2062	0.20031884
26	0x38ab0890	8.15551e-05
27	0xbb697873	-0.0035624772
28	0x3e26a3a8	0.16273367
29	0xbe2ce116	-0.16882738
30	0x3e4a36cb	0.19747464
31	0xbc7aa0e3	-0.015297147
32	0x3ca3b603	0.01998425
33	0xbc221406	-0.009892469
34	0xbe23ff3e	-0.16015336
35	0x3d8cfaa6	0.06883745
36	0xbe179190	-0.14801621
37	0x3e025018	0.12725866
38	0x3dead32a	0.114660576
39	0x3e3394ce	0.17537233
40	0x3e30607b	0.17224304
41	0xbe32ccc2	-0.17460921
42	0xbe010227	-0.12598477
43	0x3d6f43eb	0.05841438
44	0x3d06f9dd	0.032953132
45	0x3d961483	0.07328131
46	0xbc00b94e	-0.00785668
47	0x3d277a9d	0.040888418
48	0xbe1f80db	-0.15576498
49	0xbe1a1c6b	-0.15049903
50	0xbe0d9a2c	-0.13828343
51	0x3c61c947	0.013780898
52	0x3e1d086f	0.15335248
53	0x3e22d7cf	0.15902637
54	0x3e18be07	0.1491624
55	0xbe2ba8de	-0.16763636
56	0x3da101d5	0.078616776
57	0xbc3b5c54	-0.011435587
58	0xbd6cb287	-0.057787444
59	0x3d5a455d	0.053288806
60	0x3e29956e	0.16560909
61	0x3de794c4	0.11307672
62	0xbd4a24a2	-0.049351342
63	0x3daae524	0.08344486
64	0xbd72750e	-0.059193663
65	0x3e53a8d0	0.20669866
66	0x3dbd4a4e	0.09242688
67	0xbd1bd4b2	-0.03804464
68	0x3e07a0ef	0.13244985
69	0x3e0f3dc5	0.13988407
70	0x3df39a34	0.11894646
71	0x3c06f927	0.0082381135
72	0xbd308391	-0.04309422
73	0x3e01cc00	0.12675476
74	0xbd95c53a	-0.073130086
75	0x3c37eaae	0.011225386
76	0x3e1471dd	0.1449656
77	0xbaa1f34e	-0.0012355836
78	0x3dea60b3	0.11444225
79	0x3ddfc7a7	0.109267525
80	0xbe5835dc	-0.21114296
81	0x3d912b57	0.070883445
82	0x3e3b56a2	0.18294767
83	0x3e5feee7	0.21868478
84	0x3e479e31	0.19493939
85	0xbe4bb43f	-0.19892977
86	0x3e01fefd	0.12694927
87	0x3deb8b70	0.11501205
88	0x3da2ff74	0.0795888
89	0x3d9ae8da	0.07563944
90	0x3dd1d51f	0.10245728
91	0xbd89a4f6	-0.06720917
92	0xbd437d32	-0.047726817
93	0x3dd4f5b1	0.103984244
94	0x3e40f9c8	0.18845284
95	0x3d1ecaef	0.03876775
96	0x3d5befe6	0.05369558
97	0x3d9e15d4	0.07719007
98	0xbddf1d4f	-0.10894262
99	0x3c3f43a7	0.011673844
100	0x3d6d0157	0.057862606
101	0x3d90410a	0.07043655
102	0xbe00ec46	-0.12590131
103	0x3e0ee43a	0.13954249
104	0x3e307162	0.17230752
105	0xbe3ece3c	-0.1863336
106	0x3cccf897	0.02502088
107	0x3e009232	0.12555769
108	0x3cbcf175	0.023064354
109	0xbca0c7f6	-0.019626599
110	0xbd8d6a1f	-0.069050066
111	0x3e4516c8	0.19246972
112	0x3d9aff3d	0.07568214
113	0x3e3e6a08	0.18595135
114	0xbd9fcb76	-0.07802479
115	0xbde33788	-0.11094576
116	0xbd58913d	-0.052872885
117	0xbc06639f	-0.008202462
118	0x3cc7397c	0.024319403
119	0xbd6caa22	-0.05777944
120	0x3dca2a38	0.09871334
121	0x3e0f7ca1	0.14012386
122	0xbd06e75a	-0.032935478
123	0x3e294a10	0.16532159
124	0x3e33d2d5	0.17560895
125	0x3d162adc	0.036661968
126	0x3dd0eecc	0.10201797
127	0x3e5d6430	0.2162025

model.lstm.bias_hh_l1 f4 [128]
0	0xbd1035bf	-0.035207506
1	0xbda81e64	-0.082089216
2	0x3d0ced79	0.03440616
3	0x3c0e0ba3	0.008669767
4	0xbd044185	-0.032289047
5	0x3c8d5990	0.01725462
6	0xbd8cb595	-0.068705715
7	0x3d821743	0.06352093
8	0x3e5f461c	0.21804088
9	0xbd9b7190	-0.0759002
10	0xbd07ecfe	-0.033184998
11	0x3c2e68b3	0.010645079
12	0x3d8b0652	0.06788315
13	0xbe01a360	-0.12659979
14	0x3e10f6b7	0.14156614
15	0xbdd26e9f	-0.102750055
16	0x3e35b2b2	0.17743948
17	0x3d4c4b79	0.049876664
18	0x3e225a8e	0.15854856
19	0xbd16eaa0	-0.03684485
20	0x3b82a3c1	0.003986806
21	0x3e64e8b9	0.22354402
22	0xbdb50c91	-0.088402875
23	0x3d4d9ce2	0.050198443
24	0xbaf7509d	-0.0018868629
25	0xbd51459e	-0.051091783
26	0xbdf1286a	-0.117752865
27	0x3dbf746c	0.093483776
28	0xbca97417	-0.020685239
29	0x3df46505	0.119333304
30	0x3d888779	0.06666464
31	0xbc6907ea	-0.014223078
32	0x3e049081	0.12945749
33	0x3e10bdf4	0.14134961
34	0x3df9b137	0.12192004
35	0xbe18498c	-0.14871806
36	0x3d8565d1	0.065135606
37	0xbe02aa3f	-0.12760256
38	0xbbe90aef	-0.007111899
39	0x3d85975c	0.0652301
40	0x3cd5d17d	0.026100868
41	0x3c7d7ce7	0.015471674
42	0xbb7318df	-0.0037093682
43	0xbd9bc9a1	-0.07606817
44	0xbd1e6dc8	-0.038678914
45	0x3cd4e9bc	0.02599036
46	0xbd4871d5	-0.048936684
47	0x3d2663a4	0.04062237
48	0x3bec259d	0.0072066323
49	0x3de3f984	0.11131576
50	0x3e30e784	0.17275816
51	0xbdd6952c	-0.10477671
52	0x3df55db2	0.119807616
53	0x3c25ad07	0.010112054
54	0xbb8df524	-0.0043322016
55	0xbe2b4895	-0.16726907
56	0xbb3095d1	-0.0026944766
57	0xbe1a284f	-0.15054439
58	0xbc4fd7d7	-0.012685738
59	0x3b2079b9	0.0024486615
60	0xbd3d6d9a	-0.046247102
61	0xbbda9568	-0.0066706426
62	0x3cfc0836	0.030765634
63	0xbc8a7eea	-0.01690622
64	0xbd75c39d	-0.060001004
65	0xbd0c7b48	-0.034297258
66	0xbd806d97	-0.062709026
67	0xbe4dd3cc	-0.20100325
68	0x3d403cf6	0.046933137
69	0x3dae87ad	0.08521972
70	0x3dd1f615	0.102520145
71	0x3e5f590f	0.21811317
72	0x3e10ee5e	0.1415343
73	0xbdf3b016	-0.1189882
74	0x3ddd0cbf	0.10793447
75	0xbe419646	-0.18904981
76	0xbe060cc8	-0.13090813
77	0x3c5a3242	0.013317646
78	0x3db8ef49	0.09030015
79	0x3cff065b	0.03113096
80	0x3c1e19e3	0.009649727
81	0x3e547754	0.20748645
82	0x3e14d169	0.14533009
83	0x3d681da9	0.05666891
84	0x3d6553a0	0.055987954
85	0x3d546bce	0.051860623
86	0xbdc07722	-0.09397723
87	0x3e271df8	0.16320026
88	0xbe13f36b	-0.14448325
89	0xbe16c56d	-0.1472375
90	0xbe092dca	-0.13396373
91	0x3e3126a1	0.17299892
92	0xbd6cc2e7	-0.05780306
93	0xbdb740bc	-0.08947894
94	0x3e03b9a6	0.12863788
95	0x3e38a4b9	0.18031587
96	0x3da6aa72	0.081379786
97	0x3e5abeb4	0.2136181
98	0xbd572621	-0.052526597
99	0x3baf603a	0.0053520473
100	0xbdd2fdbe	-0.10302304
101	0x3e0c4a67	0.13700257
102	0x3ce9eda6	0.028555702
103	0xbd5d73a0	-0.054065347
104	0xbdd8f81c	-0.10594198
105	0x3d6c60c4	0.05770947
106	0xbbdd8297	-0.0067599523
107	0x3df68114	0.120363384
108	0x3e29d5f3	0.16585521
109	0x3d6d85dc	0.057988986
110	0x3dd99055	0.10623232
111	0x3de0821a	0.10962315
112	0xbc8f7eb0	-0.017516464
113	0x38f87e6d	0.0001184911
114	0x3e0bf341	0.13667013
115	0x3d5e8e16	0.054334722
116	0x3da50715	0.080579914
117	0x3e3cc549	0.18434633
118	0x3d2ef015	0.04270943
119	0x3d918a82	0.071064964
120	0x3e230a01	0.15921785
121	0x3e1a224e	0.15052149
122	0xbd2e4ea0	-0.04255545
123	0xbe015937	-0.12631689
124	0x3e24d37c	0.160963
125	0xbd8453d5	-0.06461302
126	0x3dcc4320	0.099737406
127	0x3e59250e	0.21205541

model.linear.weight f4 [1, 32]
0	0xbc337d46	-0.0109551605
1	0x3da6aba5	0.08138207
2	0xbe1c307a	-0.15252867
3	0xbd2a0025	-0.041504044
4	0xbe41b2fc	-0.18915933
5	0x3e2db9a6	0.1696535
6	0xbbf4baac	-0.007468542
7	0x3e780b18	0.24222982
8	0x3e280240	0.16407108
9	0x3d2bf6a1	0.04198325
10	0x3dfb0421	0.12256647
11	0xbe286d5e	-0.1644797
12	0x3e1b9b54	0.15195972
13	0xbdd364a7	-0.10321932
14	0x3e42d384	0.19026
15	0x3dd7230f	0.10504734
16	0xbe6f6dca	-0.23381725
17	0x3d6aa610	0.057287276
18	0x3e4e2697	0.20131908
19	0x3e5f4679	0.21804227
20	0x3dec8ebe	0.115506634
21	0xbdfba9a4	-0.12288216
22	0xbd854002	-0.06506349
23	0x3dbce83a	0.09223981
24	0xbe43be0e	-0.19115469
25	0xbe3a93c8	-0.18220437
26	0xbe2d5e9e	-0.16930625
27	0x3da2a999	0.079425044
28	0x3e1a453b	0.15065472
29	0xbdfdd7ec	-0.123946995
30	0x3e308755	0.17239125
31	0x3dbcac8b	0.092125975

exp_avg f4 [128, 1]
0	0xc276bc71	-61.684025
1	0xb585cc8d	-9.968804e-07
2	0xb5bc47ff	-1.4028045e-06
3	0xbb826537	-0.003979351
4	0xc013873f	-2.3051298
5	0x2d393945	1.0528749e-11
6	0xba8bf017	-0.0010676411
7	0xbe6a61bb	-0.22888844
8	0xb70023b2	-7.6377055e-06
9	0xb453988a	-1.97064e-07
10	0xb6e663a3	-6.8661334e-06
11	0xc1182b43	-9.510562
12	0xa6481d64	-6.942877e-16
13	0xb4312865	-1.6499105e-07
14	0xc01c23b5	-2.4396794
15	0x3e4a5a42	0.19760993
16	0x30a56f30	1.2036931e-09
17	0xb61feea9	-2.3831765e-06
18	0xbd615821	-0.055015687
19	0xc1924cd3	-18.287512
20	0xc12f8b8b	-10.971568
21	0x00000000	0.0
22	0xb62474a1	-2.4505791e-06
23	0xb298b9ba	-1.7779588e-08
24	0xab2d5ad1	-6.158798e-13
25	0xc21d53e9	-39.331944
26	0xbdce6611	-0.10078061
27	0xbf2efab7	-0.6835131
28	0xc2bd4ed4	-94.65396
29	0xba7efa4c	-0.0009726628
30	0xba356ba6	-0.0006920643
31	0xc01cf30f	-2.4523351
32	0x00000000	0.0
33	0x00000000	0.0
34	0x00000000	0.0
35	0x00000000	0.0
36	0x00000000	0.0
37	0x00000000	0.0
38	0x00000000	0.0
39	0x00000000	0.0
40	0x00000000	0.0
41	0x00000000	0.0
42	0x00000000	0.0
43	0x00000000	0.0
44	0x00000000	0.0
45	0x00000000	0.0
46	0x00000000	0.0
47	0x00000000	0.0
48	0x00000000	0.0
49	0x00000000	0.0
50	0x00000000	0.0
51	0x00000000	0.0
52	0x00000000	0.0
53	0x00000000	0.0
54	0x00000000	0.0
55	0x00000000	0.0
56	0x00000000	0.0
57	0x00000000	0.0
58	0x00000000	0.0
59	0x00000000	0.0
60	0x00000000	0.0
61	0x00000000	0.0
62	0x00000000	0.0
63	0x00000000	0.0
64	0x3e44dfe2	0.1922603
65	0x399d443c	0.00029996212
66	0x00000000	0.0
67	0x3a9691fc	0.0011487599
68	0x00000000	0.0
69	0x00000000	0.0
70	0x00000000	0.0
71	0x00000000	0.0
72	0x34cc1c8e	3.8018737e-07
73	0x00000000	0.0
74	0x00000000	0.0
75	0x00000000	0.0
76	0xa8c3a369	-2.1720217e-14
77	0x00000000	0.0
78	0xb3fc58cc	-1.17508165e-07
79	0x00000000	0.0
80	0x00000000	0.0
81	0x1e13c0cb	7.821984e-21
82	0xb2a9bf8e	-1.9761298e-08
83	0xb89c1899	-7.443241e-05
84	0x00000000	0.0
85	0x00000000	0.0
86	0x390b7005	0.00013297804
87	0x00000000	0.0
88	0x00000000	0.0
89	0x00000000	0.0
90	0x3b821047	0.0039692256
91	0x00000000	0.0
92	0x371da7de	9.397014e-06
93	0x2f902311	2.6218364e-10
94	0xb25f9da7	-1.3016154e-08
95	0x00000000	0.0
96	0xb7c4d617	-2.3464714e-05
97	0xbf69fcf1	-0.9140158
98	0xac91d268	-4.1445077e-12
99	0xc32ce422	-172.89114
100	0xc512f54c	-2351.331
101	0x3497da6a	2.828486e-07
102	0x00000000	0.0
103	0xb96fefc7	-0.0002288214
104	0xc009d86f	-2.153835
105	0xb89ebebd	-7.569555e-05
106	0xc3808308	-257.02368
107	0xb325247e	-3.8450246e-08
108	0xc2f52fdb	-122.59347
109	0xb00105b7	-4.693805e-10
110	0xb715f7f6	-8.938825e-06
111	0x3e5c7c83	0.21531872
112	0x30a4517e	1.1955732e-09
113	0xaf9b086f	-2.8200328e-10
114	0xbdcc2b73	-0.09969225
115	0xc321f3c1	-161.95216
116	0xc358e924	-216.9107
117	0x00000000	0.0
118	0x00000000	0.0
119	0xb50df344	-5.288059e-07
120	0xab2d59f6	-6.158679e-13
121	0xb7b8fa3f	-2.205104e-05
122	0x00000000	0.0
123	0xc3e7ee20	-463.86035
124	0xbbda53d0	-0.0066628233
125	0xb337f9bc	-4.283514e-08
126	0xb38e06a9	-6.613602e-08
127	0xb8a19d12	-7.706335e-05

exp_avg_sq f4 [128, 1]
0	0x46d60fca	27399.895
1	0x2c6147a7	3.2014198e-12
2	0x2d42c84a	1.1072096e-11
3	0x38dbc53c	0.000104794715
4	0x3fe1aa69	1.763013
5	0x1ea1b16a	1.7119915e-20
6	0x36454e0c	2.9400717e-06
7	0x3d3a5459	0.045490596
8	0x31072dbb	1.967108e-09
9	0x2a94f7a9	2.646193e-13
10	0x2fa25c47	2.9533195e-10
11	0x44a98bbf	1356.3671
12	0x2815d9a3	8.318354e-15
13	0x2c41a626	2.751918e-12
14	0x3feb4325	1.8379866
15	0x426ca859	59.164402
16	0x270fe343	1.9968435e-15
17	0x2fd5fb03	3.892283e-10
18	0x3aa368f1	0.0012467188
19	0x444d11e1	820.27936
20	0x43818d42	259.10358
21	0x00000000	0.0
22	0x2f2aedcb	1.5545891e-10
23	0x274f0ad7	2.8732897e-15
24	0x1cbfade7	1.2684272e-21
25	0x4622fd1f	10431.28
26	0x3e51f3ae	0.20503113
27	0x3f208afc	0.62712073
28	0x473ae028	47840.156
29	0x36086d1c	2.032909e-06
30	0x36067d6d	2.0040563e-06
31	0x40039cc7	2.056444
32	0x00000000	0.0
33	0x00000000	0.0
34	0x00000000	0.0
35	0x00000000	0.0
36	0x00000000	0.0
37	0x00000000	0.0
38	0x00000000	0.0
39	0x00000000	0.0
40	0x00000000	0.0
41	0x00000000	0.0
42	0x00000000	0.0
43	0x00000000	0.0
44	0x00000000	0.0
45	0x00000000	0.0
46	0x00000000	0.0
47	0x00000000	0.0
48	0x00000000	0.0
49	0x00000000	0.0
50	0x00000000	0.0
51	0x00000000	0.0
52	0x00000000	0.0
53	0x00000000	0.0
54	0x00000000	0.0
55	0x00000000	0.0
56	0x00000000	0.0
57	0x00000000	0.0
58	0x00000000	0.0
59	0x00000000	0.0
60	0x00000000	0.0
61	0x00000000	0.0
62	0x00000000	0.0
63	0x00000000	0.0
64	0x40048ba3	2.0710227
65	0x34ad486a	3.227645e-07
66	0x00000000	0.0
67	0x37c38499	2.3307557e-05
68	0x00000000	0.0
69	0x00000000	0.0
70	0x00000000	0.0
71	0x00000000	0.0
72	0x2cb20ba1	5.0603553e-12
73	0x00000000	0.0
74	0x00000000	0.0
75	0x00000000	0.0
76	0x297a327d	5.5554943e-14
77	0x00000000	0.0
78	0x29e35966	1.0096333e-13
79	0x00000000	0.0
80	0x00000000	0.0
81	0x2ab52ea0	3.2184411e-13
82	0x272071cb	2.2266148e-15
83	0x33ba1ebb	8.66689e-08
84	0x00000000	0.0
85	0x00000000	0.0
86	0x3580208d	9.546217e-07
87	0x00000000	0.0
88	0x00000000	0.0
89	0x00000000	0.0
90	0x3a9cff90	0.0011978019
91	0x00000000	0.0
92	0x31f2bcfa	7.064611e-09
93	0x2116aa8f	5.104771e-19
94	0x27358b1d	2.519421e-15
95	0x00000000	0.0
96	0x322b186e	9.959065e-09
97	0x3e562bae	0.209151
98	0x1b6468ae	1.8893542e-22
99	0x47244f06	42063.023
100	0x47d3bdd7	108411.68
101	0x2d121c81	8.305468e-12
102	0x00000000	0.0
103	0x345f0db6	2.0773481e-07
104	0x42bde34a	94.943924
105	0x329683d2	1.7522243e-08
106	0x46cf204c	26512.148
107	0x2d21dc97	9.200771e-12
108	0x474f51db	53073.855
109	0x244bdd81	4.420623e-17
110	0x2fa2e374	2.9629244e-10
111	0x43a9db2b	339.71225
112	0x270c5bf6	1.9478755e-15
113	0x2d18ed16	8.692843e-12
114	0x3b70b5af	0.0036729386
115	0x472d89b6	44425.71
116	0x4750549c	53332.61
117	0x00000000	0.0
118	0x00000000	0.0
119	0x2baecc96	1.2420228e-12
120	0x1cbfa7f8	1.2682739e-21
121	0x327b51fe	1.4628766e-08
122	0x00000000	0.0
123	0x478f4ecd	73373.6
124	0x3a584f69	0.0008251579
125	0x285cc3ba	1.2254895e-14
126	0x29558bff	4.7416928e-14
127	0x32e6aaa9	2.6853131e-08

exp_avg f4 [128, 32]
0	0x00000000	0.0
1	0x00000000	0.0
2	0x00000000	0.0
3	0x00000000	0.0
4	0x00000000	0.0
5	0x00000000	0.0
6	0x00000000	0.0
7	0x00000000	0.0
8	0x00000000	0.0
9	0x00000000	0.0
10	0x00000000	0.0
11	0x00000000	0.0
12	0x00000000	0.0
13	0x00000000	0.0
14	0x00000000	0.0
15	0x00000000	0.0
16	0x00000000	0.0
17	0x00000000	0.0
18	0x00000000	0.0
19	0x00000000	0.0
20	0x00000000	0.0
21	0x00000000	0.0
22	0x00000000	0.0
23	0x00000000	0.0
24	0x00000000	0.0
25	0x00000000	0.0
26	0x00000000	0.0
27	0x00000000	0.0
28	0x00000000	0.0
29	0x00000000	0.0
30	0x00000000	0.0
31	0x00000000	0.0
32	0x00000000	0.0
33	0x00000000	0.0
34	0x00000000	0.0
35	0x00000000	0.0
36	0x00000000	0.0
37	0x00000000	0.0
38	0x00000000	0.0
39	0x00000000	0.0
40	0x00000000	0.0
41	0x00000000	0.0
42	0x00000000	0.0
43	0x00000000	0.0
44	0x00000000	0.0
45	0x00000000	0.0
46	0x00000000	0.0
47	0x00000000	0.0
48	0x00000000	0.0
49	0x00000000	0.0
50	0x00000000	0.0
51	0x00000000	0.0
52	0x00000000	0.0
53	0x00000000	0.0
54	0x00000000	0.0
55	0x00000000	0.0
56	0x00000000	0.0
57	0x00000000	0.0
58	0x00000000	0.0
59	0x00000000	0.0
60	0x00000000	0.0
61	0x00000000	0.0
62	0x00000000	0.0
63	0x00000000	0.0
64	0x00000000	0.0
65	0x00000000	0.0
66	0x00000000	0.0
67	0x00000000	0.0
68	0x00000000	0.0
69	0x00000000	0.0
70	0x00000000	0.0
71	0x00000000	0.0
72	0x00000000	0.0
73	0x00000000	0.0
74	0x00000000	0.0
75	0x00000000	0.0
76	0x00000000	0.0
77	0x00000000	0.0
78	0x00000000	0.0
79	0x00000000	0.0
80	0x00000000	0.0
81	0x00000000	0.0
82	0x00000000	0.0
83	0x00000000	0.0
84	0x00000000	0.0
85	0x00000000	0.0
86	0x00000000	0.0
87	0x00000000	0.0
88	0x00000000	0.0
89	0x00000000	0.0
90	0x00000000	0.0
91	0x00000000	0.0
92	0x00000000	0.0
93	0x00000000	0.0
94	0x00000000	0.0
95	0x00000000	0.0
96	0x00000000	0.0
97	0x00000000	0.0
98	0x00000000	0.0
99	0x00000000	0.0
100	0x00000000	0.0
101	0x00000000	0.0
102	0x00000000	0.0
103	0x00000000	0.0
104	0x00000000	0.0
105	0x00000000	0.0
106	0x00000000	0.0
107	0x00000000	0.0
108	0x00000000	0.0
109	0x00000000	0.0
110	0x00000000	0.0
111	0x00000000	0.0
112	0x00000000	0.0
113	0x00000000	0.0
114	0x00000000	0.0
115	0x00000000	0.0
116	0x00000000	0.0
117	0x00000000	0.0
118	0x00000000	0.0
119	0x00000000	0.0
120	0x00000000	0.0
121	0x00000000	0.0
122	0x00000000	0.0
123	0x00000000	0.0
124	0x00000000	0.0
125	0x00000000	0.0
126	0x00000000	0.0
127	0x00000000	0.0
128	0x00000000	0.0
129	0x00000000	0.0
130	0x00000000	0.0
131	0x00000000	0.0
132	0x00000000	0.0
133	0x00000000	0.0
134	0x00000000	0.0
135	0x00000000	0.0
136	0x00000000	0.0
137	0x00000000	0.0
138	0x00000000	0.0
139	0x00000000	0.0
140	0x00000000	0.0
141	0x00000000	0.0
142	0x00000000	0.0
143	0x00000000	0.0
144	0x00000000	0.0
145	0x00000000	0.0
146	0x00000000	0.0
147	0x00000000	0.0
148	0x00000000	0.0
149	0x00000000	0.0
150	0x00000000	0.0
151	0x00000000	0.0
152	0x00000000	0.0
153	0x00000000	0.0
154	0x00000000	0.0
155	0x00000000	0.0
156	0x00000000	0.0
157	0x00000000	0.0
158	0x00000000	0.0
159	0x00000000	0.0
160	0x00000000	0.0
161	0x00000000	0.0
162	0x00000000	0.0
163	0x00000000	0.0
164	0x00000000	0.0
165	0x00000000	0.0
166	0x00000000	0.0
167	0x00000000	0.0
168	0x00000000	0.0
169	0x00000000	0.0
170	0x00000000	0.0
171	0x00000000	0.0
172	0x00000000	0.0
173	0x00000000	0.0
174	0x00000000	0.0
175	0x00000000	0.0
176	0x00000000	0.0
177	0x00000000	0.0
178	0x00000000	0.0
179	0x00000000	0.0
180	0x00000000	0.0
181	0x00000000	0.0
182	0x00000000	0.0
183	0x00000000	0.0
184	0x00000000	0.0
185	0x00000000	0.0
186	0x00000000	0.0
187	0x00000000	0.0
188	0x00000000	0.0
189	0x00000000	0.0
190	0x00000000	0.0
191	0x00000000	0.0
192	0x00000000	0.0
193	0x00000000	0.0
194	0x00000000	0.0
195	0x00000000	0.0
196	0x00000000	0.0
197	0x00000000	0.0
198	0x00000000	0.0
199	0x00000000	0.0
200	0x00000000	0.0
201	0x00000000	0.0
202	0x00000000	0.0
203	0x00000000	0.0
204	0x00000000	0.0
205	0x00000000	0.0
206	0x00000000	0.0
207	0x00000000	0.0
208	0x00000000	0.0
209	0x00000000	0.0
210	0x00000000	0.0
211	0x00000000	0.0
212	0x00000000	0.0
213	0x00000000	0.0
214	0x00000000	0.0
215	0x00000000	0.0
216	0x00000000	0.0
217	0x00000000	0.0
218	0x00000000	0.0
219	0x00000000	0.0
220	0x00000000	0.0
221	0x00000000	0.0
222	0x00000000	0.0
223	0x00000000	0.0
224	0x00000000	0.0
225	0x00000000	0.0
226	0x00000000	0.0
227	0x00000000	0.0
228	0x00000000	0.0
229	0x00000000	0.0
230	0x00000000	0.0
231	0x00000000	0.0
232	0x00000000	0.0
233	0x00000000	0.0
234	0x00000000	0.0
235	0x00000000	0.0
236	0x00000000	0.0
237	0x00000000	0.0
238	0x00000000	0.0
239	0x00000000	0.0
240	0x00000000	0.0
241	0x00000000	0.0
242	0x00000000	0.0
243	0x00000000	0.0
244	0x00000000	0.0
245	0x00000000	0.0
246	0x00000000	0.0
247	0x00000000	0.0
248	0x00000000	0.0
249	0x00000000	0.0
250	0x00000000	0.0
251	0x00000000	0.0
252	0x00000000	0.0
253	0x00000000	0.0
254	0x00000000	0.0
255	0x00000000	0.0
