dl_computer_vision/assignments/1/checkpoints/best_checkpoint-v7.ckpt (torch, 168892 bytes, 27 tensors)

model.lstm.weight_ih_l0 f4 [128, 1]
00000000: 9084 2e3e ed57 ea3c 5598 2d3e 5227 0f3d
00000010: 9174 09bd 9229 0a3d e93b 1d3d 2c18 1c3e
00000020: 7490 253e 0ae1 723d fbb0 293e 0e4a 08be
00000030: 7166 203e 7d75 0d3d da5e 023e 814a dd3d
00000040: 6e55 25be 8c10 babc efab f33c 726d 3a3d
00000050: 4a7d fc3d eb94 023d 07b6 223d 0341 273e
00000060: 40c1 303d cdd6 943d d53e ee3d b23e f83c
00000070: ff04 bc3d 9f94 003e b4f2 21be 530f 283d
00000080: f84e 193e e487 9f3b bda4 1e3e f81d 0c3e
00000090: f8a5 813d 9cdc 23be df96 11bd a7b1 fb3d
000000a0: bec2 4eba c768 e2bd 62f7 c93d b424 073e
000000b0: e9c0 13be 2c5e 073e c56d c13d e432 af3c
000000c0: a2b9 a23d 78e4 30bd e9f5 0cbe 9c65 00bd
000000d0: d483 49bd 80fa a53d f6c1 00be 9791 8c3d
000000e0: 1603 173d 1af8 093d 9bc2 da3d 0f3d 0cbd
000000f0: ec04 f63d b494 ab3d ccc5 30be 0139 293e
00000100: 2097 00be 582a 52bd 535a b8bd dccd 2ebe
00000110: 2639 9c3c 1009 1a3e 5f7a 13be b21a dd3d
00000120: b13c b4bd 353e 0fbe fe94 df3d 4d44 a7bd
00000130: 5c5c 98bd e423 16be 3539 a9bd 555c c33d
00000140: e28b 693d 3b01 1abe f8aa e23d c51d 283e
00000150: b5d5 c7bd b23a babd bc90 9dbd bdef b93d
00000160: 868f e2bd 5bbb dcbd 2b89 bb3d 36c4 ffbd
00000170: 710d 063e ac9f 123e 168e 71bd 511a e93d
00000180: 6fb3 043d 98d4 243e 2f84 183d 44d4 223e
00000190: d00d 3fbe 87e2 503d 8b6e 213e 3f74 1e3e
000001a0: 23c5 033d 4c64 063e c193 423d 1291 1abe
000001b0: e1ed 1b3d 3e0c 093e 3b2d 213d 45c9 2b3d
000001c0: 6b25 14be 15b2 f4bc 539e 253e 4798 403d
000001d0: 5e96 1b3d b71d 243e 30e1 2f3e 848d 153d
000001e0: 88a5 263e 0e7b 323e 21d0 353d 02b0 313e
000001f0: f394 323d 3880 263e 9b7b cabd c8bd 283e
0.17042756 0.02860638 0.16952641 0.03494961 -0.033558432 0.03373105 0.038387213 0.15243596
0.16168386 0.059296645 0.16571419 -0.133095 0.15664078 0.034535874 0.12731495 0.10805226
-0.1614587 -0.022712968 0.02974507 0.04551453 0.123285845 0.0318803 0.039724376 0.16333394
0.043153048 0.072675325 0.11633078 0.030303333 0.091806404 0.12556694 -0.1581524 0.04103024
0.1497153 0.0048684943 0.1549253 0.13683307 0.06330484 -0.16002125 -0.035544273 0.12289744
-0.0007887295 -0.11055141 0.09861638 0.13197595 -0.14429058 0.13219517 0.09444765 0.021386571
0.07945563 -0.043186635 -0.13765682 -0.031346902 -0.049197987 0.0810442 -0.1257399 0.068637066
0.036868177 0.033683874 0.10681649 -0.034237918 0.120126575 0.08377972 -0.17262954 0.16525652
-0.1255765 -0.051309913 -0.09001603 -0.17070717 0.01907022 0.1504252 -0.1440215 0.10796107
-0.088006385 -0.13988574 0.1091709 -0.08167324 -0.07439491 -0.14662129 -0.082628645 0.09539095
0.05701817 -0.15039532 0.11067766 0.16417606 -0.09757558 -0.090932265 -0.076936215 0.090789296
-0.11062531 -0.10777923 0.09157022 -0.12488596 0.13091065 0.14318722 -0.058973394 0.113819726
0.032397684 0.16096723 0.037235435 0.15901285 -0.18657613 0.050997283 0.15764825 0.15474032
0.032170426 0.13124198 0.04750419 -0.15094402 0.038068656 0.13383576 0.039349776 0.041939992
-0.14467399 -0.029870072 0.16173677 0.047020223 0.0379852 0.1602696 0.17175746 0.036511913
0.16274083 0.17429754 0.04438794 0.17352298 0.04359908 0.16259849 -0.09886857 0.16478646

model.lstm.weight_hh_l0 f4 [128, 32]
00000000: da2b 67ba 719c 09be 121e e93d 9df5 0dbe
00000010: ee73 453d 3c6f 3ebd fbf6 ee3c e921 b7bd
00000020: cf6e fd3d 1ec6 1bbe 79db a93d 7a4d b2bd
00000030: d56b 573d 137f 123e 222b db3d defa 33be
00000040: 8274 1b3e 899a 24be bc24 1b3e c612 b6bd
00000050: ed5a a53d 5775 92bd 67f5 1f3e 474e 173e
00000060: 2a52 d33d 5ad9 07bd 2913 eabc 8bd0 c03d
00000070: 7f74 b9bd 55c3 d13b 89c0 15be b29c bb3c
00000080: 2096 133e cd2d 10bd 791e 8ebd a169 5e3d
00000090: f57a c3bc 7aba f5bc 20af 45bb 7a51 0c3e
000000a0: cda4 0a3e 738c 543c d1b8 093e 8271 263e
000000b0: 5282 ad3d 5ed0 053e d6c4 bebd 359c 46bd
000000c0: a916 12be 90d5 bebc fed4 213e 6fd9 bcbd
000000d0: 335e 1f3e b329 17bd a2b3 a6bc aac7 2b3e
000000e0: eb7a aebc d3f8 ee3c f63b 17be 0a92 87bd
000000f0: 1691 1d3e 9a34 193d ee79 393d 10d5 0dbe
00000100: 0cec 243e 43da dd3d ce9b 093c 4d1e 13bc
00000110: 915a 603d 569b 02bc da07 15be 1655 0abe
00000120: 6b5a 0d3e d477 a93c a9fd 16be 8484 9e3c
00000130: 8d15 7ebd 3b5c b13d af96 e2bd ba75 a23d
00000140: 6776 303d b965 b5bd 9e48 9abb a807 23bc
00000150: 4b19 0f3e 32b5 00be 7162 e83d 8dfe 01be
00000160: 5447 15bd 3acd eebd e252 143e f6d1 b4bc
00000170: be5d 28be 9e1c 97bd 1f2e 8dbd 762d e53d
00000180: bbf1 de3d 1b64 cf3d 3f6a 24be ffd4 0dbe
00000190: 6925 ae3d 955b b43c 86a6 4dbd 920e 693d
000001a0: 2a74 ff3d 388b 2ebe 42d5 d3bd 79b9 a9bd
000001b0: 28fe 823d 6866 de3d e76b 9c3d 69c9 c23d
000001c0: 7db4 21be 8bb9 cfbd a2dd eabd d9bb 0fbe
000001d0: 8964 b4bd 389a 62bd ca98 463d 7149 27be
000001e0: 2ba8 433d 23ee b33d 7090 0ebe 302d cb3d
000001f0: 181b 023c 13d4 e43d 4b82 363d 4c88 1fbe
00000200: 0bfe 193e b652 25be f788 2dbe 208f b1bd
00000210: b3d9 233e c86b cd3d c507 db3d d823 2c3e
00000220: f2e8 173e 64ab a5bd b8c6 493c 36f3 0f3e
00000230: 364c 1d3e 0813 28be 5b6a c9bd 61ab 09be
00000240: 5340 6a3c 32ef 343d 0c28 0cbb 4b2d f83d
00000250: faf7 1abe d154 2dbe 5345 f0bd 745b 10bd
00000260: c08c 7b3d 3a75 21be 3579 d7bd 92f0 eabc
00000270: f0a8 b7bd ac4a b0bd d064 e2bd 1c41 093e
00000280: 6876 cbbd 645c a33d 20e2 843c e88b 8f3d
00000290: 343c d9bd edbb 033e 4189 283d 0c34 843d
000002a0: d80c 043e df85 0abe 0843 ff3d 88d0 e23d
000002b0: c45c ae3b 53c4 243c eec2 e13d f36e 47ba
000002c0: 522b b63c 3e1e 14be 5150 bdbd 07b6 33be
000002d0: 1a3c 0a3e 6032 893d de87 1f3e 147a ad3c
000002e0: f2aa 413d 2965 393d c2a9 0fbe f492 003e
000002f0: e3ad d03d 247c db3b 663d 103e 666a 8e3d
00000300: 5819 663d 811a c93d 326b 69bd 9f8f c73d
00000310: cf11 453d 6e54 ee3d 2e35 e2bd 1b14 19be
00000320: a6ca a5bd 427e 103e 8cd8 a23d bab8 b7bd
00000330: 610b 64bd 6f4d 31be 8926 56bd 58e6 053e
00000340: b17e 66bd 645f 063d 701d 0b3e 8eeb a83d
00000350: 9858 d0bd 35b7 ee3d 48ad 7abd 4243 223e
00000360: 7604 0bbd 9ef3 b2bd a32d 1abe af55 1f3d
00000370: 081e 7d3d e8c6 ecbd 8a14 103e b355 213b
00000380: 87e2 413d aa56 ffbd 4ab4 8f3d 185d 24bd
00000390: 98eb 2a3e 524b b53d ced1 9fbd 4f2d e73c
000003a0: 4ea7 dbbd 0fdd 24be 74f7 b03d dc52 6b3d
000003b0: 21e1 32be 81b9 833b 8dfd 1a3d 37cf b5bd
000003c0: 09b7 d2bd fa5d 4c3d 8791 1b3d e55a b63d
000003d0: 7605 febd 3cde 913d 9f5f 11be ade4 f93d
000003e0: a726 2cbe e918 a33b 7335 13be 14cf e6bc
000003f0: 6477 173e 9003 143e 5da5 283e a170 f93d
-0.0008818485 -0.13438584 0.113826886 -0.13863225 0.048206262 -0.0464928 0.029170504 -0.08942015
0.12374651 -0.15212294 0.08293814 -0.08706184 0.05259307 0.14306287 0.10701586 -0.17576167
0.15181163 -0.16074575 0.15150732 -0.088902995 0.08073983 -0.07151287 0.15620957 0.14775954
0.10318406 -0.033166267 -0.02857359 0.094147764 -0.09055423 0.006401459 -0.14624228 0.022901867
0.14412737 -0.03519993 -0.06939406 0.054299954 -0.023862341 -0.029996146 -0.0030164197 0.13702956
0.13539429 0.012972939 0.13449408 0.16254237 0.08472122 0.13067767 -0.09314887 -0.048488814
-0.14266457 -0.023295194 0.15803906 -0.0922116 0.15563278 -0.036905 -0.020349327 0.16775385
-0.021298846 0.029171383 -0.14768967 -0.066196516 0.15387377 0.03740368 0.045282297 -0.13850808
0.1610567 0.10832646 0.008398963 -0.008979392 0.05477387 -0.007971605 -0.14553776 -0.1350902
0.13804023 0.020687021 -0.14745201 0.019350298 -0.06203227 0.0866017 -0.11063897 0.07932611
0.043081667 -0.08857293 -0.0047083637 -0.009950556 0.13974492 -0.1256912 0.11346901 -0.1269476
-0.036444977 -0.116602376 0.14484742 -0.022072773 -0.1644201 -0.07378505 -0.068935625 0.111903116
0.1088595 0.101265155 -0.16056155 -0.13850783 0.08503229 0.022016326 -0.050207637 0.05689866
0.124733284 -0.17045295 -0.1034341 -0.08287329 0.06396133 0.10859376 0.07637768 0.09511072
-0.15791507 -0.101428114 -0.11468054 -0.14036502 -0.08808238 -0.055322856 0.048485555 -0.1633661
0.0477678 0.08785655 -0.13922286 0.09920728 0.00794103 0.111732624 0.04455785 -0.15579337
0.15038316 -0.16144833 -0.16946779 -0.08669877 0.16001014 0.10030323 0.10694841 0.16810548
0.14834955 -0.08089331 0.012315445 0.14057621 0.15361103 -0.1641351 -0.09834739 -0.13444282
0.014297563 0.044173427 -0.0021386174 0.12118014 -0.15133658 -0.16926886 -0.117319725 -0.035243466
0.061413527 -0.15767375 -0.10521165 -0.028679166 -0.08967769 -0.086079925 -0.11054385 0.13403744
-0.099346936 0.079766065 0.016221106 0.07009107 -0.10607186 0.12864657 0.04114652 0.0645524
0.12895525 -0.1352763 0.12463957 0.110749304 0.005321117 0.010056573 0.11023508 -0.000760778
0.022237454 -0.14464661 -0.09243835 -0.17549907 0.1349949 0.066990614 0.15579173 0.021176375
0.047282167 0.04526249 -0.14029601 0.12556058 0.10189416 0.0066981483 0.14085922 0.06953888
0.056176513 0.09819508 -0.056986995 0.097441904 0.048112687 0.116371974 -0.110452995 -0.14949076
-0.08095293 0.14110664 0.07951459 -0.08970781 -0.055674914 -0.17314695 -0.052282844 0.1307615
-0.056273166 0.032805815 0.13585448 0.082480535 -0.10173148 0.11656038 -0.06120041 0.1584597
-0.0339398 -0.087378725 -0.15056472 0.038900074 0.06179622 -0.11561376 0.14070335 0.002461773
0.047335174 -0.12467702 0.07016809 -0.040127844 0.16691434 0.08852257 -0.07803689 0.028219847
-0.1072527 -0.16099952 0.08640948 0.057452068 -0.17468692 0.0040199165 0.03783946 -0.08877414
-0.102888174 0.04989431 0.037980583 0.089040555 -0.12403385 0.07122466 -0.14196633 0.122018196
-0.1681162 0.0049773348 -0.14375858 -0.028174914 0.14791638 0.14454484 0.16469331 0.121796854

model.lstm.bias_ih_l0 f4 [128]
00000000: 4ef5 ef3d ee3a 793e b38b f2bd 4b39 edbc
00000010: 0a67 313d 1ccd 803e 0c67 833e d667 7ebc
00000020: 3470 233b 16c2 c83c bafa adbd f83a adbc
00000030: ff98 1f3e 2a79 5cbd c0d1 bfbd aa0e a1bd
00000040: 9e64 de3d b8b6 44be f383 d63c 4b97 713e
00000050: 0a4d 623e 161f 8ebd 3687 973e 6111 1c3e
00000060: ff23 c53c bdf7 5d3e d7dc 083e 7661 bcbc
00000070: 80ab f23d 363c 463e 3efe 173e 3012 183e
00000080: 984a d73b 7153 ee3d 5136 5a3d 7480 e2bc
00000090: 8dd0 0d3e 0a10 813c f7c6 f4bd dde4 06bd
000000a0: 27ba af3d d3da 13be 0e78 bcbd 067f 9d3d
000000b0: acb4 243d 0677 a43d 756e c2bd ba2c 2c3e
000000c0: 62bd fd3c 6dba 0b3e b384 ed3d 5f20 f7bd
000000d0: 5419 3e3c d8d1 233e 250e 02be 0b3b 5cbd
000000e0: 28a9 13be 7302 933d 5d15 5fbc 7e34 2fbd
000000f0: 03d4 e23c 5695 203e 8171 8fbd 36a6 c83c
00000100: 8fe4 0ebe 442e 5abe 8d39 d83d 3d0c e3bd
00000110: 167d 213d f5be e5bd f4f5 c2bd a802 03be
00000120: f04b 13bc 3f16 d3bd ee43 613c 1a68 0bbe
00000130: 9653 11bd 8eba 27be 3a5d 18be 1c99 24be
00000140: f702 6bbd 66d5 0abe 96df 213c 32a5 b33d
00000150: 2df8 ad3d 9945 d13d c188 1bbc e8b5 4e3b
00000160: 7ebb 99bd 1273 7c3d 27b2 adbd defd 91bd
00000170: 98ab 283e d26c c7bd cb03 bebd a4a6 33be
00000180: 7eab b63b d17b a2bd c4b3 263e 02a2 393e
00000190: 31fe 16be 7a90 5e3e de3b bf3c 881b efbd
000001a0: f2c4 443e 82e3 dfbd 6bf4 153e d6f1 2fbe
000001b0: 6c1b 5fbd 7bdf f43d e526 ca3d 0d19 963d
000001c0: f967 b1bd d2c0 25be abce d43b 1424 5a3e
000001d0: 7880 f53d 2869 7b3b eb61 9bbd 31e1 1f3e
000001e0: d69a 2f3e 5202 073b d768 2f3e 564c 8abd
000001f0: 1702 803e b495 203e dc8e bb3d f801 fd3c
0.1171671 0.24338886 -0.11843052 -0.028957983 0.043311156 0.25156486 0.25664556 -0.015527686
0.0024938704 0.02450661 -0.08495088 -0.021146283 0.15585707 -0.05382649 -0.093661785 -0.07864125
0.10859035 -0.19210327 0.026185965 0.2359287 0.220997 -0.06939523 0.29595345 0.15241005
0.024065016 0.21676536 0.13365494 -0.022995692 0.11849117 0.19358906 0.1484308 0.14850688
0.0065701716 0.11637009 0.053274456 -0.027649142 0.13849087 0.015754718 -0.11952012 -0.032933105
0.085804276 -0.14438944 -0.09202586 0.076902434 0.040211365 0.080305144 -0.09493724 0.16813937
0.030974094 0.13645335 0.11597576 -0.12066721 0.011602718 0.15998018 -0.12700708 -0.053767245
-0.14419997 0.071782015 -0.013615933 -0.04277467 0.027688986 0.15681967 -0.07004071 0.024493318
-0.13954376 -0.21306711 0.10557852 -0.11086319 0.039425932 -0.11218063 -0.09519568 -0.12793982
-0.008990273 -0.103069775 0.013749106 -0.1361393 -0.035480104 -0.16379759 -0.14879313 -0.16074032
-0.057375874 -0.13557968 0.009879967 0.08771743 0.084946014 0.10218353 -0.009493054 0.003154153
-0.075064644 0.061633177 -0.084812455 -0.071284994 0.16471708 -0.09737553 -0.09278067 -0.17544037
0.0055746427 -0.07933772 0.16279513 0.18128207 -0.14745404 0.21734801 0.023343977 -0.11675173
0.19215754 -0.109320655 0.1464402 -0.17182097 -0.05446951 0.11956688 0.098707 0.07328997
-0.08662409 -0.16186836 0.0064943633 0.21302825 0.11987394 0.0038362239 -0.07587036 0.15613247
0.17148909 0.0020600748 0.17129837 -0.06752841 0.25001594 0.15682107 0.09158108 0.030884728

model.lstm.bias_hh_l0 f4 [128]
00000000: 9b77 bc3d 405c 783e 96bb 823d 3611 433d
00000010: c8c6 533c b9f2 85bd 5eb9 4e3c cd01 163d
00000020: 58cb c83d 16ac 75bd 65e7 b73d 3c0c 34be
00000030: e2b1 4c3e 0901 5cbd 87eb a93a d089 3b3d
00000040: d572 0cbd c46a bbbd a684 823e 7c53 143e
00000050: ba57 b73c c6c6 663d 8395 7f3d d983 5cbd
00000060: 60fe 423d 39de c33c ad3c d9bc f134 f03b
00000070: 0b8a 29bd d257 183e d1df 00be 1339 b73d
00000080: c539 943a 7489 2b3e 993c 8cbd e1f6 cf3d
00000090: 5d5a 9abd 6efe 7f3d c129 d7bd 0a56 ff3d
000000a0: 8f21 07be 7c61 0abe 5cb1 92bd b3be 213e
000000b0: 384d b93d e7f0 703c 24e7 46bd 5c5f b83d
000000c0: 8439 a8bd 4e56 f2bd fd26 b63d e576 9a3d
000000d0: 5dd4 993c 699a 37bd bd14 353c c422 9e3d
000000e0: abe2 cd3d 6dff 0b3e e4ed 2c3e 09da 1cbc
000000f0: 4fc3 58bd ca8e 6b3d 4a2b e83d 1939 c2bd
00000100: f545 02be 3035 22bd 7960 c53d c144 32be
00000110: b8fa 163e 5b65 253e 8eba 3e3d 60ff a13c
00000120: 930e 2abc 5870 17be 3d56 3dbc e600 213e
00000130: e7ca 01bc de7c b4bd 51fb 053d 510b e73d
00000140: 2ea0 173d e1d3 15be 4872 103d 20b0 2abe
00000150: 1c35 653d 1fe5 c3bc ac43 8c3d 6eb4 23be
00000160: 53a5 e63b a003 ef3d a50b f93d b435 d3bc
00000170: 6bcb a43b 5e93 79bd 3844 423d 0b95 80bd
00000180: aa21 db3d c866 e73c cdb9 a33e 4077 58bd
00000190: 71b3 c6bd d48a 3b3d 236c 02be a3a4 973d
000001a0: 68c0 a43d 4456 643d 7ae6 513e 5f1c ad3d
000001b0: d620 223e eab6 92bc fc86 fe3b a209 c63d
000001c0: 3937 2cbe e6d6 1abe 52ec 06bd b880 4c3e
000001d0: e410 813e f5b7 333d 81ce 06be 3611 853e
000001e0: 4889 cabb 1355 613d bddb d73d 0515 f33d
000001f0: 4c86 603d d90f 563d f0bd b13d 1cd8 08be
0.092025004 0.2425394 0.063834354 0.047623836 0.012925811 -0.06540436 0.012617437 0.03662281
0.0980441 -0.059978567 0.08979682 -0.17582792 0.19989732 -0.053711925 0.0012963869 0.045785725
-0.0342892 -0.09151223 0.25491828 0.14484972 0.022380698 0.05634191 0.062398445 -0.053836677
0.047605872 0.023909675 -0.02651819 0.00733053 -0.041391414 0.14877251 -0.12585379 0.08946433
0.001130872 0.16751653 -0.068474956 0.1015451 -0.07536767 0.062498502 -0.10506011 0.124675825
-0.13196395 -0.1351375 -0.07162735 0.15795402 0.090479314 0.014705873 -0.048560277 0.09002563
-0.08214095 -0.118328676 0.08894155 0.075422086 0.01877802 -0.04482499 0.011052308 0.07721475
0.10052999 0.13671656 0.16887623 -0.009573468 -0.052920636 0.05750922 0.11336382 -0.09483547
-0.12721999 -0.039601505 0.09637541 -0.1740904 0.14744079 0.16151945 0.04656463 0.019775093
-0.010379451 -0.1478895 -0.011556205 0.15722999 -0.007921911 -0.08812879 0.032710377 0.11281455
0.037017994 -0.14631607 0.035265237 -0.16668749 0.055958852 -0.023912964 0.06848845 -0.15986797
0.007038751 0.11670613 0.12160424 -0.025782444 0.005029132 -0.060931556 0.04742834 -0.06278428
0.1069978 0.028247252 0.31977692 -0.0528481 -0.097021945 0.045786694 -0.12736563 0.07404449
0.08044511 0.05574633 0.20498076 0.08452677 0.15832838 -0.017909486 0.0077675562 0.09669806
-0.16817941 -0.1512104 -0.032940216 0.19970977 0.252082 0.043876607 -0.13164712 0.25989693
-0.006180916 0.055012774 0.105399586 0.118692435 0.054815575 0.052261207 0.08678806 -0.13363689

model.lstm.weight_ih_l1 f4 [128, 32]
00000000: 59ed cdbe f381 97be b5e6 74be fc77 40be
00000010: 1af0 1c3d f148 483e 735c 91be 1c73 263e
00000020: 1d55 7cbe e55c 95be a8ea 463e 8884 1dbd
00000030: 77c8 01be a1ec 73be df09 d7bd faad ba3e
00000040: 154b 9ebd 2b22 c0bc 6a09 d23e f3f0 8b3e
00000050: abf9 c9be c749 63be 1037 16bf 0f80 713e
00000060: eac2 1abf 551c 9ebd fb65 c53e bbe4 9bbe
00000070: 6ce3 8f3e d962 d03d f3e6 05be f237 853e
00000080: c204 ccbe 779f 8ebe edd4 54be 04fd 37be
00000090: bb43 a13c 8d13 8d3d 413a f7be 8cdb a83e
000000a0: 30cc 94be 6967 98be 5b27 963e 6da4 10be
000000b0: 1cde b0be fbab 96be d164 a6be 8422 a93e
000000c0: 4cca d8bd 2b3b 053e eca0 ef3d d03a c23e
000000d0: c448 99be 08b1 59be c03c 09bf e7d4 983e
000000e0: bdde f4be 5ff3 47be a0a3 b73e e1ae 4dbe
000000f0: ce1e ca3e 35c9 d63e c15a bbbd 40e2 a03e
00000100: 0850 75be e7f0 2cbe 5d82 5bbe f75d eabd
00000110: 6ee5 8c3d 8644 eb3d 1373 aebe 6c60 483e
00000120: 96d1 b0be b3f4 8bbe 9bd1 a33d 676e 9e3d
00000130: d079 9cbe 4170 cabe 5d4a 88be b9d6 253e
00000140: c7a8 303e f98c 8cbd d8b2 803e 930f cc3e
00000150: 7c51 e3be 1b9f 80be 32b3 80be 65dd cd3e
00000160: 2e47 d5be ade7 f3bd a9a4 393e c41b 69be
00000170: 4fc9 c53e 374e 4a3e ccd4 863d a78a 4c3e
00000180: 3862 eebd a3b1 f8bd 7f75 afbe 1532 2bbe
00000190: ccc8 683c d1fc ae3e c578 e2be 8f73 0a3e
000001a0: c184 9bbe ab57 edbd 07e5 aa3e af09 1e3c
000001b0: 5b7f 92be 7cc5 c4be 3c6a 56be da37 9d3e
000001c0: 374a 19bd fae9 abbd a643 cf3d 5bbe dc3e
000001d0: e723 9ebe 84bb 50be 3643 f2be fc5e 223e
000001e0: f119 90be 4577 a4be ca2b e13e 8385 ebbd
000001f0: 884f 053f 0266 803e f7d1 44bd 21a8 c93e
00000200: 955e dcbd 4894 b1be 8934 8cbe b766 9bbe
00000210: 3ed6 cc3c 46c4 973e 92f9 a8be 0068 423e
00000220: 99e1 82be cb11 92be 3562 743e 080a 873d
00000230: 24fa 02be adf4 80be f8d8 dcbd 0ba2 a63e
00000240: ac57 c03d bd1b 4dbc 5477 f13d ee1f b53e
00000250: 7bf6 3ebe 64c0 2bbe ea26 c8be 30ec cc3e
00000260: 1f62 10bf 093b 5dbe 18cb c13e 58e1 1dbe
00000270: e94a dd3e 77bb 4a3e 7fc7 41bd 4491 903e
00000280: e0c1 2fbe 2ded 98be 990a c1be 538e 28be
00000290: 0cf2 d13d 978b c83e d220 eebe c8f6 de3d
000002a0: 966b 3cbe 4224 a5be ff91 aa3e cf0d 2e3e
000002b0: 3aca 15be 00b3 14be d777 96be 816f 7b3e
000002c0: bc08 a53d c613 9abc a999 3b3e 6770 ea3e
000002d0: 21b2 babe 6f24 21be 4b97 c4be 4850 463e
000002e0: 028c cebe 2976 c3be edd0 9a3e 45f0 96be
000002f0: 803a 2a3e 2b14 903d 8ff8 c0bd b14c f13d
00000300: 6d18 76be 7b37 09be 1a1b cbbe f7d2 19be
00000310: 10b8 d9bd 486b ba3e 6be3 03bf 504f 863e
00000320: 2cd9 71be 3ee8 fdbd 3448 8f3e 56bd 033e
00000330: cac3 7abe bb6c a8be fa24 85be a6cb e03e
00000340: 83cb 0cbe a0a3 143e cec8 c93e 64ee a83e
00000350: 0569 debe 7eaf b9bd 7566 c5be e5ce 883e
00000360: 88b3 99be 3d52 c1bd 48bd 0b3f d215 9ebe
00000370: 91b4 c23e 0334 bb3e 77d1 c53d 162b 3e3e
00000380: 1c6d d9be e891 11be de89 aebe 89c0 7dbe
00000390: b9bc 333e d76d cb3e d2b2 91be 11cb 1f3e
000003a0: 3bd6 66be 98d5 5bbe 2d14 a63e 9247 b6bd
000003b0: 9aca 34be 2857 aebe 191d 55be ce16 fb3e
000003c0: 0ee2 0cbe 1860 cabd 26c8 e33e 08ef db3e
000003d0: 9146 51be 224e 8ebe a374 07bf 8dbc a63d
000003e0: f8ce 04bf a158 86bd 6823 5a3e 5d62 97be
000003f0: ee15 993e ec56 b33e dab4 6dbd d9a5 093e
-0.40220144 -0.2959133 -0.23916133 -0.1879577 0.038314916 0.19559075 -0.28390846 0.16254848
-0.24641843 -0.29172435 0.19425452 -0.03845647 -0.12674128 -0.23820736 -0.1049993 0.3646086
-0.077291645 -0.023453793 0.41022807 0.27332267 -0.39448294 -0.22196113 -0.5867777 0.23584007
-0.60453665 -0.07720248 0.38554367 -0.30447945 0.28103197 0.10175104 -0.13076381 0.26019245
-0.3984738 -0.27856037 -0.2078435 -0.17967612 0.019685617 0.06888495 -0.48286632 0.3298
-0.29062033 -0.29766396 0.293269 -0.14125223 -0.34544456 -0.29428086 -0.32498792 0.33034146
-0.1058546 0.13010852 0.11700615 0.37935495 -0.29938328 -0.21258938 -0.5360832 0.29849932
-0.47826186 -0.19526432 0.35867023 -0.20086242 0.39476627 0.41950384 -0.09148169 0.31422615
-0.23956311 -0.16888772 -0.21436448 -0.114437036 0.06879698 0.11487679 -0.3407217 0.19568032
-0.345349 -0.27335128 0.079989634 0.07735901 -0.30561686 -0.39538768 -0.26619235 0.16195191
0.17251883 -0.06862826 0.25136447 0.39855632 -0.44398105 -0.25121388 -0.25136715 0.40207973
-0.41655868 -0.11909423 0.18129219 -0.22764498 0.3863015 0.19756399 0.065835565 0.19974767
-0.116398275 -0.121432565 -0.3426933 -0.16718324 0.01420803 0.3417726 -0.44232765 0.13520645
-0.3037472 -0.11588987 0.3337786 0.009645863 -0.2861279 -0.3843192 -0.20938963 0.30706674
-0.037424292 -0.08394237 0.10120325 0.4311398 -0.30886766 -0.20384032 -0.47316903 0.15856546
-0.28144792 -0.32122245 0.4397872 -0.11500075 0.5207448 0.25077826 -0.0480518 0.39386085
-0.107602276 -0.34683442 -0.2738383 -0.30351803 0.025004502 0.29641932 -0.33002907 0.18984985
-0.25562742 -0.285292 0.23865588 0.0659371 -0.12790734 -0.25186673 -0.10783571 0.32545504
0.09391722 -0.01251882 0.11790338 0.35375923 -0.18648712 -0.1677261 -0.3909219 0.40023947
-0.5639972 -0.21604551 0.3785026 -0.15417993 0.43221214 0.19798075 -0.047309395 0.2823583
-0.17163801 -0.2986845 -0.37703398 -0.16460542 0.10251245 0.39169 -0.46509415 0.108869135
-0.18400416 -0.32254225 0.3331451 0.16997455 -0.14627925 -0.14521408 -0.29388306 0.24554254
0.080583066 -0.018808257 0.18320335 0.4578888 -0.36464027 -0.15736555 -0.38396677 0.19366562
-0.40341192 -0.38176087 0.30237523 -0.29480186 0.16623878 0.07035097 -0.09422409 0.11782206
-0.24032755 -0.1340007 -0.39669114 -0.15021883 -0.1063081 0.36409974 -0.5151889 0.26232386
-0.23618001 -0.12397812 0.27984774 0.12865195 -0.2448875 -0.32895455 -0.26004773 0.4390537
-0.13749509 0.14515543 0.39411014 0.32994378 -0.434395 -0.090666756 -0.3855473 0.26720348
-0.30019784 -0.09439514 0.54585695 -0.30876023 0.38028386 0.3656312 0.09659093 0.18571123
-0.42466056 -0.14215815 -0.3408956 -0.24780478 0.1755246 0.3973224 -0.28456742 0.15604807
-0.2254266 -0.21468198 0.32437268 -0.0890037 -0.17655411 -0.3405087 -0.20811881 0.49040836
-0.13758108 -0.0988161 0.4448864 0.42955804 -0.20437075 -0.27793986 -0.5291235 0.08141432
-0.5187831 -0.06559873 0.21302569 -0.29567233 0.29899544 0.35027254 -0.0580338 0.13442172

model.lstm.weight_hh_l1 f4 [128, 32]
00000000: 1758 1e3e 42c2 183d d906 a33d 665e 023e
00000010: 8ce2 853d ed29 92bc ae48 cbbc 272d 053e
00000020: 8db9 b5bd 9b9e 23be 15b8 29bd 9ad5 993d
00000030: 8e2d 78bc eb19 183e 1804 2ebd 9f64 053e
00000040: f016 f73d ab52 b43d 5243 b1bd 3e58 1fbe
00000050: c853 133e 5492 1c3d ebc7 f73c f830 05bd
00000060: c7b9 093e 0d20 e43d 3f05 b1bd 849c a3bd
00000070: 8da6 9ebd 5b5e 2a3b 3d4a 9fbd 8e6c a0bd
00000080: cddd 473d a86b c83a 4705 f23d a895 b1bd
00000090: d571 a4bd ddf4 e83d c028 263e ab5b e4bc
000000a0: 14cf f73c d7e5 cabd 524d dfbd 4cd8 c03d
000000b0: 500b 3abc e32b b83d 574d f8bd 880c 463b
000000c0: a5ab 1dbd 626e 04bd 24c3 35bd 868d 6e3d
000000d0: a034 f1bc fe00 08bd d77b e63d 17f3 14be
000000e0: e0bd 2c3e 30dd dabd c7ef 163e 8d9c f03d
000000f0: 0d03 ae3d 7db5 fcbd 3043 4a3d f612 0b3e
00000100: d97c ab3c e88a cc3d 1c36 28be 1124 893d
00000110: 5e22 70bd 7a89 a8bd ef61 a73d 216a 2bbe
00000120: 051f e1bd 274d 103e 6f4a 8bbd 576d ac3d
00000130: f15d 853d 81a6 32be 6821 8c3d 1863 833d
00000140: 36ed ffbd adb0 303d 43e3 d43d fde2 b53d
00000150: e8ea e8bd 5b27 033e 6ad3 a03c 7af8 02be
00000160: 7d64 323e 2cb6 0e3e 51a4 f23d 3b5e 573d
00000170: 5bb0 9abd eda2 d13d 7605 243e 62a0 07bd
00000180: faef 163e 550d f9bd 9aa2 953d fa97 2dbd
00000190: 4dfa 8d3d 212f 15be 513c bb3d c5ef 843d
000001a0: 30f0 9fbb d3cc 15be 682b 123d e327 273e
000001b0: a193 1bbe c1e3 06be 5fb5 0b3e 960e d83d
000001c0: d63a d43d a4a7 fabc 5366 babd 2551 f2bd
000001d0: 056b 26be 66d8 993d 9256 adbd b652 cc3d
000001e0: df03 a2bd 74f0 b1bd 37ef 673d dffe f0bd
000001f0: cfab 0d3e 0cc1 b4bd f037 b63d 7d68 11bb
00000200: 390b 1b3e a92c 11bd d431 dcbd 200a 763d
00000210: 782a 293e 2a81 c5bd d3bd 243e 9b75 95bb
00000220: 534d ebbd f67a 5d3c e1ee ca3d 35db cc3d
00000230: a660 273e 99f6 b4bc b733 d7bd 9477 003e
00000240: f800 c2bd 3b1a 263e f9e9 283e 169e 1f3e
00000250: f81e 123b 3fe5 cbbd 8c1f 13be 238d 08be
00000260: da36 833d 104e 5ebd a640 4f3d 3d49 a13c
00000270: 4542 13be 6950 f9bd 09d2 1f3e 4b5a 46bd
00000280: fc3a 2bbd a840 eabd 2f75 083e 6cc0 e7bd
00000290: 624e a63d ab51 9dbd b039 aa3d b946 e33b
000002a0: 8463 0abe 4360 193e c389 143e ccb5 53bd
000002b0: 6566 bdbd 5809 013d 946e 223c a7f4 c5bd
000002c0: 6753 c3bd b8d5 02bd ca5c cdbd a613 db3d
000002d0: 653d d93d 5ee9 d3bd ef92 ab3d 96e8 1f3b
000002e0: 4a20 423d 0c91 5c3c f40a f53d 8eb7 203e
000002f0: 2442 60bd b487 093e ff60 153e 8969 f93b
00000300: 1012 babd de02 16bd adb2 fa3c 309d 2e3e
00000310: 1e98 9ebd 6a17 aebd b49b 303e 2ef3 56bb
00000320: 9890 af3d b7ad 2d3e f2e8 033e 345c ab3d
00000330: f1aa 7abd 0c20 023e 1c0b 9c3d b500 10be
00000340: 7dbf 183e d146 5abd ba3e 103d e473 11be
00000350: d38e 32bd 3eb6 1a3e b5f0 07be fe5b 4d3d
00000360: 3e0e ddbc 489b 95bd 3f63 f33d 7437 2fbe
00000370: a02a b9bd 1ea3 e0bd ef85 313c 7317 f2bd
00000380: e95d 0f3e 15fe 683b ec8e a73d 3ac6 ca3c
00000390: 4b2e 4bbd c772 2fbe 9a51 b33d 61c1 0ebe
000003a0: 30e3 c8bd d530 ba3a 193e 63bd 1603 30be
000003b0: 0861 a83d 2659 8c3d d96a e13d b457 973d
000003c0: 60ba 5bbc 918a 12be d84b 533a 16f7 9abd
000003d0: 195a da3d 9306 1abe d3f9 a2bd 2d63 abbc
000003e0: 8ca0 4bbd db9d d63d 5cbd 683d 0f12 ae3d
000003f0: 0fff 0f3e a6b9 353c 086d 543c 5ae9 b83d
0.15463291 0.037294634 0.079602905 0.12731323 0.06537351 -0.017842257 -0.02481493 0.13005506
-0.08873282 -0.15978472 -0.04143532 0.075114444 -0.01514758 0.14853637 -0.042484373 0.13026665
0.12064922 0.0880483 -0.086554185 -0.15561005 0.14387429 0.038225487 0.030246696 -0.032517403
0.13449775 0.11138926 -0.08643579 -0.07988837 -0.07746611 0.0025996182 -0.07777832 -0.07833205
0.04879551 0.0015290873 0.11817413 -0.08671123 -0.08029524 0.11374829 0.16226482 -0.027875742
0.03025011 -0.0990712 -0.109034196 0.09416255 -0.011355236 0.08992746 -0.121241264 0.0030219872
-0.03849377 -0.03233183 -0.044375554 0.058240436 -0.029444039 -0.03320407 0.11254089 -0.14545856
0.16869307 -0.106867194 0.14739905 0.1174861 0.08496676 -0.12339304 0.04938048 0.13581452
0.020933555 0.09987432 -0.16426891 0.06696332 -0.058626525 -0.082293466 0.08172976 -0.16739704
-0.10992245 0.14091931 -0.068013065 0.084192924 0.065120585 -0.17446329 0.06842309 0.06415385
-0.12496416 0.04313724 0.10394909 0.08881185 -0.1137293 0.12807982 0.01963206 -0.12790099
0.17421146 0.1393668 0.11847747 0.0525801 -0.075531684 0.10236154 0.16017708 -0.033111937
0.14739981 -0.12160746 0.073064044 -0.042381264 0.06932507 -0.1456876 0.09142364 0.06491045
-0.0048809275 -0.14628915 0.035685927 0.1632381 -0.15193035 -0.13172819 0.13643406 0.10549657
0.103627846 -0.030597515 -0.09101548 -0.11831883 -0.16251762 0.07511978 -0.084637776 0.09976713
-0.079108946 -0.08688441 0.056624617 -0.11767363 0.13835071 -0.08825883 0.08897388 -0.0022187524
0.15141 -0.035442982 -0.107516915 0.06006825 0.16520107 -0.09643777 0.16088037 -0.004561139
-0.11489358 0.013518086 0.09908844 0.10002748 0.16345462 -0.022090243 -0.10507911 0.12545615
-0.09472841 0.16220944 0.16495503 0.15587649 0.002229629 -0.099558346 -0.14367503 -0.1333509
0.064069465 -0.054273665 0.050598763 0.019688243 -0.14380749 -0.1217354 0.15607466 -0.048425954
-0.0418043 -0.114381135 0.13325952 -0.113159984 0.08120419 -0.076815926 0.08311784 0.006935921
-0.13514525 0.14978127 0.14505677 -0.051687047 -0.09248046 0.03150305 0.009914059 -0.09665804
-0.09537392 -0.0319421 -0.10027464 0.10697107 0.10607413 -0.10347246 0.08377635 0.0024400107
0.047394074 0.013462316 0.1196498 0.1569502 -0.054750577 0.13430673 0.14587782 0.0076114577
-0.090854764 -0.036623828 0.030602777 0.1705215 -0.07743858 -0.0850056 0.17246896 -0.0032798755
0.08572501 0.16960798 0.1288183 0.08367196 -0.06119818 0.12707537 0.076193064 -0.1406277
0.14916797 -0.053290192 0.03521607 -0.14204365 -0.04359324 0.15108582 -0.13275416 0.05013656
-0.02698433 -0.07305008 0.11884164 -0.17110997 -0.09041333 -0.10968612 0.010835155 -0.11820879
0.14000668 0.0035551835 0.08181557 0.024752725 -0.049604695 -0.17133628 0.08755799 -0.13940956
-0.098089576 0.0014205227 -0.055479143 -0.17188677 0.08221632 0.06852941 0.11006708 0.07389775
-0.0134111345 -0.14310671 0.0008060313 -0.07566659 0.10661716 -0.1504157 -0.079578064 -0.020921314
-0.049713656 0.10479327 0.056821212 0.08499538 0.14062141 0.011091625 0.012965448 0.09028883

model.lstm.bias_ih_l1 f4 [128]
00000000: 9cdc 5b3e e74b cf3e 9ef1 963e 965d ef3d
00000010: 183e a93e af7a ad3e 7804 4f3e 70bc 543e
00000020: 6a7f 0d3e e660 603e 3a8f bd3e 42e8 bd3e
00000030: 3c0d 953e b3dd 9c3d 5b78 a13e 6313 a83e
00000040: 16da 653e 295c 343e 00a6 b93d 4735 b13e
00000050: 953f 983e b15b 183e 11c7 523e c6b8 e13e
00000060: 9b68 8e3e 59dc 1f3e 8ba4 a83e c019 973e
00000070: e8f3 a83e d0ff 7d3d 1d08 5f3e a13c b43e
00000080: 5e85 26be c97b 333c 85f6 83bd 8e6d 8f3d
00000090: ff65 25bd 9e39 c9bd fdd9 123e fdaa 333e
000000a0: c925 87bd 7cde 1e3e 80d6 86bd 772d 27be
000000b0: 7c14 953d 2758 f63b f67c d4bd cef1 fbbc
000000c0: 09dc cd3d d4ab 21be 71de a0bd c23d fa3d
000000d0: e0ab cabd 32cc 09be 4ad4 553d ca65 26bd
000000e0: 113d dfbd 4b33 823d 13f3 d3bd 9296 2b3e
000000f0: e995 1cbe c7bc aabd d79c e5bc 8de7 b7bd
00000100: ab42 6b3e cd58 3fbe 5913 e23d 25b4 13bd
00000110: 7ecb dcbc e8b2 f2bc c86c b83d 0aec 78bd
00000120: 91d4 6f3d 68a1 a1bc 60cd 09be 5309 46be
00000130: 8473 99bc 7286 893c 23b8 08be 9ff9 973e
00000140: 1a96 87bd 94b7 c13d db64 083e 2db3 8dbe
00000150: b9eb 7d3d ad05 b6bd b173 643e 9098 823e
00000160: d44c 73be cda8 67be ca4d d6bd 40ba edbc
00000170: 2a05 5b3e 9099 1e3e df9b 713c c7ee 813e
00000180: 14e8 923e fb0a 6c3e 0538 0a3e 3cec 983e
00000190: d844 043e 1f3b ca3d 51c3 fc3d 6e09 1a3e
000001a0: 9a42 d93e 52f1 323e 018b e83d 3d8a 643e
000001b0: ac9c bb3e c017 873e ba4f a73e 3cff a13d
000001c0: ce01 423e 2c9f c53e 3626 eb3d 3fc4 b43e
000001d0: a745 9c3e 859b 043e 3c3d 0a3e f4c3 323e
000001e0: c95a e03e e604 a33e 4294 b13e 87bb 973e
000001f0: 5485 cb3e 597d 8b3e b78a cd3e e3e4 7a3e
0.21470875 0.40487596 0.29481214 0.11687772 0.33055186 0.33882663 0.20216548 0.20775008
0.13818136 0.21911964 0.37023336 0.3709126 0.2911166 0.07659473 0.31537136 0.3282729
0.22446474 0.17613281 0.09064865 0.3461096 0.2973601 0.14878727 0.2058375 0.44086283
0.27814183 0.156114 0.32938036 0.29511833 0.32998586 0.06201154 0.21780439 0.35202506
-0.16261813 0.010954806 -0.06443504 0.07003318 -0.040380474 -0.09825443 0.14340968 0.17545696
-0.06599004 0.15514559 -0.065838814 -0.16325937 0.07279298 0.007517833 -0.10375397 -0.03075495
0.10051734 -0.15788203 -0.07854927 0.122188106 -0.09896064 -0.134568 0.052204408 -0.040624417
-0.10900319 0.063574396 -0.10349097 0.16756657 -0.15291561 -0.08336788 -0.028028889 -0.08979712
0.2297465 -0.18686219 0.110388465 -0.03606047 -0.026952501 -0.029626325 0.090051234 -0.06077198
0.05855233 -0.019730285 -0.1345725 -0.19339494 -0.01873184 0.016787741 -0.13351493 0.29682633
-0.066204265 0.09458843 0.13319723 -0.27675763 0.06199238 -0.08887801 0.22309758 0.2550702
-0.23759776 -0.22622986 -0.10464056 -0.029019475 0.21388689 0.15488267 0.014746635 0.25377485
0.28692687 0.23051064 0.13497932 0.29867733 0.12916887 0.09874558 0.12341941 0.1504266
0.42433625 0.17474869 0.11354638 0.22318359 0.3664297 0.26385307 0.32678014 0.0791001
0.18946001 0.38598 0.114818975 0.35305974 0.3052189 0.12949951 0.13499922 0.17457563
0.43819264 0.31839675 0.34683424 0.2963526 0.3975016 0.2724407 0.40144894 0.24501376

model.lstm.bias_hh_l1 f4 [128]
00000000: 8665 0d3e 1ac7 2c3e fee7 b23d d302 cd3d
00000010: 6a2d 5a3e cdfd 873e 7397 823e 19ce 8b3e
00000020: 868d 013e 03f2 093e 44a7 513e a56c fa3d
00000030: 67e0 833e c254 473e 2347 553e 188c 143e
00000040: 7e1c 3f3d c073 073e 6333 e63d 0648 b63e
00000050: f248 ad3e 8c7c 743e 6afa 8e3e 9e51 b13e
00000060: 23f4 0a3e c07b 843e e49d b13e db7e a53e
00000070: 8f64 253e 50fc 483e 2e21 9e3e 41cc 543e
00000080: 9852 af3d 7166 e3bd 260d 16bc 1058 fd3d
00000090: 168b 13bd 521d bd3d c361 223d 4ac7 33be
000000a0: db8c 1fbe b2e0 8fbd a918 1a3e 7379 22bc
000000b0: bdfe 96bd cc8f bcbd a08a 1fbe e5e6 a7bd
000000c0: b4cb 0cbe fa33 28be 65b1 483c e7e3 703d
000000d0: 189c 27be e035 9bbd 131f f7bd c5fd debd
000000e0: d203 e33d 6c5f c53d fde3 2c3e 655a 8cbd
000000f0: 58b3 cc3c 2ae5 e4bb 6d09 60bd 484d 1d3d
00000100: 91d9 263e 68db 4fbe ad2b 2d3e 0e32 12be
00000110: 7183 06be d60c 94bd 55a2 5a3e ab95 84be
00000120: b7ca 893e 9911 413d 736d 6ebd d488 3abe
00000130: 0408 9a3e 9ff3 1f3e 2a4d bcbd c557 9b3d
00000140: 673d 41be bd38 6a3e 9d7a 9c3e 818a 17be
00000150: bc21 253c cc2e 8fbd 7d1b 3e3e 8e54 e43c
00000160: b8b6 59be 16ca 38be 1911 3abe 4d52 f9bb
00000170: 3931 083e 21a8 243e 6895 583e 0e97 033e
00000180: fa32 6b3e 0d31 5f3e 2334 583e 683a 963e
00000190: ed00 823e b596 1c3e 5522 b03e 46ac 683e
000001a0: 42bc 943e 8cb3 8d3e 5a00 863e 78c4 453e
000001b0: 7b41 923e adc1 193e 42b6 d43e 02ba b93e
000001c0: be69 7a3e 1e02 d03e ffda b43e 943a a63d
000001d0: ccbe cd3d 0d1d 583e 6b10 493e ae53 a63e
000001e0: 26de 0b3e c665 393e 9d65 673e 8366 c93e
000001f0: b895 083e 896a ce3e 3be3 8d3e a82c 313e
0.1380826 0.16872826 0.08735655 0.10010304 0.21306387 0.26560822 0.25506172 0.27305678
0.12651643 0.13471226 0.20473963 0.122277535 0.25757143 0.19465926 0.20827918 0.14506567
0.04665803 0.13227749 0.1124027 0.35601825 0.33844715 0.23875636 0.27925426 0.3463258
0.13569693 0.25875664 0.34690773 0.32323346 0.16151641 0.196275 0.3088469 0.20781042
0.085606754 -0.111035235 -0.009158408 0.12370312 -0.036021315 0.09234108 0.039644014 -0.17556491
-0.15581076 -0.07025279 0.1504847 -0.009916651 -0.07372806 -0.092071146 -0.15580225 -0.081983365
-0.13749582 -0.16426077 0.012249325 0.058811095 -0.16368139 -0.07578635 -0.12066474 -0.108882464
0.11084713 0.09637341 0.16883846 -0.06853179 0.024987862 -0.0069853263 -0.05469649 0.03840378
0.16293932 -0.2029854 0.16911192 -0.14276907 -0.13136078 -0.07229011 0.21350987 -0.25895438
0.26912472 0.047135923 -0.058209848 -0.18216258 0.3008424 0.15620278 -0.091944054 0.075851
-0.1887108 0.22873206 0.30562297 -0.14798929 0.010078844 -0.06991348 0.18565173 0.02787235
-0.21261108 -0.1804584 -0.18170585 -0.007608688 0.13300027 0.16079761 0.21150744 0.12850592
0.22968665 0.21796055 0.21113639 0.29341435 0.2539133 0.15291865 0.34401193 0.22721967
0.2904988 0.27676046 0.26172143 0.19313228 0.28565583 0.15015288 0.41545302 0.36274725
0.244544 0.40626615 0.3532333 0.08116642 0.10046157 0.21104832 0.19635169 0.32485718
0.13658962 0.1810523 0.22597356 0.39336023 0.13338363 0.40315655 0.27712426 0.17302191

model.linear.weight f4 [1, 32]
00000000: db09 363f 8121 2bbf 26fd 2e3f 21d0 3cbf
00000010: 5723 39bf c6d1 2ebf b519 3d3f f8c3 33bf
00000020: 0346 253f a50d 23bf fe1a 40bf 16bc 32bf
00000030: 467d 213f 4ce1 323f 44f1 1abf ac2d 313f
00000040: 5e5c 38bf 1d4d 3b3f a596 273f 6232 15bf
00000050: 90e4 3e3f 12c2 24bf 403e 183f c2fd 233f
00000060: 4de5 18bf 8f5c 2bbf c584 3ebf 57e1 19bf
00000070: c18e 163f ca1e 383f 7f13 183f 0475 393f
0.7110879 -0.66848 0.68355024 -0.7375508 -0.7231955 -0.6828884 0.7386735 -0.702209
0.64559954 -0.63692695 -0.75041187 -0.69818246 0.6308178 0.69875026 -0.6052439 0.69210315
-0.7201594 0.7316454 0.6546424 -0.58280003 0.7456751 -0.6435863 0.59469986 0.6405908
-0.59724885 -0.6693811 -0.7442134 -0.60109466 0.58811575 0.7192198 0.5940475 0.72444177

exp_avg f4 [128, 1]
00000000: b201 0e9f 5f70 18bf 5f74 f19f 28e2 9abe
00000010: 38f6 052b c8eb 90be 1e9a 29be df8f 35b3
00000020: 11eb 6296 bce1 fbbb 4e6c 5c95 e4d0 2927
00000030: 2612 b0ac 53d6 abbe 1045 22b6 a985 beb7
00000040: 8089 3da6 a145 fe39 9d42 14bf 3f7a 6cbd
00000050: 496c 23b6 8467 fcbe db04 2bbe 5458 9f9b
00000060: a622 ffbd 23c4 7dba 831f 38b7 9255 34bf
00000070: 0241 28b9 dad6 c4b5 21e0 992a 06b4 9fbd
00000080: 0000 0000 0000 0000 0000 0000 0000 0000
00000090: 0000 0000 0000 0000 0000 0000 0000 0000
000000a0: 0000 0000 0000 0000 0000 0000 0000 0000
000000b0: 0000 0000 0000 0000 0000 0000 0000 0000
000000c0: 0000 0000 0000 0000 0000 0000 0000 0000
000000d0: 0000 0000 0000 0000 0000 0000 0000 0000
000000e0: 0000 0000 0000 0000 0000 0000 0000 0000
000000f0: 0000 0000 0000 0000 0000 0000 0000 0000
00000100: 0000 0000 d94a b538 a4fc cb21 0000 0000
00000110: d975 6528 0000 0000 0000 0000 0000 0000
00000120: ec39 9417 0000 0000 0000 0000 1e4e 229a
00000130: deb3 2835 0000 0000 33f2 4b33 2457 da9c
00000140: eca8 aa9e 0000 0000 0000 0000 0000 0000
00000150: 6484 eb18 bf31 f315 a121 4a35 1841 4897
00000160: 0000 0000 0000 0000 90a6 739c 0000 0000
00000170: 0000 0000 0000 0000 8833 88a2 0000 0000
00000180: a0ca 32bf 35f4 b1a9 efd6 97be 8cc9 719d
00000190: cc5f 082b 9897 04bd 402b 07b4 00a0 a4b3
000001a0: cd5b 69bf cf69 26b6 f576 33bd e6d0 2927
000001b0: 0f83 97be 841e d8b5 5816 87be 0bb9 39be
000001c0: 7c89 3da6 de29 023a 51c3 829f 799b a4bd
000001d0: f0bc 79be acf4 3c95 9b19 719d 3e98 89be
000001e0: 4b4e 959f 0000 0000 797c 19be 0000 0000
000001f0: 7657 f2bd 436b 3e9a d5de 992a 68de 85b0
-3.0071072e-20 -0.59546465 -1.0225999e-19 -0.3025067 4.759279e-13 -0.28304887 -0.16562697 -4.2273196e-08
-1.8330308e-25 -0.0076868217 -4.4514084e-26 2.3566701e-15 -5.0042357e-12 -0.33561954 -2.418008e-06 -2.2712005e-05
-6.5758895e-16 0.00048498533 -0.57914144 -0.05773377 -2.4351923e-06 -0.49297726 -0.16701071 -2.6361424e-22
-0.124577805 -0.0009680411 -1.09745915e-05 -0.7044307 -0.00016045946 -1.4665668e-06 2.733378e-13 -0.077980086
0.0 0.0 0.0 0.0 0.0 0.0 0.0 0.0
0.0 0.0 0.0 0.0 0.0 0.0 0.0 0.0
0.0 0.0 0.0 0.0 0.0 0.0 0.0 0.0
0.0 0.0 0.0 0.0 0.0 0.0 0.0 0.0
0.0 8.644694e-05 1.3822688e-18 0.0 1.2737608e-14 0.0 0.0 0.0
9.578897e-25 0.0 0.0 -3.3563917e-23 6.284662e-07 0.0 4.74849e-08 -1.4448555e-21
-1.8069315e-20 0.0 0.0 0.0 6.0879757e-24 9.8225404e-26 7.52998e-07 -6.4705645e-25
0.0 0.0 -8.0617233e-22 0.0 0.0 0.0 -3.6917435e-18 0.0
-0.6984043 -7.902742e-14 -0.2965617 -3.2000282e-21 4.844985e-13 -0.032371134 -1.2588589e-07 -7.665949e-08
-0.911557 -2.4797516e-06 -0.04381462 2.3566705e-15 -0.29592177 -1.6102135e-06 -0.26384234 -0.18136995
-6.5758873e-16 0.0004965345 -5.5380265e-20 -0.080374666 -0.2438848 -3.815931e-26 -3.1909322e-21 -0.26873964
-6.323348e-20 0.0 -0.14988889 0.0 -0.11833088 -3.9377724e-23 2.733288e-13 -9.740235e-10

exp_avg_sq f4 [128, 1]
00000000: 8b3f b12b 51c1 d246 fea6 332a 0614 1346
00000010: ac99 5923 9028 9646 e073 5943 6b20 832f
00000020: d714 4225 e543 b840 cebc 882a c348 2b17
00000030: f518 b92e fae4 8346 a35e ed34 c5ff dd37
00000040: abe2 9e13 460c 783f 6680 1f47 1394 e342
00000050: 07a0 1835 94f0 0047 69ea ba44 6f29 032d
00000060: 5be2 3344 9d61 cf3d d209 1436 fa37 b647
00000070: 1e3f 0e3a 6001 8634 4f46 871c 38ed ee43
00000080: 0000 0000 0000 0000 0000 0000 0000 0000
00000090: 0000 0000 0000 0000 0000 0000 0000 0000
000000a0: 0000 0000 0000 0000 0000 0000 0000 0000
000000b0: 0000 0000 0000 0000 0000 0000 0000 0000
000000c0: 0000 0000 0000 0000 0000 0000 0000 0000
000000d0: 0000 0000 0000 0000 0000 0000 0000 0000
000000e0: 0000 0000 0000 0000 0000 0000 0000 0000
000000f0: 0000 0000 0000 0000 0000 0000 0000 0000
00000100: 0000 0000 222a a23b bdcb 952c 0000 0000
00000110: f443 b01e 0000 0000 0000 0000 0000 0000
00000120: 1e63 6027 0000 0000 0000 0000 2cf0 4f00
00000130: 417a 1b34 0000 0000 38f2 c330 4f54 fe2a
00000140: 4f53 7f04 0000 0000 0000 0000 0000 0000
00000150: bcc7 4f2a 1ff0 b727 450e 1733 12f2 b52a
00000160: 0000 0000 0000 0000 73cb 1b2a 0000 0000
00000170: 0000 0000 0000 0000 3a7f 8d0c 0000 0000
00000180: 44e0 8747 69db 042f d11c 0246 fc88 102e
00000190: df79 8523 697d 1343 a375 0a2d db10 fc2f
000001a0: afaa f346 450c 0f35 87d9 4143 d148 2b17
000001b0: 90e7 1346 38d9 5134 1f6c 0c46 bbfe 4545
000001c0: a8e2 9e13 c9aa eb40 79c1 9d2e 5d8f 6343
000001d0: 2a64 7c46 0d8f a126 5c76 7f28 55e2 1646
000001e0: 6da9 992b 0000 0000 a93b a844 0000 0000
000001f0: f458 8844 e8a4 4e2d a143 871c 1999 902c
1.2594243e-12 26976.658 1.5956331e-13 9413.006 1.1796135e-17 19220.281 217.45264 2.3851796e-10
1.6833879e-16 5.758288 2.4289463e-13 5.534492e-25 8.417259e-11 16882.488 4.4213547e-07 2.6464355e-05
4.010832e-27 0.9689373 40832.4 113.78921 5.6857283e-07 33008.58 1495.3253 7.455688e-12
719.5368 0.1012604 2.2059435e-06 93295.95 0.00054262753 2.4960445e-07 8.951725e-22 477.85327
0.0 0.0 0.0 0.0 0.0 0.0 0.0 0.0
0.0 0.0 0.0 0.0 0.0 0.0 0.0 0.0
0.0 0.0 0.0 0.0 0.0 0.0 0.0 0.0
0.0 0.0 0.0 0.0 0.0 0.0 0.0 0.0
0.0 0.0049488703 4.257454e-12 0.0 1.866283e-20 0.0 0.0 0.0
3.1139976e-15 0.0 0.0 7.341162e-39 1.4479976e-07 0.0 1.425696e-09 4.5177965e-13
3.001336e-36 0.0 0.0 0.0 1.845459e-13 5.1053043e-15 3.5170405e-08 3.232003e-13
0.0 0.0 1.3837351e-13 0.0 0.0 0.0 2.1801061e-31 0.0
69568.53 1.208328e-10 8327.204 3.2863476e-11 1.4471503e-17 147.48988 7.870512e-12 4.585051e-10
31189.342 5.3289506e-07 193.84972 5.5344987e-25 9465.891 1.9543666e-07 8987.03 3167.9207
4.0108308e-27 7.364598 7.173901e-11 227.56001 16153.041 1.1210393e-15 1.4181009e-14 9656.583
1.0918329e-12 0.0 1345.8644 0.0 1090.7798 1.1746361e-11 8.951032e-22 4.1097234e-12

exp_avg f4 [128, 32]
00000000: 0000 0000 0000 0000 0000 0000 0000 0000
00000010: 0000 0000 0000 0000 0000 0000 0000 0000
00000020: 0000 0000 0000 0000 0000 0000 0000 0000
00000030: 0000 0000 0000 0000 0000 0000 0000 0000
00000040: 0000 0000 0000 0000 0000 0000 0000 0000
00000050: 0000 0000 0000 0000 0000 0000 0000 0000
00000060: 0000 0000 0000 0000 0000 0000 0000 0000
00000070: 0000 0000 0000 0000 0000 0000 0000 0000
00000080: 0000 0000 0000 0000 0000 0000 0000 0000
00000090: 0000 0000 0000 0000 0000 0000 0000 0000
000000a0: 0000 0000 0000 0000 0000 0000 0000 0000
000000b0: 0000 0000 0000 0000 0000 0000 0000 0000
000000c0: 0000 0000 0000 0000 0000 0000 0000 0000
000000d0: 0000 0000 0000 0000 0000 0000 0000 0000
000000e0: 0000 0000 0000 0000 0000 0000 0000 0000
000000f0: 0000 0000 0000 0000 0000 0000 0000 0000
00000100: 0000 0000 0000 0000 0000 0000 0000 0000
00000110: 0000 0000 0000 0000 0000 0000 0000 0000
00000120: 0000 0000 0000 0000 0000 0000 0000 0000
00000130: 0000 0000 0000 0000 0000 0000 0000 0000
00000140: 0000 0000 0000 0000 0000 0000 0000 0000
00000150: 0000 0000 0000 0000 0000 0000 0000 0000
00000160: 0000 0000 0000 0000 0000 0000 0000 0000
00000170: 0000 0000 0000 0000 0000 0000 0000 0000
00000180: 0000 0000 0000 0000 0000 0000 0000 0000
00000190: 0000 0000 0000 0000 0000 0000 0000 0000
000001a0: 0000 0000 0000 0000 0000 0000 0000 0000
000001b0: 0000 0000 0000 0000 0000 0000 0000 0000
000001c0: 0000 0000 0000 0000 0000 0000 0000 0000
000001d0: 0000 0000 0000 0000 0000 0000 0000 0000
000001e0: 0000 0000 0000 0000 0000 0000 0000 0000
000001f0: 0000 0000 0000 0000 0000 0000 0000 0000
00000200: 0000 0000 0000 0000 0000 0000 0000 0000
00000210: 0000 0000 0000 0000 0000 0000 0000 0000
00000220: 0000 0000 0000 0000 0000 0000 0000 0000
00000230: 0000 0000 0000 0000 0000 0000 0000 0000
00000240: 0000 0000 0000 0000 0000 0000 0000 0000
00000250: 0000 0000 0000 0000 0000 0000 0000 0000
00000260: 0000 0000 0000 0000 0000 0000 0000 0000
00000270: 0000 0000 0000 0000 0000 0000 0000 0000
00000280: 0000 0000 0000 0000 0000 0000 0000 0000
00000290: 0000 0000 0000 0000 0000 0000 0000 0000
000002a0: 0000 0000 0000 0000 0000 0000 0000 0000
000002b0: 0000 0000 0000 0000 0000 0000 0000 0000
000002c0: 0000 0000 0000 0000 0000 0000 0000 0000
000002d0: 0000 0000 0000 0000 0000 0000 0000 0000
000002e0: 0000 0000 0000 0000 0000 0000 0000 0000
000002f0: 0000 0000 0000 0000 0000 0000 0000 0000
00000300: 0000 0000 0000 0000 0000 0000 0000 0000
00000310: 0000 0000 0000 0000 0000 0000 0000 0000
00000320: 0000 0000 0000 0000 0000 0000 0000 0000
00000330: 0000 0000 0000 0000 0000 0000 0000 0000
00000340: 0000 0000 0000 0000 0000 0000 0000 0000
00000350: 0000 0000 0000 0000 0000 0000 0000 0000
00000360: 0000 0000 0000 0000 0000 0000 0000 0000
00000370: 0000 0000 0000 0000 0000 0000 0000 0000
00000380: 0000 0000 0000 0000 0000 0000 0000 0000
00000390: 0000 0000 0000 0000 0000 0000 0000 0000
000003a0: 0000 0000 0000 0000 0000 0000 0000 0000
000003b0: 0000 0000 0000 0000 0000 0000 0000 0000
000003c0: 0000 0000 0000 0000 0000 0000 0000 0000
000003d0: 0000 0000 0000 0000 0000 0000 0000 0000
000003e0: 0000 0000 0000 0000 0000 0000 0000 0000
000003f0: 0000 0000 0000 0000 0000 0000 0000 0000
0.0 0.0 0.0 0.0 0.0 0.0 0.0 0.0
0.0 0.0 0.0 0.0 0.0 0.0 0.0 0.0
0.0 0.0 0.0 0.0 0.0 0.0 0.0 0.0
0.0 0.0 0.0 0.0 0.0 0.0 0.0 0.0
0.0 0.0 0.0 0.0 0.0 0.0 0.0 0.0
0.0 0.0 0.0 0.0 0.0 0.0 0.0 0.0
0.0 0.0 0.0 0.0 0.0 0.0 0.0 0.0
0.0 0.0 0.0 0.0 0.0 0.0 0.0 0.0
0.0 0.0 0.0 0.0 0.0 0.0 0.0 0.0
0.0 0.0 0.0 0.0 0.0 0.0 0.0 0.0
0.0 0.0 0.0 0.0 0.0 0.0 0.0 0.0
0.0 0.0 0.0 0.0 0.0 0.0 0.0 0.0
0.0 0.0 0.0 0.0 0.0 0.0 0.0 0.0
0.0 0.0 0.0 0.0 0.0 0.0 0.0 0.0
0.0 0.0 0.0 0.0 0.0 0.0 0.0 0.0
0.0 0.0 0.0 0.0 0.0 0.0 0.0 0.0
0.0 0.0 0.0 0.0 0.0 0.0 0.0 0.0
0.0 0.0 0.0 0.0 0.0 0.0 0.0 0.0
0.0 0.0 0.0 0.0 0.0 0.0 0.0 0.0
0.0 0.0 0.0 0.0 0.0 0.0 0.0 0.0
0.0 0.0 0.0 0.0 0.0 0.0 0.0 0.0
0.0 0.0 0.0 0.0 0.0 0.0 0.0 0.0
0.0 0.0 0.0 0.0 0.0 0.0 0.0 0.0
0.0 0.0 0.0 0.0 0.0 0.0 0.0 0.0
0.0 0.0 0.0 0.0 0.0 0.0 0.0 0.0
0.0 0.0 0.0 0.0 0.0 0.0 0.0 0.0
0.0 0.0 0.0 0.0 0.0 0.0 0.0 0.0
0.0 0.0 0.0 0.0 0.0 0.0 0.0 0.0
0.0 0.0 0.0 0.0 0.0 0.0 0.0 0.0
0.0 0.0 0.0 0.0 0.0 0.0 0.0 0.0
0.0 0.0 0.0 0.0 0.0 0.0 0.0 0.0
0.0 0.0 0.0 0.0 0.0 0.0 0.0 0.0

exp_avg_sq f4 [128, 32]
00000000: 0000 0000 0000 0000 0000 0000 0000 0000
00000010: 0000 0000 0000 0000 0000 0000 0000 0000
00000020: 0000 0000 0000 0000 0000 0000 0000 0000
00000030: 0000 0000 0000 0000 0000 0000 0000 0000
00000040: 0000 0000 0000 0000 0000 0000 0000 0000
00000050: 0000 0000 0000 0000 0000 0000 0000 0000
00000060: 0000 0000 0000 0000 0000 0000 0000 0000
00000070: 0000 0000 0000 0000 0000 0000 0000 0000
00000080: 0000 0000 0000 0000 0000 0000 0000 0000
00000090: 0000 0000 0000 0000 0000 0000 0000 0000
000000a0: 0000 0000 0000 0000 0000 0000 0000 0000
000000b0: 0000 0000 0000 0000 0000 0000 0000 0000
000000c0: 0000 0000 0000 0000 0000 0000 0000 0000
000000d0: 0000 0000 0000 0000 0000 0000 0000 0000
000000e0: 0000 0000 0000 0000 0000 0000 0000 0000
000000f0: 0000 0000 0000 0000 0000 0000 0000 0000
00000100: 0000 0000 0000 0000 0000 0000 0000 0000
00000110: 0000 0000 0000 0000 0000 0000 0000 0000
00000120: 0000 0000 0000 0000 0000 0000 0000 0000
00000130: 0000 0000 0000 0000 0000 0000 0000 0000
00000140: 0000 0000 0000 0000 0000 0000 0000 0000
00000150: 0000 0000 0000 0000 0000 0000 0000 0000
00000160: 0000 0000 0000 0000 0000 0000 0000 0000
00000170: 0000 0000 0000 0000 0000 0000 0000 0000
00000180: 0000 0000 0000 0000 0000 0000 0000 0000
00000190: 0000 0000 0000 0000 0000 0000 0000 0000
000001a0: 0000 0000 0000 0000 0000 0000 0000 0000
000001b0: 0000 0000 0000 0000 0000 0000 0000 0000
000001c0: 0000 0000 0000 0000 0000 0000 0000 0000
000001d0: 0000 0000 0000 0000 0000 0000 0000 0000
000001e0: 0000 0000 0000 0000 0000 0000 0000 0000
000001f0: 0000 0000 0000 0000 0000 0000 0000 0000
00000200: 0000 0000 0000 0000 0000 0000 0000 0000
00000210: 0000 0000 0000 0000 0000 0000 0000 0000
00000220: 0000 0000 0000 0000 0000 0000 0000 0000
00000230: 0000 0000 0000 0000 0000 0000 0000 0000
00000240: 0000 0000 0000 0000 0000 0000 0000 0000
00000250: 0000 0000 0000 0000 0000 0000 0000 0000
00000260: 0000 0000 0000 0000 0000 0000 0000 0000
00000270: 0000 0000 0000 0000 0000 0000 0000 0000
00000280: 0000 0000 0000 0000 0000 0000 0000 0000
00000290: 0000 0000 0000 0000 0000 0000 0000 0000
000002a0: 0000 0000 0000 0000 0000 0000 0000 0000
000002b0: 0000 0000 0000 0000 0000 0000 0000 0000
000002c0: 0000 0000 0000 0000 0000 0000 0000 0000
000002d0: 0000 0000 0000 0000 0000 0000 0000 0000
000002e0: 0000 0000 0000 0000 0000 0000 0000 0000
000002f0: 0000 0000 0000 0000 0000 0000 0000 0000
00000300: 0000 0000 0000 0000 0000 0000 0000 0000
00000310: 0000 0000 0000 0000 0000 0000 0000 0000
00000320: 0000 0000 0000 0000 0000 0000 0000 0000
00000330: 0000 0000 0000 0000 0000 0000 0000 0000
00000340: 0000 0000 0000 0000 0000 0000 0000 0000
00000350: 0000 0000 0000 0000 0000 0000 0000 0000
00000360: 0000 0000 0000 0000 0000 0000 0000 0000
00000370: 0000 0000 0000 0000 0000 0000 0000 0000
00000380: 0000 0000 0000 0000 0000 0000 0000 0000
00000390: 0000 0000 0000 0000 0000 0000 0000 0000
000003a0: 0000 0000 0000 0000 0000 0000 0000 0000
000003b0: 0000 0000 0000 0000 0000 0000 0000 0000
000003c0: 0000 0000 0000 0000 0000 0000 0000 0000
000003d0: 0000 0000 0000 0000 0000 0000 0000 0000
000003e0: 0000 0000 0000 0000 0000 0000 0000 0000
000003f0: 0000 0000 0000 0000 0000 0000 0000 0000
0.0 0.0 0.0 0.0 0.0 0.0 0.0 0.0
0.0 0.0 0.0 0.0 0.0 0.0 0.0 0.0
0.0 0.0 0.0 0.0 0.0 0.0 0.0 0.0
0.0 0.0 0.0 0.0 0.0 0.0 0.0 0.0
0.0 0.0 0.0 0.0 0.0 0.0 0.0 0.0
0.0 0.0 0.0 0.0 0.0 0.0 0.0 0.0
0.0 0.0 0.0 0.0 0.0 0.0 0.0 0.0
0.0 0.0 0.0 0.0 0.0 0.0 0.0 0.0
0.0 0.0 0.0 0.0 0.0 0.0 0.0 0.0
0.0 0.0 0.0 0.0 0.0 0.0 0.0 0.0
0.0 0.0 0.0 0.0 0.0 0.0 0.0 0.0
0.0 0.0 0.0 0.0 0.0 0.0 0.0 0.0
0.0 0.0 0.0 0.0 0.0 0.0 0.0 0.0
0.0 0.0 0.0 0.0 0.0 0.0 0.0 0.0
0.0 0.0 0.0 0.0 0.0 0.0 0.0 0.0
0.0 0.0 0.0 0.0 0.0 0.0 0.0 0.0
0.0 0.0 0.0 0.0 0.0 0.0 0.0 0.0
0.0 0.0 0.0 0.0 0.0 0.0 0.0 0.0
0.0 0.0 0.0 0.0 0.0 0.0 0.0 0.0
0.0 0.0 0.0 0.0 0.0 0.0 0.0 0.0
0.0 0.0 0.0 0.0 0.0 0.0 0.0 0.0
0.0 0.0 0.0 0.0 0.0 0.0 0.0 0.0
0.0 0.0 0.0 0.0 0.0 0.0 0.0 0.0
0.0 0.0 0.0 0.0 0.0 0.0 0.0 0.0
0.0 0.0 0.0 0.0 0.0 0.0 0.0 0.0
0.0 0.0 0.0 0.0 0.0 0.0 0.0 0.0
0.0 0.0 0.0 0.0 0.0 0.0 0.0 0.0
0.0 0.0 0.0 0.0 0.0 0.0 0.0 0.0
0.0 0.0 0.0 0.0 0.0 0.0 0.0 0.0
0.0 0.0 0.0 0.0 0.0 0.0 0.0 0.0
0.0 0.0 0.0 0.0 0.0 0.0 0.0 0.0
0.0 0.0 0.0 0.0 0.0 0.0 0.0 0.0
