dl_computer_vision/assignments/1/checkpoints/best_checkpoint-v4.ckpt (torch, 168892 bytes, 27 tensors)

model.lstm.weight_ih_l0 f4 [128, 1]
000000 91 38 18 3e 54 22 e4 3d 5c 88 3f 3d d3 40 24 3e
       0.14865328 0.1113936 0.0467609 0.16040353
000010 ba a4 02 3e 08 c8 d6 bd a8 3b 02 be 9c ae 97 3d
       0.1275815 -0.10487372 -0.1271807 0.07406351
000020 31 10 23 3d 4d f7 2b 3e 1b fc 28 be da f6 11 be
       0.039810363 0.16793557 -0.1650242 -0.14254323
000030 ae 54 4f 3d eb 85 23 3e be 8d 38 3d 2b f4 25 3e
       0.050617866 0.15969054 0.04505705 0.16206424
000040 da 16 04 3e 50 96 28 3e 2e 36 f0 3d 25 ad 26 3e
       0.12899342 0.1646359 0.11729084 0.16276987
000050 4d 3b 23 3d b1 fb 06 3e 2a 2f 0c 3e aa 54 23 3e
       0.039851476 0.1318195 0.13689867 0.15950266
000060 fe cb c8 3d 8b d2 03 3d 2b ce 47 3d a7 3c 3e 3d
       0.098045334 0.03218321 0.0487806 0.04644456
000070 f7 a9 e4 3d 53 e7 25 3e df cb 9b 3d d8 67 31 3d
       0.11165231 0.16201524 0.07607245 0.043311924
000080 7e 7e 26 be a1 15 91 3c 69 96 10 3e d8 48 24 3e
       -0.1625919 0.017710509 0.14119877 0.16043413
000090 c8 dc 2a 3d 9c 28 61 bd 90 f5 25 3e 44 76 bd bd
       0.04171446 -0.05497037 0.16206956 -0.09251073
0000a0 37 30 33 be 04 b8 de bd 13 e3 27 be 0a ec 29 be
       -0.17498861 -0.10874942 -0.16395216 -0.16593948
0000b0 65 1b ba bd d4 11 0e be 7c 48 4c 3d 4d be 09 bc
       -0.09087256 -0.13873988 0.049873814 -0.008407188
0000c0 e0 36 49 bc 09 81 dc 3d 3d 58 c5 3d 90 a9 02 3e
       -0.01228115 0.10766799 0.09635971 0.12759995
0000d0 c2 a6 0e be 29 f9 8a bd cf 8f c6 3d 40 a2 7c bc
       -0.139308 -0.06785805 0.09695398 -0.015419543
0000e0 bc 0c 63 3d b2 a2 3f bd 6e b1 39 3d da 60 cd bd
       0.055432066 -0.046786018 0.045335226 -0.100282386
0000f0 9d 3f af 3d 40 7e 27 be fa e5 10 3e 7c 36 1d be
       0.08557055 -0.16356754 0.14150229 -0.15352815
000100 27 9b a5 3d 52 06 2f be aa 91 23 3e 70 50 08 3e
       0.080862336 -0.17092255 0.15973535 0.13311934
000110 43 5e 59 3d ef 9e 4b 3d 18 da 0c be cd 79 c4 bd
       0.05306841 0.049712118 -0.13755071 -0.09593544
000120 47 15 c0 bd 37 74 6a bd ca 86 7d bc 1c a4 c1 bd
       -0.09379058 -0.057239737 -0.015474031 -0.094551295
000130 d6 1c a7 bd bd ad 06 be 2b 38 b7 3d 35 7c a0 bd
       -0.08159797 -0.13152213 0.0894626 -0.078361906
000140 f9 a3 55 3d a1 b6 b2 3d 6a a3 ab 3d 78 d3 b0 bd
       0.05215833 0.0872624 0.08380778 -0.086340845
000150 ec 7f 27 be 4d 59 21 3e 70 b2 c1 bd 32 01 4c 3d
       -0.16357392 0.15756722 -0.094578624 0.049805827
000160 70 42 a2 3d b4 b6 29 3e 51 c3 2d 3e b0 80 06 be
       0.07922828 0.16573602 0.16969039 -0.13135028
000170 d3 0a fb bd 4e e2 ad 3d 7b b4 b2 bd d8 60 8a bd
       -0.12257924 0.0849043 -0.0872583 -0.06756753
000180 ce 90 1b 3d b4 4f 22 3e 37 c3 d4 3d dd 49 18 3d
       0.037979893 0.15850717 0.10388797 0.037179817
000190 2a 15 34 3d 8b 9f 0a be d6 22 e6 bd 57 f7 3b 3d
       0.043965496 -0.13537423 -0.11237113 0.04589018
0001a0 cf 86 22 3e 24 34 3d 3d a0 be 05 be b2 c0 95 bd
       0.15871738 0.046192303 -0.13060999 -0.07312144
0001b0 6c 37 21 3e bd 6d 1a 3e 81 bc 23 3e 9a 16 b0 3d
       0.15743798 0.15080924 0.15989877 0.08598061
0001c0 43 57 14 3e 0f 25 2e 3d c4 cb 2d 3d cb 4f 2a 3d
       0.14486413 0.04251581 0.042430654 0.041580003
0001d0 af c4 3f 3d ec 5e 1f 3e 43 18 af 3d c6 20 2b 3e
       0.04681843 0.15563554 0.085495494 0.16711721
0001e0 8b 5b 2e 3d bd 19 c7 3d ed f6 31 3d a4 39 33 3d
       0.04256777 0.09721706 0.043448377 0.043756142
0001f0 29 51 23 3e 25 42 20 3d 5f 5e 2c 3d 8d 1c 92 3d
       0.15948929 0.03912558 0.042082187 0.07134352

model.lstm.weight_hh_l0 f4 [128, 32]
000000 b8 35 1a be 17 2c c1 3d 60 43 eb 3c 25 ab fa bc
       -0.15059555 0.094322376 0.02871865 -0.030599186
000010 4d 63 6c 3d 5d e2 92 3d 41 78 f8 bd 69 bd 5d bc
       0.057711888 0.071720816 -0.121323116 -0.013533928
000020 7f cc aa bc 99 b6 0e be 3b 1e e2 bd 9a 37 1e 3e
       -0.020849464 -0.13936843 -0.11040922 0.15450898
000030 54 83 80 ba 0e fb 26 bd 2d 4b 27 be 1d f7 8b 3d
       -0.0009804764 -0.04076677 -0.16337271 0.068342425
000040 91 b6 98 3d fb 03 2c 3e de 4c 31 3e ee 0f f0 bb
       0.07456697 0.16798393 0.17314479 -0.0073261177
000050 e1 d8 ec 3d 2f e7 28 3e af 10 1f be c7 ab 15 3e
       0.11564804 0.1649444 -0.15533708 0.14616309
000060 e1 f0 a4 bd 8b 82 71 3c 5d 20 dc bd 18 5b f9 bc
       -0.080537565 0.0147405965 -0.1074836 -0.030438945
000070 71 c7 fc bd 47 4b 2c be 4c e0 1c be c5 d2 e7 3d
       -0.12342728 -0.16825591 -0.15319937 0.11319498
000080 ed 43 01 3d 53 e7 59 3d 13 cc 6e bd ba f7 ac bd
       0.03155892 0.053199124 -0.05830009 -0.084456876
000090 40 98 10 bd 2f 9c 05 be e9 b3 e8 3d d5 f0 14 be
       -0.035301447 -0.1304786 0.1136244 -0.14544995
0000a0 67 99 5b bc 71 ca 32 3e 44 c7 86 bc f4 01 2a bd
       -0.013403273 0.17460038 -0.01645244 -0.04150577
0000b0 d1 f4 0c 3e 93 68 b5 bd 13 37 31 3e b9 34 4b 3d
       0.13765265 -0.088578366 0.17306165 0.049610827
0000c0 6c ce fa bd 81 9e e9 bd 29 34 53 3d 4d 4d 93 3c
       -0.12246403 -0.11407185 0.051563416 0.017981196
0000d0 2d bf 53 bd f8 77 2f 3e 89 97 47 bc 8d 49 12 bd
       -0.05169599 0.17135608 -0.012182125 -0.035714675
0000e0 06 6c 8d bd 50 d6 38 bd 61 42 8e bd 28 a0 e8 3c
       -0.069053695 -0.04512626 -0.069462545 0.028396681
0000f0 bb 9c 19 3c 83 b6 1a 3c 16 95 1c be 9e c9 2c be
       0.009375746 0.009442928 -0.15291247 -0.16873786
000100 fe 85 88 bd c7 4a 05 be 4f d7 20 bd 0b b7 da bb
       -0.06666182 -0.13016807 -0.039267834 -0.0066746525
000110 75 09 2a be 7d a1 2e 3d 3f 83 02 3e 91 0d f8 bc
       -0.1660517 0.042634476 0.12745379 -0.030279906
000120 9d 34 11 be 38 5d 17 be aa b1 ff bd 0a df a9 bd
       -0.14180227 -0.14781654 -0.124850586 -0.082944945
000130 5a bb 8b 3d b8 4d 9c bb 1d 62 8b 3d c0 1e eb bd
       0.06822844 -0.004770007 0.06805823 -0.114804745
000140 38 15 13 bd 96 c4 48 b9 70 fb 16 3e 32 6b fc bd
       -0.035908908 -0.0001914672 0.14744353 -0.123251334
000150 04 d6 01 3e d0 ce fe 3d c5 43 8c bd 0c 0a 43 ba
       0.12679297 0.1244179 -0.068488635 -0.0007440157
000160 06 70 bf bd 7d 3c fb 3d 72 2e 83 3d 77 c9 db 3d
       -0.09347539 0.122673966 0.06405343 0.10731786
000170 77 2b f2 3d 27 12 2a 3d ec 89 b8 bd 7e db 87 bd
       0.118246965 0.041521218 -0.090106815 -0.06633662
000180 90 97 cd 3b 1c c9 9d bb 83 77 f6 3d d4 fb f4 3d
       0.006274171 -0.004815234 0.12034514 0.11962095
000190 f4 0b be bd ed eb b6 bd 76 6f 27 3e fa f2 2c bd
       -0.09279624 -0.08931718 0.16351113 -0.042223908
0001a0 e5 6b 0f 3e a9 bb 96 bc ad 9c be 3d 2d 87 e7 bd
       0.14006002 -0.01840003 0.09307227 -0.113050796
0001b0 80 a8 a8 3d 3c 1b dc bd b6 58 dc bd a7 39 3c 3c
       0.08235264 -0.10747382 -0.10759108 0.011488355
0001c0 cc ce f8 bd 3d 8e b7 b9 2a b3 ae 3c d6 1d c3 bd
       -0.121488184 -0.00035010456 0.021325666 -0.09527175
0001d0 f0 fe 00 bd 72 1e 59 bc 0c ee c5 bd a8 4c 87 bd
       -0.031493127 -0.013251888 -0.096645445 -0.06606418
0001e0 f9 13 0d 3e 88 6b 22 be 9e 46 07 be ab c6 43 bd
       0.1377715 -0.15861332 -0.13210532 -0.047796886
0001f0 b0 f5 44 bd 31 94 c0 3b 6e bf 8d 3b 89 a2 c8 3d
       -0.04808587 0.005877041 0.0043257987 0.09796626
000200 69 ec 25 bc 45 82 4a bd 2c b1 1d be 74 a4 2e 3e
       -0.010127165 -0.04944064 -0.15399617 0.17054921
000210 03 4e b3 bd 3f 5f 7d bd 41 57 a5 bc f2 d0 d6 bd
       -0.08755114 -0.061858412 -0.020183207 -0.10489072
000220 9a aa 0b 3e 86 92 01 be 0b 44 17 bd 83 a8 02 3e
       0.13639298 -0.1265355 -0.036930125 0.12759595
000230 f4 38 a6 3b 8e a4 fb 3d f4 c1 22 bd dd d4 7a bd
       0.0050727073 0.12287246 -0.03973575 -0.06123816
000240 2f 2a c8 bd 9b b9 53 bd 2e bb c1 bd 56 fe 32 be
       -0.09773671 -0.05169068 -0.0945953 -0.17479834
000250 5d 5e 02 be cd d3 cb bd 77 5c dc 3d 80 5a 67 3d
       -0.12731309 -0.09952507 0.10759824 0.056482792
000260 73 7e 39 3c 5d 9b dc bc 62 f9 c7 3c 23 3f 93 bd
       0.011321652 -0.026929552 0.024410907 -0.07189777
000270 29 26 2e be 32 31 0c 3e 88 b2 fb bd 9c 09 af 3d
       -0.17006744 0.13690642 -0.122899115 0.08546755
000280 b8 a3 1c be 54 28 bb ba 7b ca c5 3d 33 3d 87 3d
       -0.15296829 -0.0014278986 0.09657761 0.0660347
000290 b4 57 69 3d 25 59 f8 bd 77 ba c2 3d 9d 30 3c 3d
       0.056968406 -0.12126378 0.095082216 0.0459448
0002a0 9b 92 22 be 88 fd 92 3c e3 d7 c2 3d 95 68 15 3e
       -0.15876238 0.017943159 0.095138334 0.14590676
0002b0 cd 92 f9 3d c9 df 6e bd 9a d9 b7 3d e0 2d 10 bc
       0.12186203 -0.058318887 0.08977051 -0.0088
0002c0 fc 34 52 bd 7f 2e 27 3e 53 09 3b 3b fa 6e a7 3d
       -0.05132006 0.1632633 0.0028539493 0.08175464
0002d0 87 5f c6 ba 3a 01 07 3d 53 b6 9f 3d 40 52 04 3c
       -0.001513467 0.032960154 0.077984475 0.008076251
0002e0 f1 a4 b1 bc a8 bf 97 bc a3 3e c8 3d 33 5b 08 3e
       -0.021685096 -0.018524006 0.09777572 0.1331604
0002f0 d0 45 97 3d 7c c4 dd 3c 67 53 2f 3e eb 2c dd bd
       0.073863626 0.02707123 0.17121659 -0.10799583
000300 14 d8 71 3d 0d c5 de 3d f1 2d 94 3d 83 d3 fb ba
       0.05904396 0.10877428 0.07235325 -0.0019212816
000310 27 a5 3e bd fa b8 22 3e 73 5f eb bd d2 0a 25 be
       -0.04654422 0.15890875 -0.11492815 -0.16117409
000320 d1 ba d0 bd 2b 0d f0 3d 04 11 0e be 5b 5b 08 be
       -0.101918824 0.117212616 -0.13873678 -0.133161
000330 d1 24 27 be 70 79 59 bd cb 68 2a 3d 35 02 27 be
       -0.16322638 -0.053094327 0.041603845 -0.16309436
000340 dc 9a 26 be a6 28 03 bd c5 04 8f 3d 32 a9 be bc
       -0.16270012 -0.032021187 0.069833316 -0.023274038
000350 f6 f7 d8 bd fd 09 ae bd c1 33 3d 3d 57 05 d7 3d
       -0.1059417 -0.08497999 0.046191934 0.10499065
000360 9e bc 25 be 43 e6 9b 3d 41 53 e2 bc 05 30 8d 3c
       -0.16185233 0.07612278 -0.02762759 0.017234812
000370 0b 53 ef bd b8 b6 a8 3d 20 a7 31 be 8f b5 8e 3c
       -0.11685761 0.08237976 -0.1734891 0.017420558
000380 49 5d 30 3e 3c d6 1b be ac a2 fa bd a8 12 c1 bd
       0.17223085 -0.15218443 -0.122380584 -0.094273865
000390 8b 90 06 3e 1f 6a 00 3e e0 e8 38 bd e2 9a 84 bd
       0.13141076 0.12540482 -0.045143962 -0.06474854
0003a0 b2 55 6f 3d 96 ce 09 bd 23 80 06 3e 56 c7 19 bc
       0.058431335 -0.03364428 0.13134818 -0.009385904
0003b0 2b ed f2 3d 3d 4d 17 3c a0 7a cb 3b 91 be 60 bd
       0.118616425 0.009234724 0.0062096864 -0.05486924
0003c0 1b e5 bb bd ad 8a dd 3c 2a 69 d0 bd ec 51 be 3d
       -0.09174558 0.027043665 -0.101763085 0.09292969
0003d0 bd 71 f1 3d 86 72 11 3d a5 14 0d 3e 1e 24 03 3d
       0.11789272 0.03550961 0.13777407 0.032016866
0003e0 3d 82 25 3e ba 97 2c 3e 45 67 cf bd 5e 27 12 bc
       0.16162963 0.16854754 -0.10127119 -0.008920519
0003f0 7c 1b 91 bd f1 ac a6 3d a8 87 e2 bd 07 9d f5 bd
       -0.0708532 0.08138455 -0.110610306 -0.11992841

model.lstm.bias_ih_l0 f4 [128]
000000 38 0f ea 3d e9 2e 97 bd ef 9b ab 3d a4 51 cb 3b
       0.11428684 -0.07381994 0.08379351 0.0062048007
000010 f6 84 28 3e 67 27 61 bd e7 51 c0 bc 1b 87 5d 3e
       0.1645697 -0.054969218 -0.023476554 0.2163357
000020 41 f4 98 3d 53 8b e2 3d 9b 5c 30 3e 5a 53 07 be
       0.07468463 0.1106173 0.17222826 -0.1321539
000030 0f 00 75 3e 0f d6 33 3e e8 3c 48 3e c9 b6 e9 bc
       0.23925804 0.17562126 0.19554484 -0.028529542
000040 32 37 79 bc 88 41 c1 bd 14 8d 45 3c d0 22 0f bd
       -0.0152109135 -0.09436327 0.012057561 -0.03494531
000050 56 24 80 3e 34 51 29 3e 4f 3f 44 3e 2c 9d 09 3d
       0.25027722 0.16534883 0.19164775 0.033597156
000060 34 f8 29 bd 65 5e 86 3e 48 36 48 3e e8 7d 7c 3e
       -0.04149647 0.26243892 0.19551957 0.24657404
000070 92 c6 4e 3d 0f 0e 96 3d 50 70 e4 bc e8 94 14 3e
       0.05048234 0.073269 -0.027885586 0.14509928
000080 15 8f 64 bc f8 d5 b6 3d b1 98 23 3d 4b c0 08 3d
       -0.013950129 0.0892753 0.03994054 0.03338651
000090 cc 77 1a be e3 da 24 be fd b8 1b 3e 04 0c cc bd
       -0.15084761 -0.16099124 0.15207286 -0.09963229
0000a0 b6 18 8c 3d e9 e4 0f 3e 55 4b fa bd 88 25 fb bd
       0.06840651 0.14052166 -0.122214 -0.12263018
0000b0 2b dc 29 3e 03 13 7f 3d 26 97 2c be 0e 33 2c be
       0.16587894 0.06227399 -0.16854534 -0.16816351
0000c0 ba c1 1f 3d c9 de bd bd a8 32 7d 3d 67 09 8e bd
       0.03900311 -0.092710085 0.061815888 -0.06935387
0000d0 dc 22 d1 3d 2d a8 0a 3e f1 99 0c 3e a4 d7 09 be
       0.10211727 0.13540716 0.13730599 -0.13461167
0000e0 90 e0 9a bd 6a 06 22 3d b4 3f 30 be f3 cb f3 3d
       -0.07562363 0.0395569 -0.17211801 0.119041346
0000f0 ca c7 32 3e d8 fc a2 3d b3 69 7d bd b9 bc 6d bc
       0.17459026 0.07958382 -0.06186838 -0.014510327
000100 8b cd 88 bb 34 78 dd 3c a9 eb 2d be 4d 22 e3 bb
       -0.0041748933 0.027034856 -0.16984428 -0.006931579
000110 f6 4f c5 3d 0e d0 92 3d dd cf 2f be 85 20 8f 3d
       0.09634392 0.071685895 -0.17169137 0.069886245
000120 c5 6c fe 3d 04 0f 8e bc 47 0f be 3d 8f 8e 1d be
       0.1242309 -0.017341144 0.09280258 -0.15386413
000130 cb fa 26 3d c9 79 2e 3e 10 3c 25 be 61 62 3a be
       0.04076652 0.17038645 -0.16136193 -0.18201591
000140 80 76 2a bd 83 ec 65 bd dd 3a be bd 09 84 7b bd
       -0.041616917 -0.05613376 -0.09288571 -0.061405215
000150 fb e1 0d 3e bb 92 97 3d 27 7c 7d 3d c6 d5 48 3d
       0.13855736 0.074010335 0.06188598 0.049031995
000160 ca 98 a5 bd 8a ea 25 3e 87 f5 2d bd 1d 78 30 3e
       -0.08085783 0.16202751 -0.04247048 0.1723332
000170 01 df 81 3c 5f eb b6 3d 4f 66 a7 bd 84 de 9b bd
       0.015853407 0.08931612 -0.08173811 -0.07610801
000180 16 57 97 3e e1 1e 8c 3c e5 d4 33 3e 6c 67 8e 3e
       0.2955863 0.017104568 0.17561682 0.2781328
000190 97 20 6e 3e 04 67 0d be cc 4c fd bc c1 cb 95 bd
       0.2325462 -0.13808829 -0.030920409 -0.073142536
0001a0 f9 68 e6 3d 0e 47 5d 3e 3b 59 2f be 4c 04 c0 3c
       0.11250491 0.21609136 -0.17123882 0.023439549
0001b0 8d 84 4e 3e 4b 5f 5b bc 6d 43 01 be 0d bc 51 3e
       0.20167752 -0.013389419 -0.12623377 0.20481892
0001c0 e1 68 d1 bc ff cf a6 3e 15 f4 09 3e e7 10 3b 3e
       -0.025562705 0.32580563 0.13472016 0.18268166
0001d0 18 37 6b 3e a0 0e d9 bd 76 95 3f 3d c8 ab 07 be
       0.22970235 -0.105984926 0.046773396 -0.13249123
0001e0 88 c5 58 3e 36 12 d3 3d 00 f9 64 3e d3 3d f0 3c
       0.21169102 0.10306208 0.22360611 0.029326355
0001f0 81 6f 31 3e 36 c8 2c 3d c0 b1 55 3e 02 9f 0b 3e
       0.17327692 0.042183124 0.20868587 0.13634875

model.lstm.bias_hh_l0 f4 [128]
000000 a3 ed 5c 3e 25 e0 97 bd d4 a9 85 3c 3c b6 b1 bc
       0.21575026 -0.07415799 0.016316332 -0.021693341
000010 41 4c 4f 3e db 54 09 3e ae c0 cb bb ad 22 71 3e
       0.20243932 0.13411276 -0.0062180376 0.23548384
000020 85 4d 1f bd ac 80 1e be c9 dc 1a 3e 42 f3 2a 3d
       -0.038892288 -0.15478772 0.15123285 0.041735895
000030 90 45 c2 bd 9b c7 0e be b1 2a 94 3e 48 9e a4 bd
       -0.09485924 -0.13943331 0.2893882 -0.08038002
000040 88 9b fa bd 2c db 1c be 2b 53 61 bd ad 17 1b be
       -0.122366965 -0.15317982 -0.055010956 -0.1514575
000050 b0 2d ab 3d be 3a 3b 3e f7 6e 00 3c b4 c5 2d 3e
       0.083583236 0.18284127 0.007838956 0.16969949
000060 ba 56 a3 3d 5f 02 01 3e c3 d1 9b bc 41 fd 8c 3d
       0.07975526 0.12598561 -0.01902092 0.06884242
000070 d4 80 3b 3e 1e f2 d5 bd 14 4e 40 bd 5d ff c0 bc
       0.18310863 -0.10446571 -0.04694946 -0.023559267
000080 7f de bb 3d a3 06 1d 3e ca 51 ff 3c 83 cf 4d 3c
       0.09173297 0.15334563 0.03116693 0.012561682
000090 85 9d d7 3d 2f 5d 92 bd 40 68 f0 3d b0 ab d9 bd
       0.10528091 -0.071466796 0.11738634 -0.1062845
0000a0 f9 85 fb 3d bb 55 9c 3d f0 b8 8e bc 3e 3f b9 3d
       0.12281413 0.07633539 -0.01742217 0.090452656
0000b0 f7 98 8c 3d 41 68 e8 3d 6a a2 12 3e 8e b7 17 3e
       0.06865113 0.1134801 0.14319769 0.14816114
0000c0 d6 f4 90 bd b8 ec 1b be d8 f2 01 3d 3a fc 10 be
       -0.07077949 -0.1522702 0.031725734 -0.14158717
0000d0 eb 4e bc bc c7 e0 df bd 00 27 10 3d 7a 9a af 3c
       -0.02298685 -0.10931545 0.035193443 0.021435965
0000e0 4e d6 25 3e b9 34 1e be a1 4e 63 bd 64 b9 32 be
       0.16195032 -0.154498 -0.05549491 -0.17453533
0000f0 95 9e 98 3d 20 4b 06 3c 19 4e 5b 3c 84 1f ea bc
       0.07452122 0.008196622 0.013385319 -0.028579481
000100 b6 b3 91 bd 58 c6 ac bd 2e 4f 88 bd f8 70 3c bd
       -0.07114355 -0.084362686 -0.06655727 -0.046006173
000110 a1 cd da bd f0 61 32 3d 72 20 63 bc d3 98 0c 3e
       -0.10683752 0.04355043 -0.013862716 0.13730173
000120 d8 55 1c be 2e 23 e1 bd d0 26 13 be 08 b2 c3 bd
       -0.15267122 -0.10993038 -0.14370275 -0.09555441
000130 19 60 42 bc e5 ef 00 be 49 42 04 bd dc 53 13 3d
       -0.011863732 -0.12591513 -0.032289777 0.035968646
000140 48 42 40 3e 4e 22 30 3c eb ab 90 3d 4b 19 77 bd
       0.18775284 0.010750366 0.07064041 -0.060326856
000150 49 64 1c be 13 2e b2 bc 87 ee cd bd 1a 2a 63 3d
       -0.15272631 -0.021750486 -0.10055261 0.055460073
000160 f9 40 69 3e 12 00 4b bd f6 c8 a8 3d 8e f9 d1 3d
       0.22778691 -0.049560614 0.08241455 0.10252677
000170 a6 c3 51 bd 2f 53 08 3e d2 0d 15 3d 9d 64 c6 bd
       -0.051211976 0.13312982 0.036390133 -0.09687159
000180 83 5d 7d 3e bb ef 1c 3e 02 55 4f bc d4 86 26 3e
       0.24742703 0.15325825 -0.012654545 0.1626237
000190 b9 af 91 3b db 4a ff 3c 41 03 ca 3d 68 ce 87 3e
       0.0044459966 0.031163624 0.09863902 0.26524663
0001a0 51 6f 25 3d db 84 53 3e 5d 7b 8a bc 32 35 52 3c
       0.040389363 0.20656149 -0.016904527 0.012830066
0001b0 b6 ac 96 3d 2d e3 97 bb 4d ab 3e 3e 0a a1 4f 3c
       0.07357161 -0.0046352358 0.18620034 0.012672672
0001c0 59 16 3a 3e 4b d2 db 3d e2 5c ab 3e f5 4f 1a 3e
       0.18172587 0.107334696 0.334693 0.15069564
0001d0 10 74 76 3e 0a c0 9b 3d 85 3c c4 bd f2 41 08 bd
       0.24067712 0.07604988 -0.09581856 -0.033266015
0001e0 77 71 f6 3d 37 cc 21 3e 93 77 23 3a c3 8b 53 3e
       0.120333605 0.15800558 0.00062357745 0.20658784
0001f0 9a 49 d1 bd 44 3a 03 3c d4 e0 1c 3e 59 25 8e 3e
       -0.102191165 0.008009497 0.1532014 0.2776287

model.lstm.weight_ih_l1 f4 [128, 32]
000000 b5 9a ac 3e 8c a1 c1 be 4d 36 e8 3e 75 7d 9e 3e
       0.33711782 -0.37818563 0.45353928 0.3095509
000010 b2 7d 89 3e 8d d5 fa 3c d1 25 63 bd 90 3b d8 be
       0.2685371 0.030619407 -0.055455986 -0.42232943
000020 ad 72 ac be 82 87 96 be d2 ba 6d bd 35 de 84 bd
       -0.3368124 -0.2940026 -0.058039494 -0.06487695
000030 2d 1c 7c be e1 c4 8f be f1 13 f9 3e bf 64 f3 be
       -0.24620123 -0.28079894 0.48648027 -0.475378
000040 78 16 68 3e 36 af 00 3f be 9f 11 3f d3 15 a6 be
       0.22664821 0.5026735 0.5688437 -0.32438526
000050 1b d5 92 be 99 fc bb 3e ff d2 19 be 03 60 b9 3e
       -0.28678212 0.36716154 -0.15021895 0.36206064
000060 15 19 fb 3e 62 6e 00 3f 96 5e ff 3e 2a 63 17 bf
       0.49042574 0.5016843 0.4987685 -0.5913569
000070 41 1b f1 be dc a4 a1 3e f7 22 bd be 8e aa f2 be
       -0.47091106 0.3157109 -0.3694074 -0.47395748
000080 22 05 21 3f 90 1a dd be b8 6e b8 3e 99 6e ad 3e
       0.6289846 -0.43184328 0.36021972 0.33873442
000090 b7 7f 76 3e 29 eb 30 be bb da f8 bc e5 01 e1 be
       0.24072157 -0.17277206 -0.030377736 -0.43946758
0000a0 73 35 d9 be 11 a7 cc be 04 72 2b 3e ca 42 04 3e
       -0.4242359 -0.39971212 0.16742712 0.12916103
0000b0 c6 b6 76 be 30 88 b8 be 7f 3d 01 3f 17 51 c2 be
       -0.2409316 -0.36041403 0.5048446 -0.37952492
0000c0 ec 97 22 3e 87 3a 0e 3f 59 93 fa 3e 92 99 a6 be
       0.15878266 0.55558056 0.48940542 -0.3253904
0000d0 ea 8e e2 be ce fb 7f 3e d3 f3 81 be 89 ec d2 3e
       -0.4424966 0.249984 -0.25381336 0.41196087
0000e0 5f e4 08 3f c1 20 11 3f a4 33 bf 3e 72 59 9e be
       0.53473467 0.56690603 0.37344086 -0.30927616
0000f0 59 26 aa be 32 7c 93 3e 02 03 0e bf 9f 17 16 bf
       -0.33232382 0.2880569 -0.5547334 -0.5862979
000100 ce 69 17 3f 7f 8a 8a be dd 60 14 3f 50 e5 ef 3e
       0.5914582 -0.2705879 0.579603 0.4685464
000110 68 89 d9 3e df da 0e be 12 de 25 be a9 26 82 be
       0.42487645 -0.1395068 -0.16197994 -0.2542012
000120 4b da 39 be 31 f5 79 be b2 ed 2f bd 01 86 f9 3c
       -0.18149678 -0.2440994 -0.042951293 0.030459406
000130 76 38 c5 be 60 cc 7f be 68 be 04 3f 56 86 92 be
       -0.3851964 -0.24980307 0.51853037 -0.28618115
000140 f5 58 eb 3e fc 1c e2 3e 99 86 17 3f 88 e9 07 bf
       0.45966306 0.44162738 0.59189755 -0.53090715
000150 09 81 e8 be fe 8c bf 3e 9c 5d aa be d9 26 b8 3e
       -0.45410946 0.37412256 -0.33274543 0.35967138
000160 46 31 bb 3e 60 3d ca 3e 65 74 5f 3e 36 f1 14 bf
       0.3656103 0.3949995 0.21821745 -0.5818056
000170 8f 88 96 be ce f0 ce 3e 8a 16 ec be fb 19 da be
       -0.2940106 0.40418094 -0.46110946 -0.42597947
000180 4c 31 d8 3e a6 ae 4f be cf 52 19 3f c1 28 fe 3e
       0.4222511 -0.20281467 0.5989198 0.49640468
000190 d3 d0 47 3e de a8 ff 3d 57 07 0a 3e e4 09 fb be
       0.19513254 0.12483381 0.13479362 -0.49030983
0001a0 1a db a5 be a0 fc 66 be b6 0f a0 39 c0 0d 21 3d
       -0.32393724 -0.22557306 0.00030529284 0.039319754
0001b0 86 ab 3c be ae df e2 be fa c1 06 3f 40 36 35 be
       -0.18424806 -0.4431128 0.52639735 -0.17696476
0001c0 b7 e4 e1 3e ee f3 2b 3f 72 83 10 3f bc 12 c6 be
       0.44119808 0.6716908 0.5645057 -0.38686168
0001d0 d2 63 ba be 53 b3 e6 3e 98 ec 8e be a5 69 62 3e
       -0.36404282 0.4505869 -0.27914882 0.22110613
0001e0 79 13 01 3f a8 65 b8 3e 70 a0 68 3e bd 2e 10 bf
       0.5042034 0.36015058 0.22717452 -0.56321317
0001f0 b4 00 f0 be 95 f2 7a 3e 02 97 68 be 41 82 0a bf
       -0.46875536 0.245066 -0.22713855 -0.54105
000200 69 3b a9 3e a2 56 b5 be df db ae 3e dd 52 05 3f
       0.3305314 -0.35417658 0.34152123 0.52079564
000210 6e 82 82 3e 65 ec 0d 3e 99 17 f4 bc f3 28 86 be
       0.25490135 0.13859709 -0.029796408 -0.26203117
000220 bc ec df be 1a 9c b7 be 16 f6 96 bc 5d 28 2c 3e
       -0.43735301 -0.35861284 -0.01842789 0.16812272
000230 66 a9 8e be c6 83 30 be ec ef a8 3e 7f 73 9f be
       -0.27863616 -0.17237768 0.32995546 -0.31142804
000240 0a 41 55 3e 0e c4 e2 3e dd a4 9b 3e f2 49 c3 be
       0.20825592 0.44290203 0.30399218 -0.38142353
000250 99 64 04 bf 53 51 e4 3e 36 9c 88 be 2d b6 cd 3e
       -0.51716 0.44593295 -0.2668168 0.40178052
000260 e2 87 b2 3e 11 af e0 3e 55 40 d9 3e 54 6f ec be
       0.34869295 0.43883565 0.42431894 -0.46178687
000270 be 8a 9f be 28 a1 78 3e d2 a2 01 bf 8e 8a 1a bf
       -0.3116054 0.24280226 -0.5063907 -0.6036767
000280 eb a9 14 3f 5a 6f dc be c5 22 d2 3e a0 de 65 3e
       0.58071774 -0.43053705 0.41042152 0.22448206
000290 26 3c d3 3e da b4 b1 3d 84 1c 1f be 4c 92 73 be
       0.41256827 0.08677073 -0.15538222 -0.23786277
0002a0 72 38 9f be 4b 03 93 be 81 b0 ef bd 79 47 1d be
       -0.31097752 -0.2871345 -0.11703587 -0.15359296
0002b0 f9 a8 ce be d8 bd a4 be 2d d5 e7 3e 62 0d b8 be
       -0.4036329 -0.3217609 0.45279828 -0.3594771
0002c0 34 28 92 3e f9 e4 a9 3e fe 0a bc 3e 48 7e f3 be
       0.28546298 0.33182505 0.36727136 -0.47557282
0002d0 29 25 01 bf 9e a4 07 3f f6 57 6c be 12 c6 ca 3e
       -0.50447327 0.5298556 -0.2308043 0.3960424
0002e0 30 d4 18 3f d7 01 11 3f 98 6e d1 3e 99 ac 91 be
       0.5969877 0.5664343 0.4090469 -0.28451994
0002f0 19 6e 76 be d1 67 05 3f 5f 47 9a be 40 3b d3 be
       -0.24065436 0.52111536 -0.30132577 -0.41256142
000300 44 dd aa 3e cc 5b 25 be 08 72 08 3f 1a 34 d4 3e
       0.33371937 -0.16148299 0.53299 0.41446
000310 d7 8a aa 3e 99 68 19 3e 00 9c 1a 3d 3c cf 04 bf
       0.3330905 0.14981307 0.03774643 -0.51878715
000320 33 78 ef be c2 cd f2 be 53 8b 69 bb 73 b5 9d 3d
       -0.46771392 -0.47422606 -0.0035636022 0.07700624
000330 4c ee db be 69 5e 50 be d9 4a 03 3f a5 1c 91 be
       -0.42955244 -0.20348515 0.51286083 -0.28342167
000340 6b b5 b1 3e 16 5b e5 3e cc 4e db 3e 03 fd 99 be
       0.34708723 0.44796056 0.42833555 -0.30075845
000350 c1 69 07 bf d5 76 8c 3e a3 8c e9 be f0 7f 84 3e
       -0.5289574 0.27434412 -0.4561511 0.2587886
000360 a7 2f 1c 3f 27 99 a6 3e 1f 24 90 3e fb 96 16 bf
       0.6101021 0.3253872 0.28152558 -0.5882413
000370 38 1e 24 be a8 e4 d2 3e 14 3f 8b be 4d 58 a1 be
       -0.16027153 0.41190076 -0.27196562 -0.3151268
000380 e8 7f 19 3f 7d af a8 be fe af 16 3f 6e 0f b7 3e
       0.59960794 -0.32946387 0.5886229 0.3575396
000390 fa 50 ca 3e c0 65 14 be dd 76 2d be 4b 05 6b be
       0.39514905 -0.1449194 -0.16939874 -0.22951238
0003a0 2c 8b e6 be 15 d2 b5 be d4 42 13 3d 7b 1f 0b 3e
       -0.45028055 -0.35511842 0.035952404 0.13586228
0003b0 6a b3 de be d5 bc 41 be 97 c3 21 3f 4b 9b 3a be
       -0.43496257 -0.1891969 0.6318907 -0.18223302
0003c0 41 6a 8a 3e 34 3b 1a 3f c9 a5 03 3f d1 b2 cd be
       0.2703419 0.60246587 0.51424843 -0.4017549
0003d0 60 37 b8 be a2 e0 d5 3e 54 b0 ae be 14 7b e3 3e
       -0.35979748 0.41772944 -0.34118903 0.4442984
0003e0 5d ae 20 3f cc ed 0f 3f 8a 64 ce 3e 8c 12 d1 be
       0.6276606 0.56222224 0.4031108 -0.40834463
0003f0 87 d5 84 be a3 37 f1 3e db b3 7e be 4e 32 0c bf
       -0.25944158 0.4711276 -0.24873297 -0.5476426

model.lstm.weight_hh_l1 f4 [128, 32]
000000 a6 05 26 be c6 ba 03 be 27 7e e0 bd 01 96 f2 3d
       -0.16213092 -0.12864217 -0.10961562 0.11845017
000010 66 33 18 be 45 42 8b bd eb 9d e8 bc 88 c8 b5 bd
       -0.14863357 -0.06799749 -0.028395614 -0.08876139
000020 c6 48 df 3d f5 4b 01 be e9 ed 53 3d c7 a0 ee 3d
       0.10902552 -0.12626632 0.05174056 0.116517596
000030 3f bd c3 bd 74 2e b2 3d ba 63 60 bd c5 8c 2c bd
       -0.0955758 0.087002665 -0.054782607 -0.042126436
000040 6f 44 f2 3d 18 a7 0c be 93 fc 03 be 45 80 9b bd
       0.11829459 -0.13735616 -0.12889318 -0.07592825
000050 1d d5 b1 ba 82 b7 e2 3d d1 d1 bd bd a5 85 ef bd
       -0.0013567541 0.110701576 -0.09268535 -0.116954125
000060 97 52 00 3e aa 76 64 3d 8a a8 fa 3c 9e 7d af bc
       0.12531506 0.05577723 0.030597944 -0.021422204
000070 c5 6c fb 3d 13 6b 30 bc 43 08 f9 3d 5e 18 0a be
       0.122766055 -0.010767716 0.12159779 -0.13485858
000080 ae 1a 23 be ce fc 0f be a8 5c 2e be 20 e8 4e bd
       -0.15928146 -0.14061281 -0.17027533 -0.05051434
000090 57 1d 97 3d 0e a3 1e 3e 83 63 1c 3e 28 a4 9d 3d
       0.07378643 0.15491888 0.15272336 0.07697326
0000a0 e1 2a e7 bd 52 86 e2 3d 8f 15 21 b9 71 d7 d0 bd
       -0.112874754 0.11060776 -0.00015362188 -0.10197342
0000b0 58 fd b7 3c 5f f9 29 3e 43 45 07 bd b7 a1 97 bd
       0.02245967 0.16599034 -0.033025037 -0.074038915
0000c0 92 9d e3 bd f7 24 2f bd a3 21 bb 3b 3c 50 4d bc
       -0.111140385 -0.04275986 0.005710797 -0.012531336
0000d0 86 ee 1e be 6c 47 91 bd 02 81 b8 3d a9 cb e0 bd
       -0.15520677 -0.07093701 0.09008981 -0.10976345
0000e0 6e bc e3 3d e4 75 d9 3b ee c9 a6 bd bf fe 4f bb
       0.111199245 0.006636368 -0.08143984 -0.0031737534
0000f0 8f ab 28 be ad e2 32 3e 5b 37 fa 3c 1f 19 af bd
       -0.16471694 0.17469282 0.030543974 -0.08549713
000100 98 0b f1 bd 77 13 00 be 34 17 e2 bd a0 61 5c bd
       -0.117697895 -0.12507425 -0.11039582 -0.05380404
000110 09 3c 2c 3e 0c 11 b3 bd d3 ab 03 3e ab 8f 29 3b
       0.16819777 -0.08743486 0.12858514 0.0025872986
000120 ee 9a 9e bb 87 c5 a3 bd 73 35 ad 3d b1 88 fb bc
       -0.0048402464 -0.0799666 0.0845746 -0.030704828
000130 fc 4a a6 bb 76 1d da 3d ea 4b 0c be b0 3a 4d bd
       -0.005074857 0.106501505 -0.13700834 -0.050104797
000140 72 1c 08 3e d3 eb 93 bc 74 9d 0f 3e bd 7f 68 3d
       0.13292101 -0.018056786 0.14024907 0.056762446
000150 b7 83 2a be 09 15 b1 bd 2e a0 97 3d 68 fc 29 3d
       -0.16651808 -0.0864659 0.07403599 0.04150048
000160 15 ad 49 bd 43 c7 da bc a8 0d d3 3d 0c 0d 2b be
       -0.04923733 -0.026706344 0.10305339 -0.16704196
000170 6b 08 02 3e 6e 44 52 3c b2 d6 1e be e8 cc 15 3e
       0.12698524 0.012833698 -0.15511587 0.14628947
000180 30 61 e4 3d 40 00 dd bd 0b 2a 8d bd ce 4e 10 be
       0.111513495 -0.10791063 -0.06892785 -0.14092562
000190 35 d3 3d bd f4 11 c0 bd 08 36 41 bc 52 06 f4 bc
       -0.046344 -0.09378424 -0.011792667 -0.02978817
0001a0 12 87 22 3e 7b 6c 2d 3e af 3b da 3d e6 7b 8b 3d
       0.15871838 0.16935913 0.10655915 0.06810741
0001b0 04 cc 6d bc 94 a1 f5 bd b8 9c 93 bc 0c 2d d7 3d
       -0.014513973 -0.11993709 -0.018019065 0.10506639
0001c0 a6 32 2f be d1 88 e2 3d 90 0d a0 3d 8d 02 d8 bd
       -0.17109165 0.11061252 0.07815087 -0.105473615
0001d0 6d 76 9e bd 02 4c 0a bd 0d ac 1a be 3a 61 c0 3d
       -0.07737432 -0.033763893 -0.15104695 0.093935445
0001e0 0f 95 0b 3e 8c 1d 20 be f7 e8 af ba db 63 4d 3d
       0.1363108 -0.15636271 -0.0013420869 0.050144058
0001f0 e8 39 9a bd 18 6f c6 bd e6 c5 2f 3e 59 88 ee 3d
       -0.07530576 -0.09689158 0.17165336 0.116471
000200 31 ca a7 3d 05 f0 1a be 8f 38 26 be ae 95 11 3e
       0.08192862 -0.15130623 -0.16232513 0.14217255
000210 7d d3 17 be c2 ea 33 bd 37 25 e0 3c bb 7c 8f bd
       -0.1482677 -0.043925054 0.027361495 -0.07006212
000220 e7 02 fd bc ec 22 1b 3e 0f fc fe 3d e4 42 e4 bd
       -0.030885173 0.1515004 0.1245042 -0.11145571
000230 60 97 b1 3d 9d cf 49 3d b9 d3 cb 39 4a c4 24 3e
       0.086714506 0.04927026 0.00038876923 0.16090503
000240 9c d0 e0 bd b7 3c a3 bd ce 0f 09 3e 92 ed 1c 3e
       -0.10977289 -0.07970565 0.13384935 0.15325001
000250 f7 f9 27 bc 4b f8 28 be 3d 1d fc 3d ee c6 18 be
       -0.010252467 -0.16500966 0.12310264 -0.14919636
000260 54 fb f0 3d 1d 1c 06 be 5f e1 e6 bd 7e 8e d1 3d
       0.11766687 -0.13096662 -0.11273455 0.10232256
000270 23 f7 58 3d b9 40 04 be 10 da 22 3d 0a 11 a1 3d
       0.052970063 -0.12915315 0.03975874 0.07864578
000280 b4 24 16 be 9d db eb 3d 9d 72 43 bc 2d 78 17 3e
       -0.14662439 0.11516497 -0.011929181 0.14791937
000290 58 9f 32 bc 28 d7 18 be 13 81 3b 3d e9 bd 63 bd
       -0.010902248 -0.14925826 0.04577739 -0.055601034
0002a0 b9 1b 28 3e 32 c6 d2 bd 1e 88 ca bd bf ac 17 3e
       0.16416825 -0.10291709 -0.098892435 0.14811991
0002b0 81 59 c0 3b bc 48 1b 3e dd 74 d7 bc fa b2 d5 3d
       0.0058700447 0.15164465 -0.026300842 0.10434528
0002c0 21 a7 e8 3d ac eb 23 be fd 72 15 be 59 90 44 bd
       0.11360002 -0.1600787 -0.14594646 -0.047989223
0002d0 3f d7 12 be 91 3e 03 bd 50 1c 58 3c 25 cf ab bd
       -0.14339922 -0.03204209 0.013190344 -0.08389119
0002e0 e7 dd e4 bd ec 25 26 be 10 85 05 3e 03 23 f2 3d
       -0.11175137 -0.16225404 0.1303904 0.11823084
0002f0 14 23 92 bd 11 1e 1d be 93 da 78 bd 1d b4 8d 3c
       -0.07135597 -0.153435 -0.060755324 0.017297799
000300 54 cc 2d be b4 44 8f bd 04 ca 84 3d 92 c8 c3 3c
       -0.16972476 -0.06995526 0.06483844 0.02389935
000310 d7 34 0c 3d b5 77 59 3a 33 71 10 be ca 4e 0a be
       0.03423008 0.0008295731 -0.14105682 -0.13506618
000320 74 8a bf bc 3c 35 f3 3d a6 f8 5e 3d d7 ab fc bc
       -0.02338145 0.11875388 0.05443635 -0.030843658
000330 6f 12 01 be 21 79 30 be 7c 6d ab bd 25 79 c0 3d
       -0.12604688 -0.17233707 -0.08370492 0.093981065
000340 eb e9 01 be 9d bc 1d bd c4 86 11 bb 1f 56 6a bd
       -0.12686889 -0.038509954 -0.002220557 -0.057211038
000350 b3 2a 2a 3c c1 0d fd bd 9b 42 14 3e 05 8f 1b be
       0.010386157 -0.12356139 0.14478533 -0.15191276
000360 ab e6 19 3d 74 b6 f0 ba 8b 14 ad 3d 81 98 85 3d
       0.037573498 -0.0018364922 0.08451184 0.065232284
000370 1a 7f 10 be 89 4a 19 3e b1 ae a9 bd 31 3c 1e be
       -0.14110985 0.14969839 -0.08285273 -0.15452649
000380 2e 00 29 be eb 1e 04 3e c1 5b 1b be c2 c5 01 be
       -0.16503975 0.1290242 -0.1517172 -0.12673095
000390 21 27 dd 3d 98 0a 2d 3c 40 01 66 3d b0 d8 a5 bd
       0.10798479 0.010561608 0.056153536 -0.080979705
0003a0 26 b3 95 3d 7e 04 b8 3d db 5e fc 3c 1d ae f4 bd
       0.073095605 0.08985232 0.03080695 -0.11947272
0003b0 9f e0 01 be 18 23 2b be 40 31 d2 3c 43 56 b6 3d
       -0.12683342 -0.16712606 0.02565825 0.08903172
0003c0 82 a8 ec bc 83 d0 2b bd 32 f9 88 ba e7 9c 25 be
       -0.028888945 -0.0419469 -0.0010450243 -0.16173135
0003d0 85 d1 ec 3d c2 9a da bb 31 38 b9 3d 0f c3 08 bd
       0.115634 -0.0066712806 0.09043921 -0.033389147
0003e0 9b d1 43 bd 55 4b f3 3c da 00 14 3e f8 99 15 bd
       -0.047807317 0.029699007 0.1445345 -0.03652379
0003f0 6a b6 64 ba f8 91 ec 3d 4f e2 2c be 56 91 d5 bc
       -0.00087246916 0.11551279 -0.16883205 -0.026070278

model.lstm.bias_ih_l1 f4 [128]
000000 1b 4f ec 3e 62 2c 8f 3e 88 be 88 3e 33 b6 2e 3e
       0.46154103 0.2796355 0.26707864 0.17061691
000010 c5 05 9c 3e a1 9a 10 3f 63 55 a3 3e 77 9c 99 3e
       0.30473152 0.56485945 0.31901082 0.30002186
000020 d0 93 ae 3e c0 91 ae 3e 50 07 a7 3e ae 1a 49 3e
       0.34097147 0.34095573 0.32622766 0.19639084
000030 a8 ad 5e 3e f7 91 40 3e d7 c5 be 3e a5 2b 2d 3e
       0.21745932 0.18805681 0.37260315 0.1691118
000040 6b de 9d 3e 82 6f 93 3e 6c e4 e3 3e c9 d0 00 3f
       0.30833754 0.2879601 0.4451021 0.5031858
000050 41 b2 e9 3e 4b 7a 9f 3e ee f0 ec 3e e6 32 ff 3e
       0.4564381 0.3114799 0.46277565 0.4984352
000060 8c d9 c3 3e 2f 68 92 3e 87 06 a9 3e 9f 00 03 3f
       0.38251913 0.2859511 0.33012792 0.5117282
000070 9f 83 ec 3e fc 3b f2 3e e3 b1 e6 3e 36 81 a0 3e
       0.4619417 0.4731139 0.45057592 0.3134858
000080 b5 be 06 be c7 1a ec bc 9d 44 d1 3d 10 19 01 be
       -0.13158686 -0.028821362 0.10218165 -0.12607217
000090 06 97 ed bd bb b9 2c 3e e8 2a fc bd 19 d2 02 3e
       -0.11601071 0.16867726 -0.12312871 0.12775458
0000a0 39 c3 ca bd 4d 59 ee 3d 16 4d 12 3e 58 a3 19 3e
       -0.09900517 0.116381265 0.14287218 0.15003717
0000b0 85 4b eb 3d 1c ee 08 3e 58 dc de bd b3 67 85 bc
       0.114890136 0.13372082 -0.10881871 -0.0162848
0000c0 b5 60 c2 bd c2 fb 17 bd 07 e5 0b be 90 b0 2d bd
       -0.09491102 -0.03710533 -0.13661586 -0.04240471
0000d0 93 6e b7 3d 37 97 8a bd b7 c2 ec bd 24 4d d5 3c
       0.08956637 -0.06767123 -0.115605764 0.02603776
0000e0 d1 bf fc 3c 29 4c eb bd f8 10 81 3c 21 e6 03 3e
       0.030853184 -0.11489136 0.015755162 0.12880756
0000f0 7f a5 21 3e 7a b1 7c 3d e3 64 01 3e 5c 6e 14 be
       0.15785788 0.061692692 0.12636141 -0.14495224
000100 55 ad 97 be 0e 0d 88 3d b6 1b 8f bd 16 ef a8 3e
       -0.2962443 0.06643115 -0.06987707 0.32994908
000110 b1 88 eb 3d 0b 0e a2 be cd 05 4b 3e df ff 5c be
       0.11500681 -0.3165134 0.19826432 -0.21581982
000120 ca 40 48 be 14 f2 09 be 71 b7 ad bd 6e 54 82 be
       -0.19555965 -0.13471252 -0.08482254 -0.2545504
000130 83 7d 3a be fb 2b 5b 3e b0 14 38 3d 9f 17 a0 be
       -0.18211941 0.21403496 0.044941604 -0.3126802
000140 ca cc f0 bd df e7 cc bd 94 23 89 be 05 60 94 be
       -0.117578104 -0.100051634 -0.26784956 -0.28979507
000150 1b dd a6 3e 48 81 35 3e e3 81 4f be ea 65 0c bd
       0.32590565 0.17725098 -0.20264392 -0.03427688
000160 a7 a1 a4 bd 9d 3b 35 3e d6 12 92 be 5c 5e cb 3d
       -0.08038645 0.17698522 -0.28529996 0.09930107
000170 f5 3a a0 be 5d 04 26 be 5c 65 27 3e ca 2f 10 3e
       -0.3129498 -0.16212602 0.1634726 0.1408073
000180 18 33 ec 3e 4c 7e 96 3e a3 21 9b 3e 61 e5 4b 3e
       0.4613273 0.29393232 0.302991 0.1991172
000190 f3 46 f1 3e c7 ed 12 3f a4 8f a9 3e 72 ac b4 3e
       0.47124442 0.5739407 0.33117402 0.35287815
0001a0 a0 67 98 3e b7 56 ff 3e bd c3 81 3e 34 0c 4d 3e
       0.2976656 0.49870846 0.2534465 0.20024186
0001b0 59 95 ac 3e 55 4b b7 3e 64 58 10 3f d8 9d f0 3e
       0.33707693 0.3579966 0.56384873 0.46995425
0001c0 b0 d6 03 3f 24 af ad 3e 76 ee 98 3e 90 d6 bd 3e
       0.5149946 0.33922684 0.2986943 0.3707776
0001d0 dc 8a 90 3e cb 0c df 3e f5 0e 08 3f d4 fe c0 3e
       0.2823094 0.43564448 0.5314782 0.37694418
0001e0 aa 6b f5 3e d2 7d f9 3e 3f a8 ad 3e 2d 17 c2 3e
       0.47933704 0.48728806 0.33917424 0.37908307
0001f0 0f 9d ea 3e d0 3b 07 3f 1c 68 01 3f 7a b9 01 3f
       0.4582295 0.5282564 0.50549483 0.5067364

model.lstm.bias_hh_l1 f4 [128]
000000 98 8d bc 3e 39 46 7c 3e a7 9a 3a 3e 35 01 bb 3e
       0.36826777 0.24636163 0.18223058 0.36524358
000010 65 81 a7 3e b1 8a 6c 3e 23 e1 cb 3e ce 78 6d 3e
       0.32715908 0.23099782 0.39820203 0.23190615
000020 44 28 d2 3e e9 5a 02 3f 47 09 cf 3e 7b d4 da 3e
       0.41046345 0.5091997 0.40436766 0.42740235
000030 5a a3 c2 3e 23 15 02 3f 0b bc 86 3e d5 00 b5 3e
       0.38015252 0.508135 0.2631534 0.35352197
000040 20 22 c7 3e e5 10 fa 3e 03 64 e4 3e cf 4f d0 3e
       0.38893223 0.48841015 0.44607553 0.4068589
000050 8d 03 ab 3e 3a 10 f8 3e d2 9a 8c 3e ad 06 f7 3e
       0.33401147 0.4844988 0.2746187 0.4824728
000060 87 ef 78 3e be 1b ff 3e a1 32 c9 3e 02 1e dc 3e
       0.24310122 0.49825853 0.3929644 0.42991644
000070 26 c5 59 3e 90 8f b9 3e e8 b1 bc 3e 8d fc e8 3e
       0.21266612 0.36242342 0.36854482 0.4550518
000080 46 2b 13 be 17 42 25 be af 96 64 3c 2c 49 b3 3d
       -0.14371976 -0.16138493 0.013951941 0.08754191
000090 10 6a b3 bc 94 cb 05 3e bd 7e 03 3e b0 e5 12 bd
       -0.02190116 0.1306594 0.12841316 -0.03586358
0000a0 75 d7 02 be 43 3d b1 bc 9b 72 3c 3d 4b 00 91 bd
       -0.12777503 -0.021635657 0.046007734 -0.07080134
0000b0 7f 7e 6d 3c a1 d6 21 3e ed a9 b3 bd fb ff 30 3e
       0.014495491 0.1580453 -0.08772645 0.17285149
0000c0 bd b8 dd bd 58 a8 ea bc 7f a9 02 be f4 9d e2 bd
       -0.10826252 -0.028644726 -0.1275997 -0.110652834
0000d0 ad 58 96 bd c9 06 22 be 93 76 60 bd a5 a3 d2 3d
       -0.07341132 -0.15822901 -0.05480058 0.10285119
0000e0 3d 28 5c bd 8c cc a0 3b 1a c5 dd 3c cf 98 88 3c
       -0.05374931 0.0049071964 0.027071524 0.016674427
0000f0 ba 4d c0 3d 9d 54 31 be d1 1f 33 bd ca b4 8b bc
       0.09389825 -0.17317434 -0.043731514 -0.01705398
000100 39 d5 22 be 47 e9 87 3e 50 23 21 be a9 83 83 3c
       -0.1590165 0.26545164 -0.15736127 0.016053991
000110 20 3a 36 3d a7 1b 38 be 11 0e fe 3d 4e 76 73 be
       0.044489026 -0.17979299 0.12405027 -0.23775598
000120 23 84 0c be 41 bd 59 be d6 13 8c be 2f 40 80 be
       -0.13722281 -0.21263601 -0.27358884 -0.25048968
000130 69 38 4d be 35 d9 6f 3e c9 68 9d 3e 20 9c d5 bd
       -0.2004105 0.23422702 0.30744007 -0.10430169
000140 c0 92 96 be f0 87 86 be 93 43 88 be 9c 42 bf bc
       -0.29408836 -0.26275587 -0.26614055 -0.023347192
000150 ec 5c d8 3d 12 e6 99 3e 4e b9 95 be db 77 3f be
       0.105645984 0.30058342 -0.2924294 -0.18698065
000160 63 39 9a be 94 31 42 3e fe c2 dd bd c0 f6 89 3e
       -0.30121908 0.18964225 -0.108282074 0.26946068
000170 08 50 4a be f4 50 0e be 31 a0 69 3e f2 25 11 3e
       -0.19757092 -0.13898069 0.22815014 0.14174631
000180 c1 9a 51 3e e4 be 8b 3e f7 22 fb 3e 10 88 83 3e
       0.2046919 0.27294075 0.49050114 0.25689745
000190 f7 08 b3 3e ac be f0 3e 44 a9 7c 3e a6 47 85 3e
       0.34967777 0.4702047 0.24673945 0.26031226
0001a0 0f 56 cf 3e 72 52 a8 3e 8b 63 f9 3e e0 9d c8 3e
       0.40495345 0.328754 0.48708758 0.3918295
0001b0 fa 98 ad 3e 05 10 d1 3e 3f 24 a7 3e 83 a8 5d 3e
       0.33905774 0.40832534 0.3264484 0.21646313
0001c0 74 6a ef 3e 05 c2 de 3e e7 ff 14 3f 95 66 df 3e
       0.46760905 0.435074 0.58202976 0.4363295
0001d0 35 3e c6 3e f8 2d 8e 3e d4 01 02 3f 52 65 e1 3e
       0.38719335 0.27769446 0.5078404 0.44022614
0001e0 93 ad ac 3e 8d c6 96 3e 0f 26 db 3e 20 56 e1 3e
       0.33726177 0.29448357 0.42802474 0.4401102
0001f0 cd 6a 81 3e f1 0e d4 3e 8b 5d c8 3e df 27 be 3e
       0.25276795 0.4141765 0.39133868 0.37139794

model.linear.weight f4 [1, 32]
000000 1e db 88 bf 3d 24 8f 3f 5e 2c 8d bf ac 8e 8e 3f
       -1.0691869 1.1182934 -1.1029165 1.113729
000010 28 58 8f 3f 69 b9 75 bf ce c9 8f 3f ba 5a 8b bf
       1.1198778 -0.9598604 1.1233461 -1.0887063
000020 b7 8a 8f bf 1b d1 7f bf a3 c5 80 bf e6 45 8b bf
       -1.1214207 -0.99928445 -1.0060314 -1.0880706
000030 f0 4c 93 bf e3 88 8f 3f 8f 5a 89 3f 2a 68 8d bf
       -1.1507854 1.121365 1.0730761 -1.1047413
000040 bb 00 85 bf ba d3 7a bf c5 25 78 bf de 4f 90 bf
       -1.0390848 -0.9797932 -0.9693263 -1.1274374
000050 2b ab 80 3f d4 47 87 3f 69 ca 8e bf 9c 30 87 bf
       1.0052236 1.0568795 -1.1155521 -1.056171
000060 e7 be 89 bf b8 19 77 3f 88 88 86 bf 54 0d 89 3f
       -1.0761384 0.9652362 -1.0510416 1.0707192
000070 8b a8 85 bf 63 ca 8d bf 0e a5 88 3f 53 15 83 3f
       -1.044206 -1.1077389 1.0675371 1.0240883

exp_avg f4 [128, 1]
000000 1b b9 b5 ad 0b 84 d7 b1 2f f4 0b ba 04 00 00 80
       -2.0659521e-11 -6.272335e-09 -0.00053388154 -6e-45
000010 26 01 13 b0 0b 9c 1d 26 02 d5 f0 a5 da c1 da b5
       -5.347992e-10 5.4681795e-16 -4.1777703e-16 -1.6298684e-06
000020 6a 48 09 bb 00 00 00 00 21 db 99 20 c3 21 f9 27
       -0.0020947703 0.0 2.6064216e-19 6.9147988e-15
000030 b3 e6 60 b9 04 00 00 80 8d 16 5f ba 04 00 00 80
       -0.00021448247 -6e-45 -0.0008510135 -6e-45
000040 a4 cc d3 b0 04 00 00 80 04 19 16 b2 04 00 00 80
       -1.5410433e-09 -6e-45 -8.736837e-09 -6e-45
000050 50 f4 14 bb 86 9d 54 b0 39 2d c7 af 04 00 00 80
       -0.002272863 -7.7349005e-10 -3.6230022e-10 -6e-45
000060 2b 0f cd b3 46 05 52 bc 1a da a4 b9 c2 64 d7 b9
       -9.5488154e-08 -0.01281864 -0.00031443016 -0.00041083066
000070 9c 9c 1e b2 04 00 00 80 0a cf 07 b6 d4 99 cf ba
       -9.232419e-09 -6e-45 -2.023708e-06 -0.0015838691
000080 00 00 00 00 00 00 00 00 00 00 00 00 00 00 00 00
       0.0 0.0 0.0 0.0
000090 00 00 00 00 00 00 00 00 00 00 00 00 00 00 00 00
       0.0 0.0 0.0 0.0
0000a0 00 00 00 00 00 00 00 00 00 00 00 00 00 00 00 00
       0.0 0.0 0.0 0.0
0000b0 00 00 00 00 00 00 00 00 00 00 00 00 00 00 00 00
       0.0 0.0 0.0 0.0
0000c0 00 00 00 00 00 00 00 00 00 00 00 00 00 00 00 00
       0.0 0.0 0.0 0.0
0000d0 00 00 00 00 00 00 00 00 00 00 00 00 00 00 00 00
       0.0 0.0 0.0 0.0
0000e0 00 00 00 00 00 00 00 00 00 00 00 00 00 00 00 00
       0.0 0.0 0.0 0.0
0000f0 00 00 00 00 00 00 00 00 00 00 00 00 00 00 00 00
       0.0 0.0 0.0 0.0
000100 03 f9 75 ae 00 00 00 00 00 00 00 00 00 00 00 00
       -5.5927717e-11 0.0 0.0 0.0
000110 f9 30 5d b3 e3 23 27 1f 00 00 00 00 00 00 00 00
       -5.1500113e-08 3.539331e-20 0.0 0.0
000120 00 00 00 00 71 05 00 33 0d 80 14 9f 00 00 00 00
       0.0 2.980727e-08 -3.144614e-20 0.0
000130 65 c9 f3 2d 00 00 00 00 04 00 00 80 79 ba 1f 2e
       2.7715339e-11 0.0 -6e-45 3.6318035e-11
000140 4c 36 ac b3 04 00 00 80 8b cb a4 ad 04 00 00 00
       -8.019251e-08 -6e-45 -1.8735033e-11 6e-45
000150 00 00 00 00 00 00 00 00 00 00 00 00 bb 09 5d b4
       0.0 0.0 0.0 -2.0585769e-07
000160 c9 eb 33 ae 00 00 00 00 00 00 00 00 00 00 00 00
       -4.0909307e-11 0.0 0.0 0.0
000170 00 00 00 00 04 00 00 80 04 00 00 00 7f e7 4d 31
       0.0 -6e-45 6e-45 2.9963017e-09
000180 67 4b 7d bb 04 00 00 80 f4 6c af b3 ee c4 f6 bb
       -0.003864968 -6e-45 -8.168891e-08 -0.0075308
000190 75 6c bd ba 8a 9c 1d 26 e5 d4 f0 a5 dc 0a 87 ba
       -0.0014451878 5.4682467e-16 -4.1777626e-16 -0.0010302919
0001a0 04 00 00 80 8c 42 35 ba 1c db 99 20 76 0e f9 27
       -6e-45 -0.00069145183 2.6064203e-19 6.912706e-15
0001b0 04 00 00 80 79 ad dc ad 04 00 00 80 db 46 c2 b4
       -6e-45 -2.5088142e-11 -6e-45 -3.618687e-07
0001c0 00 50 d6 9e 29 4a fb ba 70 46 fe ba 37 0f 35 bb
       -2.2691219e-20 -0.0019171882 -0.0019399654 -0.0027627477
0001d0 07 13 3e ba 41 da d4 ad a3 3f 29 b5 00 00 00 00
       -0.000725076 -2.4198534e-11 -6.305001e-07 0.0
0001e0 bc 7c e0 ba 83 ae 86 b3 31 4f e4 ba b1 ea bd ba
       -0.0017127017 -6.271605e-08 -0.001741862 -0.0014489499
0001f0 04 00 00 80 81 43 ca bb 45 5e d0 ba b7 80 dd b6
       -6e-45 -0.006172598 -0.0015897235 -6.6012976e-06

exp_avg_sq f4 [128, 1]
000000 20 6a 96 2d 01 8c ca 34 df ae 64 40 67 68 7a 27
       1.7100155e-11 3.7727298e-07 3.5731733 3.4751066e-15
000010 18 40 9e 31 80 89 a1 1b be e9 24 1b 01 4a a9 3a
       4.605692e-09 2.6724073e-22 1.3641288e-22 0.0012915732
000020 4f d0 e8 41 00 00 00 00 67 42 b9 11 5a 7d 53 21
       29.101713 0.0 2.9228777e-28 7.165548e-19
000030 6d ad 5d 3f 9e e0 62 27 bd 7d 25 40 da 8d d9 26
       0.8659275 3.1485566e-15 2.5857995 1.5095849e-15
000040 77 a1 b8 31 8c 74 cf 28 c2 a1 cf 33 49 37 c8 2a
       5.3734612e-09 2.303216e-14 9.668612e-08 3.5565499e-13
000050 c7 26 7d 41 8d 1a 8f 30 eb d4 f6 2f cb f7 19 29
       15.821967 1.0412166e-09 4.4898427e-10 3.418775e-14
000060 9a 9f 0b 37 7b 93 22 43 47 fb ae 3e ad 79 06 40
       8.322206e-06 162.5761 0.34176084 2.1011765
000070 2e 9e 30 34 72 80 73 2b c1 7c fd 3a ce ad 10 41
       1.6448823e-07 8.6509196e-13 0.0019339548 9.042433
000080 00 00 00 00 00 00 00 00 00 00 00 00 00 00 00 00
       0.0 0.0 0.0 0.0
000090 00 00 00 00 00 00 00 00 00 00 00 00 00 00 00 00
       0.0 0.0 0.0 0.0
0000a0 00 00 00 00 00 00 00 00 00 00 00 00 00 00 00 00
       0.0 0.0 0.0 0.0
0000b0 00 00 00 00 00 00 00 00 00 00 00 00 00 00 00 00
       0.0 0.0 0.0 0.0
0000c0 00 00 00 00 00 00 00 00 00 00 00 00 00 00 00 00
       0.0 0.0 0.0 0.0
0000d0 00 00 00 00 00 00 00 00 00 00 00 00 00 00 00 00
       0.0 0.0 0.0 0.0
0000e0 00 00 00 00 00 00 00 00 00 00 00 00 00 00 00 00
       0.0 0.0 0.0 0.0
0000f0 00 00 00 00 00 00 00 00 00 00 00 00 00 00 00 00
       0.0 0.0 0.0 0.0
000100 43 7f 93 2f 00 00 00 00 00 00 00 00 00 00 00 00
       2.682957e-10 0.0 0.0 0.0
000110 73 7c c1 38 b9 b4 41 0e 00 00 00 00 00 00 00 00
       9.2261376e-05 2.3876101e-30 0.0 0.0
000120 00 00 00 00 ec d1 d8 36 f5 a1 ea 0e 00 00 00 00
       0.0 6.4617398e-06 5.7841413e-30 0.0
000130 dd 3c fe 2e 00 00 00 00 0c bc d0 28 31 59 95 2f
       1.1561394e-10 0.0 2.3174191e-14 2.7166316e-10
000140 8e 22 48 38 4c 66 8d 2a 8b 15 89 2d dd 31 e9 26
       4.7715897e-05 2.5117614e-13 1.5584664e-11 1.6181138e-15
000150 00 00 00 00 00 00 00 00 00 00 00 00 55 68 77 39
       0.0 0.0 0.0 0.00023594622
000160 1a 7b 2b 2f 00 00 00 00 00 00 00 00 00 00 00 00
       1.5596094e-10 0.0 0.0 0.0
000170 00 00 00 00 b0 2f 17 2a c4 6b 70 29 46 de 4f 33
       0.0 1.3428039e-13 5.3384177e-14 4.83981e-08
000180 41 32 8a 42 cf 2d 25 2c e5 3d c3 36 45 d4 de 42
       69.09815 2.347334e-12 5.8186583e-06 111.41459
000190 04 99 98 41 0a 8b a1 1b 45 e9 24 1b b6 cf 41 41
       19.074715 2.6725068e-22 1.3641135e-22 12.113211
0001a0 fa 00 c0 2b 09 4a cc 40 49 42 b9 11 cd fd 52 21
       1.3642692e-12 6.3840375 2.9228705e-28 7.148667e-19
0001b0 1a 4d a6 2b 1d 96 8f 2e bd 3c 42 29 46 54 91 39
       1.1816409e-12 6.5295526e-11 4.3129335e-14 0.00027719344
0001c0 b6 2d 47 2f bc 60 ae 41 fe a4 95 41 07 ef 0a 42
       1.8115184e-10 21.797234 18.705563 34.733425
0001d0 62 74 a5 40 81 db 1e 2d e2 ef f2 39 00 00 00 00
       5.170457 9.03e-12 0.00046336564 0.0
0001e0 b5 b7 bb 41 ca ca b9 37 d8 77 93 40 d2 fe 89 41
       23.4647 2.214815e-05 4.6083794 17.249424
0001f0 b8 a2 f0 29 85 10 c0 42 2b fb bd 41 63 83 12 3c
       1.0686368e-13 96.032265 23.74764 0.008942458
