dl_computer_vision/assignments/1/checkpoints/best_checkpoint-v16.ckpt (torch, 75964 bytes, 27 tensors)

model.lstm.weight_ih_l0 f4 [80, 1]
-16.29158 16.497225 -16.428679 0.17371182 -0.20217797 -16.477697 -16.415668 16.306835
16.27314 2.6870596 16.09831 0.40714476 0.11726975 -0.15732136 -16.429476 8.244481
0.18042766 -14.64196 0.11388475 -8.357013 -0.015461737 0.15488689 0.15013434 -0.015634814
-0.052692823 0.05107451 0.22351171 -0.20540151 -0.06446393 -0.13809158 -0.019391311 -0.1039793
-0.046362102 0.008189232 -0.19182126 -0.22327362 -0.008368733 0.032426313 -0.04434933 -0.074658595
16.35976 16.452751 -16.38041 4.130332 -0.032377232 12.169422 -0.2099836 15.961075
-0.09654238 0.8955837 -0.20530972 -2.4199512 0.06542102 0.018370608 0.08538394 -0.12540703
16.438742 -0.11433529 -0.1692781 0.11786817 -16.358967 0.19541079 -16.411024 -2.7628016
-0.08778372 -16.432182 -16.295547 16.424152 0.15846872 16.258633 0.12502514 0.47768956
7.8193502 -0.15654087 0.20157123 16.323505 0.20803675 0.10386671 15.777131 -8.365199
00000000: 2855 82c1 51fa 8341 ef6d 83c1 83e1 313e
00000010: be07 4fbe 53d2 83c1 4a53 83c1 6674 8241
00000020: 642f 8241 c9f8 2b40 57c9 8041 4775 d03e
00000030: 1f2b f03d da18 21be 916f 83c1 65e9 0341
00000040: 07c2 383e 7845 6ac1 683c e93d 53b6 05c1
00000050: 3a53 7dbc ab9a 1e3e d1bc 193e 9514 80bc
00000060: 6ed4 57bd 8133 513d 41e0 643e c654 52be
00000070: aa05 84bd e167 0dbe 87da 9ebc 19f3 d4bd
00000080: 30e6 3dbd 212c 063c cb6c 44be d7a1 64be
00000090: 031d 09bc 74d1 043d a5a7 35bd 9be6 98bd
000000a0: cae0 8241 3c9f 8341 140b 83c1 ae2b 8440
000000b0: fd9d 04bd f4b5 4241 f105 57be 9060 7f41
000000c0: 03b8 c5bd f944 653f b63c 52be 7be0 1ac0
000000d0: 75fb 853d f57d 963c c6dd ae3d b36a 00be
000000e0: 8b82 8341 9f28 eabd 3d57 2dbe de64 f13d
000000f0: 2adf 82c1 c419 483e c749 83c1 bed1 30c0
00000100: f3c7 b3bd 1c75 83c1 485d 82c1 aa64 8341
00000110: a045 223e ae11 8241 9706 003e ba93 f43e
00000120: 1e38 fa40 404c 20be b068 4e3e 8a96 8241
00000130: 9607 553e 12b8 d43d 216f 7c41 dbd7 05c1

model.lstm.weight_hh_l0 f4 [80, 20]
-0.06436178 -0.15718493 -0.021992858 0.047432873 -0.11424922 -0.08691794 -0.056043163 0.058255102
-0.073321134 0.13142656 0.108156055 0.038037296 0.112539954 -0.22037055 -0.02903327 0.032822795
-0.11079895 0.16492122 0.019760605 -0.21040125 -0.18417774 0.14944778 -0.016253633 0.107983805
0.01776183 0.12972397 0.04722514 -0.15153365 0.099887386 -0.2113868 0.2048415 0.10820348
0.034366604 -0.052157596 -0.02311201 0.11617626 0.12999071 0.17820969 0.19137698 0.16450469
0.08444738 0.22045161 0.22176374 0.01130364 -0.19413468 -0.22147825 0.11333902 0.037200965
-0.12140785 0.13667831 0.049900044 0.21336553 -0.11952615 0.07835448 0.090109035 0.18441236
0.12913513 0.20973565 -0.14934705 0.18083489 0.21364038 0.11217093 -0.17271656 -0.15551741
-0.20252267 -0.12609251 0.0046975613 -0.15922508 0.17139858 0.22359398 -0.18995827 0.18063016
-0.11607321 -0.19546959 0.04929602 -0.17109028 -0.11481872 -0.08289133 -0.099783406 0.154871
0.1923735 0.19026181 0.077054866 -0.031141706 0.04292153 0.013448115 -0.10989848 0.16323513
-0.013544611 -0.17082657 0.17863068 0.0149906725 0.17294069 0.052869126 0.1425765 0.20406835
0.18732016 -0.09637804 0.081302956 0.21558411 -0.14948969 0.17673178 -0.12492527 -0.042166844
-0.080163114 0.07424021 0.036421914 -0.016662057 -0.17016876 -0.03172201 0.20008962 0.10212754
0.0248555 0.119902 0.19949998 0.02237228 -0.07887347 -0.104021706 0.021741893 -0.150762
-0.16701074 0.13723965 0.18096153 0.045909695 -0.14453265 0.21232717 0.079982124 -0.014301694
0.17269841 -0.12405269 -0.06788427 0.016996857 -0.041846145 0.09189667 0.038497753 -0.18049449
-0.135725 0.18065074 0.17381833 -0.046654675 -0.13757555 -0.13235955 0.13927841 0.1384432
-0.21758045 -0.21112198 -0.18291035 0.1866092 0.045120463 0.08766553 -0.11044903 0.15575758
-0.012318674 -0.139741 -0.19201414 0.2175642 0.2103213 -0.06764817 -0.220943 0.036551304
0.10625807 0.005708197 -0.03291926 0.074870996 0.024860058 0.10809653 0.12053774 0.21364579
0.14889097 -0.13533196 0.16351435 0.06310098 0.14885053 -0.15335971 -0.057754852 0.07733822
0.025092099 -0.038979374 -0.10721659 -0.17726874 0.022310385 -0.21486343 0.07946758 0.21988279
0.22043817 0.107818484 -0.028876798 -0.075343154 0.13525856 0.13811117 0.09625935 -0.12691136
-0.044864327 0.0056319614 -0.21008852 0.15969446 0.053530168 0.20916367 0.14652501 0.019182809
0.057688266 -0.18012075 -0.13444431 -0.1987163 -0.037794832 0.0321633 0.18931946 -0.18153383
0.087836504 0.02671257 0.020270854 0.17276427 -0.0019909372 0.05841928 0.041809626 -0.19547121
0.11466713 0.16549256 0.019352235 -0.09273316 -0.21530315 0.06508509 -0.2001517 0.0811239
-0.0030944692 0.03097492 -0.083579056 0.17083569 0.081681974 -0.2012037 0.055574868 -0.055386838
-0.18504205 0.21955404 0.038908094 0.13674209 0.06768083 0.10225519 0.036205787 -0.12399263
-0.22321706 0.03268722 -0.025243958 -0.15296121 0.21265922 -0.05506446 -0.09347928 -0.14908156
0.0050496343 0.025896337 0.15883401 -0.02954917 -0.12376187 0.10369749 -0.06705225 0.071518704
00000000: 1cd0 83bd 16f5 20be 5e2a b4bc f948 423d
00000010: 7ffb e9bd 0802 b2bd 848d 65bd e79c 6e3d
00000020: 6429 96bd af94 063e ec80 dd3d ffcc 1b3d
00000030: 597b e63d d1a8 61be 2ed7 edbc 3271 063d
00000040: 8fea e2bd 1ce1 283e fee0 a13c 6d73 57be
00000050: 1799 3cbe d708 193e 5726 85bc 9d26 dd3d
00000060: 4281 913c 5cd6 043e 266f 413d a32b 1bbe
00000070: c291 cc3d c875 58be f8c1 513e c999 dd3d
00000080: ffc3 0c3d 34a3 55bd 6655 bdbc d2ed ed3d
00000090: 491c 053e 9a7c 363e 54f8 433e eb73 283e
000000a0: bff2 ac3d 11be 613e 0916 633e e732 393c
000000b0: 3ecb 46be 32cb 62be 4a1e e83d 0a60 183d
000000c0: aea4 f8bd 66f5 0b3e fd63 4c3d 7e7c 5a3e
000000d0: 20ca f4bd 5078 a03d 168b b83d 98d6 3c3e
000000e0: 003c 043e f1c4 563e 6fee 18be c82c 393e
000000f0: 8bc4 5a3e dfb9 e53d 9cdc 30be f53f 1fbe
00000100: 1a62 4fbe 651e 01be 00ee 993b e60b 23be
00000110: 1c83 2f3e d2f5 643e 6c84 42be 1df7 383e
00000120: cbb7 edbd 2e29 48be a0ea 493d 4a32 2fbe
00000130: 1426 ebbd eec2 a9bd 3e5b ccbd 8196 1e3e
00000140: 8ffd 443e fed3 423e f1ce 9d3d e41c ffbc
00000150: 7cce 2f3d 7c55 5c3c 7412 e1bd 1c27 273e
00000160: 37ea 5dbc 29ed 2ebe f6ea 363e 709b 753c
00000170: 5d17 313e 4c8d 583d 93ff 113e 4bf7 503e
00000180: dbd0 3f3e da61 c5bd 2a82 a63d 15c2 5c3e
00000190: d313 19be 2df9 343e d2d8 ffbd 24b7 2cbd
000001a0: 8f2c a4bd 400b 983d 252f 153d de7e 88bc
000001b0: b840 2ebe f0ee 01bd 4be4 4c3e 3e28 d13d
000001c0: c39d cb3c 2e8f f53d b949 4c3e 1246 b73c
000001d0: 6a88 a1bd 5509 d5bd 0e1c b23c 5b61 1abe
000001e0: dd04 2bbe 8d88 0c3e fb4d 393e ce0b 3c3d
000001f0: 5e00 14be 4b6c 593e abcd a33d a751 6abc
00000200: dad7 303e 560f febd e806 8bbd fe3c 8b3c
00000210: dd66 2bbd 5234 bc3d d2af 1d3d 8cd3 38be
00000220: 7ffb 0abe 82fc 383e 6ffd 313e f918 3fbd
00000230: 9be0 0cbe 4389 07be 009f 0e3e 0ec4 0d3e
00000240: 69cd 5ebe 5c30 58be da4c 3bbe 7b16 3f3e
00000250: 3cd0 383d fc89 b33d 1a33 e2bd ea7e 1f3e
00000260: 43d4 49bc 4418 0fbe 5b9f 44be 26c9 5e3e
00000270: 785e 573e 208b 8abd e23e 62be d2b6 153d
00000280: d59d d93d d40b bb3b 59d6 06bd f755 993d
00000290: 52a7 cb3c b761 dd3d 7edc f63d f6c5 5a3e
000002a0: e076 183e 7694 0abe 4e70 273e 163b 813d
000002b0: 466c 183e 540a 1dbe 5a90 6cbd 8063 9e3d
000002c0: f28d cd3c d6a8 1fbd 5f94 dbbd f085 35be
000002d0: 45c4 b63c 2905 5cbe e6bf a23d f428 613e
000002e0: 8bba 613e f0cf dc3d 098f ecbc 834d 9abd
000002f0: 3881 0a3e 046d 0d3e 9f23 c53d 0df5 01be
00000300: a8c3 37bd 518c b83b 7221 57be f286 233e
00000310: 7342 5b3d 002f 563e a70a 163e 4425 9d3c
00000320: 884a 6c3d 9371 38be c5ab 09be 497c 4bbe
00000330: c1ce 1abd aabd 033d f6dc 413e 01e4 39be
00000340: a0e3 b33d 52d4 da3c 100f a63c 1ee9 303e
00000350: 627a 02bb 0e49 6f3d 9240 2b3d 9b29 48be
00000360: 9ad6 ea3d e276 293e 9488 9e3c e2ea bdbd
00000370: 6e78 5cbe 554b 853d 91f4 4cbe 4a24 a63d
00000380: 94cc 4abb 1ebf fd3c 7f2b abbd 8def 2e3e
00000390: e148 a73d 5808 4ebe 79a2 633d 4fdd 62bd
000003a0: aa7b 3dbe c6d2 603e 185e 1f3d 1e06 0c3e
000003b0: 3f9c 8a3d 2b6b d13d 854c 143d d9ef fdbd
000003c0: 0393 64be 09e3 053d 6bcc cebc dda1 1cbe
000003d0: 57c3 593e 458b 61bd 1172 bfbd d6a8 18be
000003e0: 6777 a53b 8e24 d43c 62a5 223e 1a11 f2bc
000003f0: dd76 fdbd 5a5f d43d b152 89bd 6678 923d

model.lstm.bias_ih_l0 f4 [80]
-16.370283 16.513037 -16.60725 -0.116826005 0.055471033 -16.25652 -16.289227 16.54738
16.091364 0.058457546 8.295066 -0.08072622 -0.20938672 -0.20016354 -16.513824 0.33638325
-0.18233281 -1.151736 -0.15800107 -0.20710102 -0.010290658 0.16921231 -0.10465021 -0.037844226
0.123797484 0.032833695 0.08357309 0.121690005 0.04641648 -0.20716463 -0.08865076 0.0921817
-0.05443538 0.1254202 -0.1344972 -0.048203923 0.11454427 0.024983503 -0.13740988 0.14898911
16.4557 16.211452 -16.567293 0.044877075 -0.17843728 0.33491686 0.16591471 4.228418
-0.14844365 -0.004440091 -0.10828446 0.13557118 -0.13467354 0.042737108 0.13462856 0.115176424
16.238504 -0.09896648 -0.092363864 -0.12890823 -16.29926 0.09745207 -16.407658 -0.19753172
-0.14007345 -16.37288 -16.231956 16.433197 -0.12011871 15.846715 -0.19351126 -0.0725445
0.23419748 0.18999974 0.015489246 16.196802 -0.19096504 0.16820803 4.023467 -0.30781263
00000000: 57f6 82c1 b31a 8441 a6db 84c1 7942 efbd
00000010: 9835 633d 5a0d 82c1 5650 82c1 0961 8441
00000020: 1dbb 8041 2e71 6f3d 97b8 0441 ca53 a5bd
00000030: 7969 56be acf7 4cbe 501c 84c1 6d3a ac3e
00000040: 74b5 3abe 166c 93bf 08cb 21be 4a12 54be
00000050: 269a 28bc fe45 2d3e d952 d6bd 8c02 1bbd
00000060: 8989 fd3d a07c 063d 5e28 ab3d 9c38 f93d
00000070: 351f 3e3d f722 54be 888e b5bd c2c9 bc3d
00000080: a2f7 5ebd 276e 003e a2b9 09be 7a71 45bd
00000090: 3096 ea3d 34aa cc3c 2db5 0cbe 9a90 183e
000000a0: 46a5 8341 0eb1 8141 d189 84c1 06d1 373d
000000b0: 43b8 36be 397a ab3e 8ce5 293e 334f 8740
000000c0: 9d01 18be 2f7e 91bb 3ec4 ddbd 2cd3 0a3e
000000d0: dce7 09be 1b0d 2f3d 12dc 093e 9ee1 eb3d
000000e0: 75e8 8141 f0ae cabd 4429 bdbd 8500 04be
000000f0: e264 82c1 f394 c73d e242 83c1 c145 4abe
00000100: 6a6f 0fbe a9fb 82c1 0cdb 81c1 3077 8341
00000110: cc00 f6bd 258c 7d41 d127 46be 3692 94bd
00000120: 77d1 6f3e 4b8f 423e 9bc6 7d3c 0d93 8141
00000130: 578c 43be ba3e 2c3e 3ec0 8040 9e99 9dbe

model.lstm.bias_hh_l0 f4 [80]
-16.123823 16.349617 -16.397816 0.030333817 0.1210864 -16.40243 -16.502117 16.498047
15.887902 -0.14433968 8.359812 0.16292025 -0.16279922 0.21412708 -16.597612 0.034834884
-0.0904594 -0.92044884 -0.17387515 0.012882533 0.030936802 -0.014864376 -0.19375278 0.059125636
-0.17558566 -0.09575717 0.024150688 0.124044105 0.11056781 0.05254568 0.13823296 0.115984924
-0.0604824 0.13875358 -0.10006468 0.16136633 -0.039086398 -0.16614057 0.08904231 0.13355763
16.46822 16.313696 -16.59333 -0.14153579 0.096167624 0.5066611 0.056633938 3.9060605
-0.021459818 -0.16595794 -0.025629912 0.053148035 0.22068375 -0.0075492915 0.05713878 0.008151007
16.188478 -0.12337975 -0.053601418 -0.19979152 -16.373909 0.052270565 -16.237455 0.052727796
0.21661349 -16.047812 -16.525322 16.32997 -0.20226395 15.695163 -0.062284205 0.058094636
0.29836047 -0.06043062 -0.082184225 16.45954 0.11433284 0.12162771 4.1357074 -0.37986708
00000000: 97fd 80c1 04cc 8241 ba2e 83c1 a07e f83c
00000010: 25fc f73d 2d38 83c1 5604 84c1 00fc 8341
00000020: d934 7e41 c8cd 13be cac1 0541 91d4 263e
00000030: d7b4 26be 2144 5b3e e9c7 84c1 06af 0e3d
00000040: c742 b9bd 89a2 6bbf 540c 32be 4211 533c
00000050: 2d6f fd3c b689 73bc 2167 46be b92d 723d
00000060: bacc 33be 561c c4bd aad7 c53c d60a fe3d
00000070: 6071 e23d 243a 573d f18c 0d3e 8189 ed3d
00000080: 65bc 77bd 6b15 0e3e b6ee ccbd 373d 253e
00000090: 0f19 20bd c120 2abe d15b b63d 55c3 083e
000000a0: eabe 8341 7382 8241 24bf 84c1 c2ee 10be
000000b0: 88f3 c43d 8bb4 013f fdf8 673d e5fc 7940
000000c0: 80cc afbc e1f0 29be d2f5 d1bc c1b1 593d
000000d0: ecfa 613e 0c60 f7bb 5a0a 6a3d cd8b 053c
000000e0: 0182 8141 86ae fcbd 298d 5bbd 2696 4cbe
000000f0: c4fd 82c1 a919 563d 4fe6 81c1 1af9 573d
00000100: edcf 5d3e eb61 80c1 dc33 84c1 c7a3 8241
00000110: 481e 4fbe 631f 7b41 b91d 7fbd a4f4 6d3d
00000120: b4c2 983e 1986 77bd 3450 a8bd 23ad 8341
00000130: 5627 ea3d f317 f93d b757 8440 f07d c2be

model.lstm.weight_ih_l1 f4 [80, 20]
16.244493 -16.391867 -16.311192 -0.11328307 -0.030886183 7.50772 16.324799 -15.546993
5.4226775 -1.3720145 -0.009964425 -0.021614922 -0.030205736 0.17036505 -16.585382 15.981102
-16.478266 0.06128671 0.103554636 -0.079987414 16.340057 -16.43555 -16.325953 0.17334503
0.21826911 16.231276 16.218344 -16.549778 15.882069 -14.350794 7.758066 -0.21046075
-0.047194704 -0.11911651 -16.350138 16.600796 -16.237474 0.48243436 4.2234535 -0.38257536
16.235733 -16.422102 -16.482615 0.10187649 0.0076021515 16.085356 16.350256 -16.377087
16.257072 -14.645022 8.3839855 0.08319108 -0.086598694 0.14323011 -16.489208 16.435884
-16.408802 0.48221335 4.3851976 -0.3506285 -16.299786 16.24624 16.263725 0.17918594
0.15203153 -15.970236 -16.337633 16.567772 -15.779279 13.161967 -5.564397 -0.05216234
-0.075145 0.03751303 16.46906 -16.495169 16.536285 -0.22264898 -2.8736277 0.2875993
16.326633 -16.305023 -16.605057 0.19640358 0.21177068 5.2292733 16.513638 -14.696128
3.318342 -0.42364383 0.10767118 -0.20026457 0.17074162 0.12769717 -16.467358 16.037163
-16.5118 -0.07090895 0.1448973 0.057562783 -16.206814 16.270563 16.22773 -0.21020563
-0.08925529 -14.878356 -16.389917 16.123085 -14.359061 8.149826 -1.9190271 0.10774234
0.21337482 -0.0799237 16.574638 -16.304192 16.589533 -0.11008962 -0.89497966 0.060015704
-16.245754 16.503935 16.393589 0.09356791 -0.19787966 -15.759439 -16.415646 16.288788
-15.593794 11.531427 -3.7969615 0.097396635 0.10207536 -0.20578729 16.546648 -16.4
16.299873 -0.23768456 -1.9222903 0.10424826 -16.440014 16.399832 16.30958 0.21220927
-0.11875143 -15.63603 -16.452583 16.501705 -15.069722 10.980359 -3.375019 0.15907617
0.117039025 -0.01706804 16.299257 -16.457169 16.520037 -0.16765368 -1.5952804 -0.14897905
-16.562977 16.34107 16.455086 -0.21692102 0.06854915 -11.143484 -16.177706 16.14233
-9.086916 2.9199653 -0.39984673 0.060222212 -0.21054342 -0.07987058 16.49941 -16.38701
16.441 -0.17869435 -0.15264693 -0.15716457 -16.28575 16.417616 16.473354 -0.010228832
-0.21058947 -15.6352415 -16.394983 16.348799 -14.983427 10.208311 -2.8190203 0.19865285
-0.16929956 0.17644262 16.213253 -16.247997 16.417871 0.0008523236 -1.1072524 -0.064864725
16.302422 -16.25643 -16.257366 0.12461834 0.10799479 16.16532 16.403957 -16.282553
15.827576 -13.07134 5.2275605 0.1583538 -0.08882861 -0.105749704 -16.358902 16.26569
-16.401377 0.049875688 2.6205966 -0.04412105 16.287325 -16.433174 -16.393547 0.14015761
-0.0869773 15.729593 16.334875 -16.233316 15.568609 -12.008474 4.299514 -0.21555997
-0.062409732 -0.036844783 -16.620623 16.444025 -16.463058 0.18664831 1.9448501 -0.18754749
-16.280489 16.413311 16.379208 -0.13206063 0.13133334 -15.797923 -16.282932 16.264927
-15.147134 10.968698 -3.3415217 0.14665732 -0.18948072 -0.20815223 16.406626 -16.285189
00000000: b9f4 8141 8b22 83c1 527d 82c1 f400 e8bd
00000010: 0505 fdbc 3e3f f040 3099 8241 7cc0 78c1
00000020: 9386 ad40 2c9e afbf d441 23bc c711 b1bc
00000030: 0572 f7bc 2d74 2e3e ddae 84c1 98b2 7f41
00000040: 7dd3 83c1 c607 7b3d 7414 d43d 71d0 a3bd
00000050: 70b8 8241 027c 83c1 8d9b 82c1 5c81 313e
00000060: f081 5f3e a7d9 8141 2bbf 8141 f265 84c1
00000070: f41c 7e41 da9c 65c1 1442 f840 0683 57be
00000080: 3c4f 41bd 5bf3 f3bd 15cd 82c1 6ece 8441
00000090: 59e6 81c1 a301 f73e 8826 8740 ebe0 c3be
000000a0: c8e2 8141 7760 83c1 65dc 83c1 9fa4 d03d
000000b0: 781b f93b cfae 8041 53cd 8241 4604 83c1
000000c0: 7c0e 8241 0352 6ac1 ce24 0641 1660 aa3d
000000d0: a85a b1bd eaaa 123e e6e9 83c1 b17c 8341
000000e0: 3a45 83c1 abe4 f63e 8a53 8c40 9485 b3be
000000f0: f665 82c1 4df8 8141 1c1c 8241 857c 373e
00000100: 27ae 1b3e 1686 7fc1 79b3 82c1 cc8a 8441
00000110: ed77 7cc1 6b97 5241 8a0f b2c0 2ea8 55bd
00000120: 9fe5 99bd 43a7 193d a3c0 8341 1bf6 83c1
00000130: 504a 8441 18fe 63be 84e9 37c0 3740 933e
00000140: f29c 8241 b070 82c1 28d7 84c1 051e 493e
00000150: 6ada 583e 3556 a740 ee1b 8441 5723 6bc1
00000160: b75f 5440 d8e7 d8be b582 dc3d 2812 4dbe
00000170: e4d6 2e3e 0cc3 023e 26bd 83c1 1c4c 8041
00000180: 2b18 84c1 b638 91bd f55f 143e f4c6 6b3d
00000190: 8ea7 81c1 1d2a 8241 64d2 8141 2540 57be
000001a0: 7acb b6bd bf0d 6ec1 8d1e 83c1 14fc 8041
000001b0: b7be 65c1 b065 0241 aea2 f5bf 04a8 dc3d
000001c0: ee7e 5a3e 09af a3bd dc98 8441 fc6e 82c1
000001d0: 5db7 8441 ab76 e1bd 631d 65bf 07d3 753d
000001e0: 4ef7 81c1 0f08 8441 1226 8341 88a0 bf3d
000001f0: f7a0 4abe aa26 7cc1 3e53 83c1 704f 8241
00000200: 2e80 79c1 ba80 3841 6b01 73c0 e377 c73d
00000210: e30c d13d e7b9 52be 895f 8441 3333 83c1
00000220: 2466 8241 9563 73be 9c0d f6bf 1d80 d53d
00000230: 2685 83c1 db32 8341 057a 8241 634d 593e
00000240: f333 f3bd 2e2d 7ac1 e49e 83c1 7e03 8441
00000250: 951d 71c1 8daf 2f41 5000 58c0 dde4 223e
00000260: 28b2 ef3d 46d2 8bbc e164 8241 48a8 83c1
00000270: 0929 8441 68ad 2bbe 2632 ccbf f78d 18be
00000280: fa80 84c1 83ba 8241 04a4 8341 8b20 5ebe
00000290: 7f63 8c3d b64b 32c1 f16b 81c1 7e23 8141
000002a0: 0264 11c1 b6e0 3a40 b6b8 ccbe 91ab 763d
000002b0: b298 57be 3093 a3bd cbfe 8341 9918 83c1
000002c0: 2b87 8341 a7fb 36be 7a4f 1cbe c0ef 20be
000002d0: 3749 82c1 4757 8341 6ec9 8341 d596 27bc
000002e0: c4a4 57be f329 7ac1 ed28 83c1 57ca 8241
000002f0: 1ebc 6fc1 3e55 2341 d46a 34c0 a76b 4b3e
00000300: dd5c 2dbe 60ad 343e beb4 8141 e6fb 81c1
00000310: cd57 8341 786e 5f3a 72ba 8dbf ccd7 84bd
00000320: 5c6b 8241 2b0d 82c1 160f 82c1 e637 ff3d
00000330: 5f2c dd3d 9352 8141 4e3b 8341 ab42 82c1
00000340: c03d 7d41 3524 51c1 2d48 a740 8027 223e
00000350: c6eb b5bd 4d93 d8bd 08df 82c1 2220 8241
00000360: 0536 83c1 734a 4c3d dbb7 2740 46b8 34bd
00000370: 714c 8241 2477 83c1 fc25 83c1 7a85 0f3e
00000380: 2821 b2bd 6aac 7b41 d3ad 8241 d5dd 81c1
00000390: 0619 7941 b622 40c1 9e95 8940 c1bb 5cbe
000003a0: 59a1 7fbd 8eea 16bd 09f7 84c1 5d8d 8341
000003b0: 58b4 83c1 bc20 3f3e d9f0 f83f 730c 40be
000003c0: 713e 82c1 764e 8341 9e08 8341 e73a 07be
000003d0: 3f7c 063e 4bc4 7cc1 7243 82c1 921e 8241
000003e0: a95a 72c1 c97f 2f41 7edb 55c0 562d 163e
000003f0: 3c07 42be dc25 55be c540 8341 1148 82c1

model.lstm.weight_hh_l1 f4 [80, 20]
-0.04190396 0.21777822 0.19904536 0.17479858 0.17560124 0.08792604 0.10308377 -0.09459612
0.108149074 -0.0028452622 0.05655333 0.16624664 -0.015938347 0.19591048 -0.072730966 0.20400426
-0.024076212 -0.15020114 0.20335156 0.07353153 0.081273526 -0.0444796 0.11756787 0.07548464
-0.03185734 0.1220319 -0.042671498 0.16837028 0.08065162 -0.017434362 0.2010728 -0.20963964
-0.09998879 -0.08639636 0.0849307 -0.030602003 0.21279638 -0.034041215 -0.13215254 -0.15320697
0.0073577245 0.16665003 0.052365247 0.20387508 -0.22044659 0.14227751 -0.15086 0.0716107
0.07305113 -0.11405239 0.009969213 -0.109691575 -0.04132198 0.02946675 -0.07049765 0.055490796
0.19303598 -0.04302666 -0.020600108 -0.17296249 -0.15829898 0.012402054 -0.15120706 0.18389305
-0.06164143 -0.18734337 -0.13813709 -0.11729347 0.1627667 0.19127977 0.16708836 0.1256856
-0.1906086 0.19174914 -0.048410855 -0.1898425 0.10952111 0.16732283 0.051562235 -0.012729603
-0.15360118 0.14878994 -0.07723799 -0.10218972 -0.111695334 -0.12448305 0.112318605 0.092434846
0.21348406 -0.08145228 0.06559156 -0.085184015 0.15419714 -0.08670477 -0.21503694 -0.11530192
-0.09198748 0.04234019 -0.07324279 0.052362315 0.025986781 0.19743009 -0.09250911 0.108558185
0.026820395 0.12578647 -0.11873564 -0.11048488 -0.13708445 -0.13380513 -0.17438576 -0.144962
-0.21167977 -0.06957311 0.17343579 0.08633001 -0.050367992 -0.04065233 0.010191151 0.14085563
0.14627036 0.21925741 -0.1135862 -0.03625414 -0.05006206 0.1720665 0.02773912 0.03937484
0.20781295 0.18252733 -0.060192462 0.08838652 -0.15273546 -0.10571413 0.032414746 -0.15895268
0.09061835 -0.13548195 0.13045071 -0.21913445 0.087431625 0.071413845 0.19642518 0.13854948
0.13014159 -0.14429617 0.061216827 0.097342804 -0.08167422 0.107945204 -0.19618057 -0.18279053
-0.18686192 0.21189095 0.16194788 0.0020523525 0.026637401 0.18984523 -0.07198111 -0.14803807
0.02172198 -0.06985486 -0.12456883 -0.0898626 0.028535683 0.19230331 -0.16240154 -0.111780316
0.046245586 0.14491552 -0.103075475 0.18255082 -0.1447904 0.16387935 0.001891377 -0.08437538
-0.16480626 -0.1148163 0.16395694 -0.101388335 0.088962235 -0.09174171 -0.117282964 -0.05769413
-0.18904819 -0.027761938 0.06699204 0.04224444 0.09352852 0.21419062 -0.1396986 -0.13332602
0.089191824 0.20322457 -0.06913065 -0.1733503 -0.18155004 0.18423982 -0.1257494 0.044083387
-0.022317795 0.16817795 -0.15902875 -0.038016982 0.08419204 0.20086858 -0.20694447 0.039756555
0.006320166 0.016808504 -0.041777134 0.18988727 0.13336587 0.21423182 -0.053089704 0.023659926
-0.18712637 -0.084489785 -0.16160962 -0.19226575 -0.07259481 0.1533938 -0.09901065 -0.20643006
0.13871714 -0.03695117 0.15812232 -0.12541768 0.09948259 -0.095956564 -0.04542685 0.18226212
-0.19377376 0.064824186 -0.06430258 0.0040689595 -0.019844517 -0.0170056 -0.10183029 0.03874312
0.21113627 0.17105588 0.021766895 0.04333715 -0.11372839 -0.12171935 0.028391073 -0.06037151
0.18771765 -0.12598501 -0.13890831 -0.028501322 -0.09387153 -0.19816297 -0.06112865 -0.115893655
00000000: 7da3 2bbd 4101 5f3e 8cd2 4b3e 66fe 323e
00000010: d0d0 333e 9112 b43d 951d d33d 9cbb c1bd
00000020: 437d dd3d 9477 3abb 77a4 673d 8f3c 2a3e
00000030: 2391 82bc c29c 483e f9f3 94bd 7ee6 503e
00000040: 7a3b c5bc 54ce 19be 643b 503e b397 963d
00000050: bc72 a63d 3e30 36bd 6cc7 f03d b197 9a3d
00000060: d87c 02bd dceb f93d 4fc8 2ebd 4269 2c3e
00000070: ad2c a53d 82d2 8ebc 07e6 4d3e c6ab 56be
00000080: ecc6 ccbd 93f0 b0bd 26f0 ad3d 0db1 fabc
00000090: 4be7 593e cd6e 0bbd ff52 07be 4ae2 1cbe
000000a0: 1119 f13b 4ea6 2a3e f17c 563d a1c4 503e
000000b0: c0bc 61be 32b1 113e 0b7b 1abe a1a8 923d
000000c0: d59b 953d 4d94 e9bd e955 233c faa5 e0bd
000000d0: 3d41 29bd 4164 f13c 1261 90bd 514a 633d
000000e0: 39ab 453e b93c 30bd 8fc1 a8bc 141d 31be
000000f0: 2119 22be fc31 4b3c 06d6 1abe 764e 3c3e
00000100: b97b 7cbd f1d6 3fbe cf73 0dbe 8f37 f0bd
00000110: 50ac 263e d8de 433e 3619 2b3e bab3 003e
00000120: e72e 43be e359 443e 764a 46bd 1366 42be
00000130: 9b4c e03d ad56 2b3e ec32 533d d38f 50bc
00000140: a149 1dbe 645c 183e f42e 9ebd d848 d1bd
00000150: 86c0 e4bd f8f0 febd 4c07 e63d 7b4e bd3d
00000160: 919b 5a3e 74d0 a6bd de54 863d f574 aebd
00000170: dbe5 1d3e 4592 b1bd a532 5cbe 6a23 ecbd
00000180: ef63 bcbd e86c 2d3d 5100 96bd de79 563d
00000190: 3be2 d43c 1d2b 4a3e 6b75 bdbd c153 de3d
000001a0: 72b6 db3c 2bce 003e ac2b f3bd e645 e2bd
000001b0: de5f 0cbe 3604 09be 2e92 32be eb70 14be
000001c0: 95c2 58be 597c 8ebd 2799 313e cacd b03d
000001d0: ab4e 4ebd 0f83 26bd c9f8 263c 753c 103e
000001e0: e6c7 153e 0485 603e e29f e8bd 397f 14bd
000001f0: e00d 4dbd 3332 303e 273d e33c 8347 213d
00000200: ebcc 543e 72e8 3a3e 5f8c 76bd fe03 b53d
00000210: af66 1cbe a680 d8bd 53c5 043d 7ec4 22be
00000220: 1d96 b93d c8bb 0abe df94 053e c864 60be
00000230: 5a0f b33d 6c41 923d af23 493e eadf 0d3e
00000240: d643 053e 60c2 13be 7fbe 7a3d aa5b c73d
00000250: d044 a7bd 6012 dd3d 8fe3 48be 712d 3bbe
00000260: bb58 3fbe f1f9 583e aad5 253e c380 063b
00000270: ae36 da3c ca66 423e d56a 93bd 4b97 17be
00000280: 4bf2 b13c 1110 8fbd f11d ffbd e209 b8bd
00000290: aac3 e93c 29eb 443e 974c 26be 14ed e4bd
000002a0: 036c 3d3d bc64 143e 3c19 d3bd 9aee 3a3e
000002b0: ef43 14be fdcf 273e 15e8 f73a 00cd acbd
000002c0: f9c2 28be cf24 ebbd 54e4 273e b0a4 cfbd
000002d0: d531 b63d 14e3 bbbd 0d32 f0bd ae50 6cbd
000002e0: d995 41be 016d e3bc 1f33 893d 8208 2d3d
000002f0: e18b bf3d c954 5b3e 260d 0fbe 9e86 08be
00000300: 34aa b63d 1a1a 503e 5f94 8dbd be82 31be
00000310: 41e8 39be 5da9 3c3e 73c4 00be c890 343d
00000320: cfd3 b6bc d736 2c3e 6fd8 22be b2b7 1bbd
00000330: e06c ac3d 7eb0 4d3e 40e9 53be c5d7 223d
00000340: 6519 cf3b fdb1 893c 801e 2bbd cf71 423e
00000350: 1091 083e 965f 5b3e 9774 59bd 76d2 c13c
00000360: 0e9e 3fbe fb08 adbd fe7c 25be 50e1 44be
00000370: 96ac 94bd 4413 1d3e 18c6 cabd 6762 53be
00000380: de0b 0e3e 1c5a 17bd d1ea 213e 7e6d 00be
00000390: 87bd cb3d e084 c4bd 8111 3abd eca2 3a3e
000003a0: a16c 46be 8bc2 843d 12b1 83bd e854 853b
000003b0: f890 a2bc 544f 8bbc 668c d0bd 1bb1 1e3d
000003c0: 1b34 583e 4629 2f3e 7d50 b23c 4c82 313d
000003d0: 6eea e8bd ff47 f9bd 6594 e83c 1e48 77bd
000003e0: 0e39 403e 3702 01be fb3d 0ebe 9b7b e9bc
000003f0: b73f c0bd 3ceb 4abe 0962 7abd a759 edbd

model.lstm.bias_ih_l1 f4 [80]
-16.560589 -16.520267 -16.602163 16.581081 -16.504732 16.364744 16.222094 16.306643
16.386583 16.21376 -16.179207 -16.39639 16.22149 16.58573 16.512075 16.359346
16.354212 -16.38176 16.55287 -16.530754 0.1712419 0.08231535 0.081685975 -0.017602881
0.19912781 0.09078847 0.05511452 0.12196632 0.14985824 0.084841676 0.18087442 -0.081004806
-0.11887422 -0.03229898 -0.012273412 -0.12893593 -0.15574785 -0.032747917 0.054036364 0.097778924
16.50717 -16.390614 -16.296984 -16.329708 -16.560667 16.241966 -16.615005 -16.510677
16.306414 -16.207424 -16.248007 16.463078 16.484913 16.567743 16.357595 16.51847
16.378323 16.238287 16.269825 16.280361 -16.497477 -16.28791 -16.235277 16.546741
-16.401232 16.526993 16.561987 16.354914 16.294424 16.206537 -16.618488 -16.322237
16.397602 16.504076 16.50164 16.18912 16.245352 -16.501646 16.208443 -16.606207
00000000: 167c 84c1 8229 84c1 3bd1 84c1 0ea6 8441
00000010: b109 84c1 ffea 8241 d9c6 8141 0174 8241
00000020: b917 8341 c8b5 8141 046f 81c1 cf2b 83c1
00000030: 9dc5 8141 93af 8441 bb18 8441 f1df 8241
00000040: 6dd5 8241 d80d 83c1 476c 8441 fc3e 84c1
00000050: 095a 2f3e f394 a83d fa4a a73d eb33 90bc
00000060: 29e8 4b3e 4eef b93d c3bf 613d 7ac9 f93d
00000070: 7074 193e 79c1 ad3d 2537 393e d9e5 a5bd
00000080: 5474 f3bd ef4b 04bd 6c16 49bc c807 04be
00000090: 5d7c 1fbe ae22 06bd 3c55 5d3d 5140 c83d
000000a0: af0e 8441 fa1f 83c1 3960 82c1 3ea3 82c1
000000b0: 3f7c 84c1 8cef 8141 88eb 84c1 de15 84c1
000000c0: 8973 8241 cea8 81c1 ebfb 81c1 62b4 8341
000000d0: 1ae1 8341 bd8a 8441 5bdc 8241 d425 8441
000000e0: ce06 8341 03e8 8141 9a28 8241 2e3e 8241
000000f0: d5fa 83c1 a44d 82c1 d9e1 81c1 ba5f 8441
00000100: b935 83c1 4837 8441 f37e 8441 ddd6 8241
00000110: fb5a 8241 fda6 8141 aaf2 84c1 f193 82c1
00000120: 4a2e 8341 5908 8441 5c03 8441 5183 8141
00000130: 7bf6 8141 5f03 84c1 e4aa 8141 83d9 84c1

model.lstm.bias_hh_l1 f4 [80]
-16.598907 -16.57793 -16.18664 16.373518 -16.295067 16.46863 16.231272 16.592077
16.250988 16.373724 -16.511835 -16.180494 16.547522 16.318987 16.263468 16.181677
16.398352 -16.184404 16.602638 -16.266626 0.21635018 0.15860993 0.13787566 -0.21990843
0.20665067 0.049055103 -0.08749914 0.05490018 -0.17827892 0.028709613 -0.1802075 -0.046968363
0.17874399 -0.18557757 -0.06547096 0.0056641884 0.018369267 0.1914481 -0.025152715 0.05524151
16.222315 -16.219835 -16.288929 -16.550062 -16.419823 16.38239 -16.513311 -16.623215
16.406301 -16.60815 -16.242495 16.273806 16.213545 16.586807 16.406311 16.244085
16.372202 16.18349 16.518219 16.435495 -16.36859 -16.197115 -16.273825 16.309464
-16.565367 16.525549 16.359678 16.291506 16.307049 16.34232 -16.337984 -16.527124
16.403913 16.30689 16.259333 16.485762 16.240206 -16.272331 16.23257 -16.614355
00000000: 90ca 84c1 9a9f 84c1 3d7e 81c1 f7fc 8241
00000010: 4c5c 82c1 c1bf 8341 a5d9 8141 93bc 8441
00000020: 0602 8241 63fd 8241 3d18 84c1 a771 81c1
00000030: 5361 8441 498d 8241 951b 8241 1374 8141
00000040: d32f 8341 a979 81c1 34d2 8441 0d22 82c1
00000050: e78a 5d3e a46a 223e 472f 0d3e ad2f 61be
00000060: 3c9c 533e 01ee 483d c032 b3bd 03df 603d
00000070: c08e 36be 6c30 eb3c 5188 38be e661 40bd
00000080: aa08 373e 0c08 3ebe a415 86bd a89a b93b
00000090: 257b 963c f90a 443e 110d cebc ec44 623d
000000a0: 4dc7 8141 39c2 81c1 ba4f 82c1 8766 84c1
000000b0: cc5b 83c1 220f 8341 431b 84c1 58fc 84c1
000000c0: 1b40 8341 7edd 84c1 a1f0 81c1 c130 8241
000000d0: 57b5 8141 c8b1 8441 2040 8341 e3f3 8141
000000e0: 45fa 8241 ca77 8141 5025 8441 e57b 8341
000000f0: dff2 82c1 b193 81c1 cb30 82c1 c879 8241
00000100: df85 84c1 5334 8441 9fe0 8241 0155 8241
00000110: d674 8241 12bd 8241 31b4 82c1 8d37 84c1
00000120: 373b 8341 8374 8241 1d13 8241 d7e2 8341
00000130: f1eb 8141 bc2d 82c1 4edc 8141 33ea 84c1

model.linear.weight f4 [1, 20]
-16.392103 16.222567 16.188921 -27.787264 16.319067 27.135227 -27.43205 -27.839634
26.952837 -27.190786 16.243866 -16.253334 27.203661 28.174616 27.345692 27.291378
27.137989 -16.304674 27.25739 -16.339378
00000000: 0723 83c1 d1c7 8141 e982 8141 514c dec1
00000010: 738d 8241 f214 d941 d774 dbc1 92b7 dec1
00000020: 699f d741 bb86 d9c1 70f3 8141 d406 82c1
00000030: 19a1 d941 9d65 e141 fac3 da41 be54 da41
00000040: 9a1a d941 f96f 82c1 220f da41 0cb7 82c1

exp_avg f4 [80, 1]
1.0611134e-05 -0.000110685505 0.2604434 0.0 1.0752063e-15 8.272841e-06 5.115106 -0.00031343097
-3.7495797e-06 -1.635994e-10 -1.05234676e-07 -2.9928143e-11 -2.546812e-15 -2.4786896e-14 0.24436517 -8.7998614e-10
0.0 6.919866e-09 -1.5330855e-13 9.1335856e-10 0.0 0.0 0.0 0.0
0.0 0.0 0.0 0.0 0.0 0.0 0.0 0.0
0.0 0.0 0.0 0.0 0.0 0.0 0.0 0.0
-0.0011771034 -0.00031562068 0.019489435 -2.9503075e-10 -4.205671e-18 -2.687952e-09 0.0 -3.0953906e-08
0.0 -4.6293733e-11 0.0 1.4964587e-10 -1.4119925e-15 -1.9453547e-15 0.0 0.0
-0.011795837 0.0 0.0 0.0 0.040889792 0.0 0.2058602 1.6009048e-10
1.0750851e-15 8.111618e-06 2.5386933e-05 -1.2496551e-05 -3.828154e-13 -2.7369035e-06 -4.561499e-13 -2.9919917e-11
-8.604827e-10 -2.4786896e-14 0.0 -0.0036350482 0.0 6.621573e-14 -3.2685072e-08 9.133914e-10
00000000: 7906 3237 d41f e8b8 d658 853e 0000 0000
00000010: 1cf4 9a26 95cb 0a37 f3ae a340 fe53 a4b9
00000020: 4aa1 7bb6 23e1 33af 60fd e1b3 18a0 03ae
00000030: 6484 37a7 b142 dfa8 dd3a 7a3e 85e3 71b0
00000040: 0000 0000 c9c3 ed31 2e9c 2caa e50f 7b30
00000050: 0000 0000 0000 0000 0000 0000 0000 0000
00000060: 0000 0000 0000 0000 0000 0000 0000 0000
00000070: 0000 0000 0000 0000 0000 0000 0000 0000
00000080: 0000 0000 0000 0000 0000 0000 0000 0000
00000090: 0000 0000 0000 0000 0000 0000 0000 0000
000000a0: 0949 9aba e479 a5b9 4fa8 9f3c e331 a2af
000000b0: 7129 9ba2 f4b6 38b1 0000 0000 2ef2 04b3
000000c0: 0000 0000 1c9a 4bae 0000 0000 9189 242f
000000d0: 547d cba6 762d 0ca7 0000 0000 0000 0000
000000e0: 5443 41bc 0000 0000 0000 0000 0000 0000
000000f0: 0e7c 273d 0000 0000 04cd 523e 7705 302f
00000100: a4ef 9a26 2217 0837 06f6 d437 47a8 51b7
00000110: 8381 d7aa a5ab 37b6 1065 00ab d596 03ae
00000120: 1687 6cb0 b142 dfa8 0000 0000 fd39 6ebb
00000130: 0000 0000 c51a 9529 9e61 0cb3 3512 7b30

exp_avg_sq f4 [80, 1]
3.213114e-11 3.4961014e-09 0.019356607 0.0 3.2990291e-31 1.953043e-11 7.4664073 2.8034082e-08
4.012063e-12 7.637759e-21 3.1602416e-15 2.5560068e-22 1.8509564e-30 1.7532623e-28 0.017040452 2.209806e-19
0.0 1.36646325e-17 6.707107e-27 2.3805927e-19 0.0 0.0 0.0 0.0
0.0 0.0 0.0 0.0 0.0 0.0 0.0 0.0
0.0 0.0 0.0 0.0 0.0 0.0 0.0 0.0
3.9539552e-07 2.8427158e-08 0.00010839292 2.4839168e-20 5.047463e-36 2.0617952e-18 0.0 2.73422e-16
0.0 6.11571e-22 0.0 6.390459e-21 5.6894105e-31 1.0799412e-30 0.0 0.0
3.970636e-05 0.0 0.0 0.0 0.0004771253 0.0 0.012093366 7.313639e-21
3.2982848e-31 1.877662e-11 1.8391744e-10 4.4563866e-11 4.181973e-26 2.1375755e-12 5.93769e-26 2.5546015e-22
2.1129377e-19 1.7532623e-28 0.0 3.7707064e-06 0.0 1.2511944e-27 3.0486063e-16 2.3807644e-19
00000000: 7350 0d2e 1140 7031 bf91 9e3c 0000 0000
00000010: 861e d60c 9eca ab2d cfec ee40 99cf f032
00000020: 7329 8d2c f045 101e 2bb8 6327 4a80 9a1b
00000030: dc2a 160e 9d40 5e11 6b98 8b3c a571 8220
00000040: 0000 0000 6711 7c23 13d9 0414 8086 8c20
00000050: 0000 0000 0000 0000 0000 0000 0000 0000
00000060: 0000 0000 0000 0000 0000 0000 0000 0000
00000070: 0000 0000 0000 0000 0000 0000 0000 0000
00000080: 0000 0000 0000 0000 0000 0000 0000 0000
00000090: 0000 0000 0000 0000 0000 0000 0000 0000
000000a0: bf46 d434 fb2f f432 0151 e338 6c99 ea1e
000000b0: 01b2 d604 3622 1822 0000 0000 f79d 9d25
000000c0: 0000 0000 04d6 381c 0000 0000 ba6c f11d
000000d0: c6a1 380d 013b af0d 0000 0000 0000 0000
000000e0: 618a 2638 0000 0000 0000 0000 0000 0000
000000f0: ac26 fa39 0000 0000 4123 463c 9726 0a1e
00000100: 2812 d60c 3029 a52d 2838 4a2f 74fe 432e
00000110: ce14 4f15 236b 162c 9502 9315 8b6a 9a1b
00000120: a073 7920 9d40 5e11 0000 0000 3e0c 7d36
00000130: 0000 0000 7a42 c612 7dbd af25 1889 8c20

exp_avg f4 [80, 20]
0.0 0.0 0.0 0.0 0.0 0.0 0.0 0.0
0.0 0.0 0.0 0.0 0.0 0.0 0.0 0.0
0.0 0.0 0.0 0.0 0.0 0.0 0.0 0.0
0.0 0.0 0.0 0.0 0.0 0.0 0.0 0.0
0.0 0.0 0.0 0.0 0.0 0.0 0.0 0.0
0.0 0.0 0.0 0.0 0.0 0.0 0.0 0.0
0.0 0.0 0.0 0.0 0.0 0.0 0.0 0.0
0.0 0.0 0.0 0.0 0.0 0.0 0.0 0.0
0.0 0.0 0.0 0.0 0.0 0.0 0.0 0.0
0.0 0.0 0.0 0.0 0.0 0.0 0.0 0.0
0.0 0.0 0.0 0.0 0.0 0.0 0.0 0.0
0.0 0.0 0.0 0.0 0.0 0.0 0.0 0.0
0.0 0.0 0.0 0.0 0.0 0.0 0.0 0.0
0.0 0.0 0.0 0.0 0.0 0.0 0.0 0.0
0.0 0.0 0.0 0.0 0.0 0.0 0.0 0.0
0.0 0.0 0.0 0.0 0.0 0.0 0.0 0.0
0.0 0.0 0.0 0.0 0.0 0.0 0.0 0.0
0.0 0.0 0.0 0.0 0.0 0.0 0.0 0.0
0.0 0.0 0.0 0.0 0.0 0.0 0.0 0.0
0.0 0.0 0.0 0.0 0.0 0.0 0.0 0.0
0.0 0.0 0.0 0.0 0.0 0.0 0.0 0.0
0.0 0.0 0.0 0.0 0.0 0.0 0.0 0.0
0.0 0.0 0.0 0.0 0.0 0.0 0.0 0.0
0.0 0.0 0.0 0.0 0.0 0.0 0.0 0.0
0.0 0.0 0.0 0.0 0.0 0.0 0.0 0.0
0.0 0.0 0.0 0.0 0.0 0.0 0.0 0.0
0.0 0.0 0.0 0.0 0.0 0.0 0.0 0.0
0.0 0.0 0.0 0.0 0.0 0.0 0.0 0.0
0.0 0.0 0.0 0.0 0.0 0.0 0.0 0.0
0.0 0.0 0.0 0.0 0.0 0.0 0.0 0.0
0.0 0.0 0.0 0.0 0.0 0.0 0.0 0.0
0.0 0.0 0.0 0.0 0.0 0.0 0.0 0.0
00000000: 0000 0000 0000 0000 0000 0000 0000 0000
00000010: 0000 0000 0000 0000 0000 0000 0000 0000
00000020: 0000 0000 0000 0000 0000 0000 0000 0000
00000030: 0000 0000 0000 0000 0000 0000 0000 0000
00000040: 0000 0000 0000 0000 0000 0000 0000 0000
00000050: 0000 0000 0000 0000 0000 0000 0000 0000
00000060: 0000 0000 0000 0000 0000 0000 0000 0000
00000070: 0000 0000 0000 0000 0000 0000 0000 0000
00000080: 0000 0000 0000 0000 0000 0000 0000 0000
00000090: 0000 0000 0000 0000 0000 0000 0000 0000
000000a0: 0000 0000 0000 0000 0000 0000 0000 0000
000000b0: 0000 0000 0000 0000 0000 0000 0000 0000
000000c0: 0000 0000 0000 0000 0000 0000 0000 0000
000000d0: 0000 0000 0000 0000 0000 0000 0000 0000
000000e0: 0000 0000 0000 0000 0000 0000 0000 0000
000000f0: 0000 0000 0000 0000 0000 0000 0000 0000
00000100: 0000 0000 0000 0000 0000 0000 0000 0000
00000110: 0000 0000 0000 0000 0000 0000 0000 0000
00000120: 0000 0000 0000 0000 0000 0000 0000 0000
00000130: 0000 0000 0000 0000 0000 0000 0000 0000
00000140: 0000 0000 0000 0000 0000 0000 0000 0000
00000150: 0000 0000 0000 0000 0000 0000 0000 0000
00000160: 0000 0000 0000 0000 0000 0000 0000 0000
00000170: 0000 0000 0000 0000 0000 0000 0000 0000
00000180: 0000 0000 0000 0000 0000 0000 0000 0000
00000190: 0000 0000 0000 0000 0000 0000 0000 0000
000001a0: 0000 0000 0000 0000 0000 0000 0000 0000
000001b0: 0000 0000 0000 0000 0000 0000 0000 0000
000001c0: 0000 0000 0000 0000 0000 0000 0000 0000
000001d0: 0000 0000 0000 0000 0000 0000 0000 0000
000001e0: 0000 0000 0000 0000 0000 0000 0000 0000
000001f0: 0000 0000 0000 0000 0000 0000 0000 0000
00000200: 0000 0000 0000 0000 0000 0000 0000 0000
00000210: 0000 0000 0000 0000 0000 0000 0000 0000
00000220: 0000 0000 0000 0000 0000 0000 0000 0000
00000230: 0000 0000 0000 0000 0000 0000 0000 0000
00000240: 0000 0000 0000 0000 0000 0000 0000 0000
00000250: 0000 0000 0000 0000 0000 0000 0000 0000
00000260: 0000 0000 0000 0000 0000 0000 0000 0000
00000270: 0000 0000 0000 0000 0000 0000 0000 0000
00000280: 0000 0000 0000 0000 0000 0000 0000 0000
00000290: 0000 0000 0000 0000 0000 0000 0000 0000
000002a0: 0000 0000 0000 0000 0000 0000 0000 0000
000002b0: 0000 0000 0000 0000 0000 0000 0000 0000
000002c0: 0000 0000 0000 0000 0000 0000 0000 0000
000002d0: 0000 0000 0000 0000 0000 0000 0000 0000
000002e0: 0000 0000 0000 0000 0000 0000 0000 0000
000002f0: 0000 0000 0000 0000 0000 0000 0000 0000
00000300: 0000 0000 0000 0000 0000 0000 0000 0000
00000310: 0000 0000 0000 0000 0000 0000 0000 0000
00000320: 0000 0000 0000 0000 0000 0000 0000 0000
00000330: 0000 0000 0000 0000 0000 0000 0000 0000
00000340: 0000 0000 0000 0000 0000 0000 0000 0000
00000350: 0000 0000 0000 0000 0000 0000 0000 0000
00000360: 0000 0000 0000 0000 0000 0000 0000 0000
00000370: 0000 0000 0000 0000 0000 0000 0000 0000
00000380: 0000 0000 0000 0000 0000 0000 0000 0000
00000390: 0000 0000 0000 0000 0000 0000 0000 0000
000003a0: 0000 0000 0000 0000 0000 0000 0000 0000
000003b0: 0000 0000 0000 0000 0000 0000 0000 0000
000003c0: 0000 0000 0000 0000 0000 0000 0000 0000
000003d0: 0000 0000 0000 0000 0000 0000 0000 0000
000003e0: 0000 0000 0000 0000 0000 0000 0000 0000
000003f0: 0000 0000 0000 0000 0000 0000 0000 0000

exp_avg_sq f4 [80, 20]
0.0 0.0 0.0 0.0 0.0 0.0 0.0 0.0
0.0 0.0 0.0 0.0 0.0 0.0 0.0 0.0
0.0 0.0 0.0 0.0 0.0 0.0 0.0 0.0
0.0 0.0 0.0 0.0 0.0 0.0 0.0 0.0
0.0 0.0 0.0 0.0 0.0 0.0 0.0 0.0
0.0 0.0 0.0 0.0 0.0 0.0 0.0 0.0
0.0 0.0 0.0 0.0 0.0 0.0 0.0 0.0
0.0 0.0 0.0 0.0 0.0 0.0 0.0 0.0
0.0 0.0 0.0 0.0 0.0 0.0 0.0 0.0
0.0 0.0 0.0 0.0 0.0 0.0 0.0 0.0
0.0 0.0 0.0 0.0 0.0 0.0 0.0 0.0
0.0 0.0 0.0 0.0 0.0 0.0 0.0 0.0
0.0 0.0 0.0 0.0 0.0 0.0 0.0 0.0
0.0 0.0 0.0 0.0 0.0 0.0 0.0 0.0
0.0 0.0 0.0 0.0 0.0 0.0 0.0 0.0
0.0 0.0 0.0 0.0 0.0 0.0 0.0 0.0
0.0 0.0 0.0 0.0 0.0 0.0 0.0 0.0
0.0 0.0 0.0 0.0 0.0 0.0 0.0 0.0
0.0 0.0 0.0 0.0 0.0 0.0 0.0 0.0
0.0 0.0 0.0 0.0 0.0 0.0 0.0 0.0
0.0 0.0 0.0 0.0 0.0 0.0 0.0 0.0
0.0 0.0 0.0 0.0 0.0 0.0 0.0 0.0
0.0 0.0 0.0 0.0 0.0 0.0 0.0 0.0
0.0 0.0 0.0 0.0 0.0 0.0 0.0 0.0
0.0 0.0 0.0 0.0 0.0 0.0 0.0 0.0
0.0 0.0 0.0 0.0 0.0 0.0 0.0 0.0
0.0 0.0 0.0 0.0 0.0 0.0 0.0 0.0
0.0 0.0 0.0 0.0 0.0 0.0 0.0 0.0
0.0 0.0 0.0 0.0 0.0 0.0 0.0 0.0
0.0 0.0 0.0 0.0 0.0 0.0 0.0 0.0
0.0 0.0 0.0 0.0 0.0 0.0 0.0 0.0
0.0 0.0 0.0 0.0 0.0 0.0 0.0 0.0
00000000: 0000 0000 0000 0000 0000 0000 0000 0000
00000010: 0000 0000 0000 0000 0000 0000 0000 0000
00000020: 0000 0000 0000 0000 0000 0000 0000 0000
00000030: 0000 0000 0000 0000 0000 0000 0000 0000
00000040: 0000 0000 0000 0000 0000 0000 0000 0000
00000050: 0000 0000 0000 0000 0000 0000 0000 0000
00000060: 0000 0000 0000 0000 0000 0000 0000 0000
00000070: 0000 0000 0000 0000 0000 0000 0000 0000
00000080: 0000 0000 0000 0000 0000 0000 0000 0000
00000090: 0000 0000 0000 0000 0000 0000 0000 0000
000000a0: 0000 0000 0000 0000 0000 0000 0000 0000
000000b0: 0000 0000 0000 0000 0000 0000 0000 0000
000000c0: 0000 0000 0000 0000 0000 0000 0000 0000
000000d0: 0000 0000 0000 0000 0000 0000 0000 0000
000000e0: 0000 0000 0000 0000 0000 0000 0000 0000
000000f0: 0000 0000 0000 0000 0000 0000 0000 0000
00000100: 0000 0000 0000 0000 0000 0000 0000 0000
00000110: 0000 0000 0000 0000 0000 0000 0000 0000
00000120: 0000 0000 0000 0000 0000 0000 0000 0000
00000130: 0000 0000 0000 0000 0000 0000 0000 0000
00000140: 0000 0000 0000 0000 0000 0000 0000 0000
00000150: 0000 0000 0000 0000 0000 0000 0000 0000
00000160: 0000 0000 0000 0000 0000 0000 0000 0000
00000170: 0000 0000 0000 0000 0000 0000 0000 0000
00000180: 0000 0000 0000 0000 0000 0000 0000 0000
00000190: 0000 0000 0000 0000 0000 0000 0000 0000
000001a0: 0000 0000 0000 0000 0000 0000 0000 0000
000001b0: 0000 0000 0000 0000 0000 0000 0000 0000
000001c0: 0000 0000 0000 0000 0000 0000 0000 0000
000001d0: 0000 0000 0000 0000 0000 0000 0000 0000
000001e0: 0000 0000 0000 0000 0000 0000 0000 0000
000001f0: 0000 0000 0000 0000 0000 0000 0000 0000
00000200: 0000 0000 0000 0000 0000 0000 0000 0000
00000210: 0000 0000 0000 0000 0000 0000 0000 0000
00000220: 0000 0000 0000 0000 0000 0000 0000 0000
00000230: 0000 0000 0000 0000 0000 0000 0000 0000
00000240: 0000 0000 0000 0000 0000 0000 0000 0000
00000250: 0000 0000 0000 0000 0000 0000 0000 0000
00000260: 0000 0000 0000 0000 0000 0000 0000 0000
00000270: 0000 0000 0000 0000 0000 0000 0000 0000
00000280: 0000 0000 0000 0000 0000 0000 0000 0000
00000290: 0000 0000 0000 0000 0000 0000 0000 0000
000002a0: 0000 0000 0000 0000 0000 0000 0000 0000
000002b0: 0000 0000 0000 0000 0000 0000 0000 0000
000002c0: 0000 0000 0000 0000 0000 0000 0000 0000
000002d0: 0000 0000 0000 0000 0000 0000 0000 0000
000002e0: 0000 0000 0000 0000 0000 0000 0000 0000
000002f0: 0000 0000 0000 0000 0000 0000 0000 0000
00000300: 0000 0000 0000 0000 0000 0000 0000 0000
00000310: 0000 0000 0000 0000 0000 0000 0000 0000
00000320: 0000 0000 0000 0000 0000 0000 0000 0000
00000330: 0000 0000 0000 0000 0000 0000 0000 0000
00000340: 0000 0000 0000 0000 0000 0000 0000 0000
00000350: 0000 0000 0000 0000 0000 0000 0000 0000
00000360: 0000 0000 0000 0000 0000 0000 0000 0000
00000370: 0000 0000 0000 0000 0000 0000 0000 0000
00000380: 0000 0000 0000 0000 0000 0000 0000 0000
00000390: 0000 0000 0000 0000 0000 0000 0000 0000
000003a0: 0000 0000 0000 0000 0000 0000 0000 0000
000003b0: 0000 0000 0000 0000 0000 0000 0000 0000
000003c0: 0000 0000 0000 0000 0000 0000 0000 0000
000003d0: 0000 0000 0000 0000 0000 0000 0000 0000
000003e0: 0000 0000 0000 0000 0000 0000 0000 0000
000003f0: 0000 0000 0000 0000 0000 0000 0000 0000

exp_avg f4 [80]
9.299641e-08 -9.614198e-07 0.0021220017 0.0 1.028137e-17 7.2785504e-08 0.04053386 -2.709458e-06
-3.3183643e-08 -1.5202741e-12 -9.503548e-10 -2.7664803e-13 -2.4185416e-17 -2.3511308e-16 0.0019752725 -8.134605e-12
0.0 6.3699775e-11 -1.4441885e-15 8.41504e-12 0.0 0.0 0.0 0.0
0.0 0.0 0.0 0.0 0.0 0.0 0.0 0.0
0.0 0.0 0.0 0.0 0.0 0.0 0.0 0.0
-1.0081195e-05 -2.7593605e-06 0.00016569567 -2.732504e-12 -4.0311022e-20 -2.47695e-11 0.0 -2.8372193e-10
0.0 -4.3355166e-13 0.0 1.3929025e-12 -1.3428995e-17 -1.8529749e-17 0.0 0.0
-0.00010064628 0.0 0.0 0.0 0.0003360323 0.0 0.0016736875 1.4789676e-12
1.02802064e-17 7.133534e-08 2.2389221e-07 -1.1015571e-07 -3.6365255e-15 -2.4448665e-08 -4.2952596e-15 -2.7657035e-13
-7.953206e-12 -2.3511308e-16 0.0 -3.097703e-05 0.0 6.267903e-16 -2.96377e-10 8.415351e-12
00000000: 51b5 c733 220a 81b5 4811 0b3b 0000 0000
00000010: 66a8 3d23 414e 9c33 d506 263d 22d4 35b6
00000020: cd85 0eb3 a6f5 d5ab a39d 82b0 2fbd 9baa
00000030: 3312 dfa3 9188 87a5 9373 013b 011b 0fad
00000040: 0000 0000 c913 8c2e 2721 d0a6 f909 142d
00000050: 0000 0000 0000 0000 0000 0000 0000 0000
00000060: 0000 0000 0000 0000 0000 0000 0000 0000
00000070: 0000 0000 0000 0000 0000 0000 0000 0000
00000080: 0000 0000 0000 0000 0000 0000 0000 0000
00000090: 0000 0000 0000 0000 0000 0000 0000 0000
000000a0: 6722 29b7 742d 39b6 98be 2d39 6a48 40ac
000000b0: 095d 3e9f f5df d9ad 0000 0000 50fa 9baf
000000c0: 0000 0000 6111 f4aa 0000 0000 9a08 c42b
000000d0: a3b8 77a3 22e8 aaa3 0000 0000 0000 0000
000000e0: 0f12 d3b8 0000 0000 0000 0000 0000 0000
000000f0: 7e2d b039 0000 0000 a25f db3a 6c25 d02b
00000100: e7a2 3d23 0531 9933 0667 7034 be8e ecb3
00000110: 0705 83a7 2f03 d2b2 c7c0 9aa7 fdb1 9baa
00000120: 0eea 0bad 9188 87a5 0000 0000 55ed 01b8
00000130: 0000 0000 f6a8 3426 5bef a2af 5f0b 142d

exp_avg_sq f4 [80]
2.467941e-15 2.6377202e-13 1.2849728e-06 0.0 3.0165082e-35 1.5117923e-15 0.00046885488 2.0949195e-12
3.142322e-16 6.595477e-25 2.5773537e-19 2.1840254e-26 1.669205e-34 1.5774516e-32 1.1134138e-06 1.8883194e-23
0.0 1.1579195e-21 5.951826e-31 2.0207605e-23 0.0 0.0 0.0 0.0
0.0 0.0 0.0 0.0 0.0 0.0 0.0 0.0
0.0 0.0 0.0 0.0 0.0 0.0 0.0 0.0
2.9001905e-11 2.1727986e-12 7.834745e-09 2.1307086e-24 4.63713e-40 1.7508018e-22 0.0 2.2971445e-20
0.0 5.3639435e-26 0.0 5.5366104e-25 5.146234e-35 9.798092e-35 0.0 0.0
2.8906664e-09 0.0 0.0 0.0 3.2222886e-08 0.0 7.993762e-07 6.2419442e-25
3.0158252e-35 1.452152e-15 1.4304758e-14 3.4627128e-15 3.773772e-30 1.7057395e-16 5.264793e-30 2.1827994e-26
1.8050404e-23 1.5774516e-32 0.0 2.7383062e-10 0.0 1.1211069e-31 2.506637e-20 2.0209099e-23
00000000: 7ad5 3127 8e7d 942a 5477 ac35 0000 0000
00000010: 9562 2006 4bdf d926 a3d0 f539 b76a 132c
00000020: 7d24 b525 c11e 4c17 de23 9820 9f4b d814
00000030: 1ae0 5d07 dbcf a30a 9b70 9535 86a0 b619
00000040: 0000 0000 d7fa ae1c d625 410d 9b6f c319
00000050: 0000 0000 0000 0000 0000 0000 0000 0000
00000060: 0000 0000 0000 0000 0000 0000 0000 0000
00000070: 0000 0000 0000 0000 0000 0000 0000 0000
00000080: 0000 0000 0000 0000 0000 0000 0000 0000
00000090: 0000 0000 0000 0000 0000 0000 0000 0000
000000a0: 7c1a ff2d a9e5 182c 9399 0632 08db 2418
000000b0: a50c 0500 b1a8 531b 0000 0000 8cf5 d81e
000000c0: 0000 0000 08ce 8415 0000 0000 8c59 2b17
000000d0: 74cf 8806 2e3d 0207 0000 0000 0000 0000
000000e0: 24a5 4631 0000 0000 0000 0000 0000 0000
000000f0: 7065 0a33 0000 0000 b794 5635 c72d 4117
00000100: 4959 2006 f446 d126 87d8 8028 c783 7927
00000110: 1715 990e 8ba8 4425 bc90 d50e 8a2c d814
00000120: a392 ae19 dbcf a30a 0000 0000 3c8a 962f
00000130: 0000 0000 2b87 110c c4be ec1e 4e73 c319

exp_avg f4 [80]
9.299641e-08 -9.614198e-07 0.0021220017 0.0 1.028137e-17 7.2785504e-08 0.04053386 -2.709458e-06
-3.3183643e-08 -1.5202741e-12 -9.503548e-10 -2.7664803e-13 -2.4185416e-17 -2.3511308e-16 0.0019752725 -8.134605e-12
0.0 6.3699775e-11 -1.4441885e-15 8.41504e-12 0.0 0.0 0.0 0.0
0.0 0.0 0.0 0.0 0.0 0.0 0.0 0.0
0.0 0.0 0.0 0.0 0.0 0.0 0.0 0.0
-1.0081195e-05 -2.7593605e-06 0.00016569567 -2.732504e-12 -4.0311022e-20 -2.47695e-11 0.0 -2.8372193e-10
0.0 -4.3355166e-13 0.0 1.3929025e-12 -1.3428995e-17 -1.8529749e-17 0.0 0.0
-0.00010064628 0.0 0.0 0.0 0.0003360323 0.0 0.0016736875 1.4789676e-12
1.02802064e-17 7.133534e-08 2.2389221e-07 -1.1015571e-07 -3.6365255e-15 -2.4448665e-08 -4.2952596e-15 -2.7657035e-13
-7.953206e-12 -2.3511308e-16 0.0 -3.097703e-05 0.0 6.267903e-16 -2.96377e-10 8.415351e-12
00000000: 51b5 c733 220a 81b5 4811 0b3b 0000 0000
00000010: 66a8 3d23 414e 9c33 d506 263d 22d4 35b6
00000020: cd85 0eb3 a6f5 d5ab a39d 82b0 2fbd 9baa
00000030: 3312 dfa3 9188 87a5 9373 013b 011b 0fad
00000040: 0000 0000 c913 8c2e 2721 d0a6 f909 142d
00000050: 0000 0000 0000 0000 0000 0000 0000 0000
00000060: 0000 0000 0000 0000 0000 0000 0000 0000
00000070: 0000 0000 0000 0000 0000 0000 0000 0000
00000080: 0000 0000 0000 0000 0000 0000 0000 0000
00000090: 0000 0000 0000 0000 0000 0000 0000 0000
000000a0: 6722 29b7 742d 39b6 98be 2d39 6a48 40ac
000000b0: 095d 3e9f f5df d9ad 0000 0000 50fa 9baf
000000c0: 0000 0000 6111 f4aa 0000 0000 9a08 c42b
000000d0: a3b8 77a3 22e8 aaa3 0000 0000 0000 0000
000000e0: 0f12 d3b8 0000 0000 0000 0000 0000 0000
000000f0: 7e2d b039 0000 0000 a25f db3a 6c25 d02b
00000100: e7a2 3d23 0531 9933 0667 7034 be8e ecb3
00000110: 0705 83a7 2f03 d2b2 c7c0 9aa7 fdb1 9baa
00000120: 0eea 0bad 9188 87a5 0000 0000 55ed 01b8
00000130: 0000 0000 f6a8 3426 5bef a2af 5f0b 142d

exp_avg_sq f4 [80]
2.467941e-15 2.6377202e-13 1.2849728e-06 0.0 3.0165082e-35 1.5117923e-15 0.00046885488 2.0949195e-12
3.142322e-16 6.595477e-25 2.5773537e-19 2.1840254e-26 1.669205e-34 1.5774516e-32 1.1134138e-06 1.8883194e-23
0.0 1.1579195e-21 5.951826e-31 2.0207605e-23 0.0 0.0 0.0 0.0
0.0 0.0 0.0 0.0 0.0 0.0 0.0 0.0
0.0 0.0 0.0 0.0 0.0 0.0 0.0 0.0
2.9001905e-11 2.1727986e-12 7.834745e-09 2.1307086e-24 4.63713e-40 1.7508018e-22 0.0 2.2971445e-20
0.0 5.3639435e-26 0.0 5.5366104e-25 5.146234e-35 9.798092e-35 0.0 0.0
2.8906664e-09 0.0 0.0 0.0 3.2222886e-08 0.0 7.993762e-07 6.2419442e-25
3.0158252e-35 1.452152e-15 1.4304758e-14 3.4627128e-15 3.773772e-30 1.7057395e-16 5.264793e-30 2.1827994e-26
1.8050404e-23 1.5774516e-32 0.0 2.7383062e-10 0.0 1.1211069e-31 2.506637e-20 2.0209099e-23
00000000: 7ad5 3127 8e7d 942a 5477 ac35 0000 0000
00000010: 9562 2006 4bdf d926 a3d0 f539 b76a 132c
00000020: 7d24 b525 c11e 4c17 de23 9820 9f4b d814
00000030: 1ae0 5d07 dbcf a30a 9b70 9535 86a0 b619
00000040: 0000 0000 d7fa ae1c d625 410d 9b6f c319
00000050: 0000 0000 0000 0000 0000 0000 0000 0000
00000060: 0000 0000 0000 0000 0000 0000 0000 0000
00000070: 0000 0000 0000 0000 0000 0000 0000 0000
00000080: 0000 0000 0000 0000 0000 0000 0000 0000
00000090: 0000 0000 0000 0000 0000 0000 0000 0000
000000a0: 7c1a ff2d a9e5 182c 9399 0632 08db 2418
000000b0: a50c 0500 b1a8 531b 0000 0000 8cf5 d81e
000000c0: 0000 0000 08ce 8415 0000 0000 8c59 2b17
000000d0: 74cf 8806 2e3d 0207 0000 0000 0000 0000
000000e0: 24a5 4631 0000 0000 0000 0000 0000 0000
000000f0: 7065 0a33 0000 0000 b794 5635 c72d 4117
00000100: 4959 2006 f446 d126 87d8 8028 c783 7927
00000110: 1715 990e 8ba8 4425 bc90 d50e 8a2c d814
00000120: a392 ae19 dbcf a30a 0000 0000 3c8a 962f
00000130: 0000 0000 2b87 110c c4be ec1e 4e73 c319
