dl_computer_vision/assignments/1/checkpoints/best_checkpoint-v9.ckpt (torch, 168892 bytes, 27 tensors)

model.lstm.weight_ih_l0 f4 [128, 1]
000000 eb 18 d5 3e 47 5a c3 3e d4 14 e3 3e ce 95 b2 be
       0.41620573 0.38154814 0.44351828 -0.34879917
000010 73 0d a9 3e 27 e3 b3 3e b3 bf d4 be 94 8b e3 be
       0.33018073 0.3513424 -0.41552505 -0.44442427
000020 75 81 ce 3e b2 81 3a 3f 4b df de be 5b cc d4 be
       0.40333143 0.7285415 -0.43529734 -0.4156216
000030 f4 f2 a8 3e 85 4e e4 3e 0b e3 c4 be 5b 61 e3 3f
       0.3299786 0.44591156 -0.3845447 1.7764086
000040 51 58 95 3e 0d b1 d9 3e a6 85 e9 be 29 ef c3 be
       0.29168943 0.42517892 -0.45609778 -0.38268402
000050 d6 95 b6 3e f1 24 e0 be 90 6e ca 3e a4 74 73 be
       0.3566119 -0.43778184 0.39537477 -0.23774964
000060 58 7d db 3e 21 af e8 be ee 6e c6 3d 2f 2a 11 be
       0.42869067 -0.45446113 0.09689127 -0.14176248
000070 c1 7d e0 3e 9c 43 cf 3e 5f 7a a9 3e 16 04 c6 3e
       0.43845943 0.4048127 0.33101174 0.38674992
000080 14 1d a5 bd a9 72 81 3c 29 2f 92 bd cb f7 42 bd
       -0.08062187 0.015801745 -0.07137901 -0.047599595
000090 cc 4e ad 3d a6 31 93 3d df 0f 6b 3d 2e 10 42 bd
       0.08462295 0.07187204 0.057388183 -0.04737871
0000a0 8e cc 8f 3d 75 c1 8d bd a4 3d b6 bc 07 ba 6e bd
       0.070214376 -0.069216646 -0.02224619 -0.05828288
0000b0 86 cf 36 3c 83 08 c1 3d bf 3a 7e 3d cd 25 0e bb
       0.011157876 0.094254516 0.062067743 -0.0021690011
0000c0 dd 08 ae bd a5 d0 b1 3d 83 e9 a2 3c cd ee c1 3a
       -0.08497784 0.08682374 0.019886738 0.00147959
0000d0 8d 25 b4 bd 31 24 b7 3c 5d 67 76 3c b7 de 69 3d
       -0.08796225 0.022356125 0.015039292 0.057097163
0000e0 23 77 cd 3c 3b 8f 96 bd a7 f8 9d 3c 0e 2f 8b 3d
       0.025081223 -0.07351538 0.019283606 0.06796084
0000f0 90 64 42 bc 36 3c a9 bd 5b f5 68 bb 27 47 b3 3b
       -0.011864796 -0.082634374 -0.0035546634 0.0054711285
000100 4b c7 d0 3f 04 ad a4 bf 77 8c c5 3e 21 6c ac 3e
       1.6310819 -1.28653 0.3858373 0.33676246
000110 8d 3d 81 be 96 d7 dc bf d0 44 b8 3e d6 70 1e bc
       -0.25242272 -1.7253292 0.3599 -0.009670457
000120 04 fa bf 3e fd c0 c3 3e 54 14 82 bd b5 2b 07 bd
       0.37495434 0.38233176 -0.063515335 -0.033000667
000130 94 80 b1 bd 94 3c 37 bf b1 1b 57 3d 1e 5d e2 bf
       -0.086671025 -0.7157681 0.052516643 -1.7684667
000140 3f 45 da 3d 61 3d c3 3e 0f 05 ce 3d 85 f2 c2 bd
       0.10657739 0.38132766 0.100595586 -0.09518913
000150 3e 8e d1 bd 79 c0 24 bc 49 7a c9 be 90 ea b5 be
       -0.10232209 -0.010055655 -0.3935111 -0.3553052
000160 ea dd bd 3d 77 f9 51 bd 77 4f 95 3d 0c 8f 92 3d
       0.092708424 -0.0512633 0.07290547 0.0715619
000170 7f 47 48 bf a1 3e bf bf 7b f6 bb be 9f c6 b8 bd
       -0.78234094 -1.4940988 -0.36711487 -0.09022259
000180 0a 0e d5 3e 54 35 b3 3e 03 0d cf 3e 40 36 be be
       0.41612273 0.35001624 0.40439615 -0.37150764
000190 dc ef b6 3e 6d d9 bf 3e 15 5a c5 be 02 d5 bf be
       0.35729873 0.3747057 -0.3854529 -0.374672
0001a0 d0 a3 bb 3e c5 cb be 3e 07 31 89 3d e8 24 d1 be
       0.36648417 0.3726484 0.06698804 -0.4084847
0001b0 0a c4 d4 3e 48 c2 d4 3e 72 85 b1 be 1b 82 e2 bf
       0.41555816 0.41554475 -0.34672123 -1.7695955
0001c0 96 76 bb 3e 6d 04 ea 3e ea ce b4 3d 2f 0b c3 be
       0.3661391 0.45706502 0.08828528 -0.3809447
0001d0 0d 39 cc 3e 99 3c 47 3d 82 02 d3 3e 25 53 cf be
       0.39887276 0.048641775 0.4121285 -0.40493122
0001e0 14 b6 cd 3e 92 4f df 3d 99 41 e0 be e3 05 a0 bd
       0.40177977 0.10903849 -0.43800047 -0.07813623
0001f0 14 6d b8 3e c4 dc ad 3e c9 9a cc 3e a5 57 ec 3e
       0.3602072 0.33957493 0.39961842 0.46160617

model.lstm.weight_hh_l0 f4 [128, 32]
000000 44 93 aa bc 75 7f be bd 25 7a 1e 3d f3 f2 b9 3d
       -0.020822175 -0.09301654 0.038690705 0.09079542
000010 f1 17 3b 3c 3e 99 81 3d 4d 0d 2a 3d 65 13 ee bb
       0.011419282 0.06328057 0.04151659 -0.0072654956
000020 50 6a 65 bd b3 d6 a5 bd fc 31 c4 3d 3e b8 38 bd
       -0.05600959 -0.08097591 0.09579846 -0.045097582
000030 3f a0 05 bd 16 5d 6c bd c4 cd be 3d 0c 29 19 bd
       -0.032623526 -0.05770596 0.093165904 -0.03739266
000040 a2 6f b9 3d b7 72 56 bb 52 7f 55 3d b4 1e a0 bd
       0.090544954 -0.0032722184 0.052123375 -0.07818356
000050 90 69 08 bc 1c 13 d4 bd 35 78 97 bc d1 d4 1d 3d
       -0.008325949 -0.10355207 -0.018489936 0.038533036
000060 75 d8 9e 3d 5a 2d a0 bd 85 6f 02 3d 4a 78 a2 3d
       0.0775613 -0.0782115 0.031844635 0.079330996
000070 c0 76 2f bd cb 51 89 bd 26 6a 2e 3c 68 78 7f 3d
       -0.04283786 -0.06705054 0.010645425 0.062370688
000080 5d 02 8c 3d 6c 5c d5 bd 2a 4c 4d bd e2 09 4e 3b
       0.06836388 -0.10418019 -0.050121464 0.0031438996
000090 47 e6 15 bd 03 f4 61 3a 2b 44 c4 bd ae 49 f4 3b
       -0.036596563 0.00086194294 -0.095833145 0.0074550724
0000a0 c7 1a 6c bd aa 52 36 3c dc ec 2e 3c dd d3 46 bd
       -0.057642724 0.011128107 0.010676589 -0.048541892
0000b0 8d f4 63 3d e8 9f 7a 3d da 95 91 3d c3 76 89 bd
       0.055653144 0.061187655 0.0710866 -0.06712105
0000c0 e5 ad 37 3d 58 53 6e bd 50 90 9b 3b e9 ee 0b 3d
       0.044843573 -0.05818495 0.004747428 0.03416339
0000d0 b3 28 49 bc 74 9f 12 bd f5 9c 24 3d c2 9a c5 3d
       -0.01227777 -0.035796598 0.04018875 0.09648658
0000e0 43 b5 88 3d 1b da 87 bd 83 ca 64 bc 61 52 29 bd
       0.06675198 -0.06633397 -0.013964298 -0.04133833
0000f0 01 c4 b8 3d 6e 47 b2 bd 85 a1 ac 3d cf 62 83 3d
       0.0902176 -0.087050304 0.08429245 0.064153306
000100 ec b0 cc bd fe 1c a3 3d d9 eb 81 bd a1 77 aa bd
       -0.09994683 0.07964514 -0.063438125 -0.08323599
000110 c0 d2 bd 3d 0f 74 c7 3d 6d 7a b1 bd fc b0 d9 3d
       0.09268713 0.09738933 -0.08665929 0.1062946
000120 89 84 0c 3c 62 24 a5 3d 0e e7 ab bd 1c b3 07 bb
       0.008576521 0.0806358 -0.083936796 -0.0020706123
000130 56 bb 6a bd f0 bd c0 bd 09 7e 97 3d e5 10 b5 bd
       -0.057307564 -0.09411228 0.07397086 -0.08841113
000140 e6 da f3 bc 08 22 14 3d 35 5e 03 3d 18 af 22 3d
       -0.029767465 0.036165267 0.032072265 0.039717764
000150 36 46 a2 3d b2 ea 78 bd bb be 9d 3c 65 0b b2 3c
       0.07923548 -0.060770698 0.019255986 0.021733949
000160 73 23 90 bd aa 8a 8c bc cd 96 7f 3d fb ec 30 3c
       -0.070380114 -0.017155964 0.062399674 0.010798688
000170 f0 78 04 bd 4e 9e c5 bd 82 1f 8a bc fb 0e 1a 3d
       -0.032341897 -0.09649335 -0.016860727 0.037611943
000180 8c 04 b2 3b 8d 48 7f bd 0e fd a8 bd cf a5 10 bd
       0.005432671 -0.06232505 -0.08251391 -0.035314377
000190 0b 08 07 3d 4c 4a 96 bc 04 f7 80 3d 2f b2 32 3d
       0.032966655 -0.018345974 0.062971145 0.04362696
0001a0 b9 43 00 3c 00 4c 38 3d 6a 7c b4 bd 7d 2b bf bc
       0.007828646 0.044994354 -0.088127926 -0.023336167
0001b0 90 a7 80 3d 9c 6a 26 bb ea 21 96 3d 2d 22 af 3d
       0.0628196 -0.0025393134 0.07330687 0.085514404
0001c0 c0 ff 10 bd b4 80 3f 3d 7b 1c dd bc b5 0f ce bd
       -0.035400152 0.0467536 -0.02699112 -0.1006159
0001d0 0e fd 01 3d 6e e2 cb 3d 7d 9c 91 bc 3e 14 dc bd
       0.031735472 0.099552974 -0.017774815 -0.107460484
0001e0 ea 2e 70 bd 64 d4 46 bd be 94 89 bc 04 5d b2 3d
       -0.05863849 -0.048542395 -0.016794559 0.087091476
0001f0 42 da 83 3d 4c e5 86 bd 60 e4 08 3d 36 fd d2 3c
       0.06438114 -0.06586704 0.03342092 0.025755506
000200 ba 39 ca 3d 97 22 8d bd 35 f6 e8 bc 7e 5e 3e 3d
       0.09874292 -0.06891363 -0.028437713 0.046476834
000210 85 c9 cc bd d9 e8 99 bd b6 c9 40 3d 49 92 96 bd
       -0.09999374 -0.07515115 0.047067367 -0.073521204
000220 ba e5 65 bd 08 ea 8f 3b 03 fa 9d 3d f0 9c d4 3b
       -0.056127287 0.0043919124 0.077137016 0.006488435
000230 e1 84 8f bd b1 79 81 bd bd 8f d8 bd 6c dc 2f bd
       -0.070077665 -0.06322039 -0.10574291 -0.04293482
000240 f5 80 b3 bd 31 1a 40 bc 0a ef e0 bc eb 0d 8f bd
       -0.08764831 -0.0117249945 -0.027457733 -0.069850765
000250 47 7e 5b bc 96 aa 83 bd 33 dd b9 bb 79 79 b4 bc
       -0.013396806 -0.06429021 -0.005672121 -0.022030579
000260 f8 d9 84 bd b7 10 7a bc b0 b7 3a 3c e9 c0 d2 3a
       -0.06486887 -0.015262774 0.011396334 0.001607922
000270 b7 d9 12 3c e3 48 1f bd 70 f4 07 3d 50 f4 fd bc
       0.00896304 -0.03888787 0.0331921 -0.031000286
000280 56 8e 5c bd 2f 07 ab bb 74 9c b3 3d ff f9 94 bc
       -0.05384668 -0.005219362 0.087700754 -0.018185614
000290 18 0f a4 bd 2f 9a 86 3b 08 e5 a8 3d 49 7d b1 3a
       -0.080106914 0.0041077356 0.08246809 0.0013541366
0002a0 af 72 96 bd 08 ea f2 3b 7e 65 9a 3c 26 d3 40 bd
       -0.07346093 0.0074131526 0.018847223 -0.047076367
0002b0 ef c1 07 bd 79 5b 09 b6 57 29 57 3b f5 97 b9 3c
       -0.033143934 -2.0467835e-06 0.0032831037 0.022655467
0002c0 7c 0f ce bd 71 95 af 3d 50 b3 b9 3c 0d aa 54 3d
       -0.10061547 0.085734256 0.02266851 0.051919986
0002d0 ad ad c5 3d 4c f9 b3 ba 1c ce 3b bb 89 7f 94 bd
       0.09652267 -0.0013730912 -0.0028656786 -0.07250888
0002e0 14 ee 50 3c ae c0 c5 bd 4e 70 c7 3d 0c 25 69 3d
       0.012752075 -0.09655891 0.09738217 0.056920096
0002f0 b9 8f 5f bd 12 55 42 bd 09 f2 85 bd 30 70 cb bd
       -0.054580424 -0.04744441 -0.06540305 -0.099335074
000300 89 db 76 bd bf d6 85 bd 5e 4e b7 bd 98 03 c8 bd
       -0.06026796 -0.065351 -0.08950494 -0.097663105
000310 f4 b6 33 3d 3d 48 51 bd 57 52 b5 bd 7c c8 d1 bd
       0.04387565 -0.051094282 -0.08853596 -0.102433175
000320 9c bd 9b 3d 6a a8 da 3c b2 cf d2 3d 84 81 58 3c
       0.076045245 0.026691634 0.10293521 0.013214473
000330 3a 50 22 bd b4 c2 87 bd e5 c7 b6 bd 1b 9b ab 3d
       -0.03962729 -0.066289335 -0.089248456 0.083791934
000340 6b 05 9a bd 90 d5 6a 3d b6 88 c8 bd 94 d8 d6 3c
       -0.07520565 0.057332575 -0.097917005 0.02622632
000350 94 69 40 bc 97 13 26 bb 81 71 8a bd b0 3e 65 bd
       -0.011743922 -0.0025341266 -0.067599304 -0.055967987
000360 c2 5b 45 3d 4d 2e 6e 3d 9c c0 1a bd 44 46 b2 bd
       0.04818321 0.058149625 -0.037781343 -0.08704808
000370 d9 53 2e bd 0f fa db 3d c5 1b 9c bc 97 9b cd bd
       -0.042560432 0.10741054 -0.01905621 -0.10039442
000380 65 bd d1 3d 19 2e 3a 3d 40 07 12 bd 16 07 25 3d
       0.10241202 0.04545412 -0.035651445 0.04028996
000390 18 77 30 3d de e0 44 bd fb 3b fd 3c c5 53 5e bd
       0.043082327 -0.048066013 0.03091239 -0.054279108
0003a0 12 c3 1f 3d 46 5f c0 bd dc 96 ce bc b3 73 49 3d
       0.039004393 -0.09393172 -0.02521842 0.049182605
0003b0 ee d9 0b 3d 72 f9 20 3d 64 68 ea bc 5b fa c7 3d
       0.03414338 0.03930039 -0.02861423 0.097645484
0003c0 0c 18 a9 bd 38 ac ba 3d 48 29 31 3d c6 f5 75 bd
       -0.0825654 0.09114879 0.04325226 -0.06004884
0003d0 62 12 b5 bb a4 1c 68 bd e8 b4 a9 3d 1b 5d 94 bd
       -0.005525873 -0.05666794 0.08286458 -0.07244321
0003e0 d3 32 a7 3d e9 ec 14 3d 43 50 93 3d c4 e7 92 3d
       0.08163991 0.036358748 0.07193043 0.07173112
0003f0 ba 6b 97 bd 9f 3d bc 3d 5c e6 cb bd a6 d9 e4 3c
       -0.07393594 0.09191441 -0.09956047 0.027935814

model.lstm.bias_ih_l0 f4 [128]
000000 27 1b dd 3e 02 4b 4b 3e 6f 4f b3 3e e4 e8 ee be
       0.43184778 0.19852832 0.3502154 -0.46662056
000010 bd 61 dd 3e 93 a7 40 3e 02 3a ba be b5 74 e9 be
       0.4323863 0.18813924 -0.3637238 -0.45596853
000020 cf 07 90 3e ef 03 34 3f fe 71 a0 be cb 6f d5 be
       0.28130957 0.703185 -0.3133697 -0.41686854
000030 7d 03 db 3e a4 ac bc 3e 1d 87 89 be b4 cc da 3f
       0.427761 0.36850464 -0.26860896 1.709372
000040 83 e5 85 3b 1f c8 9f 3e 65 e4 b5 be 3b bf db be
       0.004086198 0.31207368 -0.35525814 -0.42919335
000050 dd 69 03 3f e5 3e b4 bd f0 37 c1 3e d1 f4 91 bd
       0.5133341 -0.08801059 0.3773799 -0.07126773
000060 af 61 f3 3e cf f4 fb bc 97 2f 85 3d c5 f7 b1 bd
       0.47535464 -0.030756382 0.06503218 -0.086898364
000070 9b 90 30 3e 90 9f 66 3e b5 6e c9 3e da fd 8f 3e
       0.17242663 0.22521806 0.39342275 0.2812336
000080 79 f5 ce bc 32 43 c8 3d b3 6d 82 bd 11 fe a4 3d
       -0.025263535 0.097784415 -0.0636858 0.08056272
000090 f0 c9 dd bd 65 9c d1 bd 0b fe 8e 3d 4a c9 88 3d
       -0.10829532 -0.10234908 0.069820486 0.06679018
0000a0 e1 84 b7 3c 85 a1 00 bd 48 5e b1 bc 8f 3a c5 bd
       0.022402229 -0.031404037 -0.021651402 -0.0963031
0000b0 20 57 35 bd cc d5 f7 3c 90 be a8 bd bd 89 92 3d
       -0.044272542 0.030253313 -0.08239472 0.07155178
0000c0 bd 52 6e 3c 5e ba 3a bd ac 65 8a 3d df 4e b2 bd
       0.0145460935 -0.04558789 0.067576736 -0.0870645
0000d0 ad 21 da bd cb 63 83 3d 2f e6 b8 bd 5a fb b0 3d
       -0.106509544 0.064155184 -0.09028279 0.086416915
0000e0 d3 e0 9f bd b4 12 1e 3c d1 ec e4 bb 36 a3 21 bd
       -0.07806554 0.009648014 -0.0069862385 -0.03946229
0000f0 b5 21 1a 3c b7 be 17 3a c8 19 cc bd 6f 5f 8c bb
       0.00940745 0.00057886116 -0.09965855 -0.0042838375
000100 d7 b7 ae 3f a5 49 a2 bf 31 42 cc 3e 6f fa bd 3e
       1.3649853 -1.2678725 0.3989425 0.37105128
000110 08 6b 9e 3d 00 e7 e3 bf 63 bc 84 3e 9b 61 33 bc
       0.07735258 -1.7804871 0.25924978 -0.010948564
000120 de 9b f5 3e 94 ad e8 3e ab 44 6e 3d 18 c1 dc bd
       0.4797048 0.4544493 0.058170956 -0.10779017
000130 2a 3c 6f bd d9 c9 d6 be e4 ab d5 3d a8 6a ec be
       -0.058406986 -0.41950873 0.10433176 -0.46175122
000140 b0 97 b0 3d 92 87 89 3e 63 1d 0d bd 8a ab 69 3d
       0.08622682 0.26861244 -0.034451853 0.057048358
000150 b3 b0 92 3d 75 0e 0a bd ad d5 7f 3c 9b 7e 98 be
       0.07162609 -0.033705194 0.015614909 -0.29784092
000160 3e 9f 36 bd b8 78 7f 3b 3c 2f 8b bd ff 77 b0 bd
       -0.04458546 0.0038981866 -0.067961186 -0.086166374
000170 9d 8d 40 bf e5 78 b7 bf 8f 32 bc bd 13 28 ac bd
       -0.75216085 -1.4333769 -0.09189331 -0.08406081
000180 86 95 f4 3e 52 05 03 3f 73 0b 8b 3e bc ed e7 be
       0.47770327 0.51179993 0.27157173 -0.45298564
000190 89 ad 90 3d 9f be c1 3e 5a d8 a9 be e3 63 c8 be
       0.07064349 0.37840745 -0.33172876 -0.39138708
0001a0 81 bb 95 3e 72 e6 d5 3e 2b d5 51 3d 3b c1 a2 be
       0.29244617 0.41777378 0.051228683 -0.31788048
0001b0 55 d1 b5 3e 61 df 8c 3e 33 ad 9b be 55 4d e5 3f
       0.3551127 0.27514175 -0.30405578 1.7914225
0001c0 ba 20 d3 3e f3 23 dd 3e a4 44 47 bd 4c 2b c4 be
       0.41235906 0.4319149 -0.048649445 -0.38314283
0001d0 09 95 a0 3e a1 24 cf 3d 8e 8a 9d 3e 19 6c 9e be
       0.31363705 0.10114408 0.3076977 -0.30941847
0001e0 73 a2 e4 3e 73 24 df bd da 0e cc be 39 2c d6 bb
       0.4465519 -0.10895624 -0.3985508 -0.0065360335
0001f0 fb 15 b2 3e b9 2a a3 3e 19 a0 8e 3e 3b 72 9b 3e
       0.34782395 0.31868532 0.2785652 0.30360588

model.lstm.bias_hh_l0 f4 [128]
000000 ff 75 97 3e 2d 81 53 3e 21 1d ab 3e 73 ac e2 be
       0.2958221 0.20654745 0.3342066 -0.44272193
000010 61 6a d4 3e 05 af 9c 3e c9 38 f2 be 2a 66 f0 be
       0.4148741 0.3060228 -0.4730895 -0.46952945
000020 43 74 c5 3e 61 d0 12 3f d1 b9 e7 be 7b 7a e4 be
       0.38565263 0.5734921 -0.45258954 -0.44624695
000030 8a fc c0 3e d3 49 a9 3e a6 7c a8 be 84 2d dc 3f
       0.37692672 0.33064136 -0.329076 1.720139
000040 99 fa 88 3d ab ba c3 3e d1 96 d4 be 0b b3 8c be
       0.06688423 0.38228354 -0.41521314 -0.2748035
000050 ed e4 d7 3e d3 fd 08 be 0e 07 92 3e b5 fb 8c bb
       0.42166844 -0.13378076 0.28521007 -0.0043024668
000060 e0 13 08 3f 39 8b ef bb 3d 5b 73 bd 43 d2 02 3d
       0.53155327 -0.007310298 -0.059413183 0.031938802
000070 ef 0e a1 3e 7b ae cc 3e 6f 46 d6 3e d0 b8 c7 3e
       0.31456706 0.39976868 0.41850612 0.39008188
000080 cb fd 53 bc 16 e2 1f bb 04 c7 83 3d 0b 21 21 3d
       -0.012938927 -0.0024396232 0.064344436 0.039338153
000090 0b 47 05 3b b5 f9 42 bd a2 f7 f7 3c 93 03 92 3d
       0.0020336534 -0.04760142 0.030269448 0.07129588
0000a0 4a 81 62 3d 6a e8 da bd f8 9e d8 3d e8 a5 d4 bd
       0.05529908 -0.10688861 0.10577196 -0.103832066
0000b0 73 df d4 bd 3b 67 e8 bc 81 4d a7 3d 67 30 80 3d
       -0.10394182 -0.028369537 0.081690796 0.06259232
0000c0 30 d0 a5 bd 25 a0 7a bd 19 f2 39 bd 86 f6 2a bd
       -0.08096349 -0.061187882 -0.045396898 -0.04173901
0000d0 1b ce cb 3d 87 d5 bd bd 7d 26 87 3d 40 3d 1b 3d
       0.09951421 -0.09269243 0.06599138 0.03790021
0000e0 b0 cb 19 bd 22 18 89 3d 75 bd 93 3d ca 87 e2 3c
       -0.037547767 0.06694056 0.072138704 0.02765264
0000f0 ed 36 ce bd 23 47 c3 bd d9 40 08 3c 42 8f a1 3d
       -0.1006907 -0.095350526 0.008316242 0.078886524
000100 90 46 a5 3f ad fa 9c bf 54 13 cc 3e 02 34 81 3e
       1.2912159 -1.2264 0.39858496 0.2523499
000110 25 0c d8 3b c7 e0 d6 bf e1 25 e1 3e 1d 18 c8 3d
       0.0065932446 -1.6787347 0.43974212 0.09770224
000120 ee 8c a5 3e 47 9e e3 3e e4 2d b2 bb 3e bb 94 3c
       0.32334083 0.44456694 -0.0054375995 0.01815569
000130 51 14 03 3d 7f 2d b6 be 7f 10 8f 3c 14 8c 22 bf
       0.032001797 -0.35581586 0.01746392 -0.6349499
000140 af 74 da bd ac 15 ea 3e e8 3f 87 bd b0 c1 c5 3c
       -0.10666787 0.4571966 -0.06603986 0.024140209
000150 78 cf af 3d 94 70 82 3c 06 a4 a0 3c 20 9f f5 be
       0.085844934 0.015922822 0.019609462 -0.47972965
000160 af 28 7b bd f0 52 f9 bc 4c c5 ea b9 d4 d3 b6 bc
       -0.061318096 -0.030435055 -0.00044778956 -0.022317804
000170 37 13 1c bf b7 7f b5 bf c4 e3 02 be c7 56 b3 bd
       -0.6096682 -1.41796 -0.12782198 -0.08756786
000180 4e be b3 3e d1 c6 a0 3e d4 1d cf 3e ed d7 cb be
       0.35106128 0.31401685 0.40452445 -0.39813176
000190 b0 55 ca 3d 69 61 69 3e 67 a6 f3 be d8 a1 ae be
       0.09879625 0.22791065 -0.47587892 -0.34107852
0001a0 e4 b3 c1 3e d6 95 da 3e bc 05 8e 3d 18 0e df be
       0.37832558 0.4269244 0.069346875 -0.4356544
0001b0 55 0e ac 3e 48 bc c2 3e ac b3 e1 be 4b df e7 3f
       0.33604684 0.38034272 -0.4408239 1.8115019
0001c0 ea d1 f6 3e ad fe a0 3e 79 d1 59 bd 8b 6b d9 be
       0.48207027 0.31444302 -0.053178284 -0.4246486
0001d0 57 dc b7 3e 8b cd 6c bd 34 af 8b 3e 16 48 a4 be
       0.35910293 -0.05781321 0.27282107 -0.32086247
0001e0 4e 0e 95 3e 77 ab 3c bd 01 68 d4 be 8a b8 d9 3d
       0.29112476 -0.04606196 -0.414856 0.10630901
0001f0 22 c8 b4 3e 12 49 bd 3e 56 e5 6f 3e 66 fa 8c 3e
       0.3530894 0.3696981 0.23427328 0.2753479

model.lstm.weight_ih_l1 f4 [128, 32]
000000 f9 10 d1 be 51 20 a4 bd 95 fa 69 3f 6b 00 cf be
       -0.40833262 -0.08013976 0.9139798 -0.40430006
000010 cb 46 bf bf 56 f9 14 3f d9 93 ee be 6f b6 d6 be
       -1.4943479 0.58192956 -0.46597174 -0.4193606
000020 fc 52 82 3f b0 32 89 3f b7 e6 c1 be fe 45 e2 be
       1.0181575 1.0718594 -0.37871334 -0.44194025
000030 20 d0 87 bf fa 09 7c bf fa 22 a5 3e 46 e2 ea bf
       -1.061039 -0.98452723 0.32253247 -1.8350303
000040 35 b9 76 3f b6 c4 5f 3f 57 43 a0 3e ed 6e 8f be
       0.96376354 0.8740953 0.31301376 -0.28014317
000050 bb cb 4e bf d1 78 ae 3d 10 27 6f bf 7a 95 9a 3e
       -0.8077962 0.08519138 -0.9341898 0.30192167
000060 d5 ff 79 3f 41 aa b0 bc e2 30 a2 3e 95 b0 29 3d
       0.97655994 -0.021565558 0.3167792 0.041428167
000070 2c 44 25 3e f3 e6 46 3d b8 aa 02 c0 7c 63 62 bf
       0.16139287 0.048560094 -2.0416698 -0.8843305
000080 7a 1a d0 be be 56 68 3e 01 b5 83 3f 19 8c 90 3e
       -0.406452 0.2268934 1.0289613 0.28231886
000090 6e 9a 7e bf 49 76 f1 3e 52 ae 8f 3e a3 81 98 3e
       -0.9945439 0.47160557 0.28062683 0.29786405
0000a0 e6 5e a0 3f 04 39 a3 3f fc b6 d8 3e af b6 b7 3e
       1.2528961 1.2751775 0.42327106 0.35881564
0000b0 93 67 a1 bf bc 83 81 bf 06 c3 8e be a4 ff e0 3f
       -1.2609733 -1.0118327 -0.27883166 1.7578015
0000c0 da df 9f 3f ca 60 8a 3f b2 3b bf be a8 2d 89 3e
       1.2490189 1.0810788 -0.3735023 0.26792645
0000d0 56 99 89 bf 30 bb 87 bd 54 0b 88 bf 67 25 c6 be
       -1.074992 -0.066275 -1.0628457 -0.3870041
0000e0 0e 9f 97 3f 17 8b 13 3e b7 65 eb be 67 b1 df bd
       1.1845415 0.14408527 -0.4597604 -0.10922509
0000f0 eb 80 96 3e f3 9c 4d 3e ce e4 9c bf 0c ec 54 bf
       0.29395232 0.20079403 -1.2257326 -0.8317268
000100 ab c6 d8 be 2e 3b 21 bd 15 0c 80 3f fd 59 d6 be
       -0.42339072 -0.03936308 1.0003687 -0.4186553
000110 58 65 ba bf de 50 13 3f 33 6f b2 be 73 fd 4b bd
       -1.4562178 0.5754527 -0.34850463 -0.049802255
000120 2a b9 89 3f f4 3d 96 3f 68 7a c8 bd 27 09 fc bc
       1.0759633 1.1737657 -0.09788972 -0.030766083
000130 15 0d 85 bf b4 6f 83 bf 16 29 b3 3e d9 9f e4 bf
       -1.0394617 -1.0268464 0.34992284 -1.7861282
000140 72 d3 83 3f 37 e0 66 3f 88 2c 99 3d 90 6e b5 be
       1.0298903 0.90185875 0.07479197 -0.35435915
000150 cf 7c 71 bf 70 5a 5a 3d 0b 79 74 bf 11 7a df 3e
       -0.9433107 0.053308904 -0.95497197 0.43647817
000160 af ba 71 3f 88 f9 d8 3d b0 bd 9b 3d 6e 04 82 bd
       0.9442548 0.10594469 0.076045394 -0.06348501
000170 1e 35 15 3e da d6 80 3d 3a 63 f0 bf 6c 16 55 bf
       0.14571044 0.0629098 -1.8780282 -0.8323734
000180 27 2f d2 be 8f c9 1a be ce 67 7f 3f 88 e6 f1 be
       -0.410516 -0.15115951 0.9976777 -0.47246194
000190 2c 5e c4 bf 35 63 10 3f d4 95 e4 be cf 14 2d be
       -1.5341239 0.5640138 -0.4464556 -0.16902469
0001a0 1b cf 90 3f 9b 34 9c 3f 71 3f 87 be 03 59 f4 bd
       1.1313204 1.2203554 -0.2641559 -0.1193104
0001b0 04 09 a4 bf 6b af 81 bf 1a 05 99 3e 01 4b d8 bf
       -1.2815251 -1.0131658 0.29886705 -1.6897889
0001c0 29 b1 96 3f 84 f5 6a 3f 1f e3 38 3e 87 a7 b9 be
       1.1772815 0.9178088 0.1805539 -0.36260626
0001d0 82 1a 80 bf 69 90 7d bd 2b 8c 68 bf 53 5e ce 3e
       -1.000809 -0.0619053 -0.9083888 0.4030634
0001e0 eb f8 97 3f a6 9d 83 bc 1c 2c 83 3e 4e 2b b3 bd
       1.1872839 -0.016066384 0.2561959 -0.08748494
0001f0 b8 58 a6 3d db 48 80 be 83 de 13 c0 f5 0c 67 bf
       0.081223905 -0.25055584 -2.310456 -0.90254146
000200 9c 99 02 bf 45 73 58 bd ff b3 78 3f e4 18 eb be
       -0.5101564 -0.052844305 0.9714965 -0.45917428
000210 ea 39 ed bf 71 8f 01 3f e9 f5 d1 be 13 32 82 be
       -1.8533299 0.506095 -0.41007927 -0.2542883
000220 f6 51 9c 3f 03 a4 98 3f 44 3c c8 be 1e ce b4 bd
       1.2212512 1.1925052 -0.3910848 -0.08828376
000230 8d 21 86 bf 86 73 6d bf d1 bf e7 3e e5 a9 e7 bf
       -1.0478989 -0.927544 0.45263532 -1.8098723
000240 1e 6d 8a 3f 8b 5d 66 3f 55 97 3b 3e bf 10 ec be
       1.081455 0.89986485 0.18319447 -0.46106526
000250 64 c5 81 bf b5 91 c4 bd f7 e8 6c bf 95 82 ef 3e
       -1.0138364 -0.09598104 -0.92542976 0.46779314
000260 f4 f9 81 3f 8d 19 30 bd b0 c7 de 3e 60 0c 2c bc
       1.0154405 -0.042993117 0.43511724 -0.010500997
000270 5e 8c 02 3e 32 b1 3a be 90 53 17 c0 6e 28 6e bf
       0.12748858 -0.18231657 -2.3644753 -0.9303044
000280 72 ee 1a 3f 87 82 63 3e e2 3b 1b bf 6d 79 a1 3e
       0.6052009 0.22217761 -0.6063825 0.31537953
000290 a2 31 aa 3e 75 72 1c bf 4e 2d 8b 3e 35 66 6b 3e
       0.33240992 -0.6111215 0.27183002 0.22988208
0002a0 8f 95 14 bf 09 52 00 bf 91 bd c7 3e bb 4c 16 3e
       -0.5804071 -0.50125176 0.39011815 0.14677708
0002b0 f7 3d 87 3f 2f 1e fa 3e fa c1 bb be 82 3a c1 3f
       1.0565785 0.48851153 -0.3667143 1.509598
0002c0 a9 e2 17 bf b4 82 fd be f3 19 46 be 3b a9 bc 3e
       -0.5933023 -0.4951378 -0.19345836 0.36847863
0002d0 69 01 d0 3e 29 56 d2 bd 27 1d da 3e ff 95 d1 be
       0.40626076 -0.1027034 0.42600366 -0.4093475
0002e0 3b af da be 82 04 bc 3d d8 f7 87 be ec 66 00 3d
       -0.42711815 0.09180547 -0.26556277 0.031348154
0002f0 95 06 8e be 9d d2 90 3e 92 01 88 3f 7e dd 2d 3f
       -0.27739397 0.28285685 1.0625479 0.67916095
000300 4f fd 0b bf d3 58 8f 3c fa 59 86 3f 78 af d6 be
       -0.54683393 0.01749841 1.0496209 -0.41930747
000310 bc b6 c9 bf 3a a6 e7 3e 94 b8 a9 be c9 fb 52 be
       -1.5758891 0.45244008 -0.33148634 -0.20603861
000320 46 5f 9c 3f 5c 17 a4 3f 71 30 c0 be f2 dd 5c be
       1.2216575 1.2819629 -0.37536958 -0.2156904
000330 bb 03 8e bf ee 83 8a bf df 0d d6 3e 3e 4c e4 bf
       -1.1094888 -1.0821512 0.41807458 -1.7835767
000340 91 b9 87 3f 0f 2f 62 3f 71 1a b2 3d 98 fd e6 be
       1.0603505 0.88353056 0.086964495 -0.45115352
000350 87 cf 80 bf ef ea b2 3d cc 6b 78 bf e4 12 d8 3e
       -1.0063332 0.08736216 -0.97039485 0.42201912
000360 a5 44 9d 3f 49 d6 bf bd 5a 86 cf 3e d1 a3 dc bd
       1.2286574 -0.093670435 0.4053219 -0.10773433
000370 d8 0a 34 3e b9 89 83 be 02 f9 1d c0 b0 a2 7c bf
       0.17582262 -0.25691012 -2.4683232 -0.9868574
000380 27 f0 07 bf 0f 80 67 bd fe aa 81 3f 43 b9 8f be
       -0.5310082 -0.05651861 1.0130308 -0.2807103
000390 5d a0 d3 bf 8a 36 16 3f 80 f0 b1 be 44 e0 c3 be
       -1.6533314 0.5867697 -0.347538 -0.3825704
0003a0 f9 c6 9e 3f d2 10 8a 3f 71 32 f3 be 85 38 ca be
       1.2404472 1.0786383 -0.4749942 -0.39496246
0003b0 c6 07 93 bf f5 f9 66 bf a1 dc d5 3e 30 09 e4 bf
       -1.1486747 -0.90225154 0.4176989 -1.7815304
0003c0 37 3a 65 3f f3 52 58 3f 0f c3 58 3e 78 71 ec be
       0.89541954 0.8450157 0.21168159 -0.4618032
0003d0 ad 07 83 bf ab 17 e4 bc 3d ef 66 bf 80 b4 c3 3e
       -1.0236717 -0.027843317 -0.902088 0.38223648
0003e0 b7 fa 7c 3f e9 22 f7 bb 32 ed bd 3e b8 a1 a4 3c
       0.9882006 -0.0075420034 0.37095028 0.020096645
0003f0 34 78 b5 3d 86 66 38 be 4f bc 0d c0 13 2a 57 bf
       0.088608176 -0.1800786 -2.2146184 -0.84048575

model.lstm.weight_hh_l1 f4 [128, 32]
000000 e3 18 d6 3d 75 c9 37 3b 02 b3 63 3d 28 ff da 3d
       0.104539655 0.0028043662 0.055590637 0.106931984
000010 db 45 cd bc 59 ae a3 3d 47 13 56 3d c7 5a ca 3d
       -0.025057724 0.079922386 0.052264478 0.09880596
000020 9d ef 82 bd 14 59 73 bd df c7 54 bd a2 17 26 3d
       -0.06393359 -0.059411123 -0.051948424 0.04054988
000030 98 04 f0 bc fb fd ea bc 3b 70 3f bd 74 73 42 3d
       -0.029299065 -0.02868556 -0.04673789 0.047473386
000040 70 ea b2 3d 43 af 88 bd a3 8a cf bd 25 f1 3d bc
       0.08736122 -0.066740535 -0.10133865 -0.011593138
000050 95 2f 9f bc 8c f1 97 3d f0 7c b9 3d cb 9c 2f 3d
       -0.019431869 0.07419118 0.09057033 0.04287414
000060 cd 33 14 3d 7f dc 00 3d 0a 42 86 bc 68 20 93 3d
       0.036182214 0.03146028 -0.016388912 0.071839154
000070 10 38 de bd 4e aa 87 bc bf 8d ac 3d 4e 52 d8 3d
       -0.10850537 -0.0165607 0.084254734 0.105625734
000080 28 5d 5a bc f8 1f 4e bd 1d 99 0e bd 5a 1f b8 bd
       -0.013327874 -0.050323457 -0.03481399 -0.08990355
000090 4d 74 9a 3b df 03 5c bb 9f db 99 3c 47 a8 d4 bd
       0.004713571 -0.0033571643 0.018781481 -0.10383659
0000a0 aa c2 a4 3d d2 bd 76 bd ff 9a ba ba bb 25 5e bd
       0.08044942 -0.06023962 -0.0014236866 -0.0542352
0000b0 9e 00 af 3d 03 47 0d bd 87 b9 42 bd 54 a7 79 bd
       0.085450396 -0.03449155 -0.047540214 -0.060950592
0000c0 3d a3 c6 3d 2b 8d ab bd f5 fa 00 bd 0c 8e 2e 3d
       0.09699104 -0.08376535 -0.03148933 0.042615935
0000d0 07 3c a5 3d 86 9f 98 bc 6e 96 de bd 58 ab 83 bd
       0.0806809 -0.018630754 -0.10868536 -0.064291656
0000e0 2d a5 ae 3d 61 a3 1f 3c 6e 0b 45 3d 4e d4 95 bd
       0.085275985 0.009743542 0.048106603 -0.073158845
0000f0 63 be cf bd 89 b8 a5 3d 85 a9 b8 3d 47 3e 4d bd
       -0.10143735 0.08091838 0.09016708 -0.05010822
000100 d5 c6 2c bd ae bc bf 3d 65 16 0f bd 31 15 8f bd
       -0.04218181 0.0936216 -0.034933466 -0.06986464
000110 8b 40 3d bd fd 8a d5 3d 89 b9 8b bd a5 fc 7b 3d
       -0.04620413 0.104269005 -0.068224974 0.061520237
000120 ca 80 8c 3d be 10 2e 3d 7e 90 83 3d 0c d8 31 3d
       0.06860502 0.042496435 0.06424044 0.04341893
000130 28 ef d7 bd 25 ce 02 3d 85 60 df bd 3f 03 d7 bd
       -0.10543662 0.031934876 -0.109070815 -0.10498666
000140 60 30 1b bd e5 48 9a 3d 51 6b 1a bd b9 a7 b0 bd
       -0.03788793 0.07533435 -0.0377 -0.086257406
000150 51 72 00 bd e8 f9 93 3d 12 90 e0 3b e6 bd 91 3d
       -0.03135902 0.072254 0.006853112 0.071162984
000160 fc bf 90 3c c3 c3 d9 39 f0 4d e2 bc a1 55 04 bd
       0.01766967 0.0004153532 -0.027625054 -0.032308225
000170 c2 d8 e4 3b 9f 17 2b 3c 66 24 5e bc 16 c0 ac bd
       0.0069838474 0.010442643 -0.013558483 -0.08435075
000180 d6 4b 6b bd c8 f1 8c bd 5b 3b 1b 3c 1f 08 ae bc
       -0.05744537 -0.068820536 0.009474601 -0.021244107
000190 d7 e4 6f bd ce 72 9c 3d 0a 74 4d bd 54 40 99 3c
       -0.058567848 0.07639085 -0.05015949 0.018707432
0001a0 6b 15 e6 bc da fa c1 3d d7 f9 c8 3d 21 b8 84 3b
       -0.028086385 0.09471674 0.09813278 0.00405027
0001b0 dd 82 66 3d 08 82 be 3d fb d2 ae bd 9b 85 5b 3d
       0.056277145 0.09302145 -0.08536335 0.053594213
0001c0 23 d9 54 bd 2d 54 d8 bd 62 cd 85 3d 3d 4e c0 bd
       -0.05196489 -0.1056293 0.06533314 -0.09389923
0001d0 be 6d 94 3b 62 39 9e bd f9 91 a3 3d b4 96 cc 3d
       0.004529684 -0.07725789 0.079868264 0.09989682
0001e0 0e 70 58 bc 8e 35 84 bd d3 e8 f4 bb 0d 5c dc 3c
       -0.01321031 -0.06455527 -0.007474044 0.026899362
0001f0 b8 22 c3 bd 6a b8 3f 3d a8 48 47 bc b4 3a 8c bd
       -0.095281065 0.04680673 -0.012163319 -0.06847134
000200 84 ec 80 bd c5 bf ec 3c 22 ea b8 bd db 9b 47 bd
       -0.06295112 0.028900037 -0.09029032 -0.04873262
000210 e5 1f 0e bd b5 0b fb bc 25 73 bb 3d 3c 9a 90 bd
       -0.034698386 -0.03064523 0.091528215 -0.07060668
000220 b3 24 b8 3d b1 40 4a 3d 1b 15 80 bd 9e 7f 15 bd
       0.08991375 0.0493781 -0.062540255 -0.03649866
000230 bf 9e 6f bd af 1f 86 bd 6c 0c 6d bd b4 13 fc bc
       -0.058501 -0.06549012 -0.057873175 -0.030771114
000240 82 06 6f 3d 50 0e 53 bd 47 36 93 3c ac f0 06 bd
       0.058355816 -0.05152732 0.017970217 -0.032944366
000250 58 d9 84 bd e7 76 68 3d fa 0b a5 3d 7b 6a aa 3d
       -0.064867675 0.05675402 0.08058925 0.08321091
000260 df 17 28 3d 62 cc fa 3b fe d0 dd bd a7 b1 e1 3c
       0.04103839 0.007653759 -0.10830878 0.027550532
000270 48 dc b5 3d 07 e6 db bd 6c 0d 9f bd fe cf 8b 3d
       0.08879906 -0.107372336 -0.07766232 0.06826781
000280 42 c2 2f 3c 71 4e 1b bd 8c 6e f9 3c 3a 64 cc bd
       0.010727467 -0.037916604 0.03044822 -0.09980054
000290 cc d6 c5 3d dd 44 da ba 94 3b b1 3d 37 22 91 3d
       0.0966011 -0.0016652603 0.08653942 0.07086604
0002a0 55 9d d7 bd 1f d6 df 3d 07 46 86 bd c6 d4 21 3c
       -0.105280556 0.10929512 -0.065563254 0.009877389
0002b0 b6 a8 5c bd 2f e9 38 bd 34 f0 b7 bd 62 22 39 bd
       -0.053871833 -0.045144256 -0.08981362 -0.045198806
0002c0 e6 63 a0 3b f9 3e 91 bc 47 15 b3 3d d8 db ba bd
       0.0048947213 -0.017730223 0.08744293 -0.09123963
0002d0 dc 21 a2 3d 3f 94 eb bc f6 3f 9d 3d 71 12 99 bd
       0.079166144 -0.028757213 0.07678215 -0.074742205
0002e0 e4 94 23 3d 43 59 9b bd fb 70 a2 3c 24 a9 01 bd
       0.039936915 -0.07585385 0.019829264 -0.031655446
0002f0 62 a3 b3 bd 96 07 97 bd 30 e0 87 3d 9c 36 19 3d
       -0.08771397 -0.07374494 0.06634557 0.037405595
000300 c9 db 90 3d 81 e3 9e 3d d9 2d 84 3d 93 8b 9d bd
       0.07073171 0.07758237 0.06454057 -0.07692637
000310 f5 fa cd 3d 28 d3 1a bd 07 9f ed bc 9d 09 49 3d
       0.10057632 -0.03779903 -0.029006494 0.049081434
000320 cf be 97 bd 47 d0 52 ba 0b 18 2f 3d f4 56 85 3d
       -0.07409441 -0.00080419 0.04274754 0.065107256
000330 35 5e 1d 3d fa 27 da bd 90 63 b7 3d 7e cd 33 bd
       0.03841992 -0.10652156 0.08954537 -0.043897144
000340 15 18 6c bd a7 24 dd 3d be ee d7 bd 44 5c d6 3d
       -0.057640154 0.107980065 -0.10543583 0.10466817
000350 51 3a c4 b9 17 1a 09 3d f7 a7 65 3c df 2c ae bb
       -0.00037427482 0.033472147 0.014017097 -0.0053154076
000360 45 71 2d bc 55 d8 67 3c 61 2b a0 3c af 43 dc 3c
       -0.010586088 0.014150699 0.019551935 0.026887743
000370 25 b6 98 3d ff 2a 97 bc db 72 67 3a f6 16 d8 bd
       0.07456616 -0.01845312 0.00088290655 -0.105512545
000380 cb e4 d1 3c 5b f7 a6 3d 2e 0d da bc 9d af cb bd
       0.025621792 0.08152648 -0.026617613 -0.09945605
000390 49 a9 9c 3d 56 7c 5a bd ff ce 9c 3d 50 62 e2 3c
       0.07649476 -0.053341232 0.07656669 0.02763477
0003a0 32 df 13 bd f1 08 77 3d c6 cc 85 bd ba be b4 3d
       -0.036101528 0.06031126 -0.06533198 0.08825441
0003b0 80 a8 d9 3d 53 68 cb bb af cd 90 3d b4 c8 d8 ba
       0.10627842 -0.006207505 0.07070481 -0.0016539306
0003c0 54 4b f9 3c 59 4b c5 bd 6c 15 16 bd fc 84 95 3d
       0.030431427 -0.09633512 -0.036641523 0.073007554
0003d0 16 9a 5d 3d e3 0d 2c bd 7f ab a4 3c be bf db bd
       0.054102026 -0.04200543 0.020101307 -0.10729931
0003e0 b8 67 cf bd 49 66 43 bc 7c 5f cf bc 7c f2 12 3d
       -0.10127205 -0.011926242 -0.025314085 0.035875782
0003f0 b4 70 bc 3d c9 5d 30 bd ea 2a ff bc f2 60 70 3d
       0.09201184 -0.04305819 -0.031148393 0.058686204

model.lstm.bias_ih_l1 f4 [128]
000000 62 db 71 3f c2 8c 73 3f 44 ed 80 3f 09 b3 93 3f
       0.94475377 0.95136654 1.0072408 1.1539012
000010 2f 9f 7e 3f 1d 41 2c bf 09 87 8c 3f 00 d1 89 3f
       0.99461645 -0.67286855 1.097871 1.0766907
000020 44 aa b9 be a7 1c 09 bf 82 3f e8 be 09 20 11 bf
       -0.36262715 -0.53559345 -0.45360953 -0.56689507
000030 87 37 90 3f e7 9a 7b 3f 29 57 80 3f dc 42 88 3f
       1.1266946 0.9828324 1.0026599 1.0645404
000040 dc bf 78 3f 28 84 81 3f 3a 1c 8c 3f 23 8c f1 be
       0.97167754 1.0118456 1.0946114 -0.47177228
000050 e7 4c 7b 3f ee e7 75 3f 3a 78 75 3f 43 f9 85 3f
       0.9816422 0.9605702 0.95886576 1.0466694
000060 2b 69 81 3f 35 cd 80 3f d3 6d 7f 3f 90 4b 87 3f
       1.011022 1.0062624 0.99776953 1.0569935
000070 fa 5c ef be d0 2f 8a 3f a2 2f 69 3f f8 ce 88 3f
       -0.46750623 1.0795841 0.91088307 1.0688162
000080 f3 b8 20 3d 89 61 a6 3d 38 3f 62 3c 39 69 9b 3c
       0.03923888 0.08124072 0.013809018 0.018971073
000090 9b a0 48 3d b6 4c 04 bc 83 ba 97 3c 7a 24 b4 bd
       0.04898129 -0.00807493 0.018521553 -0.0879602
0000a0 13 f8 d9 3c bc 63 57 3d 1b 21 88 bd 3a 9f 89 3d
       0.026607549 0.05258535 -0.06646939 0.06719823
0000b0 1d 81 d4 3d de cb cf 3b a9 21 ae bd 19 d3 8b 3d
       0.10376189 0.0063414415 -0.08502514 0.06827373
0000c0 50 b9 b3 3c fe 73 8b bc 28 b7 d0 3d ff 30 ea bc
       0.02193895 -0.017023083 0.10191184 -0.028587816
0000d0 c5 6e 31 bd 9f bc 8a bd e1 5c 85 bd 87 db 32 3d
       -0.04331853 -0.06774258 -0.06511856 0.04366639
0000e0 cb 53 ad 3d dc f5 5f bc 14 44 0e 3d 84 43 47 3d
       0.08463248 -0.013669457 0.034732893 0.048648372
0000f0 78 e7 b0 bd 03 81 fd 3c 6a d5 0c bd d5 b9 8c bd
       -0.08637899 0.030945307 -0.034383215 -0.06871382
000100 05 a7 27 bf 8f 27 0b 3f 3d 99 9a 3f fe 11 3f 3f
       -0.65489227 0.54357237 1.2078015 0.7463683
000110 dc 4a 57 3f b3 3d 61 be 3a f1 29 3f ad fd 47 3f
       0.840986 -0.21996193 0.6638371 0.78121454
000120 91 f0 25 3d 10 06 91 3e e7 c5 88 3e 85 46 bd be
       0.040512625 0.28324938 0.26713488 -0.36967865
000130 5f 8f 21 bf 4d 5b de 3e f0 bf 25 3f 4b 76 4c 3f
       -0.6310939 0.43429032 0.64746 0.79868
000140 5d 97 a7 be b9 82 0c 3f ee f1 a8 bf e1 ce c2 bd
       -0.3273267 0.54886967 -1.3198831 -0.09512115
000150 f9 07 33 3f e4 8c d1 3e 45 d7 38 3f 13 df e3 3e
       0.6993404 0.40927804 0.72203475 0.4450613
000160 67 0e 60 3f 51 bb d2 3f d8 aa 70 3f 90 cc 0c bf
       0.87521976 1.6463414 0.94010687 -0.5499964
000170 ff be 34 bb 4f e4 29 bf c7 93 26 3f f7 3f 7a bf
       -0.0027579663 -0.66363996 0.6506924 -0.9775385
000180 30 88 7d 3f e0 2c 80 3f 81 1e a0 3f 51 a5 83 3f
       0.9903593 1.0013695 1.2509309 1.0284826
000190 f4 f4 83 3f 43 88 11 bf a1 af 80 3f cd 64 85 3f
       1.0309129 -0.56848544 1.0053598 1.0421387
0001a0 d8 36 ce be d2 d6 0f bf 1f b3 e1 be a8 f2 11 bf
       -0.40276217 -0.56187165 -0.4408197 -0.5701089
0001b0 05 85 73 3f 2d 40 8a 3f bf b2 82 3f 70 3b 80 3f
       0.95124847 1.0800835 1.0210799 1.0018139
0001c0 67 2b 7a 3f 66 21 8d 3f 62 da 84 3f a1 66 05 bf
       0.97722477 1.1025817 1.0379145 -0.52109724
0001d0 a6 4b 83 3f 1b 41 8a 3f 1a 0c 90 3f f5 3f 60 3f
       1.0257461 1.0801119 1.1253693 0.8759759
0001e0 c4 cd 97 3f 2e 5b 82 3f 78 70 8a 3f 30 54 91 3f
       1.185967 1.0184076 1.0815573 1.1353817
0001f0 2f 24 0a bf 63 88 7f 3f dd be 8e 3f 21 9a 8b 3f
       -0.5396146 0.99817485 1.1151997 1.0906411

model.lstm.bias_hh_l1 f4 [128]
000000 ad af 79 3f 50 c8 83 3f e0 3b 90 3f aa 1f 8b 3f
       0.97533685 1.0295506 1.1268272 1.0869038
000010 6b 9d 89 3f 68 f0 1c bf a1 a5 93 3f 66 fe 8a 3f
       1.0751165 -0.6130433 1.1534921 1.0858886
000020 a6 45 12 bf 67 b6 21 bf ec 57 06 bf 3c a4 f6 be
       -0.57137525 -0.6316895 -0.5247791 -0.48172176
000030 6f b8 86 3f 4d a3 75 3f e8 b9 81 3f 05 f2 87 3f
       1.0525035 0.959523 1.0134859 1.0620733
000040 29 ab 86 3f 52 84 70 3f 15 7d 7f 3f 45 a7 0d bf
       1.0520984 0.93951905 0.99800235 -0.5533336
000050 69 c3 87 3f 82 5e 5e 3f 22 96 89 3f cb 6d 86 3f
       1.060651 0.8686296 1.0748942 1.0502256
000060 3e bc 73 3f 92 2a 8c 3f 4b 3e 80 3f ed f5 71 3f
       0.9520911 1.0950491 1.001901 0.9451588
000070 c2 9a f1 be 38 3d 80 3f c3 9e 81 3f 2b 16 80 3f
       -0.47188383 1.0018682 1.0126575 1.0006765
000080 d6 53 4c 3d 6b 2f 50 3d 5a f0 8c 3b 9c 57 8d bc
       0.04988464 0.05082647 0.004301113 -0.01725369
000090 55 b6 aa bd 3f d5 8e 3d 6c 91 6a 3d a3 8d cd 3d
       -0.08335558 0.06974267 0.05726759 0.10036781
0000a0 63 4c 51 3d 7c cb 23 3d bb 6b d6 3d 1d 12 6a bd
       0.05109824 0.03998898 0.10469767 -0.05714618
0000b0 93 60 33 3d 5d 88 89 bd 25 d6 6d bd 5f 82 8a bd
       0.043793272 -0.06715462 -0.058065552 -0.067631476
0000c0 b3 a4 a5 3d d0 f1 c6 3d 83 dc 8a bd d9 5d 8c bd
       0.080880545 0.09714091 -0.067803405 -0.068538375
0000d0 40 77 da bd 80 ce 2b 3d bd b7 91 bc 11 d3 d9 bd
       -0.106672764 0.04194498 -0.017787809 -0.10635961
0000e0 18 8a 51 bd 10 5a d1 bb 76 c7 d8 3c 43 5f 8e bd
       -0.051157087 -0.00638891 0.026462298 -0.069517635
0000f0 b2 ac b5 bd 92 29 52 3c 59 3f a7 3d 8a bc 86 bd
       -0.0887083 0.012827294 0.081663795 -0.0657893
000100 48 dd 1f bf 0b da 1f 3f 18 a3 96 3f f7 96 17 3f
       -0.62447023 0.6244208 1.1768522 0.5921473
000110 2d 6f 5b 3f 48 0e 88 be 7d f2 38 3f b0 de 19 3f
       0.85716516 -0.26573396 0.7224501 0.6010542
000120 82 36 01 3d 2d 0d af 3e 37 a2 d6 3e 7e 63 b1 be
       0.031546123 0.3418974 0.41920635 -0.3464622
000130 9b 22 17 bf 29 0e f2 3e c5 00 10 3f f4 a0 4c 3f
       -0.5903718 0.47276428 0.56251174 0.79933095
000140 16 4f d7 be b4 90 2f 3f 0f 2e ae bf 56 2f 73 bd
       -0.42052525 0.68580174 -1.3607806 -0.059371315
000150 98 70 1e 3f b4 ef 04 3f b3 1f 30 3f 51 11 dc 3e
       0.61890554 0.5192826 0.6879837 0.4298196
000160 03 3e 60 3f 06 63 d9 3f ef 95 5f 3f 33 2a d8 be
       0.8759462 1.6983345 0.87338156 -0.42219695
000170 50 d2 fd bd 52 96 16 bf 02 41 32 3f 2d d6 76 bf
       -0.123936296 -0.5882312 0.69630444 -0.96420556
000180 ed f9 7a 3f 3a 40 8a 3f 27 39 8a 3f a6 76 89 3f
       0.98037606 1.080085 1.0798692 1.0739334
000190 11 97 8f 3f bf 9f 31 bf 10 02 91 3f ea e0 85 3f
       1.1217977 -0.6938438 1.1328754 1.0459263
0001a0 5d 70 f0 be d3 70 22 bf 1c 75 d9 be 03 a8 0c bf
       -0.46960726 -0.63453406 -0.4247216 -0.54943866
0001b0 56 d1 8a 3f e0 8f 83 3f 00 d9 66 3f 0d 19 96 3f
       1.0845134 1.0278282 0.90174866 1.1726395
0001c0 66 e1 8c 3f 1a fc 8f 3f 7f ae 87 3f 09 92 ec be
       1.1006286 1.124881 1.0600127 -0.46205166
0001d0 25 e9 91 3f 0a 8b 86 3f 44 18 6d 3f 2c 0e 7f 3f
       1.1399275 1.0511181 0.9261515 0.99631
0001e0 36 ab 8e 3f d9 0c 81 3f 85 7e 8b 3f df 42 95 3f
       1.1146 1.0082046 1.0897986 1.1661032
0001f0 fe 8d 24 bf 2f 94 80 3f 28 1d 95 3f 2b 8a 85 3f
       -0.6427916 1.0045222 1.1649523 1.043279

model.linear.weight f4 [1, 32]
000000 3a 24 25 c1 a6 54 26 41 41 65 23 41 d1 8e 23 41
       -10.321344 10.395666 10.21222 10.222367
000010 b5 ba 23 41 d9 86 1f be 89 34 24 41 6b d1 23 41
       10.233083 -0.15578784 10.262826 10.238627
000020 1a e4 aa 3d 65 21 b7 bd da a2 0d bc 57 56 64 bd
       0.08344288 -0.089419164 -0.008644784 -0.055746403
000030 f0 95 24 c1 53 17 26 41 b6 3c 2c 41 69 0b 24 41
       -10.286606 10.380694 10.764822 10.252786
000040 ee 35 2a c1 30 b9 24 41 b9 c1 23 c1 80 5e 4d 3b
       -10.638166 10.295212 -10.234796 0.0031336844
000050 c5 51 24 41 97 85 21 41 84 ca 24 41 f7 c7 2c 41
       10.269963 10.095115 10.299442 10.79882
000060 71 cd 23 41 21 19 26 41 4f 8e 24 41 28 af 26 c1
       10.237657 10.381135 10.284743 -10.417763
000070 26 d0 d2 bc 79 55 24 c1 25 61 24 41 ed 13 24 c1
       -0.025734019 -10.270867 10.273717 -10.254865

exp_avg f4 [128, 1]
000000 c9 46 9f 96 d0 be 40 90 14 e9 cb 92 cd 6b 2c 18
       -2.5732507e-25 -3.801232e-29 -1.2868559e-27 2.2284904e-24
000010 af f0 36 9e f8 df 5a 9e 95 65 78 15 b6 ea a2 12
       -9.684772e-21 -1.15871396e-20 5.0163335e-26 1.0281498e-27
000020 fb 03 04 95 ce 65 cc 9d 0f e2 e2 9a af 47 a4 12
       -2.6660328e-26 -5.4103614e-21 -9.3836627e-23 1.0367526e-27
000030 83 ed df 9a 28 b5 b5 92 40 9f 16 1c 4f 24 e6 b4
       -9.261436e-23 -1.1467364e-27 4.9836663e-22 -4.2867256e-07
000040 d3 ec cc 8c 29 0f 0d 96 a8 57 be 99 63 82 8f 1b
       -3.157371e-31 -1.1394673e-25 -1.9680944e-23 2.3741626e-22
000050 c9 0d 02 9d 19 ae c9 98 05 cd 87 99 ad 55 fd 0d
       -1.7212483e-21 -5.2133076e-24 -1.404148e-23 1.56129545e-30
000060 43 7f 2c 99 4c 35 b2 99 c7 27 9a 93 5c 16 65 2b
       -8.917892e-24 -1.8426295e-23 -3.891429e-27 8.1388173e-13
000070 7f 1b 9d 90 aa 80 f4 92 73 f7 69 9e cd 2f 78 9b
       -6.1967946e-29 -1.5430283e-27 -1.23860886e-20 -2.0529524e-22
000080 00 00 00 00 00 00 00 00 00 00 00 00 00 00 00 00
       0.0 0.0 0.0 0.0
000090 00 00 00 00 00 00 00 00 00 00 00 00 00 00 00 00
       0.0 0.0 0.0 0.0
0000a0 00 00 00 00 00 00 00 00 00 00 00 00 00 00 00 00
       0.0 0.0 0.0 0.0
0000b0 00 00 00 00 00 00 00 00 00 00 00 00 00 00 00 00
       0.0 0.0 0.0 0.0
0000c0 00 00 00 00 00 00 00 00 00 00 00 00 00 00 00 00
       0.0 0.0 0.0 0.0
0000d0 00 00 00 00 00 00 00 00 00 00 00 00 00 00 00 00
       0.0 0.0 0.0 0.0
0000e0 00 00 00 00 00 00 00 00 00 00 00 00 00 00 00 00
       0.0 0.0 0.0 0.0
0000f0 00 00 00 00 00 00 00 00 00 00 00 00 00 00 00 00
       0.0 0.0 0.0 0.0
000100 65 20 44 b0 45 0f e8 2e 8b f6 4a 9a ed 3f 53 92
       -7.135042e-10 1.0552851e-10 -4.1971777e-23 -6.6658655e-28
000110 0c 08 70 0d 24 a6 e4 32 72 69 67 92 5c 9a bb 8a
       7.3965396e-31 2.6618245e-08 -7.302072e-28 -1.8065509e-32
000120 4d 84 33 9b dd 73 47 9a 0a 52 fe 11 78 65 91 89
       -1.4849282e-22 -4.124583e-23 4.0124694e-28 -3.50029e-33
000130 00 00 00 00 15 8a 81 19 9c 74 00 00 82 9b 95 30
       0.0 1.3394058e-23 4.1832e-41 1.0885375e-09
000140 00 00 00 00 cd e5 9c 9c 00 00 00 00 00 00 00 00
       0.0 -1.0382616e-21 0.0 0.0
000150 00 00 00 00 6b fc 38 18 91 dc 82 0e 15 fe 4b 14
       0.0 2.3908881e-24 3.2259872e-30 1.029899e-26
000160 85 bd 20 8b 24 ac d0 12 60 51 02 91 f9 b8 70 21
       -3.0957458e-32 1.3169081e-27 -1.0280267e-28 8.155997e-19
000170 a9 fb 12 1c 38 00 27 2f 6b e3 dd 0f 00 00 00 00
       4.863261e-22 1.5188639e-10 2.187988e-29 0.0
000180 fe 6e f9 96 25 d2 6d 9b d6 4c bd 98 9a 70 54 16
       -4.0298166e-25 -1.9672082e-22 -4.893294e-24 1.7160754e-25
000190 68 ad bd 8d 49 fd 63 99 d7 0c 5d 15 32 19 26 12
       -1.168977e-30 -1.17867755e-23 4.4640723e-26 5.241142e-28
0001a0 46 1c 59 99 04 ea 1c 9c 5f 27 8a 95 f3 03 a4 12
       -1.1224347e-23 -5.191853e-22 -5.579987e-26 1.0350829e-27
0001b0 50 81 be 91 63 1f 72 97 02 95 d3 17 b2 12 0b 37
       -3.005641e-28 -7.8234033e-25 1.367317e-24 8.2893985e-06
0001c0 fa 34 9c 9a e0 52 b6 91 40 87 17 93 0b b9 8c 1b
       -6.4605676e-23 -2.8765613e-28 -1.9125563e-27 2.3280638e-22
0001d0 45 b5 81 92 c9 d6 0a 95 4e cb 8f 97 9a e4 3d 19
       -8.185731e-28 -2.8038314e-26 -9.29248e-25 9.817237e-24
0001e0 63 42 13 94 31 5a 81 91 00 56 75 9b 09 07 65 2b
       -7.434696e-27 -2.0408196e-28 -2.0293713e-22 8.1366906e-13
0001f0 89 94 3f 9a 60 d2 a0 9d c5 dd b0 93 26 7b 8c 90
       -3.961786e-23 -4.256917e-21 -4.4647328e-27 -5.5410004e-29

exp_avg_sq f4 [128, 1]
000000 0d cc 96 34 e2 e6 b2 27 84 27 f7 2c 49 5b ad 37
       2.8088144e-07 4.965525e-15 7.0245493e-12 2.0665715e-05
000010 c0 b3 82 43 5b e3 e6 43 30 61 37 32 c3 c4 9d 2c
       261.4043 461.7762 1.06741e-08 4.4840533e-12
000020 be 30 4f 31 87 0d 4a 32 31 fe cb 30 a3 6b a0 2c
       3.0150171e-09 1.1761023e-08 1.484244e-09 4.5594236e-12
000030 42 d9 ea 3c df 42 c4 2c db da 86 3f de ce c7 32
       0.02866805 5.5780792e-12 1.0535539 2.3260721e-08
000040 a6 9e f9 20 d8 8c 6c 33 24 95 83 2b 9c d6 74 3e
       4.2287226e-19 5.507613e-08 9.349505e-13 0.23909992
000050 73 05 23 41 51 30 bf 23 02 3e 5b 3a 65 ed 50 23
       10.18883 2.0728724e-17 0.0008363427 1.1325973e-17
000060 03 f9 55 39 a2 a3 dc 24 00 00 00 00 ee a4 b1 1d
       0.00020406027 9.5686996e-17 0.0 4.7022043e-21
000070 a7 b7 92 28 24 6a bd 2c fa d7 d5 43 ca 11 37 3e
       1.6288903e-14 5.383487e-12 427.68732 0.1787788
000080 00 00 00 00 00 00 00 00 00 00 00 00 00 00 00 00
       0.0 0.0 0.0 0.0
000090 00 00 00 00 00 00 00 00 00 00 00 00 00 00 00 00
       0.0 0.0 0.0 0.0
0000a0 00 00 00 00 00 00 00 00 00 00 00 00 00 00 00 00
       0.0 0.0 0.0 0.0
0000b0 00 00 00 00 00 00 00 00 00 00 00 00 00 00 00 00
       0.0 0.0 0.0 0.0
0000c0 00 00 00 00 00 00 00 00 00 00 00 00 00 00 00 00
       0.0 0.0 0.0 0.0
0000d0 00 00 00 00 00 00 00 00 00 00 00 00 00 00 00 00
       0.0 0.0 0.0 0.0
0000e0 00 00 00 00 00 00 00 00 00 00 00 00 00 00 00 00
       0.0 0.0 0.0 0.0
0000f0 00 00 00 00 00 00 00 00 00 00 00 00 00 00 00 00
       0.0 0.0 0.0 0.0
000100 20 0a a3 2d 70 a8 20 3c f0 dc f4 3b 58 d4 04 2c
       1.8535451e-11 0.009805784 0.007472627 1.8876203e-12
000110 9d ce 08 22 94 50 86 31 9a 28 1f 2c 0e 34 d1 1c
       1.8540817e-18 3.909074e-09 2.2617797e-12 1.3843916e-21
000120 d0 8e bf 3d 61 77 ec 3b 00 00 00 00 bd 51 7b 1a
       0.09353411 0.0072163795 0.0 5.197161e-23
000130 00 00 00 00 35 59 c1 2b 00 00 00 00 7a 55 28 2a
       0.0 1.3738235e-12 0.0 1.4951053e-13
000140 00 00 00 00 85 53 92 40 00 00 00 00 00 00 00 00
       0.0 4.5726953 0.0 0.0
000150 00 00 00 00 da f0 6c 1b 7f 95 4b 24 82 5a f7 2f
       0.0 1.9599286e-22 4.4145236e-17 4.4993348e-10
000160 dd 94 99 1d c6 9b b2 0c 00 00 00 00 73 84 11 07
       4.0652684e-21 2.7518995e-31 0.0 1.0947511e-34
000170 2f 59 fb 2b 81 3a 35 32 56 ff 9b 26 00 00 00 00
       1.7859376e-12 1.0548889e-08 1.0824494e-15 0.0
000180 d9 e9 38 35 bf ca d9 3d 76 01 d5 38 87 7f d1 33
       6.8885635e-07 0.10634374 0.000101569036 9.755518e-08
000190 77 19 46 22 e5 85 fa 39 89 39 11 32 c3 fd a3 2b
       2.6847485e-18 0.00047783475 8.453193e-09 1.165228e-12
0001a0 67 eb 0b 3a 34 5b 92 3f e1 c5 c4 1b 5a e7 9f 2c
       0.0005337507 1.1434083 3.2553356e-22 4.544737e-12
0001b0 22 fb 65 2a 87 3b 2e 36 f2 0c 05 37 71 ef 11 37
       2.0426415e-13 2.596267e-06 7.930432e-06 8.698423e-06
0001c0 14 ff 90 3c 2c 98 c5 2a db 74 09 15 2e 6c 6b 3e
       0.017699756 3.509982e-13 2.7759112e-26 0.22990486
0001d0 c4 02 48 2c 9d 4a 30 17 b2 cf 75 36 88 57 d6 39
       2.8423245e-12 5.696284e-25 3.662874e-06 0.00040882477
0001e0 95 e6 80 2f 00 00 00 00 8a e9 61 2f f3 0e af 1d
       2.3446903e-10 0.0 2.05466e-10 4.633757e-21
0001f0 f2 8f d9 3b 22 4d 79 42 9c 3a 46 2e 4a 9d 6a 28
       0.006639474 62.325325 4.5072043e-11 1.3023716e-14
