dl_computer_vision/assignments/1/checkpoints/best_checkpoint-v11.ckpt (torch, 168892 bytes, 27 tensors)

model.lstm.weight_ih_l0 f4 [128, 1]
00000000: 0dae 063f 0fb1 6abe 1614 13bf c983 3f3d
00000010: 1c65 1ebf 6249 adbf a6fb 2ebf e597 ed3e
00000020: bfa5 bfbf 7416 ecbe e9c5 ecbd 10fd 203f
00000030: 6449 24bf 1b8f 42be d563 8fbe 0837 0abf
00000040: 3955 063f 6f12 033f 7a0b 043f 707a 1d3e
00000050: 620f 22bf 92d6 153f 08c9 073f 7a65 043f
00000060: 752f 253e 8a11 1cbf a048 e5be 18b1 2d3f
00000070: 7bc3 133e 6512 02bf c18c 06bf 7d37 193f
00000080: 82f0 ee3d 5885 183e 456d 29be fb1f 77bd
00000090: ccd7 22be 9a65 563c d6c1 1b3e 7583 623d
000000a0: 6c31 c43d ae61 f3bd 7090 53bd f815 2e3e
000000b0: a0ed 5f3b cd3b 8c3c 2925 613c ea10 90bb
000000c0: f0aa b0bd 28a1 f63c 100a c93d 65e8 29be
000000d0: 7c50 c83d 9303 a6bd 7981 8dbb aa8e fd3c
000000e0: f132 6fbc fbd0 4a3d 5e3c e5bc 5a95 99bd
000000f0: 7b9b 3ebc 6657 29be babc 1f3e ed14 06bc
00000100: 3576 cc3d 033e 24be cb8e cb3d 096c f53e
00000110: 2bef 013f c604 23bf bffa 11bf a07d 01bf
00000120: 82a2 afbd 6b63 443d 37a6 c43d 0950 173f
00000130: 556a aebd 0562 13bf 2c12 2d3e 6842 1a3e
00000140: 9480 13be 18ff cc3d f6f9 1dbe f144 dc3c
00000150: e1ad 053e 92fc af3d 6f36 cdbe 2953 e2bd
00000160: dffe 1a3f c78d ee3d a132 1a3c ed9d 083e
00000170: c8a1 0d3e cc8a cbbd 0359 d2bd 3eed 17bf
00000180: c83d 073f 021c 7abe e4f1 34bf 440f 35bf
00000190: b97f 813d 9c19 223f 6eb5 2a3e ee61 053f
000001a0: 118a 0e3f fe4c b2be 1fce 13be 8524 213f
000001b0: e023 0dbf d85f 30bf bacc 1cbe 22f6 15bf
000001c0: 70de 093f 0b1f 173f cbfd 273f 0ce2 26bf
000001d0: dfe9 45be ffa7 0d3f 1f9a 263f d144 ef3e
000001e0: 9b63 c6bf 4c40 25bf 491c 06bf cb01 073f
000001f0: 92d1 33bf b842 28bf 01da 213e fce8 0f3f
0.5260933 -0.22919105 -0.57452524 0.04675654 -0.6187303 -1.353802 -0.68352735 0.4640495
-1.4972457 -0.4611088 -0.11561186 0.6288614 -0.64174485 -0.18999903 -0.28005853 -0.5399022
0.5247379 0.512 0.5158001 0.15378737 -0.6330472 0.58530533 0.53041124 0.5171734
0.16131385 -0.6096426 -0.4478197 0.6784835 0.14430039 -0.5080932 -0.52558523 0.59850293
0.11666967 0.14894617 -0.1654559 -0.060333233 -0.15902632 0.013085747 0.15210661 0.05530115
0.09579739 -0.11883865 -0.05165142 0.17000568 0.0034168735 0.017118359 0.01374177 -0.0043965476
-0.08626354 0.030106142 0.098163724 -0.16592558 0.09780976 -0.081061505 -0.004318413 0.030951817
-0.014599548 0.049515706 -0.027982887 -0.0749919 -0.011633749 -0.16537246 0.15599337 -0.0081837
0.09983484 -0.1603928 0.09939345 0.47933987 0.50755566 -0.6367916 -0.57023233 -0.50582314
-0.08575918 0.047946375 0.096020155 0.591065 -0.08516375 -0.5757144 0.16901463 0.15064394
-0.14404517 0.10009593 -0.15427384 0.026888343 0.13054611 0.08593096 -0.40080592 -0.11051018
0.6054515 0.11648136 0.009411485 0.13341494 0.13831246 -0.09938583 -0.10270884 -0.5934638
0.52828646 -0.24424747 -0.70681596 -0.7072642 0.06323189 0.63320327 0.16670772 0.52102554
0.5567942 -0.34824365 -0.14434098 0.6294635 -0.55132866 -0.68896246 -0.15312472 -0.58578694
0.5385504 0.5903174 0.6562163 -0.6518867 -0.19327496 0.55334467 0.6507892 0.4673219
-1.5499147 -0.64551234 -0.5238691 0.5273711 -0.70241654 -0.65726805 0.15805818 0.5621488

model.lstm.weight_hh_l0 f4 [128, 32]
00000000: 53a6 b1bd dff1 263d 8587 853d 2b0a 393c
00000010: 0787 223e 4893 ccbc 57b4 ebbd 4b3b 8abd
00000020: db71 8b3d 10ca d6bd 4fb9 113e 6a75 aebd
00000030: 40a2 63bd e4d2 eabc 7a41 01be 355a dabd
00000040: b7f3 1c3e c387 683d cc40 a2bd c208 d8ba
00000050: ad5c 56bc 8cad 023e c0c3 f6bd 11d3 11bd
00000060: 0525 883d ca36 d8bd 3e43 1a3e 74f5 083e
00000070: 0e19 bdbc f584 863c 3d04 0dbe d273 c1bc
00000080: 4994 1b3c f349 31bd 93ae f1bd c5fb 3d3d
00000090: b466 82bc 79aa b3bd 90cd d33d 56f0 f63d
000000a0: 27a3 c6bc 1069 5bbd f640 283c 84b7 94bd
000000b0: 17e8 833d 9894 4dbd 38cf aebd 9161 823d
000000c0: 0d88 243e 5db8 f73d 6b47 fdbc ac10 54bc
000000d0: 801a 18bd f384 87bd 6127 ed3d 6460 123e
000000e0: 7d5c 8abc 0706 d9bc 0f69 92bd 3048 d63d
000000f0: 81ae 42bd 15dc 1e3e 8925 d43d 222c 153e
00000100: 75f7 d7bc 408d cfbd c6aa 61bb 74e3 eb3d
00000110: dabc b8bb 81ab d03d f28e c4bd 3d78 293e
00000120: 1ecb 1fbe 9604 883d 22c0 98bd 6e08 003d
00000130: 8da0 d03d 24d9 23be 9bf5 7b3d 22d2 70bd
00000140: b7cf 20be 9d96 063e 039e 21be 16e1 7dbd
00000150: b62b f53d 4db9 43bd b294 05be 4e8e 89bd
00000160: dca8 e5bd df35 013e 33ae 893d 8145 833d
00000170: 5425 333a c2d5 a4bb 1218 1f3e 573b 8abd
00000180: 6061 2f3d a8bb a8bc f8c8 ccbd 9b5a d3bc
00000190: 7f26 d43d be2e 293e 24fb 5ebd a474 47bd
000001a0: 8cab 9ebd 0477 1ebe 1691 103e d164 0dbe
000001b0: 97fc f63c 8b45 9a3d fe57 1abe fc3c 003e
000001c0: ce24 28be 46e0 9bbd 5b43 fb3d 3e10 22be
000001d0: 9f05 04bd 0abc 553d 6efe 903d e28a db3d
000001e0: 2bce 243e f79e 283e c024 9b3d 7667 083e
000001f0: 49dd b13d 0100 70bd 6f5a 113e 8069 3cbd
00000200: 8172 c43c 7bea 12be 90e2 953c f4c5 fa3d
00000210: 7ab1 5c3d c42a 29be 16cc d63d 48bc 893c
00000220: e22f ae3d 13b2 113e c508 4abc e063 c63c
00000230: fac2 0bbe 0654 9bbd d213 eabd 82e3 193e
00000240: ea97 7f3c c94c b0bd 190f 26be 018e c73d
00000250: b6cf 143e 200e 22be 7095 af3d 98d8 0e3d
00000260: 842b 0cbc 50a5 323d bd46 283e 0cf9 06bc
00000270: db21 073c 7971 1e3e 0222 12be 1a40 203e
00000280: 56dd 68bd 6122 60bc bb86 2d3e e450 78bd
00000290: a5ce 9abc 7273 7e3d 5dda 223d d4af a1bb
000002a0: 8fad 0a3e fccc 953c a1e1 2e3d 5ecd ff3d
000002b0: 5500 12bb b794 27be 4fea a93d 6830 f1bd
000002c0: 417c c63d 9ae3 563d 627f d3bd d20f 07be
000002d0: 592b b4bd d6e9 143e 1009 a9bd 54b9 d2bd
000002e0: bcaa 693d 6724 64bd 7f4f c73c b09d d3bb
000002f0: 70ad 073b 80d6 013d 8630 27be 1b28 eb3d
00000300: 455f 243e e591 fbbd 5012 fcbd 55e6 b23d
00000310: 4d4b e2bd 9fca 57bc da31 e2bd 4e6e ed3b
00000320: bdc2 a3bd fca7 003e 94f3 0abe 4069 08be
00000330: 7e6a 26bc 75dd 803c e314 f33d fe42 d0bc
00000340: c0de f7bd fde3 a3bd 30f0 ddbd ba1f 353d
00000350: f106 1d3e 43a7 60bd 26e1 f13d 89fd cebd
00000360: 5ef8 87bc 9a62 803d 0162 d63d 7fac 3fbc
00000370: bf5b a73d 4b44 0ebe fd20 94bb 5ef1 80bd
00000380: 4ac4 d83d f147 023e da08 b3bb 1ff5 09bc
00000390: 2993 7f3d 57a6 193e 24d9 ad3d 4f88 af3c
000003a0: d7a5 f1bc 2373 24bd 682f 11be 8bd0 edbd
000003b0: aece 2cbe 7159 d7bd f1a7 a8bd e158 c0bc
000003c0: 8d29 52bc c226 873c 00a5 1e3d 446f 023c
000003d0: 2f76 0f3e 2ee2 86bc 3839 b13d 5334 863d
000003e0: 4198 5cbd d48c 33bd 068d 783d 4fa3 bc3c
000003f0: f67f 923d 7f8c b43d 1876 24bd d7c5 f5bd
-0.08674302 0.04075801 0.06519989 0.011293928 0.15871821 -0.024972573 -0.115090065 -0.067495905
0.068088256 -0.10487759 0.14230846 -0.08518489 -0.055574656 -0.028665014 -0.12622634 -0.10661737
0.15327345 0.056770097 -0.07922515 -0.0016482102 -0.013083619 0.12761515 -0.12049055 -0.03560168
0.06647686 -0.10557325 0.15064713 0.13374883 -0.023083236 0.01642082 -0.13771148 -0.023614798
0.009495803 -0.043283414 -0.118008755 0.046382684 -0.015918113 -0.087727495 0.10341942 0.12057559
-0.024247719 -0.053566992 0.010269394 -0.07261565 0.06440752 -0.05019054 -0.085356176 0.063662656
0.16067524 0.120957114 -0.030917844 -0.012943428 -0.037134647 -0.06617155 0.115797766 0.14294583
-0.016889805 -0.026492132 -0.071489446 0.104629874 -0.0475297 0.15513642 0.10358722 0.14567617
-0.026363114 -0.10134363 -0.0034434064 0.115179926 -0.0056377472 0.10188962 -0.09597577 0.16549774
-0.15604827 0.066415 -0.074585214 0.03125804 0.10186873 -0.16000801 0.061513525 -0.05879415
-0.15704237 0.13143392 -0.15782933 -0.061982237 0.11971228 -0.04778414 -0.13045004 -0.067165956
-0.11213848 0.12618206 0.06722679 0.06409741 0.00068338704 -0.0050303647 0.15536526 -0.067495994
0.042817473 -0.020597294 -0.09999269 -0.02580004 0.10358905 0.16521737 -0.054438725 -0.04869522
-0.07747564 -0.15475088 0.14117846 -0.1380799 0.030149741 0.075327955 -0.15072629 0.12523264
-0.1642029 -0.07611136 0.122687064 -0.15826508 -0.032231923 0.05218128 0.070797786 0.10719849
0.16094272 0.1646689 0.07575369 0.13320717 0.08684785 -0.058593754 0.14194654 -0.04599905
0.023980381 -0.1434726 0.01829651 0.12244788 0.053880192 -0.1652022 0.10488145 0.016813412
0.08505227 0.14228086 -0.012331192 0.024217546 -0.13648596 -0.075843856 -0.11429562 0.15028194
0.015600184 -0.086083956 -0.16216697 0.09743882 0.1453236 -0.15825701 0.08573425 0.03487453
-0.008555297 0.043614686 0.16433235 -0.008238088 0.008247818 0.15472974 -0.14270785 0.15649453
-0.056851707 -0.013680072 0.16945927 -0.06062402 -0.018897364 0.062121816 0.03975903 -0.0049342904
0.1354277 0.01828622 0.042695645 0.124903426 -0.002227803 -0.16365324 0.08296644 -0.11776811
0.09691668 0.05246315 -0.10327031 -0.13189629 -0.087973304 0.14542326 -0.08253682 -0.10289255
0.05704759 -0.05569878 0.024329899 -0.006458007 0.0020702742 0.031698704 -0.16327104 0.11482259
0.16051967 -0.122836865 -0.1230818 0.087353386 -0.11049519 -0.013170867 -0.11044665 0.0072458154
-0.07996128 0.12564081 -0.1356948 -0.133214 -0.010157226 0.015730599 0.11869218 -0.02542257
-0.12103033 -0.0800247 -0.10836828 0.04421971 0.15334679 -0.054847013 0.11810522 -0.10106952
-0.016597923 0.06268807 0.104679115 -0.011698841 0.08171796 -0.13893239 -0.004520534 -0.06296037
0.10584314 0.12722756 -0.0054637017 -0.008420258 0.062396202 0.1500486 0.08488682 0.021427302
-0.029498024 -0.040148865 -0.1417824 -0.11612042 -0.16875717 -0.105151065 -0.08235157 -0.02347988
-0.012827289 0.016497973 0.038731575 0.007961098 0.14009927 -0.016465273 0.08653492 0.06552949
-0.05385614 -0.043835476 0.060681365 0.02302709 0.07153313 0.0881586 -0.040151685 -0.120006256

model.lstm.bias_ih_l0 f4 [128]
00000000: e35f edbd 772a 8b3d e609 a3bd c7ac 303d
00000010: 371e 18bf 24b9 65bf 4d61 d7be 3ef0 c1bd
00000020: d6d6 c8bf 7588 a1b9 f442 24be 4339 1d3f
00000030: 3807 e9be f4d5 093c a8e4 bcbc 0d33 03bf
00000040: 8314 89bd 3307 0a3f 219a 0c3f c2fe 19bb
00000050: e942 19bf d073 203f 7a6b f73e e2a5 333f
00000060: f1c0 1e3b b09e 05bf 99de ad3d 389d 3d3f
00000070: c4a1 debd 913f e2bd 0fa0 38bf 7692 303f
00000080: 0b67 b4bd d3af 14bd 2408 d63d b740 e9bd
00000090: bce9 cc3c c698 763d 7408 183e ac57 66bd
000000a0: 7652 e9bb a0e7 16be 9a0c df3d 6b60 1dbe
000000b0: 0028 90bd f093 ee3a 0376 0c3d 7eaa 8fbc
000000c0: bde0 3b3d 16c4 a9bd f038 f93d 19b8 3bbc
000000d0: dde9 073e f65e 263e 45da 2c3e 341a cf3d
000000e0: c0aa 16be 85dc d13d d9ad a6bd caaf cabb
000000f0: 3b6c d83d 5a4a 2cbe 5c2b 36bd e6b5 2abe
00000100: 668e be3c 7d0c 93bd 06f2 e73c a707 ce3d
00000110: 5f41 ce3d 06eb e9be 725b d2be ce28 9ebd
00000120: 5f05 19be e479 043e 159a 72bd 6c3b 093f
00000130: f648 39bb 198e 3dbf bde6 2d3b 9dd0 1dbe
00000140: a79d 503d ace6 ccbd d437 29be dc87 10be
00000150: ac94 23bc d6a4 f03d bf5b 8e3d 1078 3ebd
00000160: 4c85 2e3f 8aec 14bd fc09 e03d 78b2 9abd
00000170: 76ef 03be 598a 043e 7e98 e13d e8cb 18bf
00000180: f55a 303f fb81 363c bc18 70be 4f39 aebe
00000190: a770 753d 3548 283f 385c 64bd 91d1 2e3f
000001a0: 9b7c bc3e 9897 cdbd de63 11be b51d 413f
000001b0: 9003 2dbf 4083 00bf dae9 113a f85c 3abf
000001c0: f051 163f 6deb 003f c790 c93e 624a f5bd
000001d0: b2ad 5c3d e143 393f cd28 a73e dfb3 eabd
000001e0: 52b0 95bf ed4a 34bf 2e13 e4bd 312c fc3e
000001f0: 335c dcbe 365d 19bf 401d e83d 5a78 3e3f
-0.115905546 0.06795209 -0.07960872 0.043133523 -0.59421104 -0.8973563 -0.42066422 -0.09469651
-1.5690563 -0.0003080998 -0.16041166 0.614155 -0.4551332 0.008412827 -0.02305825 -0.5124977
-0.066933654 0.53917235 0.5492268 -0.0023497795 -0.5986772 0.62676716 0.48324186 0.7017499
0.0024223889 -0.5219526 0.08489723 0.7406802 -0.10870698 -0.110472806 -0.7211923 0.6897348
-0.088087164 -0.03630049 0.104507715 -0.113892965 0.025013797 0.06020429 0.14846975 -0.056235954
-0.007120426 -0.14736795 0.108910754 -0.15368812 -0.070388794 0.0018202048 0.034292232 -0.017537352
0.045868624 -0.082893535 0.12169063 -0.0114574665 0.13272806 0.16247162 0.16880138 0.1011242
-0.14713573 0.10247139 -0.081386276 -0.0061855065 0.10567518 -0.16825238 -0.044474944 -0.16670951
0.02326126 -0.07180116 0.028313648 0.10060053 0.10071062 -0.4568712 -0.41085392 -0.077226266
-0.14943455 0.12937123 -0.059228975 0.53606296 -0.0028272248 -0.7404495 0.0026535236 -0.15411611
0.0509316 -0.10004935 -0.16525203 -0.14114326 -0.009984177 0.1175019 0.06951093 -0.04650122
0.68172145 -0.036358394 0.10939404 -0.075535715 -0.12884316 0.129434 0.11015414 -0.59686136
0.6888879 0.011139388 -0.23446935 -0.34028098 0.059921887 0.6573518 -0.05575201 0.6828852
0.36813816 -0.1003868 -0.14198253 0.75435954 -0.6758356 -0.5020027 0.00055661576 -0.7279811
0.58718777 0.5035923 0.3936827 -0.11977078 0.053876586 0.723692 0.32648316 -0.11460089
-1.1694434 -0.7042683 -0.11136471 0.49252465 -0.43039092 -0.59907854 0.11333704 0.7440239

model.lstm.bias_hh_l0 f4 [128]
00000000: 9a8a 473e 1ba9 8c3c d8d5 02be 05d4 1f3e
00000010: f290 20bf 86e9 46bf c281 2abf 3982 fabd
00000020: da6c c1bf e9b8 0fbe ee56 953d 0a8c 063f
00000030: 0ab3 0cbf 306e 163e 97f0 553b 25e8 27bf
00000040: 9773 e0bc 3085 223f e8f0 1f3f b5ad 3e3d
00000050: c10e dcbe f254 023f 8a57 233f 7429 3a3f
00000060: ed24 bb3d e157 dabe e74a 74bd 774e 513f
00000070: 9fbf afbc 1cb8 23bd 8db9 f5be 4484 103f
00000080: 141b 993c 291b 26be 255e b3bd c743 16bd
00000090: 9fd5 fcbc c38d 11be d4bf 803d 5a7e 09bd
000000a0: 95dc 04be 7ae5 bf3d 3916 37bd 8f40 09be
000000b0: 0661 ffbd c3ae 263e ebb3 0bbe 49ca da3d
000000c0: 5561 f53d 9875 71bd 6adc 283d b751 f23a
000000d0: 8d53 e23d f483 96bd 14a3 023d 0996 013d
000000e0: 1366 96bd f2af dfbd 2376 ac3d b2af ea3c
000000f0: c2d7 283e 2d64 24bc 214d 2b3d d20d 12be
00000100: 708e 103e f80a 1c3e 960f 15bd 61ef be3d
00000110: 1926 033e e7af d8be 93a5 26bf 9fe9 4f3d
00000120: 2605 22be bd08 50bd 2498 c23d 132b 333f
00000130: f432 03be b416 16bf bf63 d43d b6f8 2abe
00000140: da73 163e bcb0 4a3c 1eb6 5d3c 4d8e 223d
00000150: 98e9 eebd 485e 2d3e b2f8 06be 8604 e03d
00000160: 9fa1 e63e 686e 163e 2f60 25be 6d2a 243e
00000170: 99cd 83bd b11d 2d3d 8262 ad3d 1d91 0abf
00000180: bfe1 403f f843 0f3e b1fe bbbe 4df3 1dbf
00000190: 863f 693c aac6 073f 2441 bfbd 22da 093f
000001a0: 7057 123f 0ee0 10be 9689 0e3c 2be0 033f
000001b0: 7d2c 09bf 10ee 0dbf ff84 c7bd 536b 39bf
000001c0: 1d33 333f 81a6 ce3e 20dd 2b3f 47ab 0dbd
000001d0: fe23 9cbd 254e 153f 171f e13e 6cb4 d73d
000001e0: 305c 62bf da09 d4be 198a f3bd d4a1 403f
000001f0: 40fc 08bf 99d3 12bf 0562 adbd 13b6 183f
0.19486466 0.01717048 -0.12776887 0.15608223 -0.6272117 -0.7770008 -0.66604245 -0.12231869
-1.5111344 -0.14035381 0.07291971 0.5255743 -0.5496069 0.1469047 0.0032644623 -0.655886
-0.027398868 0.6348448 0.6247697 0.04655238 -0.42980006 0.50910866 0.6380545 0.727195
0.091379024 -0.4264517 -0.059641745 0.8176035 -0.021453677 -0.039970502 -0.47993127 0.5645182
0.01868967 -0.16221298 -0.08758191 -0.03668573 -0.030863581 -0.14214234 0.06286588 -0.033567764
-0.1297477 0.09369941 -0.044698928 -0.13403533 -0.124696776 0.16277604 -0.13642852 0.10683114
0.11981455 -0.058950037 0.04122583 0.0018487488 0.11051092 -0.07349387 0.031893805 0.031637225
-0.07343688 -0.10922231 0.0842097 0.028648231 0.16488555 -0.010033649 0.041821603 -0.14263085
0.14116836 0.15238559 -0.036391817 0.09323002 0.12807502 -0.42321703 -0.65096396 0.050759908
-0.15822276 -0.050789583 0.09501675 0.699876 -0.12812406 -0.5862839 0.103705876 -0.16696438
0.14692631 0.012371238 0.01353219 0.03968649 -0.11665648 0.16930497 -0.13180807 0.10938363
0.45045182 0.14690554 -0.16149972 0.16031809 -0.06435699 0.042264644 0.084660545 -0.54127675
0.7534446 0.13990772 -0.36717752 -0.6169937 0.014236337 0.5303751 -0.093385965 0.5384847
0.5716467 -0.1414797 0.008699795 0.5151393 -0.5358351 -0.5544138 -0.09742164 -0.7242939
0.6999987 0.40361407 0.67134285 -0.03458717 -0.076240525 0.58322364 0.43969032 0.105324596
-0.88421917 -0.41413766 -0.118915744 0.7524693 -0.535099 -0.5735412 -0.08465961 0.59652823

model.lstm.weight_ih_l1 f4 [128, 32]
00000000: a5aa 953f da91 bfbc ce72 283d fec5 4bbe
00000010: 62cc 12bf b299 acbf 42a3 0a3f 8845 8dbf
00000020: 3b50 a3bf 32c3 15be 4e6f b3bd a59b 913f
00000030: 74f6 04bf 8dc1 d43e a884 cf3d fc1e 1d3f
00000040: e64d 5bbf 6e9e 8a3f a679 90bf b5d5 8b3e
00000050: 4844 323f 529e 863f 24f5 7dbf 7e23 76bf
00000060: 1844 8f3f f644 093f 5a49 813b e80b 933f
00000070: fe59 de3e cca1 3bbf 577b 03bf 7c9a 94bf
00000080: 1462 ba3f bc8f 153e 18f2 e7bb 9e19 733e
00000090: c8a9 293f 2853 88bf 938a f2be 3329 b0bf
000000a0: ab5d 49bf b568 113e 816e 0e3e 69b7 933f
000000b0: 5021 2b3f 0d9a ddbe 0f0b 42bd 1b4e 35bf
000000c0: 6945 99bf b0c1 a93f 5aa9 92bf 5d92 10be
000000d0: ecef 3cbf 3e41 9b3f a358 aebf 2449 a2bf
000000e0: c71e 583f c990 ccbe 6268 cb3d 7410 943f
000000f0: a789 04bf 5889 e83e 344d 203f 57dc 87bf
00000100: b338 9c3f 1b1a 06be 6989 903e 57d7 f8be
00000110: c989 f5be a042 97bf e5d2 dc3e 4992 7abf
00000120: a176 8dbf d69b 8a3d 705d f83d 349d 9f3f
00000130: 6120 1bbf cced 083f 1ca1 8d3c 71f8 303f
00000140: 862b 8ebf dbfc 803f b751 8cbf 6149 9e3e
00000150: 4fde 1a3f 4b6a a23f 77c0 54bf a2b5 67bf
00000160: 6b0e 883f a516 1e3f e3ff 0bbd de44 873f
00000170: 40f4 e83e a3cb e1be b054 3cbf 9a8a 8bbf
00000180: 0f75 8a3f 25c1 c13d 88ec 3b3e 69bf 4dbe
00000190: c3e4 f4be 68a3 97bf f0fd f13e 56b3 8fbf
000001a0: 4c90 93bf 8799 26be 79b1 ebbd 78a2 8d3f
000001b0: 1bc6 33bf e24b 063e 801d acbd 706a f43e
000001c0: 0e15 6cbf ef59 9b3f d9ed 61bf ac80 593e
000001d0: 7a5d 223f cb70 843f c650 74bf f987 7cbf
000001e0: f870 8d3f b083 0f3f a63d 9d3d e2b0 783f
000001f0: 9d44 d23e c4ae f0be ac37 dabe 5877 89bf
00000200: b59c 883f ef5d db3d 27ae 173e b54d a4be
00000210: 0dea 1bbf c670 87bf 892b de3e dd6b 8ebf
00000220: 5421 8abf e9ca f43d 9a60 96bd 8fda 8c3f
00000230: 6201 30bf ab74 103f df20 7b3d a0bc 133f
00000240: 5f3e 8dbf 93f1 853f 1db0 65bf 77e8 0a3e
00000250: eef3 3f3f cdc7 893f 0183 7cbf d2a8 78bf
00000260: f87c 903f 52a6 223f 3750 cbbd f07c 843f
00000270: 170a 7c3e 2339 e6be ad82 f6be 9728 8fbf
00000280: b5f3 633f f124 4fbd 212f 8f3e 363c a4be
00000290: 2006 15bf 17b1 89bf 4956 0d3f 9aed 83bf
000002a0: cb28 9abf 2cbc 763c ea22 c9bc 1e92 9c3f
000002b0: a785 15bf 2ca5 d73e 57b3 473d 82f8 f03e
000002c0: dd16 74bf ae59 883f 0e83 5fbf 0f72 153d
000002d0: b4bb e63e 2a23 a03f 7c50 80bf 8535 74bf
000002e0: 8c16 923f 5f52 0d3f d096 83bc 2ffa 983f
000002f0: 8829 db3e 1d7b 2fbf f069 21bf 846d 91bf
00000300: 4c24 ad3f 5e5a 473d 00b5 0fbe b971 883e
00000310: 7e9f 2f3f d855 88bf 8a74 c7be d635 a2bf
00000320: f4b6 94bf 2069 6cbd 68a8 96bd e45c a83f
00000330: 9c2e 023f e0b7 fdbe 318e 9fbd 3f41 09bf
00000340: 2085 98bf 06f1 a33f d329 8fbf 8139 8dbd
00000350: 330a 2ebf 63ac 8c3f d37c 98bf 9714 99bf
00000360: 1a90 8d3f 4790 2abf 2480 3b3c 5627 943f
00000370: 3234 eebe 43c2 fa3e 3472 f93e 4227 87bf
00000380: e68d 703f 9b4f 9e3c c4f4 7c3e d803 84be
00000390: cca1 2fbf 8345 a8bf ed9e 2b3f 1753 8ebf
000003a0: 545c a5bf 1199 ecbd b4ae 133e 87fa 8a3f
000003b0: f131 1dbf 2e79 123f d460 013d 164b 233f
000003c0: f8ef 6dbf f081 8f3f 0e31 7dbf ee8f 263d
000003d0: c38b dc3e 9ac0 883f ba38 6abf 71f2 77bf
000003e0: 75fa 973f 76b2 ea3e 86bb c33d 7175 9b3f
000003f0: 2146 b23e bfec 07bf f459 d4be 1d94 8dbf
1.1692702 -0.023384977 0.04112511 -0.19899747 -0.57343113 -1.3484404 0.5415536 -1.1036844
-1.2758859 -0.14625242 -0.08761464 1.1375624 -0.5193856 0.41553918 0.10132724 0.61375403
-0.8566574 1.0829599 -1.1287124 0.27311483 0.6963544 1.0517066 -0.9920218 -0.96147907
1.1192656 0.5362085 0.0039455118 1.1488008 0.43428034 -0.7329376 -0.51360077 -1.1609645
1.4561181 0.14605612 -0.0070784204 0.23740241 0.6627469 -1.0650377 -0.4737135 -1.3762573
-0.7865855 0.14200099 0.13909341 1.1540347 0.66847706 -0.43281594 -0.047373828 -0.70822304
-1.1974307 1.3262234 -1.1457932 -0.14118333 -0.7380359 1.2129285 -1.36208 -1.2678571
0.8442196 -0.39954212 0.09932019 1.1567521 -0.5177254 0.45417285 0.626178 -1.0614117
1.2204803 -0.13095896 0.28229836 -0.4860179 -0.47956684 -1.1817207 0.4312965 -0.97879463
-1.1051828 0.067680046 0.12127197 1.246985 -0.6059628 0.5348785 0.017288737 0.6912909
-1.1107032 1.0077165 -1.0962437 0.3091536 0.60495466 1.2688688 -0.8310618 -0.90511525
1.06294 0.617533 -0.03417958 1.0567892 0.45498848 -0.44100675 -0.7356672 -1.0901673
1.0816973 0.094606675 0.18351948 -0.20092548 -0.4783078 -1.1846743 0.4726405 -1.1226604
-1.1528411 -0.16269504 -0.115084596 1.1065207 -0.7022416 0.13114884 -0.08404064 0.47737455
-0.92219627 1.213682 -0.8825355 0.2124049 0.63423884 1.0346922 -0.9543575 -0.9864498
1.10501 0.56060314 0.07677774 0.971449 0.41067973 -0.47008336 -0.426206 -1.0739546
1.0672823 0.10711276 0.14812528 -0.32090536 -0.6090401 -1.0581291 0.4339259 -1.1126667
-1.0791421 0.119527645 -0.07342644 1.1004199 -0.6875211 0.5642802 0.061310645 0.57709694
-1.1034659 1.0464348 -0.8972185 0.13565241 0.7498158 1.0764099 -0.98637396 -0.971326
1.1288137 0.63535035 -0.09927409 1.0350628 0.24613224 -0.44965467 -0.48146573 -1.1184262
0.8904374 -0.05057234 0.27965644 -0.32077187 -0.5821247 -1.0757169 0.55209786 -1.0306885
-1.2043699 0.015059512 -0.024552781 1.2232091 -0.5840706 0.42118204 0.048755016 0.47064596
-0.95347387 1.0652368 -0.8730935 0.036485728 0.4506508 1.2510731 -1.0024562 -0.95394164
1.1413131 0.55203813 -0.016063124 1.195135 0.42805123 -0.6854723 -0.6305227 -1.1361547
1.3526702 0.048670165 -0.1403389 0.26649264 0.6860274 -1.0651197 -0.389561 -1.267268
-1.1618333 -0.057717443 -0.0735634 1.3153348 0.5085237 -0.49554348 -0.07790793 -0.5361518
-1.1915627 1.280793 -1.1184639 -0.068957336 -0.6798431 1.0990108 -1.1913093 -1.1959409
1.1059601 -0.666264 0.011444125 1.1574504 -0.46524197 0.48976335 0.48719943 -1.0558856
0.9396652 0.019325068 0.24702746 -0.25784183 -0.6860626 -1.3146213 0.67039376 -1.1119107
-1.2918801 -0.115526326 0.14422113 1.0857705 -0.6140433 0.57216156 0.031586483 0.6378645
-0.9294429 1.1211529 -0.98902977 0.040664606 0.4307538 1.0683777 -0.9149281 -0.9685431
1.1873308 0.4583928 0.09557252 1.2145215 0.3481913 -0.5309562 -0.4147488 -1.1060826

model.lstm.weight_hh_l1 f4 [128, 32]
00000000: 5f85 203e dec0 6a3c 6593 0fbe f825 fcbd
00000010: ee33 923d 09ef af3d 02b4 353c 6d49 d23c
00000020: 5f79 153d 1eed ddbd 753b 89bc 6602 01be
00000030: c15e e0bd 491b 07be a1b7 40bc 078f 0cbd
00000040: b7ee e53d a30c 173e 216b 6ebc a541 7a3d
00000050: d585 103e 763b 09be 7dd4 c9bd aa9b 69bd
00000060: 6f3e e4bc 9041 ed3c 420a 28be 48c1 9fbd
00000070: 4e04 f63d 0fa3 b73d 7026 15bd 3ba8 993c
00000080: 767c 66bc b732 9cbd 3ef1 b1bc d4a8 1ebd
00000090: 308b cfbc 8c8b 0c3e d435 673d fef0 0a3e
000000a0: 97f4 25be 86f4 c3bc 2d53 84bd 818b 0a3e
000000b0: 43a2 b43c e0dd e63d e2f2 b53c b0b5 443d
000000c0: d763 693d dff9 273d d5b6 7abd b118 1a3e
000000d0: c5db d6bd d46a 243d b6ff c93c 05b1 7a3d
000000e0: 954d 2e3e 18a7 f93d 102d 37bd dabc e4bd
000000f0: e40a bfbd 3cbe 983d c25e 263e 41f3 2dbe
00000100: 786c 1b3e 5663 0abe 454d b9bc 2419 cf3d
00000110: 1d01 db3d 1fc6 083e ab89 1bbd faa1 a8bd
00000120: 58de 56bd e7ea 083d 9cef d13d 968a 1fbe
00000130: 1022 093d 8863 1ebe 8b1a 29be f120 00be
00000140: 3549 033e 9820 d7bd f94a 913d 1a55 fcbd
00000150: 3758 ec3d 706a e23d 1586 4cbd e7c5 ccbd
00000160: ac5d 193d 864c 25bd d4da cd3d eafd 7bbd
00000170: 485b 98bd a1e0 953d c1b8 67bd d0e7 f03d
00000180: 0f08 e7bd 41d2 24be 1451 d7bd 2d8c 1f3e
00000190: 8225 113e e439 08be a7d1 c9bd ca54 97bd
000001a0: 0764 233d c6b9 27bd 2b06 183e b386 813d
000001b0: fbf9 27be 057c e3bd c947 e33c a5c4 163e
000001c0: 0f3c c73c 2213 aa3d 2770 833d fa26 173e
000001d0: 1171 1abe 7375 e43d e549 2dbe 029d 39bd
000001e0: b1cc 6f3d d01a 403d a58f 76bd 19d0 213e
000001f0: c2db 183e 450d e6bd 8dfa 233e 4c24 233e
00000200: 7ccb fabc 193e e53c 3e73 c7bd 28d1 1c3e
00000210: 0a25 91bd 3110 da3d da6a 28be 2a86 06be
00000220: 9bd6 013e b409 32bd 1220 2c3d a9fa 90bd
00000230: 7015 1abd 2baf c23d 493c a6bd aa21 153c
00000240: b2d9 3ebc a4f7 d33d 9fe1 e4bd a585 18bd
00000250: 2a71 a53d f0da 893d 207b 2a3d 2c4f b6bc
00000260: 90f1 34bd 0ca7 253e 029d 913d 5a46 b83d
00000270: 2236 083e c766 0abd 4b34 b33d 0763 84bc
00000280: c25e 453d d5c2 15be 1e6b 88bd 7a04 0e3e
00000290: 410e 113e a965 f43d 6f7e 62bd 0aaf 7cbd
000002a0: 0dfe 213d 5dee 053d 9a31 22be ea42 f4bd
000002b0: bf70 1ebe 6349 b7bd 9846 053e 453d 47bd
000002c0: 5a89 67bd 3360 de3b e5f3 643d 9116 5d3d
000002d0: 1b60 623b 0c83 03bd 671d 14be 9749 86bd
000002e0: 8b54 2d3d b144 9f3d 5549 b63d cc27 c0bd
000002f0: 09ce cc3c b81a 30bd f9b1 37bd 620b ae3d
00000300: 7397 6bbd 5598 103e bb30 6c3c 907f c7bd
00000310: 7359 b93d 55b4 10be bc54 023e c1c8 e6bc
00000320: 9eaa 843d 11bd 6fbc 8947 0bbe d3b0 9e3d
00000330: 73ac a0bc 4d8e 40bd 14b4 2bbc 1787 153d
00000340: 3a85 03bd d524 c93d 8500 df3d 23ce af3d
00000350: 193a 073d 13d1 eebd db7b f9bd 211d 113e
00000360: bba9 e23b 2203 b7b9 afe5 e93d d774 b2bd
00000370: 817d 183e e47b b3bb ca5f 13be cbab 0dbd
00000380: 099a 03be 8770 70bd 8adb 11be 7630 863d
00000390: 4cf3 0d3e 61fd 8cbd ff54 88bd e82d 063e
000003a0: d031 0d3e 58aa 95bb 1176 a5bd 2006 d6bd
000003b0: 8796 17be 681a 7c3c 15ed 1ebe a31d cb3d
000003c0: ba38 08be 0c6c 9b3d 097a 7fbc 3431 0f3e
000003d0: 4666 db3d 53a1 573d d693 b33c c75f 0a3e
000003e0: 5bc1 22bd 56c7 0c3e c8b4 92bc deec 083e
000003f0: 7363 b4bc a7a5 c9bd 290d b93d 8bf2 f43b
0.15675877 0.01432821 -0.1402107 -0.123119295 0.07138811 0.08590514 0.0110902805 0.025669778
0.0364927 -0.10836242 -0.016751984 -0.12598571 -0.10955573 -0.13194002 -0.011762531 -0.03431609
0.11227172 0.14750914 -0.014551909 0.06109776 0.14113553 -0.13401589 -0.09854982 -0.05703322
-0.027861802 0.028961927 -0.16410163 -0.07800537 0.1201254 0.08966648 -0.03641361 0.018756976
-0.01406776 -0.076268606 -0.021721479 -0.038735226 -0.025334924 0.13725108 0.05644782 0.13568494
-0.16206585 -0.023920309 -0.06461177 0.13529779 0.022050029 0.11272788 0.022210542 0.048024833
0.05697998 0.04100978 -0.06120952 0.15048482 -0.104911365 0.04014094 0.024658065 0.061203975
0.17021783 0.12190074 -0.04472071 -0.11168833 -0.09328249 0.07458159 0.16247085 -0.16987325
0.15178096 -0.13514456 -0.022619853 0.10112217 0.10693572 0.13356827 -0.037973087 -0.082340196
-0.052458137 0.033427145 0.1025078 -0.1558021 0.03347975 -0.15467656 -0.16514032 -0.12512566
0.12820895 -0.10504264 0.07094378 -0.12320919 0.11540263 0.110554576 -0.049932558 -0.099986844
0.037442848 -0.04035618 0.10051504 -0.06152145 -0.074392855 0.07318235 -0.05657268 0.11762965
-0.11280834 -0.1609583 -0.10513511 0.15580817 0.14174464 -0.13303334 -0.09854441 -0.07389219
0.039890315 -0.04094865 0.14846103 0.0632452 -0.16403954 -0.11107639 0.02774419 0.14723451
0.02432063 0.083044305 0.06417876 0.14760962 -0.15082194 0.11155214 -0.1692272 -0.04531575
0.05854482 0.04690057 -0.060195584 0.15802039 0.14927581 -0.11233 0.16013546 0.15931815
-0.030614607 0.027983712 -0.097387776 0.15314162 -0.07087143 0.106476195 -0.1644701 -0.13137117
0.12679522 -0.043466285 0.042022772 -0.0707906 -0.0376181 0.09506067 -0.08116967 0.009102264
-0.011648582 0.10349968 -0.11175846 -0.03723683 0.08078225 0.06731212 0.041621327 -0.022254549
-0.044175684 0.16177005 0.07110025 0.089977935 0.133019 -0.033789422 0.087502085 -0.016160501
0.04818607 -0.14625104 -0.06661056 0.13868895 0.14165594 0.11933453 -0.055296358 -0.061690368
0.039548922 0.032698024 -0.15839234 -0.11926825 -0.15472697 -0.08949544 0.1301521 -0.048642416
-0.056527473 0.00678637 0.05589666 0.0539766 0.0034542147 -0.032107398 -0.14464341 -0.06557005
0.042316955 0.07776774 0.08900706 -0.09382591 0.025000589 -0.04299423 -0.044847462 0.08498265
-0.05751748 0.1412061 0.014415915 -0.097411275 0.09050264 -0.14131291 0.12727636 -0.028171899
0.06477855 -0.014632479 -0.13601507 0.0774857 -0.01961348 -0.04701071 -0.010479946 0.036505785
-0.032109477 0.09821478 0.10888771 0.08584239 0.03301439 -0.116609715 -0.12181827 0.14171268
0.006917206 -0.00034906814 0.11420762 -0.08713692 0.14891626 -0.0054774154 -0.1439201 -0.034587663
-0.12851728 -0.058701064 -0.14243904 0.06552212 0.13862342 -0.06884266 -0.06656837 0.1310345
0.13788533 -0.0045674257 -0.0807916 -0.10450387 -0.14803515 0.015387155 -0.15520127 0.09917762
-0.1330289 0.07588968 -0.01559306 0.13983613 0.107128665 0.052644085 0.02192108 0.13513099
-0.03973518 0.13747916 -0.017908469 0.13371608 -0.022020077 -0.09846049 0.09035713 0.0074752024

model.lstm.bias_ih_l1 f4 [128]
00000000: 1c80 9f3f 2620 663f b3d9 a73f abcd 9b3f
00000010: 7974 ab3f 0567 973f e078 9a3f 4f12 893f
00000020: 2a20 2cbf 1479 36bf 2254 65bf 2c47 913f
00000030: f59d 5c3f 4976 6abf 2567 ac3f da90 993f
00000040: 11cf 6b3f 3982 803f 8897 8a3f f92f 703f
00000050: a331 933f 5b1d 2dbf 180d a63f 0034 993f
00000060: 87df 933f 58b8 7e3f 5713 9f3f c412 19bf
00000070: 1546 b03f 5298 9b3f 2044 3ebf 6ad3 8b3f
00000080: b836 36bd a8c7 e73d 916c 0f3e c4b3 1b3e
00000090: 99f8 c7bd 52e1 05be 4393 dbbd 8e78 713d
000000a0: a54d 52bd 9920 8fbd 2ed4 8ebd 97f1 1bbe
000000b0: 38a3 133d ae66 deb7 e61c 87bd a396 063e
000000c0: 3f90 37bc f97b c63d 8554 b83d aa6e a33b
000000d0: 009a fb3d 7635 b93d 43e7 873d 72e8 fdba
000000e0: d5db fa3d 6e06 feba e616 0dbd cbc1 26be
000000f0: 2e17 eb3d 5ac2 ea3d b7c8 de3d bcfd 6cbd
00000100: 3a60 7b3f a9fc 21bf 2c59 88bf 2f47 513f
00000110: 4c76 6c3f c114 6b3f a014 4f3f 5f55 733f
00000120: fb29 d73e d60a 13be 4806 093e 9454 7c3f
00000130: 6aaf 35bf 543b 113e 4cd3 60bf 04f4 81bf
00000140: 9f89 2b3f a5b4 193f 7ea4 3f3f 1b54 19bf
00000150: 1bb3 6f3f fd69 a7bd b773 64bf ea92 6ebf
00000160: 1e4b 443f af6d 23bf d55d 823f ea31 c0bd
00000170: 62eb 5fbf 8449 83bf 8042 8cbe 5a3e dabf
00000180: 1618 a13f b326 5d3f 99ed 923f 40d7 953f
00000190: 9c50 9b3f ec7a 933f d4d2 803f 16f7 ae3f
000001a0: 950b 06bf 5c49 3dbf 6f18 37bf edb6 9a3f
000001b0: 6c63 663f 668f 54bf 133a 903f be15 9d3f
000001c0: 4989 833f 02b0 8a3f f243 a33f 1c48 793f
000001d0: 7a7e 8c3f e2f5 09bf 019e 9e3f 8d00 933f
000001e0: d0a6 a23f 3155 813f fa30 983f 2760 1ebf
000001f0: 84eb 9d3f a8b3 a13f d838 5abf d45f 8d3f
1.2460971 0.89892805 1.3113312 1.217214 1.339492 1.1828314 1.2068138 1.0708712
-0.6723658 -0.712785 -0.895815 1.1349845 0.86178523 -0.9158674 1.3468977 1.199733
0.92112833 1.0039741 1.0827494 0.938232 1.1499523 -0.6762292 1.2972746 1.1968994
1.155259 0.99500036 1.2427777 -0.5979426 1.3771387 1.215586 -0.743227 1.0923893
-0.044485778 0.11317378 0.14006259 0.15205294 -0.09764213 -0.13074234 -0.10721447 0.05895286
-0.05134358 -0.069886394 -0.06974064 -0.15228878 0.03604433 -2.6512276e-05 -0.06597309 0.13143401
-0.011203825 0.09691615 0.09000496 0.0049875574 0.122852325 0.090434 0.066359065 -0.0019371642
0.12248961 -0.0019380578 -0.034445666 -0.16284864 0.114790305 0.11462851 0.10878127 -0.057859167
0.98193705 -0.63276154 -1.0652213 0.8174924 0.92368007 0.9182854 0.80890846 0.9505214
0.42024216 -0.14359602 0.13381302 0.98566556 -0.70970786 0.14182788 -0.87822413 -1.0152593
0.6700687 0.60041267 0.7486037 -0.5989396 0.9363267 -0.081745125 -0.89239067 -0.93192923
0.7667712 -0.6383924 1.0184885 -0.0938452 -0.8746854 -1.025681 -0.27394485 -1.7050278
1.2585475 0.86387175 1.1478759 1.1706314 1.2133975 1.1521888 1.006434 1.3669155
-0.5236142 -0.7394006 -0.7152166 1.2087075 0.89995456 -0.8303131 1.1267723 1.227226
1.0276271 1.0834963 1.275511 0.97375655 1.0976098 -0.5389081 1.2391969 1.1484543
1.2707157 1.0104123 1.1889946 -0.61865467 1.2337499 1.2632952 -0.85242987 1.104487

model.lstm.bias_hh_l1 f4 [128]
00000000: 488f 8f3f 0938 923f 6792 ac3f 091c 8e3f
00000010: 8115 8b3f 8d59 9d3f 09ae 7c3f 1f8f 933f
00000020: 1325 2fbf af83 68bf 8ee0 24bf 38cb 883f
00000030: 6af6 6a3f 5d27 48bf 43f7 b23f 75a4 943f
00000040: d8e9 6b3f ef42 963f 6387 a93f 3121 683f
00000050: fedb 913f ba14 17bf 51fc 8f3f 64db 9e3f
00000060: 7554 883f 81fc 8f3f fef0 ad3f c6f9 59bf
00000070: 9157 a33f a44c 8f3f a0c5 78bf 9d21 703f
00000080: d12d bb3c a8e1 493c 3e7c 9ebd c777 16be
00000090: 3d64 ea3c 62c4 fb3d d938 d6bd 0d03 6fbc
000000a0: f34b 463c 5880 93bc ff74 953b 1cce ac3d
000000b0: 34b0 8e3d 17af db3d b1cd 92bd e370 c2bd
000000c0: f0f6 b53d 275c 08be f83f 58bd b57d 623d
000000d0: 8a40 213d 3afc 8b3b 7fd5 a23d b11f 063e
000000e0: 8995 59bd 215c afbc a41e 52bd c232 233e
000000f0: c78c b4bc e924 fb3d cc24 af3d a406 eebd
00000100: 967e 883f 5f85 00bf 0aab 8abf b564 453f
00000110: b618 573f bc7b 633f 79aa 243f 0c4e 783f
00000120: 350c e43e b238 32be 2d97 393c 4240 5a3f
00000130: 68f8 1bbf bd06 31bd 3d5e 50bf cb7b 7cbf
00000140: cc39 0f3f 02af 4a3f 9722 7d3f eeb3 66bf
00000150: 2084 633f f5de 923d 535b 78bf 9a55 7cbf
00000160: 0d2a 883f 485d 24bf 9cbd 513f 006c bcbd
00000170: e654 47bf 7f18 7ebf 72f8 adbe 405d f9bf
00000180: 4b11 a63f cb96 593f 8642 b03f ab67 993f
00000190: e6c5 9b3f 0297 ae3f 11a6 ab3f 3625 943f
000001a0: 69ed 56bf 96a0 5bbf 8187 26bf 5071 a63f
000001b0: 677b 573f a943 45bf b8e1 963f 89f1 b13f
000001c0: 32f9 833f 8318 9a3f 17ed a73f 6190 963f
000001d0: 542e 973f 253e 43bf 95ba a03f 7f2f 9d3f
000001e0: b98b 8d3f 40a0 883f 39d6 9f3f 3e0d 20bf
000001f0: e352 923f 4e37 a93f d810 3abf 9545 8a3f
1.1215601 1.142335 1.3482178 1.1102306 1.0865937 1.2292954 0.98703057 1.1528052
-0.68415946 -0.90825933 -0.64405143 1.0687017 0.9178225 -0.78185064 1.3981708 1.1612688
0.9215369 1.1739177 1.3244442 0.90675646 1.1395261 -0.59016 1.1248876 1.2410703
1.0650774 1.1248933 1.358917 -0.8514675 1.2761098 1.1195264 -0.9717655 0.9380129
0.022848995 0.012321867 -0.07738541 -0.14694129 0.02861225 0.122933164 -0.104600616 -0.01458813
0.012103069 -0.018005535 0.004561066 0.0843775 0.06967202 0.10726755 -0.07168139 -0.09494188
0.0888499 -0.13316403 -0.05279538 0.055295665 0.03936819 0.004272011 0.079508774 0.13098027
-0.053121123 -0.021406235 -0.051298752 0.15937331 -0.022039784 0.122628994 0.0855194 -0.1162236
1.0663631 -0.5020351 -1.0833447 0.7710679 0.8402208 0.8886068 0.6432262 0.9699409
0.44540563 -0.1740444 0.011327547 0.852543 -0.6092591 -0.043219317 -0.81393796 -0.98626393
0.55947566 0.7917329 0.98880905 -0.901183 0.8887348 0.07171432 -0.9701435 -0.9856812
1.0637833 -0.64204836 0.81929946 -0.09200287 -0.7786392 -0.9925613 -0.3397861 -1.9481583
1.2974027 0.84995717 1.3770301 1.1984762 1.2169769 1.3639834 1.3410054 1.1573856
-0.8395601 -0.8579191 -0.6505051 1.300333 0.8417267 -0.77056366 1.1787634 1.3901836
1.0310423 1.203873 1.3119229 1.1762811 1.1811013 -0.762667 1.255694 1.228012
1.1058265 1.0673904 1.248725 -0.62520206 1.1431545 1.3220003 -0.7268195 1.0802485

model.linear.weight f4 [1, 32]
00000000: 66d4 2941 ceba 2ec1 1dde 29c1 128f 2a41
00000010: e5f3 2a41 6560 2a41 e5e3 2a41 f3d0 2a41
00000020: 769f d5be ffc2 8c3e dda2 d43e 9cd2 2a41
00000030: 6315 31c1 5053 f5be 6e78 2ac1 4e57 2bc1
00000040: 03ce 2a41 3c4f 2d41 b7c4 2a41 cd5c 2ec1
00000050: d207 2c41 3879 c73e 7cdd 2ac1 a745 2ac1
00000060: 3d1f 2c41 4e3b 2bc1 21f0 2941 4127 fa3d
00000070: 7c71 2ac1 0dfb 2bc1 4238 29be 5628 2ec1
10.614355 -10.920607 -10.616727 10.659929 10.684545 10.648534 10.680638 10.676013
-0.41723222 0.2749252 0.41530505 10.676418 -11.067721 -0.47915125 -10.654402 -10.708815
10.675296 10.831844 10.673026 -10.897656 10.751909 0.3895967 -10.679073 -10.642005
10.757627 -10.701979 10.621125 0.12214518 -10.652706 -10.748792 -0.16525367 -10.884848

exp_avg f4 [128, 1]
00000000: c2d2 f796 a9c2 0598 9bcf 3618 deb9 2d13
00000010: 86ec 4720 ad87 402b 364b f11c 4bc1 5996
00000020: 7a96 4933 506b 8c15 94e0 6a28 871f 55a0
00000030: 1b72 1020 1c19 3115 874b 6a1c a4f3 2a20
00000040: 8713 2996 bc58 0ea5 9a31 84a5 3004 1901
00000050: 9b14 3721 b984 5aa1 5800 3ea5 65c4 68a7
00000060: 0000 0000 feaa 601d 980e e616 7f6a 329c
00000070: ddbb a00e c3f7 0818 920c 2422 f49b ca9c
00000080: 0000 0000 0000 0000 0000 0000 0000 0000
00000090: 0000 0000 0000 0000 0000 0000 0000 0000
000000a0: 0000 0000 0000 0000 0000 0000 0000 0000
000000b0: 0000 0000 0000 0000 0000 0000 0000 0000
000000c0: 0000 0000 0000 0000 0000 0000 0000 0000
000000d0: 0000 0000 0000 0000 0000 0000 0000 0000
000000e0: 0000 0000 0000 0000 0000 0000 0000 0000
000000f0: 0000 0000 0000 0000 0000 0000 0000 0000
00000100: 0000 0000 0000 0000 0000 0000 b26b d196
00000110: 5eb4 de97 2945 991c ae53 341c 24a7 c816
00000120: 0000 0000 f24b a10e 0000 0000 20a9 3e9d
00000130: 0000 0000 04f8 e81b 0000 0000 0000 0000
00000140: 0000 0000 0000 0000 0000 0000 6465 1a12
00000150: 0000 0000 0000 0000 d3f1 1116 0000 0000
00000160: d2fc cda1 0000 0000 c866 eb93 0000 0000
00000170: 0000 0000 0000 0000 0000 0000 2f01 2d1d
00000180: fb26 b2a5 a1c2 0598 71b6 9118 2e8b 101a
00000190: 6348 e613 cbed 0ea1 0000 0000 17fc 2fa7
000001a0: 505d 88a5 7fc9 8915 e1e0 6a28 e8b0 5ea0
000001b0: 533b 8f1d 0660 fc1a 7e4b 6a1c b585 6b24
000001c0: 7c71 8ea4 7a51 9c99 ff61 099a a2e3 ee16
000001d0: 008f 9715 235b 65a2 7a48 a899 fade 6096
000001e0: 994f af31 b461 681d 8b99 e716 28b1 06a7
000001f0: a57b cc1a 518a 3e1d 70fd 6e0b 5455 67a4
-4.003801e-25 -1.7288125e-24 2.3627763e-24 2.192731e-27 1.6934215e-19 6.840039e-13 1.5967484e-21 -1.7590113e-25
4.6935817e-08 5.671486e-26 1.3038307e-14 -1.8052233e-19 1.2235029e-19 3.5764673e-26 7.752172e-22 1.4480174e-19
-1.3657873e-25 -1.2346601e-16 -2.293196e-16 2.8104666e-38 6.2030083e-19 -7.403693e-19 -1.647999e-16 -3.2302933e-15
0.0 2.9734554e-21 3.7167714e-25 -5.9032903e-22 3.962395e-30 1.7702676e-24 2.22328e-18 -1.3407552e-21
0.0 0.0 0.0 0.0 0.0 0.0 0.0 0.0
0.0 0.0 0.0 0.0 0.0 0.0 0.0 0.0
0.0 0.0 0.0 0.0 0.0 0.0 0.0 0.0
0.0 0.0 0.0 0.0 0.0 0.0 0.0 0.0
0.0 0.0 0.0 -3.3833736e-25 -1.4391945e-24 1.0142568e-21 5.966516e-22 3.2417223e-25
0.0 3.9762697e-30 0.0 -2.5233726e-21 0.0 3.8541457e-22 0.0 0.0
0.0 0.0 0.0 4.8718805e-28 0.0 0.0 1.1789313e-25 0.0
-1.3958261e-18 0.0 -5.942369e-27 0.0 0.0 0.0 0.0 2.2896971e-21
-3.0904492e-16 -1.728811e-24 3.766584e-24 2.989093e-23 5.813154e-27 -4.842619e-19 0.0 -2.4422787e-15
-2.365547e-16 5.5651764e-26 1.3038372e-14 -1.8862665e-19 3.7913125e-21 1.0437989e-22 7.7521677e-22 5.1070756e-17
-6.1774933e-17 -1.616293e-23 -2.8410097e-23 3.859463e-25 6.121403e-26 -3.1083535e-18 -1.7400066e-23 -1.8164935e-25
5.1022195e-09 3.0755456e-21 3.7416962e-25 -1.8692272e-15 8.457218e-23 2.5217799e-21 4.6027798e-32 -5.0162416e-17

exp_avg_sq f4 [128, 1]
00000000: 5a4f fa23 763a f51f a73b 8d26 bf16 7f1c
00000010: 5be9 a836 9d1a 542b ef0c f62f c425 ad22
00000020: 505f fa35 51a7 2621 2311 0316 6e09 8836
00000030: 2859 3036 f288 8420 10ab be1e cc01 7736
00000040: 7c5f ed21 43ba 0a40 9177 ef40 0000 0000
00000050: 60a6 8d38 23c8 c938 051e 4840 5a81 9644
00000060: 0000 0000 d14f d530 1244 7123 2571 2d2e
00000070: a25c 5a13 0a90 1e26 0f19 773a ee7a ad2f
00000080: 0000 0000 0000 0000 0000 0000 0000 0000
00000090: 0000 0000 0000 0000 0000 0000 0000 0000
000000a0: 0000 0000 0000 0000 0000 0000 0000 0000
000000b0: 0000 0000 0000 0000 0000 0000 0000 0000
000000c0: 0000 0000 0000 0000 0000 0000 0000 0000
000000d0: 0000 0000 0000 0000 0000 0000 0000 0000
000000e0: 0000 0000 0000 0000 0000 0000 0000 0000
000000f0: 0000 0000 0000 0000 0000 0000 0000 0000
00000100: 0000 0000 0000 0000 0000 0000 4057 b923
00000110: b999 d125 c98d 462f c36b 892e 7425 aa23
00000120: 0000 0000 d4e4 5b13 0000 0000 509f 9930
00000130: 0000 0000 845d e52d 0000 0000 0000 0000
00000140: 0000 0000 0000 0000 0000 0000 4b7a 491a
00000150: 0000 0000 0000 0000 dd09 0e22 0000 0000
00000160: 6350 b339 0000 0000 e7a1 041e 0000 0000
00000170: 0000 0000 0000 0000 0000 0000 98f9 7c30
00000180: 7417 3041 b83e f51f 9774 3327 6096 302a
00000190: 241c e01d 13aa 2c38 0000 0000 4607 2c44
000001a0: 34de fe40 e376 2021 5611 0316 926c 9536
000001b0: 8d65 2d31 a195 062c 472e b91e cc6b ea3e
000001c0: 4698 de3e 8387 4e29 e6af ee29 bc2b f123
000001d0: 173d 4221 0dc0 d93a ca2b ff28 901a aa22
000001e0: b013 f72b da35 e430 8f7e 7423 42a7 f843
000001f0: 4cb4 b02b a86d 9930 0000 0000 e12c b73e
2.7138661e-17 1.0385825e-19 9.800009e-16 8.440182e-22 5.0339563e-06 7.5354463e-13 4.475633e-10 4.693173e-18
1.8654191e-06 5.646443e-19 1.0587503e-25 4.0542136e-06 2.627794e-06 2.2452293e-19 2.0187782e-20 3.6806914e-06
1.6085019e-18 2.1676185 7.4833455 0.0 6.754394e-05 9.621705e-05 3.1268322 1204.0422
0.0 1.5520475e-09 1.3079051e-17 3.943614e-11 2.756114e-27 5.501247e-16 0.0009426036 3.1555863e-10
0.0 0.0 0.0 0.0 0.0 0.0 0.0 0.0
0.0 0.0 0.0 0.0 0.0 0.0 0.0 0.0
0.0 0.0 0.0 0.0 0.0 0.0 0.0 0.0
0.0 0.0 0.0 0.0 0.0 0.0 0.0 0.0
0.0 0.0 0.0 2.0094692e-17 3.6359887e-16 1.8058367e-10 6.249181e-11 1.8447299e-17
0.0 2.7754507e-27 0.0 1.1177494e-09 0.0 2.6075815e-11 0.0 0.0
0.0 0.0 0.0 4.1664613e-23 0.0 0.0 1.924981e-18 0.0
0.00034201433 0.0 7.0215024e-21 0.0 0.0 0.0 0.0 9.203176e-10
11.005726 1.03865296e-19 2.4904444e-15 1.5684112e-13 5.9321403e-21 4.116639e-05 0.0 688.11365
7.9646244 5.4367454e-19 1.0587566e-25 4.4531853e-06 2.5232538e-09 1.9125606e-12 1.9606777e-20 0.45785367
0.4347555 4.5858726e-14 1.0599837e-13 2.6147795e-17 6.581061e-19 0.0016613022 2.8329678e-14 4.6106716e-18
1.755587e-12 1.6604489e-09 1.3254066e-17 497.3067 1.2555595e-12 1.1163381e-09 0.0 0.35776427

exp_avg f4 [128, 32]
00000000: 0000 0000 0000 0000 0000 0000 0000 0000
00000010: 0000 0000 0000 0000 0000 0000 0000 0000
00000020: 0000 0000 0000 0000 0000 0000 0000 0000
00000030: 0000 0000 0000 0000 0000 0000 0000 0000
00000040: 0000 0000 0000 0000 0000 0000 0000 0000
00000050: 0000 0000 0000 0000 0000 0000 0000 0000
00000060: 0000 0000 0000 0000 0000 0000 0000 0000
00000070: 0000 0000 0000 0000 0000 0000 0000 0000
00000080: 0000 0000 0000 0000 0000 0000 0000 0000
00000090: 0000 0000 0000 0000 0000 0000 0000 0000
000000a0: 0000 0000 0000 0000 0000 0000 0000 0000
000000b0: 0000 0000 0000 0000 0000 0000 0000 0000
000000c0: 0000 0000 0000 0000 0000 0000 0000 0000
000000d0: 0000 0000 0000 0000 0000 0000 0000 0000
000000e0: 0000 0000 0000 0000 0000 0000 0000 0000
000000f0: 0000 0000 0000 0000 0000 0000 0000 0000
00000100: 0000 0000 0000 0000 0000 0000 0000 0000
00000110: 0000 0000 0000 0000 0000 0000 0000 0000
00000120: 0000 0000 0000 0000 0000 0000 0000 0000
00000130: 0000 0000 0000 0000 0000 0000 0000 0000
00000140: 0000 0000 0000 0000 0000 0000 0000 0000
00000150: 0000 0000 0000 0000 0000 0000 0000 0000
00000160: 0000 0000 0000 0000 0000 0000 0000 0000
00000170: 0000 0000 0000 0000 0000 0000 0000 0000
00000180: 0000 0000 0000 0000 0000 0000 0000 0000
00000190: 0000 0000 0000 0000 0000 0000 0000 0000
000001a0: 0000 0000 0000 0000 0000 0000 0000 0000
000001b0: 0000 0000 0000 0000 0000 0000 0000 0000
000001c0: 0000 0000 0000 0000 0000 0000 0000 0000
000001d0: 0000 0000 0000 0000 0000 0000 0000 0000
000001e0: 0000 0000 0000 0000 0000 0000 0000 0000
000001f0: 0000 0000 0000 0000 0000 0000 0000 0000
00000200: 0000 0000 0000 0000 0000 0000 0000 0000
00000210: 0000 0000 0000 0000 0000 0000 0000 0000
00000220: 0000 0000 0000 0000 0000 0000 0000 0000
00000230: 0000 0000 0000 0000 0000 0000 0000 0000
00000240: 0000 0000 0000 0000 0000 0000 0000 0000
00000250: 0000 0000 0000 0000 0000 0000 0000 0000
00000260: 0000 0000 0000 0000 0000 0000 0000 0000
00000270: 0000 0000 0000 0000 0000 0000 0000 0000
00000280: 0000 0000 0000 0000 0000 0000 0000 0000
00000290: 0000 0000 0000 0000 0000 0000 0000 0000
000002a0: 0000 0000 0000 0000 0000 0000 0000 0000
000002b0: 0000 0000 0000 0000 0000 0000 0000 0000
000002c0: 0000 0000 0000 0000 0000 0000 0000 0000
000002d0: 0000 0000 0000 0000 0000 0000 0000 0000
000002e0: 0000 0000 0000 0000 0000 0000 0000 0000
000002f0: 0000 0000 0000 0000 0000 0000 0000 0000
00000300: 0000 0000 0000 0000 0000 0000 0000 0000
00000310: 0000 0000 0000 0000 0000 0000 0000 0000
00000320: 0000 0000 0000 0000 0000 0000 0000 0000
00000330: 0000 0000 0000 0000 0000 0000 0000 0000
00000340: 0000 0000 0000 0000 0000 0000 0000 0000
00000350: 0000 0000 0000 0000 0000 0000 0000 0000
00000360: 0000 0000 0000 0000 0000 0000 0000 0000
00000370: 0000 0000 0000 0000 0000 0000 0000 0000
00000380: 0000 0000 0000 0000 0000 0000 0000 0000
00000390: 0000 0000 0000 0000 0000 0000 0000 0000
000003a0: 0000 0000 0000 0000 0000 0000 0000 0000
000003b0: 0000 0000 0000 0000 0000 0000 0000 0000
000003c0: 0000 0000 0000 0000 0000 0000 0000 0000
000003d0: 0000 0000 0000 0000 0000 0000 0000 0000
000003e0: 0000 0000 0000 0000 0000 0000 0000 0000
000003f0: 0000 0000 0000 0000 0000 0000 0000 0000
0.0 0.0 0.0 0.0 0.0 0.0 0.0 0.0
0.0 0.0 0.0 0.0 0.0 0.0 0.0 0.0
0.0 0.0 0.0 0.0 0.0 0.0 0.0 0.0
0.0 0.0 0.0 0.0 0.0 0.0 0.0 0.0
0.0 0.0 0.0 0.0 0.0 0.0 0.0 0.0
0.0 0.0 0.0 0.0 0.0 0.0 0.0 0.0
0.0 0.0 0.0 0.0 0.0 0.0 0.0 0.0
0.0 0.0 0.0 0.0 0.0 0.0 0.0 0.0
0.0 0.0 0.0 0.0 0.0 0.0 0.0 0.0
0.0 0.0 0.0 0.0 0.0 0.0 0.0 0.0
0.0 0.0 0.0 0.0 0.0 0.0 0.0 0.0
0.0 0.0 0.0 0.0 0.0 0.0 0.0 0.0
0.0 0.0 0.0 0.0 0.0 0.0 0.0 0.0
0.0 0.0 0.0 0.0 0.0 0.0 0.0 0.0
0.0 0.0 0.0 0.0 0.0 0.0 0.0 0.0
0.0 0.0 0.0 0.0 0.0 0.0 0.0 0.0
0.0 0.0 0.0 0.0 0.0 0.0 0.0 0.0
0.0 0.0 0.0 0.0 0.0 0.0 0.0 0.0
0.0 0.0 0.0 0.0 0.0 0.0 0.0 0.0
0.0 0.0 0.0 0.0 0.0 0.0 0.0 0.0
0.0 0.0 0.0 0.0 0.0 0.0 0.0 0.0
0.0 0.0 0.0 0.0 0.0 0.0 0.0 0.0
0.0 0.0 0.0 0.0 0.0 0.0 0.0 0.0
0.0 0.0 0.0 0.0 0.0 0.0 0.0 0.0
0.0 0.0 0.0 0.0 0.0 0.0 0.0 0.0
0.0 0.0 0.0 0.0 0.0 0.0 0.0 0.0
0.0 0.0 0.0 0.0 0.0 0.0 0.0 0.0
0.0 0.0 0.0 0.0 0.0 0.0 0.0 0.0
0.0 0.0 0.0 0.0 0.0 0.0 0.0 0.0
0.0 0.0 0.0 0.0 0.0 0.0 0.0 0.0
0.0 0.0 0.0 0.0 0.0 0.0 0.0 0.0
0.0 0.0 0.0 0.0 0.0 0.0 0.0 0.0

exp_avg_sq f4 [128, 32]
00000000: 0000 0000 0000 0000 0000 0000 0000 0000
00000010: 0000 0000 0000 0000 0000 0000 0000 0000
00000020: 0000 0000 0000 0000 0000 0000 0000 0000
00000030: 0000 0000 0000 0000 0000 0000 0000 0000
00000040: 0000 0000 0000 0000 0000 0000 0000 0000
00000050: 0000 0000 0000 0000 0000 0000 0000 0000
00000060: 0000 0000 0000 0000 0000 0000 0000 0000
00000070: 0000 0000 0000 0000 0000 0000 0000 0000
00000080: 0000 0000 0000 0000 0000 0000 0000 0000
00000090: 0000 0000 0000 0000 0000 0000 0000 0000
000000a0: 0000 0000 0000 0000 0000 0000 0000 0000
000000b0: 0000 0000 0000 0000 0000 0000 0000 0000
000000c0: 0000 0000 0000 0000 0000 0000 0000 0000
000000d0: 0000 0000 0000 0000 0000 0000 0000 0000
000000e0: 0000 0000 0000 0000 0000 0000 0000 0000
000000f0: 0000 0000 0000 0000 0000 0000 0000 0000
00000100: 0000 0000 0000 0000 0000 0000 0000 0000
00000110: 0000 0000 0000 0000 0000 0000 0000 0000
00000120: 0000 0000 0000 0000 0000 0000 0000 0000
00000130: 0000 0000 0000 0000 0000 0000 0000 0000
00000140: 0000 0000 0000 0000 0000 0000 0000 0000
00000150: 0000 0000 0000 0000 0000 0000 0000 0000
00000160: 0000 0000 0000 0000 0000 0000 0000 0000
00000170: 0000 0000 0000 0000 0000 0000 0000 0000
00000180: 0000 0000 0000 0000 0000 0000 0000 0000
00000190: 0000 0000 0000 0000 0000 0000 0000 0000
000001a0: 0000 0000 0000 0000 0000 0000 0000 0000
000001b0: 0000 0000 0000 0000 0000 0000 0000 0000
000001c0: 0000 0000 0000 0000 0000 0000 0000 0000
000001d0: 0000 0000 0000 0000 0000 0000 0000 0000
000001e0: 0000 0000 0000 0000 0000 0000 0000 0000
000001f0: 0000 0000 0000 0000 0000 0000 0000 0000
00000200: 0000 0000 0000 0000 0000 0000 0000 0000
00000210: 0000 0000 0000 0000 0000 0000 0000 0000
00000220: 0000 0000 0000 0000 0000 0000 0000 0000
00000230: 0000 0000 0000 0000 0000 0000 0000 0000
00000240: 0000 0000 0000 0000 0000 0000 0000 0000
00000250: 0000 0000 0000 0000 0000 0000 0000 0000
00000260: 0000 0000 0000 0000 0000 0000 0000 0000
00000270: 0000 0000 0000 0000 0000 0000 0000 0000
00000280: 0000 0000 0000 0000 0000 0000 0000 0000
00000290: 0000 0000 0000 0000 0000 0000 0000 0000
000002a0: 0000 0000 0000 0000 0000 0000 0000 0000
000002b0: 0000 0000 0000 0000 0000 0000 0000 0000
000002c0: 0000 0000 0000 0000 0000 0000 0000 0000
000002d0: 0000 0000 0000 0000 0000 0000 0000 0000
000002e0: 0000 0000 0000 0000 0000 0000 0000 0000
000002f0: 0000 0000 0000 0000 0000 0000 0000 0000
00000300: 0000 0000 0000 0000 0000 0000 0000 0000
00000310: 0000 0000 0000 0000 0000 0000 0000 0000
00000320: 0000 0000 0000 0000 0000 0000 0000 0000
00000330: 0000 0000 0000 0000 0000 0000 0000 0000
00000340: 0000 0000 0000 0000 0000 0000 0000 0000
00000350: 0000 0000 0000 0000 0000 0000 0000 0000
00000360: 0000 0000 0000 0000 0000 0000 0000 0000
00000370: 0000 0000 0000 0000 0000 0000 0000 0000
00000380: 0000 0000 0000 0000 0000 0000 0000 0000
00000390: 0000 0000 0000 0000 0000 0000 0000 0000
000003a0: 0000 0000 0000 0000 0000 0000 0000 0000
000003b0: 0000 0000 0000 0000 0000 0000 0000 0000
000003c0: 0000 0000 0000 0000 0000 0000 0000 0000
000003d0: 0000 0000 0000 0000 0000 0000 0000 0000
000003e0: 0000 0000 0000 0000 0000 0000 0000 0000
000003f0: 0000 0000 0000 0000 0000 0000 0000 0000
0.0 0.0 0.0 0.0 0.0 0.0 0.0 0.0
0.0 0.0 0.0 0.0 0.0 0.0 0.0 0.0
0.0 0.0 0.0 0.0 0.0 0.0 0.0 0.0
0.0 0.0 0.0 0.0 0.0 0.0 0.0 0.0
0.0 0.0 0.0 0.0 0.0 0.0 0.0 0.0
0.0 0.0 0.0 0.0 0.0 0.0 0.0 0.0
0.0 0.0 0.0 0.0 0.0 0.0 0.0 0.0
0.0 0.0 0.0 0.0 0.0 0.0 0.0 0.0
0.0 0.0 0.0 0.0 0.0 0.0 0.0 0.0
0.0 0.0 0.0 0.0 0.0 0.0 0.0 0.0
0.0 0.0 0.0 0.0 0.0 0.0 0.0 0.0
0.0 0.0 0.0 0.0 0.0 0.0 0.0 0.0
0.0 0.0 0.0 0.0 0.0 0.0 0.0 0.0
0.0 0.0 0.0 0.0 0.0 0.0 0.0 0.0
0.0 0.0 0.0 0.0 0.0 0.0 0.0 0.0
0.0 0.0 0.0 0.0 0.0 0.0 0.0 0.0
0.0 0.0 0.0 0.0 0.0 0.0 0.0 0.0
0.0 0.0 0.0 0.0 0.0 0.0 0.0 0.0
0.0 0.0 0.0 0.0 0.0 0.0 0.0 0.0
0.0 0.0 0.0 0.0 0.0 0.0 0.0 0.0
0.0 0.0 0.0 0.0 0.0 0.0 0.0 0.0
0.0 0.0 0.0 0.0 0.0 0.0 0.0 0.0
0.0 0.0 0.0 0.0 0.0 0.0 0.0 0.0
0.0 0.0 0.0 0.0 0.0 0.0 0.0 0.0
0.0 0.0 0.0 0.0 0.0 0.0 0.0 0.0
0.0 0.0 0.0 0.0 0.0 0.0 0.0 0.0
0.0 0.0 0.0 0.0 0.0 0.0 0.0 0.0
0.0 0.0 0.0 0.0 0.0 0.0 0.0 0.0
0.0 0.0 0.0 0.0 0.0 0.0 0.0 0.0
0.0 0.0 0.0 0.0 0.0 0.0 0.0 0.0
0.0 0.0 0.0 0.0 0.0 0.0 0.0 0.0
0.0 0.0 0.0 0.0 0.0 0.0 0.0 0.0
