dl_computer_vision/assignments/1/checkpoints/best_checkpoint-v15.ckpt (torch, 75964 bytes, 27 tensors)

model.lstm.weight_ih_l0 f4 [80, 1]
00000000: 959d b4c1 072f b3c1 2b1a b341 e29d a040
00000010: c1b4 b3c1 22bf 5641 7720 d53d c20e b5c1
00000020: 09ce b441 7810 b441 003b b541 d51d b441
00000030: 54fb 8bbd e225 b441 d7de 00be f57f b2c1
00000040: e8c2 b4c1 2c43 b4c1 238c 3e3e d620 b441
00000050: af3f 1b3e 1b6c 8dbd aacc da3c 23a8 423e
00000060: da13 4abe d392 fcbd 908d 513d d5b1 00bd
00000070: 3e75 9bbd ea95 91bd a8d8 4f3e e6a1 9c3c
00000080: 47d8 62be 9205 37be 0d92 f2bd 56e7 c8bd
00000090: 185e ebbc be89 153e 38a1 2e3e bcf8 21be
000000a0: 6621 443e 8a46 ef3d c195 f03d 2f68 9fbf
000000b0: 4273 123e 9c4c 9b3e dbac 29be 5913 b241
000000c0: 9c97 553e d298 593e 6acf b441 1642 5bbe
000000d0: bfd7 21be c2ac e1bd 954f 333e 2424 2d3c
000000e0: 9ba6 223e 078f 003e 1132 e93d 5793 b441
000000f0: 107f b2c1 65da 9ac0 8781 b341 ea39 1f3e
00000100: 0f02 b4c1 977c b041 f6c9 9a41 3a76 92c1
00000110: e5c3 b441 30fb 6741 cc77 b441 9643 b341
00000120: db95 353e acb4 b341 6039 38be 8202 b3c1
00000130: 9ca1 4a3e 8d39 b5c1 ba37 3b3e f222 b541
-22.576944 -22.397963 22.387777 5.019273 -22.463259 13.421663 0.10406583 -22.632206
22.600603 22.508041 22.653809 22.514566 -0.068350464 22.518497 -0.12585007 -22.312479
-22.59517 -22.532799 0.18608145 22.516033 0.15161012 -0.06905385 0.02670892 0.19009452
-0.19734135 -0.12332692 0.051160395 -0.031419594 -0.075907215 -0.07108672 0.20297492 0.019120168
-0.22152816 -0.17873219 -0.11844263 -0.09809749 -0.02873139 0.14603326 0.17053688 -0.15817541
0.19153365 0.11683376 0.11747313 -1.2453669 0.1430178 0.30331886 -0.16569845 22.259447
0.20858616 0.21249703 22.601276 -0.21411929 -0.15804957 -0.11019279 0.17510827 0.010567699
0.15883867 0.1255456 0.113865025 22.571943 -22.312042 -4.8391595 22.438246 0.15549436
-22.501005 22.060835 19.348614 -18.307728 22.595652 14.498825 22.558495 22.408
0.17732947 22.463219 -0.17990637 -22.376225 0.19788212 -22.653101 0.18282977 22.642063

model.lstm.weight_hh_l0 f4 [80, 20]
00000000: bc8f cd3c 9252 49bd 07a3 1cbe b1f7 33be
00000010: f576 e43d 9bbf febd a999 a8bd 39a2 083d
00000020: 071d 113d 885a c53d 3798 35be 7dde 02be
00000030: 6d80 f03d 2a78 d7bc 2a13 01be b68f 50bc
00000040: b625 bb3d d453 f63d bb1b 2a3e 88d5 07be
00000050: 2112 b13c 2986 a63d 7285 21be 0bbc 83bd
00000060: a9a3 1d3c 3a26 aabd 93eb 2b3d 2fb6 403e
00000070: 2749 a3bd 602a 0fbe 822a 303e 2183 80bd
00000080: fa3a 303e d9ef 44be 3969 913c db04 153e
00000090: dbf1 393e 7640 05be 80d0 06be 5c35 48bb
000000a0: 366f ac3d f46e 263e ec83 bcbd c226 603e
000000b0: da88 4cbe 94d8 91bc 2972 953d 0de6 25be
000000c0: 79e4 39bd 2543 953d 68c7 8dbb 599a 41be
000000d0: af31 cebd 61ea 5b3d 45ba 2a3e be83 12be
000000e0: b24b 9bbd c05c 38be a982 223e b614 2cbe
000000f0: ed67 0dbe da5d b43d 1dab 3ebe a54c 26be
00000100: 7c20 0cbe 804f 12be aeab 4a3d 63ab 523e
00000110: 81e4 593d 2dc0 5ebe ac5e 9b3d 5644 1fbe
00000120: 5971 2bbd 5055 4a3e 6d11 08be b7ff 51be
00000130: 222b e8bb 68cb 4c3e 1cf8 fe3d b31c 56be
00000140: 3106 433e 3185 303e b7f2 36be a31c ed3d
00000150: 585f dfbd 2235 d43d 6883 adbd be67 3d3e
00000160: a8f0 20be 2cf1 6c3d 9325 bc3d 40f4 07be
00000170: f9fa 22be b97f 50bd 9a1c 06be 4a14 583e
00000180: da03 35be bdc5 11be 5111 e6bd efff 823d
00000190: 7847 01be d016 323e 50fc 19bc bafd 383e
000001a0: 3783 edbc 425d 52be e184 3f3e 3891 01be
000001b0: d766 8f3d b8c5 e9bd a86c db3d 1b3e 363c
000001c0: ace4 b23d 6c73 2ebd 2561 073e f4f5 d53d
000001d0: 19d0 a33d 99e1 babd ed16 3f3e 000a 9cbd
000001e0: 3869 2e3e eb0a d1bc 13d0 e1bd d880 aabd
000001f0: 536b 37be d84e b5bc ec82 89bd 1f77 873d
00000200: c5c4 0ebe d4f5 283e cfa3 fdbd 4bd3 5dbd
00000210: cf25 8c3d 77fa f3bd 539c 56be 24b9 db3d
00000220: e950 593e 3938 5abe 3a74 3cbe cf54 5a3d
00000230: 64d7 12be 0db8 533d 7788 6bbb 58be 243e
00000240: ff08 233e 63c7 bf3d 20af dc3d eeeb 483e
00000250: 5a31 b23d caea 133e d7bc 1fbe 14db 64be
00000260: f677 0bbe 2746 16bd de84 a1bc a0f1 d1bd
00000270: 28b2 80bd f8bb 1fbe 5196 2ebe ce42 d0bd
00000280: 94ab 163e 2439 543e b4c7 86bd 5267 ddbd
00000290: a03d 19be c4bf 35be 4946 1bbe 8695 dd3d
000002a0: aae6 113d 3cd5 493e 5c17 4f3e bcb5 fa3d
000002b0: d6b2 4abd dbbb 463d b99a b83d ff1b 8c3d
000002c0: f151 833a 5183 f7bd 321d 313b 8561 3ebe
000002d0: c363 45be 1059 9f3d df61 56be 2f3f f5bd
000002e0: 2427 2ebe f878 e43d 3ac0 4cbc c949 63bd
000002f0: 6a40 253e 5dd0 173e e463 063d 69fa ecbd
00000300: fa09 d5bd 910d 9e3d 0b97 b53d e580 dd3c
00000310: 496d 5d3e 7e41 4d3e 65d6 3a3e 676a c2bd
00000320: 62c9 0b3e 11fe e23d 4b26 75bd 194d 63be
00000330: 558f f4bc 9d84 2fbe 52cc 99bd f6c0 b13d
00000340: 14d1 4a3d a179 253e 1d3b 3e3e cda3 00bc
00000350: ef0a ca3d cafa ed3c 025d 993d 1caa 59be
00000360: 0274 dd3d 4912 f8bd 294b 463d fc48 2b3d
00000370: 315b 21bd a9fb 273e 97b6 c03b 4fdc 343e
00000380: 1907 1bbe 3824 163e 86b2 4f3e 43ab 2c3e
00000390: 51a7 5c3e 9070 27be 15c7 53be d37a 4c3e
000003a0: 2fef db3c 7d67 613e db90 12be 2603 05bd
000003b0: f5f7 94bd bd95 2ebe ac12 5abe 9d63 8fbd
000003c0: 8968 3abe e55f ea3d 340e 643e 5a59 e93d
000003d0: b885 193e e238 b9bd 7833 3abe 9142 a1bd
000003e0: 68ac a4bd c1c5 06be 76b2 e33d cd55 5abe
000003f0: ba6d c2bd 74ec 83bb 965c 433e c701 54be
0.025092952 -0.04915101 -0.15296565 -0.17574956 0.11155502 -0.124388896 -0.08232433 0.033357833
0.035428073 0.09636408 -0.17733847 -0.12780185 0.11743245 -0.026302416 -0.12604967 -0.012729576
0.09138052 0.12027708 0.16612141 -0.1326505 0.02161509 0.08131058 -0.15773562 -0.06432351
0.009621539 -0.083080724 0.041972708 0.18819498 -0.07972937 -0.13981009 0.17203715 -0.06275011
0.17209998 -0.1923212 0.01775037 0.14552633 0.18158667 -0.13012871 -0.13165474 -0.0030549383
0.08419649 0.16253263 -0.092048496 0.21889785 -0.1997408 -0.017803468 0.07297165 -0.16201039
-0.045383904 0.072881974 -0.0043267496 -0.18906535 -0.1006807 0.053690318 0.16672619 -0.14308068
-0.07582797 -0.18004131 0.15870155 -0.16804776 -0.13809176 0.08806963 -0.18619962 -0.16240175
-0.13684267 -0.1428814 0.049480133 0.20573191 0.053196434 -0.21752997 0.075864166 -0.15553412
-0.041856144 0.19759107 -0.13287897 -0.20507704 -0.00708522 0.19999468 0.12449667 -0.20909385
0.1904533 0.17238308 -0.17866026 0.11577728 -0.10906857 0.10361697 -0.084723294 0.18496606
-0.15716803 0.057847187 0.09186854 -0.13276768 -0.15916051 -0.050903056 -0.13096848 0.2110149
-0.1767725 -0.14235587 -0.112337716 0.06396472 -0.1262492 0.17391515 -0.009398535 0.18065539
-0.028993232 -0.20543388 0.18703033 -0.12653053 0.07002037 -0.11414665 0.10714084 0.011123206
0.08735022 -0.042590544 0.13220651 0.104473025 0.07998676 -0.091250606 0.18661089 -0.07619095
0.17032325 -0.025517901 -0.11026015 -0.08325356 -0.17912035 -0.022132322 -0.067144245 0.066145174
-0.13942249 0.16500026 -0.1238476 -0.054156583 0.06843149 -0.11913007 -0.2095807 0.10728672
0.21222271 -0.2131051 -0.18403712 0.053303536 -0.14339978 0.051689196 -0.0035939494 0.16088235
0.159214 0.09364202 0.1077559 0.1962125 0.08700819 0.14445034 -0.1559938 -0.22349197
-0.1361998 -0.036687996 -0.019716676 -0.102511644 -0.062839806 -0.15599048 -0.17049529 -0.10168992
0.1471389 0.20724922 -0.06581059 -0.108107224 -0.14964914 -0.17748934 -0.1516353 0.10819535
0.03562037 0.19710249 0.20223755 0.12241694 -0.049486957 0.048518997 0.09013886 0.06841277
0.0010018927 -0.120855935 0.0027025458 -0.18591888 -0.19276337 0.07780659 -0.20935772 -0.11974942
-0.17007118 0.111558855 -0.012497002 -0.05549029 0.16137853 0.14825578 0.032810107 -0.115711994
-0.104022935 0.07717431 0.088667 0.027039 0.2162372 0.20044515 0.18245848 -0.09492951
0.1365104 0.110836156 -0.059850972 -0.22197379 -0.029853502 -0.17140432 -0.07509674 0.086793825
0.0495158 0.16159679 0.18577237 -0.007851553 0.09865367 0.02905025 0.07488443 -0.21256298
0.10813142 -0.121128626 0.048411522 0.04181765 -0.039393608 0.16404594 0.0058811414 0.17662166
-0.15139426 0.14662254 0.20282945 0.16862206 0.21548201 -0.16351533 -0.20681413 0.19968729
0.02684745 0.22012134 -0.1431307 -0.032473706 -0.072738566 -0.17049308 -0.21296185 -0.070014216
-0.1820394 0.11444072 0.22271043 0.113939956 0.14992416 -0.09044053 -0.18183696 -0.07874025
-0.080406964 -0.13161375 0.11118023 -0.21321793 -0.09493585 -0.00402599 0.19078287 -0.20703803

model.lstm.bias_ih_l0 f4 [80]
00000000: 1589 b4c1 d614 17c1 dd27 8e41 d317 56bd
00000010: f7f4 b2c1 d02c 823e 88c5 da3d cd6c b3c1
00000020: 088e b441 f5b2 b541 abed b141 f1f5 9d41
00000030: efa4 87bc 48b8 b341 93a2 5b3d 0069 21c1
00000040: 4521 b4c1 fb5e abc1 aa75 e73d 03d9 b441
00000050: 1200 403d 6c4c 8bbd df0a 41be cc76 023e
00000060: d164 373c f64c 413e 4441 37bd 7a2d 293e
00000070: 71ca 033e c427 18be fb3a 493b c049 fdbd
00000080: 902b 06be c018 253e 4eda 62be fe3a 123d
00000090: 924d f9bc 65bc 243e 78e1 50bd 4503 d5bc
000000a0: c79e 173e bc95 91bd 6d17 21be 31dd 763b
000000b0: 2eba 753c 2386 0a3e b4f9 f0bd 7fdc 2f41
000000c0: c024 d3bc 2171 63be 403b ad41 2dd9 743d
000000d0: 175e 1d3d 027a 5e3e 1531 563c 4cd3 1f3e
000000e0: 2402 fd3d 1903 973c 134f a9bd 4a04 b341
000000f0: 5981 6cc1 6ea1 05be 45fc 8e41 2952 b7bd
00000100: de4e b3c1 1885 1241 c755 b53f b848 97bf
00000110: 44d6 b241 210f b83e ecf0 b541 0fc4 aa41
00000120: abea 013e 8bb7 b341 2481 423e 1a2c 1ec1
00000130: 2fad 4e3e 0691 aec1 70db 21be 1a22 b241
-22.566935 -9.442587 17.769464 -0.052268814 -22.369612 0.25424814 0.10682207 -22.428125
22.569351 22.712381 22.241049 19.745089 -0.016558139 22.464981 0.05362184 -10.088135
-22.516245 -21.421377 0.113017395 22.605963 0.046875067 -0.06801686 -0.18851803 0.1274063
0.01119347 0.18877015 -0.044739977 0.16521254 0.12870194 -0.1485892 0.003070532 -0.12367582
-0.13102555 0.16122723 -0.22153589 0.03570079 -0.030432496 0.16087492 -0.050996274 -0.026002536
0.14806662 -0.07108638 -0.15731592 0.0037668461 0.014998002 0.13527732 -0.11766377 10.991332
-0.02577436 -0.22211124 21.65393 0.059777427 0.03841981 0.2172623 0.0130732255 0.15607947
0.12353924 0.018434094 -0.08267035 22.377094 -14.781579 -0.13049862 17.873178 -0.08951218
-22.41351 9.157494 1.4166802 -1.1819067 22.354622 0.35949042 22.742638 21.345732
0.12687175 22.46462 0.18994576 -9.885767 0.20183252 -21.820812 -0.15806365 22.266651

model.lstm.bias_hh_l0 f4 [80]
00000000: a24f b5c1 b164 19c1 3be1 8d41 afb1 a3bc
00000010: f33d b5c1 b277 6a3e 057b a9bd dc09 b4c1
00000020: 592c b441 c684 b341 3a1c b141 05a4 9b41
00000030: d50a 38bd fb5a b241 e3b1 4cbd 3d78 21c1
00000040: d156 b5c1 80e3 aac1 3dac 8cbd 0b76 b341
00000050: fbd8 e43a b948 133e a9f1 01be 7954 64be
00000060: d9ab d23d eaa0 573d 9dd6 abbd a04f d23d
00000070: 958e b2bd ab68 d13d 5de7 303e 6180 0e3e
00000080: 73d1 a03d 3625 ea3d 6593 583e f62b 53be
00000090: b7ba 1abc 97b2 2ebc 38d6 223e 4304 81bd
000000a0: 6034 a53c d3b4 8f3d 1ee8 01bd 96a7 4abe
000000b0: 69d1 9bbd 6044 a93d b0ca a1bd f879 3041
000000c0: c431 4d3d 9e4f 063e 5f24 ab41 8ffa 20be
000000d0: 7e4c 603d d995 36be 4490 1ebd 3a24 643e
000000e0: 8c67 a2bc 12f4 00be 3ad3 293e 789a b541
000000f0: 47b2 67c1 4332 b5bd 9308 8e41 020a 013c
00000100: bac0 b3c1 d77a 1241 55a2 c13f 2eaa 65bf
00000110: 9598 b541 57ec b13e dcab b241 3199 ac41
00000120: f9d5 0e3b 7a8c b341 c18a 453e 90d1 21c1
00000130: 20b3 edbc 7fb4 aec1 763c febd 1dff b041
-22.663883 -9.587083 17.734976 -0.019982187 -22.655249 0.22897223 -0.08275417 -22.504814
22.521654 22.43983 22.138783 19.455088 -0.044932205 22.294424 -0.049974333 -10.091855
-22.66739 -21.361084 -0.06868789 22.432638 0.0017459685 0.1438321 -0.12689842 -0.22297849
0.102866836 0.052643694 -0.083905436 0.102690935 -0.087186016 0.10225042 0.17275758 0.1391616
0.07852449 0.11432879 0.21149977 -0.20622239 -0.00944393 -0.010662696 0.1590203 -0.06299641
0.020166576 0.07016911 -0.031715505 -0.19790491 -0.07608301 0.082649946 -0.07899988 11.029778
0.05009629 0.13116309 21.39276 -0.1572058 0.05476045 -0.178306 -0.0387118 0.22279444
-0.019824766 -0.12593105 0.16584483 22.700424 -14.481025 -0.08847477 17.754187 0.007875921
-22.469105 9.15499 1.5127665 -0.897128 22.699503 0.34750625 22.333916 21.5748
0.0021795018 22.443592 0.19291212 -10.113663 -0.029016078 -21.838133 -0.12413876 22.124567

model.lstm.weight_ih_l1 f4 [80, 20]
00000000: 8aa2 b441 6681 d940 7377 6441 d0c6 1abd
00000010: 2ee8 b541 125d fd40 368a 0abf 439e b5c1
00000020: fb0d b641 0ef7 b441 2b56 b341 c091 acc1
00000030: de7b e1bd 62f5 b4c1 ff58 3fbe cc07 21c1
00000040: 7d11 b341 8a26 ad41 9737 b341 1ce6 b441
00000050: 630b b4c1 270b c0c0 5e00 50c1 cfe0 e2bd
00000060: 63a9 b3c1 ff02 d0c0 d9eb c03e a1a9 b541
00000070: ba41 b3c1 89f2 b5c1 28b9 b2c1 1608 ac41
00000080: 998c 193e c94c b241 94ae e0bc b701 0741
00000090: fa16 b5c1 4ec4 acc1 76f0 b5c1 4843 b3c1
000000a0: 6ef1 b241 1e74 c440 f111 5841 3b70 4e3d
000000b0: c354 b541 efb5 da40 5854 22bf c3f1 b2c1
000000c0: b9bb b541 ff33 b341 a1aa b441 da16 acc1
000000d0: 33bf 96bd db86 b2c1 520c 63be bf49 0fc1
000000e0: a7c1 b541 9958 ac41 df1b b641 9e4c b541
000000f0: 751d b3c1 2059 54be 8146 abbf 527c 193d
00000100: 1b5a b5c1 e02b 15bf 2611 f43d 9774 b041
00000110: c905 b5c1 79cd b3c1 4308 b6c1 372c 3141
00000120: 3f6d 343e e1b0 a841 4033 f43d 6d95 2a3f
00000130: 48aa b5c1 b590 31c1 9bbb b3c1 1b90 b2c1
00000140: 991c b6c1 ff7a 8dc0 fdbb 31c1 3a69 fc3d
00000150: 17b5 b2c1 9161 9fc0 505d 913e 9546 b441
00000160: 6045 b3c1 9761 b3c1 38e1 b3c1 7d13 a941
00000170: f096 053e 7ea4 b341 153d d1bc c817 d540
00000180: ccc0 b3c1 ce32 a6c1 0a8b b4c1 1f63 b5c1
00000190: 4f98 b441 20f5 1640 d474 e040 577b f2bc
000001a0: 140e b341 2092 2d40 ed82 a2bd f287 b5c1
000001b0: 058f b341 db3a b441 b731 b441 933b 9ac1
000001c0: e95f 513e 93e5 b0c1 70ff 0bbe 4d74 6dc0
000001d0: d950 b441 b937 9a41 539b b241 fdd8 b441
000001e0: 67d3 b5c1 97f1 3ac0 3cd8 0ac1 23f3 8ebd
000001f0: de04 b3c1 3c59 5fc0 63a3 f43d b463 b541
00000200: e15e b5c1 02cc b4c1 40ed b4c1 ee23 9f41
00000210: bab6 a6bd 88c6 b441 9fc5 28bd 09dd a040
00000220: 0111 b6c1 36bd a0c1 e9f5 b2c1 4b32 b5c1
00000230: a354 b3c1 05b7 4abe c46a 52bf 1668 f73d
00000240: f0f6 b5c1 6b4e 1fbe 7b54 f2bd 33bd b041
00000250: 6ccb b3c1 5d1f b3c1 404a b3c1 be30 0e41
00000260: 7437 0d3e 6599 a641 bce1 31be 8e45 043f
00000270: 3ff5 b2c1 11bc 11c1 53af b3c1 9bc1 b3c1
00000280: ba3f b3c1 d564 f8bf a97b bbc0 510f 803d
00000290: ee36 b4c1 bf26 10c0 15a9 893e e931 b241
000002a0: 4f00 b3c1 e7f8 b2c1 2c0a b6c1 3ad4 9641
000002b0: 7390 8c3c bb37 b241 aa4b 9b3d 6a57 4340
000002c0: 5209 b5c1 600b 95c1 a066 b4c1 ee6c b3c1
000002d0: 5701 b541 69e7 5740 f011 1241 2849 f2bd
000002e0: 71ea b241 769f 6b40 48d3 62be 23ce b3c1
000002f0: a810 b441 6dc3 b241 c115 b641 3a5a a3c1
00000300: 8650 4a3e 8b8f b4c1 1075 36bd f93d a7c0
00000310: 5ace b341 c78f a141 f3e1 b341 31df b541
00000320: 5ddb b3c1 266a 4dbe 0cac 75bf 7409 c4bc
00000330: d75b b3c1 21ec bebd 010f fd3d d110 b041
00000340: 6fc3 b5c1 d178 b4c1 1dfd b5c1 69ac 0541
00000350: 11a8 40be 8da8 a241 2a0a 5c3d 7989 d43e
00000360: 4fd1 b5c1 aa72 06c1 4fe3 b2c1 c57e b3c1
00000370: c4e1 b341 b6dd ee3f 5878 cc40 d354 c03d
00000380: 120e b341 3a90 0940 bfe7 16be f7c1 b4c1
00000390: a9e6 b541 83bc b241 faa4 b241 2fc0 95c1
000003a0: 3a2e 26be ae88 b2c1 3b69 18bd 88d5 4fc0
000003b0: 1986 b341 ac6b 9441 569b b341 d231 b441
000003c0: e60f b3c1 24c9 53c0 14ce 14c1 2730 3f3d
000003d0: 6b9a b4c1 13bf 6cc0 0e49 a53e 1bad b241
000003e0: 5299 b3c1 c309 b6c1 1e16 b6c1 a335 a141
000003f0: 5e74 ee3d ac40 b341 1039 3dbe 07f7 aa40
22.579365 6.7970457 14.279162 -0.03778726 22.738369 7.917611 -0.54117143 -22.702276
22.756826 22.620632 22.417074 -21.571167 -0.11009954 -22.619816 -0.18686293 -10.064404
22.38354 21.643818 22.402143 22.612358 -22.50556 -6.0013614 -13.00009 -0.11078035
-22.457708 -6.5003657 0.37679937 22.707827 -22.407093 -22.743425 -22.340408 21.503948
0.1499504 22.287493 -0.027426995 8.437919 -22.636219 -21.595852 -22.742413 -22.407852
22.367886 6.1391745 13.50438 0.0504 22.666388 6.8347087 -0.6340995 -22.368048
22.716661 22.400389 22.583315 -21.511158 -0.07360687 -22.315847 -0.22172669 -8.955504
22.719557 21.54326 22.763609 22.66241 -22.389383 -0.20737123 -1.3380891 0.037472077
-22.668997 -0.5827007 0.11917333 22.056929 -22.627825 -22.475328 -22.754034 11.073295
0.17619799 21.086367 0.11923838 0.66634256 -22.708145 -11.097829 -22.466604 -22.320364
-22.763964 -4.421264 -11.108396 0.12324758 -22.338423 -4.98066 0.28391504 22.534464
-22.408875 -22.422651 -22.48497 21.134516 0.1304586 22.455318 -0.025541821 6.659153
-22.46914 -20.774807 -22.56789 -22.673399 22.57437 2.3587112 7.0142612 -0.029599829
22.381874 2.7120438 -0.07935128 -22.69138 22.444834 22.528738 22.524275 -19.279089
0.20446743 -22.112097 -0.1367166 -3.7102234 22.539476 19.277208 22.325842 22.605951
-22.728224 -2.9209955 -8.677792 -0.069799684 -22.377377 -3.4898214 0.11945226 22.673683
-22.671328 -22.599613 -22.615845 19.892544 -0.08140321 22.59694 -0.04120409 5.026982
-22.758303 -20.092388 -22.370073 -22.649557 -22.416327 -0.19796379 -0.8219416 0.120804
-22.745575 -0.15557258 -0.118325196 22.092382 -22.474327 -22.390314 -22.411255 8.8869
0.13790685 20.8249 -0.17371267 0.5166863 -22.36975 -9.108415 -22.460608 -22.469534
-22.406116 -1.9405771 -5.858845 0.062529214 -22.526821 -2.2523649 0.26886812 22.27437
-22.37515 -22.371534 -22.754967 18.853626 0.017158723 22.277212 0.07582791 3.0522103
-22.62955 -18.630554 -22.55011 -22.428188 22.625654 3.3734992 9.129379 -0.1183036
22.364473 3.6816077 -0.2215091 -22.475653 22.508133 22.345423 22.760622 -20.419056
0.1975728 -22.57009 -0.044545233 -5.226315 22.475758 20.195204 22.485327 22.73398
-22.482111 -0.20060024 -0.9596565 -0.023930289 -22.419844 -0.09322382 0.123563774 22.008211
-22.720427 -22.558992 -22.74859 8.354592 -0.18814112 20.3323 0.05372063 0.41511133
-22.727201 -8.402994 -22.36099 -22.4369 22.485237 1.8661411 6.3896904 0.09391179
22.38187 2.149428 -0.14736842 -22.59471 22.737627 22.342047 22.330555 -18.71884
-0.16228572 -22.316738 -0.03720973 -3.247408 22.440477 18.552574 22.450848 22.524326
-22.382763 -3.3091516 -9.300312 0.04667678 -22.5754 -3.6991622 0.322823 22.334524
-22.449863 -22.754766 -22.7608 20.15119 0.11643289 22.406578 -0.18478799 5.3426547

model.lstm.weight_hh_l1 f4 [80, 20]
00000000: 6744 0e3e fb81 25be 9f7f 05be 4449 e2bd
00000010: d0f3 543d 272e 1b3d 876a 2bbe 9a27 533a
00000020: ea8a dc3d 2c75 39bd 312a 013e 79bc 8abd
00000030: 45b9 4abe 4ba4 18be e957 493d e51e 8e3c
00000040: 650d 3a3d 3f80 333e 2b97 ebbd 5ecb e4bd
00000050: 7f35 88bd b267 2b3e 0c9c 903d 187e 6a3d
00000060: 57d7 86bd 4a2a 643d adf9 7f3d 5d9d 37be
00000070: 95bd 203e 6c35 25be e398 17bd 4fc5 d73c
00000080: 6a4c 45be 1c1f b0bd f239 ba3d 0ab5 d6bd
00000090: 703a 113e d86f e4bd cc58 0c3e d5f5 683d
000000a0: 9c5a 4b3e 8ec4 943d badd 24be 5f3a 2ebe
000000b0: c119 3ebd be55 9a3d 347d 813c f1fb 14be
000000c0: 8f32 1fbe 644e 17be 18b6 523e b6ac 543e
000000d0: 18a5 debc 1d26 033b b436 513e dae1 dabc
000000e0: 2e5e 81bd 955c 95bd dbd2 3bbe b7ad 283c
000000f0: d09a 42be 071c 703d d061 a8bd 629f 09be
00000100: 11fd fcbd b223 13be 66c6 3c3e 7d7a 613e
00000110: 2d5e 2ebd 0cc3 ba3d f3e4 44be 5db6 243e
00000120: 4df6 093e dd23 0e3e 5bac 2e3d a30c b9bd
00000130: a061 9c3d d066 d3bd e939 d43d c6d5 853d
00000140: 4e96 bf3d c6f4 433e 357a da3c 88f9 5abe
00000150: 01b9 9f3d e364 ddbd e526 5a3e 26e7 87bd
00000160: f2c2 cfbc bb70 2bbd 28c6 603e f253 073e
00000170: d2d5 d4bd 976b 793c ef56 4abe d1a3 2a3e
00000180: 2aeb 983d 2b7b 213e 56ef a43d 2dac 18bd
00000190: 0e5f 523d 1b04 403e 70d5 683d 65e1 e43d
000001a0: e201 5b3d 852e 873d 6fec 5c3e 822b b13c
000001b0: 05f7 0c3e 4d44 ee3d 0946 143c 7243 fc3d
000001c0: e5df 6a3d fbbb ec3d 1907 60be 196e debd
000001d0: 0295 283b 6ed6 d03c 515b 02be 5d56 3c3e
000001e0: 8e5e 323e b8e9 16bd e6de f6bd 0269 0c3e
000001f0: 388b 62be bd79 fbbc a27e 93bd a6da 503d
00000200: 1348 efbc 2ff0 44be 9d6f 0c3d 5096 05bd
00000210: ee51 58bd e57a 963d 91bb 4fbe 6fb5 b2bd
00000220: 4133 9d3d b1ba 9e3d e0cc 38be 535f 8fbc
00000230: e7ff 55be a42f 82bd 0f8c 033e b140 46be
00000240: 26ba 34bd a759 11be 8a6c 9c3d c01c 5e3e
00000250: 2e18 443e 300b 3b3d efa8 ed3d b583 0ebe
00000260: 13f8 dbbc b4ee 503e 41de 13bd 65e4 2d3e
00000270: 8042 263e e684 713d 12d3 7b3d 5b47 35be
00000280: 0340 d03d defc db3d 9b09 633e 03b6 cc3d
00000290: 5b12 843d 5254 7f3d cab1 0e3e 98e8 203e
000002a0: c225 a53d c562 85bb e2c9 e13d 12f1 1abe
000002b0: b343 3dbe 8c62 86bd 803d 5bbd 782c 49be
000002c0: 03f0 13be b89f 85bd 3777 68bd b9c2 58be
000002d0: 2f13 383e 47b8 c6bd 5f3e 1fbe 7e78 623e
000002e0: 5a1f 13be e353 0c3c 1cc8 8e3b 264e 3dbe
000002f0: ca3e a0bc 9fc0 4c3d c914 0f3e 8ae2 973b
00000300: 1522 9fbd 0bba febd b122 e0bd abfc 013e
00000310: 7909 503e f8ee 453e 787f 19be 117d ce3d
00000320: ac01 563e 0bd2 e83d 356a f03b f43e 463e
00000330: 0ff0 223d 37d3 0f3e 0c95 a0bd 79ca 18be
00000340: 2e5c dc3d 1fc2 5a3e 985d 123e 243b 54be
00000350: 6e06 57bd 48b3 c93b 1ca5 a23d 1863 52be
00000360: ad8b 0c3e be44 463e 7a61 20be 5cc4 9b3c
00000370: 7bd2 903d cfd6 f1bd a082 64be dab9 463e
00000380: 7273 1e3e f272 003d 55a9 b33d 59b3 403e
00000390: 8049 b9bd 295e 703d 6a0c 1bbd 9279 9f3d
000003a0: 968a c3bd b65a 5c3e d26d 303e ef8d 193e
000003b0: 6be7 bf3c 0621 093e 5812 c43d a3f6 733d
000003c0: 29f4 29be d954 fe3d e061 b239 ca9a 18bc
000003d0: 6dac 553e 8e6b 563e 87e6 50be 79be b13d
000003e0: c3b3 21be 6033 8b3c 09c2 473e 4d0c 0abe
000003f0: 21e1 fbbd 145e 53be 60a9 9c3d d2e4 a13d
0.13893281 -0.16162865 -0.13036965 -0.110491306 0.05199033 0.03788581 -0.16739856 0.00080549123
0.10768683 -0.04527776 0.12613751 -0.067742296 -0.19797237 -0.14906423 0.049156103 0.017348716
0.04542293 0.17529391 -0.115034424 -0.11171602 -0.066508286 0.16738775 0.070610136 0.05724916
-0.065840416 0.055704392 0.06249397 -0.17931123 0.1569732 -0.1613366 -0.03701104 0.026339201
-0.19267431 -0.08599684 0.090930834 -0.10483749 0.14182448 -0.11154145 0.13705748 0.05687507
0.19858783 0.07264052 -0.16100207 -0.17014454 -0.04641128 0.07535885 0.015806772 -0.14549233
-0.1554663 -0.14775997 0.20577276 0.20769009 -0.027178332 0.002001173 0.20431024 -0.026719023
-0.063167915 -0.07293049 -0.18342154 0.010295323 -0.19004369 0.05862048 -0.08221781 -0.13439706
-0.12352956 -0.14369085 0.18435058 0.22019382 -0.04257028 0.091192335 -0.19227962 0.16085191
0.13472863 0.13880868 0.04264484 -0.090356134 0.07635808 -0.10322344 0.10362608 0.06534915
0.0935484 0.19136342 0.026669601 -0.21384251 0.077989586 -0.10810258 0.213039 -0.06635885
-0.025361512 -0.041855555 0.2195059 0.13215616 -0.103923455 0.015223405 -0.19759725 0.16664053
0.07466729 0.15769641 0.08053462 -0.037273575 0.051360182 0.18751566 0.056844175 0.11175803
0.053468592 0.0660067 0.21574567 0.021627191 0.13766105 0.11634121 0.009049901 0.12317552
0.05734243 0.11559292 -0.21877708 -0.10860843 0.0025723581 0.025492873 -0.12730147 0.1839232
0.17418882 -0.036843985 -0.12054233 0.13711932 -0.2212342 -0.030697698 -0.07201888 0.05098977
-0.029209172 -0.19232248 0.03428613 -0.032614052 -0.05281251 0.07347659 -0.20286395 -0.08726012
0.076757915 0.07750452 -0.18046904 -0.017501509 -0.208984 -0.06356743 0.12846397 -0.19360615
-0.044122837 -0.14194356 0.0763789 0.21690655 0.19149849 0.045664966 0.11604487 -0.1391743
-0.02685169 0.20403558 -0.03610063 0.16981657 0.16236305 0.058964632 0.06148059 -0.17703001
0.10168459 0.1074159 0.22171633 0.099956535 0.064488135 0.062336273 0.13935009 0.15713727
0.08063842 -0.004070612 0.11024834 -0.15131024 -0.18482856 -0.06561765 -0.053525448 -0.1964587
-0.14447026 -0.065246046 -0.056754317 -0.21168031 0.17976068 -0.09703117 -0.15551136 0.22116277
-0.14367428 0.008564922 0.004357351 -0.18486843 -0.01956119 0.049988385 0.13972773 0.00463516
-0.077701725 -0.12437829 -0.10944117 0.12694041 0.20316114 0.1932944 -0.14990032 0.10082448
0.20899075 0.113681875 0.0073368796 0.19359952 0.03977972 0.14045416 -0.078409284 -0.14920987
0.107597694 0.21363114 0.14293516 -0.20725685 -0.052496366 0.006155405 0.07941648 -0.20545614
0.13725157 0.1936216 -0.15662184 0.01901453 0.07071396 -0.118085496 -0.22315454 0.19406834
0.15473726 0.03135962 0.08772532 0.18818416 -0.09047222 0.058683548 -0.037853636 0.077868596
-0.095479175 0.21518978 0.17229393 0.1499555 0.023425778 0.13391504 0.09573811 0.059561383
-0.16597046 0.12418527 0.00034023728 -0.009314248 0.20866556 0.20939466 -0.20400439 0.08678908
-0.1579123 0.016992271 0.19507612 -0.13481255 -0.12298799 -0.20641357 0.07649493 0.07904972

model.lstm.bias_ih_l1 f4 [80]
00000000: 9ccf b441 8568 b3c1 0c30 b541 8905 b3c1
00000010: e08d b5c1 78d8 b241 d3ea b2c1 b120 b3c1
00000020: 66ae b4c1 3ed4 b341 86fe b2c1 ee94 b241
00000030: e786 b3c1 17b4 b341 5f8b b341 ad59 b3c1
00000040: df7c b5c1 0e83 b4c1 f4ea b5c1 b90b b4c1
00000050: a141 ddbd 38f1 293d b0c0 5f3e eb00 ebbd
00000060: c722 4bbc 0d4f 30be 3262 5cbe 235f 3e3e
00000070: b524 ea3b f2ad ffbd dbd8 2ebd 3a4c e03d
00000080: fd93 de3d f329 2ebe 12af 7d3d 5021 ae3d
00000090: c370 f8bc 5392 c73d 5fa5 823c 9ba6 4a3e
000000a0: cc68 b5c1 c287 b441 6091 b441 bc4a b4c1
000000b0: 58a6 b341 194e b4c1 48e8 b441 ef73 b5c1
000000c0: 05a9 b541 e441 b5c1 3b06 b441 4338 b5c1
000000d0: e6c6 b5c1 2859 b5c1 687f b441 5799 b3c1
000000e0: dbea b2c1 1814 b4c1 bcec b3c1 13b1 b3c1
000000f0: 97da b441 6fd9 b5c1 b86a b541 6001 b5c1
00000100: aa79 b5c1 3ca3 b341 f900 b6c1 1357 b5c1
00000110: df53 b4c1 7148 b341 17bf b4c1 410f b441
00000120: fed2 b3c1 f325 b441 2332 b541 0a22 b4c1
00000130: 8db0 b5c1 cc1a b6c1 bba9 b2c1 0b52 b3c1
22.601372 -22.426035 22.64846 -22.377703 -22.694275 22.355698 -22.36466 -22.390963
-22.585155 22.478634 -22.374279 22.32272 -22.44087 22.462934 22.443052 -22.418787
-22.685972 -22.563992 -22.739723 -22.505724 -0.10803533 0.04148981 0.21850848 -0.114747845
-0.012398428 -0.17217655 -0.21521834 0.1859098 0.007145489 -0.12484349 -0.04268728 0.10952039
0.1086807 -0.1700819 0.06193454 0.085024476 -0.030327206 0.09744706 0.015947996 0.19790117
-22.67617 22.566288 22.570984 -22.536491 22.456223 -22.538134 22.613419 -22.681608
22.70753 -22.657173 22.503042 -22.652472 -22.722118 -22.668533 22.56221 -22.449873
-22.364676 -22.509811 -22.490593 -22.461462 22.606733 -22.731169 22.677109 -22.625671
-22.684406 22.454704 -22.750475 -22.667517 -22.540953 22.410372 -22.593306 22.507448
-22.478024 22.51853 22.64948 -22.51662 -22.711206 -22.763084 -22.332876 -22.41506

model.lstm.bias_hh_l1 f4 [80]
00000000: bcc9 b241 4117 b4c1 5d88 b441 1378 b3c1
00000010: a073 b5c1 0d76 b441 7d42 b4c1 0473 b5c1
00000020: 59c3 b4c1 d8bb b341 af1a b6c1 4f5f b441
00000030: 24f0 b5c1 be0d b641 ba11 b541 d7eb b4c1
00000040: 9194 b4c1 2cf5 b4c1 8061 b5c1 9e85 b4c1
00000050: a061 433d 87e7 ccbd d55b fbbc 78f0 123e
00000060: 0737 423d b33b 07bb e41e 393c b5a9 003e
00000070: 6ca1 8c3d 4780 3e3d e0f0 96bc 553c 34be
00000080: bdbb 383e ccd3 903d 4eb2 433e 9eed 013e
00000090: 6c90 213e f62d 7abd f22e 41be 77a8 ffbd
000000a0: 28a8 b4c1 91f0 b341 b47b b541 b0f9 b2c1
000000b0: 83a9 b541 8b2e b4c1 f297 b341 63c1 b5c1
000000c0: f10f b341 55a2 b2c1 6ad6 b341 6dba b4c1
000000d0: b1a3 b2c1 a314 b5c1 e4ce b341 a90d b3c1
000000e0: bd26 b4c1 cead b2c1 3f0c b4c1 25ad b3c1
000000f0: 144b b441 a7b5 b5c1 5bf3 b341 89f6 b5c1
00000100: 1c34 b5c1 25ae b341 c81c b5c1 3249 b5c1
00000110: ac53 b5c1 713a b441 f407 b3c1 2092 b341
00000120: 43c9 b5c1 d3fc b241 c99f b341 8867 b5c1
00000130: d25b b4c1 e926 b3c1 4209 b5c1 be05 b3c1
22.348503 -22.511354 22.566584 -22.43363 -22.681458 22.557642 -22.532465 -22.68116
-22.595385 22.46672 -22.76303 22.546537 -22.742256 22.75671 22.633656 -22.615156
-22.572542 -22.619713 -22.672607 -22.565243 0.047700524 -0.10005098 -0.030683437 0.14349544
0.04741576 -0.0020634949 0.011298869 0.12564738 0.06866726 0.046509054 -0.018425405 -0.1760114
0.18040366 0.07071647 0.19110987 0.126883 0.15777749 -0.061078988 -0.18865564 -0.12483304
-22.582108 22.492464 22.685402 -22.371918 22.70777 -22.522726 22.449192 -22.719427
22.382784 -22.329264 22.479694 -22.591028 -22.329927 -22.635077 22.47602 -22.38167
-22.518915 -22.334866 -22.50598 -22.459543 22.53666 -22.713697 22.493826 -22.745378
-22.650444 22.460032 -22.639053 -22.66074 -22.665855 22.528536 -22.378883 22.44635
-22.723272 22.37345 22.45302 -22.675552 -22.544834 -22.394 -22.62952 -22.377804

model.linear.weight f4 [1, 20]
00000000: a9c5 30c2 d7d8 b2c1 0f70 3042 c72c b441
00000010: a280 b3c1 c326 2ec2 68a3 b2c1 b022 b441
00000020: c988 b3c1 9d0a 2ec2 bb41 b4c1 b5d6 2bc2
00000030: 84f8 b241 cfef 2bc2 bf71 2c42 c940 b441
00000040: c2ca b341 7721 b441 8440 b341 41a3 b341
-44.193027 -22.355879 44.109432 22.521864 -22.437809 -43.537853 -22.329788 22.516937
-22.44179 -43.510365 -22.532095 -42.959675 22.371346 -42.984188 43.11108 22.531633
22.474003 22.51634 22.406502 22.454714

exp_avg f4 [80, 1]
00000000: f89c 923d 860e 4133 73f5 89b4 5583 36af
00000010: ff24 e439 792f 6bb0 620f 20a9 856a 9939
00000020: 770d aaba 6352 abbd fa9e 8bb6 a0e2 f7b4
00000030: 0c76 7eac 024b 84b7 e2b0 e326 46b0 5633
00000040: 42cb a13b 8ed0 9a35 0000 0000 2ef4 5dbf
00000050: 0000 0000 0000 0000 0000 0000 0000 0000
00000060: 0000 0000 0000 0000 0000 0000 0000 0000
00000070: 0000 0000 0000 0000 0000 0000 0000 0000
00000080: 0000 0000 0000 0000 0000 0000 0000 0000
00000090: 0000 0000 0000 0000 0000 0000 0000 0000
000000a0: 0000 0000 0000 0000 0000 0000 1f8f 072e
000000b0: 0000 0000 63c1 d9ac 0000 0000 45e3 7bb3
000000c0: 0000 0000 0000 0000 e131 c6b5 0000 0000
000000d0: 0000 0000 0000 0000 0000 0000 62a1 e1ab
000000e0: 0000 0000 0000 0000 0000 0000 e4c1 38bb
000000f0: d765 0134 b612 272f d869 89b4 5cb0 67a3
00000100: aeaa 813d 850e 39b3 b0a8 88b1 b5c2 3931
00000110: d3b5 91bb 3188 8db0 4be5 83bf 7905 b0b5
00000120: 0000 0000 72fa 8cb7 fcb0 e326 429b 5733
00000130: 0000 0000 bd89 0336 0000 0000 9fb4 80b6
0.07158846 4.4949523e-08 -2.5696826e-07 -1.6599462e-10 0.00043515113 -8.5559965e-10 -3.554048e-14 0.00029261797
-0.0012973984 -0.083653234 -4.16103e-06 -4.6172227e-07 -3.61611e-12 -1.5770554e-05 1.5799233e-15 4.9986077e-08
0.0049375603 1.1534592e-06 0.0 -0.86700714 0.0 0.0 0.0 0.0
0.0 0.0 0.0 0.0 0.0 0.0 0.0 0.0
0.0 0.0 0.0 0.0 0.0 0.0 0.0 0.0
0.0 0.0 0.0 3.0822563e-11 0.0 -6.188981e-12 0.0 -5.8647192e-08
0.0 0.0 -1.4766666e-06 0.0 0.0 0.0 0.0 -1.6032004e-12
0.0 0.0 0.0 -0.002819174 1.205111e-07 1.5195209e-10 -2.559525e-07 -1.2559881e-17
0.06331383 -4.3086875e-08 -3.9772985e-09 2.7031721e-09 -0.004446724 -1.0297808e-09 -1.030435 -1.3114615e-06
0.0 -1.6805923e-05 1.5799261e-15 5.0199795e-08 0.0 1.9600695e-06 0.0 -3.8357243e-06

exp_avg_sq f4 [80, 1]
00000000: e2a9 a83b 0f39 1227 e056 9529 eeaf 021f
00000010: 6434 4c34 d900 5921 6605 c912 ccad b833
00000020: 6ae7 e235 c24d e63b b0f5 982d 7512 712a
00000030: 2e08 7e19 2a53 892f bd64 4b0e b6d3 3427
00000040: 5f66 cd37 bb0f bc2b 0000 0000 da45 413f
00000050: 0000 0000 0000 0000 0000 0000 0000 0000
00000060: 0000 0000 0000 0000 0000 0000 0000 0000
00000070: 0000 0000 0000 0000 0000 0000 0000 0000
00000080: 0000 0000 0000 0000 0000 0000 0000 0000
00000090: 0000 0000 0000 0000 0000 0000 0000 0000
000000a0: 0000 0000 0000 0000 0000 0000 6e30 901c
000000b0: 0000 0000 bb07 3a1a 0000 0000 83eb 7827
000000c0: 0000 0000 0000 0000 1d1c 1a2c 0000 0000
000000d0: 0000 0000 0000 0000 0000 0000 95ba 4718
000000e0: 0000 0000 0000 0000 0000 0000 d2eb 0537
000000f0: 4561 8328 ba05 db1e 3929 9429 4f99 5207
00000100: 38ed 833b fb5a 0627 d689 9223 2161 0723
00000110: b797 a637 ed2c 9d21 4e80 883f ae1c f32b
00000120: 0000 0000 b5f2 9b2f ec64 4b0e 6b60 3627
00000130: 0000 0000 10c3 872c 0000 0000 64fa 812d
0.0051472047 2.0292502e-15 6.6319996e-14 2.7674096e-20 1.901804e-07 7.352358e-19 1.2686214e-27 8.599781e-08
1.6905663e-06 0.0070283124 1.7389507e-11 2.1411503e-13 1.3133144e-23 2.4979246e-10 2.5070186e-30 2.5094787e-15
2.4485575e-05 1.336257e-12 0.0 0.7549721 0.0 0.0 0.0 0.0
0.0 0.0 0.0 0.0 0.0 0.0 0.0 0.0
0.0 0.0 0.0 0.0 0.0 0.0 0.0 0.0
0.0 0.0 0.0 9.541639e-22 0.0 3.8470143e-23 0.0 3.4544585e-15
0.0 0.0 2.1900322e-12 0.0 0.0 0.0 0.0 2.5814347e-24
0.0 0.0 0.0 7.982324e-06 1.4586106e-14 2.3189895e-20 6.579671e-14 1.5843697e-34
0.0040260814 1.8645556e-15 1.5887728e-17 7.3389325e-18 1.985939e-05 1.0650626e-18 1.0664155 1.7274149e-12
0.0 2.836679e-10 2.5070274e-30 2.5309842e-15 0.0 3.858587e-12 0.0 1.4776798e-11

exp_avg f4 [80, 20]
00000000: 0000 0000 0000 0000 0000 0000 0000 0000
00000010: 0000 0000 0000 0000 0000 0000 0000 0000
00000020: 0000 0000 0000 0000 0000 0000 0000 0000
00000030: 0000 0000 0000 0000 0000 0000 0000 0000
00000040: 0000 0000 0000 0000 0000 0000 0000 0000
00000050: 0000 0000 0000 0000 0000 0000 0000 0000
00000060: 0000 0000 0000 0000 0000 0000 0000 0000
00000070: 0000 0000 0000 0000 0000 0000 0000 0000
00000080: 0000 0000 0000 0000 0000 0000 0000 0000
00000090: 0000 0000 0000 0000 0000 0000 0000 0000
000000a0: 0000 0000 0000 0000 0000 0000 0000 0000
000000b0: 0000 0000 0000 0000 0000 0000 0000 0000
000000c0: 0000 0000 0000 0000 0000 0000 0000 0000
000000d0: 0000 0000 0000 0000 0000 0000 0000 0000
000000e0: 0000 0000 0000 0000 0000 0000 0000 0000
000000f0: 0000 0000 0000 0000 0000 0000 0000 0000
00000100: 0000 0000 0000 0000 0000 0000 0000 0000
00000110: 0000 0000 0000 0000 0000 0000 0000 0000
00000120: 0000 0000 0000 0000 0000 0000 0000 0000
00000130: 0000 0000 0000 0000 0000 0000 0000 0000
00000140: 0000 0000 0000 0000 0000 0000 0000 0000
00000150: 0000 0000 0000 0000 0000 0000 0000 0000
00000160: 0000 0000 0000 0000 0000 0000 0000 0000
00000170: 0000 0000 0000 0000 0000 0000 0000 0000
00000180: 0000 0000 0000 0000 0000 0000 0000 0000
00000190: 0000 0000 0000 0000 0000 0000 0000 0000
000001a0: 0000 0000 0000 0000 0000 0000 0000 0000
000001b0: 0000 0000 0000 0000 0000 0000 0000 0000
000001c0: 0000 0000 0000 0000 0000 0000 0000 0000
000001d0: 0000 0000 0000 0000 0000 0000 0000 0000
000001e0: 0000 0000 0000 0000 0000 0000 0000 0000
000001f0: 0000 0000 0000 0000 0000 0000 0000 0000
00000200: 0000 0000 0000 0000 0000 0000 0000 0000
00000210: 0000 0000 0000 0000 0000 0000 0000 0000
00000220: 0000 0000 0000 0000 0000 0000 0000 0000
00000230: 0000 0000 0000 0000 0000 0000 0000 0000
00000240: 0000 0000 0000 0000 0000 0000 0000 0000
00000250: 0000 0000 0000 0000 0000 0000 0000 0000
00000260: 0000 0000 0000 0000 0000 0000 0000 0000
00000270: 0000 0000 0000 0000 0000 0000 0000 0000
00000280: 0000 0000 0000 0000 0000 0000 0000 0000
00000290: 0000 0000 0000 0000 0000 0000 0000 0000
000002a0: 0000 0000 0000 0000 0000 0000 0000 0000
000002b0: 0000 0000 0000 0000 0000 0000 0000 0000
000002c0: 0000 0000 0000 0000 0000 0000 0000 0000
000002d0: 0000 0000 0000 0000 0000 0000 0000 0000
000002e0: 0000 0000 0000 0000 0000 0000 0000 0000
000002f0: 0000 0000 0000 0000 0000 0000 0000 0000
00000300: 0000 0000 0000 0000 0000 0000 0000 0000
00000310: 0000 0000 0000 0000 0000 0000 0000 0000
00000320: 0000 0000 0000 0000 0000 0000 0000 0000
00000330: 0000 0000 0000 0000 0000 0000 0000 0000
00000340: 0000 0000 0000 0000 0000 0000 0000 0000
00000350: 0000 0000 0000 0000 0000 0000 0000 0000
00000360: 0000 0000 0000 0000 0000 0000 0000 0000
00000370: 0000 0000 0000 0000 0000 0000 0000 0000
00000380: 0000 0000 0000 0000 0000 0000 0000 0000
00000390: 0000 0000 0000 0000 0000 0000 0000 0000
000003a0: 0000 0000 0000 0000 0000 0000 0000 0000
000003b0: 0000 0000 0000 0000 0000 0000 0000 0000
000003c0: 0000 0000 0000 0000 0000 0000 0000 0000
000003d0: 0000 0000 0000 0000 0000 0000 0000 0000
000003e0: 0000 0000 0000 0000 0000 0000 0000 0000
000003f0: 0000 0000 0000 0000 0000 0000 0000 0000
0.0 0.0 0.0 0.0 0.0 0.0 0.0 0.0
0.0 0.0 0.0 0.0 0.0 0.0 0.0 0.0
0.0 0.0 0.0 0.0 0.0 0.0 0.0 0.0
0.0 0.0 0.0 0.0 0.0 0.0 0.0 0.0
0.0 0.0 0.0 0.0 0.0 0.0 0.0 0.0
0.0 0.0 0.0 0.0 0.0 0.0 0.0 0.0
0.0 0.0 0.0 0.0 0.0 0.0 0.0 0.0
0.0 0.0 0.0 0.0 0.0 0.0 0.0 0.0
0.0 0.0 0.0 0.0 0.0 0.0 0.0 0.0
0.0 0.0 0.0 0.0 0.0 0.0 0.0 0.0
0.0 0.0 0.0 0.0 0.0 0.0 0.0 0.0
0.0 0.0 0.0 0.0 0.0 0.0 0.0 0.0
0.0 0.0 0.0 0.0 0.0 0.0 0.0 0.0
0.0 0.0 0.0 0.0 0.0 0.0 0.0 0.0
0.0 0.0 0.0 0.0 0.0 0.0 0.0 0.0
0.0 0.0 0.0 0.0 0.0 0.0 0.0 0.0
0.0 0.0 0.0 0.0 0.0 0.0 0.0 0.0
0.0 0.0 0.0 0.0 0.0 0.0 0.0 0.0
0.0 0.0 0.0 0.0 0.0 0.0 0.0 0.0
0.0 0.0 0.0 0.0 0.0 0.0 0.0 0.0
0.0 0.0 0.0 0.0 0.0 0.0 0.0 0.0
0.0 0.0 0.0 0.0 0.0 0.0 0.0 0.0
0.0 0.0 0.0 0.0 0.0 0.0 0.0 0.0
0.0 0.0 0.0 0.0 0.0 0.0 0.0 0.0
0.0 0.0 0.0 0.0 0.0 0.0 0.0 0.0
0.0 0.0 0.0 0.0 0.0 0.0 0.0 0.0
0.0 0.0 0.0 0.0 0.0 0.0 0.0 0.0
0.0 0.0 0.0 0.0 0.0 0.0 0.0 0.0
0.0 0.0 0.0 0.0 0.0 0.0 0.0 0.0
0.0 0.0 0.0 0.0 0.0 0.0 0.0 0.0
0.0 0.0 0.0 0.0 0.0 0.0 0.0 0.0
0.0 0.0 0.0 0.0 0.0 0.0 0.0 0.0

exp_avg_sq f4 [80, 20]
00000000: 0000 0000 0000 0000 0000 0000 0000 0000
00000010: 0000 0000 0000 0000 0000 0000 0000 0000
00000020: 0000 0000 0000 0000 0000 0000 0000 0000
00000030: 0000 0000 0000 0000 0000 0000 0000 0000
00000040: 0000 0000 0000 0000 0000 0000 0000 0000
00000050: 0000 0000 0000 0000 0000 0000 0000 0000
00000060: 0000 0000 0000 0000 0000 0000 0000 0000
00000070: 0000 0000 0000 0000 0000 0000 0000 0000
00000080: 0000 0000 0000 0000 0000 0000 0000 0000
00000090: 0000 0000 0000 0000 0000 0000 0000 0000
000000a0: 0000 0000 0000 0000 0000 0000 0000 0000
000000b0: 0000 0000 0000 0000 0000 0000 0000 0000
000000c0: 0000 0000 0000 0000 0000 0000 0000 0000
000000d0: 0000 0000 0000 0000 0000 0000 0000 0000
000000e0: 0000 0000 0000 0000 0000 0000 0000 0000
000000f0: 0000 0000 0000 0000 0000 0000 0000 0000
00000100: 0000 0000 0000 0000 0000 0000 0000 0000
00000110: 0000 0000 0000 0000 0000 0000 0000 0000
00000120: 0000 0000 0000 0000 0000 0000 0000 0000
00000130: 0000 0000 0000 0000 0000 0000 0000 0000
00000140: 0000 0000 0000 0000 0000 0000 0000 0000
00000150: 0000 0000 0000 0000 0000 0000 0000 0000
00000160: 0000 0000 0000 0000 0000 0000 0000 0000
00000170: 0000 0000 0000 0000 0000 0000 0000 0000
00000180: 0000 0000 0000 0000 0000 0000 0000 0000
00000190: 0000 0000 0000 0000 0000 0000 0000 0000
000001a0: 0000 0000 0000 0000 0000 0000 0000 0000
000001b0: 0000 0000 0000 0000 0000 0000 0000 0000
000001c0: 0000 0000 0000 0000 0000 0000 0000 0000
000001d0: 0000 0000 0000 0000 0000 0000 0000 0000
000001e0: 0000 0000 0000 0000 0000 0000 0000 0000
000001f0: 0000 0000 0000 0000 0000 0000 0000 0000
00000200: 0000 0000 0000 0000 0000 0000 0000 0000
00000210: 0000 0000 0000 0000 0000 0000 0000 0000
00000220: 0000 0000 0000 0000 0000 0000 0000 0000
00000230: 0000 0000 0000 0000 0000 0000 0000 0000
00000240: 0000 0000 0000 0000 0000 0000 0000 0000
00000250: 0000 0000 0000 0000 0000 0000 0000 0000
00000260: 0000 0000 0000 0000 0000 0000 0000 0000
00000270: 0000 0000 0000 0000 0000 0000 0000 0000
00000280: 0000 0000 0000 0000 0000 0000 0000 0000
00000290: 0000 0000 0000 0000 0000 0000 0000 0000
000002a0: 0000 0000 0000 0000 0000 0000 0000 0000
000002b0: 0000 0000 0000 0000 0000 0000 0000 0000
000002c0: 0000 0000 0000 0000 0000 0000 0000 0000
000002d0: 0000 0000 0000 0000 0000 0000 0000 0000
000002e0: 0000 0000 0000 0000 0000 0000 0000 0000
000002f0: 0000 0000 0000 0000 0000 0000 0000 0000
00000300: 0000 0000 0000 0000 0000 0000 0000 0000
00000310: 0000 0000 0000 0000 0000 0000 0000 0000
00000320: 0000 0000 0000 0000 0000 0000 0000 0000
00000330: 0000 0000 0000 0000 0000 0000 0000 0000
00000340: 0000 0000 0000 0000 0000 0000 0000 0000
00000350: 0000 0000 0000 0000 0000 0000 0000 0000
00000360: 0000 0000 0000 0000 0000 0000 0000 0000
00000370: 0000 0000 0000 0000 0000 0000 0000 0000
00000380: 0000 0000 0000 0000 0000 0000 0000 0000
00000390: 0000 0000 0000 0000 0000 0000 0000 0000
000003a0: 0000 0000 0000 0000 0000 0000 0000 0000
000003b0: 0000 0000 0000 0000 0000 0000 0000 0000
000003c0: 0000 0000 0000 0000 0000 0000 0000 0000
000003d0: 0000 0000 0000 0000 0000 0000 0000 0000
000003e0: 0000 0000 0000 0000 0000 0000 0000 0000
000003f0: 0000 0000 0000 0000 0000 0000 0000 0000
0.0 0.0 0.0 0.0 0.0 0.0 0.0 0.0
0.0 0.0 0.0 0.0 0.0 0.0 0.0 0.0
0.0 0.0 0.0 0.0 0.0 0.0 0.0 0.0
0.0 0.0 0.0 0.0 0.0 0.0 0.0 0.0
0.0 0.0 0.0 0.0 0.0 0.0 0.0 0.0
0.0 0.0 0.0 0.0 0.0 0.0 0.0 0.0
0.0 0.0 0.0 0.0 0.0 0.0 0.0 0.0
0.0 0.0 0.0 0.0 0.0 0.0 0.0 0.0
0.0 0.0 0.0 0.0 0.0 0.0 0.0 0.0
0.0 0.0 0.0 0.0 0.0 0.0 0.0 0.0
0.0 0.0 0.0 0.0 0.0 0.0 0.0 0.0
0.0 0.0 0.0 0.0 0.0 0.0 0.0 0.0
0.0 0.0 0.0 0.0 0.0 0.0 0.0 0.0
0.0 0.0 0.0 0.0 0.0 0.0 0.0 0.0
0.0 0.0 0.0 0.0 0.0 0.0 0.0 0.0
0.0 0.0 0.0 0.0 0.0 0.0 0.0 0.0
0.0 0.0 0.0 0.0 0.0 0.0 0.0 0.0
0.0 0.0 0.0 0.0 0.0 0.0 0.0 0.0
0.0 0.0 0.0 0.0 0.0 0.0 0.0 0.0
0.0 0.0 0.0 0.0 0.0 0.0 0.0 0.0
0.0 0.0 0.0 0.0 0.0 0.0 0.0 0.0
0.0 0.0 0.0 0.0 0.0 0.0 0.0 0.0
0.0 0.0 0.0 0.0 0.0 0.0 0.0 0.0
0.0 0.0 0.0 0.0 0.0 0.0 0.0 0.0
0.0 0.0 0.0 0.0 0.0 0.0 0.0 0.0
0.0 0.0 0.0 0.0 0.0 0.0 0.0 0.0
0.0 0.0 0.0 0.0 0.0 0.0 0.0 0.0
0.0 0.0 0.0 0.0 0.0 0.0 0.0 0.0
0.0 0.0 0.0 0.0 0.0 0.0 0.0 0.0
0.0 0.0 0.0 0.0 0.0 0.0 0.0 0.0
0.0 0.0 0.0 0.0 0.0 0.0 0.0 0.0
0.0 0.0 0.0 0.0 0.0 0.0 0.0 0.0

exp_avg f4 [80]
00000000: 9fb2 183a 883f e02f 4501 1fb1 1920 d8ab
00000010: d172 7936 ac6b 0aad a9be c1a5 a479 2936
00000020: 85fa 35b7 f58a 32ba 9fbb 1db3 a1b5 8cb1
00000030: 0a5a 17a9 6712 13b4 3515 8a23 429c f82f
00000040: 8f83 2c38 35eb 2e32 0000 0000 f4ba e4bb
00000050: 0000 0000 0000 0000 0000 0000 0000 0000
00000060: 0000 0000 0000 0000 0000 0000 0000 0000
00000070: 0000 0000 0000 0000 0000 0000 0000 0000
00000080: 0000 0000 0000 0000 0000 0000 0000 0000
00000090: 0000 0000 0000 0000 0000 0000 0000 0000
000000a0: 0000 0000 0000 0000 0000 0000 02dd a12a
000000b0: 0000 0000 8f7d 82a9 0000 0000 3b9e 13b0
000000c0: 0000 0000 0000 0000 bea1 63b2 0000 0000
000000d0: 0000 0000 0000 0000 0000 0000 120b 88a8
000000e0: 0000 0000 0000 0000 0000 0000 ce10 cbb7
000000f0: a6fe 9430 9d72 c62b 875c 1eb1 eb93 0ea0
00000100: b13c 083a 4998 d6af 5dc8 20ae a2d7 da2d
00000110: f014 1bb8 7831 2ead 68eb 05bc ae90 47b2
00000120: 0000 0000 73e7 1cb4 4515 8a23 4db2 f92f
00000130: 0000 0000 b6bf 9432 0000 0000 b755 12b3
0.00058249565 4.0790504e-10 -2.3138267e-09 -1.5356632e-12 3.7170723e-06 -7.8683e-12 -3.360936e-16 2.5253767e-06
-1.0846769e-05 -0.00068108673 -3.672505e-08 -4.095185e-09 -3.3606832e-14 -1.3697137e-07 1.4970972e-17 4.5221965e-10
4.113052e-05 1.0181613e-08 0.0 -0.0069802944 0.0 0.0 0.0 0.0
0.0 0.0 0.0 0.0 0.0 0.0 0.0 0.0
0.0 0.0 0.0 0.0 0.0 0.0 0.0 0.0
0.0 0.0 0.0 2.87527e-13 0.0 -5.794941e-14 0.0 -5.370315e-10
0.0 0.0 -1.3249915e-08 0.0 0.0 0.0 0.0 -1.5103834e-14
0.0 0.0 0.0 -2.4207311e-05 1.0840793e-09 1.4100558e-12 -2.3044622e-09 -1.207681e-19
0.0005197032 -3.9034578e-10 -3.6557746e-11 2.487949e-11 -3.697438e-05 -9.901739e-12 -0.008173801 -1.1616221e-08
0.0 -1.4612833e-07 1.4970998e-17 4.5419526e-10 0.0 1.7316648e-08 0.0 -3.407123e-08

exp_avg_sq f4 [80]
00000000: 1af4 b634 0e4a 4520 2d61 c622 6c41 3718
00000010: 501f 742d 4157 961a 5c44 130c 955d e12c
00000020: 4bec 012f 7520 fa34 d737 c326 9a5a 9b23
00000030: 02be b312 7cb8 a928 a89b 9507 0d7c 7220
00000040: 1085 e930 6713 f024 0000 0000 2e41 4d38
00000050: 0000 0000 0000 0000 0000 0000 0000 0000
00000060: 0000 0000 0000 0000 0000 0000 0000 0000
00000070: 0000 0000 0000 0000 0000 0000 0000 0000
00000080: 0000 0000 0000 0000 0000 0000 0000 0000
00000090: 0000 0000 0000 0000 0000 0000 0000 0000
000000a0: 0000 0000 0000 0000 0000 0000 7593 cd15
000000b0: 0000 0000 b19b 8513 0000 0000 d1fb aa20
000000c0: 0000 0000 0000 0000 af49 4b25 0000 0000
000000d0: 0000 0000 0000 0000 0000 0000 9638 9111
000000e0: 0000 0000 0000 0000 0000 0000 12c7 2130
000000f0: 0630 ae21 d680 1a18 efc6 c422 be81 9f00
00000100: 96a2 9134 52ab 3420 14d7 ca1c 55e4 3b1c
00000110: ffb5 bc30 9d16 ee1a f4b8 8c38 893f 1c25
00000120: 0000 0000 032c c128 cf9b 9507 9a9b 7420
00000130: 0000 0000 fa9c ad25 0000 0000 1b06 a826
3.407775e-07 1.6711052e-19 5.3770896e-18 2.3685225e-24 1.3876747e-11 6.217951e-23 1.1345039e-31 6.4052743e-12
1.181643e-10 4.6589744e-07 1.3545979e-15 1.6843505e-17 1.1343329e-27 1.8842776e-14 2.2510515e-34 2.0539242e-19
1.69908e-09 1.0411628e-16 0.0 4.8936512e-05 0.0 0.0 0.0 0.0
0.0 0.0 0.0 0.0 0.0 0.0 0.0 0.0
0.0 0.0 0.0 0.0 0.0 0.0 0.0 0.0
0.0 0.0 0.0 8.3031487e-26 0.0 3.3727444e-27 0.0 2.8965758e-19
0.0 0.0 1.7632408e-16 0.0 0.0 0.0 0.0 2.291184e-28
0.0 0.0 0.0 5.8854355e-10 1.180341e-18 1.996908e-24 5.3336536e-18 1.4648387e-38
2.7126652e-07 1.5303278e-19 1.3422835e-21 6.216822e-22 1.3730527e-09 9.8471027e-23 6.7101704e-05 1.355237e-16
0.0 2.1446391e-14 2.2510604e-34 2.0719088e-19 0.0 3.0117088e-16 0.0 1.1658997e-15

exp_avg f4 [80]
00000000: 9fb2 183a 883f e02f 4501 1fb1 1920 d8ab
00000010: d172 7936 ac6b 0aad a9be c1a5 a479 2936
00000020: 85fa 35b7 f58a 32ba 9fbb 1db3 a1b5 8cb1
00000030: 0a5a 17a9 6712 13b4 3515 8a23 429c f82f
00000040: 8f83 2c38 35eb 2e32 0000 0000 f4ba e4bb
00000050: 0000 0000 0000 0000 0000 0000 0000 0000
00000060: 0000 0000 0000 0000 0000 0000 0000 0000
00000070: 0000 0000 0000 0000 0000 0000 0000 0000
00000080: 0000 0000 0000 0000 0000 0000 0000 0000
00000090: 0000 0000 0000 0000 0000 0000 0000 0000
000000a0: 0000 0000 0000 0000 0000 0000 02dd a12a
000000b0: 0000 0000 8f7d 82a9 0000 0000 3b9e 13b0
000000c0: 0000 0000 0000 0000 bea1 63b2 0000 0000
000000d0: 0000 0000 0000 0000 0000 0000 120b 88a8
000000e0: 0000 0000 0000 0000 0000 0000 ce10 cbb7
000000f0: a6fe 9430 9d72 c62b 875c 1eb1 eb93 0ea0
00000100: b13c 083a 4998 d6af 5dc8 20ae a2d7 da2d
00000110: f014 1bb8 7831 2ead 68eb 05bc ae90 47b2
00000120: 0000 0000 73e7 1cb4 4515 8a23 4db2 f92f
00000130: 0000 0000 b6bf 9432 0000 0000 b755 12b3
0.00058249565 4.0790504e-10 -2.3138267e-09 -1.5356632e-12 3.7170723e-06 -7.8683e-12 -3.360936e-16 2.5253767e-06
-1.0846769e-05 -0.00068108673 -3.672505e-08 -4.095185e-09 -3.3606832e-14 -1.3697137e-07 1.4970972e-17 4.5221965e-10
4.113052e-05 1.0181613e-08 0.0 -0.0069802944 0.0 0.0 0.0 0.0
0.0 0.0 0.0 0.0 0.0 0.0 0.0 0.0
0.0 0.0 0.0 0.0 0.0 0.0 0.0 0.0
0.0 0.0 0.0 2.87527e-13 0.0 -5.794941e-14 0.0 -5.370315e-10
0.0 0.0 -1.3249915e-08 0.0 0.0 0.0 0.0 -1.5103834e-14
0.0 0.0 0.0 -2.4207311e-05 1.0840793e-09 1.4100558e-12 -2.3044622e-09 -1.207681e-19
0.0005197032 -3.9034578e-10 -3.6557746e-11 2.487949e-11 -3.697438e-05 -9.901739e-12 -0.008173801 -1.1616221e-08
0.0 -1.4612833e-07 1.4970998e-17 4.5419526e-10 0.0 1.7316648e-08 0.0 -3.407123e-08

exp_avg_sq f4 [80]
00000000: 1af4 b634 0e4a 4520 2d61 c622 6c41 3718
00000010: 501f 742d 4157 961a 5c44 130c 955d e12c
00000020: 4bec 012f 7520 fa34 d737 c326 9a5a 9b23
00000030: 02be b312 7cb8 a928 a89b 9507 0d7c 7220
00000040: 1085 e930 6713 f024 0000 0000 2e41 4d38
00000050: 0000 0000 0000 0000 0000 0000 0000 0000
00000060: 0000 0000 0000 0000 0000 0000 0000 0000
00000070: 0000 0000 0000 0000 0000 0000 0000 0000
00000080: 0000 0000 0000 0000 0000 0000 0000 0000
00000090: 0000 0000 0000 0000 0000 0000 0000 0000
000000a0: 0000 0000 0000 0000 0000 0000 7593 cd15
000000b0: 0000 0000 b19b 8513 0000 0000 d1fb aa20
000000c0: 0000 0000 0000 0000 af49 4b25 0000 0000
000000d0: 0000 0000 0000 0000 0000 0000 9638 9111
000000e0: 0000 0000 0000 0000 0000 0000 12c7 2130
000000f0: 0630 ae21 d680 1a18 efc6 c422 be81 9f00
00000100: 96a2 9134 52ab 3420 14d7 ca1c 55e4 3b1c
00000110: ffb5 bc30 9d16 ee1a f4b8 8c38 893f 1c25
00000120: 0000 0000 032c c128 cf9b 9507 9a9b 7420
00000130: 0000 0000 fa9c ad25 0000 0000 1b06 a826
3.407775e-07 1.6711052e-19 5.3770896e-18 2.3685225e-24 1.3876747e-11 6.217951e-23 1.1345039e-31 6.4052743e-12
1.181643e-10 4.6589744e-07 1.3545979e-15 1.6843505e-17 1.1343329e-27 1.8842776e-14 2.2510515e-34 2.0539242e-19
1.69908e-09 1.0411628e-16 0.0 4.8936512e-05 0.0 0.0 0.0 0.0
0.0 0.0 0.0 0.0 0.0 0.0 0.0 0.0
0.0 0.0 0.0 0.0 0.0 0.0 0.0 0.0
0.0 0.0 0.0 8.3031487e-26 0.0 3.3727444e-27 0.0 2.8965758e-19
0.0 0.0 1.7632408e-16 0.0 0.0 0.0 0.0 2.291184e-28
0.0 0.0 0.0 5.8854355e-10 1.180341e-18 1.996908e-24 5.3336536e-18 1.4648387e-38
2.7126652e-07 1.5303278e-19 1.3422835e-21 6.216822e-22 1.3730527e-09 9.8471027e-23 6.7101704e-05 1.355237e-16
0.0 2.1446391e-14 2.2510604e-34 2.0719088e-19 0.0 3.0117088e-16 0.0 1.1658997e-15
