dl_computer_vision/assignments/1/checkpoints/best_checkpoint-v13.ckpt (torch, 75964 bytes, 27 tensors)

model.lstm.weight_ih_l0 f4 [80, 1]
-10.993657 0.18588948 -10.324984 -10.99566 10.667681 0.18565018 10.83024 -10.930141
-10.935199 0.21965101 9.19818 -10.999034 10.102376 6.129953 -10.983771 -10.885586
-2.3235178 11.056424 -10.8349285 -10.871907 -0.18479308 -0.16888134 -0.14393677 -0.19067916
-0.017687194 -0.14821742 0.18434268 0.1048981 -0.20734695 -0.038490076 0.14503883 -0.02413227
-0.18207704 0.19221826 -0.18842374 -0.13831165 -0.048258543 0.1548655 0.100082725 0.07055648
0.19817507 -10.946973 -10.931343 -10.931241 -0.14342843 -0.13436307 -0.20016265 -10.894806
0.74734443 10.945993 -0.07239701 -0.14962041 6.749399 -0.11976699 0.14945671 0.1401816
-0.101803795 0.21804145 0.15017408 0.21441422 -11.010876 10.849888 -10.980611 -10.936543
0.1346465 -10.741145 10.940622 -10.782608 -11.047312 10.993202 0.1812017 -10.952203
0.11397343 4.5063777 -11.012144 -10.98776 -10.987288 0.21749574 -10.785427 -10.79731
00000000: 05e6 2fc1 d059 3e3e 2233 25c1 39ee 2fc1
00000010: d2ae 2a41 151b 3e3e aa48 2d41 dce1 2ec1
00000020: 93f6 2ec1 32ec 603e bf2b 1341 0bfc 2fc1
00000030: 55a3 2141 9328 c440 87bd 2fc1 5c2b 2ec1
00000040: 84b4 14c0 1de7 3041 de5b 2dc1 55f3 2dc1
00000050: 663a 3dbe 3bef 2cbe 2964 13be 6641 43be
00000060: bce4 90bc 4fc6 17be 54c4 3c3e d1d4 d63d
00000070: c252 54be c5a7 1dbd 0f85 143e 0ab1 c5bc
00000080: 6772 3abe ddd4 443e 27f2 40be 92a1 0dbe
00000090: c0aa 45bd 1095 1e3e 2cf8 cc3d ea7f 903d
000000a0: 68ee 4a3e cd26 2fc1 c8e6 2ec1 5de6 2ec1
000000b0: e7de 12be 7996 09be 70f7 4cbe 2051 2ec1
000000c0: f751 3f3f ca22 2f41 e244 94bd 1836 19be
000000d0: 14fb d740 6548 f5bd 2e0b 193e c48b 0f3e
000000e0: 827e d0bd 4246 5f3e 3cc7 193e 678f 5b3e
000000f0: 8c2c 30c1 2499 2d41 95b0 2fc1 15fc 2ec1
00000100: c6e0 093e bbdb 2bc1 ca0c 2f41 9085 2cc1
00000110: cac1 30c1 28e4 2f41 f08c 393e 393c 2fc1
00000120: e76a e93d 3f34 9040 be31 30c1 ddcd 2fc1
00000130: efcb 2fc1 34b7 5e3e 1c91 2cc1 c8c1 2cc1

model.lstm.weight_hh_l0 f4 [80, 20]
0.123668626 0.18038504 -0.1677411 0.066173404 -0.15100996 0.21851672 -0.17120594 0.2129224
-0.0645109 0.2086138 0.12974603 -0.097810596 -0.078576155 -0.089219816 -0.10656515 0.1399479
0.026341626 0.08655979 -0.15102819 -0.05659337 0.11799196 0.014938959 0.14319924 -0.02500688
-0.06720409 0.087293975 0.060712896 -0.203284 0.20397289 0.10111623 0.14430189 -0.11468182
0.029587502 0.21784638 0.0654579 0.0064393985 0.17991953 -0.21960863 0.024774466 -0.041895594
-0.17176062 0.18975654 -0.22313602 -0.083977595 -0.18756136 -0.16079709 0.024678292 0.054072857
-0.014979983 -0.07975019 -0.11313308 0.183093 0.19157745 0.06213126 -0.21959288 -0.021037934
0.16209574 -0.17207713 0.163568 0.12364933 -0.20092437 -0.15787494 -0.0798546 -0.10636637
0.19205706 0.09949139 -0.05004564 -0.12166932 -0.0014625618 0.22121096 -0.032669123 -0.10260273
-0.13095374 0.17664456 -0.06901888 -0.0050798086 -0.090570554 -0.048098154 0.11574068 -0.053917747
0.07739145 -0.110231094 0.13534865 0.11989925 -0.13780516 -0.18197632 0.20809345 0.075374335
0.106983855 0.14554924 -0.11738506 0.11003352 -0.032579374 -0.121644266 -0.19789289 -0.056916468
0.070835836 0.0943436 0.121945344 0.09291066 -0.16956681 0.024107587 -0.014157379 -0.22037676
0.21669763 -0.1730008 -0.17063485 0.12552415 0.21870025 -0.002251926 0.0049467953 0.054379027
-0.19345693 0.06257141 0.05680507 0.07664196 0.0023858459 -0.12330933 0.02569178 -0.076283924
0.027403362 0.21666445 0.057310708 0.15769859 -0.009455312 0.11948185 0.17862886 -0.18900055
0.048753463 -0.0814144 -0.13945119 -0.20367797 0.017157165 -0.13165301 -0.13873462 -0.03923471
-0.1706712 0.102342404 -0.1920705 0.08418729 0.074180044 0.029411785 0.12049726 0.16074665
-0.21831515 0.12276259 -0.20376255 0.07916863 0.010081995 -0.18007855 -0.19334388 -0.07945617
-0.04048336 0.07019806 -0.03950948 -0.074878134 0.111924365 -0.032488983 -0.062220853 0.18512946
-0.18118763 0.06067659 0.1834117 -0.12763911 -0.07739068 0.07760814 0.10235723 -0.1012248
0.07129935 0.017317794 -0.1807296 0.1679076 0.030760447 -0.07227387 -0.026343305 -0.05455349
-0.21965288 0.041596726 -0.0025624952 0.093065955 -0.01201173 -0.00836972 -0.20173517 0.092120625
0.15246132 0.08821771 -0.037306763 -0.060690958 0.08820187 -0.14250138 -0.028534269 0.04898628
-0.036015544 -0.14889652 -0.09132436 0.05298404 0.16743925 0.05447859 -0.19899261 -0.1402793
-0.10367518 0.20299086 -0.043596752 -0.10210813 -0.18444017 0.16793725 0.000795202 -0.200826
-0.10222334 -0.034883063 0.1119009 -0.21159011 -0.1486186 0.07290759 0.10020209 0.020843398
-0.13601726 -0.11742534 0.16106617 -0.10837186 0.089413926 0.08005284 0.20231107 -0.20366591
0.17641218 -0.08143895 0.060815975 -0.018306626 -0.08150178 0.031706788 0.13870083 -0.15109028
-0.04114616 0.03733699 -0.20812558 -0.16509676 0.13698834 -0.09586204 -0.15471043 -0.013270906
0.1408509 0.02649975 -0.16378608 0.19964798 0.20611121 -0.14596632 -0.080878295 0.206584
-0.09926692 0.15887247 -0.09862475 0.16258776 0.14597608 0.20533645 -0.064190894 -0.13979548
00000000: fa45 fd3d dbb6 383e 53c4 2bbe ec85 873d
00000010: 5ba2 1abe d9c2 5f3e 9c50 2fbe 5408 5a3e
00000020: 4a1e 84bd db9e 553e 25dc 043e ec50 c8bd
00000030: 89ec a0bd e1b8 b6bd d43e dabd 814e 0f3e
00000040: 65ca d73c 4246 b13d 22a7 1abe 73ce 67bd
00000050: c5a5 f13d 89c2 743c d2a2 123e 3adb ccbc
00000060: 4ca2 89bd 2fc7 b23d 16ae 783d ae29 50be
00000070: 45de 503e 0716 cf3d e0c3 133e 4dde eabd
00000080: 7d61 f23c 1f13 5f3e cb0e 863d 9701 d33b
00000090: d33c 383e 16e1 60be d2f3 ca3c b79a 2bbd
000000a0: 04e2 2fbe 8a4f 423e c57d 64be 72fc abbd
000000b0: 1610 40be fea7 24be 212a ca3c 807b 5d3d
000000c0: 9a6e 75bc 1154 a3bd 51b2 e7bd bb7c 3b3e
000000d0: e12c 443e 597d 7e3d f5dc 60be bf57 acbc
000000e0: 6dfc 253e fd34 30be 5f7e 273e dc3b fd3d
000000f0: 1ebf 4dbe f8a9 21be cf8a a3bd 9dd6 d9bd
00000100: 9baa 443e 24c2 cb3d a8fc 4cbd c42d f9bd
00000110: 6eb3 bfba 2085 623e 0fd0 05bd 6121 d2bd
00000120: bd18 06be 50e2 343e c559 8dbd 8674 a6bb
00000130: 0e7d b9bd 9202 45bd 7309 ed3d dbd8 5cbd
00000140: 697f 9e3d d7c0 e1bd d698 0a3e bd8d f53d
00000150: cc1c 0dbe 0058 3abe 7316 553e dc5d 9a3d
00000160: 5a1a db3d dc0a 153e 9467 f0bd 4159 e13d
00000170: f371 05bd a120 f9bd 6fa4 4abe 3e21 69bd
00000180: 6112 913d 3837 c13d 7bbe f93d f247 be3d
00000190: eca2 2dbe 467d c53c 5af4 67bc 72aa 61be
000001a0: fce5 5d3e 1f27 31be e7ba 2ebe 6789 003e
000001b0: f5f2 5f3e 0d95 13bb ba18 a23b 8bbc 5e3d
000001c0: 9319 46be 7025 803d 6fac 683d 76f6 9c3d
000001d0: da5b 1c3b 9a89 fcbd 9177 d23c bf3a 9cbd
000001e0: 047d e03c 49dd 5d3e a2be 6a3d bd7b 213e
000001f0: 74ea 1abc e6b2 f43d 7cea 363e 5c89 41be
00000200: b6b1 473d 98bc a6bd 4bcc 0ebe f590 50be
00000210: 2f8d 8c3c 0cd0 06be 7310 0ebe 93b4 20bd
00000220: 6ec4 2ebe e598 d13d 21ae 44be 636a ac3d
00000230: b5eb 973d fcf0 f03c 44c7 f63d c59a 243e
00000240: 028e 5fbe f46a fb3d 21a7 50be 2a23 a23d
00000250: f42e 253c 8366 38be f0fb 45be ebb9 a2bd
00000260: e1d1 25bd 00c4 8f3d b1d4 21bd b559 99bd
00000270: 9a38 e53d 2b13 05bd 4bdb 7ebd 9492 3d3e
00000280: 4089 39be 0488 783d 47d0 3b3e d4b3 02be
00000290: 017f 9ebd 04f1 9e3d aba0 d13d f34e cfbd
000002a0: 6505 923d 0cde 8d3c 2e11 39be f8ef 2b3e
000002b0: 55fd fb3c 5304 94bd eacd d7bc 7b73 5fbd
000002c0: afec 60be 5461 2a3d 89ef 27bb 5d99 be3d
000002d0: d9cc 44bc 2621 09bc aa93 4ebe bda9 bc3d
000002e0: d21e 1c3e 7dab b43d face 18bd 1597 78bd
000002f0: 2fa3 b43d e2eb 11be b3c0 e9bc d6a5 483d
00000300: 0985 13bd 5478 18be 4408 bbbd cb05 593d
00000310: 3275 2b3e f124 5f3d b8c4 4bbe 60a5 0fbe
00000320: a753 d4bd d6dc 4f3e 8292 32bd 111e d1bd
00000330: e2dd 3cbe bef7 2b3e 1a75 503a 55a5 4dbe
00000340: 785a d1bd 8be1 0ebd 4d2c e53d 14ab 58be
00000350: 792f 18be 9350 953d c136 cd3d c6bf aa3c
00000360: 1c48 0bbe b27c f0bd 88ee 243e 11f2 ddbd
00000370: a61e b73d bef2 a33d a22a 4f3e cc8d 50be
00000380: 65a5 343e 77c9 a6bd 2c1a 793d c7f7 95bc
00000390: 68ea a6bd fade 013d 9707 0e3e 69b7 1abe
000003a0: e088 28bd acee 183d df1e 55be 200f 29be
000003b0: ac46 0c3e 5153 c4bd 696c 1ebe 376e 59bc
000003c0: 383b 103e 0116 d93c 8ab7 27be 8570 4c3e
000003d0: d10e 533e 3278 15be 85a3 a5bd c28a 533e
000003e0: 744c cbbd 77af 223e c6fb c9bd 687d 263e
000003f0: c17a 153e b843 523e 8476 83bd 8c26 0fbe

model.lstm.bias_ih_l0 f4 [80]
-10.352199 -0.06530871 -1.9162012 -10.935662 5.212487 0.122292906 10.850768 -10.76724
-10.891353 0.2064838 0.7351124 -10.838842 1.5003612 0.30499867 -9.623878 -10.847364
0.03937104 10.6053 -3.3737645 -11.1542845 0.0060622958 -0.19343764 -0.08376205 0.15239012
0.11493724 -0.07137911 0.17224045 -0.0039115823 -0.0042390516 0.012676211 -0.096624106 0.019714436
-0.060144324 -0.012259417 0.121544704 -0.027212158 0.15187527 0.19987708 -0.20083447 0.21368541
0.09806657 -10.915227 -10.836471 -10.755097 0.13358879 -0.16316032 -0.2167735 -11.102733
0.084198914 10.86398 -0.1276811 0.0144480625 0.35048738 -0.12181777 -0.12192567 0.04933038
0.15738069 -0.0305593 0.1274198 -0.094969064 -10.222809 11.00875 -10.778398 -10.720208
-0.023062227 -7.3000975 10.574886 -8.806322 -10.7341385 11.154922 0.20742385 -11.048663
-0.15726843 0.27608705 -9.521628 -10.887852 -10.8023 0.048216477 -3.2604427 -9.922231
00000000: 9ba2 25c1 93c0 85bd 1546 f5bf 79f8 2ec1
00000010: b2cc a640 b474 fa3d bf9c 2d41 9d46 2cc1
00000020: fb42 2ec1 7d70 533e 5430 3c3f e66b 2dc1
00000030: d60b c03f c928 9c3e 67fb 19c1 ce8e 2dc1
00000040: 8743 213d 4faf 2941 c2eb 57c0 f377 32c1
00000050: 39a6 c63b 8414 46be 708b abbd 280c 1c3e
00000060: 3764 eb3d 362f 92bd cd5f 303e bb2c 80bb
00000070: bee7 8abb e2af 4f3c dce2 c5bd 2b80 a13c
00000080: e559 76bd b9db 48bc 6eec f83d 08ec debc
00000090: 3185 1b3e 94ac 4c3e 8da7 4dbe 59d0 5a3e
000000a0: 20d7 c83d c5a4 2ec1 2f62 2dc1 e114 2cc1
000000b0: 80cb 083e 8013 27be dff9 5dbe cba4 31c1
000000c0: 7b70 ac3d ddd2 2d41 d6be 02be 91b7 6c3c
000000d0: 1573 b33e 987b f9bd 2ab4 f9bd a70e 4a3d
000000e0: 6728 213e 7f57 fabc 567a 023e 247f c2bd
000000f0: a090 23c1 d723 3041 5174 2cc1 f985 2bc1
00000100: ffec bcbc 669a e9c0 bc32 2941 b2e6 0cc1
00000110: 08bf 2bc1 8f7a 3241 eb66 543e 53c7 30c1
00000120: fa0a 21be 485b 8d3e 9758 18c1 a434 2ec1
00000130: 39d6 2cc1 a47e 453d 18ab 50c0 75c1 1ec1

model.lstm.bias_hh_l0 f4 [80]
-10.3855915 -0.095923774 -1.8147726 -10.764508 5.460245 0.18858224 10.595018 -10.885125
-11.052572 -0.17105398 0.66667426 -10.92596 1.5114691 0.12834498 -9.27425 -10.950495
-0.23389892 10.413092 -3.5322692 -11.096458 0.20448604 0.05472958 0.18726517 -0.03754368
0.21096428 -0.09914942 0.12971997 0.015166548 -0.1043467 0.057520144 0.016910171 -0.21842447
-0.16610174 0.10400886 -0.1476903 0.08890903 0.068378605 0.08350237 0.13612323 -0.020873306
-0.12476304 -10.775123 -10.918107 -11.05487 0.03251649 0.10913739 -0.037064966 -10.876402
0.19961943 11.149911 0.045998257 -0.1309744 0.34781185 0.0800425 0.2194337 0.12460772
-0.019091591 -0.056049187 -0.17703587 0.0033774227 -10.492116 10.826713 -10.779583 -10.922068
0.034885377 -7.0562396 10.476101 -9.164659 -11.107031 10.980191 -0.050648414 -11.145596
-0.028150965 -0.020616652 -9.22153 -10.740192 -11.138308 0.21913245 -3.5283327 -9.955846
00000000: 622b 26c1 af73 c4bd 784a e8bf 6d3b 2cc1
00000010: 54ba ae40 b41b 413e 3285 2941 7929 2ec1
00000020: 56d7 30c1 c628 2fbe 2aab 2a3f bbd0 2ec1
00000030: d277 c13f de6c 033e 5463 14c1 3a35 2fc1
00000040: 3383 6fbe 069c 2641 b310 62c0 188b 31c1
00000050: ca64 513e 202c 603d 71c2 3f3e 67c7 19bd
00000060: 0507 583e da0e cbbd 50d5 043e 1d7d 783c
00000070: b9b3 d5bd 3e9a 6b3d 3387 8a3c aaaa 5fbe
00000080: 9316 2abe 9902 d53d 203c 17be f015 b63d
00000090: 150a 8c3d 4a03 ab3d e363 0b3e 7ffe aabc
000000a0: c483 ffbd e766 2cc1 91b0 2ec1 bfe0 30c1
000000b0: 0330 053d 6d83 df3d 6fd1 17bd be05 2ec1
000000c0: 0969 4c3e 0966 3241 ab68 3c3d 271e 06be
000000d0: 6514 b23e 52ed a33d 3ab3 603e 5532 ff3d
000000e0: f865 9cbc d593 65bd e448 35be c057 5d3b
000000f0: b5df 27c1 373a 2d41 2c79 2cc1 cac0 2ec1
00000100: f8e3 0e3d b7cc e1c0 1c9e 2741 71a2 12c1
00000110: 66b6 31c1 ddae 2f41 b674 4fbd 5c54 32c1
00000120: da9c e6bc 41e4 a8bc 638b 13c1 d4d7 2bc1
00000130: 8236 32c1 4264 603e 34d0 61c0 254b 1fc1

model.lstm.weight_ih_l1 f4 [80, 20]
-8.049318 10.782124 -10.981913 -10.735437 0.6813816 11.052261 10.462248 -10.922697
10.632963 -11.113511 0.31761858 10.862009 -0.51373726 0.04726997 -4.684501 -11.060808
10.754135 -10.7850065 -0.5146846 -11.161174 7.0793495 -10.675823 10.895238 10.762944
-0.6451851 -11.1477165 -10.421402 11.14567 -10.375891 11.053664 -0.17771943 -10.792806
0.42728874 0.16579215 2.9237416 10.740291 -11.06421 10.791667 0.20990808 10.718086
-1.4191227 9.75296 -11.094127 -10.708797 -0.11454562 10.91069 5.6651025 -10.722043
6.3500404 -11.098864 0.046812408 10.70349 -0.09551259 -0.08682389 -0.41311085 -10.778746
10.783513 -10.952959 -0.23276673 -10.746061 -10.12933 11.120179 -11.106318 -11.160831
2.9455304 11.1470375 10.96811 -11.044096 10.87439 -11.163673 1.3266762 10.832327
-1.2646724 -0.102079734 -8.184375 -10.737706 10.935655 -11.108897 -2.434011 -10.76836
6.933104 -10.911343 11.137606 11.145945 -0.2792921 -11.121814 -10.119813 11.01562
-10.254052 10.953991 -0.13061975 -10.910806 0.045075547 0.040186096 3.3108916 10.751339
-10.903894 10.954444 0.4673466 11.119071 -5.39447 10.957863 -10.763658 -11.103671
0.3547262 10.776132 9.579328 -10.901682 10.051958 -10.918872 0.023772873 11.152181
-0.12865405 0.011775804 -1.783775 -10.898228 11.037013 -10.908468 -0.017494388 -10.95702
-5.5391264 10.910552 -10.862876 -11.143368 0.4096075 11.131942 9.834872 -11.051168
9.938776 -10.776995 0.03755314 11.086937 -0.019741556 -0.07461174 -2.2311943 -11.150448
10.971679 -10.887171 -0.35786352 -11.159799 -9.884498 11.049815 -10.859871 -10.754581
2.7332208 10.982968 10.957459 -10.776765 10.64039 -10.759927 1.3535125 10.81508
-1.3239778 0.20404083 -7.686616 -10.804073 10.828926 -10.741653 -1.9957237 -10.734647
2.9317725 -10.6117935 11.1144905 10.974965 0.038507737 -10.872542 -8.351246 10.852193
-8.767963 10.990762 -0.123765126 -11.056065 0.23431833 -0.15627445 0.7645197 10.977481
-10.72472 10.723199 0.23816815 10.830477 9.822246 -10.821952 10.943921 10.772252
-2.5124469 -11.01362 -10.9525795 10.849444 -10.77912 10.832927 -1.278241 -11.000196
1.2106826 -0.17366219 8.016367 10.856623 -11.020879 11.013915 1.885459 10.911903
-7.350124 10.853443 -10.794596 -11.062938 0.5173058 10.826274 10.545386 -10.966007
10.390998 -10.728668 0.17018025 10.964288 -0.34993023 0.007018888 -3.524747 -10.760063
10.850872 -10.900721 -0.58326787 -10.821893 2.0994143 -10.5657015 10.806803 10.711129
0.045341294 -11.060679 -7.41139 11.05098 -7.9580574 11.0306 -0.19582824 -10.722768
0.24789767 -0.06032462 0.798778 11.12348 -10.851332 11.100957 0.13347451 10.856114
5.9672546 -10.730059 11.088129 11.040137 -0.24557798 -11.08563 -10.240976 10.894172
-10.13624 11.034771 0.025545605 -11.081773 0.08699263 0.13129626 2.3752482 10.898358
00000000: 02ca 00c1 9483 2c41 eab5 2fc1 5ac4 2bc1
00000010: 066f 2e3f 10d6 3041 5e65 2741 5ec3 2ec1
00000020: 9e20 2a41 f1d0 31c1 e79e a23e caca 2d41
00000030: 4984 03bf 289e 413d 6fe7 95c0 12f9 30c1
00000040: f010 2c41 638f 2cc1 5fc2 03bf 2b94 32c1
00000050: 088a e240 2cd0 2ac1 e552 2e41 0535 2c41
00000060: da2a 25bf 0c5d 32c1 10be 26c1 aa54 3241
00000070: a603 26c1 cfdb 3041 15fc 35be 55af 2cc1
00000080: 97c5 da3e 6bc5 293e 951e 3b40 3bd8 2b41
00000090: 0107 31c1 abaa 2c41 25f2 563e 487d 2b41
000000a0: d0a5 b5bf 200c 1c41 8b81 31c1 3c57 2bc1
000000b0: e596 eabd 3092 2e41 8548 b540 7d8d 2bc1
000000c0: 8833 cb40 f294 31c1 5ebe 3f3d 7f41 2b41
000000d0: 1b9c c3bd b9d0 b1bd 4483 d3be be75 2cc1
000000e0: 4589 2c41 523f 2fc1 675a 6ebe deef 2bc1
000000f0: bc11 22c1 41ec 3141 7bb3 31c1 c492 32c1
00000100: 9283 3c40 445a 3241 617d 2f41 9eb4 30c1
00000110: 80fd 2d41 689e 32c1 87d0 a93f 3651 2d41
00000120: c9e0 a1bf 2e0f d1bd 33f3 02c1 a5cd 2bc1
00000130: 71f8 2e41 0bbe 31c1 d6c6 1bc0 344b 2cc1
00000140: fddb dd40 dc94 2ec1 a233 3241 ca55 3241
00000150: 60ff 8ebe f3f2 31c1 c1ea 21c1 fb3f 3041
00000160: 9910 24c1 8c43 2f41 2fc1 05be a992 2ec1
00000170: 23a1 383d 2d9a 243d a6e5 5340 7c05 2c41
00000180: 5a76 2ec1 6745 2f41 0e48 ef3e b7e7 3141
00000190: 809f acc0 6853 2f41 f137 2cc1 a3a8 31c1
000001a0: ac9e b53e 096b 2c41 ed44 1941 4a6d 2ec1
000001b0: d2d4 2041 b3b3 2ec1 54bf c23c 556f 3241
000001c0: e3bd 03be 4def 403c bd52 e4bf 245f 2ec1
000001d0: 9b97 3041 1689 2ec1 6450 8fbc f44f 2fc1
000001e0: 8640 b1c0 9f91 2e41 57ce 2dc1 3c4b 32c1
000001f0: 13b8 d13e 6f1c 3241 a35b 1d41 96d1 30c1
00000200: 3a05 1f41 926e 2cc1 52d1 193d 1864 3141
00000210: 0bb9 a1bc 0ace 98bd e3cb 0ec0 3c68 32c1
00000220: ff8b 2f41 da31 2ec1 e339 b7be 898e 32c1
00000230: e726 1ec1 0bcc 3041 08c2 2dc1 c412 2cc1
00000240: 17ed 2e40 3dba 2f41 c151 2f41 a16d 2cc1
00000250: 0a3f 2a41 a928 2cc1 e63f ad3f 910a 2d41
00000260: 1b78 a9bf 14f0 503e c2f8 f5c0 7cdd 2cc1
00000270: 4843 2d41 d0dd 2bc1 e073 ffbf 1dc1 2bc1
00000280: 29a2 3b40 e8c9 29c1 f4d4 3141 7599 2f41
00000290: 4aba 1d3d eff5 2dc1 b49e 05c1 95a2 2d41
000002a0: 9449 0cc1 29da 2f41 9278 fdbd a4e5 30c1
000002b0: 25f1 6f3e 6906 20be 90b7 433f c3a3 2f41
000002c0: 7498 2bc1 3992 2b41 5ae2 733e a249 2d41
000002d0: eb27 1d41 b726 2dc1 4d1a 2f41 255b 2c41
000002e0: eecb 20c0 ca37 30c1 c43d 2fc1 5397 2d41
000002f0: 4777 2cc1 ab53 2d41 679d a3bf ce00 30c1
00000300: a6f7 9a3f 80d4 31be 0a43 0041 bab4 2d41
00000310: 8555 30c1 ff38 3041 b856 f13f 2897 2e41
00000320: 3734 ebc0 b4a7 2d41 aab6 2cc1 cb01 31c1
00000330: 276e 043f 6b38 2d41 e7b9 2841 c474 2fc1
00000340: 8741 2641 a0a8 2bc1 bb43 2e3e b96d 2f41
00000350: 0e2a b3be b3fe e53b 7495 61c0 3829 2cc1
00000360: 2c9d 2d41 5a69 2ec1 0b51 15bf 7926 2dc1
00000370: ce5c 0640 1d0d 29c1 aae8 2c41 c960 2b41
00000380: cbb7 393d 8bf8 30c1 1b2a edc0 d0d0 3041
00000390: 68a8 fec0 567d 3041 3387 48be 7590 2bc1
000003a0: e3d8 7d3e f316 77bd b77c 4c3f c6f9 3141
000003b0: 0e9f 2dc1 859d 3141 8bad 083e a5b2 2d41
000003c0: c0f3 be40 52ae 2bc1 fa68 3141 67a4 3041
000003d0: cb78 7bbe be5e 31c1 0adb 23c1 874e 2e41
000003e0: 0a2e 22c1 6c8e 3041 0445 d13c f14e 31c1
000003f0: 3129 b23d 8772 063e 1104 1840 ad5f 2e41

model.lstm.weight_hh_l1 f4 [80, 20]
-0.14223395 0.0038123687 0.17764206 -0.18019365 -0.053437244 -0.096893094 0.027419701 0.0002607757
0.0066398783 -0.03600203 0.045500897 0.11568094 0.094995216 -0.15143067 -0.09128685 0.12900703
-0.053512122 0.19526258 0.0324716 -0.033568338 -0.15339836 0.13284914 -0.07546222 0.10460846
-0.009449608 0.18594071 -0.084342964 -0.108565785 0.17262433 0.19034426 0.02142418 -0.22093296
0.14826924 0.094026744 -0.027234096 0.13405308 -0.115527965 -0.07310266 0.10708955 0.1347445
-0.117170796 -0.112691976 -0.010392804 -0.16879861 -0.1187708 -0.046001658 -0.035900522 0.07632042
-0.0857238 0.08669899 -0.18228598 -0.083296716 0.16393518 -0.009531149 0.2198117 0.122332096
-0.11923651 0.16229643 0.068049856 0.05584103 0.06381469 0.05759585 0.21612822 0.13933364
-0.16205022 0.042505722 0.21570215 -0.16993412 -0.110470675 0.17878562 0.19028303 -0.1623509
0.19053666 0.14221138 0.07073403 -0.21051577 -0.07307017 -0.031178946 0.1771225 -0.03877692
-0.1889627 0.21814725 -0.1652404 -0.03291878 0.057436764 0.20696703 0.16238184 -0.1306895
0.07393457 -0.13357264 -0.16572693 0.018242944 -0.10662256 -0.01746299 -0.16139074 -0.16866636
-0.20418993 -0.12764232 -0.014220927 0.030892499 -0.17937171 -0.045622475 -0.01800576 0.08226348
-0.025836654 0.13471933 -0.07611935 0.09556059 0.07388112 -0.021963084 0.20556124 0.033333737
-0.090950966 0.0923862 -0.08145332 0.065645166 -0.05564108 -0.16035315 -0.20089811 -0.0493392
0.027257474 0.13998573 0.054476883 0.14257269 -0.16064315 -0.13095121 -0.12283509 0.012666482
-0.18202662 0.023074692 -0.038973883 0.10330493 -0.13659786 -0.2006688 0.15968183 -0.085778415
-0.19754055 0.083741285 -0.14650789 -0.119419955 0.08415899 -0.18650736 -0.11274579 0.21459483
-0.16128945 0.0603842 0.07527321 -0.20059435 0.1602315 -0.039553836 -0.14747767 0.13670446
0.16875719 0.12781574 0.0023958152 -0.0072499006 0.1365589 -0.13631864 0.12009189 0.082388945
0.028636841 0.122778185 0.17323035 -0.14138128 0.1891249 0.017848969 0.052484106 -0.09688459
-0.2038443 0.14647335 -0.07042523 -0.056524757 0.17669089 -0.06735877 -0.027033295 0.17388465
0.0006918833 0.08634566 -0.12963071 0.003543996 -0.00061322143 0.07862861 0.2088833 0.1524324
-0.15138991 -0.060166366 -0.1331242 -0.21328881 -0.014733495 -0.110135905 0.10700713 0.21786472
0.15741855 -0.14065468 0.043263365 -0.22062013 -0.12640423 0.21211992 -0.22035934 0.1250313
0.17389247 -0.122930385 0.026888287 -0.059635006 0.13610464 -0.05837532 -0.19478093 0.016741225
-0.05288176 -0.0621327 0.044172764 -0.09585295 -0.18100645 -0.1896194 -0.1130831 0.09804327
-0.0022497403 -0.17987064 0.034666803 -0.21061322 0.025294045 -0.20886578 -0.03808189 -0.20504764
0.04081898 0.053325024 0.18628514 0.17966458 0.18738778 -0.20215519 -0.16542718 0.16687103
-0.09173995 -0.15098967 -0.20748606 -0.028538054 -0.011814768 -0.17371826 0.11933524 0.13424237
-0.18211336 0.15584499 0.14893578 -0.19810025 -0.033407494 0.19549833 0.08294667 -0.09499196
0.008373212 0.20302692 -0.13745794 -0.14249645 -0.0052485145 0.11193553 -0.18599549 -0.1737291
00000000: c7a5 11be efd8 793b cde7 353e af84 38be
00000010: 03e1 5abd e36f c6bd 489f e03c b9b8 8839
00000020: 5693 d93b dd76 13bd 265f 3a3d 21ea ec3d
00000030: da8c c23d a410 1bbe 9af4 babd 6b1a 043e
00000040: 872f 5bbd eaf2 473e f100 053d f47e 09bd
00000050: 7614 1dbe 9b09 083e f08b 9abd f63c d63d
00000060: 87d2 1abc 3e67 3e3e 01bc acbd bd57 debd
00000070: 6fc4 303e 9be9 423e c381 af3c 403c 62be
00000080: e4d3 173e 1891 c03d 0a1a dfbc 3645 093e
00000090: ed99 ecbd d9b6 95bd c451 db3d 76fa 093e
000000a0: 3ef7 efbd 0dcb e6bd 9446 2abc 8bd9 2cbe
000000b0: 1b3e f3bd 3c6c 3cbd 6d0c 13bd e14d 9c3d
000000c0: f68f afbd 3d8f b13d 2da9 3abe 7897 aabd
000000d0: a0de 273e 8928 1cbc 5116 613e 4089 fa3d
000000e0: 4532 f4bd 0931 263e b95d 8b3d 90b9 643d
000000f0: 47b1 823d a0e9 6b3d b750 5d3e 7aad 0e3e
00000100: 7ef0 25be 7b1a 2e3d 06e1 5c3e 3603 2ebe
00000110: 733e e2bd 9413 373e 8ed9 423e 503f 26be
00000120: 0b1c 433e dc9f 113e 01dd 903d 7291 57be
00000130: d0a5 95bd fd6a ffbc 9a5f 353e 8cd4 1ebd
00000140: 707f 41be fe61 5f3e c834 29be d8d5 06bd
00000150: d042 6b3d 2aef 533e 6d47 263e 78d3 05be
00000160: 026b 973d 44c7 08be 52b4 29be 3a72 953c
00000170: ee5c dabd 8b0e 8fbc 9d43 25be e0b6 2cbe
00000180: 2a17 51be abb4 02be e4fe 68bc 4412 fd3c
00000190: 38ad 37be a2de 3abd d180 93bc c179 a83d
000001a0: 64a7 d3bc ddf3 093e 76e4 9bbd 45b5 c33d
000001b0: fc4e 973d edeb b3bc a57e 523e f588 083d
000001c0: 8044 babd fa34 bd3d 00d1 a6bd f970 863d
000001d0: e7e7 63bd 9e33 24be 3cb8 4dbe e717 4abd
000001e0: 114b df3c 6b58 0f3e 2723 5f3d 93fe 113e
000001f0: a37f 24be 1318 06be f790 fbbd 1387 4f3c
00000200: 3065 3abe 2307 bd3c 14a3 1fbd 8991 d33d
00000210: 4fe0 0bbe 1f7c 4dbe a283 233e 98ac afbd
00000220: 1248 4abe 8d80 ab3d 2a06 16be 7392 f4bd
00000230: 8c5b ac3d c9fb 3ebe 44e7 e6bd bfbe 5b3e
00000240: 1029 25be 6c55 773d d728 9a3d 9b68 4dbe
00000250: ba13 243e 3403 22bd 6304 17be 41fc 0b3e
00000260: afce 2c3e 21e2 023e 1c03 1d3b 9390 edbb
00000270: 19d6 0b3e 1d97 0bbe bdf2 f53d 89bb a83d
00000280: cf97 ea3c 2173 fb3d 4c63 313e 41c6 10be
00000290: f5a9 413e 0038 923c 93f9 563d 6e6b c6bd
000002a0: 8fbc 50be 1cfd 153e 1a3b 90bd 8186 67bd
000002b0: 75ee 343e 65f3 89bd ee74 ddbc d10e 323e
000002c0: 815f 353a fed5 b03d eabd 04be 6342 683b
000002d0: 98c0 20ba 0908 a13d 81e5 553e 3d17 1c3e
000002e0: f505 1bbe 0271 76bd b651 08be 6268 5abe
000002f0: c264 71bc ef8e e1bd 8e26 db3d ee17 5f3e
00000300: 5432 213e c807 10be ed34 313d 3eea 61be
00000310: 1c70 01be f735 593e e1a5 61be 3508 003e
00000320: de10 323e edc2 fbbd d344 dc3c d643 74bd
00000330: 045f 0b3e f61a 6fbd a774 47be e524 893c
00000340: 8b9a 58bd dc7e 7ebd 80ee 343d 8d4e c4bd
00000350: c159 39be 972b 42be 1d98 e7bd e9ca c83d
00000360: 6170 13bb 0230 38be c7fe 0d3d feaa 57be
00000370: 7535 cf3c e9e0 55be c2fb 1bbd 02f8 51be
00000380: ce31 273d 576b 5a3d 88c1 3e3e fef9 373e
00000390: 95e2 3f3e c501 4fbe be65 29be 3de0 2a3e
000003a0: 28e2 bbbd 099d 1abe 3a77 54be a3c8 e9bc
000003b0: bb92 41bc 33e3 31be 0966 f43d d576 093e
000003c0: ed7b 3abe d495 1f3e 9f82 183e cbda 4abe
000003d0: 4cd6 08bd b730 483e f2df a93d 258b c2bd
000003e0: cc2f 093c 4ae6 4f3e c6c1 0cbe 97ea 11be
000003f0: bbfb abbb 753e e53d 9a75 3ebe 0be6 31be

model.lstm.bias_ih_l1 f4 [80]
-11.096319 10.767324 -10.95201 -10.943101 10.974524 -10.820934 -10.954181 -11.101828
10.882132 10.827083 -10.949032 10.829577 10.962482 11.103151 11.097924 -10.871286
10.718924 11.0263605 10.752858 10.918403 0.0033201922 -0.13512224 0.22198576 -0.2229283
0.10260529 0.110604994 0.09497466 0.038775295 0.1343498 -0.04563639 -0.12877908 0.1519904
0.17985807 0.0005698521 0.052192837 -0.12595323 -0.10348539 -0.053037964 0.2102226 -0.009655392
-10.724668 -11.035586 10.917615 10.969861 -11.025343 11.068826 10.820344 -10.747865
-10.844965 -11.12696 10.986796 11.064892 10.847784 -10.935566 11.0166 11.057002
10.862188 -11.148063 -11.094982 -10.909334 -10.892833 11.155194 -10.971652 -10.808143
11.03793 -11.069134 -10.830551 -10.9689245 10.926791 10.875814 -11.096367 11.016016
10.904752 11.049688 10.904441 -10.877847 11.033005 11.079849 10.733435 10.985781
00000000: 868a 31c1 f646 2c41 6f3b 2fc1 f116 2fc1
00000010: a697 2f41 8c22 2dc1 5344 2fc1 16a1 31c1
00000020: 361d 2e41 bb3b 2d41 3c2f 2fc1 f345 2d41
00000030: 5466 2f41 82a6 3141 1991 3141 caf0 2dc1
00000040: b680 2b41 f96b 3041 b50b 2c41 c7b1 2e41
00000050: 9597 593b 7c5d 0abe 3c50 633e 5147 64be
00000060: b922 d23d df84 e23d 1382 c23d d8d2 1e3d
00000070: fe92 093e 39ed 3abd aade 03be 5fa3 1b3e
00000080: b72c 383e 2162 153a 28c8 553d e2f9 00be
00000090: 26f0 d3bd 563e 59bd 9844 573e a631 1ebc
000000a0: 3d98 2bc1 c391 30c1 8dae 2e41 8d84 2f41
000000b0: ce67 30c1 e919 3141 2120 2d41 41f7 2bc1
000000c0: fa84 2dc1 0708 32c1 ebc9 2f41 cc09 3141
000000d0: 8690 2d41 14f8 2ec1 fe43 3041 7be9 3041
000000e0: 86cb 2d41 775e 32c1 0c85 31c1 a28c 2ec1
000000f0: 0b49 2ec1 ad7b 3241 e38b 2fc1 27ee 2cc1
00000100: 5c9b 3041 2c1b 31c1 f049 2dc1 b780 2fc1
00000110: 23d4 2e41 5603 2e41 b88a 31c1 9a41 3041
00000120: dd79 2e41 86cb 3041 9778 2e41 a90b 2ec1
00000130: 3087 3041 1047 3141 26bc 2b41 c2c5 2f41

model.lstm.bias_hh_l1 f4 [80]
-11.077418 11.066313 -10.763765 -10.7185955 11.1436 -11.076006 -11.019852 -10.740342
10.822326 10.793484 -10.762119 10.806753 11.143151 10.933483 11.114331 -10.954135
11.015073 10.868217 10.7202635 10.817332 0.11985226 -0.102800064 -0.08899457 -0.05739161
-0.045441534 0.11024557 -0.024890073 0.06271713 -0.05783546 -0.10659673 -0.17082873 0.056459367
-0.09870391 0.16907175 0.15346943 -0.08524413 -0.05406915 0.1986942 -0.114624485 0.19997664
-10.755053 -10.85981 10.971163 10.782599 -11.119897 11.070149 10.951087 -10.866484
-11.146777 -10.890433 11.027048 11.098309 10.832819 -11.0139 11.1308565 10.720229
11.099056 -10.776994 -10.902061 -10.924176 -10.89091 10.830593 -11.057623 -10.790852
10.7390375 -10.810431 -10.857797 -11.089842 10.716902 11.156628 -10.932152 10.92893
10.814991 10.816833 10.982841 -11.004077 11.004448 11.127631 10.785797 10.834897
00000000: 1b3d 31c1 9e0f 3141 6238 2cc1 5e7f 2bc1
00000010: 304c 3241 5237 31c1 5051 30c1 71d8 2bc1
00000020: 3f28 2d41 1cb2 2c41 a431 2cc1 76e8 2c41
00000030: 594a 3241 8cef 2e41 4dd4 3141 2344 2fc1
00000040: bd3d 3041 38e4 2d41 3386 2b41 cb13 2d41
00000050: 1a75 f53d d788 d2bd c942 b6bd 7713 6bbd
00000060: e720 3abd 6ec8 e13d 44e6 cbbc d771 803d
00000070: e0e4 6cbd 634f dabd baed 2ebe f041 673d
00000080: 4725 cabd 2521 2d3e 1727 1d3e 7994 aebd
00000090: 9d77 5dbd 7e76 4b3e 3ec0 eabd adc6 4c3e
000000a0: b214 2cc1 c8c1 2dc1 e289 2f41 8785 2c41
000000b0: 19eb 31c1 551f 3141 a737 2f41 1edd 2dc1
000000c0: 3359 32c1 373f 2ec1 ca6e 3041 ac92 3141
000000d0: 3a53 2d41 ef38 30c1 fd17 3241 0f86 2b41
000000e0: bc95 3141 916e 2cc1 d86e 2ec1 6dc9 2ec1
000000f0: 2b41 2ec1 1c4a 2d41 06ec 30c1 54a7 2cc1
00000100: 19d3 2b41 86f7 2cc1 89b9 2dc1 fe6f 31c1
00000110: 6e78 2b41 8c81 3241 18ea 2ec1 e6dc 2e41
00000120: 340a 2d41 bf11 2d41 b7b9 2f41 b310 30c1
00000130: 3812 3041 c70a 3241 a092 2c41 bd5b 2d41

model.linear.weight f4 [1, 20]
10.879191 -13.401244 -10.90167 -10.772935 -13.339738 -10.837327 -10.8623495 10.757528
-13.257055 -13.668911 -10.794622 13.314084 13.272832 -13.659177 13.606142 -10.762294
13.309592 -13.336303 -13.351986 -13.21246
00000000: 2b11 2e41 7f6b 56c1 3e6d 2ec1 f15d 2cc1
00000010: 916f 55c1 b165 2dc1 2fcc 2dc1 d61e 2c41
00000020: e61c 54c1 dcb3 5ac1 c6b6 2cc1 7d06 5541
00000030: 855d 5441 fd8b 5ac1 c2b2 5941 5b32 2cc1
00000040: 17f4 5441 7f61 55c1 bca1 55c1 3c66 53c1

exp_avg f4 [80, 1]
2.18031e-06 0.0 2.2152154e-08 0.016745133 -1.0832769e-07 0.0 -9.192821e-06 1.5670393
1.9218134e-05 0.0 -6.2664873e-09 0.00070472696 -1.6301238e-08 -1.4118583e-09 7.2126875e-07 1.5752352e-05
2.9687097e-10 -3.2436083e-06 5.2407746e-08 0.0035858536 0.0 0.0 0.0 0.0
0.0 0.0 0.0 0.0 0.0 0.0 0.0 0.0
0.0 0.0 0.0 0.0 0.0 0.0 0.0 0.0
0.0 0.00021278189 0.009270523 0.006570489 0.0 0.0 0.0 0.0003765801
-8.0825444e-11 -20.300322 3.5214277e-15 0.0 -1.6537731e-09 0.0 0.0 0.0
0.0 0.0 0.0 0.0 2.1829228e-06 -0.00021828435 0.04120873 0.0056272107
-3.711205e-12 2.1723056e-07 -4.2173447e-06 5.378437e-07 5.5653e-05 -0.02755613 0.0 0.00060475874
-9.444633e-14 -7.1556744e-10 7.2212214e-07 0.018356824 0.05049547 0.0 5.2331025e-08 1.3562648e-06
00000000: 7151 1236 0000 0000 1a49 be32 172d 893c
00000010: c7a1 e8b3 0000 0000 de3a 1ab7 be94 c83f
00000020: a136 a137 0000 0000 9b50 d7b1 6dbd 383a
00000030: cd06 8cb2 590b c2b0 369d 4135 eb23 8437
00000040: e034 a32f c4ac 59b6 ed16 6133 a400 6b3b
00000050: 0000 0000 0000 0000 0000 0000 0000 0000
00000060: 0000 0000 0000 0000 0000 0000 0000 0000
00000070: 0000 0000 0000 0000 0000 0000 0000 0000
00000080: 0000 0000 0000 0000 0000 0000 0000 0000
00000090: 0000 0000 0000 0000 0000 0000 0000 0000
000000a0: 0000 0000 341e 5f39 64e3 173c 424d d73b
000000b0: 0000 0000 0000 0000 0000 0000 ba6f c539
000000c0: aebc b1ae 0f67 a2c1 e0be 7d27 0000 0000
000000d0: f84a e3b0 0000 0000 0000 0000 0000 0000
000000e0: 0000 0000 0000 0000 0000 0000 0000 0000
000000f0: 547e 1236 42e3 64b9 7cca 283d 7764 b83b
00000100: 9093 82ac e23f 6934 b782 8db6 5660 1035
00000110: f46c 6938 65bd e1bc 0000 0000 ac88 1e3a
00000120: 9aac d4a9 95b1 44b0 dbd7 4135 0d61 963c
00000130: 57d4 4e3d 0000 0000 92c2 6033 e708 b635

exp_avg_sq f4 [80, 1]
7.230985e-13 0.0 7.464367e-17 4.265189e-05 1.7850074e-15 0.0 1.2854603e-11 0.37352595
5.6180217e-11 0.0 5.973231e-18 7.55445e-08 4.0420548e-17 3.0320983e-19 7.913256e-14 3.774434e-11
1.3405915e-20 1.6003603e-12 4.1778418e-16 1.9558977e-06 0.0 0.0 0.0 0.0
0.0 0.0 0.0 0.0 0.0 0.0 0.0 0.0
0.0 0.0 0.0 0.0 0.0 0.0 0.0 0.0
0.0 6.8870034e-09 1.3072826e-05 6.5668396e-06 0.0 0.0 0.0 2.1571273e-08
9.937043e-22 62.68547 1.8862471e-30 0.0 4.1601865e-19 0.0 0.0 0.0
0.0 0.0 0.0 0.0 7.2483263e-13 7.2477992e-09 0.00025830898 4.8166753e-06
2.0950331e-24 7.17799e-15 2.7054474e-12 4.4002064e-14 4.711272e-10 0.00011550414 0.0 5.5632086e-08
1.3568481e-27 7.788649e-20 7.9319926e-14 5.1257346e-05 0.0003878518 0.0 4.1656183e-16 2.7980146e-13
00000000: bd88 4b2b 0000 0000 d81d ac24 1ee5 3238
00000010: 939f 0027 0000 0000 fc23 622d cb3e bf3e
00000020: 4d15 772e 0000 0000 925f dc22 073b a233
00000030: 2968 3a24 c6fb b220 d130 b229 5900 262e
00000040: 073b 7d1e 0e3b e12b 10d6 f025 1142 0336
00000050: 0000 0000 0000 0000 0000 0000 0000 0000
00000060: 0000 0000 0000 0000 0000 0000 0000 0000
00000070: 0000 0000 0000 0000 0000 0000 0000 0000
00000080: 0000 0000 0000 0000 0000 0000 0000 0000
00000090: 0000 0000 0000 0000 0000 0000 0000 0000
000000a0: 0000 0000 b9a2 ec31 5c53 5b37 b958 dc36
000000b0: 0000 0000 0000 0000 0000 0000 bb4b b932
000000c0: 132a 961c ecbd 7a42 d207 190e 0000 0000
000000d0: f692 f520 0000 0000 0000 0000 0000 0000
000000e0: 0000 0000 0000 0000 0000 0000 0000 0000
000000f0: b205 4c2b 5108 f931 a56d 8739 ed9e a136
00000100: 6818 2218 a34e 0128 0261 3e2c ed2a 4629
00000110: a180 0130 d03a f238 0000 0000 20f0 6e33
00000120: 4c00 d712 7fe7 b71f d39c b229 28fd 5638
00000130: 9658 cb39 0000 0000 ad21 f025 a483 9d2a

exp_avg f4 [80, 20]
0.0 0.0 0.0 0.0 0.0 0.0 0.0 0.0
0.0 0.0 0.0 0.0 0.0 0.0 0.0 0.0
0.0 0.0 0.0 0.0 0.0 0.0 0.0 0.0
0.0 0.0 0.0 0.0 0.0 0.0 0.0 0.0
0.0 0.0 0.0 0.0 0.0 0.0 0.0 0.0
0.0 0.0 0.0 0.0 0.0 0.0 0.0 0.0
0.0 0.0 0.0 0.0 0.0 0.0 0.0 0.0
0.0 0.0 0.0 0.0 0.0 0.0 0.0 0.0
0.0 0.0 0.0 0.0 0.0 0.0 0.0 0.0
0.0 0.0 0.0 0.0 0.0 0.0 0.0 0.0
0.0 0.0 0.0 0.0 0.0 0.0 0.0 0.0
0.0 0.0 0.0 0.0 0.0 0.0 0.0 0.0
0.0 0.0 0.0 0.0 0.0 0.0 0.0 0.0
0.0 0.0 0.0 0.0 0.0 0.0 0.0 0.0
0.0 0.0 0.0 0.0 0.0 0.0 0.0 0.0
0.0 0.0 0.0 0.0 0.0 0.0 0.0 0.0
0.0 0.0 0.0 0.0 0.0 0.0 0.0 0.0
0.0 0.0 0.0 0.0 0.0 0.0 0.0 0.0
0.0 0.0 0.0 0.0 0.0 0.0 0.0 0.0
0.0 0.0 0.0 0.0 0.0 0.0 0.0 0.0
0.0 0.0 0.0 0.0 0.0 0.0 0.0 0.0
0.0 0.0 0.0 0.0 0.0 0.0 0.0 0.0
0.0 0.0 0.0 0.0 0.0 0.0 0.0 0.0
0.0 0.0 0.0 0.0 0.0 0.0 0.0 0.0
0.0 0.0 0.0 0.0 0.0 0.0 0.0 0.0
0.0 0.0 0.0 0.0 0.0 0.0 0.0 0.0
0.0 0.0 0.0 0.0 0.0 0.0 0.0 0.0
0.0 0.0 0.0 0.0 0.0 0.0 0.0 0.0
0.0 0.0 0.0 0.0 0.0 0.0 0.0 0.0
0.0 0.0 0.0 0.0 0.0 0.0 0.0 0.0
0.0 0.0 0.0 0.0 0.0 0.0 0.0 0.0
0.0 0.0 0.0 0.0 0.0 0.0 0.0 0.0
00000000: 0000 0000 0000 0000 0000 0000 0000 0000
00000010: 0000 0000 0000 0000 0000 0000 0000 0000
00000020: 0000 0000 0000 0000 0000 0000 0000 0000
00000030: 0000 0000 0000 0000 0000 0000 0000 0000
00000040: 0000 0000 0000 0000 0000 0000 0000 0000
00000050: 0000 0000 0000 0000 0000 0000 0000 0000
00000060: 0000 0000 0000 0000 0000 0000 0000 0000
00000070: 0000 0000 0000 0000 0000 0000 0000 0000
00000080: 0000 0000 0000 0000 0000 0000 0000 0000
00000090: 0000 0000 0000 0000 0000 0000 0000 0000
000000a0: 0000 0000 0000 0000 0000 0000 0000 0000
000000b0: 0000 0000 0000 0000 0000 0000 0000 0000
000000c0: 0000 0000 0000 0000 0000 0000 0000 0000
000000d0: 0000 0000 0000 0000 0000 0000 0000 0000
000000e0: 0000 0000 0000 0000 0000 0000 0000 0000
000000f0: 0000 0000 0000 0000 0000 0000 0000 0000
00000100: 0000 0000 0000 0000 0000 0000 0000 0000
00000110: 0000 0000 0000 0000 0000 0000 0000 0000
00000120: 0000 0000 0000 0000 0000 0000 0000 0000
00000130: 0000 0000 0000 0000 0000 0000 0000 0000
00000140: 0000 0000 0000 0000 0000 0000 0000 0000
00000150: 0000 0000 0000 0000 0000 0000 0000 0000
00000160: 0000 0000 0000 0000 0000 0000 0000 0000
00000170: 0000 0000 0000 0000 0000 0000 0000 0000
00000180: 0000 0000 0000 0000 0000 0000 0000 0000
00000190: 0000 0000 0000 0000 0000 0000 0000 0000
000001a0: 0000 0000 0000 0000 0000 0000 0000 0000
000001b0: 0000 0000 0000 0000 0000 0000 0000 0000
000001c0: 0000 0000 0000 0000 0000 0000 0000 0000
000001d0: 0000 0000 0000 0000 0000 0000 0000 0000
000001e0: 0000 0000 0000 0000 0000 0000 0000 0000
000001f0: 0000 0000 0000 0000 0000 0000 0000 0000
00000200: 0000 0000 0000 0000 0000 0000 0000 0000
00000210: 0000 0000 0000 0000 0000 0000 0000 0000
00000220: 0000 0000 0000 0000 0000 0000 0000 0000
00000230: 0000 0000 0000 0000 0000 0000 0000 0000
00000240: 0000 0000 0000 0000 0000 0000 0000 0000
00000250: 0000 0000 0000 0000 0000 0000 0000 0000
00000260: 0000 0000 0000 0000 0000 0000 0000 0000
00000270: 0000 0000 0000 0000 0000 0000 0000 0000
00000280: 0000 0000 0000 0000 0000 0000 0000 0000
00000290: 0000 0000 0000 0000 0000 0000 0000 0000
000002a0: 0000 0000 0000 0000 0000 0000 0000 0000
000002b0: 0000 0000 0000 0000 0000 0000 0000 0000
000002c0: 0000 0000 0000 0000 0000 0000 0000 0000
000002d0: 0000 0000 0000 0000 0000 0000 0000 0000
000002e0: 0000 0000 0000 0000 0000 0000 0000 0000
000002f0: 0000 0000 0000 0000 0000 0000 0000 0000
00000300: 0000 0000 0000 0000 0000 0000 0000 0000
00000310: 0000 0000 0000 0000 0000 0000 0000 0000
00000320: 0000 0000 0000 0000 0000 0000 0000 0000
00000330: 0000 0000 0000 0000 0000 0000 0000 0000
00000340: 0000 0000 0000 0000 0000 0000 0000 0000
00000350: 0000 0000 0000 0000 0000 0000 0000 0000
00000360: 0000 0000 0000 0000 0000 0000 0000 0000
00000370: 0000 0000 0000 0000 0000 0000 0000 0000
00000380: 0000 0000 0000 0000 0000 0000 0000 0000
00000390: 0000 0000 0000 0000 0000 0000 0000 0000
000003a0: 0000 0000 0000 0000 0000 0000 0000 0000
000003b0: 0000 0000 0000 0000 0000 0000 0000 0000
000003c0: 0000 0000 0000 0000 0000 0000 0000 0000
000003d0: 0000 0000 0000 0000 0000 0000 0000 0000
000003e0: 0000 0000 0000 0000 0000 0000 0000 0000
000003f0: 0000 0000 0000 0000 0000 0000 0000 0000

exp_avg_sq f4 [80, 20]
0.0 0.0 0.0 0.0 0.0 0.0 0.0 0.0
0.0 0.0 0.0 0.0 0.0 0.0 0.0 0.0
0.0 0.0 0.0 0.0 0.0 0.0 0.0 0.0
0.0 0.0 0.0 0.0 0.0 0.0 0.0 0.0
0.0 0.0 0.0 0.0 0.0 0.0 0.0 0.0
0.0 0.0 0.0 0.0 0.0 0.0 0.0 0.0
0.0 0.0 0.0 0.0 0.0 0.0 0.0 0.0
0.0 0.0 0.0 0.0 0.0 0.0 0.0 0.0
0.0 0.0 0.0 0.0 0.0 0.0 0.0 0.0
0.0 0.0 0.0 0.0 0.0 0.0 0.0 0.0
0.0 0.0 0.0 0.0 0.0 0.0 0.0 0.0
0.0 0.0 0.0 0.0 0.0 0.0 0.0 0.0
0.0 0.0 0.0 0.0 0.0 0.0 0.0 0.0
0.0 0.0 0.0 0.0 0.0 0.0 0.0 0.0
0.0 0.0 0.0 0.0 0.0 0.0 0.0 0.0
0.0 0.0 0.0 0.0 0.0 0.0 0.0 0.0
0.0 0.0 0.0 0.0 0.0 0.0 0.0 0.0
0.0 0.0 0.0 0.0 0.0 0.0 0.0 0.0
0.0 0.0 0.0 0.0 0.0 0.0 0.0 0.0
0.0 0.0 0.0 0.0 0.0 0.0 0.0 0.0
0.0 0.0 0.0 0.0 0.0 0.0 0.0 0.0
0.0 0.0 0.0 0.0 0.0 0.0 0.0 0.0
0.0 0.0 0.0 0.0 0.0 0.0 0.0 0.0
0.0 0.0 0.0 0.0 0.0 0.0 0.0 0.0
0.0 0.0 0.0 0.0 0.0 0.0 0.0 0.0
0.0 0.0 0.0 0.0 0.0 0.0 0.0 0.0
0.0 0.0 0.0 0.0 0.0 0.0 0.0 0.0
0.0 0.0 0.0 0.0 0.0 0.0 0.0 0.0
0.0 0.0 0.0 0.0 0.0 0.0 0.0 0.0
0.0 0.0 0.0 0.0 0.0 0.0 0.0 0.0
0.0 0.0 0.0 0.0 0.0 0.0 0.0 0.0
0.0 0.0 0.0 0.0 0.0 0.0 0.0 0.0
00000000: 0000 0000 0000 0000 0000 0000 0000 0000
00000010: 0000 0000 0000 0000 0000 0000 0000 0000
00000020: 0000 0000 0000 0000 0000 0000 0000 0000
00000030: 0000 0000 0000 0000 0000 0000 0000 0000
00000040: 0000 0000 0000 0000 0000 0000 0000 0000
00000050: 0000 0000 0000 0000 0000 0000 0000 0000
00000060: 0000 0000 0000 0000 0000 0000 0000 0000
00000070: 0000 0000 0000 0000 0000 0000 0000 0000
00000080: 0000 0000 0000 0000 0000 0000 0000 0000
00000090: 0000 0000 0000 0000 0000 0000 0000 0000
000000a0: 0000 0000 0000 0000 0000 0000 0000 0000
000000b0: 0000 0000 0000 0000 0000 0000 0000 0000
000000c0: 0000 0000 0000 0000 0000 0000 0000 0000
000000d0: 0000 0000 0000 0000 0000 0000 0000 0000
000000e0: 0000 0000 0000 0000 0000 0000 0000 0000
000000f0: 0000 0000 0000 0000 0000 0000 0000 0000
00000100: 0000 0000 0000 0000 0000 0000 0000 0000
00000110: 0000 0000 0000 0000 0000 0000 0000 0000
00000120: 0000 0000 0000 0000 0000 0000 0000 0000
00000130: 0000 0000 0000 0000 0000 0000 0000 0000
00000140: 0000 0000 0000 0000 0000 0000 0000 0000
00000150: 0000 0000 0000 0000 0000 0000 0000 0000
00000160: 0000 0000 0000 0000 0000 0000 0000 0000
00000170: 0000 0000 0000 0000 0000 0000 0000 0000
00000180: 0000 0000 0000 0000 0000 0000 0000 0000
00000190: 0000 0000 0000 0000 0000 0000 0000 0000
000001a0: 0000 0000 0000 0000 0000 0000 0000 0000
000001b0: 0000 0000 0000 0000 0000 0000 0000 0000
000001c0: 0000 0000 0000 0000 0000 0000 0000 0000
000001d0: 0000 0000 0000 0000 0000 0000 0000 0000
000001e0: 0000 0000 0000 0000 0000 0000 0000 0000
000001f0: 0000 0000 0000 0000 0000 0000 0000 0000
00000200: 0000 0000 0000 0000 0000 0000 0000 0000
00000210: 0000 0000 0000 0000 0000 0000 0000 0000
00000220: 0000 0000 0000 0000 0000 0000 0000 0000
00000230: 0000 0000 0000 0000 0000 0000 0000 0000
00000240: 0000 0000 0000 0000 0000 0000 0000 0000
00000250: 0000 0000 0000 0000 0000 0000 0000 0000
00000260: 0000 0000 0000 0000 0000 0000 0000 0000
00000270: 0000 0000 0000 0000 0000 0000 0000 0000
00000280: 0000 0000 0000 0000 0000 0000 0000 0000
00000290: 0000 0000 0000 0000 0000 0000 0000 0000
000002a0: 0000 0000 0000 0000 0000 0000 0000 0000
000002b0: 0000 0000 0000 0000 0000 0000 0000 0000
000002c0: 0000 0000 0000 0000 0000 0000 0000 0000
000002d0: 0000 0000 0000 0000 0000 0000 0000 0000
000002e0: 0000 0000 0000 0000 0000 0000 0000 0000
000002f0: 0000 0000 0000 0000 0000 0000 0000 0000
00000300: 0000 0000 0000 0000 0000 0000 0000 0000
00000310: 0000 0000 0000 0000 0000 0000 0000 0000
00000320: 0000 0000 0000 0000 0000 0000 0000 0000
00000330: 0000 0000 0000 0000 0000 0000 0000 0000
00000340: 0000 0000 0000 0000 0000 0000 0000 0000
00000350: 0000 0000 0000 0000 0000 0000 0000 0000
00000360: 0000 0000 0000 0000 0000 0000 0000 0000
00000370: 0000 0000 0000 0000 0000 0000 0000 0000
00000380: 0000 0000 0000 0000 0000 0000 0000 0000
00000390: 0000 0000 0000 0000 0000 0000 0000 0000
000003a0: 0000 0000 0000 0000 0000 0000 0000 0000
000003b0: 0000 0000 0000 0000 0000 0000 0000 0000
000003c0: 0000 0000 0000 0000 0000 0000 0000 0000
000003d0: 0000 0000 0000 0000 0000 0000 0000 0000
000003e0: 0000 0000 0000 0000 0000 0000 0000 0000
000003f0: 0000 0000 0000 0000 0000 0000 0000 0000

exp_avg f4 [80]
1.9291269e-08 0.0 1.9944235e-10 0.00013448182 -9.774292e-10 0.0 -7.9477495e-08 0.011084159
1.6663516e-07 0.0 -5.685006e-11 5.838365e-06 -1.4763907e-10 -1.29107515e-11 6.4362586e-09 1.3531131e-07
2.8545287e-12 -2.8484616e-08 4.737876e-10 2.9680014e-05 0.0 0.0 0.0 0.0
0.0 0.0 0.0 0.0 0.0 0.0 0.0 0.0
0.0 0.0 0.0 0.0 0.0 0.0 0.0 0.0
0.0 1.834176e-06 7.577853e-05 5.4412987e-05 0.0 0.0 0.0 3.2061769e-06
-7.520002e-13 -0.14577454 3.3288262e-17 0.0 -1.5158957e-11 0.0 0.0 0.0
0.0 0.0 0.0 0.0 1.9315111e-08 -1.8439072e-06 0.00032330112 4.540405e-05
-3.4696235e-14 2.0363997e-09 -3.6520632e-08 4.830057e-09 4.8115544e-07 -0.00022101347 0.0 4.998452e-06
-8.883498e-16 -6.541754e-12 6.444096e-09 0.00014569951 0.00040238927 0.0 4.730764e-10 1.2212792e-08
00000000: f3b5 a532 0000 0000 084a 5b2f b003 0d39
00000010: 3c56 86b0 0000 0000 37ad aab3 559a 353c
00000020: 53ec 3234 0000 0000 7a07 7aae 2ce7 c336
00000030: b454 22af db20 63ad ee25 dd31 174a 1134
00000040: 9ede 482c 55ae f4b2 d73b 0230 58f9 f837
00000050: 0000 0000 0000 0000 0000 0000 0000 0000
00000060: 0000 0000 0000 0000 0000 0000 0000 0000
00000070: 0000 0000 0000 0000 0000 0000 0000 0000
00000080: 0000 0000 0000 0000 0000 0000 0000 0000
00000090: 0000 0000 0000 0000 0000 0000 0000 0000
000000a0: 0000 0000 cf2d f635 4aeb 9e38 8039 6438
000000b0: 0000 0000 0000 0000 0000 0000 b329 5736
000000c0: 53ab 53ab ec45 15be d883 1924 0000 0000
000000d0: f056 85ad 0000 0000 0000 0000 0000 0000
000000e0: 0000 0000 0000 0000 0000 0000 0000 0000
000000f0: 61ea a532 2b7c f7b5 be80 a939 3a70 3e38
00000100: 0942 1ca9 b9f0 0b31 dcda 1cb3 a1f5 a531
00000110: c028 0135 dabf 67b9 0000 0000 60b8 a736
00000120: 5306 80a6 e22a e6ac de6a dd31 eac6 1839
00000130: c6f7 d239 0000 0000 cb09 0230 6dd0 5132

exp_avg_sq f4 [80]
5.6608615e-17 0.0 6.050564e-21 2.7509846e-09 1.453221e-19 0.0 9.608362e-16 1.8688159e-05
4.2237116e-15 0.0 4.916125e-22 5.184937e-12 3.3156117e-21 2.5355023e-23 6.3012675e-18 2.7850257e-15
1.2394521e-24 1.2341893e-16 3.4145108e-20 1.3399518e-10 0.0 0.0 0.0 0.0
0.0 0.0 0.0 0.0 0.0 0.0 0.0 0.0
0.0 0.0 0.0 0.0 0.0 0.0 0.0 0.0
0.0 5.1173253e-13 8.734808e-10 4.5036658e-10 0.0 0.0 0.0 1.563637e-12
8.6019513e-26 0.0032323948 1.6855566e-34 0.0 3.4954234e-23 0.0 0.0 0.0
0.0 0.0 0.0 0.0 5.674863e-17 5.1717685e-13 1.5899206e-08 3.1358127e-10
1.8311573e-28 6.3079325e-19 2.028792e-16 3.548669e-18 3.5215337e-14 7.430165e-09 0.0 3.800424e-12
1.2004086e-31 6.509528e-24 6.3166233e-18 3.2290681e-09 2.4629394e-08 0.0 3.4042663e-20 2.2687723e-17
00000000: d487 8224 0000 0000 7795 e41d d50b 3d31
00000010: e990 2b20 0000 0000 9978 8a26 84c4 9c37
00000020: dd2c 9827 0000 0000 ad94 141c c36d b62c
00000030: 4285 7a1d ff37 f519 ca79 e822 a8ae 4827
00000040: c2cb bf17 d74a 0e25 e73e 211f 4a54 132f
00000050: 0000 0000 0000 0000 0000 0000 0000 0000
00000060: 0000 0000 0000 0000 0000 0000 0000 0000
00000070: 0000 0000 0000 0000 0000 0000 0000 0000
00000080: 0000 0000 0000 0000 0000 0000 0000 0000
00000090: 0000 0000 0000 0000 0000 0000 0000 0000
000000a0: 0000 0000 370a 102b bf19 7030 7697 f72f
000000b0: 0000 0000 0000 0000 0000 0000 f60f dc2b
000000c0: 58f9 d415 96d6 533b 850c 6007 0000 0000
000000d0: 3f07 291a 0000 0000 0000 0000 0000 0000
000000e0: 0000 0000 0000 0000 0000 0000 0000 0000
000000f0: 7bda 8224 8592 112b b992 8832 a464 ac2f
00000100: 7420 6811 642d 3a21 5fe7 6925 3bec 8222
00000110: 8598 1e29 6c4c ff31 0000 0000 2db7 852c
00000120: 6bd2 1b0c 3ed3 fb18 d20a e922 5ee6 5d31
00000130: 9c90 d332 0000 0000 0ec3 201f df41 d123

exp_avg f4 [80]
1.9291269e-08 0.0 1.9944235e-10 0.00013448182 -9.774292e-10 0.0 -7.9477495e-08 0.011084159
1.6663516e-07 0.0 -5.685006e-11 5.838365e-06 -1.4763907e-10 -1.29107515e-11 6.4362586e-09 1.3531131e-07
2.8545287e-12 -2.8484616e-08 4.737876e-10 2.9680014e-05 0.0 0.0 0.0 0.0
0.0 0.0 0.0 0.0 0.0 0.0 0.0 0.0
0.0 0.0 0.0 0.0 0.0 0.0 0.0 0.0
0.0 1.834176e-06 7.577853e-05 5.4412987e-05 0.0 0.0 0.0 3.2061769e-06
-7.520002e-13 -0.14577454 3.3288262e-17 0.0 -1.5158957e-11 0.0 0.0 0.0
0.0 0.0 0.0 0.0 1.9315111e-08 -1.8439072e-06 0.00032330112 4.540405e-05
-3.4696235e-14 2.0363997e-09 -3.6520632e-08 4.830057e-09 4.8115544e-07 -0.00022101347 0.0 4.998452e-06
-8.883498e-16 -6.541754e-12 6.444096e-09 0.00014569951 0.00040238927 0.0 4.730764e-10 1.2212792e-08
00000000: f3b5 a532 0000 0000 084a 5b2f b003 0d39
00000010: 3c56 86b0 0000 0000 37ad aab3 559a 353c
00000020: 53ec 3234 0000 0000 7a07 7aae 2ce7 c336
00000030: b454 22af db20 63ad ee25 dd31 174a 1134
00000040: 9ede 482c 55ae f4b2 d73b 0230 58f9 f837
00000050: 0000 0000 0000 0000 0000 0000 0000 0000
00000060: 0000 0000 0000 0000 0000 0000 0000 0000
00000070: 0000 0000 0000 0000 0000 0000 0000 0000
00000080: 0000 0000 0000 0000 0000 0000 0000 0000
00000090: 0000 0000 0000 0000 0000 0000 0000 0000
000000a0: 0000 0000 cf2d f635 4aeb 9e38 8039 6438
000000b0: 0000 0000 0000 0000 0000 0000 b329 5736
000000c0: 53ab 53ab ec45 15be d883 1924 0000 0000
000000d0: f056 85ad 0000 0000 0000 0000 0000 0000
000000e0: 0000 0000 0000 0000 0000 0000 0000 0000
000000f0: 61ea a532 2b7c f7b5 be80 a939 3a70 3e38
00000100: 0942 1ca9 b9f0 0b31 dcda 1cb3 a1f5 a531
00000110: c028 0135 dabf 67b9 0000 0000 60b8 a736
00000120: 5306 80a6 e22a e6ac de6a dd31 eac6 1839
00000130: c6f7 d239 0000 0000 cb09 0230 6dd0 5132

exp_avg_sq f4 [80]
5.6608615e-17 0.0 6.050564e-21 2.7509846e-09 1.453221e-19 0.0 9.608362e-16 1.8688159e-05
4.2237116e-15 0.0 4.916125e-22 5.184937e-12 3.3156117e-21 2.5355023e-23 6.3012675e-18 2.7850257e-15
1.2394521e-24 1.2341893e-16 3.4145108e-20 1.3399518e-10 0.0 0.0 0.0 0.0
0.0 0.0 0.0 0.0 0.0 0.0 0.0 0.0
0.0 0.0 0.0 0.0 0.0 0.0 0.0 0.0
0.0 5.1173253e-13 8.734808e-10 4.5036658e-10 0.0 0.0 0.0 1.563637e-12
8.6019513e-26 0.0032323948 1.6855566e-34 0.0 3.4954234e-23 0.0 0.0 0.0
0.0 0.0 0.0 0.0 5.674863e-17 5.1717685e-13 1.5899206e-08 3.1358127e-10
1.8311573e-28 6.3079325e-19 2.028792e-16 3.548669e-18 3.5215337e-14 7.430165e-09 0.0 3.800424e-12
1.2004086e-31 6.509528e-24 6.3166233e-18 3.2290681e-09 2.4629394e-08 0.0 3.4042663e-20 2.2687723e-17
00000000: d487 8224 0000 0000 7795 e41d d50b 3d31
00000010: e990 2b20 0000 0000 9978 8a26 84c4 9c37
00000020: dd2c 9827 0000 0000 ad94 141c c36d b62c
00000030: 4285 7a1d ff37 f519 ca79 e822 a8ae 4827
00000040: c2cb bf17 d74a 0e25 e73e 211f 4a54 132f
00000050: 0000 0000 0000 0000 0000 0000 0000 0000
00000060: 0000 0000 0000 0000 0000 0000 0000 0000
00000070: 0000 0000 0000 0000 0000 0000 0000 0000
00000080: 0000 0000 0000 0000 0000 0000 0000 0000
00000090: 0000 0000 0000 0000 0000 0000 0000 0000
000000a0: 0000 0000 370a 102b bf19 7030 7697 f72f
000000b0: 0000 0000 0000 0000 0000 0000 f60f dc2b
000000c0: 58f9 d415 96d6 533b 850c 6007 0000 0000
000000d0: 3f07 291a 0000 0000 0000 0000 0000 0000
000000e0: 0000 0000 0000 0000 0000 0000 0000 0000
000000f0: 7bda 8224 8592 112b b992 8832 a464 ac2f
00000100: 7420 6811 642d 3a21 5fe7 6925 3bec 8222
00000110: 8598 1e29 6c4c ff31 0000 0000 2db7 852c
00000120: 6bd2 1b0c 3ed3 fb18 d20a e922 5ee6 5d31
00000130: 9c90 d332 0000 0000 0ec3 201f df41 d123
