dl_computer_vision/assignments/1/checkpoints/best_checkpoint-v2.ckpt (torch, 168892 bytes, 27 tensors)

model.lstm.weight_ih_l0 f4 [128, 1]
0.0199132 -0.085185066 0.058406062 -0.15776151 0.05976564 -0.13828981 -0.07167928 -0.09254218
0.11853409 -0.09749272 0.08376586 0.16453362 -0.07864891 -0.042289697 -0.18354577 0.08736286
0.019038375 -0.10497782 0.11755343 0.1606513 -0.058416124 0.021368437 0.15959911 0.15937497
0.15776706 0.08238258 0.16079633 -0.10735101 0.062464334 0.0184189 0.017139982 0.030888049
-0.13339423 -0.015198152 0.08488413 -0.15208994 -0.06746157 -0.10426612 0.088739574 -0.07891713
0.068028785 -0.05755707 0.12316194 -0.109068155 0.1628593 0.04537755 -0.1755196 -0.048499122
-0.13295563 0.11490886 -0.035542317 0.11838313 -0.05976173 0.08143669 0.116930306 -0.024363516
0.11736666 -0.16483629 0.14521311 -0.119728014 0.01827984 -0.09831432 0.17511639 -0.031357992
-0.083667725 -0.043492 -0.019323913 -0.05669587 0.14752044 -0.064959705 0.15275407 -0.07679836
0.0836768 0.16234097 -0.1412419 0.0260507 0.093737885 -0.14391457 0.011651354 -0.074598335
-0.02534201 0.042101063 0.09103426 0.09486713 -0.089169174 -0.13146752 -0.07216941 -0.15709497
0.091896884 0.15663129 0.06735893 0.04062445 0.10318588 0.06417062 0.15299752 0.08642531
0.10376809 -0.08680776 -0.033255488 -0.01815505 -0.026586283 -0.051657546 0.03503248 -0.14981537
-0.051619317 0.15665868 -0.02890959 -0.07777342 0.17013697 0.07141773 0.12568884 0.16113672
0.1690227 0.13632168 0.16073482 0.1430726 0.12279817 0.07689136 0.052599266 0.0142281465
0.011529774 -0.045617025 0.018492782 0.044328384 0.022147762 0.027839072 -0.04176377 -0.16235934
00000000: 0221 a33c 8275 aebd 323b 6f3d 3c8c 21be
00000010: d1cc 743d d89b 0dbe 96cc 92bd c186 bdbd
00000020: 00c2 f23d 43aa c7bd 6f8d ab3d 807b 283e
00000030: ae12 a1bd f637 2dbd 6cf3 3bbe 4deb b23d
00000040: 5ef6 9b3c 9cfe d6bd dabf f03d c681 243e
00000050: bf45 6fbd dc0c af3c f36d 233e 3133 233e
00000060: b08d 213e 33b8 a83d cba7 243e d9da dbbd
00000070: 9ada 7f3d 3ce3 963c 2669 8c3c ef08 fd3c
00000080: 7f98 08be ab01 79bc bbd7 ad3d 77bd 1bbe
00000090: 4b29 8abd 7a89 d5bd 18bd b53d 4e9f a1bd
000000a0: ad52 8b3d f6c0 6bbd 543c fc3d 205f dfbd
000000b0: 97c4 263e cfdd 393d 69bb 33be 04a7 46bd
000000c0: 8525 08be 5655 eb3d d294 11bd db72 f23d
000000d0: b7c8 74bd 48c8 a63d 2879 ef3d ff95 c7bc
000000e0: ee5d f03d d8ca 28be bfb2 143e f633 f5bd
000000f0: 9abf 953c 0559 c9bd b651 333e 3d71 00bd
00000100: fc59 abbd ab24 32bd 2f4d 9ebc ee39 68bd
00000110: 990f 173e 9809 85bd 906b 1c3e 7548 9dbd
00000120: be5e ab3d b63c 263e b7a1 10be 4768 d53c
00000130: a6f9 bf3d 575e 13be 52e5 3e3c 03c7 98bd
00000140: 0c9a cfbc 2a72 2c3d 2c70 ba3d b349 c23d
00000150: 549e b6bd 6c9f 06be 8ecd 93bd 81dd 20be
00000160: 6f34 bc3d f463 203e 7bf3 893d d365 263d
00000170: 1e53 d33d e36b 833d 62ab 1c3e c1ff b03d
00000180: 5d84 d43d 44c8 b1bd e836 08bd e6b9 94bc
00000190: 7acb d9bc dd96 53bd 387e 0f3d 3369 19be
000001a0: c76e 53bd 226b 203e ced3 ecbc ac47 9fbd
000001b0: 6338 2e3e 7543 923d 93b4 003e 0601 253e
000001c0: 4914 2d3e e997 0b3e ab97 243e a081 123e
000001d0: 9b7d fb3d 3879 9d3d 5472 573d 2c1d 693c
000001e0: 61e7 3c3c ebd8 3abd 2d7e 973c ae91 353d
000001f0: 396f b53c c40e e43c 7d10 2bbd 8741 26be

model.lstm.weight_hh_l0 f4 [128, 32]
-0.061824337 0.114422485 -0.0955706 0.047098644 0.0052701198 0.15198839 0.12944698 0.06555548
-0.10266037 -0.12103859 -0.0882163 0.043381203 -0.16451311 -0.17350803 -0.0038083096 0.08821876
0.11857404 0.124086395 0.17592409 -0.08141703 -0.06276144 0.12190245 -0.15218848 -0.13504697
0.1433905 -0.054409597 0.1442357 -0.1533396 -0.13464442 0.12976986 -0.12875642 0.08115856
-0.1609762 0.07126146 0.114162944 -0.11093322 -0.015075218 0.14238778 0.10206066 -0.121816635
0.1643759 0.094848834 0.071832046 0.1367815 0.08024552 0.11037159 0.15526102 0.14195427
0.1571395 -0.06015557 0.1226036 -0.0341969 0.111142755 0.072046526 0.074941725 0.16536804
-0.16554922 -0.06644571 -0.06104635 -0.002620119 0.01132726 0.042614993 -0.03787329 -0.009090755
-0.119888134 -0.064536706 0.0648296 0.03298524 -0.0122611625 0.04545333 -0.13284555 -0.15366977
-0.03884318 -0.048535515 0.09127222 0.16832666 -0.04292233 -0.1156246 -0.10161593 0.09015801
0.102204695 0.016048582 -0.16281697 -0.14008452 0.00566775 0.07465654 -0.0015256699 0.05203173
-0.14574066 0.1233165 -0.15825687 -0.060785547 0.087224394 -0.043718692 -0.053523693 0.09419063
0.10572887 -0.014351072 0.018394584 0.10070202 -0.098570995 -0.16489911 -0.15840723 0.0011782041
0.0700239 0.08233727 0.16985892 -0.08015638 -0.020208841 -0.026160492 0.15310065 -0.09692286
-0.12759435 -0.15507013 0.13431385 0.052115433 -0.09213422 0.14728138 -0.0022970024 0.009091409
0.143903 -0.14676647 -0.04345711 0.14040545 0.07048212 0.14463785 0.0839454 -0.07830605
0.13689844 0.1623543 0.07160812 0.034969836 0.15534349 -0.13908257 0.040493187 0.15897673
0.096892916 -0.16778609 -0.14615543 0.074792966 0.08497167 0.14184155 0.16201246 -0.08417944
0.17478503 0.08960812 0.04395659 -0.057168264 0.02698767 -0.14260015 0.13218948 -0.039978467
0.027522935 0.007566532 0.014619757 0.10199744 0.17636156 0.004268551 -0.048667286 0.1306063
0.077209406 0.078049116 0.09841579 0.03207744 -0.12954386 -0.08130142 0.012992212 -0.05081497
0.15546277 -0.08808571 0.10738679 -0.116008475 0.08877422 -0.040933747 -0.11990828 -0.095720984
-0.11763355 -0.07176001 -0.17481412 0.06619059 -0.068791285 -0.17520225 -0.049314875 0.120064475
0.12032283 0.04509302 0.074222125 -0.06473273 0.123748146 0.17412043 0.099222295 0.16334917
-0.11457373 0.15927497 0.01562861 -0.14085023 0.15594906 -0.04415687 -0.17625262 0.14593987
0.14258197 0.05875149 0.15908672 -0.008692013 0.08075779 0.10204692 -0.009901315 -0.1407823
0.007986095 -0.045985904 0.0037424574 -0.009732074 0.018784717 0.09857609 0.093667485 0.14856924
0.035742387 0.023854066 -0.08354319 0.020299435 0.062212765 0.006984088 -0.087635115 -0.07125444
-0.044649377 0.08347905 -0.17229846 -0.06918026 -0.111539334 -0.14050463 -0.12126881 -0.08358243
-0.13142122 0.08209172 0.15965617 0.11944532 0.07575739 -0.001261854 -0.038221464 -0.049433623
0.047178302 -0.09766597 0.09577617 -0.14746898 -0.023911215 -0.12407137 -0.058817387 0.13753483
-0.13788626 -0.10609993 -0.041531708 0.1104637 0.0023295186 -0.033019587 0.12074702 0.0035140447
00000000: 843b 7dbd 5656 ea3d 85ba c3bd 82ea 403d
00000010: f8b0 ac3b d8a2 1b3e c08d 043e f441 863d
00000020: 9a3f d2bd 15e3 f7bd bfaa b4bd 7db0 313d
00000030: 2076 28be 17ac 31be d594 79bb 0aac b43d
00000040: f2d6 f23d 0221 fe3d 7225 343e f9bd a6bd
00000050: 1289 80bd fea7 f93d 4cd7 1bbe c149 0abe
00000060: f6d4 123e 99dc 5ebd 86b2 133e 0e05 1dbe
00000070: 3ae0 09be 64e2 043e b9d8 03be 7636 a63d
00000080: f2d6 24be 87f1 913d 43ce e93d f530 e3bd
00000090: 0cfe 76bc 1ace 113e 2e05 d13d 007b f9bd
000000a0: 2852 283e 1b40 c23d ae1c 933d 7310 0c3e
000000b0: c357 a43d 800a e23d bffc 1e3e 765c 113e
000000c0: 2de9 203e b065 76bd 9917 fb3d 0c12 0cbd
000000d0: d09e e33d 218d 933d 0c7b 993d 3d56 293e
000000e0: bc85 29be b014 88bd bd0b 7abd 4db6 2bbb
000000f0: f995 393c 0f8d 2e3d 0621 1bbd 64f1 14bc
00000100: e987 f5bd d22b 84bd 62c5 843d 881b 073d
00000110: 0be3 48bc 452d 3a3d aa08 08be 9c5b 1dbe
00000120: 071a 1fbd 2dcd 46bd eeec ba3d d35d 2c3e
00000130: 53cf 2fbd 97cc ecbd 031c d0bd c3a4 b83d
00000140: b250 d13d 5178 833c 7eb9 26be 5172 0fbe
00000150: 88b8 b93b 87e5 983d fdf8 c7ba 391f 553d
00000160: 0a3d 15be 5c8d fc3d 170e 22be 44fa 78bd
00000170: b4a2 b23d 5f12 33bd a93b 5bbd 04e7 c03d
00000180: 6188 d83d c220 6bbc 3db0 963c dc3c ce3d
00000190: 97df c9bd 50db 28be 8135 22be f86d 9a3a
000001a0: b168 8f3d 71a0 a83d 7fef 2d3e 0729 a4bd
000001b0: 038d a5bc 874e d6bc 6bc6 1c3e 7e7f c6bd
000001c0: 18a8 02be b4ca 1ebe 9289 093e fe76 553d
000001d0: deb0 bcbd eed0 163e 4e89 16bb 22f4 143c
000001e0: 4f5b 133e f349 16be 1500 32bd 72c6 0f3e
000001f0: ee58 903d f21b 143e 91eb ab3d ec5e a0bd
00000200: 1b2f 0c3e 3540 263e 47a7 923d 883c 0f3d
00000210: 5d12 1f3e a96b 0ebe 2fdc 253d ccca 223e
00000220: cb6f c63d 1ed0 2bbe c5a9 15be 0e2d 993d
00000230: a005 ae3d e93e 113e 98e6 253e 4566 acbd
00000240: d9fa 323e 7684 b73d d30b 343d 4529 6abd
00000250: 3f15 dd3c c605 12be ae5c 073e 76c0 23bd
00000260: c777 e13c acf0 f73b b587 6f3c 09e4 d03d
00000270: 2098 343e 33df 8b3b 5957 47bd a8bd 053e
00000280: f71f 9e3d 37d8 9f3d 388e c93d a263 033d
00000290: 25a7 04be 5c81 a6bd 49dd 543c 5c23 50bd
000002a0: a231 1f3e 4866 b4bd 9bed db3d da95 edbd
000002b0: 42cf b53d 25aa 27bd 7992 f5bd 5d09 c4bd
000002c0: dce9 f0bd eaf6 92bd 7902 33be ef8e 873d
000002d0: 72e2 8cbd 3868 33be 65fe 49bd 5de4 f53d
000002e0: d16b f63d 75b3 383d c501 983d 9892 84bd
000002f0: ab6f fd3d a04c 323e 0f35 cb3d 0145 273e
00000300: a2a5 eabd fa18 233e 9207 803c 0b3b 10be
00000310: 1cb1 1f3e d6dd 34bd 917b 34be 4371 153e
00000320: 0201 123e 67a5 703d a1e7 223e f268 0ebc
00000330: 5764 a53d fafd d03d 2039 22bc 3c29 10be
00000340: 1cd8 023c b75b 3cbd 0444 753b 4773 1fbc
00000350: 68e2 993c 43e2 c93d bdd4 bf3d 8922 183e
00000360: 9c66 123d 9a69 c33c b118 abbd 004b a63c
00000370: d0d2 7e3d c7da e43b 0a7a b3bd d9ed 91bd
00000380: 44e2 36bd 10f7 aa3d 026f 30be 61ae 8dbd
00000390: bc6e e4bd 72e0 0fbe c85b f8bd 442d abbd
000003a0: 4993 06be b41f a83d e87c 233e bf9f f43d
000003b0: b126 9b3d cb64 a5ba 1c8e 1cbd e97a 4abd
000003c0: 093e 413d 1905 c8bd 4c26 c43d 1c02 17be
000003d0: 74e1 c3bc 2119 febd 80ea 70bd eed5 0c3e
000003e0: 0e32 0dbe ec4a d9bd 271d 2abd cb3a e23d
000003f0: d6aa 183b 8c3f 07bd 374a f73d e34b 663b

model.lstm.bias_ih_l0 f4 [128]
0.18951038 -0.15612222 -0.025434164 0.16535193 0.09569718 0.09918386 -0.15230997 0.122601256
0.16617581 -0.050239015 0.09501271 0.10137531 -0.02820401 -0.014412522 0.08116368 -0.1466594
-0.062060114 0.17025474 0.11220479 -0.14584726 -0.10663641 0.08099736 -0.014188073 0.027464604
-0.08518618 0.20006682 -0.14811376 0.071664326 -0.14117412 0.20625234 -0.10410065 -0.12172727
0.16165192 0.10810411 0.055342898 0.12780859 -0.14543255 0.17076012 0.027111813 0.008615052
-0.130925 0.054791532 0.15169978 -0.13789049 -0.10534336 0.1411199 0.024267737 0.0082416525
0.14735311 0.08318016 -0.14881557 -0.12385463 -0.14493155 -0.16257513 -0.08898388 0.05476462
0.13371174 -0.011248235 0.16211879 -0.08133284 0.17248212 0.13806306 -0.023483425 0.03274694
0.09093374 -0.08623575 0.15139197 -0.07531552 0.114041775 0.06398433 0.009096614 -0.03607145
-0.09418381 -0.13706817 0.1755416 0.042796116 -0.16294925 0.010978874 0.10090292 -0.05873304
-0.12034171 0.016335992 0.09607963 -0.02416121 -0.16235496 -0.1202797 -0.13108115 0.014314804
-0.048846517 0.12005179 0.03737879 0.1535881 -0.1302877 0.08957565 0.16168763 -0.04931755
0.12824504 -0.077556774 -0.10876103 0.064706 0.23183832 0.11492022 0.021188907 -0.069972426
-0.05885343 0.04847024 -0.06409567 0.0015682617 -0.11438308 0.0046818727 0.06885789 -0.025144614
-0.13705212 -0.08456192 0.078815915 0.07139726 -0.1030399 0.17368892 -0.10791423 0.21070601
0.15014479 -0.0910306 0.22735727 -0.022286216 0.037983906 -0.10508668 -0.043137446 0.057879347
00000000: 020f 423e 81de 1fbe 4f5b d0bc 0452 293e
00000010: e2fc c33d e820 cb3d 25f7 1bbe 5e16 fb3d
00000020: fe29 2a3e 6dc7 4dbd 0696 c23d dc9d cf3d
00000030: 190c e7bc 8022 6cbc 2539 a63d e22d 16be
00000040: bf32 7ebd 4257 2e3e a0cb e53d fc58 15be
00000050: 3164 dabd f2e1 a53d 1775 68bc 73fd e03c
00000060: 1876 aebd 51de 4c3e 22ab 17be bfc4 923d
00000070: f38f 10be d033 533e b932 d5bd 264c f9bd
00000080: 1588 253e b065 dd3d 3caf 623d 41e0 023e
00000090: 45ec 14be bedb 2e3e 9819 de3c 2626 0d3c
000000a0: 3411 06be 166d 603d 3057 1b3e 2a33 0dbe
000000b0: 42be d7bd bc81 103e 22cd c63c ff07 073c
000000c0: bce3 163e 5c5a aa3d 1c63 18be 7fa7 fdbd
000000d0: f068 14be 187a 26be 2e3d b6bd de50 603d
000000e0: bbeb 083e 844a 38bc 7802 263e d591 a6bd
000000f0: 279f 303e 6760 0d3e 5060 c0bc a821 063d
00000100: 783b ba3d 5e9c b0bd 7f06 1b3e 063f 9abd
00000110: bc8e e93d 370a 833d f709 153c a8bf 13bd
00000120: 71e3 c0bd 995b 0cbe 2dc1 333e fb4a 2f3d
00000130: 2bdc 26be bce0 333c 31a6 ce3d 0e92 70bd
00000140: b775 f6bd 0fd3 853c 66c5 c43d bbed c5bc
00000150: 6140 26be 3455 f6bd 233a 06be a488 6a3c
00000160: 4913 48bd b6dd f53d 811a 193d 3346 1d3e
00000170: 246a 05be 7073 b73d 7191 253e 3301 4abd
00000180: ab52 033e 16d6 9ebd 1abe debd 9484 843d
00000190: 0667 6d3e 4b5b eb3d 5c94 ad3c b44d 8fbd
000001a0: 4b10 71bd bb88 463d 9744 83bd 218e cd3a
000001b0: ad41 eabd 656a 993b 5e05 8d3d 14fc cdbc
000001c0: 6457 0cbe cd2e adbd 3d6a a13d ba38 923d
000001d0: 9506 d3bd 82db 313e 2302 ddbd 51c3 573e
000001e0: 8ebf 193e 406e babd 58d0 683e 9591 b6bc
000001f0: 0395 1b3d af37 d7bd e4b0 30bd e512 6d3d

model.lstm.bias_hh_l0 f4 [128]
-0.11448378 0.041423734 -0.0091838725 0.14258872 -0.08715033 0.047298368 0.10727736 -0.15675752
0.014013927 0.057804976 -0.11420017 -0.08972575 -0.06722277 -0.09715936 -0.020162255 0.13679793
-0.046638105 0.014944013 -0.13847618 0.09183886 0.21749553 -0.108253546 0.12583648 0.09943352
-0.13885601 -0.07706768 -0.115681216 -0.072378844 0.011838446 0.22088166 -0.042471416 -0.11715883
0.03490545 0.047342505 0.013224988 -0.10890018 -0.17143536 -0.17521848 -0.11003952 0.11439775
0.0109569365 0.13968457 -0.1407917 -0.08899062 0.06940922 -0.062239107 -0.08551711 0.035212476
0.11420048 0.10258099 -0.060637105 0.10730044 0.15817817 0.031549737 -0.07878905 -0.117262274
-0.022932416 0.09210204 -0.15761936 -0.106430024 0.1300058 -0.13553825 -0.10910942 -0.10191838
-0.05801014 0.10824506 -0.041380435 0.09920328 0.0973762 -0.11718715 0.17465019 0.12645602
-0.16869809 -0.06976235 -0.07070714 0.014885492 0.09172791 -0.026652113 -0.040994346 0.0400502
-0.14782041 -0.020773236 -0.14619778 0.043720357 -0.14056255 0.03263816 0.14653584 0.11932657
-0.041200854 0.05626073 0.045705814 0.15857525 -0.14731877 -0.043973558 0.06999596 0.12738371
0.07335729 -0.17483062 -0.11765973 -0.019469801 0.19618486 -0.15726665 0.09270658 0.056104023
-0.06630277 -0.10521465 0.15414618 -0.10987209 0.1011085 0.20085485 -0.07717087 0.012818564
0.14645572 -0.15206744 -0.06790122 -0.14165804 0.07719639 -0.08148931 0.008827317 -0.0554496
-0.02076719 -0.009245587 0.18209122 0.10450081 0.13119341 -0.00023200511 -0.108909644 0.11100321
00000000: 7976 eabd efab 293d f477 16bc c702 123e
00000010: df7b b2bd efbb 413d 3cb4 db3d 0b85 20be
00000020: ac9a 653c e9c4 6c3d c7e1 e9bd 22c2 b7bd
00000030: 17ac 89bd 7dfb c6bd 502b a5bc c214 0c3e
00000040: 9907 3fbd bcd7 743c b3cc 0dbe 0316 bc3d
00000050: 26b7 5e3e 09b4 ddbd 47db 003e cda3 cb3d
00000060: 4530 0ebe a9d5 9dbd 46ea ecbd 5c3b 94bd
00000070: 0bf6 413c cd2e 623e 82f6 2dbd f8f0 efbd
00000080: 04f9 0e3d 37ea 413d 9fad 583c 0f07 dfbd
00000090: c08c 2fbe 796c 33be 665c e1bd 5e49 ea3d
000000a0: b984 333c 7909 0f3e b32b 10be b740 b6bd
000000b0: 6c26 8e3d 6fee 7ebd 9823 afbd f53a 103d
000000c0: f1e1 e93d fb15 d23d 9d5e 78bd 55c0 db3d
000000d0: 75f9 213e 4c3a 013d 275c a1bd 3427 f0bd
000000e0: c3dc bbbc ff9f bc3d f866 21be fcf7 d9bd
000000f0: 3e20 053e 8aca 0abe c274 dfbd 95ba d0bd
00000100: 0a9c 6dbd 96af dd3d 887e 29bd 172b cb3d
00000110: 2c6d c73d d1ff efbd 80d7 323e b07d 013e
00000120: 31bf 2cbe 90df 8ebd e8ce 90bd 47e2 733c
00000130: d8db bb3d 8855 dabc b0e9 27bd ae0b 243d
00000140: 3c5e 17be a22c aabc dfb4 15be 1e14 333d
00000150: a1ef 0fbe 97af 053d 7e0d 163e 7d61 f43d
00000160: 3ac2 28bd a771 663d 0536 3b3d 8d61 223e
00000170: bbda 16be 9e1d 34bd 0b5a 8f3d e070 023e
00000180: 593c 963d cc06 33be 96f7 f0bd 227f 9fbc
00000190: afe4 483e 820a 21be f3dc bd3d 55cd 653d
000001a0: bfc9 87bd c77a d7bd 7fd8 1d3e 9e04 e1bd
000001b0: f911 cf3d e5ac 4d3e c30b 9ebd f404 523c
000001c0: 7df8 153e 91b7 1bbe cb0f 8bbd ce0e 11be
000001d0: 2419 9e3d dee3 a6bd 73a0 103c 1f1f 63bd
000001e0: f41f aabc cd7a 17bc 1f76 3a3e 8504 d63d
000001f0: 9157 063e 6646 73b9 050c dfbd a755 e33d

model.lstm.weight_ih_l1 f4 [128, 32]
-0.14209145 -0.112374105 -0.033522405 0.011348747 -0.09092074 -0.09407257 0.044676814 -0.020055626
0.12196047 0.08085213 0.07696662 0.06701839 -0.027993845 -0.007732758 0.032870952 -0.043496434
-0.1094058 0.028821401 0.019219378 0.21226646 0.07194583 -0.060997758 0.058789466 -0.21627343
0.21959281 0.18949372 0.17640944 -0.1395991 0.120123446 0.08161834 0.21599586 -0.17255358
-0.097597815 -0.09808308 0.005919847 -0.020501243 -0.053472694 0.15855983 -0.08618848 0.13435772
-0.1264453 0.15547964 -0.16471425 0.0027870226 0.021057455 0.028744487 -0.046978213 0.012813235
-0.045369253 -0.07374392 -0.10151502 -0.17083107 -0.0040993537 -0.15987329 0.06455597 -0.14191158
0.1547881 -0.1353993 -0.047704294 0.18810181 0.11133926 0.15468045 0.118839145 -0.045121945
-0.15715224 0.16985299 0.09738202 -0.121234484 -0.035448365 0.15343714 -0.0016632442 -0.07734736
-0.08419178 0.14967595 0.061524477 -0.04914531 0.13794768 -0.09361814 0.03661192 0.012302939
0.012598778 0.028236195 0.045939453 0.13184561 -0.09429466 -0.0024899032 -0.13770065 -0.175474
0.15182939 0.07734723 0.1864553 -0.05089907 0.18062349 0.12272474 0.038795423 0.11552462
-0.1859281 -0.003252779 -0.13877226 0.13039763 -0.054004878 -0.029671308 0.08045461 -0.067038104
0.094840005 0.18337679 0.09465855 -0.06501987 -0.095698394 -0.14891408 -0.17258346 -0.21050414
-0.22554211 -0.043128 0.08138746 -0.05099432 -0.040932663 0.022563534 0.09110872 -0.04085801
-0.08947136 0.19432138 0.0011237297 -0.12714349 0.1614126 0.091569476 0.20239413 0.1749507
-0.17014034 0.15672664 0.10012153 -0.11294887 0.034326807 -0.052507974 0.19549955 0.021091439
0.041911148 -0.07108635 0.016049517 0.15088437 0.115784496 -0.13269673 0.04180129 0.072826065
-0.107143335 -0.07435265 0.076239176 0.07335932 0.07615801 -0.117555454 -0.07043586 -0.20484984
0.19106512 0.07198119 0.06962495 0.17196038 0.08281794 0.23778433 -0.090067886 0.1416322
-0.23155595 0.03287341 -0.116683185 0.047213733 0.041879363 0.16283204 0.03204502 0.1730197
0.09427483 0.09218364 0.060687453 0.14641821 0.18741362 0.023582464 -0.011933287 -0.11098406
-0.22855838 0.18619725 -0.07283668 -0.067978546 -0.20390746 -0.015349921 0.052022643 -0.0060625733
0.18671569 0.07558264 -0.02153639 -0.026483424 -0.06232953 0.114392914 -0.043657992 0.020411277
-0.13500077 0.014115017 -0.21273758 -0.02000775 0.008496536 -0.029147163 0.08868713 0.10051925
0.15789163 0.007922681 -0.16740777 0.21305446 0.22373381 -0.15580449 -0.16798015 -0.24226415
-0.18052448 -0.030776575 0.23748471 0.0368895 -0.014892165 -0.21272625 0.08379958 -0.10533844
0.060229234 -0.054816443 0.11917572 0.035882622 0.069060296 -0.05290666 0.2103489 -0.09801537
-0.16424139 0.04913514 0.16222416 -0.14079554 -0.13100818 -0.031742394 0.100370005 -0.10076996
0.18997653 0.10739354 -0.047781084 0.079254486 0.10975546 0.10905781 -0.06991896 -0.022436205
0.08291814 -0.08415949 0.05222112 0.15946431 -0.03783466 -0.07454485 -0.12279791 -0.026136471
0.050630502 0.085326485 0.017631326 0.17550278 -0.01664162 0.045418 0.15535969 0.053913474
00000000: 6c80 11be 6524 e6bd ca4e 09bd 18f0 393c
00000010: a734 babd 1fa9 c0bd 09ff 363d b24b a4bc
00000020: 69c6 f93d cd95 a53d ada0 9d3d f040 893d
00000030: 5953 e5bc 1363 fdbb b1a3 063d 5129 32bd
00000040: 2610 e0bd dc1a ec3c f571 9d3c 615c 593e
00000050: 5658 933d c9d8 79bd 39cd 703d c876 5dbe
00000060: f0dc 603e a40a 423e ada4 343e 11f3 0ebe
00000070: 4803 f63d 8427 a73d 052e 5d3e e3b1 30be
00000080: 5de1 c7bd c8df c8bd 47fb c13b 39f2 a7bc
00000090: 2f06 5bbd 825d 223e 9683 b0bd 1295 093e
000000a0: e07a 01be 0e36 1f3e daaa 28be 7ba6 363b
000000b0: af80 ac3c 8f79 eb3c 3a6c 40bd 9aee 513c
000000c0: 1cd5 39bd 0d07 97bd 1be7 cfbd 57ee 2ebe
000000d0: df53 86bb d3b5 23be ec35 843d 4551 11be
000000e0: c680 1e3e 1da6 0abe 9465 43bd c39d 403e
000000f0: d705 e43d 8d64 1e3e f061 f33d cad1 38bd
00000100: 84ec 20be f1ed 2d3e 3970 c73d c949 f8bd
00000110: 4e32 11bd a01e 1d3e 3701 daba 4b68 9ebd
00000120: bd6c acbd a744 193e 1701 7c3d 984c 49bd
00000130: 2842 0d3e deba bfbd 61f6 153d 4492 493c
00000140: 1b6b 4e3c 984f e73c 022b 3c3d 8902 073e
00000150: 8f1d c1bd a52d 23bb 6601 0dbe 75af 33be
00000160: 2a79 1b3e 3968 9e3d 23ee 3e3e 8b7b 50bd
00000170: 5df5 383e 1c57 fb3d f3e7 1e3d 2c98 ec3d
00000180: f063 3ebe 932c 55bb 511a 0ebe f586 053e
00000190: 3834 5dbd 3e11 f3bc 63c5 a43d 464b 89bd
000001a0: 7a3b c23d 20c7 3b3e 58dc c13d 2329 85bd
000001b0: 85fd c3bd ef7c 18be b8b9 30be 668e 57be
000001c0: 83f4 66be fca6 30bd 78ae a63d 6cdf 50bd
000001d0: 02a9 27bd 29d7 b83c 3597 ba3d bb5a 27bd
000001e0: c33c b7bd 2ffc 463e 1d4a 933a e731 02be
000001f0: 5849 253e c788 bb3d 6840 4f3e 4726 333e
00000200: 4539 2ebe f37c 203e 840c cd3d bd51 e7bd
00000210: 449a 0c3d 9a12 57bd 0931 483e f4c7 ac3c
00000220: 06ab 2b3d b895 91bd 477a 833c 6f81 1a3e
00000230: 6c20 ed3d a7e1 07be d437 2b3d d525 953d
00000240: f76d dbbd 3446 98bd 4923 9c3d 693d 963d
00000250: bbf8 9b3d eac0 f0bd ad40 90bd 28c4 51be
00000260: 93a6 433e e06a 933d 8797 8e3d 6216 303e
00000270: 749c a93d bc7d 733e 8375 b8bd 0808 113e
00000280: 011d 6dbe 45a6 063d 98f7 eebd 3063 413d
00000290: b289 2b3d 71bd 263e a441 033d 142c 313e
000002a0: 2913 c13d c7ca bc3d 6893 783d a8ee 153e
000002b0: 5be9 3f3e 0330 c13c d583 43bc 9c4b e3bd
000002c0: 350b 6abe 7eaa 3e3e 662b 95bd 5638 8bbd
000002d0: 1ecd 50be 3c7e 7bbc b215 553d 8da8 c6bb
000002e0: 6632 3f3e 12cb 9a3d 156d b0bc c4f3 d8bc
000002f0: 404d 7fbd d546 ea3d b9d2 32bd 8d35 a73c
00000300: a43d 0abe ac42 673c e1d7 59be 4be7 a3bc
00000310: 0e35 0b3c 08c6 eebc 99a1 b53d 09dd cd3d
00000320: 58ae 213e 22ce 013c f16c 2bbe f32a 5a3e
00000330: 7a1a 653e 368b 1fbe fd02 2cbe 1814 78be
00000340: 69db 38be 281f fcbc 312f 733e 7219 173d
00000350: 44fe 73bc e9d4 59be 1d9f ab3d aebb d7bd
00000360: eeb2 763d 3587 60bd 6612 f43d a8f9 123d
00000370: 7c6f 8d3d a7b4 58bd b465 573e 48bc c8bd
00000380: e52e 28be ee41 493d 171e 263e b52c 10be
00000390: 0227 06be 5004 02bd ca8e cd3d 7b60 cebd
000003a0: 3589 423e 25f1 db3d 19b6 43bd 2d50 a23d
000003b0: 78c7 e03d b359 df3d ac31 8fbd 22cc b7bc
000003c0: fcd0 a93d d05b acbd d0e5 553d 9d4a 233e
000003d0: 84f8 1abd f8aa 98bd 787d fbbd 271c d6bc
000003e0: ee61 4f3d a7bf ae3d 926f 903c 00b7 333e
000003f0: 0254 88bc 3a08 3a3d 9c16 1f3e 60d4 5c3d

model.lstm.weight_hh_l1 f4 [128, 32]
0.08817249 -0.048670553 -0.105421595 0.116468355 0.054851804 0.17467736 0.100619495 -0.16547781
0.15773351 0.15147512 -0.12650251 -0.12726645 0.014953518 0.16784562 0.024166478 -0.053557873
0.08070671 0.013379553 -0.10000655 0.14694397 0.09878266 0.06228317 0.0947052 -0.063686244
0.04470771 -0.06685139 -0.12379198 0.02195267 -0.022943627 0.0019972771 -0.12212048 0.085547164
0.08142719 -0.13156134 -0.1354665 -0.06886377 0.16587415 -0.071008645 -0.08621007 -0.11561341
-0.11781752 -0.010238742 -0.06813836 -0.011730913 0.11296276 -0.10630685 0.033526175 -0.057282165
0.028349793 0.0004961214 -0.04098658 -0.10281869 0.08206129 0.07252757 -0.17611572 0.039138608
0.044400018 -0.04534651 -0.025918696 0.06932819 -0.0113599235 -0.17393799 -0.12037868 -0.08948747
0.04313635 -0.05146163 0.10451905 -0.037404217 -0.12726839 0.15585132 -0.13479756 -0.12037453
0.010545655 0.103904985 0.14989199 -0.10622955 -0.018170258 -0.15430264 -0.17290226 0.14935912
-0.0012050095 0.16797632 0.10394357 0.011079563 0.15976278 0.050050028 0.08231634 0.060187917
-0.046767686 -0.038952466 0.08740223 -0.12760161 0.061737727 0.09422081 0.017779998 -0.025795415
-0.085797705 -0.13306609 0.12829734 0.006782563 0.08062153 0.17213792 0.109344326 0.15115921
0.0202693 -0.1655921 0.048928957 0.07423353 -0.087844394 -0.054509465 -0.17500517 0.049488433
0.067870185 -0.007709806 -0.1366318 0.09059796 -0.13322584 -0.05975966 0.14267258 0.014041364
-0.043407124 0.060396817 -0.098606795 -0.09902903 0.10461451 0.16052404 0.091967635 -0.080403775
-0.053597935 -0.16043553 0.09311099 0.10029311 0.02494051 0.0011195358 -0.02769167 0.08386561
-0.0809056 0.1163436 0.09079999 0.09724368 -0.08920989 0.13631812 0.009000835 -0.084904335
-0.1203301 0.00016880174 0.10590968 -0.13066654 0.15281838 -0.1758264 -0.06632204 0.02170238
-0.13126752 0.042252775 0.11757349 -0.16407919 0.16147435 0.004726999 -0.08561923 -0.1184191
-0.04266778 0.13455014 0.14076272 -0.14119095 -0.14519295 0.033984773 0.15480869 -0.052965745
0.10240066 -0.017228736 -0.14814396 0.09613773 0.16448748 -0.12647289 0.091977626 0.08046495
0.026593614 -0.069251776 0.034404494 -0.13738203 -0.027152969 -0.0054738745 -0.060074184 0.03335807
-0.022979455 0.052134 -0.03480316 0.06755941 0.10530837 0.029046524 0.07703077 -0.029978981
0.12370372 -0.14760686 0.015405156 -0.1449066 -0.048005413 -0.116810024 0.07771266 0.053544935
-0.06392783 0.11478223 0.12119378 -0.0413777 -0.058188472 -0.044425685 0.14196242 0.043758035
-0.017469166 -0.13466328 -0.08981137 -0.04529804 -0.024000231 -0.0022109174 0.014008574 -0.024128737
-0.13498257 0.027239054 -0.091042034 0.04593433 0.14143868 0.006848544 -0.05177912 -0.10481776
-0.075239405 0.05637809 -0.104070224 -0.13163118 -0.07570606 -0.025190799 -0.038736463 -0.116594695
-0.15637614 0.07545676 -0.02616871 -0.07564231 -0.0056059416 -0.11085643 0.14275973 0.15565403
-0.17475577 0.17348006 0.043106236 0.14965685 -0.043382805 -0.15299965 0.011811835 0.0009029453
0.018673407 -0.1600781 -0.034123857 -0.0745086 -0.0032757486 -0.14893167 0.17590898 -0.10479174
00000000: c793 b43d c65a 47bd 47e7 d7bd f686 ee3d
00000010: 49ac 603d 9fde 323e 9811 ce3d 0473 29be
00000020: e584 213e 4b1c 1b3e e089 01be 2352 02be
00000030: 9aff 743c b9df 2b3e c7f8 c53c 805f 5bbd
00000040: 8f49 a53d ea35 5b3c 3cd0 ccbd 7b78 163e
00000050: 904e ca3d a31c 7f3d cdf4 c13d ef6d 82bd
00000060: 6f1f 373d 62e9 88bd a686 fdbd 16d6 b33c
00000070: 46f4 bbbc c0e4 023b 4d1a fabd 5a33 af3d
00000080: 4cc3 a63d 04b8 06be bbb7 0abe 7308 8dbd
00000090: eada 293e fb6c 91bd e88e b0bd b9c6 ecbd
000000a0: 504a f1bd 66c0 27bc 208c 8bbd 0433 40bc
000000b0: 0559 e73d 68b7 d9bd be52 093d b4a0 6abd
000000c0: d33d e83c 250e 023a 8be1 27bd 9b92 d2bd
000000d0: c00f a83d 5689 943d ae57 34be ce4f 203d
000000e0: cbdc 353d 43bd 39bd 7253 d4bc f0fb 8d3d
000000f0: f91e 3abc cd1c 32be 1989 f6bd 3545 b7bd
00000100: beaf 303d 6ec9 52bd 150e d63d 2a35 19bd
00000110: a552 02be 7d97 1f3e 5f08 0abe ec86 f6bd
00000120: afc7 2c3c 23cc d43d 497d 193e e18e d9bd
00000130: cbd9 94bc 8301 1ebe 4a0d 31be 99f1 183e
00000140: 69f1 9dba fc01 2c3e 5ee0 d43d 0e87 353c
00000150: db98 233e 4201 4d3d 7895 a83d 9b87 763d
00000160: 798f 3fbd 9f8c 1fbd f1ff b23d ffa9 02be
00000170: b3e0 7c3d d7f6 c03d 5ca7 913c e850 d3bc
00000180: b5b6 afbd 7a42 08be 6160 033e 4340 de3b
00000190: e71c a53d ec44 303e ebef df3d 7bc9 1a3e
000001a0: ce0b a63c fa90 29be bb69 483d c007 983d
000001b0: c3e7 b3bd 5145 5fbd 8e34 33be 62b4 4a3d
000001c0: 86ff 8a3d 8aa2 fcbb 35e9 0bbe 6c8b b93d
000001d0: 5b6c 08be 8cc6 74bd c318 123e c00d 663c
000001e0: abcb 31bd a762 773d 5cf2 c9bd bbcf cabd
000001f0: 2240 d63d 6a60 243e 8759 bc3d bcaa a4bd
00000200: 8289 5bbd 3649 24be fab0 be3d 7966 cd3d
00000210: 0a50 cc3c 63bd 923a a4d9 e2bc bcc1 ab3d
00000220: d6b1 a5bd 8e45 ee3d 58f5 b93d b227 c73d
00000230: adb3 b6bd fa96 0b3e 3d78 133c 53e2 adbd
00000240: a16f f6bd 5f00 3139 2de7 d83d 73cd 05be
00000250: 6c7c 1c3e d60b 34be dad3 87bd 31c9 b13c
00000260: fe6a 06be 3f11 2d3d 5fca f03d 6004 28be
00000270: 8859 253e f1e4 9a3b 2359 afbd b785 f2bd
00000280: 69c4 2ebd 83c7 093e 1a24 103e 5c94 10be
00000290: 76ad 14be 9e33 0b3d 2b86 1e3e 9cf2 58bd
000002a0: 70b7 d13d 4723 8dbc 0db3 17be dce3 c43d
000002b0: 686f 283e 1c82 01be c45e bc3d cfca a43d
000002c0: dada d93c e0d3 8dbd baeb 0c3d e0ad 0cbe
000002d0: e76f debc 305e b3bb 5910 76bd 79a2 083d
000002e0: 693f bcbc 768a 553d c28d 0ebd 975c 8a3d
000002f0: eaab d73d faf2 ed3c 4fc2 9d3d 7b96 f5bc
00000300: 6058 fd3d 4126 17be e865 7c3c 6562 14be
00000310: 53a1 44bd 183a efbd d127 9f3d ef51 5b3d
00000320: 98ec 82bd f212 eb3d 7234 f83d aa7b 29bd
00000330: 0957 6ebd b5f7 35bd 995e 113e a03b 333d
00000340: 7f1b 8fbc 2ce5 09be 06ef b7bd 708a 39bd
00000350: 229c c4bc 0ae5 10bb 3884 653c a1a9 c5bc
00000360: df38 0abe 7024 df3c 3f74 babd a325 3c3d
00000370: 4dd5 103e c069 e03b 5816 54bd b2aa d6bd
00000380: 1e17 9abd b6ec 663d c522 d5bd 53ca 06be
00000390: c70b 9bbd ef5c cebc 20aa 1ebd 33c9 eebd
000003a0: 1121 20be 1389 9a3d c35f d6bc 5bea 9abd
000003b0: 0cb2 b7bb b208 e3bd 9b2f 123e c563 1f3e
000003c0: 2df3 32be c2a4 313e 2a90 303d a53f 193e
000003d0: 2bb2 31bd f1ab 1cbe 6d86 413c a2b3 6c3a
000003e0: f9f8 983c 83eb 23be 75c5 0bbd f797 98bd
000003f0: f1ad 56bb 8b81 18be 7c21 343e 0d9d d6bd

model.lstm.bias_ih_l1 f4 [128]
-0.01564204 -0.07183279 -0.082343936 -0.00051175 -0.09472061 -0.09296486 -0.104052044 -0.11466255
0.23191804 -0.062724166 0.2169243 -0.07314666 -0.09640374 0.17619582 0.004459811 0.045751672
0.0014962782 0.22748116 0.09484055 0.058632255 -0.079703234 0.18733102 -0.11263914 0.23749118
0.17668289 -0.19239116 -0.17499748 0.19463578 0.022760548 0.09529643 0.189958 0.026593419
-0.113237575 0.040125813 0.03952697 0.12135226 -0.112282194 -0.13169543 -0.16614313 0.09120392
0.0123610925 0.08595171 -0.07950517 -0.10613841 0.16088833 0.1718762 0.13331188 -0.06305634
-0.11237953 0.038130682 -0.01415847 -0.021875372 -0.14770591 -0.03048795 -0.12673908 0.17486297
0.10654408 0.08653932 0.11935481 0.05654166 -0.16414851 0.055123862 -0.048473455 -0.1351463
0.03103995 0.14981426 0.09218417 -0.19760276 -0.08424959 -0.20272207 0.16882408 0.026310543
-0.11420045 -0.17132962 -0.17551261 -0.17510433 0.17331646 -0.115219906 0.20292823 0.111404136
0.011626451 -0.22547382 -0.06512667 -0.071577705 -0.026126744 0.03763032 0.070160836 0.13466609
-0.10051396 -0.14665231 -0.028762324 -0.09047079 -0.06859142 0.22622795 -0.20897394 -0.20950185
-0.07161836 -0.12324081 -0.10689636 -0.056866623 0.22723342 -0.09543167 0.20647672 0.0592175
-0.11881962 0.17712487 0.10918307 -0.12614727 0.20167942 0.22230344 0.20929916 0.025507156
-0.029449522 0.015639048 -0.030162996 -0.00020656417 0.058245 -0.026490452 0.11856332 0.08945839
-0.06561871 -0.047165174 -0.11147861 -0.08616043 0.05749936 -0.0030183056 0.15830491 -0.04649743
00000000: bc23 80bc 121d 93bd f0a3 a8bd f626 06ba
00000010: e1fc c1bd 5c64 bebd 3d19 d5bd 33d4 eabd
00000020: ec7b 6d3e 8775 80bd 6721 5e3e ebcd 95bd
00000030: 536f c5bd ad6c 343e 9b23 923b 1b66 3b3d
00000040: c41e c43a d2f0 683e c33b c23d 6028 703d
00000050: 733b a3bd b4d3 3f3e 59af e6bd e330 733e
00000060: 5cec 343e 3002 45be 8a32 33be 9a4e 473e
00000070: 5474 ba3c c62a c33d 5a84 423e 71da d93c
00000080: 1ae9 e7bd f75a 243d 08e7 213d 8987 f83d
00000090: 35f4 e5bd 2bdb 06be 6d21 2abe 1fc9 ba3d
000000a0: 2e86 4a3c 7307 b03d 9bd3 a2bd 185f d9bd
000000b0: e9bf 243e 5100 303e e982 083e af23 81bd
000000c0: 3d27 e6bd eb2e 1c3d edf8 67bc fb33 b3bc
000000d0: 3840 17be dec1 f9bc e4c7 01be 470f 333e
000000e0: c833 da3d 873b b13d 4b70 f43d 3a98 673d
000000f0: 8c16 28be 8fc9 613d 1a8c 46bd cb63 0abe
00000100: 7e47 fe3c e968 193e 0ecb bc3d 6158 4abe
00000110: 0d8b acbd 6096 4fbe 38e0 2c3e 3589 d73c
00000120: ede1 e9bd 0871 2fbe 94b9 33be 8d4e 33be
00000130: df79 313e 6af8 ebbd 6bcc 4f3e da27 e43d
00000140: df7c 3e3c 9ce2 66be 2261 85bd 5597 92bd
00000150: c107 d6bc 4022 1a3d 7cb0 8f3d e8e5 093e
00000160: 43da cdbd 062c 16be f79e ebbc c048 b9bd
00000170: a979 8cbd 4da8 673e 44fd 55be a787 56be
00000180: a6ac 92bd ae65 fcbd 7bec dabd faec 68bd
00000190: e1af 683e ae71 c3bd a26e 533e 0d8e 723d
000001a0: b357 f3bd 3960 353e 609b df3d c02c 01be
000001b0: 0d85 4e3e 83a3 633e 8552 563e 62f4 d03c
000001c0: 2040 f1bc 761d 803c 6318 f7bc 2699 58b9
000001d0: 4f92 6e3d 8102 d9bc 53d1 f23d f635 b73d
000001e0: 1a63 86bd 4530 41bd e64e e4bd e174 b0bd
000001f0: 7384 6b3d c4ce 45bb af1a 223e 1774 3ebd

model.lstm.bias_hh_l1 f4 [128]
0.14861922 0.093006186 0.026828635 0.13189913 -0.018086588 0.11995303 -0.057718392 0.09503224
0.007507963 0.15990569 0.100898996 0.08310975 0.21545058 0.04635294 -0.094755076 -0.117111176
-0.022596715 0.101447225 0.16569874 -0.0730584 -0.18129595 -0.09428058 -0.12403972 -0.077174455
-0.13289084 0.04335698 0.024907056 0.12080589 0.15310611 -0.05077087 0.17217319 -0.03157237
0.1742315 -0.16344686 -0.08888075 -0.00077327684 -0.020599479 -0.03868707 0.1686837 -0.11427786
0.0010425872 0.04366432 -0.016474139 -0.12295144 0.063874386 -0.08263701 0.07042902 0.1052929
-0.02501884 0.07155925 0.047415335 -0.0956565 -0.021766402 0.09590228 -0.048250917 0.10760554
0.075259745 0.09649056 -0.007233846 0.056772877 -0.14988416 -0.07570351 0.07063937 0.039178733
0.08139134 -0.10018236 -0.08369767 0.04809639 0.12051866 -0.11603681 -0.047686584 -0.18676713
0.09148572 -0.08913256 -0.0333754 0.092407 -0.080056876 -0.059516884 -0.1194194 0.050251465
0.16527496 0.06546792 -0.10177587 0.05298386 -0.12805791 0.10610582 -0.012942224 0.1667747
0.030236175 -0.06457501 -0.025606245 -0.13071354 0.07758391 -0.012787364 0.1238655 -0.21687974
0.05922497 -0.11456289 0.09069057 -0.071065255 0.18141381 0.030805686 0.097614266 0.16525257
0.0026441242 -0.0021187712 0.004769963 -0.0691553 0.21494272 0.0610658 -0.08881828 0.1857265
0.23225603 -0.072439015 0.03806105 0.13590725 0.089586556 -0.07807762 0.15377432 0.118309505
0.051813826 -0.063841864 0.0001507142 -0.010027465 0.031757522 0.116878435 0.24019554 0.166101
00000000: a32f 183e 077a be3d bac7 db3c 9110 073e
00000010: 532a 94bc efa9 f53d 1f6a 6cbd 43a0 c23d
00000020: 5c05 f63b 51be 233e 22a4 ce3d 7235 aa3d
00000030: 149f 5c3e 95dc 3d3d f30e c2bd fcd7 efbd
00000040: bf1c b9bc 90c3 cf3d eeac 293e a49f 95bd
00000050: a5a5 39be 2d16 c1bd 8908 febd a40d 9ebd
00000060: 8914 08be 1797 313d e209 cc3c 1469 f73d
00000070: d9c7 1c3e 1ef5 4fbd 2b4e 303e 0852 01bd
00000080: be69 323e 9d5e 27be 1c07 b6bd bbb5 4aba
00000090: 3dc0 a8bc 5576 1ebd 6bbb 2c3e 830a eabd
000000a0: 6ca7 883a 5cd9 323d c6f4 86bc f7cd fbbd
000000b0: 93d0 823d 983d a9bd 173d 903d cea3 d73d
000000c0: 4ff4 ccbc a88d 923d 9536 423d 8ee7 c3bd
000000d0: 744f b2bc 6a68 c43d c1a2 45bd 4b60 dc3d
000000e0: c821 9a3d d89c c53d e609 edbb ad8a 683d
000000f0: 3c7b 19be 710a 9bbd 60ab 903d e179 203d
00000100: 81b0 a63d 692c cdbd af69 abbd b800 453d
00000110: 7dd2 f63d b5a4 edbd 0253 43bd e23f 3fbe
00000120: dd5c bb3d 228b b6bd a5b4 08bd e23f bd3d
00000130: dcf4 a3bd fac7 73bd 2992 f4bd 7bd4 4d3d
00000140: d73d 293e 0b14 863d de6f d0bd 9b05 593d
00000150: 9d21 03be 024e d93d 9f0b 54bc fdc6 2a3e
00000160: dbb1 f73c e73f 84bd 30c4 d1bc c5d9 05be
00000170: 50e4 9e3d 1882 51bc 32ad fd3d b915 5ebe
00000180: e295 723d f39f eabd fabb b93d a98a 91bd
00000190: 8bc4 393e 355c fc3c fde9 c73d f837 293e
000001a0: 0b49 2d3b 15db 0abb 5a4d 9c3b 4ba1 8dbd
000001b0: f219 5c3e 2220 7a3d 5ce6 b5bd 162f 3e3e
000001c0: 86d4 6d3e e85a 94bd e7e5 1b3d 452b 0b3e
000001d0: 2879 b73d 29e7 9fbd 0477 1d3e 414c f23d
000001e0: bc3a 543d 86bf 82bd 0909 1e39 3d4a 24bc
000001f0: 2d14 023d f65d ef3d d2f5 753e 6116 2a3e

model.linear.weight f4 [1, 32]
0.21277861 0.07253854 -0.18338011 -0.20227559 0.14078243 -0.19574144 0.20994315 -0.058794234
-0.23236446 -0.11840931 -0.1357203 -0.18658642 0.14083178 -0.20860367 0.2148277 -0.0580342
0.21068051 -0.072244 -0.16977105 -0.08269164 0.12273933 0.22050506 0.14682421 0.113876
0.09844124 -0.008703885 0.09978654 0.107889645 -0.1453142 0.21432768 -0.16380395 -0.07597995
00000000: a3e2 593e 168f 943d ffc7 3bbe 5521 4fbe
00000010: 4529 103e 7270 48be 56fb 563e 39d2 70bd
00000020: f3f0 6dbe 9580 f2bd 43fa 0abe 8310 3fbe
00000030: 3536 103e 339c 55be cbfb 5b3e 45b5 6dbd
00000040: a2bc 573e aaf4 93bd 76d8 2dbe 3c5a a9bd
00000050: c25e fb3d 14cc 613e 1659 163e d237 e93d
00000060: 909b c93d bd9a 0ebc e35c cc3d 3ff5 dc3d
00000070: 3fcd 14be b778 5b3e 39bc 27be 609b 9bbd

exp_avg f4 [128, 1]
-70.648636 1.333555e-07 -8.627687e-05 6.349686e-08 -0.009137876 1.4743465e-09 -0.023640461 -1.1622297e-11
-2.2205397e-07 -0.0027012688 -4.267571e-05 0.0 -0.017914012 -2.4081163 4.634602e-08 -0.0027222263
-120.16584 -0.0015181508 -0.00013055788 -8.007119e-10 -0.37549075 -56.09184 -1.9115023e-14 -2.2032719e-12
-3.926658e-07 -2.0541165e-05 -1.4575417e-06 -0.00055800704 -0.14996842 -56.79608 -0.12387316 -3.1112335e-09
0.0 0.0 0.0 0.0 0.0 0.0 0.0 0.0
0.0 0.0 0.0 0.0 0.0 0.0 0.0 0.0
0.0 0.0 0.0 0.0 0.0 0.0 0.0 0.0
0.0 0.0 0.0 0.0 0.0 0.0 0.0 0.0
1.4620646e-06 -2.9432918e-11 0.0058303797 -9.85334e-13 0.0 -4.9151865e-15 0.0 5.0361477e-18
-6.8428565e-09 0.0 0.0 -3.6669364e-05 0.0 0.0 1.11616165e-08 5.352282e-06
2.133743 -5.55144e-07 0.0 0.0 0.0 0.0 1.5557987e-05 0.0
0.0 0.0 -9.614267e-05 -1.3964467e-07 0.0 -0.0002001042 0.0 0.0
-0.0013837387 1.3335763e-07 -0.2211862 5.5793066e-08 -38.31807 1.4689814e-09 -0.0003765806 -1.16228745e-11
-0.44338083 -9.209978e-11 -3.2003903 -0.0060944427 0.0 -0.00032272242 5.9366364e-14 -1.6163617e-11
0.0 -4.790766e-10 -2.9729715e-13 -1.5031663e-05 -2.4938632e-07 -0.037822448 -0.4549239 -285.51447
-630.91406 -0.77909493 -120.53175 -3.5748435e-06 -67.219406 -32.578793 -1.5300654 -1.4875555e-07
00000000: 1a4c 8dc2 7b30 0f34 8bef b4b8 c55b 8833
00000010: 08b7 15bc f5a1 ca30 a4a9 c1bc 2c76 4cad
00000020: bb6d 6eb4 c507 31bb b2fe 32b8 0000 0000
00000030: 68c0 92bc 941e 1ac0 fd0d 4733 6167 32bb
00000040: e954 f0c2 b0fc c6ba 5de6 08b9 1719 5cb0
00000050: 5340 c0be 0b5e 60c2 3e2c aca8 9e0a 1bac
00000060: 94cf d2b4 d14f acb7 c0a0 c3b5 3847 12ba
00000070: 5291 19be 302f 63c2 36b1 fdbd 66cd 55b1
00000080: 0000 0000 0000 0000 0000 0000 0000 0000
00000090: 0000 0000 0000 0000 0000 0000 0000 0000
000000a0: 0000 0000 0000 0000 0000 0000 0000 0000
000000b0: 0000 0000 0000 0000 0000 0000 0000 0000
000000c0: 0000 0000 0000 0000 0000 0000 0000 0000
000000d0: 0000 0000 0000 0000 0000 0000 0000 0000
000000e0: 0000 0000 0000 0000 0000 0000 0000 0000
000000f0: 0000 0000 0000 0000 0000 0000 0000 0000
00000100: 283c c435 8572 01ae c50c bf3b 66ac 8aab
00000110: 0000 0000 9816 b1a7 0000 0000 12cd b922
00000120: 671e ebb1 0000 0000 0000 0000 6ecd 19b8
00000130: 0000 0000 0000 0000 4fc1 3f32 c197 b336
00000140: 3f8f 0840 3505 15b5 0000 0000 0000 0000
00000150: 0000 0000 0000 0000 8682 8237 0000 0000
00000160: 0000 0000 0000 0000 34a0 c9b8 3cf1 15b4
00000170: 0000 0000 10d3 51b9 0000 0000 0000 0000
00000180: 915e b5ba 1131 0f34 a37e 62be 20a1 6f33
00000190: b445 19c2 30e5 c930 cb6f c5b9 c678 4cad
000001a0: d002 e3be 9187 caae 32d3 4cc0 e4b3 c7bb
000001b0: 0000 0000 1233 a9b9 61ae 8529 3b2d 8ead
000001c0: 0000 0000 05b0 03b0 095d a7aa 8030 7cb7
000001d0: 65e3 85b4 b6eb 1abd c9eb e8be dac1 8ec3
000001e0: 80ba 1dc4 c472 47bf 4210 f1c2 58e7 6fb6
000001f0: 5670 86c2 af50 02c2 2fd9 c3bf 9db9 1fb4

exp_avg_sq f4 [128, 1]
24408.027 1.594421e-12 1.7026385e-07 5.621746e-13 1.9846404e-05 8.2821505e-16 9.2848e-05 1.5801495e-21
1.846355e-14 1.770691e-06 3.9077697e-09 0.0 5.539039e-05 0.55263567 3.1688356e-14 2.3413895e-05
61462.242 4.978322e-07 7.09242e-08 1.6820153e-12 0.019028535 13401.605 5.045927e-14 8.3969984e-15
4.173483e-13 1.669993e-10 3.2346747e-12 6.9333254e-08 0.07587011 13098.304 0.0027663226 2.592791e-17
0.0 0.0 0.0 0.0 0.0 0.0 0.0 0.0
0.0 0.0 0.0 0.0 0.0 0.0 0.0 0.0
0.0 0.0 0.0 0.0 0.0 0.0 0.0 0.0
0.0 0.0 0.0 0.0 0.0 0.0 0.0 0.0
3.3257945e-11 1.297769e-19 6.9849575e-06 2.0498118e-22 0.0 8.6649306e-27 0.0 3.6734885e-34
1.8090865e-17 0.0 0.0 7.2210377e-10 0.0 0.0 1.1062534e-16 4.5420956e-10
56.68111 2.7131124e-13 0.0 0.0 0.0 0.0 1.5421074e-09 0.0
0.0 0.0 6.976905e-08 1.8742523e-14 0.0 2.9393124e-07 0.0 0.0
7.773163e-06 1.5945974e-12 16.880327 3.0416847e-13 73.6836 8.165049e-16 4.5732563e-08 1.5803205e-21
0.02637492 2.7557298e-21 67.24151 5.894154e-06 0.0 3.2662573e-08 6.323094e-26 3.163606e-13
0.0 7.042148e-20 9.556467e-13 1.2906266e-09 2.4271817e-14 0.0046694605 0.5037774 77141.64
157303.56 0.07438688 49676.867 6.1680205e-12 18710.744 3712.1035 0.20867416 4.494504e-14
00000000: 0eb0 be46 1265 e02b c5d1 3634 f33c 1e2b
00000010: d47b a637 7cb7 6e26 64b7 c238 13c9 ee1c
00000020: 0c4e a628 7ba8 ed35 1b45 8631 0000 0000
00000030: fa52 6838 8879 0d3f 30b6 0e29 f568 c437
00000040: 3e16 7047 c5a2 0535 fe4e 9833 fdb8 ec2b
00000050: bbe1 9b3c 6c66 5146 943f 6329 5244 1728
00000060: 3bf2 ea2a 209e 372f b89e 632c 5ce4 9433
00000070: ca61 9b3d 37a9 4c46 314b 353b 8c24 ef23
00000080: 0000 0000 0000 0000 0000 0000 0000 0000
00000090: 0000 0000 0000 0000 0000 0000 0000 0000
000000a0: 0000 0000 0000 0000 0000 0000 0000 0000
000000b0: 0000 0000 0000 0000 0000 0000 0000 0000
000000c0: 0000 0000 0000 0000 0000 0000 0000 0000
000000d0: 0000 0000 0000 0000 0000 0000 0000 0000
000000e0: 0000 0000 0000 0000 0000 0000 0000 0000
000000f0: 0000 0000 0000 0000 0000 0000 0000 0000
00000100: 1e45 122e a936 1920 5460 ea36 9ace 771b
00000110: 0000 0000 6ba0 2b14 0000 0000 2b25 f407
00000120: d9db a623 0000 0000 0000 0000 897d 4630
00000130: 0000 0000 0000 0000 ad15 ff24 50b4 f92f
00000140: 75b9 6242 12bc 982a 0000 0000 0000 0000
00000150: 0000 0000 0000 0000 15f2 d330 0000 0000
00000160: 0000 0000 0000 0000 f1d3 9533 51d1 a828
00000170: 0000 0000 9acd 9d34 0000 0000 0000 0000
00000180: 7b69 0237 6d6b e02b e90a 8741 4c3b ab2a
00000190: 015e 9342 6d57 6b26 7c6b 4433 b0cf ee1c
000001a0: 3710 d83c 9137 501d a77b 8642 66c6 c536
000001b0: 0000 0000 e148 0c33 5f8d 9c15 5e18 b22a
000001c0: 0000 0000 2c47 a61f cd7e 862b e361 b130
000001d0: 009f da28 4602 993b 8ef7 003f d2aa 9647
000001e0: e49d 1948 2658 983d de0c 4247 9704 d92c
000001f0: 7d2d 9246 a801 6845 aeae 553e 1a6a 4a29

exp_avg f4 [128, 32]
0.0 0.0 0.0 0.0 0.0 0.0 0.0 0.0
0.0 0.0 0.0 0.0 0.0 0.0 0.0 0.0
0.0 0.0 0.0 0.0 0.0 0.0 0.0 0.0
0.0 0.0 0.0 0.0 0.0 0.0 0.0 0.0
0.0 0.0 0.0 0.0 0.0 0.0 0.0 0.0
0.0 0.0 0.0 0.0 0.0 0.0 0.0 0.0
0.0 0.0 0.0 0.0 0.0 0.0 0.0 0.0
0.0 0.0 0.0 0.0 0.0 0.0 0.0 0.0
0.0 0.0 0.0 0.0 0.0 0.0 0.0 0.0
0.0 0.0 0.0 0.0 0.0 0.0 0.0 0.0
0.0 0.0 0.0 0.0 0.0 0.0 0.0 0.0
0.0 0.0 0.0 0.0 0.0 0.0 0.0 0.0
0.0 0.0 0.0 0.0 0.0 0.0 0.0 0.0
0.0 0.0 0.0 0.0 0.0 0.0 0.0 0.0
0.0 0.0 0.0 0.0 0.0 0.0 0.0 0.0
0.0 0.0 0.0 0.0 0.0 0.0 0.0 0.0
0.0 0.0 0.0 0.0 0.0 0.0 0.0 0.0
0.0 0.0 0.0 0.0 0.0 0.0 0.0 0.0
0.0 0.0 0.0 0.0 0.0 0.0 0.0 0.0
0.0 0.0 0.0 0.0 0.0 0.0 0.0 0.0
0.0 0.0 0.0 0.0 0.0 0.0 0.0 0.0
0.0 0.0 0.0 0.0 0.0 0.0 0.0 0.0
0.0 0.0 0.0 0.0 0.0 0.0 0.0 0.0
0.0 0.0 0.0 0.0 0.0 0.0 0.0 0.0
0.0 0.0 0.0 0.0 0.0 0.0 0.0 0.0
0.0 0.0 0.0 0.0 0.0 0.0 0.0 0.0
0.0 0.0 0.0 0.0 0.0 0.0 0.0 0.0
0.0 0.0 0.0 0.0 0.0 0.0 0.0 0.0
0.0 0.0 0.0 0.0 0.0 0.0 0.0 0.0
0.0 0.0 0.0 0.0 0.0 0.0 0.0 0.0
0.0 0.0 0.0 0.0 0.0 0.0 0.0 0.0
0.0 0.0 0.0 0.0 0.0 0.0 0.0 0.0
00000000: 0000 0000 0000 0000 0000 0000 0000 0000
00000010: 0000 0000 0000 0000 0000 0000 0000 0000
00000020: 0000 0000 0000 0000 0000 0000 0000 0000
00000030: 0000 0000 0000 0000 0000 0000 0000 0000
00000040: 0000 0000 0000 0000 0000 0000 0000 0000
00000050: 0000 0000 0000 0000 0000 0000 0000 0000
00000060: 0000 0000 0000 0000 0000 0000 0000 0000
00000070: 0000 0000 0000 0000 0000 0000 0000 0000
00000080: 0000 0000 0000 0000 0000 0000 0000 0000
00000090: 0000 0000 0000 0000 0000 0000 0000 0000
000000a0: 0000 0000 0000 0000 0000 0000 0000 0000
000000b0: 0000 0000 0000 0000 0000 0000 0000 0000
000000c0: 0000 0000 0000 0000 0000 0000 0000 0000
000000d0: 0000 0000 0000 0000 0000 0000 0000 0000
000000e0: 0000 0000 0000 0000 0000 0000 0000 0000
000000f0: 0000 0000 0000 0000 0000 0000 0000 0000
00000100: 0000 0000 0000 0000 0000 0000 0000 0000
00000110: 0000 0000 0000 0000 0000 0000 0000 0000
00000120: 0000 0000 0000 0000 0000 0000 0000 0000
00000130: 0000 0000 0000 0000 0000 0000 0000 0000
00000140: 0000 0000 0000 0000 0000 0000 0000 0000
00000150: 0000 0000 0000 0000 0000 0000 0000 0000
00000160: 0000 0000 0000 0000 0000 0000 0000 0000
00000170: 0000 0000 0000 0000 0000 0000 0000 0000
00000180: 0000 0000 0000 0000 0000 0000 0000 0000
00000190: 0000 0000 0000 0000 0000 0000 0000 0000
000001a0: 0000 0000 0000 0000 0000 0000 0000 0000
000001b0: 0000 0000 0000 0000 0000 0000 0000 0000
000001c0: 0000 0000 0000 0000 0000 0000 0000 0000
000001d0: 0000 0000 0000 0000 0000 0000 0000 0000
000001e0: 0000 0000 0000 0000 0000 0000 0000 0000
000001f0: 0000 0000 0000 0000 0000 0000 0000 0000
00000200: 0000 0000 0000 0000 0000 0000 0000 0000
00000210: 0000 0000 0000 0000 0000 0000 0000 0000
00000220: 0000 0000 0000 0000 0000 0000 0000 0000
00000230: 0000 0000 0000 0000 0000 0000 0000 0000
00000240: 0000 0000 0000 0000 0000 0000 0000 0000
00000250: 0000 0000 0000 0000 0000 0000 0000 0000
00000260: 0000 0000 0000 0000 0000 0000 0000 0000
00000270: 0000 0000 0000 0000 0000 0000 0000 0000
00000280: 0000 0000 0000 0000 0000 0000 0000 0000
00000290: 0000 0000 0000 0000 0000 0000 0000 0000
000002a0: 0000 0000 0000 0000 0000 0000 0000 0000
000002b0: 0000 0000 0000 0000 0000 0000 0000 0000
000002c0: 0000 0000 0000 0000 0000 0000 0000 0000
000002d0: 0000 0000 0000 0000 0000 0000 0000 0000
000002e0: 0000 0000 0000 0000 0000 0000 0000 0000
000002f0: 0000 0000 0000 0000 0000 0000 0000 0000
00000300: 0000 0000 0000 0000 0000 0000 0000 0000
00000310: 0000 0000 0000 0000 0000 0000 0000 0000
00000320: 0000 0000 0000 0000 0000 0000 0000 0000
00000330: 0000 0000 0000 0000 0000 0000 0000 0000
00000340: 0000 0000 0000 0000 0000 0000 0000 0000
00000350: 0000 0000 0000 0000 0000 0000 0000 0000
00000360: 0000 0000 0000 0000 0000 0000 0000 0000
00000370: 0000 0000 0000 0000 0000 0000 0000 0000
00000380: 0000 0000 0000 0000 0000 0000 0000 0000
00000390: 0000 0000 0000 0000 0000 0000 0000 0000
000003a0: 0000 0000 0000 0000 0000 0000 0000 0000
000003b0: 0000 0000 0000 0000 0000 0000 0000 0000
000003c0: 0000 0000 0000 0000 0000 0000 0000 0000
000003d0: 0000 0000 0000 0000 0000 0000 0000 0000
000003e0: 0000 0000 0000 0000 0000 0000 0000 0000
000003f0: 0000 0000 0000 0000 0000 0000 0000 0000

exp_avg_sq f4 [128, 32]
0.0 0.0 0.0 0.0 0.0 0.0 0.0 0.0
0.0 0.0 0.0 0.0 0.0 0.0 0.0 0.0
0.0 0.0 0.0 0.0 0.0 0.0 0.0 0.0
0.0 0.0 0.0 0.0 0.0 0.0 0.0 0.0
0.0 0.0 0.0 0.0 0.0 0.0 0.0 0.0
0.0 0.0 0.0 0.0 0.0 0.0 0.0 0.0
0.0 0.0 0.0 0.0 0.0 0.0 0.0 0.0
0.0 0.0 0.0 0.0 0.0 0.0 0.0 0.0
0.0 0.0 0.0 0.0 0.0 0.0 0.0 0.0
0.0 0.0 0.0 0.0 0.0 0.0 0.0 0.0
0.0 0.0 0.0 0.0 0.0 0.0 0.0 0.0
0.0 0.0 0.0 0.0 0.0 0.0 0.0 0.0
0.0 0.0 0.0 0.0 0.0 0.0 0.0 0.0
0.0 0.0 0.0 0.0 0.0 0.0 0.0 0.0
0.0 0.0 0.0 0.0 0.0 0.0 0.0 0.0
0.0 0.0 0.0 0.0 0.0 0.0 0.0 0.0
0.0 0.0 0.0 0.0 0.0 0.0 0.0 0.0
0.0 0.0 0.0 0.0 0.0 0.0 0.0 0.0
0.0 0.0 0.0 0.0 0.0 0.0 0.0 0.0
0.0 0.0 0.0 0.0 0.0 0.0 0.0 0.0
0.0 0.0 0.0 0.0 0.0 0.0 0.0 0.0
0.0 0.0 0.0 0.0 0.0 0.0 0.0 0.0
0.0 0.0 0.0 0.0 0.0 0.0 0.0 0.0
0.0 0.0 0.0 0.0 0.0 0.0 0.0 0.0
0.0 0.0 0.0 0.0 0.0 0.0 0.0 0.0
0.0 0.0 0.0 0.0 0.0 0.0 0.0 0.0
0.0 0.0 0.0 0.0 0.0 0.0 0.0 0.0
0.0 0.0 0.0 0.0 0.0 0.0 0.0 0.0
0.0 0.0 0.0 0.0 0.0 0.0 0.0 0.0
0.0 0.0 0.0 0.0 0.0 0.0 0.0 0.0
0.0 0.0 0.0 0.0 0.0 0.0 0.0 0.0
0.0 0.0 0.0 0.0 0.0 0.0 0.0 0.0
00000000: 0000 0000 0000 0000 0000 0000 0000 0000
00000010: 0000 0000 0000 0000 0000 0000 0000 0000
00000020: 0000 0000 0000 0000 0000 0000 0000 0000
00000030: 0000 0000 0000 0000 0000 0000 0000 0000
00000040: 0000 0000 0000 0000 0000 0000 0000 0000
00000050: 0000 0000 0000 0000 0000 0000 0000 0000
00000060: 0000 0000 0000 0000 0000 0000 0000 0000
00000070: 0000 0000 0000 0000 0000 0000 0000 0000
00000080: 0000 0000 0000 0000 0000 0000 0000 0000
00000090: 0000 0000 0000 0000 0000 0000 0000 0000
000000a0: 0000 0000 0000 0000 0000 0000 0000 0000
000000b0: 0000 0000 0000 0000 0000 0000 0000 0000
000000c0: 0000 0000 0000 0000 0000 0000 0000 0000
000000d0: 0000 0000 0000 0000 0000 0000 0000 0000
000000e0: 0000 0000 0000 0000 0000 0000 0000 0000
000000f0: 0000 0000 0000 0000 0000 0000 0000 0000
00000100: 0000 0000 0000 0000 0000 0000 0000 0000
00000110: 0000 0000 0000 0000 0000 0000 0000 0000
00000120: 0000 0000 0000 0000 0000 0000 0000 0000
00000130: 0000 0000 0000 0000 0000 0000 0000 0000
00000140: 0000 0000 0000 0000 0000 0000 0000 0000
00000150: 0000 0000 0000 0000 0000 0000 0000 0000
00000160: 0000 0000 0000 0000 0000 0000 0000 0000
00000170: 0000 0000 0000 0000 0000 0000 0000 0000
00000180: 0000 0000 0000 0000 0000 0000 0000 0000
00000190: 0000 0000 0000 0000 0000 0000 0000 0000
000001a0: 0000 0000 0000 0000 0000 0000 0000 0000
000001b0: 0000 0000 0000 0000 0000 0000 0000 0000
000001c0: 0000 0000 0000 0000 0000 0000 0000 0000
000001d0: 0000 0000 0000 0000 0000 0000 0000 0000
000001e0: 0000 0000 0000 0000 0000 0000 0000 0000
000001f0: 0000 0000 0000 0000 0000 0000 0000 0000
00000200: 0000 0000 0000 0000 0000 0000 0000 0000
00000210: 0000 0000 0000 0000 0000 0000 0000 0000
00000220: 0000 0000 0000 0000 0000 0000 0000 0000
00000230: 0000 0000 0000 0000 0000 0000 0000 0000
00000240: 0000 0000 0000 0000 0000 0000 0000 0000
00000250: 0000 0000 0000 0000 0000 0000 0000 0000
00000260: 0000 0000 0000 0000 0000 0000 0000 0000
00000270: 0000 0000 0000 0000 0000 0000 0000 0000
00000280: 0000 0000 0000 0000 0000 0000 0000 0000
00000290: 0000 0000 0000 0000 0000 0000 0000 0000
000002a0: 0000 0000 0000 0000 0000 0000 0000 0000
000002b0: 0000 0000 0000 0000 0000 0000 0000 0000
000002c0: 0000 0000 0000 0000 0000 0000 0000 0000
000002d0: 0000 0000 0000 0000 0000 0000 0000 0000
000002e0: 0000 0000 0000 0000 0000 0000 0000 0000
000002f0: 0000 0000 0000 0000 0000 0000 0000 0000
00000300: 0000 0000 0000 0000 0000 0000 0000 0000
00000310: 0000 0000 0000 0000 0000 0000 0000 0000
00000320: 0000 0000 0000 0000 0000 0000 0000 0000
00000330: 0000 0000 0000 0000 0000 0000 0000 0000
00000340: 0000 0000 0000 0000 0000 0000 0000 0000
00000350: 0000 0000 0000 0000 0000 0000 0000 0000
00000360: 0000 0000 0000 0000 0000 0000 0000 0000
00000370: 0000 0000 0000 0000 0000 0000 0000 0000
00000380: 0000 0000 0000 0000 0000 0000 0000 0000
00000390: 0000 0000 0000 0000 0000 0000 0000 0000
000003a0: 0000 0000 0000 0000 0000 0000 0000 0000
000003b0: 0000 0000 0000 0000 0000 0000 0000 0000
000003c0: 0000 0000 0000 0000 0000 0000 0000 0000
000003d0: 0000 0000 0000 0000 0000 0000 0000 0000
000003e0: 0000 0000 0000 0000 0000 0000 0000 0000
000003f0: 0000 0000 0000 0000 0000 0000 0000 0000
