dl_computer_vision/assignments/1/checkpoints/best_checkpoint-v12.ckpt (torch, 168892 bytes, 27 tensors)

model.lstm.weight_ih_l0 f4 [128, 1]
-0.17249018 2.3685234 1.6093665 -0.5277236 1.6383799 -3.0209863 -2.8705118 0.2277759
2.9514728 -0.17363285 3.105809 2.9819653 -0.14316057 2.2060385 3.0508604 -0.09845196
-3.1245859 -2.948454 -0.34249717 -0.03178025 -2.9829888 -2.9393961 0.17373438 2.871884
-3.0894516 2.53811 -1.0805866 2.6287942 -0.29484698 0.09311705 2.9586055 -0.16162516
-0.064751424 -0.12511736 -0.07080566 -0.1623101 0.07028266 0.14006782 -0.12214527 0.03940205
-0.17109534 -0.1248389 -0.102772065 -0.031718723 0.113608636 -0.07705896 -0.17157021 -0.103248194
-0.17213768 0.046042766 -0.064902686 -0.04345003 0.1758839 -0.17552152 0.140593 -0.1033217
0.016602572 -0.11619751 0.030024774 0.0076135946 -0.013469134 0.07765387 0.13981907 0.13421124
0.06263128 0.1278565 0.83972496 0.06435871 -2.4243562 0.13544433 2.9703505 0.16074872
-0.13509247 0.12382194 -0.24439201 2.051044 -0.051073946 -0.16405384 -0.09945164 0.105293825
0.08581011 0.15748389 2.9897768 -0.07326245 -2.9833229 0.10705367 -0.08990759 -2.9980795
-2.838453 0.36498296 -1.309012 -0.16243705 0.09429905 2.9855578 0.13459042 -0.023424622
-0.13027638 2.9656816 2.6961994 -0.40801877 1.727557 -3.104376 -2.9733763 2.9252765
1.3881375 -0.09188352 2.964077 2.928694 -0.12537667 2.8967123 3.0126495 -0.17048833
-2.8549063 -2.8907933 -3.0792189 -0.094834454 -3.0405998 -3.030607 -3.1096897 2.2001746
0.01475438 2.6287153 -3.0887575 2.644196 -0.27129784 -3.105986 2.887624 -0.1508992
00000000: 44a1 30be e395 1740 b9ff cd3f e518 07bf
00000010: 6fb6 d13f d757 41c0 77b6 37c0 163e 693e
00000020: eee4 3c40 cfcc 31be 93c5 4640 85d8 3e40
00000030: af98 12be bc2f 0d40 4c41 4340 2ea1 c9bd
00000040: 37f9 47c0 78b3 3cc0 ca5b afbe 022c 02bd
00000050: 4ae9 3ec0 111f 3cc0 6de7 313e f3cc 3740
00000060: 93b9 45c0 6570 2240 a950 8abf 2a3e 2840
00000070: 2ff6 96be 27b4 be3d cb59 3d40 1181 25be
00000080: 659c 84bd c41e 00be 8f02 91bd 9e34 26be
00000090: 5bf0 8f3d f06d 0f3e 4d27 fabd 0b64 213d
000000a0: 9e33 2fbe 8aab ffbd 297a d2bd 7eeb 01bd
000000b0: a5ab e83d 17d1 9dbd 1ab0 2fbe ca73 d3bd
000000c0: dc44 30be 5797 3c3d b3eb 84bd a9f8 31bd
000000d0: e91a 343e eabb 33be 9df7 0f3e 549a d3bd
000000e0: 1e02 883c f6f8 edbd 84f6 f53c 767b f93b
000000f0: a5ad 5cbc fe08 9f3d bb2c 0f3e ac6e 093e
00000100: d444 803d d0ec 023e 37f8 563f 80ce 833d
00000110: a728 1bc0 ebb1 0a3e 391a 3e40 509b 243e
00000120: ae55 0abe 5b96 fd3d e641 7abe 4e44 0340
00000130: ea32 51bd bbfd 27be 4dad cbbd 4aa4 d73d
00000140: 36bd af3d 7543 213e 8158 3f40 a00a 96bd
00000150: c3ee 3ec0 f43e db3d 7821 b8bd 89e0 3fc0
00000160: 37a9 35c0 0cdf ba3e b58d a7bf e655 26be
00000170: dc1f c13d 6113 3f40 12d2 093e fee4 bfbc
00000180: 2c67 05be bacd 3d40 888e 2c40 d6e7 d0be
00000190: 9620 dd3f 19ae 46c0 cc4b 3ec0 bb37 3b40
000001a0: 7dae b13f 6d2d bcbd 70b3 3d40 b96f 3b40
000001b0: be62 00be bc63 3940 40cf 4040 7e94 2ebe
000001c0: c9b6 36c0 c202 39c0 ec11 45c0 9138 c2bd
000001d0: 3099 42c0 77f5 41c0 2805 47c0 a9cf 0c40
000001e0: 5bbc 713c df3c 2840 34ae 45c0 823a 2940
000001f0: 8de7 8abe 7ac8 46c0 d5ce 3840 5285 1abe

model.lstm.weight_hh_l0 f4 [128, 32]
-0.02500602 -0.13539377 -0.10071789 -0.014209993 0.030424686 -0.16466866 0.17337613 -0.010838827
-0.15794359 0.11941004 -0.03032071 -0.04900922 -0.13087502 0.1290285 -0.09645586 -0.058842186
0.1001532 -0.13027793 -0.17617263 -0.09994116 0.09373928 0.14900061 -0.12708735 -0.121811844
0.14338134 0.15020412 0.010060541 0.094564006 0.07261282 -0.053316575 -0.008326258 -0.17440027
-0.05176999 0.14863762 -0.05951407 -0.0609336 0.15467739 0.04679819 0.063215934 0.061915837
-0.13557899 -0.0014853219 0.14597057 -0.07131927 0.10865974 0.06536437 0.028470986 -0.033030126
-0.06584806 0.030040875 -0.043218836 -0.14368594 0.083976224 -0.15541182 -0.03937282 0.023015568
-0.023190308 0.10485686 0.016694747 0.08504048 -0.13354689 -0.004446567 -0.028731221 -0.1402988
0.09199176 -0.170784 0.026665725 -0.042565897 0.0907182 0.12029571 -0.0033735477 -0.07931971
-0.045452815 -0.091172606 -0.061631154 -0.019761274 -0.093743555 0.0026504323 0.085777275 -0.12194617
0.056293875 -0.082226224 0.062905595 0.12605539 -0.055014126 0.015675843 0.17605129 -0.048953224
-0.08562209 0.045891754 -0.052540015 -0.046811044 0.062880285 0.13655435 -0.09055507 -0.045977734
0.04751591 -0.051318005 -0.04684495 0.029945567 0.062486716 0.036246847 -0.096550815 -0.10196063
-0.1396909 0.17408267 0.02603664 -0.08903163 0.17288141 -0.053829607 -0.056093995 -0.009652433
-0.021629838 -0.096797206 0.13756582 -0.074352816 -0.019242277 -0.082835145 0.0572441 -0.11577667
0.06981753 -0.12855113 -0.06861802 0.0031077901 -0.036331728 0.1465794 -0.17616361 0.02683347
0.11469106 0.076109074 -0.056434058 0.09607161 -0.14901884 0.008772045 0.1406898 0.0016228053
0.053504653 0.13138023 -0.17535755 -0.073026955 -0.05987257 0.07053889 -0.13289125 0.15139282
0.016758388 -0.10826259 0.04368983 0.063034736 -0.12284639 -0.050572027 0.0011528246 -0.009220953
0.011161336 0.14141849 -0.0057880203 -0.07226911 -0.00013980144 0.13917612 0.16345169 -0.123855256
0.13541673 -0.11158061 0.017647225 -0.14235747 -0.05538468 0.050223872 -0.033693057 -0.106427215
-0.05486971 -0.13036378 0.04551572 0.06395706 -0.15443507 -0.16896744 -0.04342544 -0.04860216
-0.02371959 -0.045528322 -0.0152077805 -0.10185515 -0.15876532 0.056758776 -0.11631228 0.062187705
0.13222235 -0.082729734 -0.06513009 -0.15013249 0.11542395 -0.15949261 -0.09154894 -0.02198634
-0.06613523 -0.019864429 -0.033001088 -0.07881689 -0.07220229 0.010690491 -0.12705784 0.11178473
0.05075157 -0.17619783 -0.1269975 -0.08055836 -0.13688976 0.011725873 -0.17656487 0.11172157
0.09691254 0.10591039 0.011610011 0.03083779 -0.04618632 -0.101723105 -0.11296621 0.13415293
0.04433061 0.0458655 0.01816321 -0.15351015 0.11104859 0.06287097 -4.960565e-05 0.11220335
0.120770164 -0.06000144 0.029019697 -0.011203715 -0.057727125 0.10593291 0.10467352 -0.0071124993
0.12400275 -0.0033289983 0.016300946 0.09451033 0.16572951 -0.11745967 -0.019398917 -0.16000618
-0.07773852 -0.14276709 -0.048195865 -0.14205927 -0.07950279 0.005301855 -0.10820577 0.13219747
-0.02796385 -0.14884956 -0.07085483 -0.17341548 -0.04438538 -0.024614476 0.12431382 0.031267982
00000000: 6dd9 ccbc aaa4 0abe 2e45 cebd 08d1 68bc
00000010: 313d f93c e79e 28be 8389 313e 5695 31bc
00000020: f7bb 21be 408d f43d 2363 f8bc e4bd 48bd
00000030: 1a04 06be 0c20 043e a68a c5bd 8104 71bd
00000040: 1f1d cd3d 9467 05be 9966 34be f3ad ccbd
00000050: 61fa bf3d 9e93 183e 3023 02be 7d78 f9bd
00000060: 8fd2 123e 1ccf 193e f8d4 243c c6aa c13d
00000070: 08b6 943d 7b62 5abd db6a 08bc fc95 32be
00000080: c50c 54bd 7634 183e 07c5 73bd 8395 79bd
00000090: c063 1e3e 75af 3f3d 5b77 813d 769b 7d3d
000000a0: 38d5 0abe 22af c2ba 4f79 153e d60f 92bd
000000b0: ff88 de3d c1dd 853d fc3b e93c 994a 07bd
000000c0: 59db 86bd 4818 f63c 3c06 31bd 6822 13be
000000d0: bafb ab3d 4724 1fbe 6545 21bd 258b bc3c
000000e0: 9af9 bdbc 32bf d63d 6cc3 883c b429 ae3d
000000f0: 84c0 08be 82b4 91bb bd5d ebbc 7daa 0fbe
00000100: 2d66 bc3d 00e2 2ebe 1472 da3c 9459 2ebd
00000110: 77ca b93d 995d f63d bd16 5dbb 5f72 a2bd
00000120: bb2c 3abd b4b8 babd f370 7cbd 65e2 a1bc
00000130: 9ffc bfbd e0b2 2d3b ffab af3d eabe f9bd
00000140: 6894 663d 3966 a8bd a6d4 803d aa14 013e
00000150: 7e56 61bd a06a 803c ca46 343e 2d83 48bd
00000160: a25a afbd fef8 3b3d 3334 57bd f0bc 3fbd
00000170: 61c7 803d e7d4 0b3e f074 b9bd 2653 3cbd
00000180: 0ba0 423d d432 52bd 7ee0 3fbd 6850 f53c
00000190: 12f2 7f3d 9377 143d 6fbc c5bd bcd0 d0bd
000001a0: 220b 0fbe ba42 323e cb4a d53c 3756 b6bd
000001b0: d307 313e 6f7c 5cbd d1c2 65bd 3d25 1ebc
000001c0: 0f31 b1bc 9d3d c6bd 0ede 0c3e 4a46 98bd
000001d0: fba1 9dbc 79a5 a9bd ca78 6a3d 521c edbd
000001e0: 7efc 8e3d e8a2 03be 9b87 8cbd 11ac 4b3b
000001f0: 94d0 14bd e918 163e 3c64 34be ded1 db3c
00000200: 25e3 ea3d 13df 9b3d 6627 67bd 31c1 c43d
00000210: 6598 18be a0b8 0f3c fd10 103e 4fb4 d43a
00000220: b227 5b3d 8a88 063e ee90 33be 288f 95bd
00000230: f13c 75bd b276 903d a514 08be b806 1b3e
00000240: e348 893c c7b8 ddbd 1bf4 323d 5b18 813d
00000250: e396 fbbd 9d24 4fbd 601a 973a 7b13 17bc
00000260: 09de 363c 02d0 103e 6fa9 bdbb d401 94bd
00000270: aa97 12b9 2f84 0e3e e15f 273e d3a7 fdbd
00000280: afaa 0a3e 6084 e4bd ea90 903c 28c6 11be
00000290: 0cdb 62bd 8cb7 4d3d bb01 0abd 83f6 d9bd
000002a0: 10bf 60bd 157e 05be b16e 3a3d ebfb 823d
000002b0: 3a24 1ebe cd05 2dbe e0de 31bd 0f13 47bd
000002c0: 964f c2bc e87b 3abd 0e2a 79bc 6f99 d0bd
000002d0: 6093 22be e47b 683d 2235 eebd 89b8 7e3d
000002e0: 4c65 073e 356e a9bd ed62 85bd 55bc 19be
000002f0: 6463 ec3d 0852 23be 037e bbbd b21c b4bc
00000300: e871 87bd baba a2bc 262c 07bd c06a a1bd
00000310: cbde 93bd 2b27 2f3c 731b 02be 64ef e43d
00000320: e1e0 4f3d 346d 34be a20b 02be c8fb a4bd
00000330: d42c 0cbe e01d 403c 6ccd 34be 47ce e43d
00000340: 157a c63d 8ce7 d83d ea37 3e3c 889f fc3c
00000350: de2d 3dbd 3454 d0bd d45a e7bd 635f 093e
00000360: 0494 353d 76dd 3b3d 03cb 943c c431 1dbe
00000370: 716d e33d 7fc2 803d a90f 50b8 dfca e53d
00000380: 5956 f73d 12c4 75bd b7ba ed3c c98f 37bc
00000390: 4773 6cbd 5bf3 d83d 125f d63d f80f e9bb
000003a0: 27f5 fd3d 532b 5abb 9089 853c a28e c13d
000003b0: ffb4 293e b28e f0bd 7aea 9ebc a9d8 23be
000003c0: 6035 9fbd 8931 12be 0769 45bd fc77 11be
000003d0: 5cd2 a2bd 2fbb ad3b fd9a ddbd c65e 073e
000003e0: 7214 e5bc 056c 18be 561c 91bd d493 31be
000003f0: 72cd 35bd 4ca4 c9bc 3e98 fe3d db12 003d

model.lstm.bias_ih_l0 f4 [128]
0.1486226 0.09321651 0.11888772 -0.018624417 0.14192142 -2.804249 -2.5873666 0.15575217
2.867794 0.02912495 1.892729 2.9963834 -0.16320023 0.1796746 3.1291761 -0.07467572
-3.055316 -2.9085257 0.047854077 -0.13517623 -2.917821 -0.8441883 0.08971693 3.0416126
-3.1516662 0.36213472 -0.12559982 2.1993234 0.014639919 -0.15598206 2.403912 -0.06951899
0.16284108 0.08214083 -0.012335655 -0.14120162 -0.052995138 0.08154085 -0.17438267 0.06876133
0.08845697 0.055107355 -0.10680161 -0.046707258 -0.13165037 0.045038026 -0.08893248 0.14512934
0.09352317 0.11510898 -0.10952588 -0.16767634 -0.13356341 -0.049229816 0.15685675 0.09787092
0.14649104 -0.030470816 0.17390859 -0.089809194 -0.09094765 -0.13712394 0.07324384 0.17193957
-0.10865009 -0.11118099 -0.13543239 0.10658789 -0.26002574 -0.13230057 2.9037068 0.13410522
0.038353857 0.11660398 0.1413171 -0.09376834 -0.12974674 0.09121977 0.17265505 -0.020684041
0.10975752 -0.034374215 2.8330574 -0.075367354 -3.025905 -0.0696854 -0.14775318 -1.612987
-0.5012987 0.04083242 0.11504646 0.012464119 -0.035308696 2.259006 0.16788891 0.15183748
-0.021615563 2.9390774 0.5620062 -0.15470874 -0.031988833 -3.130845 -3.1473668 3.0062456
0.015187818 0.08537428 0.5952318 3.029984 -0.05213588 2.8318577 2.862836 -0.16345246
-0.86312604 -2.688355 -2.9467626 -0.06768671 -2.9871986 -0.6286987 -2.9775918 0.16357665
0.03674458 0.33948272 -3.07842 0.48472953 -0.098542646 -1.5094643 2.3833768 0.02675136
00000000: 8630 183e 4ce8 be3d 687b f33d 3c92 98bc
00000010: d953 113e d178 33c0 6a97 25c0 7f7d 1f3e
00000020: f089 3740 7297 ee3c f244 f23f bfc4 3f40
00000030: f61d 27be 9efc 373e 6c44 4840 95ef 98bd
00000040: 4c8a 43c0 4925 3ac0 a302 443d a36b 0abe
00000050: 94bd 3ac0 b91c 58bf 83bd b73d c8a9 4240
00000060: e6b4 49c0 b969 b93e 3d9d 00be b7c1 0c40
00000070: 45dc 6f3c c3b9 1fbe b2d9 1940 f95f 8ebd
00000080: d0bf 263e 7439 a83d 7d1b 4abc 2897 10be
00000090: 6e11 59bd e4fe a63d 5f91 32be bdd2 8c3d
000000a0: ee28 b53d 40b8 613d cdba dabd 1c50 3fbd
000000b0: 5bcf 06be cb79 383d 3b22 b6bd c99c 143e
000000c0: 1389 bf3d 42be eb3d 1b4f e0bd 59b3 2bbe
000000d0: d9c4 08be 34a5 49bd 0e9f 203e 8d70 c83d
000000e0: bf01 163e ef9d f9bc 1815 323e e2ed b7bd
000000f0: c342 babd 386a 0cbe de00 963d ed10 303e
00000100: f083 debd dcb2 e3bd caae 0abe c04a da3d
00000110: 1822 85be cd79 07be 55d6 3940 e152 093e
00000120: ef18 1d3d 11ce ee3d 6eb5 103e 9e09 c0bd
00000130: 54dc 04be 6ed1 ba3d 7ccc 303e 9471 a9bc
00000140: 8dc8 e03d facb 0cbd d050 3540 335a 9abd
00000150: 6da8 41c0 38b7 8ebd 9c4c 17be 5c76 cebf
00000160: 1d55 00bf e53f 273d 7a9d eb3d 4e36 4c3c
00000170: da9f 10bd 8e93 1040 12eb 2b3e 497b 1b3e
00000180: 1f13 b1bc d819 3c40 a3df 0f3f f86b 1ebe
00000190: b906 03bd c45f 48c0 756e 49c0 5466 4040
000001a0: 53d6 783c b6d8 ae3d 1c61 183f 42eb 4140
000001b0: 6f8c 55bd 283d 3540 b438 3740 1560 27be
000001c0: d4f5 5cbf 020e 2cc0 c297 3cc0 549f 8abd
000001d0: 432e 3fc0 66f2 20bf dd90 3ec0 a380 273e
000001e0: 7c81 163d aed0 ad3e d504 45c0 782e f83e
000001f0: bad0 c9bd 2036 c1bf 3f89 1840 ab25 db3c

model.lstm.bias_hh_l0 f4 [128]
-0.17631811 0.06900463 0.0003897075 0.08011532 -0.09942486 -2.782239 -2.770483 0.11127779
2.8777578 -0.16968621 1.9639819 2.9655657 -0.010388899 0.053933524 3.0511417 -0.14238325
-3.0041316 -3.1711545 0.1611092 0.0059523857 -3.1398017 -0.74941736 -0.09136122 3.0289326
-3.0132227 0.17830557 0.05131234 1.9820387 0.12696907 0.08332912 2.2386007 -0.038787037
0.032553528 0.13553113 -0.068519086 -0.038378514 0.16203706 0.029665789 0.018848708 0.035471175
-0.1526256 -0.105604045 0.0075330096 0.11606595 0.04061641 -0.094131365 0.1716301 -0.09885031
-0.09063176 -0.07870025 0.03557199 0.13517186 -0.025907565 -0.09444793 -0.025343975 0.041725885
-0.03189096 0.1710516 -0.031859536 -0.024689833 0.07533825 -0.13204288 0.050026644 0.11855709
-0.023746733 -0.15814908 0.11906806 -0.04105636 0.014664184 0.08518224 3.10069 -0.0345929
-0.16828845 0.01049946 -0.16264825 -0.02689223 0.036468748 0.12406913 -0.009257199 0.16409664
0.088477075 -0.06016149 2.9274077 -0.01530691 -2.9029937 -0.06112944 0.11933259 -1.5169404
-0.8145957 -0.047327835 0.14472483 -0.09310174 -0.054252803 2.256478 -0.03607287 0.0059881452
0.14720613 3.0000222 0.46064547 0.017305123 0.04316707 -2.9533238 -3.0685682 2.9704554
0.17167313 0.07879584 0.4412649 3.0833292 0.0067071705 2.925009 2.8405235 -0.072164945
-0.67308044 -2.7815707 -3.097213 0.040395766 -2.899219 -0.59714305 -2.8974879 0.024906881
0.118177935 0.32661894 -3.0365937 0.48053977 -0.07741179 -1.51102 2.247927 0.075059876
00000000: bc8c 34be 4d52 8d3d a851 cc39 8013 a43d
00000010: 439f cbbd 3410 32c0 984f 31c0 9ce5 e33d
00000020: 2f2d 3840 39c2 2dbe c263 fb3f d4cb 3d40
00000030: 3336 2abc 66e9 5c3d e845 4340 eacc 11be
00000040: b143 40c0 32f4 4ac0 cff9 243e 3b0c c33b
00000050: 83f2 48c0 d1d9 3fbf 971b bbbd 08da 4140
00000060: a4d8 40c0 bc95 363e e32c 523d 72b3 fd3f
00000070: 2e04 023e 75a8 aa3d 3c45 0f40 28df 1ebd
00000080: d956 053d acc8 0a3e bc53 8cbd ca32 1dbd
00000090: 0bed 253e ab05 f33c 9b68 9a3c 394a 113d
000000a0: e349 1cbe ef46 d8bd 77d7 f63b fcb3 ed3d
000000b0: 655d 263d f2c7 c0bd cdbf 2f3e 0872 cabd
000000c0: 259d b9bd 992d a1bd efb3 113d 7e6a 0a3e
000000d0: 1a3c d4bc eb6d c1bd 2b9e cfbc c3e8 2a3d
000000e0: 18a0 02bd 2728 2f3e 257f 02bd 5542 cabc
000000f0: f14a 9a3d 4036 07be bde8 4c3d 0fce f23d
00000100: 8288 c2bc d5f1 21be f4d9 f33d b72a 28bd
00000110: 0c42 703c 0774 ae3d b471 4640 49b1 0dbd
00000120: cf53 2cbe ed05 2c3c 438d 26be 184d dcbc
00000130: 4160 153d f517 fe3d 82ab 17bc f308 283e
00000140: 7833 b53d e56b 76bd a65a 3b40 d5c9 7abc
00000150: a6ca 39c0 dd62 7abd a564 f43d 1a2b c2bf
00000160: 5889 50bf d5da 41bd bf32 143e 20ac bebd
00000170: 3038 5ebd 236a 1040 25c1 13bd 3438 c43b
00000180: 34bd 163e 5d00 4040 b9d9 eb3e 79c3 8d3c
00000190: f4cf 303d 4203 3dc0 6c63 44c0 f11b 3e40
000001a0: 15cb 2f3e b75f a13d 79ed e13e 4455 4540
000001b0: d3c7 db3b 5933 3b40 23cb 3540 37cb 93bd
000001c0: 004f 2cbf 4105 32c0 bd38 46c0 0876 253d
000001d0: ce8c 39c0 5ede 18bf 7170 39c0 8409 cc3c
000001e0: 4607 f23d 993a a73e 8d57 42c0 4f09 f63e
000001f0: 138a 9ebd 1a69 c1bf 09de 0f40 feb8 993d

model.lstm.weight_ih_l1 f4 [128, 32]
0.042375352 3.5537944 2.7732506 0.116214916 -2.7999103 2.0081818 -2.879692 3.4881263
-3.4914765 -0.0028890409 -3.9734578 3.495133 -0.112121716 -3.296107 -3.7862003 -0.027965311
1.8763748 2.9195058 -3.1224174 -0.11833577 2.9863365 0.12856972 -2.8457274 -3.2840295
2.9047945 2.9153273 2.8356018 -3.3536437 0.14071073 -0.3671552 2.913673 0.04082238
0.017116072 -3.5178535 -2.9702003 0.117509775 2.7446296 -2.6368642 3.1700382 -3.2458863
3.3247743 0.075877994 3.0414908 -3.3976536 -0.09988603 3.3448026 3.22516 -0.1322662
-2.7297595 -3.085684 3.052282 0.0237088 -3.092078 -0.30212435 2.9939206 3.112123
-2.818333 -2.8656106 -2.8609385 2.1440005 0.0384849 1.2157481 -3.050704 0.020036792
0.11076352 -3.7079015 -2.7127955 -0.03526501 2.918348 -2.669555 3.0584044 -3.3780367
3.3103044 -0.0010318923 3.188947 -3.2797472 -0.16228119 3.207747 3.267771 0.17561948
-2.6959867 -3.1435077 2.9212744 0.058031984 -3.0204446 -0.1544883 2.8756719 3.3985405
-3.1291842 -2.648523 -2.8302803 2.4270575 0.11501009 1.2542502 -3.1365244 0.13661899
0.17226689 -3.178128 -2.6898155 -0.09084945 2.669827 -1.1015444 3.1015518 -3.160299
3.3997836 -0.10605674 3.244223 -3.298044 -0.12498674 3.4151847 3.9243886 -0.06334697
0.68532366 -2.8889418 2.9297636 0.10680552 -2.839534 -0.19486296 2.3519983 3.1775568
-2.9156709 -2.820616 -2.8632314 2.2270584 -0.11653883 -0.23925216 -2.9732018 0.044132147
0.06695809 3.4258199 2.8005257 -0.007844151 -2.8199885 1.5361627 -2.9421551 3.3978102
-3.33905 -0.12975027 -3.4047475 3.4000256 -0.15833496 -3.510033 -3.3850815 0.1174521
1.537937 2.9575737 -3.1350398 -0.0057762833 2.8451452 -0.04151502 -2.3829923 -3.3790162
3.0301719 2.7957532 3.0090854 -3.2527788 -0.09332931 -0.14968283 2.8626208 0.04234574
-0.13740884 3.4037693 2.719578 0.1499661 -3.0301862 -0.15188126 -3.0460927 3.2497714
-3.2220776 -0.14003822 -3.316236 3.3674576 0.029092606 -3.40779 -3.3843966 -0.093060225
-0.60382754 2.8333027 -2.854323 -0.1002946 2.946607 -0.06013334 -0.5285752 -3.0546973
-1.9397577 3.0169604 1.8856759 -3.3827956 0.010996623 0.002451078 2.948824 -0.064522624
0.10845815 -3.3448138 -2.9346445 0.031424314 2.9271529 -1.6507076 3.1596432 -3.1954355
3.336662 -0.1676414 3.6870403 -3.218668 -0.07505195 3.193799 4.1067233 -0.09621974
-1.2669686 -2.8518846 2.9366858 0.101949364 -2.9601655 0.12570073 2.3569462 3.2865574
-2.95647 -2.9541776 -3.0702078 1.8365784 0.052856892 0.25149825 -2.8119714 0.17093322
0.17353599 3.352323 2.9371724 0.1414156 -2.8600397 2.0733848 -2.894065 3.2343357
-3.3982933 -0.0069437795 -3.5480719 3.504049 0.027722752 -3.398301 -3.8030725 -0.16056867
2.168597 3.166072 -3.037804 -0.022045393 3.0341291 0.2132574 -2.844557 -3.3193038
2.9364312 2.8408122 2.9625645 -3.4911458 -0.03868345 -0.5691878 2.9189773 0.17592731
00000000: c791 2d3d 5e71 6340 f07c 3140 1602 ee3d
00000010: bb31 33c0 0d86 0040 e04c 38c0 763d 5f40
00000020: 5a74 5fc0 1056 3dbb 224d 7ec0 42b0 5f40
00000030: 12a0 e5bd 6bf3 52c0 1b51 72c0 8217 e5bc
00000040: 0d2d f03f 2fd9 3a40 b0d5 47c0 065a f2bd
00000050: 2320 3f40 c8a7 033e 6620 36c0 8a2d 52c0
00000060: 27e8 3940 b994 3a40 807a 3540 19a2 56c0
00000070: 7916 103e c4fb bbbe 9e79 3a40 5e35 273d
00000080: 0137 8c3c 8324 61c0 c317 3ec0 f7a8 f03d
00000090: 03a8 2f40 62c2 28c0 e8e1 4a40 9abc 4fc0
000000a0: 1ac9 5440 ec65 9b3d c9a7 4240 2873 59c0
000000b0: 0c91 ccbd 3f11 5640 0569 4e40 ca70 07be
000000c0: 61b4 2ec0 d97b 45c0 9758 4340 f538 c23c
000000d0: 9be4 45c0 0bb0 9abe 659c 3f40 062d 4740
000000e0: 915f 34c0 2a66 37c0 9e19 37c0 4e37 0940
000000f0: 58a2 1d3d a29d 9b3f bc3e 43c0 3324 a43c
00000100: fcd7 e23d 424e 6dc0 719e 2dc0 0b72 10bd
00000110: 37c6 3a40 fdd9 2ac0 e6bc 4340 c131 58c0
00000120: 07dc 5340 8f40 87ba b517 4c40 61e7 51c0
00000130: 0a2d 26be ba4b 4d40 2923 5140 98d5 333e
00000140: 0c8b 2cc0 3b2f 49c0 29f6 3a40 f2b2 6d3d
00000150: f74e 41c0 2e32 1ebe 020b 3840 b081 5940
00000160: 8e44 48c0 6781 29c0 5023 35c0 e954 1b40
00000170: 698a eb3d 458b a03f d1bc 48c0 d9e5 0b3e
00000180: bb66 303e 7366 4bc0 f025 2cc0 470f babd
00000190: 72de 2a40 68ff 8cbf d37f 4640 5742 4ac0
000001a0: 0e96 5940 4734 d9bd 5aa1 4f40 2713 53c0
000001b0: 0cf9 ffbd 6392 5a40 2f29 7b40 0ebc 81bd
000001c0: 5f71 2f3f 6ce4 38c0 3f81 3b40 dabc da3d
000001d0: edba 35c0 288a 47be 2487 1640 175d 4b40
000001e0: 5a9a 3ac0 f984 34c0 2f3f 37c0 2088 0e40
000001f0: e9ab eebd 85fe 74be f048 3ec0 e9c3 343d
00000200: 5321 893d a240 5b40 d03b 3340 c184 00bc
00000210: b17a 34c0 fba0 c43f 454c 3cc0 b975 5940
00000220: ffb2 55c0 41dd 04be 62e7 59c0 059a 5940
00000230: 8f22 22be 61a4 60c0 2da5 58c0 ba8a f03d
00000240: 1fdb c43f e348 3d40 7ea4 48c0 fa46 bdbb
00000250: dc16 3640 a70b 2abd f282 18c0 cd41 58c0
00000260: 56ee 4140 9fed 3240 db94 4040 872d 50c0
00000270: 7023 bfbd 7546 19be 2e35 3740 ba72 2d3d
00000280: e7b4 0cbe 5bd7 5940 910d 2e40 b790 193e
00000290: 92ee 41c0 c386 1bbe 2ff3 42c0 41fc 4f40
000002a0: 8536 4ec0 2e66 0fbe 363d 54c0 6d84 5740
000002b0: 9e53 ee3c 3b19 5ac0 f499 58c0 5c96 bebd
000002c0: 7194 1abf d554 3540 3aad 36c0 4167 cdbd
000002d0: 3695 3c40 614e 76bd b450 07bf 2980 43c0
000002e0: fb49 f8bf e115 4140 d45d f13f b97f 58c0
000002f0: 2e2b 343c 44a2 203b 88b9 3c40 7024 84bd
00000300: 4e1f de3d 6e11 56c0 37d1 3bc0 c8b6 003d
00000310: 7956 3b40 634a d3bf 9837 4a40 0482 4cc0
00000320: df8b 5540 30aa 2bbe 78f8 6b40 a8fe 4dc0
00000330: d6b4 99bd 3467 4c40 476a 8340 db0e c5bd
00000340: 072c a2bf 4785 36c0 a9f2 3b40 d4ca d03d
00000350: 5a73 3dc0 b1b7 003e 35d8 1640 f556 5240
00000360: ce36 3dc0 3f11 3dc0 497e 44c0 0015 eb3f
00000370: 7880 583d 61c4 803e 57f7 33c0 1e09 2f3e
00000380: 6bb3 313e 768c 5640 a2fa 3b40 40cf 103e
00000390: e40a 37c0 56b2 0440 5c38 39c0 5bff 4e40
000003a0: a37d 59c0 a588 e3bb 9c13 63c0 5742 6040
000003b0: d31a e33c c37d 59c0 8a65 73c0 1d6c 24be
000003c0: 4bca 0a40 eca0 4a40 616b 42c0 8a98 b4bc
000003d0: 2c2f 4240 2660 5a3e 390d 36c0 796f 54c0
000003e0: 7dee 3b40 decf 3540 a89a 3d40 ef6e 5fc0
000003f0: 8a72 1ebd 4bb6 11bf 86d0 3a40 4a26 343e

model.lstm.weight_hh_l1 f4 [128, 32]
0.081101574 -0.04433668 -0.019466983 -0.029700032 -0.17301738 -0.08861425 0.15937427 0.14887297
-0.01402893 -0.022096552 0.014909928 0.13138768 -0.0545523 -0.13736922 0.14460132 -0.063290484
0.091717385 -0.08427838 -0.16386503 -0.10507885 -0.12560874 -0.03347174 -0.13387208 -0.122874625
0.059699792 -0.092832714 -0.13518113 0.15842254 -0.13512018 0.16020116 0.058889054 0.16651855
0.108488016 0.06331554 0.062243257 0.07941913 -0.057690248 -0.0125904335 -0.072358355 -0.13762443
-0.0709894 -0.049919486 0.08332462 0.08827943 -0.06770036 -0.13343722 0.0061678905 0.004660147
-0.08454075 -0.1305102 -0.04783258 -0.10047999 -0.019628469 0.073367715 -0.08277698 0.022872092
0.1062967 0.05831124 0.050112963 -0.02868661 -0.06756553 -0.068104595 -0.0035282692 -0.050809734
-0.1600642 0.033065572 -0.09927726 0.1396049 -0.13743377 -0.02364539 -0.009007331 0.020930957
0.16500284 0.08916281 -0.082343176 -0.05328686 0.13832971 -0.0039494014 -0.059671175 -0.020144263
-0.059419263 0.0032904972 -0.026527883 -0.05267042 -0.10692455 0.059005145 -0.08382507 0.068939924
0.113603994 -0.03781766 -0.14765063 -0.042882886 -0.17274871 -0.10593182 -0.08547908 -0.08888483
0.024611779 -0.06940455 0.045522925 -0.14036858 0.008543061 -0.111904025 -0.09963597 0.11271455
0.119987644 0.0954858 -0.07723105 0.15150934 0.09145261 0.069469355 0.10924809 -0.15167803
0.09006501 0.1258915 -0.031448983 0.08689048 0.07432496 0.16981497 -0.12150799 -0.13684788
-0.052857928 -0.10612875 -0.015944658 0.029488897 -0.030052317 -0.08555676 0.17611691 0.047786977
0.16478783 -0.11496905 -0.026731558 -0.12797278 -0.046802383 -0.1440417 0.0106733795 -0.09047036
-0.06019386 0.037879787 -0.06128517 -0.17637415 0.09737628 -0.033310615 -0.049645573 -0.16150449
0.14814585 0.14723188 -0.072915494 0.12654704 -0.16045105 -0.10704876 -0.16098708 0.0062765866
-0.1518506 -0.10285309 -0.092300676 -0.010338037 0.07799096 0.09009325 -0.06886252 0.026589623
0.12911111 -0.11602703 -0.060649637 0.07293095 0.17532672 -0.08649312 -0.05151532 -0.13941573
-0.01954013 -0.13634999 -0.08620793 -0.042912472 0.14221698 0.15445186 -0.11896971 0.14167774
-0.01270423 -0.12547378 -0.043600477 -0.102946214 0.0542413 -0.07421034 0.14874603 -0.09729643
-0.13528317 0.030469151 0.005495773 -0.06253987 -0.15218455 0.1011042 -0.1446157 -0.1753762
-0.028117942 -0.14678939 -0.08736246 0.069180354 0.070913896 0.063397996 -0.086277306 -0.06706171
0.010950811 -0.08059851 0.020746164 0.07486909 0.08031343 -0.015242362 0.127663 0.07177738
-0.06716933 0.00031159772 0.06227297 0.1606803 -0.07058252 0.09588567 0.07172202 -0.080019705
-0.0327418 -0.063127056 0.04387148 -0.06312343 -0.1251997 -0.17466752 -0.07810021 -0.17349984
0.02544399 -0.07575633 -0.027705254 0.041824657 -0.14186603 0.13438883 0.11906839 0.06252579
0.040074 0.14281741 -0.069498606 -0.09676867 0.13355447 -0.15645273 -0.14869918 0.14275876
-0.08858304 -0.11336517 -0.09093577 0.032361694 0.17539306 -0.13435642 0.073715635 0.057199404
0.055738546 -0.17106281 0.16513675 0.1445464 0.11459648 -0.062813565 -0.07841768 -0.1633396
00000000: 9518 a63d 619a 35bd 3979 9fbc 7b4d f3bc
00000010: 782b 31be 637b b5bd 0233 233e 2872 183e
00000020: 99d9 65bc d403 b5bc c548 743c 7e8a 063e
00000030: 3c72 5fbd 84aa 0cbe 5e12 143e 719e 81bd
00000040: 53d6 bb3d 259a acbd 3ccc 27be 9533 d7bd
00000050: 949f 00be aa19 09bd c315 09be b1a5 fbbd
00000060: c587 743d 141f bebd ec6c 0abe 8539 223e
00000070: f25c 0abe c60b 243e a635 713d d783 2a3e
00000080: f72e de3d 94ab 813d c9f2 7e3d 7fa6 a23d
00000090: 9c4c 6cbd 1b48 4ebc 9e30 94bd 6bed 0cbe
000000a0: e462 91bd 6078 4cbd 19a6 aa3d d9cb b43d
000000b0: 7da6 8abd c4a3 08be 041c ca3b 25b4 983b
000000c0: b323 adbd 77a4 05be 18ec 43bd 74c8 cdbd
000000d0: e2cb a0bc d041 963d fa86 a9bd 415e bb3c
000000e0: 16b2 d93d c4d7 6e3d 4043 4d3d 2e00 ebbc
000000f0: cc5f 8abd 6c7a 8bbd 893a 67bb de1d 50bd
00000100: dfe7 23be c46f 073d e051 cbbd 96f4 0e3e
00000110: 70bb 0cbe fab3 c1bc 7c93 13bc 6677 ab3c
00000120: 81f6 283e fe9a b63d 8aa3 a8bd 5343 5abd
00000130: 4ea6 0d3e fb69 81bb c369 74bd 9505 a5bc
00000140: 9d61 73bd 62a5 573b 0151 d9bc f0bc 57bd
00000150: 42fb dabd 61af 713d 7aac abbd 6030 8d3d
00000160: 36a9 e83d b1e6 1abd ba31 17be f7a5 2fbd
00000170: 0ae5 30be c8f2 d8bd a80f afbd 4009 b6bd
00000180: a49e c93c f923 8ebd 3f76 3a3d c8bc 0fbe
00000190: 32f8 0b3c f02d e5bd f20d ccbd e3d6 e63d
000001a0: 15bc f53d 0f8e c33d 502b 9ebd 4425 1b3e
000001b0: 824b bb3d f345 8e3d 76bd df3d 7c51 1bbe
000001c0: 0174 b83d b4e9 003e a6d0 00bd a3f3 b13d
000001d0: af37 983d fae3 2d3e 2ed9 f8bd da21 0cbe
000001e0: 8e81 58bd 085a d9bd 5f9e 82bc b392 f13c
000001f0: 4730 f6bc 6238 afbd fe57 343e 47bc 433d
00000200: 24be 283e e574 ebbd 24fc dabc 4c0b 03be
00000210: dbb3 3fbd ab7f 13be 66df 2e3c 8648 b9bd
00000220: d68d 76bd d627 1b3d 2906 7bbd 6d9b 34be
00000230: 376d c73d b670 08bd 2859 4bbd 6f61 25be
00000240: 8cb3 173e f4c3 163e b854 95bd 8c95 013e
00000250: 484d 24be 613c dbbd ccd9 24be d3ab cd3b
00000260: b97e 1bbe a4a4 d2bd 2308 bdbd df60 29bc
00000270: b9b9 9f3d cf82 b83d cb07 8dbd 7bd2 d93c
00000280: b435 043e 949f edbd c16b 78bd d25c 953d
00000290: d988 333e 4e23 b1bd ba01 53bd ffc2 0ebe
000002a0: 9f12 a0bc 559f 0bbe c98d b0bd fdc4 2fbd
000002b0: 54a1 113e a128 1e3e 64a6 f3bd f813 113e
000002c0: 6725 50bc 337c 00be 6a96 32bd 77d5 d2bd
000002d0: 202c 5e3d 97fb 97bd e150 183e 5a43 c7bd
000002e0: ac87 0abe 719a f93c e315 b43b e714 80bd
000002f0: 44d6 1bbe b80f cf3d 2316 14be d295 33be
00000300: 9957 e6bc f54f 16be 17eb b2bd 6eae 8d3d
00000310: 4e3b 913d cfd6 813d 28b2 b0bd a657 89bd
00000320: 086b 333c d510 a5bd dcf3 a93c f754 993d
00000330: 5e7b a43d 1abb 79bc 17ba 023e 0500 933d
00000340: 1390 89bd f05d a339 f111 7f3d 6089 243e
00000350: 918d 90bd b55f c43d ffe2 923d 5fe1 a3bd
00000360: 441c 06bd c248 81bd 95b2 333d db46 81bd
00000370: 5a34 00be 0bdc 32be 01f3 9fbd f1a9 31be
00000380: ea6f d03c 2226 9bbd 21f6 e2bc 5550 2b3d
00000390: 5445 11be 3a9d 093e 21da f33d 850d 803d
000003a0: a224 243d ba3e 123e 4955 8ebd a72e c6bd
000003b0: 81c2 083e 2535 20be 9944 18be 5a2f 123e
000003c0: 066b b5bd 002c e8bd 883c babd b28d 043d
000003d0: 3d9a 333e bb94 09be 39f8 963d ec49 6a3d
000003e0: 1a4e 643d 172b 2fbe 9c19 293e f903 143e
000003f0: 8fb1 ea3d 66a4 80bd 7399 a0bd 7f42 27be

model.lstm.bias_ih_l1 f4 [128]
3.7066176 -3.1553776 -3.1157393 -3.3105695 3.6864202 3.5026515 -4.149116 3.8604646
-3.8810873 -3.695954 -3.0286784 -3.1252341 -3.4042943 -4.185867 3.9805243 -3.1671507
3.915862 -3.105611 -3.2393873 -4.007261 -3.3152828 3.5471258 -3.8018558 3.6270072
4.3879924 -3.680172 -3.1077194 3.4272754 -3.191677 4.1502094 4.2306867 -3.2052836
-0.053096145 -0.07097052 0.15351723 0.10648749 -0.011765765 0.17088403 0.16430074 -0.04963451
0.04708034 0.057779387 0.16051038 -0.12184995 0.041813172 -0.102097735 0.17383964 0.018116215
0.030090544 -0.09141116 -0.16577566 0.09978955 -0.14755625 -0.03923534 -0.026060242 -0.049795005
0.036860317 -0.091611825 0.027060432 0.13206421 -0.00067684846 -0.07032443 -0.10874741 0.16729404
3.1187403 -2.8299363 -3.0180252 3.1644487 3.4949946 2.8805718 3.0752323 2.8782656
-2.8612816 2.905176 2.8639557 -2.9013526 2.9889965 3.175739 -3.06302 3.0407465
-3.1921864 2.862817 2.9807084 -3.0473597 -2.854913 -3.3948164 2.9960382 2.9030986
2.9226744 3.071768 2.9049675 -3.8060334 -3.0305068 3.2386398 -2.8664331 2.9760387
3.5039992 -3.1762798 -3.0351439 -3.2717457 3.6487572 3.2541678 -4.132385 3.5700495
-4.057133 -3.8161688 -3.161933 -3.037203 -3.2510176 -4.146571 3.74225 -3.3681476
3.7790976 -3.2026513 -3.085288 -4.121981 -3.2947333 3.5847876 -3.8969991 3.6440609
3.788338 -3.5934405 -3.0454068 3.453454 -2.9701416 3.642523 3.9274993 -3.2119105
00000000: 3939 6d40 b5f1 49c0 4668 47c0 5fe0 53c0
00000010: 4fee 6b40 712b 6040 8fc5 84c0 da11 7740
00000020: bc63 78c0 838a 6cc0 ded5 41c0 d603 48c0
00000030: f5df 59c0 9ff2 85c0 e9c0 7e40 99b2 4ac0
00000040: 7c9d 7a40 55c2 46c0 1f52 4fc0 7b3b 80c0
00000050: 982d 54c0 1c04 6340 9b51 73c0 e320 6840
00000060: 6f6a 8c40 f087 6bc0 e0e4 46c0 7b58 5b40
00000070: 7044 4cc0 84ce 8440 c961 8740 5e23 4dc0
00000080: 587b 59bd fe58 91bd 9f33 1d3e 1d16 da3d
00000090: 32c5 40bc 39fc 2e3e 743e 283e 8e4d 4bbd
000000a0: 51d7 403d 14aa 6c3d d55c 243e 778c f9bd
000000b0: 4a44 2b3d 9e18 d1bd 0503 323e 7568 943c
000000c0: 7280 f63c c635 bbbd 18c1 29be 775e cc3d
000000d0: fc18 17be 3cb5 20bd 4a7c d5bc d9f5 4bbd
000000e0: d8fa 163d fb9e bbbd d7ad dd3c d73b 073e
000000f0: 886e 31ba 4106 90bd f6b6 debd 214f 2b3e
00000100: 7199 4740 ad1d 35c0 5327 41c0 5486 4a40
00000110: fead 5f40 4a5b 3840 9bd0 4440 8135 3840
00000120: 3d1f 37c0 67ee 3940 0d4b 3740 c3af 39c0
00000130: b84b 3f40 4f3f 4b40 8508 44c0 979b 4240
00000140: c84c 4cc0 6538 3740 edc3 3e40 f107 43c0
00000150: e5b6 36c0 ac44 59c0 17bf 3f40 5ecc 3940
00000160: 190d 3b40 d997 4440 fdea 3940 0d96 73c0
00000170: d3f3 41c0 e045 4f40 a473 37c0 6b77 3e40
00000180: 8641 6040 2b48 4bc0 cc3f 42c0 4864 51c0
00000190: 3d85 6940 4944 5040 7f3c 84c0 b17b 6440
000001a0: 09d4 81c0 1c3c 74c0 1c5d 4ac0 8961 42c0
000001b0: ac10 50c0 b6b0 84c0 0681 6f40 bb8f 57c0
000001c0: bcdc 7140 3df8 4cc0 5c75 45c0 45e7 83c0
000001d0: e9dc 52c0 296d 6540 6f68 79c0 4b38 6940
000001e0: 2174 7240 eefa 65c0 f2e7 42c0 6405 5d40
000001f0: cd16 3ec0 191f 6940 265c 7b40 f18f 4dc0

model.lstm.bias_hh_l1 f4 [128]
3.969896 -2.9159048 -3.0847244 -3.29927 3.6349194 3.5278893 -4.3176994 3.7436044
-3.8721094 -3.672806 -3.1655986 -2.9895575 -3.275483 -3.9198594 3.744595 -3.419977
3.7164116 -3.111531 -3.2013793 -3.838473 -3.3861709 3.4983974 -3.8774803 3.5237932
4.3931036 -3.7614627 -3.056751 3.3392692 -3.1859207 4.1895576 4.333173 -3.1373672
-0.16532072 0.009749813 -0.05876175 0.097329706 -0.13821723 0.09060978 0.09942718 -0.09705013
-0.1605626 0.15115707 -0.1305853 -0.16605112 -0.09728078 -0.021937933 -0.16445766 -0.12023713
-0.07621063 0.04962958 0.045418043 0.040742684 0.051142592 0.06358686 -0.17039175 0.117377
0.00795507 -0.093032576 0.15634167 -0.09451828 -0.026504386 0.07242396 -0.13324398 0.10665519
2.9035861 -2.9281738 -2.9537773 2.8359196 3.5168886 3.1829426 3.0715568 3.062313
-2.8625479 3.0425227 2.8828976 -2.8707612 3.0039575 2.8498695 -2.8742929 2.9504423
-3.0025818 2.9199889 2.9498374 -2.908649 -3.0665104 -3.527088 2.863489 3.060655
3.0290065 3.118755 3.0538535 -3.8304799 -2.935475 3.1090975 -3.118084 3.0242512
3.5779085 -2.982184 -3.1172402 -3.3540409 3.4743607 3.5580475 -4.197438 3.826575
-3.794161 -3.596837 -3.1246903 -3.0129833 -3.3736982 -4.0134244 3.7917113 -3.2051775
3.4927132 -3.0054724 -3.3299844 -3.9717188 -3.4571033 3.3003345 -3.8412182 3.5768085
3.8998878 -3.7576597 -3.2927248 3.4194446 -3.193903 3.7711453 3.9775019 -3.2290256
00000000: c712 7e40 2f9e 3ac0 206c 45c0 3d27 53c0
00000010: 85a2 6840 f0c8 6140 982a 8ac0 3797 6f40
00000020: a4d0 77c0 410f 6bc0 2b99 4ac0 e954 3fc0
00000030: 83a1 51c0 fade 7ac0 72a7 6f40 e7e0 5ac0
00000040: b0d9 6d40 5323 47c0 66e3 4cc0 8ba9 75c0
00000050: 06b7 58c0 bee5 5f40 a328 78c0 d485 6140
00000060: 4e94 8c40 cebb 70c0 cfa1 43c0 96b6 5540
00000070: 20e6 4bc0 db10 8640 5aa9 8a40 a0ca 48c0
00000080: d649 29be aebd 1f3c 29b0 70bd cc54 c73d
00000090: d188 0dbe 9f91 b93d 7aa0 cb3d 38c2 c6bd
000000a0: 866a 24be ebc8 1a3e 27b8 05be 4e09 2abe
000000b0: 253b c7bd 2eb7 b3bc 9767 28be e23e f6bd
000000c0: 5214 9cbd 6348 4b3d 4508 3a3d cde1 263d
000000d0: e57a 513d d439 823d 2d7b 2ebe 5a63 f03d
000000e0: fb55 023c dd87 bebd 0818 203e cd92 c1bd
000000f0: ba1f d9bc 0353 943d 1c71 08be 096e da3d
00000100: 5bd4 3940 3367 3bc0 b00a 3dc0 b57f 3540
00000110: b414 6140 55b5 4b40 6394 4440 f0fc 4340
00000120: fc33 37c0 b1b8 4240 6581 3840 8dba 37c0
00000130: d740 4040 4364 3640 6af4 37c0 0cd4 3c40
00000140: 4d2a 40c0 19e1 3a40 23ca 3c40 4e27 3ac0
00000150: b541 44c0 cfbb 61c0 6743 3740 c6e1 4340
00000160: 3edb 4140 af99 4740 5672 4340 9526 75c0
00000170: d3de 3bc0 74fb 4640 b08e 47c0 558d 4140
00000180: 74fc 6440 1adc 3ec0 dd80 47c0 9ba8 56c0
00000190: ed5b 5e40 0db7 6340 6951 86c0 9be6 7440
000001a0: 89d3 72c0 9432 66c0 edfa 47c0 b8d4 40c0
000001b0: acea 57c0 f96d 80c0 66ab 7240 a121 4dc0
000001c0: 9d88 5f40 a959 40c0 771e 55c0 a430 7ec0
000001d0: 2e41 5dc0 ae38 5340 85d6 75c0 6eea 6440
000001e0: c397 7940 7f7d 70c0 01bc 52c0 2ed8 5a40
000001f0: e868 4cc0 725a 7140 648f 7e40 5ba8 4ec0

model.linear.weight f4 [1, 32]
21.5226 2.8984559 2.8527472 -2.752287 21.467705 21.44613 -2.709952 21.455301
2.9785244 -2.7378244 -2.8859365 2.8979375 -2.753948 -2.8047314 -21.53017 2.205133
-21.4438 -2.8709962 -2.8786838 2.739501 2.8745847 -21.43327 -2.826426 21.544552
21.5716 -1.4861104 -2.8089137 -21.402096 2.8325207 21.477962 -21.51458 -2.908248
00000000: 492e ac41 4d80 3940 6993 3640 7825 30c0
00000010: dcbd ab41 ad91 ab41 db6f 2dc0 75a4 ab41
00000020: 25a0 3e40 8438 2fc0 2fb3 38c0 cf77 3940
00000030: af40 30c0 b880 33c0 ca3d acc1 e620 0d40
00000040: e78c abc1 67be 37c0 5b3c 38c0 fc53 2f40
00000050: 32f9 3740 5677 abc1 2ae4 34c0 3e5b ac41
00000060: a392 ac41 de38 bebf 3ec5 33c0 7e37 abc1
00000070: 0548 3540 ded2 ab41 dc1d acc1 bc20 3ac0

exp_avg f4 [128, 1]
5.474277e-18 -6.019273e-13 -4.946411e-13 2.4459166e-14 -2.985042e-13 1.4385089e-09 1.9883227e-10 -4.9334303e-15
-8.9548175e-06 9.144602e-16 -4.6634467e-11 -5.4340735e-08 2.0316178e-16 -1.4697863e-12 -6.3082695e-07 -6.1542827e-17
1.2641849e-09 2.8866287e-07 3.1937584e-14 -3.589712e-15 1.729182e-06 6.5192894e-12 0.0 -7.9401963e-10
3.0908698e-08 -1.7932456e-12 1.2193266e-13 -3.4115608e-10 1.024775e-14 3.8881647e-16 -9.401306e-11 -1.6284214e-18
0.0 0.0 0.0 0.0 0.0 0.0 0.0 0.0
0.0 0.0 0.0 0.0 0.0 0.0 0.0 0.0
0.0 0.0 0.0 0.0 0.0 0.0 0.0 0.0
0.0 0.0 0.0 0.0 0.0 0.0 0.0 0.0
5.6054544e-23 0.0 -6.8328454e-14 -4.5394177e-15 8.9241825e-13 0.0 -1.8251145e-06 0.0
0.0 0.0 2.3164445e-14 -4.0321772e-13 -1.32044885e-20 0.0 0.0 0.0
0.0 0.0 -3.782308e-09 7.048589e-22 7.5996013e-07 0.0 0.0 2.6265155e-11
5.4352304e-12 -2.2177315e-14 1.5947366e-13 0.0 0.0 -6.0624915e-11 0.0 6.386679e-20
5.474272e-18 -1.806146e-05 -4.834415e-12 2.4306102e-14 -2.8099525e-13 1.6518954e-09 7.3921525e-05 -1.2387069e-07
-1.3294633e-13 9.140509e-16 -3.5246e-12 -6.0307535e-08 2.0316145e-16 -1.3723903e-09 -0.00023762195 -6.1544236e-17
6.5776312e-12 4.0180123e-10 3.280733e-08 -3.590937e-15 2.8086333e-05 6.583129e-12 1.797475e-09 -5.124298e-13
7.1041615e-15 -1.7735225e-12 1.0572267e-08 -2.116939e-11 1.02476045e-14 2.2590875e-11 -9.534661e-11 -1.6284214e-18
00000000: 16f7 c922 6f6d 29ab a63a 0bab ff4e dc28
00000010: fd0a a8aa 08b5 c530 4f9e 5a2f ddbe b1a7
00000020: a63c 16b7 a0c9 8326 be19 4dae 4564 69b3
00000030: c63a 6a25 a2da ceab 1956 29b5 79e8 8da4
00000040: 8dbf ad30 86f9 9a34 87d5 0f29 4055 81a7
00000050: 3e16 e835 8a60 e52c 0000 0000 2a42 5ab0
00000060: 79c0 0433 7b60 fcab b248 092a 738d bbaf
00000070: 689b 3828 2f23 e025 a6bc ceae 0550 f0a1
00000080: 0000 0000 0000 0000 0000 0000 0000 0000
00000090: 0000 0000 0000 0000 0000 0000 0000 0000
000000a0: 0000 0000 0000 0000 0000 0000 0000 0000
000000b0: 0000 0000 0000 0000 0000 0000 0000 0000
000000c0: 0000 0000 0000 0000 0000 0000 0000 0000
000000d0: 0000 0000 0000 0000 0000 0000 0000 0000
000000e0: 0000 0000 0000 0000 0000 0000 0000 0000
000000f0: 0000 0000 0000 0000 0000 0000 0000 0000
00000100: 1588 871a 0000 0000 acdc 99a9 bd8c a3a7
00000110: 8331 7b2b 0000 0000 75f6 f4b5 0000 0000
00000120: 0000 0000 0000 0000 93a5 d028 ccfd e2aa
00000130: fd6c 799e 0000 0000 0000 0000 0000 0000
00000140: 0000 0000 0000 0000 88f5 81b1 d107 551c
00000150: 1000 4c35 0000 0000 0000 0000 df07 e72d
00000160: 343c bf2c 68c1 c7a8 278d 332a 0000 0000
00000170: 0000 0000 cb50 85ae 0000 0000 1bcd 961f
00000180: 0af7 c922 b182 97b7 8a18 aaac 0eee da28
00000190: af2f 9eaa e708 e330 5106 9b38 5101 05b4
000001a0: 2caf 15aa 87ba 8326 8d05 78ac 6b82 81b3
000001b0: ad3a 6a25 b19e bcb0 282a 79b9 4ee9 8da4
000001c0: 096e e72c 7fe4 dc2f 0ae8 0c33 8c60 81a7
000001d0: f19a eb37 8e9f e72c 070b f730 753c 10ab
000001e0: 53f4 ff27 e299 f9ab 52a1 3532 3a35 baad
000001f0: bc9a 3828 21b6 c62d 5fab d1ae 0550 f0a1

exp_avg_sq f4 [128, 1]
3.8259138e-28 4.6264956e-18 1.6653296e-18 7.639191e-21 1.1377979e-18 2.6423436e-11 5.0482155e-13 3.107866e-22
0.0010239488 1.0675627e-23 2.777015e-14 3.770639e-08 5.27616e-25 1.4655412e-17 5.081414e-06 4.8331e-26
2.0407303e-11 1.0640106e-06 1.3024715e-20 1.0290438e-22 3.8180864e-05 5.4270576e-16 0.0 8.050575e-12
1.2199035e-08 4.1062374e-17 1.8984732e-19 9.76907e-13 1.3409769e-21 1.9304288e-24 1.128602e-13 3.3868098e-29
0.0 0.0 0.0 0.0 0.0 0.0 0.0 0.0
0.0 0.0 0.0 0.0 0.0 0.0 0.0 0.0
0.0 0.0 0.0 0.0 0.0 0.0 0.0 0.0
0.0 0.0 0.0 0.0 0.0 0.0 0.0 0.0
4.011938e-38 0.0 5.961663e-20 2.6312636e-22 1.0169535e-17 0.0 4.2534808e-05 0.0
0.0 0.0 3.6523025e-21 2.076078e-18 2.227881e-33 0.0 0.0 0.0
0.0 0.0 1.8267456e-10 3.509046e-36 7.374725e-06 0.0 0.0 8.808958e-15
3.7722467e-16 6.280326e-21 3.2474457e-19 0.0 0.0 4.6931717e-14 0.0 5.209377e-32
3.825905e-28 0.0041655274 2.9843626e-16 7.54389e-21 1.0082361e-18 3.484411e-11 0.06977606 1.959301e-07
2.2569248e-19 1.0666079e-23 1.5862962e-16 4.644165e-08 5.27614e-25 2.405025e-11 0.721004 4.8333246e-26
5.524635e-16 2.061517e-12 1.3743783e-08 1.02924904e-22 0.0100729065 5.533871e-16 4.125624e-11 3.352995e-18
6.444511e-22 4.0164056e-17 1.4272509e-09 3.7541936e-15 1.3409392e-21 6.5167407e-15 1.1608452e-13 3.386809e-29
00000000: 007f f211 04b0 aa22 60c2 f521 dc4c 101e
00000010: cae8 a721 4a6c e82d 3a18 0e2b e6db bb1b
00000020: 0536 863a 257f 4e19 9b21 fa28 9df2 2133
00000030: 0c4a 2317 1d2c 8723 0481 aa36 d252 6f15
00000040: 2981 b32d 20cf 8e35 a807 761e bace f81a
00000050: 6424 2038 9e6c 1c26 0000 0000 91a0 0d2d
00000060: ec93 5132 e55d 3d24 d521 6020 c97c 892b
00000070: 88a4 ca1c 155c 1518 7a23 fe29 4ebb 2b10
00000080: 0000 0000 0000 0000 0000 0000 0000 0000
00000090: 0000 0000 0000 0000 0000 0000 0000 0000
000000a0: 0000 0000 0000 0000 0000 0000 0000 0000
000000b0: 0000 0000 0000 0000 0000 0000 0000 0000
000000c0: 0000 0000 0000 0000 0000 0000 0000 0000
000000d0: 0000 0000 0000 0000 0000 0000 0000 0000
000000e0: 0000 0000 0000 0000 0000 0000 0000 0000
000000f0: 0000 0000 0000 0000 0000 0000 0000 0000
00000100: 416e 5a01 0000 0000 0bc4 8c1f d50c 9f1b
00000110: 4598 3b23 0000 0000 6767 3238 0000 0000
00000120: 0000 0000 0000 0000 e7fa 891d 0130 1922
00000130: ca15 3909 0000 0000 0000 0000 0000 0000
00000140: 0000 0000 0000 0000 51da 482f 2142 9504
00000150: 6874 f736 0000 0000 0000 0000 26b0 1e28
00000160: 8974 d925 9643 ed1d 03b2 bf20 0000 0000
00000170: 0000 0000 965c 5329 0000 0000 403e 870b
00000180: dc7e f211 fa7e 883b 6b09 ac25 0380 0e1e
00000190: 15ca 9421 fb3e 192e c0e6 8e3d db60 5234
000001a0: af39 8520 dd4f 4e19 33e3 3625 2277 4733
000001b0: e349 2317 598c d32d b893 383f ab55 6f15
000001c0: 9c3c 1f26 fd10 112c cc1d 6c32 6edb f81a
000001d0: d508 253c c380 1f26 6672 352e 4968 7722
000001e0: fdc5 421c 5939 3924 ed28 c430 5342 8727
000001f0: 13a3 ca1c 53ca ea27 16b3 022a 4bbb 2b10

exp_avg f4 [128, 32]
0.0 0.0 0.0 0.0 0.0 0.0 0.0 0.0
0.0 0.0 0.0 0.0 0.0 0.0 0.0 0.0
0.0 0.0 0.0 0.0 0.0 0.0 0.0 0.0
0.0 0.0 0.0 0.0 0.0 0.0 0.0 0.0
0.0 0.0 0.0 0.0 0.0 0.0 0.0 0.0
0.0 0.0 0.0 0.0 0.0 0.0 0.0 0.0
0.0 0.0 0.0 0.0 0.0 0.0 0.0 0.0
0.0 0.0 0.0 0.0 0.0 0.0 0.0 0.0
0.0 0.0 0.0 0.0 0.0 0.0 0.0 0.0
0.0 0.0 0.0 0.0 0.0 0.0 0.0 0.0
0.0 0.0 0.0 0.0 0.0 0.0 0.0 0.0
0.0 0.0 0.0 0.0 0.0 0.0 0.0 0.0
0.0 0.0 0.0 0.0 0.0 0.0 0.0 0.0
0.0 0.0 0.0 0.0 0.0 0.0 0.0 0.0
0.0 0.0 0.0 0.0 0.0 0.0 0.0 0.0
0.0 0.0 0.0 0.0 0.0 0.0 0.0 0.0
0.0 0.0 0.0 0.0 0.0 0.0 0.0 0.0
0.0 0.0 0.0 0.0 0.0 0.0 0.0 0.0
0.0 0.0 0.0 0.0 0.0 0.0 0.0 0.0
0.0 0.0 0.0 0.0 0.0 0.0 0.0 0.0
0.0 0.0 0.0 0.0 0.0 0.0 0.0 0.0
0.0 0.0 0.0 0.0 0.0 0.0 0.0 0.0
0.0 0.0 0.0 0.0 0.0 0.0 0.0 0.0
0.0 0.0 0.0 0.0 0.0 0.0 0.0 0.0
0.0 0.0 0.0 0.0 0.0 0.0 0.0 0.0
0.0 0.0 0.0 0.0 0.0 0.0 0.0 0.0
0.0 0.0 0.0 0.0 0.0 0.0 0.0 0.0
0.0 0.0 0.0 0.0 0.0 0.0 0.0 0.0
0.0 0.0 0.0 0.0 0.0 0.0 0.0 0.0
0.0 0.0 0.0 0.0 0.0 0.0 0.0 0.0
0.0 0.0 0.0 0.0 0.0 0.0 0.0 0.0
0.0 0.0 0.0 0.0 0.0 0.0 0.0 0.0
00000000: 0000 0000 0000 0000 0000 0000 0000 0000
00000010: 0000 0000 0000 0000 0000 0000 0000 0000
00000020: 0000 0000 0000 0000 0000 0000 0000 0000
00000030: 0000 0000 0000 0000 0000 0000 0000 0000
00000040: 0000 0000 0000 0000 0000 0000 0000 0000
00000050: 0000 0000 0000 0000 0000 0000 0000 0000
00000060: 0000 0000 0000 0000 0000 0000 0000 0000
00000070: 0000 0000 0000 0000 0000 0000 0000 0000
00000080: 0000 0000 0000 0000 0000 0000 0000 0000
00000090: 0000 0000 0000 0000 0000 0000 0000 0000
000000a0: 0000 0000 0000 0000 0000 0000 0000 0000
000000b0: 0000 0000 0000 0000 0000 0000 0000 0000
000000c0: 0000 0000 0000 0000 0000 0000 0000 0000
000000d0: 0000 0000 0000 0000 0000 0000 0000 0000
000000e0: 0000 0000 0000 0000 0000 0000 0000 0000
000000f0: 0000 0000 0000 0000 0000 0000 0000 0000
00000100: 0000 0000 0000 0000 0000 0000 0000 0000
00000110: 0000 0000 0000 0000 0000 0000 0000 0000
00000120: 0000 0000 0000 0000 0000 0000 0000 0000
00000130: 0000 0000 0000 0000 0000 0000 0000 0000
00000140: 0000 0000 0000 0000 0000 0000 0000 0000
00000150: 0000 0000 0000 0000 0000 0000 0000 0000
00000160: 0000 0000 0000 0000 0000 0000 0000 0000
00000170: 0000 0000 0000 0000 0000 0000 0000 0000
00000180: 0000 0000 0000 0000 0000 0000 0000 0000
00000190: 0000 0000 0000 0000 0000 0000 0000 0000
000001a0: 0000 0000 0000 0000 0000 0000 0000 0000
000001b0: 0000 0000 0000 0000 0000 0000 0000 0000
000001c0: 0000 0000 0000 0000 0000 0000 0000 0000
000001d0: 0000 0000 0000 0000 0000 0000 0000 0000
000001e0: 0000 0000 0000 0000 0000 0000 0000 0000
000001f0: 0000 0000 0000 0000 0000 0000 0000 0000
00000200: 0000 0000 0000 0000 0000 0000 0000 0000
00000210: 0000 0000 0000 0000 0000 0000 0000 0000
00000220: 0000 0000 0000 0000 0000 0000 0000 0000
00000230: 0000 0000 0000 0000 0000 0000 0000 0000
00000240: 0000 0000 0000 0000 0000 0000 0000 0000
00000250: 0000 0000 0000 0000 0000 0000 0000 0000
00000260: 0000 0000 0000 0000 0000 0000 0000 0000
00000270: 0000 0000 0000 0000 0000 0000 0000 0000
00000280: 0000 0000 0000 0000 0000 0000 0000 0000
00000290: 0000 0000 0000 0000 0000 0000 0000 0000
000002a0: 0000 0000 0000 0000 0000 0000 0000 0000
000002b0: 0000 0000 0000 0000 0000 0000 0000 0000
000002c0: 0000 0000 0000 0000 0000 0000 0000 0000
000002d0: 0000 0000 0000 0000 0000 0000 0000 0000
000002e0: 0000 0000 0000 0000 0000 0000 0000 0000
000002f0: 0000 0000 0000 0000 0000 0000 0000 0000
00000300: 0000 0000 0000 0000 0000 0000 0000 0000
00000310: 0000 0000 0000 0000 0000 0000 0000 0000
00000320: 0000 0000 0000 0000 0000 0000 0000 0000
00000330: 0000 0000 0000 0000 0000 0000 0000 0000
00000340: 0000 0000 0000 0000 0000 0000 0000 0000
00000350: 0000 0000 0000 0000 0000 0000 0000 0000
00000360: 0000 0000 0000 0000 0000 0000 0000 0000
00000370: 0000 0000 0000 0000 0000 0000 0000 0000
00000380: 0000 0000 0000 0000 0000 0000 0000 0000
00000390: 0000 0000 0000 0000 0000 0000 0000 0000
000003a0: 0000 0000 0000 0000 0000 0000 0000 0000
000003b0: 0000 0000 0000 0000 0000 0000 0000 0000
000003c0: 0000 0000 0000 0000 0000 0000 0000 0000
000003d0: 0000 0000 0000 0000 0000 0000 0000 0000
000003e0: 0000 0000 0000 0000 0000 0000 0000 0000
000003f0: 0000 0000 0000 0000 0000 0000 0000 0000

exp_avg_sq f4 [128, 32]
0.0 0.0 0.0 0.0 0.0 0.0 0.0 0.0
0.0 0.0 0.0 0.0 0.0 0.0 0.0 0.0
0.0 0.0 0.0 0.0 0.0 0.0 0.0 0.0
0.0 0.0 0.0 0.0 0.0 0.0 0.0 0.0
0.0 0.0 0.0 0.0 0.0 0.0 0.0 0.0
0.0 0.0 0.0 0.0 0.0 0.0 0.0 0.0
0.0 0.0 0.0 0.0 0.0 0.0 0.0 0.0
0.0 0.0 0.0 0.0 0.0 0.0 0.0 0.0
0.0 0.0 0.0 0.0 0.0 0.0 0.0 0.0
0.0 0.0 0.0 0.0 0.0 0.0 0.0 0.0
0.0 0.0 0.0 0.0 0.0 0.0 0.0 0.0
0.0 0.0 0.0 0.0 0.0 0.0 0.0 0.0
0.0 0.0 0.0 0.0 0.0 0.0 0.0 0.0
0.0 0.0 0.0 0.0 0.0 0.0 0.0 0.0
0.0 0.0 0.0 0.0 0.0 0.0 0.0 0.0
0.0 0.0 0.0 0.0 0.0 0.0 0.0 0.0
0.0 0.0 0.0 0.0 0.0 0.0 0.0 0.0
0.0 0.0 0.0 0.0 0.0 0.0 0.0 0.0
0.0 0.0 0.0 0.0 0.0 0.0 0.0 0.0
0.0 0.0 0.0 0.0 0.0 0.0 0.0 0.0
0.0 0.0 0.0 0.0 0.0 0.0 0.0 0.0
0.0 0.0 0.0 0.0 0.0 0.0 0.0 0.0
0.0 0.0 0.0 0.0 0.0 0.0 0.0 0.0
0.0 0.0 0.0 0.0 0.0 0.0 0.0 0.0
0.0 0.0 0.0 0.0 0.0 0.0 0.0 0.0
0.0 0.0 0.0 0.0 0.0 0.0 0.0 0.0
0.0 0.0 0.0 0.0 0.0 0.0 0.0 0.0
0.0 0.0 0.0 0.0 0.0 0.0 0.0 0.0
0.0 0.0 0.0 0.0 0.0 0.0 0.0 0.0
0.0 0.0 0.0 0.0 0.0 0.0 0.0 0.0
0.0 0.0 0.0 0.0 0.0 0.0 0.0 0.0
0.0 0.0 0.0 0.0 0.0 0.0 0.0 0.0
00000000: 0000 0000 0000 0000 0000 0000 0000 0000
00000010: 0000 0000 0000 0000 0000 0000 0000 0000
00000020: 0000 0000 0000 0000 0000 0000 0000 0000
00000030: 0000 0000 0000 0000 0000 0000 0000 0000
00000040: 0000 0000 0000 0000 0000 0000 0000 0000
00000050: 0000 0000 0000 0000 0000 0000 0000 0000
00000060: 0000 0000 0000 0000 0000 0000 0000 0000
00000070: 0000 0000 0000 0000 0000 0000 0000 0000
00000080: 0000 0000 0000 0000 0000 0000 0000 0000
00000090: 0000 0000 0000 0000 0000 0000 0000 0000
000000a0: 0000 0000 0000 0000 0000 0000 0000 0000
000000b0: 0000 0000 0000 0000 0000 0000 0000 0000
000000c0: 0000 0000 0000 0000 0000 0000 0000 0000
000000d0: 0000 0000 0000 0000 0000 0000 0000 0000
000000e0: 0000 0000 0000 0000 0000 0000 0000 0000
000000f0: 0000 0000 0000 0000 0000 0000 0000 0000
00000100: 0000 0000 0000 0000 0000 0000 0000 0000
00000110: 0000 0000 0000 0000 0000 0000 0000 0000
00000120: 0000 0000 0000 0000 0000 0000 0000 0000
00000130: 0000 0000 0000 0000 0000 0000 0000 0000
00000140: 0000 0000 0000 0000 0000 0000 0000 0000
00000150: 0000 0000 0000 0000 0000 0000 0000 0000
00000160: 0000 0000 0000 0000 0000 0000 0000 0000
00000170: 0000 0000 0000 0000 0000 0000 0000 0000
00000180: 0000 0000 0000 0000 0000 0000 0000 0000
00000190: 0000 0000 0000 0000 0000 0000 0000 0000
000001a0: 0000 0000 0000 0000 0000 0000 0000 0000
000001b0: 0000 0000 0000 0000 0000 0000 0000 0000
000001c0: 0000 0000 0000 0000 0000 0000 0000 0000
000001d0: 0000 0000 0000 0000 0000 0000 0000 0000
000001e0: 0000 0000 0000 0000 0000 0000 0000 0000
000001f0: 0000 0000 0000 0000 0000 0000 0000 0000
00000200: 0000 0000 0000 0000 0000 0000 0000 0000
00000210: 0000 0000 0000 0000 0000 0000 0000 0000
00000220: 0000 0000 0000 0000 0000 0000 0000 0000
00000230: 0000 0000 0000 0000 0000 0000 0000 0000
00000240: 0000 0000 0000 0000 0000 0000 0000 0000
00000250: 0000 0000 0000 0000 0000 0000 0000 0000
00000260: 0000 0000 0000 0000 0000 0000 0000 0000
00000270: 0000 0000 0000 0000 0000 0000 0000 0000
00000280: 0000 0000 0000 0000 0000 0000 0000 0000
00000290: 0000 0000 0000 0000 0000 0000 0000 0000
000002a0: 0000 0000 0000 0000 0000 0000 0000 0000
000002b0: 0000 0000 0000 0000 0000 0000 0000 0000
000002c0: 0000 0000 0000 0000 0000 0000 0000 0000
000002d0: 0000 0000 0000 0000 0000 0000 0000 0000
000002e0: 0000 0000 0000 0000 0000 0000 0000 0000
000002f0: 0000 0000 0000 0000 0000 0000 0000 0000
00000300: 0000 0000 0000 0000 0000 0000 0000 0000
00000310: 0000 0000 0000 0000 0000 0000 0000 0000
00000320: 0000 0000 0000 0000 0000 0000 0000 0000
00000330: 0000 0000 0000 0000 0000 0000 0000 0000
00000340: 0000 0000 0000 0000 0000 0000 0000 0000
00000350: 0000 0000 0000 0000 0000 0000 0000 0000
00000360: 0000 0000 0000 0000 0000 0000 0000 0000
00000370: 0000 0000 0000 0000 0000 0000 0000 0000
00000380: 0000 0000 0000 0000 0000 0000 0000 0000
00000390: 0000 0000 0000 0000 0000 0000 0000 0000
000003a0: 0000 0000 0000 0000 0000 0000 0000 0000
000003b0: 0000 0000 0000 0000 0000 0000 0000 0000
000003c0: 0000 0000 0000 0000 0000 0000 0000 0000
000003d0: 0000 0000 0000 0000 0000 0000 0000 0000
000003e0: 0000 0000 0000 0000 0000 0000 0000 0000
000003f0: 0000 0000 0000 0000 0000 0000 0000 0000
