dl_computer_vision/assignments/1/checkpoints/best_checkpoint-v14.ckpt (torch, 75964 bytes, 27 tensors)

model.lstm.weight_ih_l0 f4 [80, 1]
0	0xbdfa93a4	-0.122351915
1	0xbdde3558	-0.10850018
2	0xc1c39403	-24.447271
3	0x3e5a2646	0.21303663
4	0x41c18ed2	24.194736
5	0xc1c25662	-24.29218
6	0x41c3cd7c	24.475334
7	0x41c2811e	24.313046
8	0xbe5390a8	-0.2066065
9	0x3d38df16	0.045134626
10	0x41bf27f6	23.894512
11	0x3dd04e98	0.101712406
12	0xc1c332c9	-24.399797
13	0xc1c271e1	-24.305605
14	0x3ea95a23	0.3307658
15	0xbdec9fba	-0.11553903
16	0x3e0fe49b	0.1405205
17	0x3e42e18c	0.19031352
18	0xc1c296ae	-24.323574
19	0x41c3f082	24.492435
20	0xbe0de5c7	-0.13857184
21	0x3e13ee4e	0.14446375
22	0x3dd8a6b0	0.10578668
23	0x3e576c35	0.21037371
24	0xbdf36543	-0.118845485
25	0xbe56f4a4	-0.2099176
26	0x3db6e47b	0.08930298
27	0xbe4ec60c	-0.20192736
28	0xbb99427f	-0.0046771164
29	0x3d959336	0.07303469
30	0xbde12a1a	-0.10994358
31	0xbe53a137	-0.20666967
32	0x3e4749d0	0.19461751
33	0x3e223f84	0.15844542
34	0xbb995226	-0.0046789823
35	0xbe25938e	-0.16169569
36	0x3e4fa768	0.20278704
37	0xbe093de5	-0.13402517
38	0xbde3a4ef	-0.11115443
39	0x3d8c78d6	0.06858985
40	0xbddee30f	-0.10883152
41	0x3e13f0d9	0.14447345
42	0xbe0beec8	-0.13665307
43	0x3e114bc4	0.14189059
44	0x3e3e1844	0.18563944
45	0x41c2eb9d	24.365046
46	0xbe20d9de	-0.1570811
47	0xc19284ff	-18.31494
48	0x3d90aa5f	0.07063746
49	0x3e0fa036	0.1402596
50	0x41c3bb1d	24.466364
51	0xbe546d87	-0.20744906
52	0xbdadf7eb	-0.08494552
53	0xc1be3051	-23.773592
54	0x3e1398f5	0.14413817
55	0x3e06880f	0.1313784
56	0x3e419b33	0.1890686
57	0xbe1d3cf1	-0.15355279
58	0x41c324bd	24.392939
59	0x3e4b531b	0.19855921
60	0xbe2e4ee6	-0.17022285
61	0xbd4bc10a	-0.049744643
62	0xc1c2ec1e	-24.365292
63	0xc1c1d549	-24.229143
64	0x3e537e60	0.20653677
65	0x3e3c405a	0.18383923
66	0x41c3756c	24.432335
67	0x3e46ef29	0.1942717
68	0xbe6053f6	-0.21907029
69	0x3ef73284	0.48280728
70	0x41c35158	24.414719
71	0xc09559b5	-4.6672006
72	0x3e3a7eca	0.18212429
73	0x3e58794c	0.21140021
74	0x3ef5cd4e	0.48008198
75	0xbe5ec4bd	-0.21754737
76	0xc198a24f	-19.079252
77	0xbfe3683a	-1.7766182
78	0xc1c2950b	-24.322775
79	0x3e456592	0.19277027

model.lstm.weight_hh_l0 f4 [80, 20]
0	0x3ca384d0	0.01996079
1	0x3de3c62e	0.11121784
2	0xbcea5151	-0.028603228
3	0xbda22ade	-0.079183325
4	0xbe5e031c	-0.21680874
5	0xbe521547	-0.20515929
6	0xbe53a403	-0.20668034
7	0x3e2f1333	0.17097168
8	0x3de8ea1f	0.1137278
9	0x3aefed35	0.0018304946
10	0xbd076b45	-0.033061285
11	0x3e23f639	0.16011895
12	0x3de092ad	0.10965476
13	0xbe165426	-0.14680538
14	0xbd505d5f	-0.050870296
15	0xbd3ad0e9	-0.04560939
16	0x3e35f762	0.1777015
17	0xbe41c70c	-0.18923587
18	0xbe36f44f	-0.17866634
19	0x3d6b7b38	0.057490557
20	0xbc3e9e0c	-0.011634361
21	0xbe374939	-0.17899026
22	0x3e19e8ec	0.15030259
23	0x3c42e562	0.011895509
24	0x3d984d21	0.07436586
25	0xbe0def40	-0.13860798
26	0xbe44d671	-0.19222428
27	0x3e2eeaf0	0.17081809
28	0xbe2e2fc9	-0.17010416
29	0xbe3541e4	-0.17700917
30	0x3e1639f0	0.14670539
31	0xbe4145a1	-0.18874218
32	0x3e0d5cb3	0.13804893
33	0x3e0cf82e	0.13766548
34	0x3d38c665	0.04511108
35	0x3dbb658a	0.091502264
36	0x3e0bd9e7	0.13657342
37	0x3d6fd2a8	0.058550507
38	0xbda7192f	-0.081591
39	0x3c809ba4	0.015699215
40	0xbdcab768	-0.09898263
41	0x3e5dd014	0.21661407
42	0xbdac586a	-0.08415301
43	0x3d61fc9d	0.05517255
44	0xbe2cd84a	-0.16879383
45	0xbe509bed	-0.20371981
46	0x3e18c62d	0.14919348
47	0x3e23518d	0.15949078
48	0x3d3bb9a8	0.045831352
49	0xbd1d9c08	-0.03847888
50	0x3cce2419	0.025163697
51	0x3e07a7d7	0.1324762
52	0x3e3092f0	0.17243552
53	0xbdfe5c9e	-0.12420009
54	0xbe4e2b46	-0.20133695
55	0xbe1a3877	-0.15060602
56	0x3ddf5bb6	0.10906164
57	0xbdbedf33	-0.093199156
58	0x3db76a70	0.08955848
59	0x3d6f1098	0.058365434
60	0x3bd5e915	0.0065280297
61	0xbb0bd61b	-0.0021337334
62	0xbe15b4dd	-0.14619775
63	0xbdf22545	-0.11823515
64	0xbe036d11	-0.12834574
65	0x3d463eeb	0.048399847
66	0xbe2e89b8	-0.17044723
67	0xbd71b2af	-0.059008297
68	0xbe079651	-0.13240935
69	0xbe456677	-0.19277368
70	0x3e637906	0.22214136
71	0x3c3e3be2	0.011610957
72	0x3df40915	0.11915795
73	0x3a94054d	0.0011293084
74	0xbe30b964	-0.17258221
75	0x3e5e0a4d	0.21683617
76	0x3df8e59c	0.121531695
77	0xbde47715	-0.111555256
78	0x3e4e209c	0.20129627
79	0xbe1c17ce	-0.15243456
80	0x3dee7570	0.11643493
81	0x3c95dd00	0.018293858
82	0x3e4e83b1	0.20167424
83	0x3e62aed9	0.22137012
84	0xbe19d201	-0.15021516
85	0xbccde7d6	-0.025134962
86	0xbdaa3555	-0.083109535
87	0x3cca21e9	0.024674373
88	0xbdd7445f	-0.105110876
89	0xbdbb96df	-0.09159636
90	0xbe5b6e03	-0.21428685
91	0x3e04687e	0.12930486
92	0xbe35db4e	-0.1775944
93	0xbde981e9	-0.114017315
94	0xbc73a537	-0.014870933
95	0x3e4c167f	0.19930457
96	0x3e3d5cc2	0.18492416
97	0x3cc13b22	0.023587767
98	0x3e1b6e64	0.1517883
99	0xbcc6e3b7	-0.024278505
100	0x3e187d21	0.14891483
101	0x3e461998	0.193457
102	0xbdd4fa2f	-0.10399281
103	0x3d81321a	0.06308384
104	0xbca9e377	-0.020738347
105	0x3dbbbadc	0.091665
106	0xbdc42c33	-0.09578743
107	0x3e630420	0.22169542
108	0x3dbeed02	0.093225494
109	0xbe43911d	-0.19098325
110	0x3e24a5c5	0.16078861
111	0xbe1915aa	-0.1494967
112	0xbe0aa05e	-0.13537738
113	0xbd3fe11a	-0.046845533
114	0xbd9dd957	-0.0770747
115	0x3bb25f6a	0.005443503
116	0xbd8c91a8	-0.06863719
117	0xbe1bda66	-0.15220031
118	0xbda9314b	-0.08261355
119	0xbdd6f5b4	-0.10496083
120	0xbe12ae0a	-0.14324203
121	0x3dabeb08	0.08394438
122	0x3c7bab44	0.015360657
123	0x3d9a69be	0.075397
124	0x3e03c63b	0.12868588
125	0x3e3eeba5	0.18644579
126	0x3e42ccc1	0.1902342
127	0x3c42a1f7	0.011879436
128	0xbe0018bc	-0.12509435
129	0x3e5633ae	0.20918152
130	0x3e26a3cc	0.16273421
131	0x3d5bbb88	0.05364564
132	0xbdb289b8	-0.08717674
133	0xbcf917af	-0.030406801
134	0x3e20701e	0.1566777
135	0xbd62e930	-0.055398166
136	0x3e561f49	0.20910372
137	0xbe13c0f6	-0.14429078
138	0xbe04291b	-0.12906305
139	0x3d1f7c7a	0.03893707
140	0x3e24cc60	0.16093588
141	0xbe333fb8	-0.17504776
142	0xbe0a3d28	-0.13499892
143	0x3e4e6331	0.20155026
144	0xbe0f377c	-0.1398601
145	0xbe223e69	-0.1584412
146	0x3da59283	0.080845855
147	0xbe482357	-0.19544731
148	0xbd984ed9	-0.07436914
149	0x3e514170	0.20435119
150	0xbe327e54	-0.17431003
151	0x3df0ba25	0.11754254
152	0xbe2d5353	-0.16926317
153	0x3b70cb07	0.0036742107
154	0xbe4bd56d	-0.19905634
155	0x3d0cc57a	0.034368016
156	0x3cd60ed0	0.02613011
157	0xbd11189c	-0.03542386
158	0x3c611c0e	0.013739599
159	0x3d667183	0.056260597
160	0x3c14f338	0.009091191
161	0x3e0638d5	0.13107617
162	0x3d971dab	0.073787056
163	0xbe43b614	-0.19112426
164	0xbcc13c32	-0.023588274
165	0x3a80c338	0.0009823805
166	0x3e5e4592	0.21706226
167	0x3d9b81e4	0.07593134
168	0xbe16f511	-0.14741923
169	0x3e0b3975	0.13596137
170	0xbe497226	-0.1967245
171	0x3d24fe51	0.040281598
172	0xbaa74e8a	-0.0012764495
173	0xbd6854fa	-0.056721665
174	0x3da7f9e1	0.082019575
175	0x3e3bd629	0.18343414
176	0xbe134529	-0.14381851
177	0x3d0edf1d	0.034880746
178	0x3e2f1d67	0.1710106
179	0x3d46b3a4	0.048511162
180	0x3e3743fd	0.17897029
181	0xbe47ec7c	-0.19523805
182	0x3e36311f	0.17792176
183	0xbcf7f673	-0.030268883
184	0x3c8d22f2	0.017228577
185	0xbe19e3d4	-0.15028316
186	0x3e21133b	0.15729992
187	0x3e129a5e	0.14316699
188	0x3d9d913e	0.076937184
189	0x3e0d1a20	0.13779497
190	0xbdaf3013	-0.08554091
191	0x3e069911	0.13144328
192	0x3cdb39f4	0.026761033
193	0x3dc71b48	0.09722
194	0x3d247123	0.040146958
195	0xbe262d11	-0.16228129
196	0x3e5ffbe5	0.21873434
197	0xbe0fbf2a	-0.14037767
198	0x3d837660	0.064190626
199	0xbd7081b6	-0.058717452
200	0xbd455ae5	-0.048182387
201	0xbe50cb1a	-0.20389977
202	0xbd293821	-0.041313294
203	0xbdc3ef48	-0.09567124
204	0xbc41fbf0	-0.011839852
205	0x3c9a5698	0.01884012
206	0xbe116745	-0.1419955
207	0x3e0e8ce1	0.13920929
208	0x3e1ccab5	0.15311702
209	0xbe0eca6c	-0.13944405
210	0xbd31645c	-0.0433086
211	0xbe30b4c2	-0.17256454
212	0x3ce78013	0.028259313
213	0x3d34dfd3	0.044158768
214	0xbdf5131f	-0.11966538
215	0x3e633b73	0.22190647
216	0x3da6dc5c	0.08147499
217	0x3d3e5af7	0.04647347
218	0x3e3d569a	0.18490067
219	0x3e09d2d3	0.1345933
220	0xbe036e58	-0.12835062
221	0xbe0186ba	-0.1264905
222	0x3cfcc7f9	0.030857073
223	0xbdb26c2d	-0.08712039
224	0x3de55ca1	0.11199308
225	0x3c298782	0.010347249
226	0xbe228e34	-0.15874559
227	0xbb09154c	-0.0020917235
228	0xbe0c95fa	-0.13729087
229	0xbcc903eb	-0.024538001
230	0x3e4d6091	0.20056368
231	0x3e444224	0.19165856
232	0xbd5a5b93	-0.05330999
233	0xbdf75504	-0.12076762
234	0x3e55830f	0.20850776
235	0xbdbc82eb	-0.09204658
236	0xbe10a0e2	-0.14123872
237	0x3e323dbf	0.17406367
238	0x3dbd9d58	0.092585266
239	0x3ce02b91	0.027364524
240	0xbe0c7722	-0.1371732
241	0xbe5a82a8	-0.21338904
242	0xbe13ebf2	-0.14445475
243	0xbe3d5f3b	-0.18493359
244	0xbc9b48a6	-0.01895554
245	0x3c8e7db4	0.017393924
246	0xbc4c1b8b	-0.012457739
247	0xbe496948	-0.19669068
248	0x3e28f533	0.16499786
249	0xbe542704	-0.20718008
250	0xbe16b618	-0.14717901
251	0x3c9254bc	0.01786267
252	0xbde8917a	-0.113558725
253	0xbe357503	-0.17720418
254	0xbe0d2b87	-0.13786136
255	0x3e177126	0.14789256

model.lstm.bias_ih_l0 f4 [80]
0	0x3d485adc	0.048914775
1	0x3cc4f3b9	0.024041997
2	0xc1c26ccb	-24.303122
3	0xbd364323	-0.04449762
4	0x4198c00d	19.093775
5	0xc1c1daed	-24.231897
6	0x419d16fc	19.636223
7	0x41c307e0	24.378845
8	0xbdc4ec5d	-0.09615395
9	0xbcd6b79c	-0.026210599
10	0x40de15e1	6.940171
11	0xbdd5f291	-0.104466565
12	0xc1c3b8a9	-24.465166
13	0xc1c16c20	-24.177795
14	0x3e3afd09	0.18260588
15	0x3e55ae3b	0.20867245
16	0x3e45b6c0	0.19307995
17	0xbdadedc2	-0.08492614
18	0xc1c20610	-24.25296
19	0x41ae8781	21.816164
20	0x3e498468	0.19679415
21	0xbddb9226	-0.10721235
22	0xbe187d9a	-0.14891663
23	0xbd4e1f99	-0.050323103
24	0xbe0bf54b	-0.1366779
25	0xbe05887a	-0.13040343
26	0x3e5b3a22	0.21408895
27	0x3e43d07c	0.19122499
28	0xbd211d81	-0.039334778
29	0xbc2be6d3	-0.0104920445
30	0xbe05cfe4	-0.13067585
31	0x3db5a748	0.08869797
32	0x3e63e70b	0.22256105
33	0x3da370b7	0.07980483
34	0x3e51ff0b	0.20507447
35	0x3e62c9e7	0.22147332
36	0xbcb4d03a	-0.022071946
37	0xbb5c22ba	-0.0033590035
38	0x3dab19ae	0.083545074
39	0x3e2b8166	0.1674858
40	0xbe0a4b83	-0.13505368
41	0x3e2bdd8b	0.1678373
42	0xbe27977c	-0.1636638
43	0x3e1844e0	0.14870024
44	0x3dfcabd4	0.12337461
45	0x41c41dc2	24.51453
46	0xbe0262a9	-0.12732948
47	0xbf534c7f	-0.825386
48	0xbe46f3ae	-0.19428894
49	0xbdbd90a1	-0.092561014
50	0x41bfa11e	23.95367
51	0x3dd4f87b	0.103989564
52	0xbd7a1878	-0.06105849
53	0xc0fc8f27	-7.8924747
54	0x3e255732	0.16146544
55	0xbd036878	-0.03208205
56	0xbd5fc45f	-0.054630633
57	0x3e2ded2c	0.16985005
58	0x41c1d0ab	24.226889
59	0xbd0575dc	-0.032583103
60	0xbddd0825	-0.10792569
61	0xbe5dca1b	-0.21659128
62	0xc1c45065	-24.539255
63	0xc12a9d67	-10.663428
64	0xbbdd2b41	-0.006749541
65	0x3db3a629	0.08771927
66	0x41c3549f	24.416319
67	0xbe605fc9	-0.21911539
68	0x3e127c3e	0.14305207
69	0xbe4cbebf	-0.19994639
70	0x41c36cdd	24.428156
71	0xbe7fc569	-0.2497765
72	0x3e237a0f	0.1596453
73	0xbd3598aa	-0.044335045
74	0xbe02c4c3	-0.12770371
75	0xbd9d800e	-0.0769044
76	0xbf206d44	-0.62666726
77	0xbd97c1ce	-0.07410012
78	0xc1c2b0cb	-24.336325
79	0x3e110b7f	0.14164542

model.lstm.bias_hh_l0 f4 [80]
0	0xbd8ebce9	-0.069696255
1	0xbc0587f3	-0.008150089
2	0xc1c2773b	-24.308218
3	0x3d28d91f	0.041222688
4	0x41991961	19.137392
5	0xc1c2d7e0	-24.355408
6	0x419d85f6	19.69041
7	0x41c2dc51	24.357576
8	0xbe17c4cc	-0.14821166
9	0x3d39177f	0.045188423
10	0x40d97a66	6.796191
11	0x3cbdeea2	0.023185078
12	0xc1c2d501	-24.354006
13	0xc1c3811c	-24.438042
14	0x3e26f909	0.16305937
15	0xbe11ae0e	-0.14226553
16	0x3e0877e2	0.13326982
17	0x3e1d753a	0.1537675
18	0xc1c35a85	-24.419199
19	0x41ae62b3	21.798193
20	0x3d042f2c	0.03227155
21	0x3e4979a0	0.19675303
22	0xbe4d0213	-0.20020323
23	0xbe35679a	-0.17715302
24	0xbdea2666	-0.11433105
25	0x3e0c7ac7	0.13718711
26	0x3e58117e	0.21100423
27	0xbdc606ce	-0.09669267
28	0xbc92653a	-0.017870534
29	0xbdb19216	-0.08670442
30	0xbc201c3e	-0.009772358
31	0x3e51721f	0.2045369
32	0xbd83ee70	-0.06441963
33	0x3dbb684b	0.09150752
34	0xbe26a2dc	-0.16273063
35	0x3e21e14d	0.15808602
36	0xbd6f077b	-0.058356743
37	0xbe4ff403	-0.20307927
38	0xbe4bda48	-0.19907486
39	0x3d090d72	0.033460088
40	0xbc3ea872	-0.01163684
41	0xbe568701	-0.20949937
42	0x3e6110b9	0.21979035
43	0xbe0e8b6c	-0.13920373
44	0xbbe18bf8	-0.0068831407
45	0x41c1968a	24.198505
46	0x3e4eaa16	0.2018207
47	0xbf27bf2f	-0.655261
48	0xbc6afc9a	-0.0143424515
49	0x3d6f8737	0.05847856
50	0x41bea577	23.830793
51	0x3dd7d0e5	0.1053789
52	0xbe644326	-0.2229124
53	0xc0fb9a78	-7.862606
54	0xbd5f0b5d	-0.054454196
55	0xbd70e5c7	-0.058812883
56	0x3ceddc0b	0.029035589
57	0xbdd9e77f	-0.106398575
58	0x41c33ad2	24.40372
59	0x3e4685b9	0.19386949
60	0xbe069594	-0.13142997
61	0xbe57a3f8	-0.21058643
62	0xc1c46b3c	-24.55236
63	0xc1288688	-10.532845
64	0x3cf6baf0	0.030118436
65	0xbe5e3ca2	-0.21702817
66	0x41c47f30	24.562103
67	0x3e5d0fa3	0.21587996
68	0x3c2ddf0f	0.010612263
69	0xbe589e65	-0.21154173
70	0x41c44c46	24.537243
71	0xbe83b7ab	-0.25726065
72	0x3e43cb2f	0.19120477
73	0xbd5cb928	-0.053887516
74	0x3d85b964	0.06529501
75	0xbdca9bb6	-0.09892981
76	0xbf3e90dc	-0.7443979
77	0xbd45c079	-0.04827926
78	0xc1c39bc7	-24.451063
79	0x3d94bba4	0.07262352

model.lstm.weight_ih_l1 f4 [80, 20]
0	0x3e0f518f	0.13995956
1	0x3c9b9916	0.018993896
2	0xc1c45548	-24.541641
3	0x40f99d9f	7.800491
4	0x403290f9	2.7900984
5	0xc1c24ee5	-24.288523
6	0xc1c31991	-24.387484
7	0xc1c1941b	-24.197317
8	0x3e430029	0.1904303
9	0xbc003268	-0.007824518
10	0x41c45ca7	24.54524
11	0x3e334b24	0.17509133
12	0xc1c43bfd	-24.529291
13	0x41c24663	24.284369
14	0x3e4870a7	0.19574223
15	0x3d2276ba	0.039664008
16	0x3e7e47e1	0.24832107
17	0xbe457aa7	-0.1928507
18	0xc1c2a11c	-24.328667
19	0x41c3b9d5	24.465738
20	0xbe1f9097	-0.155825
21	0x3d4f9fd2	0.050689526
22	0x41c3cda8	24.475418
23	0xc17748a3	-15.455234
24	0xc108401c	-8.515652
25	0x41c216df	24.261168
26	0x41c39ef0	24.452606
27	0x41c46c1e	24.552792
28	0x3d2835a3	0.041066777
29	0xbe1513d0	-0.14558339
30	0xc1c2b6d1	-24.339266
31	0xbe4424e2	-0.19154695
32	0x41c2109f	24.258116
33	0xc1c38446	-24.439587
34	0x3e1e3c81	0.15452768
35	0xbe27b0ba	-0.1637601
36	0xbe856025	-0.26049915
37	0xbcfeb904	-0.031094082
38	0x41c39562	24.44794
39	0xc1c2addc	-24.334892
40	0xbc915c36	-0.017744165
41	0xbe0ee492	-0.1395438
42	0xc1c278a1	-24.3089
43	0x41584a62	13.51816
44	0x40cffaba	6.4993563
45	0xc1c24bf6	-24.28709
46	0xc1c47a1c	-24.559624
47	0xc1c29ad5	-24.325602
48	0xbdc1e569	-0.09467585
49	0xbe2c9593	-0.16853933
50	0x41c315e3	24.385687
51	0xbd87298c	-0.06599721
52	0xc1c25469	-24.291216
53	0x41c21438	24.259872
54	0xbe4b9f1c	-0.19884914
55	0xbe1d919f	-0.15387581
56	0xbdf2a097	-0.11847036
57	0xbe65e095	-0.22448952
58	0xc1c44bfa	-24.537098
59	0x41c30e5d	24.382013
60	0x3e3fa06b	0.18713538
61	0xbd9630e4	-0.07333544
62	0x41c338a0	24.402649
63	0xc139376b	-11.57603
64	0xc0a4db8b	-5.1517997
65	0x41c35fa0	24.421692
66	0x41c29d9b	24.326956
67	0x41c2c8a8	24.347977
68	0xbe09e8c4	-0.134677
69	0x3d84fdf5	0.06493751
70	0xc1c3fd14	-24.498573
71	0x3dd2ab15	0.102865376
72	0x41c35cf3	24.420385
73	0xc1c1abee	-24.20895
74	0xbd8f2e90	-0.06991303
75	0xbe06e194	-0.13171989
76	0xbc6d95cb	-0.014501045
77	0x3ac5cb1d	0.001509044
78	0x41c2edd8	24.366135
79	0xc1c1c7da	-24.222584
80	0xbe041da1	-0.12901928
81	0x3de27975	0.11058322
82	0x41c2d9e7	24.356398
83	0xc065d907	-3.5913713
84	0xbf890dd6	-1.0707347
85	0x41c33854	24.402504
86	0x41c348bb	24.410513
87	0x41bd4f6a	23.663776
88	0x3e5f422d	0.21802588
89	0xbe57dfaa	-0.21081415
90	0xc1c31139	-24.38341
91	0x3e274037	0.1633309
92	0x41c29d52	24.326817
93	0xc1c365e0	-24.424744
94	0xbe53f04e	-0.20697138
95	0x3d8a9d0f	0.06768238
96	0xbc97c4af	-0.018526403
97	0xbc1b6ddd	-0.009486643
98	0x41c1a652	24.206211
99	0xc1c30de5	-24.381784
100	0xbd94b7b5	-0.07261602
101	0xbe0f2b91	-0.13981463
102	0x41c3d624	24.47956
103	0xc164fa0a	-14.311045
104	0xc0e81b4b	-7.2533317
105	0x41c43d79	24.530016
106	0x41c25c46	24.295055
107	0x41c22b7c	24.271233
108	0x3dd4ed57	0.103968315
109	0x3e465a31	0.19370343
110	0xc1c32512	-24.3931
111	0xbe2d30b6	-0.16913113
112	0x41c46e9a	24.554005
113	0xc1c28081	-24.312746
114	0xbe39d013	-0.1814578
115	0xb9e01867	-0.0004274279
116	0xbcef5c17	-0.029218717
117	0x3e52cef3	0.20586757
118	0x41c49531	24.572847
119	0xc1c4b5bd	-24.58874
120	0x3d358319	0.044314478
121	0x3e49df58	0.19714105
122	0x41c30464	24.377144
123	0xc198be61	-19.092958
124	0xc14c9ac3	-12.787784
125	0x41c46bb6	24.552593
126	0x41c4d9c0	24.606323
127	0x41c26ae7	24.302198
128	0xbe4c5ef7	-0.19958101
129	0x3c8328f7	0.016010744
130	0xc1c20481	-24.2522
131	0xbd0e72ca	-0.03477744
132	0x41c33bc2	24.404179
133	0xc1c3e46d	-24.486536
134	0xbe181d1e	-0.14854857
135	0x3e526a0e	0.20548269
136	0xbece935c	-0.403468
137	0xbdd238b7	-0.10264724
138	0x41c4e87f	24.613523
139	0xc1c23e3e	-24.280392
140	0xbe51e603	-0.20497899
141	0x3d3e8eae	0.04652279
142	0x41c4791c	24.559135
143	0xc10f8540	-8.970032
144	0xc06b3b4b	-3.675494
145	0x41c3b156	24.46159
146	0x41c47eec	24.561974
147	0x41c0a350	24.079742
148	0x3e19f0b1	0.15033223
149	0xbdcc8955	-0.099871315
150	0xc1c3bbdc	-24.466728
151	0xbe517bae	-0.20457336
152	0x41c1ca12	24.223667
153	0xc1c34970	-24.410858
154	0xbe605ca7	-0.21910344
155	0x3d3fab7d	0.046794403
156	0x3d11fc3b	0.035640936
157	0x3e492807	0.19644175
158	0x41c2775c	24.30828
159	0xc1c33230	-24.399506
160	0x3e0d9079	0.13824643
161	0x3bed930c	0.0072501954
162	0x41c409e7	24.504835
163	0xc1847148	-16.555313
164	0xc11703cd	-9.438428
165	0x41c4e394	24.611122
166	0x41c1e3f6	24.23631
167	0x41c2ed44	24.365852
168	0xbd8cfa2a	-0.068836525
169	0xbdf5a18f	-0.119937055
170	0xc1c263b7	-24.298689
171	0x3e091489	0.1338674
172	0x41c47766	24.5583
173	0xc1c217d7	-24.26164
174	0x3dda14ed	0.106485225
175	0x3dc6be42	0.097042575
176	0xbe74491a	-0.23856011
177	0xbe10794f	-0.14108776
178	0x41c252e9	24.290483
179	0xc1c4e614	-24.612343
180	0x3d603312	0.054736204
181	0x3d922aef	0.07137095
182	0x41c236c1	24.276735
183	0xc16fb885	-14.982549
184	0xc0f4445e	-7.6333456
185	0x41c19901	24.199709
186	0x41c2d31f	24.353086
187	0x41c0f50b	24.11965
188	0x3e474993	0.1946166
189	0xbe5a7324	-0.21332985
190	0xc1c49c4a	-24.576313
191	0x3e4e18cc	0.20126647
192	0x41c2b84e	24.339993
193	0xc1c236ae	-24.2767
194	0xb9985e2c	-0.00029061863
195	0x3d95a603	0.07307055
196	0xbe60d9c5	-0.21958072
197	0x3e3c17d2	0.18368462
198	0x41c47f47	24.562147
199	0xc1c4b9fa	-24.590809
200	0xbe413289	-0.18866934
201	0x3e5bfbcc	0.21482772
202	0x41c4e633	24.612402
203	0xc197d285	-18.977793
204	0xc14aa5e9	-12.665505
205	0x41c233c3	24.275274
206	0x41c32a64	24.395699
207	0x41c1b6fc	24.214348
208	0x3deb6c92	0.114953175
209	0x3e0aa750	0.13540387
210	0xc1c4d58f	-24.604277
211	0x3e4430d9	0.19159259
212	0x41c23143	24.274054
213	0xc1c39ae8	-24.450638
214	0x3e58f722	0.21188024
215	0x3cb4d31b	0.02207332
216	0xbe8a0fc4	-0.26965153
217	0x3e0f5944	0.13998896
218	0x41c45903	24.543463
219	0xc1c17eac	-24.186852
220	0x3e48f9f4	0.196266
221	0xbe17a11b	-0.1480755
222	0xc1c1a2d0	-24.204498
223	0x405b7cbf	3.429489
224	0x3f9ff015	1.2495142
225	0xc1c1b3c3	-24.212774
226	0xc1c325db	-24.393484
227	0xc1be442c	-23.783287
228	0x3da4421c	0.08020422
229	0x3e1286b7	0.14309202
230	0x41c48a5a	24.567554
231	0xbcdd4a00	-0.027012825
232	0xc1c2f7d2	-24.371006
233	0x41c1eddd	24.241144
234	0xbe5aa510	-0.21352029
235	0xbb53c082	-0.0032310789
236	0xbe335a84	-0.17514998
237	0xbc63ebce	-0.013911201
238	0xc1c4454d	-24.533838
239	0x41c19f4b	24.20278
240	0x3d8949f1	0.06703556
241	0xbd4f7767	-0.05065098
242	0x41c45f94	24.546669
243	0xc01592f8	-2.3370953
244	0xbf628924	-0.8849051
245	0x41c22568	24.268265
246	0x41c333f6	24.400372
247	0x41b9a0c5	23.2035
248	0x3d90cd16	0.07070367
249	0xbdaad05a	-0.08340521
250	0xc1c1d3e4	-24.228462
251	0xbccc4097	-0.024933143
252	0x41c1a383	24.20484
253	0xc1c40464	-24.502144
254	0xbe0c86fb	-0.13723366
255	0x3e5790ea	0.21051374

model.lstm.weight_hh_l1 f4 [80, 20]
0	0xbd78ee2d	-0.060774017
1	0x3e60a036	0.21936116
2	0x3de98673	0.11402597
3	0x3d4895b5	0.048970897
4	0x3e52416b	0.20532767
5	0x3dcfd54f	0.10148107
6	0xbdd888ba	-0.105729535
7	0xbd87c371	-0.06629074
8	0xbccbbfc0	-0.024871707
9	0xbd0de52d	-0.034642387
10	0xbdb811c4	-0.089877635
11	0xbd60696c	-0.054788038
12	0x3d179e5e	0.037016265
13	0x3db73103	0.08944895
14	0xbb899c22	-0.0041995207
15	0x3dc08a95	0.094014324
16	0x3e0c4b48	0.13700593
17	0x3cb87b7d	0.022519821
18	0xbe135beb	-0.14390533
19	0x3e5e0918	0.21683156
20	0x3c8d7ee7	0.017272426
21	0xbe59e2c5	-0.21277912
22	0xbdea226e	-0.11432348
23	0xbdf5d952	-0.12004341
24	0xbe3753a4	-0.17903
25	0x3e2bd924	0.16782051
26	0xbe27cda2	-0.16387036
27	0x3e0ffc95	0.14061196
28	0xbe0b31be	-0.13593194
29	0x3d1169e4	0.035501376
30	0xbe2b742b	-0.16743533
31	0xbdfb3b89	-0.12267215
32	0x3ddf3156	0.10898082
33	0x3de3f388	0.11130434
34	0x3e270115	0.16309007
35	0xbd3fb3da	-0.04680238
36	0x3e41e9f9	0.1893691
37	0x3e563060	0.20916891
38	0xbd024e96	-0.031813227
39	0xbd32c308	-0.043643028
40	0xbe4625d1	-0.19350363
41	0xbdd77623	-0.1052058
42	0x3e230af4	0.15922147
43	0x3dc923cc	0.09821281
44	0x3de8ba4c	0.11363658
45	0xbe4faafa	-0.20280066
46	0x3c9b4280	0.018952608
47	0x3e0299dd	0.12754007
48	0xbd8c4d43	-0.06850674
49	0xbb3474b7	-0.0027535388
50	0x3d8581e1	0.06518913
51	0xbe40a546	-0.18813047
52	0xbc9ffba7	-0.019529177
53	0x3e4c4dba	0.19951525
54	0xbd0787ab	-0.033088367
55	0x3e225714	0.1585353
56	0xbe1eaf82	-0.15496638
57	0x3e40fcf9	0.18846501
58	0xbe131c48	-0.14366257
59	0x3e3843d5	0.17994626
60	0xbd84b043	-0.06478932
61	0x3e368433	0.17823867
62	0xbc92d12c	-0.017922007
63	0xbd2707e1	-0.040779
64	0x3d56c27b	0.052431565
65	0xbe580f30	-0.21099544
66	0x3e2dd998	0.16977537
67	0xbdd9cd92	-0.106349126
68	0xbe5234b5	-0.20527919
69	0xbe4969b0	-0.19669223
70	0xbd868e87	-0.06570154
71	0x3d90ab21	0.0706389
72	0x3e2b2505	0.1671334
73	0x3e03e5bd	0.12880607
74	0xbce405d7	-0.027834816
75	0xbdc44a06	-0.09584431
76	0x3df087f2	0.117446795
77	0x3d298921	0.041390542
78	0x3c50c1b0	0.012741491
79	0x3dd87ab9	0.105702825
80	0xbe472a06	-0.19449624
81	0x3e095991	0.13413073
82	0x3e07372a	0.13204637
83	0xbd8c4092	-0.06848253
84	0xbccc21dc	-0.02491849
85	0xbe10b8a6	-0.14132938
86	0x3c9b292d	0.018940533
87	0x3e272667	0.16323243
88	0xbe5944a2	-0.21217588
89	0xbe58589a	-0.21127549
90	0x3e5ec608	0.2175523
91	0xbb71842c	-0.0036852462
92	0xbe4e0a76	-0.20121178
93	0xbe498932	-0.19681242
94	0x3e233e2d	0.15941687
95	0xbdddb84b	-0.10826167
96	0x3e202ce7	0.15642129
97	0x3cfaafd2	0.030601416
98	0x3c97584b	0.018474719
99	0x3e331b39	0.17490853
100	0x3cb8a506	0.022539627
101	0xbe1a258a	-0.15053383
102	0xbd6cfd06	-0.05785849
103	0xbe25174e	-0.16122171
104	0xbe1b56b3	-0.15169792
105	0x3dcf6247	0.10126167
106	0xbad67bfd	-0.0016363856
107	0xbd90e6a2	-0.0707524
108	0xbd84a4f1	-0.064767726
109	0x3c829216	0.0159388
110	0xbe0af5cf	-0.13570331
111	0x3cfb7629	0.030695992
112	0xbb1071db	-0.002204052
113	0x3e251715	0.16122086
114	0x3d53698a	0.05161432
115	0xbdf974c9	-0.12180478
116	0xbe4be60b	-0.19911973
117	0xbe606f5c	-0.2191748
118	0x3e074d7a	0.13213149
119	0xbd457830	-0.048210323
120	0xbe49746d	-0.19673319
121	0xbdd6da36	-0.10490839
122	0xbd9e1fa3	-0.07720878
123	0x3daa9934	0.083300024
124	0xbd7fb793	-0.06243093
125	0x3e0bb973	0.13644962
126	0x3d202404	0.039096847
127	0xbdef4a50	-0.11684096
128	0xbe0317e8	-0.12802088
129	0x3e32e07c	0.17468446
130	0xbe4b9668	-0.19881594
131	0x3d463d6f	0.04839843
132	0xbe3c2328	-0.18372786
133	0x3de6deb7	0.11272948
134	0x3e60213f	0.21887682
135	0xbc926d0d	-0.017874265
136	0x3e06973c	0.13143629
137	0xbd96762c	-0.07346758
138	0x3d26a70f	0.040686663
139	0x3e48bec1	0.19604017
140	0x3d5a67d1	0.053321663
141	0xbddc4e26	-0.10757093
142	0x3c32db4b	0.010916541
143	0xbab0ef95	-0.0013499135
144	0x3e536571	0.20644166
145	0xbe52b21a	-0.20575753
146	0xbe37ba1a	-0.17942086
147	0xbe0417be	-0.12899682
148	0xbd863d11	-0.06554616
149	0x3d35d763	0.044394862
150	0x3d37055e	0.044682853
151	0x3ca15fa3	0.019698923
152	0x3cb3f111	0.021965535
153	0xbe0c632d	-0.13709708
154	0x3dd6a4b7	0.104806356
155	0xbdffec14	-0.124962
156	0x3e552cca	0.20817867
157	0x3e2d28af	0.16910051
158	0xbe03027f	-0.12793921
159	0xbe4a70c4	-0.19769579
160	0xbd2564ed	-0.040379453
161	0x3e033b3d	0.12815566
162	0xbd7e39e7	-0.06206694
163	0x3e0d40b3	0.13794212
164	0x3caaf131	0.020866962
165	0xbd47e704	-0.048804298
166	0xbe442a39	-0.19156732
167	0x3e149007	0.14508067
168	0xbe64b6b3	-0.22335319
169	0xbddd6a2c	-0.10811266
170	0x3e382149	0.17981447
171	0xbe0db470	-0.13838363
172	0xbe2b9f18	-0.16759908
173	0x3c408143	0.011749568
174	0xbd58ceb3	-0.0529315
175	0xbe577cea	-0.21043745
176	0x3d467023	0.048446786
177	0xbe4ddd67	-0.2010399
178	0xbe51e0c7	-0.20495902
179	0xbda394d1	-0.07987369
180	0x3d5c49ff	0.053781506
181	0x3ddb35a6	0.10703592
182	0x3cdf8509	0.027285116
183	0x3e0f5428	0.13996947
184	0x3d4611e3	0.0483569
185	0xbd751765	-0.059836764
186	0x3a84addf	0.0010122618
187	0xbdb613ed	-0.08890519
188	0xbdfffabd	-0.124989964
189	0x3e05f05b	0.1307997
190	0xbd756d75	-0.05991884
191	0x3d8627e5	0.06550578
192	0x3e63a484	0.22230726
193	0x3d175641	0.036947493
194	0x3e3e95f8	0.18611896
195	0x3bec00c4	0.0072022397
196	0x3e1ec827	0.1550604
197	0x3ddf1a52	0.10893692
198	0x3d2261fc	0.039644226
199	0xbda56f0b	-0.080778204
200	0xbe4206e7	-0.18947946
201	0xbc218643	-0.009858671
202	0xbd8436b8	-0.06455749
203	0xbdb48951	-0.088152535
204	0xbd1764a6	-0.03696122
205	0xbd0b4ee1	-0.03401077
206	0x3e6341f2	0.22193125
207	0xbda6afc0	-0.081389904
208	0x3e570f64	0.21001965
209	0x3d24e921	0.04026139
210	0xbd899317	-0.06717508
211	0x3db23ce9	0.08703024
212	0x3da6a0a5	0.08136109
213	0xbe198bb5	-0.149947
214	0xbe1d7299	-0.15375747
215	0x3e4d70d9	0.20062579
216	0xbd377b03	-0.044795047
217	0xbe4fd95b	-0.20297758
218	0xbdbb0320	-0.091314554
219	0x3e1fe41c	0.1561436
220	0xbdb97725	-0.09055928
221	0xbd916bbc	-0.07100627
222	0x3e1623c4	0.14662081
223	0x3e41c33e	0.18922135
224	0xbc942978	-0.01808618
225	0xbd0d1d29	-0.034451637
226	0x3e587bdb	0.21140997
227	0xbd90a53b	-0.07062765
228	0x3cc9b707	0.024623407
229	0x3d7fa882	0.06241656
230	0x3d8880e8	0.06665212
231	0xbdbf4a4f	-0.09340345
232	0x3d577692	0.05260331
233	0x3cf99f14	0.030471362
234	0x3cd06548	0.02543892
235	0xbd000723	-0.031256806
236	0x3e2c2410	0.16810632
237	0x3e0c56f9	0.13705052
238	0x3e1e6447	0.1546794
239	0xbd7da88f	-0.061928328
240	0xbb907db5	-0.0044095167
241	0x3dad6e18	0.08468264
242	0x3e264f15	0.16241105
243	0xbe4585a8	-0.19289267
244	0xbd1b30a3	-0.03788818
245	0xbe1ebd72	-0.15501955
246	0x3e2eb3db	0.17060797
247	0x3e068790	0.1313765
248	0x3e29cc6a	0.16581884
249	0x3dc8ef43	0.098112606
250	0x3e044f8d	0.12920971
251	0xbdd8942c	-0.105751365
252	0x396298f8	0.00021610025
253	0x3d27fcd0	0.041012585
254	0x3e4efbea	0.20213285
255	0x3e39e16a	0.18152395

model.lstm.bias_ih_l1 f4 [80]
0	0x41c4a460	24.580261
1	0xc1c316cc	-24.386131
2	0x41c234a0	24.275696
3	0xc1c4c676	-24.596905
4	0xc1c1ec10	-24.240265
5	0xc1c31205	-24.383799
6	0xc1c4c06c	-24.593956
7	0xc1c3e9b2	-24.489109
8	0xc1c4e117	-24.609907
9	0xc1c1b01e	-24.210995
10	0xc1c3e50a	-24.486835
11	0x41c30f74	24.382545
12	0xc1c36274	-24.423073
13	0x41c3c052	24.468906
14	0x41c40884	24.504158
15	0xc1c439a9	-24.528154
16	0x41c4d220	24.6026
17	0xc1c50704	-24.628426
18	0xc1c1ada4	-24.209785
19	0x41c269de	24.301693
20	0xbe5a148d	-0.21296902
21	0xbdce8d39	-0.1008553
22	0xbdf09043	-0.11746266
23	0xbe2e3291	-0.17011477
24	0x3d1d2935	0.038369376
25	0xbdc7f3f5	-0.09763328
26	0x3e35b447	0.17744552
27	0x3d79e82b	0.06101243
28	0xbe035c81	-0.12828256
29	0xbdb9746f	-0.09055411
30	0xbb09cd1a	-0.002102679
31	0x3d63664c	0.05551748
32	0x3d88c098	0.06677359
33	0xbd2f55fd	-0.042806614
34	0xbd62b0f3	-0.055344533
35	0x3c0507a6	0.008119499
36	0x3de25484	0.11051276
37	0x3e08ee5b	0.13372175
38	0xbdc24720	-0.09486222
39	0x3de1aef7	0.110197
40	0xc1c38bd0	-24.443268
41	0x41c2b829	24.339922
42	0x41c40f1a	24.507374
43	0xc1c36f9c	-24.429497
44	0x41c3439e	24.408016
45	0xc1c4b8d8	-24.590256
46	0x41c185fb	24.19042
47	0x41c39cb1	24.45151
48	0x41c465c6	24.549694
49	0xc1c344ba	-24.408558
50	0x41c43a08	24.528336
51	0x41c4900b	24.570333
52	0xc1c1f249	-24.243303
53	0xc1c452ee	-24.540493
54	0x41c4cc54	24.59977
55	0x41c50837	24.629011
56	0x41c20f17	24.257368
57	0x41c19feb	24.203085
58	0x41c17ff2	24.187473
59	0xc1c4d731	-24.605074
60	0x41c1f279	24.243395
61	0xc1c41fa9	-24.51546
62	0x41c3cedd	24.476007
63	0xc1c50554	-24.627602
64	0xc1c1dc20	-24.232483
65	0xc1c39662	-24.44843
66	0xc1c2296c	-24.270226
67	0xc1c3eba6	-24.490063
68	0xc1c450e4	-24.539497
69	0xc1c1849d	-24.189753
70	0xc1c297da	-24.324146
71	0x41c4e418	24.611374
72	0xc1c506af	-24.628263
73	0x41c23b0b	24.27883
74	0x41c3d075	24.476786
75	0xc1c4f080	-24.617432
76	0x41c22f8e	24.27322
77	0xc1c2d4ce	-24.353909
78	0xc1c1fe20	-24.249084
79	0x41c3a6a0	24.45636

model.lstm.bias_hh_l1 f4 [80]
0	0x41c26096	24.297161
1	0xc1c2e050	-24.359528
2	0x41c3c5cc	24.47158
3	0xc1c210e3	-24.258245
4	0xc1c1c6aa	-24.222004
5	0xc1c38791	-24.441195
6	0xc1c21db5	-24.264505
7	0xc1c1951e	-24.197811
8	0xc1c41c4d	-24.513819
9	0xc1c46741	-24.550417
10	0xc1c3a7d6	-24.456951
11	0x41c398b4	24.449562
12	0xc1c17e76	-24.186749
13	0x41c2eb66	24.36494
14	0x41c2022d	24.251062
15	0xc1c3c075	-24.468973
16	0x41c4e2f4	24.610817
17	0xc1c300c9	-24.375383
18	0xc1c40e94	-24.507118
19	0x41c431d9	24.52434
20	0xbb932828	-0.004490871
21	0x3e142d7d	0.14470477
22	0x3e408918	0.18802297
23	0x3e1e7ac1	0.15476514
24	0xbe06032e	-0.1308715
25	0xbe213d94	-0.15746146
26	0xbcadf92a	-0.021236975
27	0x3d762926	0.060097836
28	0x3e22be88	0.15892994
29	0x3e14f7fa	0.1454772
30	0xbd75fb00	-0.060053825
31	0xbaf95ed8	-0.0019025458
32	0x3d87f7e8	0.06639081
33	0xbdac0d1e	-0.084009394
34	0x3e03934a	0.12849155
35	0xbc1a8326	-0.009430682
36	0x3d8538ea	0.06504996
37	0x3e41857f	0.18898581
38	0xbe307178	-0.17230785
39	0xbd4b7144	-0.049668565
40	0xc1c4e030	-24.609467
41	0x41c4eafd	24.61474
42	0x41c47baa	24.560383
43	0xc1c1ad24	-24.209541
44	0x41c4b73e	24.589474
45	0xc1c314d4	-24.38517
46	0x41c26bf5	24.302713
47	0x41c4932d	24.571863
48	0x41c2139f	24.25958
49	0xc1c1924f	-24.19644
50	0x41c3a1c4	24.453987
51	0x41c3d24a	24.47768
52	0xc1c1f33f	-24.243773
53	0xc1c2bb40	-24.34143
54	0x41c18bbe	24.193233
55	0x41c295ad	24.323084
56	0x41c301d1	24.375887
57	0x41c47782	24.558353
58	0x41c47c3a	24.560658
59	0xc1c202af	-24.25131
60	0x41c30f77	24.382551
61	0xc1c290af	-24.320646
62	0x41c37b67	24.435255
63	0xc1c3da1d	-24.4815
64	0xc1c2fa7c	-24.372307
65	0xc1c3cade	-24.474056
66	0xc1c482ff	-24.563963
67	0xc1c3a4ce	-24.455471
68	0xc1c2ef56	-24.366863
69	0xc1c1f687	-24.245375
70	0xc1c50739	-24.628527
71	0x41c23988	24.278091
72	0xc1c2face	-24.372463
73	0x41c4da93	24.606726
74	0x41c20ba8	24.255692
75	0xc1c48828	-24.566483
76	0x41c3cf30	24.476166
77	0xc1c2172d	-24.261316
78	0xc1c2c115	-24.344278
79	0x41c48515	24.564981

model.linear.weight f4 [1, 20]
0	0xc23015b6	-44.021202
1	0xc1c1819c	-24.188286
2	0x422f18db	43.774273
3	0x41c1f5da	24.245045
4	0xc1c2c942	-24.34827
5	0x41c262ea	24.298298
6	0xc1c210fb	-24.258291
7	0xc1c2f93a	-24.371693
8	0xc1c26038	-24.296982
9	0x41c19965	24.1999
10	0xc1c1ad53	-24.209631
11	0x4232ec93	44.73103
12	0x41c31c94	24.388954
13	0xc22df04d	-43.48467
14	0x422d7171	43.360783
15	0xc1c25510	-24.291534
16	0x422fbcb7	43.93429
17	0xc1c1ec7e	-24.240475
18	0xc1c20c8f	-24.256132
19	0xc23408c3	-45.008556

exp_avg f4 [80, 1]
0	0xa84ed9b8	-1.1482507e-14
1	0xab63d041	-8.093561e-13
2	0x3d37751d	0.044789422
3	0x00000000	0.0
4	0xb44d5eeb	-1.9126644e-07
5	0x372d4d2e	1.0329573e-05
6	0xb46395ce	-2.1195521e-07
7	0xb7ed826c	-2.8313334e-05
8	0x1e9ec2d7	1.6809485e-20
9	0xa9c66e26	-8.812074e-14
10	0xb2941dfb	-1.7243101e-08
11	0x26927a55	1.0163943e-15
12	0x405c51bf	3.4424894
13	0x37c476a8	2.3420274e-05
14	0xad1d1af0	-8.930398e-12
15	0xa5c1c0c1	-3.3610778e-16
16	0x25607d25	1.9471304e-16
17	0x00000000	0.0
18	0x38c6965b	9.4693816e-05
19	0xb4eed8c8	-4.4488684e-07
20	0x00000000	0.0
21	0x00000000	0.0
22	0x00000000	0.0
23	0x00000000	0.0
24	0x00000000	0.0
25	0x00000000	0.0
26	0x00000000	0.0
27	0x00000000	0.0
28	0x00000000	0.0
29	0x00000000	0.0
30	0x00000000	0.0
31	0x00000000	0.0
32	0x00000000	0.0
33	0x00000000	0.0
34	0x00000000	0.0
35	0x00000000	0.0
36	0x00000000	0.0
37	0x00000000	0.0
38	0x00000000	0.0
39	0x00000000	0.0
40	0x00000000	0.0
41	0x00000000	0.0
42	0x00000000	0.0
43	0x00000000	0.0
44	0x00000000	0.0
45	0xbaadb892	-0.0013253859
46	0x00000000	0.0
47	0x30bddb1f	1.3813838e-09
48	0x1545bea6	3.9934228e-26
49	0x00000000	0.0
50	0xb638268d	-2.7440576e-06
51	0x00000000	0.0
52	0x00000000	0.0
53	0x32b5b636	2.1154033e-08
54	0x00000000	0.0
55	0x00000000	0.0
56	0x00000000	0.0
57	0x00000000	0.0
58	0xbec1e442	-0.3786946
59	0x00000000	0.0
60	0xa84ed9db	-1.1482537e-14
61	0xab63cf36	-8.0934163e-13
62	0x39d26d15	0.00040135594
63	0x3320fff0	3.7485677e-08
64	0x00000000	0.0
65	0x00000000	0.0
66	0xbda023bf	-0.07819318
67	0x00000000	0.0
68	0x1e9ec2d9	1.6809488e-20
69	0xad523158	-1.19480745e-11
70	0xc0388f5e	-2.8837504
71	0x2ecc5146	9.291283e-11
72	0x00000000	0.0
73	0x00000000	0.0
74	0xad174b9c	-8.600145e-12
75	0xa5c1c10c	-3.3610977e-16
76	0x30db7af7	1.5969296e-09
77	0x2df46b43	2.7787222e-11
78	0x3927a0c1	0.00015986247
79	0x00000000	0.0

exp_avg_sq f4 [80, 1]
0	0x119d75be	2.4842797e-28
1	0x17befe0a	1.2342591e-24
2	0x3b77b7de	0.0037798802
3	0x00000000	0.0
4	0x299b371a	6.8929414e-14
5	0x2f5d0cf5	2.0104436e-10
6	0x29be9c11	8.464768e-14
7	0x30cf9890	1.5104593e-09
8	0x0005cc1b	5.32397e-40
9	0x1490e6ca	1.4631314e-26
10	0x262178d9	5.6021875e-16
11	0x0e1deaf3	1.9464868e-30
12	0x41b2a21a	22.329151
13	0x308e0b16	1.0335011e-09
14	0x1b35a9ed	1.5026875e-22
15	0x0c8a26a2	2.1285518e-31
16	0x0bb9755b	7.1435985e-32
17	0x00000000	0.0
18	0x32912186	1.6895466e-08
19	0x2ad1f0ba	3.7292896e-13
20	0x00000000	0.0
21	0x00000000	0.0
22	0x00000000	0.0
23	0x00000000	0.0
24	0x00000000	0.0
25	0x00000000	0.0
26	0x00000000	0.0
27	0x00000000	0.0
28	0x00000000	0.0
29	0x00000000	0.0
30	0x00000000	0.0
31	0x00000000	0.0
32	0x00000000	0.0
33	0x00000000	0.0
34	0x00000000	0.0
35	0x00000000	0.0
36	0x00000000	0.0
37	0x00000000	0.0
38	0x00000000	0.0
39	0x00000000	0.0
40	0x00000000	0.0
41	0x00000000	0.0
42	0x00000000	0.0
43	0x00000000	0.0
44	0x00000000	0.0
45	0x365e1f3b	3.3098756e-06
46	0x00000000	0.0
47	0x2284a640	3.5954696e-18
48	0x00000000	0.0
49	0x00000000	0.0
50	0x2d7997ea	1.4187743e-11
51	0x00000000	0.0
52	0x00000000	0.0
53	0x267306b6	8.4316656e-16
54	0x00000000	0.0
55	0x00000000	0.0
56	0x00000000	0.0
57	0x00000000	0.0
58	0x3e8a5943	0.27021226
59	0x00000000	0.0
60	0x119d75ef	2.4842915e-28
61	0x17befc49	1.2342148e-24
62	0x34a2f364	3.035194e-07
63	0x273ec835	2.647633e-15
64	0x00000000	0.0
65	0x00000000	0.0
66	0x3c3cbfb9	0.01152032
67	0x00000000	0.0
68	0x0005cc1c	5.32398e-40
69	0x1ba296eb	2.689818e-22
70	0x417ab45f	15.669036
71	0x1e99a08d	1.6265907e-20
72	0x00000000	0.0
73	0x00000000	0.0
74	0x1b2879e0	1.3936014e-22
75	0x0c8a2708	2.1285758e-31
76	0x22b14678	4.8050558e-18
77	0x1cdbd9a4	1.4548463e-21
78	0x334ed05e	4.815262e-08
79	0x00000000	0.0

exp_avg f4 [80, 20]
0	0x00000000	0.0
1	0x00000000	0.0
2	0x00000000	0.0
3	0x00000000	0.0
4	0x00000000	0.0
5	0x00000000	0.0
6	0x00000000	0.0
7	0x00000000	0.0
8	0x00000000	0.0
9	0x00000000	0.0
10	0x00000000	0.0
11	0x00000000	0.0
12	0x00000000	0.0
13	0x00000000	0.0
14	0x00000000	0.0
15	0x00000000	0.0
16	0x00000000	0.0
17	0x00000000	0.0
18	0x00000000	0.0
19	0x00000000	0.0
20	0x00000000	0.0
21	0x00000000	0.0
22	0x00000000	0.0
23	0x00000000	0.0
24	0x00000000	0.0
25	0x00000000	0.0
26	0x00000000	0.0
27	0x00000000	0.0
28	0x00000000	0.0
29	0x00000000	0.0
30	0x00000000	0.0
31	0x00000000	0.0
32	0x00000000	0.0
33	0x00000000	0.0
34	0x00000000	0.0
35	0x00000000	0.0
36	0x00000000	0.0
37	0x00000000	0.0
38	0x00000000	0.0
39	0x00000000	0.0
40	0x00000000	0.0
41	0x00000000	0.0
42	0x00000000	0.0
43	0x00000000	0.0
44	0x00000000	0.0
45	0x00000000	0.0
46	0x00000000	0.0
47	0x00000000	0.0
48	0x00000000	0.0
49	0x00000000	0.0
50	0x00000000	0.0
51	0x00000000	0.0
52	0x00000000	0.0
53	0x00000000	0.0
54	0x00000000	0.0
55	0x00000000	0.0
56	0x00000000	0.0
57	0x00000000	0.0
58	0x00000000	0.0
59	0x00000000	0.0
60	0x00000000	0.0
61	0x00000000	0.0
62	0x00000000	0.0
63	0x00000000	0.0
64	0x00000000	0.0
65	0x00000000	0.0
66	0x00000000	0.0
67	0x00000000	0.0
68	0x00000000	0.0
69	0x00000000	0.0
70	0x00000000	0.0
71	0x00000000	0.0
72	0x00000000	0.0
73	0x00000000	0.0
74	0x00000000	0.0
75	0x00000000	0.0
76	0x00000000	0.0
77	0x00000000	0.0
78	0x00000000	0.0
79	0x00000000	0.0
80	0x00000000	0.0
81	0x00000000	0.0
82	0x00000000	0.0
83	0x00000000	0.0
84	0x00000000	0.0
85	0x00000000	0.0
86	0x00000000	0.0
87	0x00000000	0.0
88	0x00000000	0.0
89	0x00000000	0.0
90	0x00000000	0.0
91	0x00000000	0.0
92	0x00000000	0.0
93	0x00000000	0.0
94	0x00000000	0.0
95	0x00000000	0.0
96	0x00000000	0.0
97	0x00000000	0.0
98	0x00000000	0.0
99	0x00000000	0.0
100	0x00000000	0.0
101	0x00000000	0.0
102	0x00000000	0.0
103	0x00000000	0.0
104	0x00000000	0.0
105	0x00000000	0.0
106	0x00000000	0.0
107	0x00000000	0.0
108	0x00000000	0.0
109	0x00000000	0.0
110	0x00000000	0.0
111	0x00000000	0.0
112	0x00000000	0.0
113	0x00000000	0.0
114	0x00000000	0.0
115	0x00000000	0.0
116	0x00000000	0.0
117	0x00000000	0.0
118	0x00000000	0.0
119	0x00000000	0.0
120	0x00000000	0.0
121	0x00000000	0.0
122	0x00000000	0.0
123	0x00000000	0.0
124	0x00000000	0.0
125	0x00000000	0.0
126	0x00000000	0.0
127	0x00000000	0.0
128	0x00000000	0.0
129	0x00000000	0.0
130	0x00000000	0.0
131	0x00000000	0.0
132	0x00000000	0.0
133	0x00000000	0.0
134	0x00000000	0.0
135	0x00000000	0.0
136	0x00000000	0.0
137	0x00000000	0.0
138	0x00000000	0.0
139	0x00000000	0.0
140	0x00000000	0.0
141	0x00000000	0.0
142	0x00000000	0.0
143	0x00000000	0.0
144	0x00000000	0.0
145	0x00000000	0.0
146	0x00000000	0.0
147	0x00000000	0.0
148	0x00000000	0.0
149	0x00000000	0.0
150	0x00000000	0.0
151	0x00000000	0.0
152	0x00000000	0.0
153	0x00000000	0.0
154	0x00000000	0.0
155	0x00000000	0.0
156	0x00000000	0.0
157	0x00000000	0.0
158	0x00000000	0.0
159	0x00000000	0.0
160	0x00000000	0.0
161	0x00000000	0.0
162	0x00000000	0.0
163	0x00000000	0.0
164	0x00000000	0.0
165	0x00000000	0.0
166	0x00000000	0.0
167	0x00000000	0.0
168	0x00000000	0.0
169	0x00000000	0.0
170	0x00000000	0.0
171	0x00000000	0.0
172	0x00000000	0.0
173	0x00000000	0.0
174	0x00000000	0.0
175	0x00000000	0.0
176	0x00000000	0.0
177	0x00000000	0.0
178	0x00000000	0.0
179	0x00000000	0.0
180	0x00000000	0.0
181	0x00000000	0.0
182	0x00000000	0.0
183	0x00000000	0.0
184	0x00000000	0.0
185	0x00000000	0.0
186	0x00000000	0.0
187	0x00000000	0.0
188	0x00000000	0.0
189	0x00000000	0.0
190	0x00000000	0.0
191	0x00000000	0.0
192	0x00000000	0.0
193	0x00000000	0.0
194	0x00000000	0.0
195	0x00000000	0.0
196	0x00000000	0.0
197	0x00000000	0.0
198	0x00000000	0.0
199	0x00000000	0.0
200	0x00000000	0.0
201	0x00000000	0.0
202	0x00000000	0.0
203	0x00000000	0.0
204	0x00000000	0.0
205	0x00000000	0.0
206	0x00000000	0.0
207	0x00000000	0.0
208	0x00000000	0.0
209	0x00000000	0.0
210	0x00000000	0.0
211	0x00000000	0.0
212	0x00000000	0.0
213	0x00000000	0.0
214	0x00000000	0.0
215	0x00000000	0.0
216	0x00000000	0.0
217	0x00000000	0.0
218	0x00000000	0.0
219	0x00000000	0.0
220	0x00000000	0.0
221	0x00000000	0.0
222	0x00000000	0.0
223	0x00000000	0.0
224	0x00000000	0.0
225	0x00000000	0.0
226	0x00000000	0.0
227	0x00000000	0.0
228	0x00000000	0.0
229	0x00000000	0.0
230	0x00000000	0.0
231	0x00000000	0.0
232	0x00000000	0.0
233	0x00000000	0.0
234	0x00000000	0.0
235	0x00000000	0.0
236	0x00000000	0.0
237	0x00000000	0.0
238	0x00000000	0.0
239	0x00000000	0.0
240	0x00000000	0.0
241	0x00000000	0.0
242	0x00000000	0.0
243	0x00000000	0.0
244	0x00000000	0.0
245	0x00000000	0.0
246	0x00000000	0.0
247	0x00000000	0.0
248	0x00000000	0.0
249	0x00000000	0.0
250	0x00000000	0.0
251	0x00000000	0.0
252	0x00000000	0.0
253	0x00000000	0.0
254	0x00000000	0.0
255	0x00000000	0.0

exp_avg_sq f4 [80, 20]
0	0x00000000	0.0
1	0x00000000	0.0
2	0x00000000	0.0
3	0x00000000	0.0
4	0x00000000	0.0
5	0x00000000	0.0
6	0x00000000	0.0
7	0x00000000	0.0
8	0x00000000	0.0
9	0x00000000	0.0
10	0x00000000	0.0
11	0x00000000	0.0
12	0x00000000	0.0
13	0x00000000	0.0
14	0x00000000	0.0
15	0x00000000	0.0
16	0x00000000	0.0
17	0x00000000	0.0
18	0x00000000	0.0
19	0x00000000	0.0
20	0x00000000	0.0
21	0x00000000	0.0
22	0x00000000	0.0
23	0x00000000	0.0
24	0x00000000	0.0
25	0x00000000	0.0
26	0x00000000	0.0
27	0x00000000	0.0
28	0x00000000	0.0
29	0x00000000	0.0
30	0x00000000	0.0
31	0x00000000	0.0
32	0x00000000	0.0
33	0x00000000	0.0
34	0x00000000	0.0
35	0x00000000	0.0
36	0x00000000	0.0
37	0x00000000	0.0
38	0x00000000	0.0
39	0x00000000	0.0
40	0x00000000	0.0
41	0x00000000	0.0
42	0x00000000	0.0
43	0x00000000	0.0
44	0x00000000	0.0
45	0x00000000	0.0
46	0x00000000	0.0
47	0x00000000	0.0
48	0x00000000	0.0
49	0x00000000	0.0
50	0x00000000	0.0
51	0x00000000	0.0
52	0x00000000	0.0
53	0x00000000	0.0
54	0x00000000	0.0
55	0x00000000	0.0
56	0x00000000	0.0
57	0x00000000	0.0
58	0x00000000	0.0
59	0x00000000	0.0
60	0x00000000	0.0
61	0x00000000	0.0
62	0x00000000	0.0
63	0x00000000	0.0
64	0x00000000	0.0
65	0x00000000	0.0
66	0x00000000	0.0
67	0x00000000	0.0
68	0x00000000	0.0
69	0x00000000	0.0
70	0x00000000	0.0
71	0x00000000	0.0
72	0x00000000	0.0
73	0x00000000	0.0
74	0x00000000	0.0
75	0x00000000	0.0
76	0x00000000	0.0
77	0x00000000	0.0
78	0x00000000	0.0
79	0x00000000	0.0
80	0x00000000	0.0
81	0x00000000	0.0
82	0x00000000	0.0
83	0x00000000	0.0
84	0x00000000	0.0
85	0x00000000	0.0
86	0x00000000	0.0
87	0x00000000	0.0
88	0x00000000	0.0
89	0x00000000	0.0
90	0x00000000	0.0
91	0x00000000	0.0
92	0x00000000	0.0
93	0x00000000	0.0
94	0x00000000	0.0
95	0x00000000	0.0
96	0x00000000	0.0
97	0x00000000	0.0
98	0x00000000	0.0
99	0x00000000	0.0
100	0x00000000	0.0
101	0x00000000	0.0
102	0x00000000	0.0
103	0x00000000	0.0
104	0x00000000	0.0
105	0x00000000	0.0
106	0x00000000	0.0
107	0x00000000	0.0
108	0x00000000	0.0
109	0x00000000	0.0
110	0x00000000	0.0
111	0x00000000	0.0
112	0x00000000	0.0
113	0x00000000	0.0
114	0x00000000	0.0
115	0x00000000	0.0
116	0x00000000	0.0
117	0x00000000	0.0
118	0x00000000	0.0
119	0x00000000	0.0
120	0x00000000	0.0
121	0x00000000	0.0
122	0x00000000	0.0
123	0x00000000	0.0
124	0x00000000	0.0
125	0x00000000	0.0
126	0x00000000	0.0
127	0x00000000	0.0
128	0x00000000	0.0
129	0x00000000	0.0
130	0x00000000	0.0
131	0x00000000	0.0
132	0x00000000	0.0
133	0x00000000	0.0
134	0x00000000	0.0
135	0x00000000	0.0
136	0x00000000	0.0
137	0x00000000	0.0
138	0x00000000	0.0
139	0x00000000	0.0
140	0x00000000	0.0
141	0x00000000	0.0
142	0x00000000	0.0
143	0x00000000	0.0
144	0x00000000	0.0
145	0x00000000	0.0
146	0x00000000	0.0
147	0x00000000	0.0
148	0x00000000	0.0
149	0x00000000	0.0
150	0x00000000	0.0
151	0x00000000	0.0
152	0x00000000	0.0
153	0x00000000	0.0
154	0x00000000	0.0
155	0x00000000	0.0
156	0x00000000	0.0
157	0x00000000	0.0
158	0x00000000	0.0
159	0x00000000	0.0
160	0x00000000	0.0
161	0x00000000	0.0
162	0x00000000	0.0
163	0x00000000	0.0
164	0x00000000	0.0
165	0x00000000	0.0
166	0x00000000	0.0
167	0x00000000	0.0
168	0x00000000	0.0
169	0x00000000	0.0
170	0x00000000	0.0
171	0x00000000	0.0
172	0x00000000	0.0
173	0x00000000	0.0
174	0x00000000	0.0
175	0x00000000	0.0
176	0x00000000	0.0
177	0x00000000	0.0
178	0x00000000	0.0
179	0x00000000	0.0
180	0x00000000	0.0
181	0x00000000	0.0
182	0x00000000	0.0
183	0x00000000	0.0
184	0x00000000	0.0
185	0x00000000	0.0
186	0x00000000	0.0
187	0x00000000	0.0
188	0x00000000	0.0
189	0x00000000	0.0
190	0x00000000	0.0
191	0x00000000	0.0
192	0x00000000	0.0
193	0x00000000	0.0
194	0x00000000	0.0
195	0x00000000	0.0
196	0x00000000	0.0
197	0x00000000	0.0
198	0x00000000	0.0
199	0x00000000	0.0
200	0x00000000	0.0
201	0x00000000	0.0
202	0x00000000	0.0
203	0x00000000	0.0
204	0x00000000	0.0
205	0x00000000	0.0
206	0x00000000	0.0
207	0x00000000	0.0
208	0x00000000	0.0
209	0x00000000	0.0
210	0x00000000	0.0
211	0x00000000	0.0
212	0x00000000	0.0
213	0x00000000	0.0
214	0x00000000	0.0
215	0x00000000	0.0
216	0x00000000	0.0
217	0x00000000	0.0
218	0x00000000	0.0
219	0x00000000	0.0
220	0x00000000	0.0
221	0x00000000	0.0
222	0x00000000	0.0
223	0x00000000	0.0
224	0x00000000	0.0
225	0x00000000	0.0
226	0x00000000	0.0
227	0x00000000	0.0
228	0x00000000	0.0
229	0x00000000	0.0
230	0x00000000	0.0
231	0x00000000	0.0
232	0x00000000	0.0
233	0x00000000	0.0
234	0x00000000	0.0
235	0x00000000	0.0
236	0x00000000	0.0
237	0x00000000	0.0
238	0x00000000	0.0
239	0x00000000	0.0
240	0x00000000	0.0
241	0x00000000	0.0
242	0x00000000	0.0
243	0x00000000	0.0
244	0x00000000	0.0
245	0x00000000	0.0
246	0x00000000	0.0
247	0x00000000	0.0
248	0x00000000	0.0
249	0x00000000	0.0
250	0x00000000	0.0
251	0x00000000	0.0
252	0x00000000	0.0
253	0x00000000	0.0
254	0x00000000	0.0
255	0x00000000	0.0

exp_avg f4 [80]
0	0xa4f952fe	-1.0812713e-16
1	0xa8081fdb	-7.556424e-15
2	0x39b866c7	0.0003517179
3	0x00000000	0.0
4	0xb0eabeaa	-1.7079931e-09
5	0x33c156fa	9.003084e-08
6	0xb1015a2e	-1.8823232e-09
7	0xb481aea3	-2.4155187e-07
8	0x1b423d27	1.6067063e-22
9	0xa66d3b46	-8.2306223e-16
10	0xaf364c49	-1.6579906e-10
11	0x23314aaf	9.611004e-18
12	0x3cc3cb9c	0.0239008
13	0x34586a08	2.0155142e-07
14	0xa9b9fcc3	-8.2594976e-14
15	0xa26b0dfa	-3.1855838e-18
16	0x220852ef	1.8475342e-18
17	0x00000000	0.0
18	0x35565a42	7.9852555e-07
19	0xb18538b8	-3.8772576e-09
20	0x00000000	0.0
21	0x00000000	0.0
22	0x00000000	0.0
23	0x00000000	0.0
24	0x00000000	0.0
25	0x00000000	0.0
26	0x00000000	0.0
27	0x00000000	0.0
28	0x00000000	0.0
29	0x00000000	0.0
30	0x00000000	0.0
31	0x00000000	0.0
32	0x00000000	0.0
33	0x00000000	0.0
34	0x00000000	0.0
35	0x00000000	0.0
36	0x00000000	0.0
37	0x00000000	0.0
38	0x00000000	0.0
39	0x00000000	0.0
40	0x00000000	0.0
41	0x00000000	0.0
42	0x00000000	0.0
43	0x00000000	0.0
44	0x00000000	0.0
45	0xb73b3807	-1.11591135e-05
46	0x00000000	0.0
47	0x2d5de22b	1.2612615e-11
48	0x11f2ffa9	3.833843e-28
49	0x00000000	0.0
50	0xb2d089f6	-2.4277124e-08
51	0x00000000	0.0
52	0x00000000	0.0
53	0x2f5fa530	2.0340418e-10
54	0x00000000	0.0
55	0x00000000	0.0
56	0x00000000	0.0
57	0x00000000	0.0
58	0xbb3ae027	-0.0028514953
59	0x00000000	0.0
60	0xa4f95322	-1.0812737e-16
61	0xa8081f37	-7.556285e-15
62	0x3662b2ae	3.378063e-06
63	0x2fb6704c	3.31854e-10
64	0x00000000	0.0
65	0x00000000	0.0
66	0xba19de80	-0.0005869642
67	0x00000000	0.0
68	0x1b423d27	1.6067063e-22
69	0xa9f83826	-1.10231526e-13
70	0xbca4fef0	-0.020141095
71	0x2b710fc8	8.56423e-13
72	0x00000000	0.0
73	0x00000000	0.0
74	0xa9b30c9f	-7.951386e-14
75	0xa26b0e54	-3.1856024e-18
76	0x2d803b43	1.4578233e-11
77	0x2a903264	2.5614504e-13
78	0x35b4cd4d	1.3470795e-06
79	0x00000000	0.0

exp_avg_sq f4 [80]
0	0x0ae4c356	2.2029079e-32
1	0x110861f4	1.0758692e-28
2	0x347a462d	2.3308594e-07
3	0x00000000	0.0
4	0x22caca81	5.496662e-18
5	0x28898ff1	1.527248e-14
6	0x22f64ce5	6.675985e-18
7	0x29f78ef3	1.0993801e-13
8	0x00000023	4.9e-44
9	0x0dcf1c40	1.2764161e-30
10	0x1f7498c5	5.1795378e-20
11	0x076758d7	1.7404616e-34
12	0x3a8d142f	0.0010763461
13	0x29ac5b58	7.65418e-14
14	0x147e98ec	1.28538814e-26
15	0x05cb53a9	1.912076e-35
16	0x0508c864	6.431495e-36
17	0x00000000	0.0
18	0x2ba916b0	1.2014469e-12
19	0x2402a0c2	2.8325424e-17
20	0x00000000	0.0
21	0x00000000	0.0
22	0x00000000	0.0
23	0x00000000	0.0
24	0x00000000	0.0
25	0x00000000	0.0
26	0x00000000	0.0
27	0x00000000	0.0
28	0x00000000	0.0
29	0x00000000	0.0
30	0x00000000	0.0
31	0x00000000	0.0
32	0x00000000	0.0
33	0x00000000	0.0
34	0x00000000	0.0
35	0x00000000	0.0
36	0x00000000	0.0
37	0x00000000	0.0
38	0x00000000	0.0
39	0x00000000	0.0
40	0x00000000	0.0
41	0x00000000	0.0
42	0x00000000	0.0
43	0x00000000	0.0
44	0x00000000	0.0
45	0x2f80fd75	2.3463156e-10
46	0x00000000	0.0
47	0x1bb52db8	2.9973483e-22
48	0x00000000	0.0
49	0x00000000	0.0
50	0x26a00a7d	1.1105073e-15
51	0x00000000	0.0
52	0x00000000	0.0
53	0x1fb81136	7.7955504e-20
54	0x00000000	0.0
55	0x00000000	0.0
56	0x00000000	0.0
57	0x00000000	0.0
58	0x3780847a	1.5320478e-05
59	0x00000000	0.0
60	0x0ae4c39c	2.2029181e-32
61	0x110860b3	1.0758306e-28
62	0x2dbd205d	2.1501185e-11
63	0x2074f971	2.0750137e-19
64	0x00000000	0.0
65	0x00000000	0.0
66	0x352e41cb	6.491579e-07
67	0x00000000	0.0
68	0x00000023	4.9e-44
69	0x14e2bd75	2.2894896e-26
70	0x3a485ec0	0.00076435134
71	0x17d5da1a	1.3819859e-24
72	0x00000000	0.0
73	0x00000000	0.0
74	0x146bf4e9	1.1912768e-26
75	0x05cb543d	1.9120973e-35
76	0x1bf20d03	4.004395e-22
77	0x161909ab	1.2362292e-25
78	0x2c709949	3.4191142e-12
79	0x00000000	0.0

exp_avg f4 [80]
0	0xa4f952fe	-1.0812713e-16
1	0xa8081fdb	-7.556424e-15
2	0x39b866c7	0.0003517179
3	0x00000000	0.0
4	0xb0eabeaa	-1.7079931e-09
5	0x33c156fa	9.003084e-08
6	0xb1015a2e	-1.8823232e-09
7	0xb481aea3	-2.4155187e-07
8	0x1b423d27	1.6067063e-22
9	0xa66d3b46	-8.2306223e-16
10	0xaf364c49	-1.6579906e-10
11	0x23314aaf	9.611004e-18
12	0x3cc3cb9c	0.0239008
13	0x34586a08	2.0155142e-07
14	0xa9b9fcc3	-8.2594976e-14
15	0xa26b0dfa	-3.1855838e-18
16	0x220852ef	1.8475342e-18
17	0x00000000	0.0
18	0x35565a42	7.9852555e-07
19	0xb18538b8	-3.8772576e-09
20	0x00000000	0.0
21	0x00000000	0.0
22	0x00000000	0.0
23	0x00000000	0.0
24	0x00000000	0.0
25	0x00000000	0.0
26	0x00000000	0.0
27	0x00000000	0.0
28	0x00000000	0.0
29	0x00000000	0.0
30	0x00000000	0.0
31	0x00000000	0.0
32	0x00000000	0.0
33	0x00000000	0.0
34	0x00000000	0.0
35	0x00000000	0.0
36	0x00000000	0.0
37	0x00000000	0.0
38	0x00000000	0.0
39	0x00000000	0.0
40	0x00000000	0.0
41	0x00000000	0.0
42	0x00000000	0.0
43	0x00000000	0.0
44	0x00000000	0.0
45	0xb73b3807	-1.11591135e-05
46	0x00000000	0.0
47	0x2d5de22b	1.2612615e-11
48	0x11f2ffa9	3.833843e-28
49	0x00000000	0.0
50	0xb2d089f6	-2.4277124e-08
51	0x00000000	0.0
52	0x00000000	0.0
53	0x2f5fa530	2.0340418e-10
54	0x00000000	0.0
55	0x00000000	0.0
56	0x00000000	0.0
57	0x00000000	0.0
58	0xbb3ae027	-0.0028514953
59	0x00000000	0.0
60	0xa4f95322	-1.0812737e-16
61	0xa8081f37	-7.556285e-15
62	0x3662b2ae	3.378063e-06
63	0x2fb6704c	3.31854e-10
64	0x00000000	0.0
65	0x00000000	0.0
66	0xba19de80	-0.0005869642
67	0x00000000	0.0
68	0x1b423d27	1.6067063e-22
69	0xa9f83826	-1.10231526e-13
70	0xbca4fef0	-0.020141095
71	0x2b710fc8	8.56423e-13
72	0x00000000	0.0
73	0x00000000	0.0
74	0xa9b30c9f	-7.951386e-14
75	0xa26b0e54	-3.1856024e-18
76	0x2d803b43	1.4578233e-11
77	0x2a903264	2.5614504e-13
78	0x35b4cd4d	1.3470795e-06
79	0x00000000	0.0
