dl_computer_vision/assignments/1/checkpoints/best_checkpoint-v3.ckpt (torch, 168892 bytes, 27 tensors)

model.lstm.weight_ih_l0 f4 [128, 1]
00000000: 9547 e6bd cdab 0e3e 005a e73c 7c3b 253e
00000010: c22a 1c3e 0bb7 2e3e b000 9a3d 5f0d 0f3d
00000020: 7ecf 2b3e 21f1 073d 84e5 0b3d 48fe c93d
00000030: 4f09 9a3d 4046 bd3d fef2 c73d 1499 083d
00000040: d6d5 fa3d 8e5b 073e 7c2f 263e 5dee 2d3e
00000050: 7be6 9b3d 630c fb3c 2799 a93d e139 2c3e
00000060: 6d24 813d 2624 253e 1e2e 223e d7c2 9d3d
00000070: f44a e83c 620c 233e 8464 113d d24b 093e
00000080: b3b1 26be 983a 683d c0a5 3ebd 4c5a 16be
00000090: 324e 213e ad3b 173e e83c a8bd 2f9e 023e
000000a0: 6399 f2bd fba9 a33d 4f5b 20be e389 f9bc
000000b0: 22b4 2abe 590f c23d 2d0f 753d d664 1abe
000000c0: 0e35 f63d 135d abbd dcde 0abd 4795 be3d
000000d0: 95dc a33d 7fb1 18be 9e67 ebbc e718 ccbd
000000e0: 038b e43d 570c c9bd d922 14be 7719 21be
000000f0: df93 aa3d f66b 01be 08e6 d43d c758 99bd
00000100: b6ea 513d 93b0 9e3d 202b 023e 5ef3 f7bc
00000110: b44c ddbd 9c20 cbbd f154 2a3e 9097 16bd
00000120: 7761 293e df97 213e f695 833d a837 58bd
00000130: 9f08 1fbe 0a3f 0f3e dcc5 023e f192 04be
00000140: 5cba fd3d 37ab 5d3d 51ba e13d 1ee3 20be
00000150: cb32 1cbd efd6 e1bd f7e8 a03d cc11 04be
00000160: 29af 6d3d 3d67 17be 3096 b2bd 904e 31be
00000170: c1d9 17be b0b6 893d 0180 b8bd 7e15 dd3d
00000180: 2b7e 15be de83 073d c8b2 193e 2814 223e
00000190: ef80 f23c 50c9 2e3e 9f35 273e deab 853d
000001a0: b4e2 1f3d d9d0 e73d 3193 9d3d 5524 023e
000001b0: 0153 403d 4ad2 0c3e 7322 143d 8607 823d
000001c0: 7c86 1a3d e081 103d 6d3c 283e 2d05 153d
000001d0: 4861 223e b5f8 803d 8cba 103d 8762 cd3d
000001e0: 8b23 31be aca2 1c3e 4489 043d c6c0 7b3d
000001f0: 654f b33d 405f 163d eb68 1b3e 70df ff3c
-0.11244122 0.13932724 0.028241158 0.16135973 0.15250686 0.17062013 0.075196624 0.03492486
0.1677837 0.033188943 0.03415443 0.098629534 0.07521307 0.09241915 0.09763144 0.03334911
0.12247817 0.13218519 0.16229051 0.1698546 0.0761232 0.030645555 0.082811646 0.16818954
0.06305776 0.16127071 0.15837905 0.077031784 0.028356053 0.15922692 0.03549625 0.1340783
-0.16278724 0.056696504 -0.04654479 -0.14682883 0.15752485 0.14768858 -0.08214742 0.12755655
-0.118456624 0.079914056 -0.15659831 -0.030461257 -0.16670278 0.094755836 0.059828926 -0.15077528
0.12021838 -0.08367362 -0.03390394 0.09305816 0.08001057 -0.1491146 -0.028735932 -0.09965687
0.11159327 -0.09816807 -0.14466418 -0.1573237 0.083289854 -0.1263884 0.103954375 -0.07487636
0.05124923 0.077485226 0.12711763 -0.030267414 -0.108056456 -0.09918329 0.16633965 -0.036765635
0.16541086 0.1578059 0.06425087 -0.052787453 -0.15530632 0.13988891 0.1277079 -0.12946679
0.12389061 0.05411836 0.11021865 -0.15711638 -0.038134377 -0.110273235 0.078569345 -0.12897414
0.058028374 -0.14785476 -0.08720052 -0.17315125 -0.1482916 0.06724298 -0.0900879 0.10795115
-0.1459891 0.033084743 0.15009606 0.15828001 0.029602496 0.17068982 0.16329049 0.06526922
0.03903456 0.113191314 0.0769409 0.12709172 0.04695416 0.13752094 0.036165666 0.06349091
0.03772591 0.03528011 0.164293 0.03638189 0.15857422 0.06297437 0.035334155 0.10028558
-0.17298715 0.1529643 0.03235747 0.06146314 0.08755378 0.03671193 0.15176742 0.031234473

model.lstm.weight_hh_l0 f4 [128, 32]
00000000: 59d6 02be 2e32 963c ace2 e63d 1e0f 99bd
00000010: b652 bcbd 9b59 04be 4b1e 883d 957c 98bd
00000020: 0208 18bd 58fc a2bd d2f8 10bd 407d 5dbd
00000030: 338a 343d 64bc 853d 698d e4bc 6730 cebc
00000040: 30f7 a53d 686c 4c3d d229 003e bc24 de3d
00000050: 3137 893d 4c99 ec3d 2730 d4bd 67fb 20be
00000060: 6275 9dbc 716a de3b 1fcd 22be 90a1 c5bd
00000070: b509 20be 47d6 d63d 59e0 cfbd 9c71 e53d
00000080: 61a9 1ebe 2cbb e2bd 91b6 253e fb61 463c
00000090: 5afa 2f3e 2fbf 13be 1bd7 1bbc 16c1 d0bc
000000a0: a264 9e3d 344f 29be 2007 eabb d984 16be
000000b0: 40eb 423d fec2 24be eb58 62bd 8bee 9ebd
000000c0: 0cc3 babc 1fec 403d 76de b1bd 2370 babd
000000d0: d22e b13d e23a e1bd 25e6 abba 275d cebd
000000e0: b368 c0bd ca18 e33d a1e1 2dbd 2b01 3fbd
000000f0: 3129 8b3c a232 d13d d0c3 1c3c 4323 22be
00000100: f776 e7bd 22f3 ecbd 22a4 d53b b69e 253d
00000110: cb24 d03d e615 66bd d66e 2f3e d2dc b0bc
00000120: 3e9a 243e 1d38 f0bd ea6d 7dbd 0786 0cbe
00000130: c809 563d 7c49 20be 315f 0c3d 6788 0b3e
00000140: d68a cebd ffd4 d6bd bce3 ab3d eed9 14be
00000150: 6fde cb3c 5070 9ebd 0ac6 f83d f368 103e
00000160: cef0 ae3c e9c0 503d c664 dabd c3e4 3b3d
00000170: 53e1 b53d 3996 adbd e82d 333e d366 00be
00000180: a915 b83d 0dde f23d faaa a93c b0e6 1bbe
00000190: 8060 c6bd 152c 70bb 2a3f ce3c 3464 193e
000001a0: 30b2 04be abac 81bd 13f1 fc3d bee4 b23d
000001b0: 9a48 a93c 740c 1abe 07f9 d83d a79f 293e
000001c0: bd48 b63c 65a5 0bbe f222 f43d f86f d83d
000001d0: 8a02 febd 4a2a 00bd cca1 393c 7034 273e
000001e0: 0a35 123e 678c 883d 3452 153e 45b7 923d
000001f0: 44da e93c 714d 68bd e208 11bd ee37 d6bd
00000200: e5a3 263e 8edf 6c3d 7123 aabd 5f9c 053e
00000210: 9c34 febd 5207 bdbd b2f5 223e 631c 973d
00000220: 1c68 76bd b32b 933d 5297 8c3d 03b9 b83d
00000230: e5f9 b53c b63c ec3d fece 8cbd 1e55 0a3e
00000240: aad5 6e3d 82c9 23be 3144 e2bc dcd2 d33b
00000250: 0763 c7bd 6887 94bd 20d8 753d 3ecb 223e
00000260: 485e c4bc 1b62 cabd 0167 0abe 52d4 8c3d
00000270: e896 bbbc 6c2f f93d 359d 6a3d 2cef a4bb
00000280: 6ec5 7f3d 8483 1c3e fc57 71bc d724 233e
00000290: 9710 273e 0f81 18be afd3 1fbe b060 fd3d
000002a0: 78cb af3d f833 f8bd e284 2cbe de2d 5fbc
000002b0: 13c6 9ab9 5328 aabd 6cb9 a83d 7ab3 e8bd
000002c0: 7bc2 853d 7550 ab3d 36a2 cf3d 599c 24be
000002d0: 2f17 dd3d 7f13 53bd 7f3f ffbb 9e14 e63d
000002e0: b17c 843c 706a d9bd 1d23 0e3e 933d 19be
000002f0: 0909 673d 216a 1bbe 698c fabd 5392 03be
00000300: 4e9d af3d 9d43 ecbd e1ef b63d 2bd2 fbbd
00000310: 77ad 6bbd 1a7f ec3b 7576 d33d bfb4 0abe
00000320: 9f22 7a3d 9405 3c3d 8616 d3bd 9a8c 223e
00000330: da7a 6dbd 3c2a 773d eb0f 203e fffa a4bd
00000340: 1462 f4bd b275 d3bb 3717 d63c 60a4 003e
00000350: 7bf0 4c3d 0f10 63bc c2e4 b7bb ac53 223e
00000360: 0556 6c3d b0c9 3dbd b6a5 ff3c d4a1 f2bd
00000370: 21a1 2dbd a0ed b43d 629d 2abe 92b3 cebd
00000380: 3c59 3dbd b181 1ebe 22d7 553c 81aa 6fbc
00000390: 7a49 073d 29f5 a23d 399e 1b3e f117 b3bd
000003a0: dafe 223d f9b0 3bba 3037 253d bb43 03bd
000003b0: 9cdc d9bd 499a 173e 1082 bb3d 3ea3 003e
000003c0: c786 11be 300c f6bd 5c14 043e 7bb0 c4bc
000003d0: 9f4c 76bc c32f 84bd 6d49 d33d 3e90 a23d
000003e0: 35d5 043e 7c78 1339 a4bd ffbd 523d a7bd
000003f0: 93f5 22be 5a12 313e bfb5 1fbd 49f9 c33d
-0.1277708 0.018334474 0.11273703 -0.074735865 -0.09195463 -0.12924807 0.06646403 -0.07445637
-0.03711701 -0.07958287 -0.035393544 -0.054074526 0.04407711 0.06530073 -0.02789946 -0.025169564
0.08103788 0.04990807 0.12515953 0.1084685 0.0669998 0.115526766 -0.10360747 -0.15720902
-0.019221012 0.006787591 -0.1589856 -0.09649956 -0.15628703 0.10490089 -0.10150213 0.1120331
-0.154943 -0.110708565 0.16182925 0.012108321 0.17185345 -0.144284 -0.009511734 -0.025482696
0.07734038 -0.1653412 -0.0071419626 -0.14699115 0.047587633 -0.16090009 -0.05526058 -0.07760342
-0.022798084 0.047100183 -0.08685009 -0.0910342 0.086515084 -0.10997559 -0.0013114853 -0.10076361
-0.0939497 0.110887125 -0.042451505 -0.046631973 0.016987415 0.102147356 0.00956817 -0.15833764
-0.113019876 -0.115698114 0.0065198103 0.04043456 0.10163268 -0.056173228 0.17132124 -0.02158967
0.16074464 -0.11729453 -0.0618724 -0.13723002 0.052255422 -0.15653032 0.03427047 0.13626252
-0.100850746 -0.104898445 0.08393046 -0.14536259 0.024886338 -0.07736266 0.12147148 0.14102535
0.021355059 0.050965223 -0.10663752 0.04587246 0.08880868 -0.08475918 0.1749798 -0.12539224
0.08988506 0.11858759 0.02071141 -0.15224719 -0.09686375 -0.0036647369 0.025176603 0.1497963
-0.12958598 -0.06331762 0.12350669 0.08735035 0.020664502 -0.15043813 0.10594373 0.16564809
0.022251481 -0.13637312 0.11920728 0.10568231 -0.12402828 -0.03129033 0.011330079 0.16328597
0.14278045 0.066674046 0.14582139 0.07163862 0.02854646 -0.05671448 -0.035408862 -0.104598865
0.16273458 0.057830386 -0.08307541 0.13047932 -0.12412378 -0.09229912 0.15914038 0.07378461
-0.06015788 0.07186069 0.068647996 0.09019663 0.022213886 0.11535017 -0.06875418 0.13509032
0.058309235 -0.15994838 -0.027620407 0.0064643454 -0.09735685 -0.07252389 0.060020566 0.15897843
-0.023970738 -0.098819934 -0.13515855 0.068764344 -0.022899106 0.12167248 0.05727883 -0.0050333943
0.062444143 0.15284544 -0.01473045 0.15932022 0.16314922 -0.14892982 -0.15608095 0.12371957
0.085837305 -0.12119287 -0.16847566 -0.013621775 -0.00029520746 -0.083084725 0.082384914 -0.113623574
0.06531235 0.08364955 0.10138361 -0.16075267 0.107954375 -0.051532265 -0.0077895517 0.11234401
0.016172739 -0.106160045 0.13880582 -0.14964895 0.0564051 -0.15177204 -0.12233812 -0.12848787
0.08574925 -0.11536334 0.08932472 -0.12295946 -0.057538476 0.0072173 0.10325328 -0.13545512
0.061068173 0.045903757 -0.103070304 0.15873948 -0.05797849 0.060343012 0.15631072 -0.08055686
-0.119327694 -0.0064532394 0.026134117 0.12562704 0.050034028 -0.013858809 -0.005611987 0.15852231
0.057699222 -0.046334922 0.031206947 -0.118472725 -0.042389993 0.08834386 -0.166616 -0.10092844
-0.04622768 -0.15479161 0.01305178 -0.014628054 0.033029057 0.07956917 0.15197076 -0.08744801
0.039793827 -0.0007159855 0.040335834 -0.032047015 -0.10637781 0.14804949 0.09155667 0.12562272
-0.1421157 -0.12014043 0.12898391 -0.024009934 -0.015032916 -0.06454422 0.10316739 0.07937668
0.12971957 0.00014063896 -0.12487343 -0.08165993 -0.15913992 0.17292157 -0.038991686 0.09569032

model.lstm.bias_ih_l0 f4 [128]
00000000: 27e0 a7bd 7074 fdbd 650f 073e 6035 d8bd
00000010: b8ad 07be 759a eabd fe3b 8fbd e755 b33c
00000020: f791 2abe 5986 8d3e 50ba a6bc ff83 92bd
00000030: 12c3 e2bd ec6d 283e 90b7 d83d 7f9a 503e
00000040: 99bd 4d3d 5a7b ce3d e0b8 0a3e 914a 223e
00000050: fcdf 89bd d0ce 11bc 31c0 243e e421 f5bd
00000060: 5126 f9bd c16b 89bd 2360 e23d 5d12 54bd
00000070: 1397 333e f3c9 c3bd 06a7 c0bc 4c1e 183e
00000080: 9344 57bd e1f3 cf3d fb98 9ebd 32f2 373b
00000090: fef3 083e df86 fb3d e826 5fbd 91ed 35bd
000000a0: 57d6 043e 8ae4 22be e15d f2bd a804 9bbc
000000b0: 136d 293e 1e4e ca3d 264b 16bb 2d1f 3a3d
000000c0: 001d 963d 1c9f 4ebd 4d83 26be f649 ab3c
000000d0: 3756 52bd f63d 113d 18f2 2cbd 9151 e5bd
000000e0: e0da 9e3d 762e a5bb f26f 1bbe 603d 933d
000000f0: 2eb1 1d3e 90cb 073d ec11 bb3d 012a ea3d
00000100: 08d6 743c 4be5 03be ff25 fbbd 475a 42be
00000110: d628 a7bc c9ec 303e 8869 b83d dee9 903d
00000120: 3fbd c1bb 63bc 01be d32f f2bd 8bee d93d
00000130: d0a9 cdbd b219 193e 44c8 79bd 783e 10be
00000140: 487f 1d3d b68b 1d3e 9c57 e3bd 0227 05be
00000150: 6f76 f73d ff56 a53d 9add ba3d ca07 283e
00000160: 1960 d1bc 95c1 12be a8b6 ee3d 4b0c 863c
00000170: f0b7 ce3d f19d f33d 8f75 dbbd fe0a 333d
00000180: 47b9 c1bc e6b7 313e bc44 01be c6f8 893d
00000190: b349 db3d a6fa 2bbd bc4a 76bd 5124 00bd
000001a0: e2bf b0ba 9215 13bd 10df 983d e7fa 08be
000001b0: 4d52 c1bd 1c78 cebd d793 153e d3ca a93d
000001c0: b0b9 633e cb04 7bbb c4a2 31be a5d7 393e
000001d0: 5d75 133e d611 813e b89b 8b3d 4141 16bd
000001e0: 8c50 f3bd 45c2 c13d 8c48 443e e32f b0bd
000001f0: 4301 98bd b967 f53c 80d6 88bd 1a62 8e3e
-0.081970505 -0.12375724 0.13189466 -0.105570555 -0.13249862 -0.114552416 -0.069938645 0.021891547
-0.16657244 0.27641562 -0.020352513 -0.071540825 -0.11072363 0.16448182 0.10581887 0.20371436
0.050229643 0.10082121 0.13547087 0.15848757 -0.06732175 -0.008899406 0.1608894 -0.11969355
-0.121655114 -0.067100056 0.11053493 -0.051775325 0.17538099 -0.09560003 -0.023517143 0.14855307
-0.05255563 0.10153938 -0.077440225 0.0028067944 0.13374326 0.12281584 -0.054480463 -0.044416014
0.12972389 -0.15907493 -0.11834312 -0.018923119 0.16545515 0.09878181 -0.0022932976 0.045439888
0.0732975 -0.050444707 -0.16261025 0.02090929 -0.051351752 0.03545948 -0.042223066 -0.11197198
0.07756591 -0.005040939 -0.15179422 0.07189441 0.1539962 0.033153117 0.09134278 0.11433793
0.014943607 -0.12880437 -0.122631066 -0.1897975 -0.020405214 0.17277826 0.090045035 0.070758566
-0.0059124525 -0.1266952 -0.11825528 0.106412016 -0.10042155 0.14951208 -0.060982004 -0.1408633
0.038451463 0.15385327 -0.111006945 -0.13003162 0.12083136 0.08073234 0.091242984 0.16409221
-0.025558518 -0.14331658 0.11655933 0.016363284 0.10093677 0.11895359 -0.10715782 0.043711655
-0.023647917 0.17355308 -0.12623876 0.06736903 0.107074164 -0.041987084 -0.060129866 -0.031284634
-0.001348492 -0.035909243 0.07464421 -0.13376962 -0.09439526 -0.10081503 0.14607178 0.08290639
0.22238803 -0.0038302417 -0.17347246 0.18148668 0.1440024 0.2520892 0.0681681 -0.036683325
-0.118805975 0.09460882 0.191683 -0.08602884 -0.07422116 0.029956685 -0.06681538 0.2780922

model.lstm.bias_hh_l0 f4 [128]
00000000: dcc0 06be 8b32 113d 3932 de3d 9dee 403c
00000010: a889 05be 37a2 0a3e f2d5 fc3d ed53 f03d
00000020: d40a 833d 0241 683e 46de 963d e387 01be
00000030: 72c3 82bd db1a d83d a9c9 523d 6463 033e
00000040: 301e 193d 1e49 543d ce61 c6bd 6ff7 853d
00000050: 3603 0dbe 5f22 4c3e 4f85 c0bd 6fa4 c93d
00000060: 780d 7b3d 6d0c 1f3d be8a d93d 5cc6 5b3e
00000070: 3c11 f93c 8b75 413e 38a0 5a3e b388 e83c
00000080: 5361 003e eea5 07bd 3d28 30be e929 5fbd
00000090: cf66 4e3d 3c6c 15bc bb19 863b 0a0c fabd
000000a0: d153 1dbd 9771 b9bd d448 a63d c789 ef3d
000000b0: 1b94 b53d fc69 d3bd a4c5 a0bd 8dd8 ff3d
000000c0: df9e 043e 1674 373d 1bb5 16bd c8db 30be
000000d0: 0b81 9a3d 527b 9c3d 4217 013d c2fe 29be
000000e0: 660f ffbd 7097 183d 597e 5abc 872e 933d
000000f0: 01af bd3d 1449 22bd 353b 323e 564d 90bd
00000100: 10db 203e 820d 133e 68b3 91bb 4db7 9a3d
00000110: 0a37 21be 788f 563d e911 81bd 7c95 1c3c
00000120: 33ef b9bd 9162 2bbe 3b16 dd3d f036 47bd
00000130: 96b0 82bd 15d9 393d 914c fbbd 8763 62bd
00000140: a96c 333b 48b6 38bd c00e dcbd 1c2c e1bd
00000150: 53b6 20be 00c7 b23d 79c3 163e c65d edbd
00000160: 9ad0 10bd 07a3 b63c d13b a4bd c174 f83c
00000170: a169 1ebd a0eb 1dbd b9eb 17bd 75f8 963d
00000180: e3e2 33be 649b 073e 55ba 98bc 2999 1f3e
00000190: 9d08 ef3d a2bf 2a3c 9e1c cabc b4b8 d93d
000001a0: 74ad b43d 8b94 5a3d e3d3 043e 2cea 73bc
000001b0: 8b2c 143e 9354 c43d 4350 433e 995f c63a
000001c0: 3444 c63d 7ad2 3a3e c130 98bc 4b2e 5f3b
000001d0: 4699 333c 0372 67bd d69f 1b3d ff0a 183d
000001e0: 3809 043e a293 243e 6c8c 05bc 8e24 ba3d
000001f0: 1204 92bd 2cf6 7b3e a6cd 0a3e a30d 633d
-0.13159508 0.035448592 0.10849423 0.01177564 -0.13040793 0.13538443 0.12345494 0.117347576
0.0639855 0.22681049 0.07366614 -0.12649493 -0.063849345 0.10551997 0.05146185 0.12830883
0.037382305 0.051827542 -0.096866235 0.06541335 -0.13770756 0.19934987 -0.094004266 0.09845816
0.06129214 0.03883021 0.10622166 0.21462387 0.030403726 0.18892495 0.21350181 0.028385496
0.12537126 -0.033117227 -0.1720285 -0.054483328 0.050391015 -0.009120043 0.004092423 -0.122093275
-0.03841001 -0.09054869 0.081193596 0.11696201 0.088661395 -0.10322949 -0.07850197 0.12492476
0.1295123 0.044788443 -0.03679381 -0.1727134 0.07544144 0.07640709 0.03151632 -0.16601089
-0.12454109 0.037253797 -0.013335788 0.07186609 0.09261895 -0.039620474 0.17405398 -0.07046001
0.15708566 0.14360622 -0.0044464357 0.07554493 -0.15743652 0.052382916 -0.06302244 0.009557124
-0.09078827 -0.16736819 0.10795256 -0.048636377 -0.06381337 0.04537304 -0.12270463 -0.055270698
0.0027378 -0.045095712 -0.10745001 -0.10994741 -0.15694551 0.087293625 0.14723004 -0.115901515
-0.035355188 0.022294534 -0.080192216 0.03032911 -0.038674954 -0.038554788 -0.037090037 0.07371608
-0.17567019 0.1324287 -0.018643538 0.1558577 0.11671565 0.010421665 -0.024671849 0.106309325
0.08822146 0.053364318 0.12971453 -0.014887374 0.14470117 0.09586444 0.19073586 0.0015134691
0.096809775 0.18244353 -0.018577935 0.0034054692 0.010961836 -0.056505214 0.03799423 0.03711986
0.12894142 0.16071942 -0.008151155 0.090890035 -0.071296826 0.24605626 0.13555011 0.055432927

model.lstm.weight_ih_l1 f4 [128, 32]
00000000: 3aef 3a3c 3ef7 b13e 43b7 d13e fb37 7cbd
00000010: be9c 92be f4cd 02be 9c98 893e 3e0d a3be
00000020: 17cd 993e e0c6 af3e 3721 813e fd01 a2be
00000030: f7a2 37be e2f0 913d a26f be3e cb7f c0bd
00000040: a47d b33e 441f bc3d 3eec 173e cfc5 efbe
00000050: c722 8ebe ea6d 85be e81b 253e 1acf 7fbe
00000060: 9fa3 473d 41f7 88bd 4dcb 91be cfe5 8bbe
00000070: 671c fbbd 4378 183e 498a a7bd 5a31 8d3e
00000080: 9212 bd3d f056 a73e 7f4f 8a3e d979 e1bd
00000090: cc16 cbbe 6a3a 9dbe 1efb 093e 9a77 63be
000000a0: 0a04 063e 0f2b 893e 7a99 203d 96f5 f5bd
000000b0: 7f57 30be 110d 3f3e 71d8 243e 3b8c bebe
000000c0: 9385 7b3e 9eec 5a3e 5910 a03e 2e5d d0be
000000d0: 115c 28bd 0466 9abe ecac 413e e8b1 a3be
000000e0: 1eae 413d b865 0bbe 8e82 86be a84e 79be
000000f0: 89ac 7abe ce16 263e 106d 85be 6d8f de3e
00000100: 618b 65bd 811d 2a3e b6d0 bb3e d017 95be
00000110: 4040 89be 8308 95be 0ec2 713e c1c5 91be
00000120: f7ec ad3e 3531 9e3e 0fe1 5c3d 37b5 afbe
00000130: e723 41be 0715 423e 9133 a83e 4904 55be
00000140: 550c 8f3e 8bb1 923e 35d0 483e 0be3 4cbe
00000150: 3314 b2bd 409d c3be 7be6 a93e 5b8d 83be
00000160: db70 5dbd 5f33 a8bd 68aa 48be bfa2 d8bd
00000170: b146 93be 5d5c 6b3e 6c8c a5bd 8d1b d13e
00000180: 0551 3c3d fe43 993e 6aec ef3e 3ddb f9bd
00000190: 5cd2 6abe 8bb2 a5be 96c6 7b3e 5db3 bebd
000001a0: 8d0b 5e3e 4d7c c83e a159 723d 58fd 94be
000001b0: 50f8 80be 7ec6 933e ae59 c03e 61e2 86be
000001c0: aa82 803e a7e1 a73e 42e1 693e d85d d8be
000001d0: 7e53 48be a167 bdbd 8e36 a53e 2c4d a9be
000001e0: adb8 88bd 210d b6be e88d 22be fc79 41be
000001f0: 81fd a4be 90fc 233e 5a38 82be c298 e63e
00000200: abf8 323e 2b04 543e f611 413e a6b3 34bd
00000210: ccd5 82be 731e 7ebe 9c06 633d 71c3 3ebe
00000220: 1e0d 713e 7fe7 833e 6bfa 0a3e cc79 ffbd
00000230: 9187 a6be ac52 123d db48 273e a88e 57be
00000240: 6bc8 623e 4d72 b43e 58ea cc3d 3798 97be
00000250: d282 0cbe 28f3 41be 54cf 613e fce8 a0be
00000260: 846a a33c 7f5f 4ebe 8bfe 93be d2fc acbe
00000270: 47e1 e4be 8941 733e 28a6 75bd 2f3d e93e
00000280: ccd7 dbbd 119c 3c3e c112 bf3e ca77 e4bc
00000290: 6c82 d6be b3fa 1dbe a90c 633d 9546 87be
000002a0: c547 873e 7ffc 613d 68bd 3e3d 1e45 a5be
000002b0: 5bb3 0fbe aca4 b03e 3863 c33e f0e4 30be
000002c0: 2918 8c3e f936 393e 0c04 6d3e 2b62 c8be
000002d0: c6cd 6ebe a1db c7be 7dac c63d b084 8abe
000002e0: 8235 06bd 0ba0 d4bc 7a1b d1be e2c0 39be
000002f0: 719d 9cbe b1cc 893d 571e 70be 06d4 cf3e
00000300: 3e55 323d 9f05 2f3e 4bd5 233e 5817 20be
00000310: 600e 92be f912 98be 22fb 223d f3d5 60bd
00000320: bf01 be3e 9ce4 e53d 5623 a43e d38c 40bd
00000330: 4552 2bbe d2e2 a53e d871 853e 6955 8bbe
00000340: 2809 9a3d 8abf e03d 2212 583d dece 9bbe
00000350: 38ff 6fbe 83c3 b5be 4a02 7c3e 22a7 51bd
00000360: 8ff1 033e b971 1ebe bf35 42be 7352 a8be
00000370: 6ebd 4abe 7644 933e 7fd0 d8bd f4df d13e
00000380: 97a0 61bc 0bca 6c3e 69b2 923e 976c d0bd
00000390: 2ba3 87be 973e 92be 131d 4e3d b670 78bd
000003a0: 91db 593e b402 953e 41d5 a23e 02a9 49be
000003b0: 3ca5 86be cbe6 c63e cb35 893e 4062 86be
000003c0: 1c88 dd3d d111 903e fef8 083e 530f 95be
000003d0: af9a 47be 32ba 3ebe a642 803e 0894 28be
000003e0: 6dd3 93bd 42c1 27be bdbf 94be 1c19 abbe
000003f0: 56a6 b3be 6548 ac3e 5b66 15be 645e c03e
0.011409575 0.34758943 0.4096013 -0.061576825 -0.2863521 -0.12773877 0.26874244 -0.3184604
0.30039284 0.34331417 0.25220653 -0.31642142 -0.1793326 0.07126023 0.37194544 -0.093993746
0.35056794 0.09185651 0.14836213 -0.46830603 -0.27760908 -0.2606042 0.16123927 -0.24981347
0.048740026 -0.06687785 -0.2847542 -0.27323768 -0.12261277 0.14889626 -0.08180673 0.27576715
0.09232058 0.32683516 0.27013776 -0.11009569 -0.3966583 -0.3070863 0.134747 -0.22213593
0.13087478 0.26790664 0.039208867 -0.120097324 -0.17220877 0.18657328 0.16098191 -0.37216362
0.24562673 0.21379325 0.31262472 -0.4069609 -0.041103426 -0.30155957 0.1891362 -0.3197167
0.04728519 -0.13613021 -0.2627148 -0.24346411 -0.2447988 0.16219637 -0.2605977 0.434688
-0.056041125 0.16612817 0.3668267 -0.2911973 -0.2680683 -0.29108056 0.23609182 -0.28471187
0.33969852 0.30896917 0.05392557 -0.34317943 -0.18861352 0.18953334 0.32851842 -0.20802416
0.27939096 0.2865108 0.19610675 -0.20008485 -0.08695259 -0.3820591 0.33183655 -0.25693783
-0.054062705 -0.08212923 -0.19596255 -0.10577916 -0.2876487 0.22984453 -0.08083424 0.40841332
0.045975704 0.29934686 0.46860057 -0.122000195 -0.22931808 -0.3236278 0.24587473 -0.093115546
0.21684094 0.39157334 0.059167508 -0.29099536 -0.25189447 0.28862375 0.3756842 -0.26344588
0.2509969 0.32789347 0.22839835 -0.42259097 -0.195631 -0.09248281 0.32268184 -0.3306669
-0.06675849 -0.35556892 -0.15874445 -0.1889419 -0.32224658 0.16014314 -0.25433618 0.4503842
0.17477672 0.20704715 0.18854508 -0.04411664 -0.2555374 -0.24816303 0.055426225 -0.18629242
0.2354016 0.25762555 0.1357209 -0.12474403 -0.32525304 0.035723373 0.16336386 -0.21050513
0.22146766 0.35243455 0.10005635 -0.29608318 -0.13721779 -0.18940413 0.22051746 -0.31427753
0.019948252 -0.20153616 -0.28905138 -0.33786637 -0.44703123 0.23755468 -0.059972912 0.45554492
-0.10734519 0.1841891 0.37318996 -0.027889151 -0.4189638 -0.15427665 0.055431996 -0.26421037
0.26421943 0.05517244 0.04656735 -0.32279295 -0.14033262 0.34500635 0.38161635 -0.17274833
0.27362183 0.18087377 0.23146075 -0.39137396 -0.23320684 -0.3903475 0.09700868 -0.27054358
-0.032765873 -0.02595522 -0.40841275 -0.18139985 -0.30588868 0.06728495 -0.23449074 0.4059145
0.043538325 0.17091988 0.15999334 -0.15633905 -0.28526592 -0.29701975 0.03979028 -0.054891538
0.37110707 0.112252444 0.3205821 -0.0470093 -0.16730602 0.32399613 0.26063418 -0.272136
0.07521278 0.10974033 0.052751668 -0.30431265 -0.23437202 -0.35500726 0.24610248 -0.05118478
0.12885116 -0.15473069 -0.18965815 -0.32875404 -0.19798824 0.2876317 -0.105866425 0.40991175
-0.013771198 0.23123948 0.2865174 -0.10176962 -0.26491675 -0.28563377 0.050320696 -0.060654365
0.21275164 0.29103625 0.31803325 -0.19693378 -0.2629794 0.38847956 0.26798853 -0.26246834
0.108169764 0.28138593 0.13376233 -0.29113254 -0.19492601 -0.18625715 0.2505085 -0.1646272
-0.07218061 -0.16382316 -0.29052535 -0.33417594 -0.35087842 0.33648983 -0.14589827 0.37572014

model.lstm.weight_hh_l1 f4 [128, 32]
00000000: b1ee 9f3c f756 12be 6667 f3bd 0013 bfbd
00000010: d878 67bd af3a d8bd c9cf bdbc 9fa3 1fbe
00000020: cf81 c9bd 47d4 1b3e d1b4 acbd d0e8 883c
00000030: f65b 9dbd 7408 0ebc 9c11 7e3d 708c e8bc
00000040: e061 2a3e e694 bf3d b17d aebd 16eb 22be
00000050: ec58 1a3e a18a bcbd 5ea6 2d3e 39cf f53d
00000060: be4c 1cbe 2762 843d e540 16be 10df 043e
00000070: 9bf8 e93d b23e 4a3c a0d0 8d3d 310c 1bbe
00000080: 44e2 563d 90ca e03d 19dd 633d d13a dabd
00000090: 0d7b 8d3d e286 1a3e 1450 1a3d c1d1 723c
000000a0: d3af 84bc a042 7f3d e9f3 08be 227e 273e
000000b0: 9001 443d 3fbe cebd 88ab 29bd 5159 00be
000000c0: 5033 2b3d 9649 6b3d 22f8 1dbd 0c8f 283e
000000d0: 865f 9a3d 83de 103e f8ec da3d 3b35 39bd
000000e0: fc33 d03d d3a5 88bd 7731 1f3e 2343 23be
000000f0: 15d5 703c 6e6e 26be 282a a6bd 298f 18be
00000100: ee76 6f3d 6fb7 003e b607 cebd 7247 0b3d
00000110: d614 2c3d 284c b7bc a11b 19be e333 2bbe
00000120: 9392 26bd 80c1 2dbc 91c4 03be e26b f739
00000130: 6d60 9ebd 8697 ef3d 540d d43d 1ecd 2bbe
00000140: 6d81 ca3b 305b 323d 1ddc b0bc b8d6 193b
00000150: 323f 013e 0ea6 51bd 52d4 ff3d dd34 e13d
00000160: 526d e1bc efe8 16be e4ee 1f3d 96e5 9fbc
00000170: 8981 15be 3b10 c9bc 2b3d fd3d a881 e93d
00000180: 3d6c 9a3d 7a86 08be 0ec4 1bbe aa57 b0bd
00000190: 4634 2abe a14b 173e 14dd 1fbe 5790 013e
000001a0: 8379 bcbd dc98 013d 0d4e 30bd d9f0 1fbe
000001b0: d7d6 603d c0f9 adbd cb81 963d b6d2 9bbd
000001c0: 6180 7ebd c4ff 2b3e cab9 55bd e32e a6bd
000001d0: f004 233e bb73 09be f2bb d73a 9dae 09be
000001e0: 5950 033e 20a1 083e da5c b93c bb19 c9bc
000001f0: bd3e 4f3d ba1d 273e 0fe0 1cbe 67b5 26be
00000200: 3ce9 70bc e011 0cbe 4861 6ebd 4a3e 1ebe
00000210: b9dd e8bb 95a7 c9bd 6c06 183e fbbc 8d3d
00000220: b4e4 33be 31fc e5bd e925 143e 3ac3 1c3e
00000230: fc73 bf3d 99ef 433d ac9d 093e faa6 233e
00000240: af58 c13d 018a 28be 3eca dc3d d8db cebd
00000250: 78b9 04be 5794 17be f580 74bd f6aa 90bd
00000260: f231 73bd 7df4 733d 6d5d 793d 694c 323e
00000270: db19 543d 0720 2fbd 6f7c b23d ac3e 34be
00000280: ff60 c03d ac72 31be 047b 223e 5173 1dbe
00000290: bd3b 31be 45fa 03be d5fd 04be 4f39 d2bc
000002a0: 62fb 213e ecd9 21be c9f8 0c3e d640 e6bd
000002b0: d33f e53a 33f5 dc3d ebd7 41bd 31e9 22be
000002c0: dfd1 cdbc c336 113e 6e5f d6bd ae26 063d
000002d0: b136 663c 24b9 1d3e 2828 0b3e 9ae8 c1bc
000002e0: 05ca 043e 7f70 8f3d 9d13 28be 2eb2 a1bd
000002f0: 222e 1e3e d20d eebd ef96 60bd 466c 2d3d
00000300: a622 e6bd eeeb 773d 7a00 12be 59ee 183e
00000310: b345 df3d a400 15bd 01fe f03d 7ecd fb3d
00000320: 4275 e0bd 6518 f4bd 7230 573d 76b2 e8bd
00000330: 5420 de3d 0117 eb3b 6572 013e b8d5 003d
00000340: 56c7 d7bd 246b ddbd bcdb a7bc 3869 0ebe
00000350: 2ac1 323e 9fab 2ebd 887a b4bd e267 cd3d
00000360: f025 51bc ecaf 06be 4c10 8f3c 3b04 f6bc
00000370: 8144 1a3e 3564 6cbd bd30 483d 0b23 86bd
00000380: 5a58 98bc b32b 11be 7be1 27be dd04 6f3b
00000390: d745 683d bcc3 9f3c 239f 363b 71f9 8abd
000003a0: c2b5 02bc a8ca 05be d5c6 b4bc 1f54 c7bc
000003b0: 1bad 073e df96 21be b05b d3bd 8fa3 6c3d
000003c0: a467 f73b 5e59 19be a136 bdbd 9a35 babd
000003d0: 9a68 5fbd 23c2 093d 1c40 cf3c 78f5 cb3d
000003e0: c817 0bbe 7b63 e23c 5af7 80bc 9674 91bd
000003f0: 426b 1cbe 4b42 153d 17b2 a13d 4704 a53d
0.019522997 -0.14290987 -0.11884956 -0.09329796 -0.05651173 -0.10558068 -0.023170369 -0.1558976
-0.09839212 0.15217696 -0.084329255 0.016712576 -0.07683556 -0.008669008 0.062028512 -0.028387278
0.16638899 0.09354572 -0.085200675 -0.1590999 0.15072984 -0.09206129 0.16957995 0.12002415
-0.1526365 0.064640336 -0.14673193 0.12975717 0.11424371 0.012344049 0.06924558 -0.1514137
0.052461877 0.10976136 0.055630777 -0.106557496 0.06908236 0.15090516 0.037674025 0.014820517
-0.01619712 0.062319398 -0.13374294 0.1635671 0.047853053 -0.1009488 -0.04142335 -0.12534072
0.041796982 0.057443224 -0.038566716 0.16460818 0.07537751 0.14147381 0.106897295 -0.04521678
0.10166165 -0.066722535 0.15546213 -0.1594358 0.01469924 -0.16253063 -0.081135094 -0.14898361
0.05846303 0.12569974 -0.100600645 0.034003682 0.04201206 -0.022375181 -0.14951946 -0.16719012
-0.040667128 -0.010605216 -0.12867953 0.0004719189 -0.077332355 0.11698823 0.10354105 -0.16777465
0.0061799795 0.043543994 -0.021589333 0.002347393 0.12621763 -0.051183753 0.12491669 0.10996411
-0.027517948 -0.14737295 0.039046183 -0.019518655 -0.14600195 -0.024543872 0.123651825 0.11401683
0.07540176 -0.13332549 -0.15211508 -0.086104706 -0.16621503 0.14774944 -0.15611678 0.12652718
-0.09202864 0.03163992 -0.043043185 -0.1561922 0.054892387 -0.08494902 0.07348975 -0.07608549
-0.06213415 0.16796786 -0.052179135 -0.08114412 0.15919852 -0.13423054 0.001645921 -0.13445516
0.12823619 0.13342714 0.022627283 -0.024548402 0.05059694 0.16319934 -0.15319847 -0.16280137
-0.014704045 -0.13678694 -0.058198243 -0.15453449 -0.0071065095 -0.09846417 0.148462 0.06920811
-0.17567712 -0.11229742 0.14467587 0.15308848 0.09348294 0.04783592 0.13439053 0.15981665
0.09440743 -0.16458894 0.10780762 -0.101005256 -0.12961376 -0.14802681 -0.059693296 -0.07063858
-0.059373803 0.059559334 0.060880113 0.1741196 0.05178247 -0.042755153 0.0871514 -0.17602032
0.093935005 -0.173289 0.15867239 -0.15376021 -0.17307945 -0.12888439 -0.12987454 -0.025662092
0.15818551 -0.15805787 0.13766779 -0.11242835 0.0017490335 0.107889555 -0.047325056 -0.15909268
-0.025124488 0.14181046 -0.104674205 0.03275173 0.014051125 0.15402657 0.13589537 -0.023670483
0.1296769 0.07003879 -0.16413732 -0.07895313 0.15447286 -0.1162373 -0.05483144 0.042339586
-0.112370774 0.060527734 -0.14257994 0.14934672 0.10901966 -0.036377564 0.117671974 0.12295054
-0.10959865 -0.119187154 0.052536435 -0.11362164 0.1084601 0.007174373 0.12641294 0.031453818
-0.10536067 -0.10811451 -0.02049052 -0.13907325 0.17456499 -0.04264414 -0.088124335 0.1002958
-0.012765393 -0.13153046 0.017463826 -0.030031314 0.15065195 -0.057712752 0.048874605 -0.06549653
-0.018596817 -0.14176826 -0.16394608 0.0036471405 0.05670723 0.019502513 0.002786585 -0.067858584
-0.007977905 -0.13065588 -0.022067467 -0.024332104 0.13249628 -0.15780209 -0.103202224 0.05777317
0.0075501967 -0.14975497 -0.09238935 -0.09092255 -0.054543115 0.03363241 0.025299124 0.09958929
-0.1358329 0.027635327 -0.015742946 -0.07102315 -0.1527529 0.036440175 0.07895296 0.080574565

model.lstm.bias_ih_l1 f4 [128]
00000000: e8e9 ab3e 4655 f13d 60c1 743e b673 b03e
00000010: 9348 763e 6f43 873e 62fc f33d d441 163e
00000020: 13b1 af3e 04fe 993e a318 af3e b6b4 6e3e
00000030: 240f 403e 17dd 183e 1946 be3e 6d6a 9e3d
00000040: 38fc ab3e 14fb 153e f1c4 d13e 9864 683e
00000050: cd04 4a3e aeba 883e 3c81 993e 2f8f 483d
00000060: e47e a53e efee 813e 509d a23d 949c ad3e
00000070: 9bb7 453e dacd c23e 0525 763e dcb6 343e
00000080: 47b4 1c3d c75d dcbd d26a 833c 734e b6bd
00000090: f07b 36bd 6b6d cd3d 2931 0e3e f706 30bd
000000a0: e10d efbb 4f28 1c3e e91e d13d 64da 4fbc
000000b0: 22cb 3abc 1844 643c 1549 a8bd a4fb 433d
000000c0: 7ac6 b9bb 91cf c93d 8a20 37bc bc46 fbbd
000000d0: 8ae2 153e 6efd bbbd c61d 963d e5a8 183d
000000e0: faca c23d 7311 01bd 2fa8 1ebd 56be e93c
000000f0: 1744 49bd 1120 ebbc ff28 b8bd 3254 343d
00000100: 4a69 293e 0ac0 9cbd 9954 ad3c ddf1 4dbe
00000110: a189 be3d 6d08 0f3e 81c3 4a3e 5618 ecbd
00000120: 8b1b a3bd 388e 21be b6f2 793c c67b 0ebe
00000130: ecad 89bc 0013 91be 4512 8abe 7112 9f3d
00000140: 0107 373d 29f7 21be 1056 9a3e 1439 c4bb
00000150: 80b0 833e 7812 e8bd 4c5e a3bd 20c7 8ebe
00000160: 753f 5cbe 9928 16be f193 0bbd ac8b 063d
00000170: ac12 c2bd 70b6 2fbe a9c8 b33c c1f5 b93c
00000180: 496b 9a3e 395b 913e 8658 bf3e 9ef8 853e
00000190: 6869 793e afaa b33e 87b6 cd3d f440 cb3e
000001a0: fb5b 6d3e 0fca ce3e 2238 ae3d 4c3f da3d
000001b0: 6036 d63e f921 3d3e da86 113e 747c 973e
000001c0: 5e27 663e e212 343d 72a0 583e 5aff a43d
000001d0: 7ed6 9b3d bb33 7c3e 8b7e d23d 6ee5 b03e
000001e0: 402b 753d 3efe 563e c70a ad3e 0668 8d3e
000001f0: fc2e 833d 390b a23e b4b1 013e c1ee 8b3e
0.33576894 0.11783843 0.23901892 0.3446328 0.24051122 0.26418635 0.119133726 0.14673549
0.34314784 0.3007661 0.34198484 0.23311123 0.18755776 0.14928089 0.37162855 0.07735143
0.33590865 0.1464656 0.40970567 0.22694623 0.19728394 0.26704925 0.2998141 0.048964676
0.32323372 0.25377604 0.07940161 0.33908522 0.19308321 0.38047677 0.2403756 0.1764788
0.038257863 -0.10760074 0.016042147 -0.08901682 -0.04455179 0.100306354 0.1388594 -0.042975392
-0.0072953557 0.15249752 0.10210974 -0.012686346 -0.01140097 0.01393225 -0.08217064 0.047847405
-0.005669412 0.09854043 -0.0111771915 -0.12269351 0.14637199 -0.09179197 0.073298976 0.037270445
0.09511371 -0.03151078 -0.03873461 0.028533142 -0.0491372 -0.028701814 -0.089921944 0.044025607
0.16544071 -0.07653816 0.021158503 -0.20111795 0.093035944 0.13968058 0.19801141 -0.11528079
-0.07964238 -0.15776908 0.015255621 -0.13914403 -0.016806565 -0.28334808 -0.26967064 0.07767189
0.044684414 -0.1581694 0.30143785 -0.0059882496 0.25720596 -0.11331648 -0.0797697 -0.27886295
-0.21508582 -0.14663924 -0.034076635 0.032848045 -0.09476218 -0.17159438 0.021946268 0.022700192
0.30159977 0.2838991 0.37372226 0.26166242 0.24356616 0.3509116 0.1004458 0.39697993
0.23179619 0.40388533 0.085068 0.10656604 0.4183836 0.18469991 0.14211598 0.29587138
0.22475955 0.04396332 0.21154955 0.08056517 0.076092705 0.24629109 0.102780424 0.3455004
0.0598557 0.20995423 0.33797285 0.27618426 0.06405446 0.31649187 0.12665445 0.27330592

model.lstm.bias_hh_l1 f4 [128]
00000000: e322 db3d 2a48 cb3e e72d 163e 72b1 913d
00000010: 273d 9c3e 1a9d 2a3e 2ced 8b3e 23b1 ce3d
00000020: 440a 313e 9afc ab3d b5d7 783d 4ad0 a53e
00000030: 226d 943e bf9b e63c 5c69 513d cca3 ab3e
00000040: b6dd 963e 26b2 b93d db5d b13e 01b3 9c3e
00000050: 1ad3 143e 6f9d a03e 00b7 143e f727 ba3e
00000060: ff01 5c3e 8a43 6f3e 1ec7 823e c2a2 a93e
00000070: 9a68 ad3e 9d88 743d 23bd b73e a800 963e
00000080: 090b eebd 79e7 4bbd 3626 30be 18be dbbc
00000090: ed26 d63d e71f 13be 90a4 023e c1ae ce3d
000000a0: b1f6 93bd a8f7 523c fe2f 32be d704 a5bd
000000b0: 2a87 bdbd d4d2 1c3e 632a edbd 9dba b03d
000000c0: 9922 1ebe 29ad 65bd 36ff f6bd 3528 19be
000000d0: 4124 5fbd 5076 1fbe fe41 bb3d f202 d13d
000000e0: 1f73 a6bd c71b b03c 724f adbd baac f53c
000000f0: 31ee ad3d b4e6 acbd fcc0 253d 2e0f 74bd
00000100: b775 7b3e 681a c1bc d757 96be 71f7 68be
00000110: e509 763e cd08 75bd 5815 9d3d 5c66 abbd
00000120: 1923 1bbe 22c2 13be 41bf 49be 5553 3ebc
00000130: bd9a 39be 6270 2dbe 02f2 febd dbbd 653c
00000140: b3aa 803e 6788 53be d2a6 703d 31d5 393d
00000150: 17af d83c daf3 05be b98a 14bd a3a4 a43c
00000160: bae6 44be cf97 38be e603 783c e6ef fcbd
00000170: 94b2 72be e9ef 5fbe 0dc9 213d d434 16bd
00000180: 05d4 9b3e 1e09 783e 3a19 073e 19a6 f13d
00000190: a90c c23d b2ec ba3e 05e8 7c3e 8866 f33d
000001a0: 2a0b bb3e e7bb 1e3e 1c8b 103e a07a 943e
000001b0: 9ac0 a13e 02d8 4f3e e7bd 1c3e b207 d23e
000001c0: 47f8 8c3e 96e0 1f3e 3869 503e 788b be3d
000001d0: ff24 b63d dc1c 8a3e 9e31 923e 523e 8d3e
000001e0: 89b7 a43e 0d37 a23e acf5 4e3e 9987 ee3d
000001f0: 8c6c 9d3d 2b43 a13e eb29 913e 6dbb 6e3e
0.107000135 0.39703494 0.14665948 0.07113923 0.30515406 0.16661492 0.27329385 0.1009238
0.17289072 0.08397789 0.06075259 0.32385474 0.28989512 0.028150437 0.05112587 0.33523405
0.29466027 0.09067182 0.3464192 0.3060532 0.14533654 0.31370112 0.14522934 0.36358616
0.21485136 0.23365608 0.2554254 0.33131987 0.33868867 0.059700597 0.35886487 0.29297376
-0.116231985 -0.049781296 -0.17202076 -0.026824042 0.10456643 -0.14367639 0.12758088 0.100919254
-0.07224787 0.012876429 -0.1740112 -0.08057564 -0.09254296 0.153148 -0.1158035 0.08629344
-0.15442885 -0.05607334 -0.120603964 -0.14956744 -0.054477934 -0.15572476 0.091434464 0.1020564
-0.08127426 0.02149762 -0.084624186 0.029989589 0.08492697 -0.08442441 0.040467247 -0.05958479
0.24556623 -0.023572162 -0.2936389 -0.22750641 0.24027212 -0.059822846 0.076700866 -0.08369133
-0.15150107 -0.14429525 -0.19701864 -0.011616548 -0.18125434 -0.16937402 -0.12448503 0.014022316
0.25130233 -0.20657502 0.058752842 0.04536933 0.026450677 -0.13081303 -0.03626511 0.020098036
-0.1922864 -0.1802666 0.015137648 -0.123504445 -0.23700935 -0.21868862 0.039498378 -0.036671475
0.30435196 0.24222228 0.13193217 0.11799259 0.09475071 0.3650871 0.24697883 0.11884791
0.36531955 0.15501367 0.14115566 0.28999805 0.31592256 0.20297244 0.15306817 0.41021496
0.2753317 0.15613016 0.20352638 0.09303945 0.08893775 0.26975143 0.2855348 0.2758661
0.32171276 0.31682625 0.20210904 0.11646957 0.07686719 0.31496558 0.28352293 0.23313685

model.linear.weight f4 [1, 32]
00000000: 14ec e53e e019 eabe 703a 1abf e685 d2be
00000010: d020 063f 0a1f 183f 671f 073f 52fb e4be
00000020: 616e 0dbf 3288 dbbe 431c f2be 9075 13bf
00000030: d913 f2be df6f 0bbf f8ef 00bf ba1a 093f
00000040: 461d fc3e b416 1bbf 774e d73e 2d51 15bf
00000050: 7714 fe3e 8e92 00bf b727 17bf 4e1f 06bf
00000060: f7d2 f4be 3a78 14bf 8318 f73e 547a 0abf
00000070: 2b13 15bf 621c 0abf 5c1b 09bf 3a98 fc3e
0.44906676 -0.45722866 -0.6024542 -0.4111778 0.5239382 0.5942236 0.5278229 -0.44722992
-0.5524655 -0.42877346 -0.47287187 -0.5760126 -0.47280768 -0.54467577 -0.50366163 0.53556406
0.49241084 -0.6058152 0.4205205 -0.5832699 0.49624988 -0.50223625 -0.59044975 -0.5239152
-0.47817203 -0.5799595 0.48260888 -0.5409291 -0.58232373 -0.5394956 -0.5355737 0.4933489

exp_avg f4 [128, 1]
00000000: bdab d424 605e 62b1 b78c adbe 0400 0080
00000010: a169 8faf 0000 0000 044e 3eb7 7e45 50bd
00000020: 0000 0000 5ada 78bd 7285 84bd 1bc1 00b5
00000030: 76bd 49b7 fa1a 4cb5 1d11 1fb5 c461 6dbd
00000040: d8cb bab2 5fe3 76b1 0400 0080 0000 0000
00000050: 5b15 7fb7 e164 36be 5988 9eb6 0000 0000
00000060: 1e35 35a7 0400 0080 0400 0080 4d27 f8b6
00000070: 175c 60be a183 2385 eb5a 48bd 7a3b d6b1
00000080: 0000 0000 0000 0000 0000 0000 0000 0000
00000090: 0000 0000 0000 0000 0000 0000 0000 0000
000000a0: 0000 0000 0000 0000 0000 0000 0000 0000
000000b0: 0000 0000 0000 0000 0000 0000 0000 0000
000000c0: 0000 0000 0000 0000 0000 0000 0000 0000
000000d0: 0000 0000 0000 0000 0000 0000 0000 0000
000000e0: 0000 0000 0000 0000 0000 0000 0000 0000
000000f0: 0000 0000 0000 0000 0000 0000 0000 0000
00000100: f7bb 5a1d 10a7 12b1 0000 0000 1cb5 2a3a
00000110: 0000 0000 0000 0000 0000 0000 bf57 bc38
00000120: 0000 0000 0000 0000 80cd 2eb3 c267 4b35
00000130: 0000 0000 0000 0000 0000 0000 0000 0000
00000140: 0000 0000 ada6 bbb4 0000 0000 0000 0000
00000150: 97f3 4c38 0000 0000 2cea 00b0 0000 0000
00000160: 0de7 20a4 0000 0000 0400 0000 0000 0000
00000170: 0000 0000 21f8 5ab2 0000 0000 0000 0000
00000180: e5ab d424 e3de 06be c428 96b0 0400 0080
00000190: a100 05bf 0000 0000 0400 0080 4fdf 0db9
000001a0: 4a75 05bd c4a5 f9b3 b1ac 78b7 8dce b1b2
000001b0: f985 aebb 4275 cab1 c73a 78bd 7fb0 39b9
000001c0: 3b90 35bd 8327 b4bd 0000 0000 98c9 b2bd
000001d0: 0400 0080 5549 89b9 84f7 d7bd 938c 14b5
000001e0: 7241 a0ac 1390 b9a8 a739 40be f4d6 8db9
000001f0: dfa2 e1b6 79f6 73bd e4e2 c1af 6cb4 aabe
9.223128e-17 -3.2940974e-09 -0.3389642 -6e-45 -2.6086602e-10 0.0 -1.1343047e-05 -0.050847523
0.0 -0.06075511 -0.06470765 -4.796472e-07 -1.2024646e-05 -7.603518e-07 -5.925702e-07 -0.057954565
-2.1745947e-08 -3.5926957e-09 -6e-45 0.0 -1.5204157e-05 -0.1781192 -4.72464e-06 0.0
-2.514759e-15 -6e-45 -6e-45 -7.395551e-06 -0.2191013 -7.6883996e-36 -0.04891483 -6.2349814e-09
0.0 0.0 0.0 0.0 0.0 0.0 0.0 0.0
0.0 0.0 0.0 0.0 0.0 0.0 0.0 0.0
0.0 0.0 0.0 0.0 0.0 0.0 0.0 0.0
0.0 0.0 0.0 0.0 0.0 0.0 0.0 0.0
2.8949235e-21 -2.134076e-09 0.0 0.0006511973 0.0 0.0 0.0 8.9808826e-05
0.0 0.0 -4.0699433e-08 7.577438e-07 0.0 0.0 0.0 0.0
0.0 -3.4952737e-07 0.0 0.0 4.886425e-05 0.0 -4.6898907e-10 0.0
-3.4890177e-17 0.0 6e-45 0.0 0.0 -1.2745688e-08 0.0 0.0
9.2231545e-17 -0.13170962 -1.0925523e-09 -6e-45 -0.51954085 0.0 -6e-45 -0.00013529997
-0.03258256 -1.1625119e-07 -1.482216e-05 -2.069944e-08 -0.0053260294 -5.8923044e-09 -0.06060293 -0.00017708725
-0.044327002 -0.08796599 0.0 -0.08729857 -6e-45 -0.00026185313 -0.10545257 -5.533886e-07
-4.5547394e-12 -2.0601608e-14 -0.18771993 -0.00027053768 -6.7244832e-06 -0.059561227 -3.526771e-10 -0.33340776

exp_avg_sq f4 [128, 1]
00000000: 2acd 9c1a 2035 8232 4b0e ae45 0ee4 992c
00000010: a3de fa2f 0000 0000 43d4 dd3c d08e ad44
00000020: 0000 0000 aeb7 9d44 403e 1545 d4fd 0339
00000030: 10a0 603d 0bd5 b639 8892 c538 bb9e 0c45
00000040: bdee fc34 fbcc 0b33 11be 632b 0000 0000
00000050: 8392 143d bd7e f744 9d1f ab3b 0000 0000
00000060: 127c df1c 3130 b12b 7ba6 0c2d 8b4c 843c
00000070: d3c1 1746 062d c52d d177 b044 5b9d 2832
00000080: 0000 0000 0000 0000 0000 0000 0000 0000
00000090: 0000 0000 0000 0000 0000 0000 0000 0000
000000a0: 0000 0000 0000 0000 0000 0000 0000 0000
000000b0: 0000 0000 0000 0000 0000 0000 0000 0000
000000c0: 0000 0000 0000 0000 0000 0000 0000 0000
000000d0: 0000 0000 0000 0000 0000 0000 0000 0000
000000e0: 0000 0000 0000 0000 0000 0000 0000 0000
000000f0: 0000 0000 0000 0000 0000 0000 0000 0000
00000100: 07c3 a50c 46bc a032 0000 0000 92cc 2b42
00000110: 0000 0000 0000 0000 0000 0000 2e2c 8240
00000120: 0000 0000 0000 0000 b979 f036 ec45 a03a
00000130: 0000 0000 0000 0000 0000 0000 0000 0000
00000140: 0000 0000 4456 f939 0000 0000 0000 0000
00000150: 0a68 9d3f 0000 0000 53eb 3431 0000 0000
00000160: 06aa fd16 0000 0000 0e4f 8e2d 0000 0000
00000170: 0000 0000 27ba 7035 0000 0000 0000 0000
00000180: b9cd 9c1a 2a71 1446 7c6f 8b30 5c54 342e
00000190: f6dd c646 0000 0000 039b 1e2b 3151 843f
000001a0: 48c3 e844 be40 4b37 6c64 423d a85a fa34
000001b0: 551c 3f43 ee04 5533 1443 f044 a71e 2240
000001c0: 15af e044 21de 9045 0000 0000 ca7d 3045
000001d0: 1beb 422e a545 153f 5317 a045 9c69 9a39
000001e0: 08d7 3a27 4901 212f b244 eb45 20a8 6c40
000001f0: 7d59 d03b 599b e044 3992 2830 9a04 9345
6.485155e-23 1.515815e-08 5569.7866 4.3738407e-12 4.5632928e-10 0.0 0.027078753 1388.4629
0.0 1261.74 2387.8906 0.00012587692 0.054840147 0.00034872474 9.4209856e-05 2249.9207
4.7112363e-07 3.2549888e-08 8.091037e-13 0.0 0.036272537 1979.9606 0.0052222745 0.0
1.4788974e-21 1.2589982e-12 7.995045e-12 0.01614978 9712.456 2.2416301e-11 1411.7443 9.8146655e-09
0.0 0.0 0.0 0.0 0.0 0.0 0.0 0.0
0.0 0.0 0.0 0.0 0.0 0.0 0.0 0.0
0.0 0.0 0.0 0.0 0.0 0.0 0.0 0.0
0.0 0.0 0.0 0.0 0.0 0.0 0.0 0.0
2.5539653e-31 1.8712068e-08 0.0 42.949776 0.0 0.0 0.0 4.067893
0.0 0.0 7.1667278e-06 0.001222787 0.0 0.0 0.0 0.0
0.0 0.00047557254 0.0 0.0 1.2297375 0.0 2.6327214e-09 0.0
4.0981654e-25 0.0 1.6178638e-11 0.0 0.0 8.9677854e-07 0.0 0.0
6.485245e-23 9500.291 1.0145267e-09 4.1002188e-11 25454.98 0.0 5.6348e-13 1.0337278
1862.1025 1.2114817e-05 0.04745905 4.663209e-07 191.11067 4.959741e-08 1922.0962 2.5331209
1797.4713 4635.766 0.0 2823.8618 4.431931e-11 0.58309394 5122.9155 0.00029451854
2.5929254e-15 1.4643321e-10 7528.587 3.6977615 0.006358324 1796.8546 6.132584e-10 4704.575

exp_avg f4 [128, 32]
00000000: 0000 0000 0000 0000 0000 0000 0000 0000
00000010: 0000 0000 0000 0000 0000 0000 0000 0000
00000020: 0000 0000 0000 0000 0000 0000 0000 0000
00000030: 0000 0000 0000 0000 0000 0000 0000 0000
00000040: 0000 0000 0000 0000 0000 0000 0000 0000
00000050: 0000 0000 0000 0000 0000 0000 0000 0000
00000060: 0000 0000 0000 0000 0000 0000 0000 0000
00000070: 0000 0000 0000 0000 0000 0000 0000 0000
00000080: 0000 0000 0000 0000 0000 0000 0000 0000
00000090: 0000 0000 0000 0000 0000 0000 0000 0000
000000a0: 0000 0000 0000 0000 0000 0000 0000 0000
000000b0: 0000 0000 0000 0000 0000 0000 0000 0000
000000c0: 0000 0000 0000 0000 0000 0000 0000 0000
000000d0: 0000 0000 0000 0000 0000 0000 0000 0000
000000e0: 0000 0000 0000 0000 0000 0000 0000 0000
000000f0: 0000 0000 0000 0000 0000 0000 0000 0000
00000100: 0000 0000 0000 0000 0000 0000 0000 0000
00000110: 0000 0000 0000 0000 0000 0000 0000 0000
00000120: 0000 0000 0000 0000 0000 0000 0000 0000
00000130: 0000 0000 0000 0000 0000 0000 0000 0000
00000140: 0000 0000 0000 0000 0000 0000 0000 0000
00000150: 0000 0000 0000 0000 0000 0000 0000 0000
00000160: 0000 0000 0000 0000 0000 0000 0000 0000
00000170: 0000 0000 0000 0000 0000 0000 0000 0000
00000180: 0000 0000 0000 0000 0000 0000 0000 0000
00000190: 0000 0000 0000 0000 0000 0000 0000 0000
000001a0: 0000 0000 0000 0000 0000 0000 0000 0000
000001b0: 0000 0000 0000 0000 0000 0000 0000 0000
000001c0: 0000 0000 0000 0000 0000 0000 0000 0000
000001d0: 0000 0000 0000 0000 0000 0000 0000 0000
000001e0: 0000 0000 0000 0000 0000 0000 0000 0000
000001f0: 0000 0000 0000 0000 0000 0000 0000 0000
00000200: 0000 0000 0000 0000 0000 0000 0000 0000
00000210: 0000 0000 0000 0000 0000 0000 0000 0000
00000220: 0000 0000 0000 0000 0000 0000 0000 0000
00000230: 0000 0000 0000 0000 0000 0000 0000 0000
00000240: 0000 0000 0000 0000 0000 0000 0000 0000
00000250: 0000 0000 0000 0000 0000 0000 0000 0000
00000260: 0000 0000 0000 0000 0000 0000 0000 0000
00000270: 0000 0000 0000 0000 0000 0000 0000 0000
00000280: 0000 0000 0000 0000 0000 0000 0000 0000
00000290: 0000 0000 0000 0000 0000 0000 0000 0000
000002a0: 0000 0000 0000 0000 0000 0000 0000 0000
000002b0: 0000 0000 0000 0000 0000 0000 0000 0000
000002c0: 0000 0000 0000 0000 0000 0000 0000 0000
000002d0: 0000 0000 0000 0000 0000 0000 0000 0000
000002e0: 0000 0000 0000 0000 0000 0000 0000 0000
000002f0: 0000 0000 0000 0000 0000 0000 0000 0000
00000300: 0000 0000 0000 0000 0000 0000 0000 0000
00000310: 0000 0000 0000 0000 0000 0000 0000 0000
00000320: 0000 0000 0000 0000 0000 0000 0000 0000
00000330: 0000 0000 0000 0000 0000 0000 0000 0000
00000340: 0000 0000 0000 0000 0000 0000 0000 0000
00000350: 0000 0000 0000 0000 0000 0000 0000 0000
00000360: 0000 0000 0000 0000 0000 0000 0000 0000
00000370: 0000 0000 0000 0000 0000 0000 0000 0000
00000380: 0000 0000 0000 0000 0000 0000 0000 0000
00000390: 0000 0000 0000 0000 0000 0000 0000 0000
000003a0: 0000 0000 0000 0000 0000 0000 0000 0000
000003b0: 0000 0000 0000 0000 0000 0000 0000 0000
000003c0: 0000 0000 0000 0000 0000 0000 0000 0000
000003d0: 0000 0000 0000 0000 0000 0000 0000 0000
000003e0: 0000 0000 0000 0000 0000 0000 0000 0000
000003f0: 0000 0000 0000 0000 0000 0000 0000 0000
0.0 0.0 0.0 0.0 0.0 0.0 0.0 0.0
0.0 0.0 0.0 0.0 0.0 0.0 0.0 0.0
0.0 0.0 0.0 0.0 0.0 0.0 0.0 0.0
0.0 0.0 0.0 0.0 0.0 0.0 0.0 0.0
0.0 0.0 0.0 0.0 0.0 0.0 0.0 0.0
0.0 0.0 0.0 0.0 0.0 0.0 0.0 0.0
0.0 0.0 0.0 0.0 0.0 0.0 0.0 0.0
0.0 0.0 0.0 0.0 0.0 0.0 0.0 0.0
0.0 0.0 0.0 0.0 0.0 0.0 0.0 0.0
0.0 0.0 0.0 0.0 0.0 0.0 0.0 0.0
0.0 0.0 0.0 0.0 0.0 0.0 0.0 0.0
0.0 0.0 0.0 0.0 0.0 0.0 0.0 0.0
0.0 0.0 0.0 0.0 0.0 0.0 0.0 0.0
0.0 0.0 0.0 0.0 0.0 0.0 0.0 0.0
0.0 0.0 0.0 0.0 0.0 0.0 0.0 0.0
0.0 0.0 0.0 0.0 0.0 0.0 0.0 0.0
0.0 0.0 0.0 0.0 0.0 0.0 0.0 0.0
0.0 0.0 0.0 0.0 0.0 0.0 0.0 0.0
0.0 0.0 0.0 0.0 0.0 0.0 0.0 0.0
0.0 0.0 0.0 0.0 0.0 0.0 0.0 0.0
0.0 0.0 0.0 0.0 0.0 0.0 0.0 0.0
0.0 0.0 0.0 0.0 0.0 0.0 0.0 0.0
0.0 0.0 0.0 0.0 0.0 0.0 0.0 0.0
0.0 0.0 0.0 0.0 0.0 0.0 0.0 0.0
0.0 0.0 0.0 0.0 0.0 0.0 0.0 0.0
0.0 0.0 0.0 0.0 0.0 0.0 0.0 0.0
0.0 0.0 0.0 0.0 0.0 0.0 0.0 0.0
0.0 0.0 0.0 0.0 0.0 0.0 0.0 0.0
0.0 0.0 0.0 0.0 0.0 0.0 0.0 0.0
0.0 0.0 0.0 0.0 0.0 0.0 0.0 0.0
0.0 0.0 0.0 0.0 0.0 0.0 0.0 0.0
0.0 0.0 0.0 0.0 0.0 0.0 0.0 0.0

exp_avg_sq f4 [128, 32]
00000000: 0000 0000 0000 0000 0000 0000 0000 0000
00000010: 0000 0000 0000 0000 0000 0000 0000 0000
00000020: 0000 0000 0000 0000 0000 0000 0000 0000
00000030: 0000 0000 0000 0000 0000 0000 0000 0000
00000040: 0000 0000 0000 0000 0000 0000 0000 0000
00000050: 0000 0000 0000 0000 0000 0000 0000 0000
00000060: 0000 0000 0000 0000 0000 0000 0000 0000
00000070: 0000 0000 0000 0000 0000 0000 0000 0000
00000080: 0000 0000 0000 0000 0000 0000 0000 0000
00000090: 0000 0000 0000 0000 0000 0000 0000 0000
000000a0: 0000 0000 0000 0000 0000 0000 0000 0000
000000b0: 0000 0000 0000 0000 0000 0000 0000 0000
000000c0: 0000 0000 0000 0000 0000 0000 0000 0000
000000d0: 0000 0000 0000 0000 0000 0000 0000 0000
000000e0: 0000 0000 0000 0000 0000 0000 0000 0000
000000f0: 0000 0000 0000 0000 0000 0000 0000 0000
00000100: 0000 0000 0000 0000 0000 0000 0000 0000
00000110: 0000 0000 0000 0000 0000 0000 0000 0000
00000120: 0000 0000 0000 0000 0000 0000 0000 0000
00000130: 0000 0000 0000 0000 0000 0000 0000 0000
00000140: 0000 0000 0000 0000 0000 0000 0000 0000
00000150: 0000 0000 0000 0000 0000 0000 0000 0000
00000160: 0000 0000 0000 0000 0000 0000 0000 0000
00000170: 0000 0000 0000 0000 0000 0000 0000 0000
00000180: 0000 0000 0000 0000 0000 0000 0000 0000
00000190: 0000 0000 0000 0000 0000 0000 0000 0000
000001a0: 0000 0000 0000 0000 0000 0000 0000 0000
000001b0: 0000 0000 0000 0000 0000 0000 0000 0000
000001c0: 0000 0000 0000 0000 0000 0000 0000 0000
000001d0: 0000 0000 0000 0000 0000 0000 0000 0000
000001e0: 0000 0000 0000 0000 0000 0000 0000 0000
000001f0: 0000 0000 0000 0000 0000 0000 0000 0000
00000200: 0000 0000 0000 0000 0000 0000 0000 0000
00000210: 0000 0000 0000 0000 0000 0000 0000 0000
00000220: 0000 0000 0000 0000 0000 0000 0000 0000
00000230: 0000 0000 0000 0000 0000 0000 0000 0000
00000240: 0000 0000 0000 0000 0000 0000 0000 0000
00000250: 0000 0000 0000 0000 0000 0000 0000 0000
00000260: 0000 0000 0000 0000 0000 0000 0000 0000
00000270: 0000 0000 0000 0000 0000 0000 0000 0000
00000280: 0000 0000 0000 0000 0000 0000 0000 0000
00000290: 0000 0000 0000 0000 0000 0000 0000 0000
000002a0: 0000 0000 0000 0000 0000 0000 0000 0000
000002b0: 0000 0000 0000 0000 0000 0000 0000 0000
000002c0: 0000 0000 0000 0000 0000 0000 0000 0000
000002d0: 0000 0000 0000 0000 0000 0000 0000 0000
000002e0: 0000 0000 0000 0000 0000 0000 0000 0000
000002f0: 0000 0000 0000 0000 0000 0000 0000 0000
00000300: 0000 0000 0000 0000 0000 0000 0000 0000
00000310: 0000 0000 0000 0000 0000 0000 0000 0000
00000320: 0000 0000 0000 0000 0000 0000 0000 0000
00000330: 0000 0000 0000 0000 0000 0000 0000 0000
00000340: 0000 0000 0000 0000 0000 0000 0000 0000
00000350: 0000 0000 0000 0000 0000 0000 0000 0000
00000360: 0000 0000 0000 0000 0000 0000 0000 0000
00000370: 0000 0000 0000 0000 0000 0000 0000 0000
00000380: 0000 0000 0000 0000 0000 0000 0000 0000
00000390: 0000 0000 0000 0000 0000 0000 0000 0000
000003a0: 0000 0000 0000 0000 0000 0000 0000 0000
000003b0: 0000 0000 0000 0000 0000 0000 0000 0000
000003c0: 0000 0000 0000 0000 0000 0000 0000 0000
000003d0: 0000 0000 0000 0000 0000 0000 0000 0000
000003e0: 0000 0000 0000 0000 0000 0000 0000 0000
000003f0: 0000 0000 0000 0000 0000 0000 0000 0000
0.0 0.0 0.0 0.0 0.0 0.0 0.0 0.0
0.0 0.0 0.0 0.0 0.0 0.0 0.0 0.0
0.0 0.0 0.0 0.0 0.0 0.0 0.0 0.0
0.0 0.0 0.0 0.0 0.0 0.0 0.0 0.0
0.0 0.0 0.0 0.0 0.0 0.0 0.0 0.0
0.0 0.0 0.0 0.0 0.0 0.0 0.0 0.0
0.0 0.0 0.0 0.0 0.0 0.0 0.0 0.0
0.0 0.0 0.0 0.0 0.0 0.0 0.0 0.0
0.0 0.0 0.0 0.0 0.0 0.0 0.0 0.0
0.0 0.0 0.0 0.0 0.0 0.0 0.0 0.0
0.0 0.0 0.0 0.0 0.0 0.0 0.0 0.0
0.0 0.0 0.0 0.0 0.0 0.0 0.0 0.0
0.0 0.0 0.0 0.0 0.0 0.0 0.0 0.0
0.0 0.0 0.0 0.0 0.0 0.0 0.0 0.0
0.0 0.0 0.0 0.0 0.0 0.0 0.0 0.0
0.0 0.0 0.0 0.0 0.0 0.0 0.0 0.0
0.0 0.0 0.0 0.0 0.0 0.0 0.0 0.0
0.0 0.0 0.0 0.0 0.0 0.0 0.0 0.0
0.0 0.0 0.0 0.0 0.0 0.0 0.0 0.0
0.0 0.0 0.0 0.0 0.0 0.0 0.0 0.0
0.0 0.0 0.0 0.0 0.0 0.0 0.0 0.0
0.0 0.0 0.0 0.0 0.0 0.0 0.0 0.0
0.0 0.0 0.0 0.0 0.0 0.0 0.0 0.0
0.0 0.0 0.0 0.0 0.0 0.0 0.0 0.0
0.0 0.0 0.0 0.0 0.0 0.0 0.0 0.0
0.0 0.0 0.0 0.0 0.0 0.0 0.0 0.0
0.0 0.0 0.0 0.0 0.0 0.0 0.0 0.0
0.0 0.0 0.0 0.0 0.0 0.0 0.0 0.0
0.0 0.0 0.0 0.0 0.0 0.0 0.0 0.0
0.0 0.0 0.0 0.0 0.0 0.0 0.0 0.0
0.0 0.0 0.0 0.0 0.0 0.0 0.0 0.0
0.0 0.0 0.0 0.0 0.0 0.0 0.0 0.0
