dl_computer_vision/assignments/1/checkpoints/best_checkpoint-v1.ckpt (torch, 31968 bytes, 15 tensors)

model.lstm.weight_ih_l0 f4 [80, 1]
000000 6a e3 a0 bd 9c a8 3b 3e ab 55 1c 3e e9 75 98 bd
       -0.07855876 0.18326038 0.15267055 -0.074443646
000010 e9 63 fe 3d fd aa 37 3e 84 33 37 3e 86 31 9e 3d
       0.124214 0.1793632 0.17890745 0.077242896
000020 33 19 a7 3d d0 be 14 3e bc d4 fa bc 0f 0f 4e be
       0.08159103 0.14525914 -0.030619018 -0.20122932
000030 86 c6 3b 3e 5e eb 29 3e 3d 83 9d 3d 32 db 33 3e
       0.1833745 0.16593692 0.07691047 0.17564085
000040 73 ec 9b 3d 34 b9 06 be 46 48 85 bd a3 52 23 be
       0.076134585 -0.13156587 -0.06507926 -0.15949492
000050 24 67 c9 bb ac ff 4c 3e 6c 63 e4 3d 46 0c 3f be
       -0.0061463285 0.20019406 0.11151776 -0.18657026
000060 0c f0 0d be 91 56 4a 3e 72 59 8c 3d 60 77 46 3e
       -0.13861102 0.19759585 0.06852998 0.19381475
000070 01 75 99 3d 59 86 2b be 93 2c a9 bd fc a0 cd 3d
       0.0749302 -0.16750468 -0.08260455 0.10040471
000080 52 ca 23 3d 2d f8 a2 bd f1 7d a6 bd 04 db 4d 3e
       0.03998787 -0.07957492 -0.0812949 0.20103079
000090 a4 29 27 be 94 4d 2f 3e a5 bf 47 be bc 22 43 3d
       -0.16324478 0.17119437 -0.195067 0.047640547
0000a0 c3 28 23 be 94 0b bf bd 97 e5 ab bd f0 97 1f 3e
       -0.15933518 -0.0932838 -0.083934 0.15585303
0000b0 64 13 c0 bd 04 ab a9 bd 10 f8 2a be a1 eb fd 3d
       -0.093786985 -0.08284572 -0.16696191 0.12398458
0000c0 43 5d b9 3d 44 fa ac 3d 33 8d e3 bd 1f e0 5f 3d
       0.090509914 0.08446172 -0.11110916 0.054657098
0000d0 82 ad cb 3d db 22 d2 bd 10 59 4d 3e aa 65 3d 3e
       0.09945203 -0.102605544 0.20053506 0.18495813
0000e0 8c c4 af bd 20 9e d4 bd 08 97 35 3e f9 29 cf bd
       -0.0858241 -0.103817225 0.17733395 -0.101154275
0000f0 62 d3 13 bd aa 2b 95 3d 6f 4b a4 3d 40 9e 7e bd
       -0.036090262 0.07283719 0.080222 -0.062162638
000100 10 e5 c5 3d d4 7b 46 3e ce 84 9b 3d db aa 3f 3e
       0.09662831 0.19383174 0.0759369 0.1871752
000110 a2 60 f7 3d 37 42 ab 3d 31 35 55 bd 24 eb 23 3e
       0.12078978 0.08362239 -0.05205268 0.16007668
000120 14 a2 b7 3d 16 01 a2 3d 1d ee 15 3e 2f 74 5d 3e
       0.08966461 0.079103634 0.14641614 0.21626352
000130 61 93 d5 3d 6a ab 04 be 42 38 40 3e 0b 11 4c be
       0.10428501 -0.12956014 0.1877146 -0.19928376

model.lstm.weight_hh_l0 f4 [80, 20]
000000 19 9d 99 bd 80 55 2e 3e 49 2d e6 3d 89 5f fa bd
       -0.07500667 0.17024803 0.11239106 -0.12225253
000010 ce 29 26 3e 87 e2 92 3d 1e 0b 40 3e 12 29 1a be
       0.16226885 0.07172113 0.18754241 -0.1505473
000020 3b 27 e8 3c 1d 85 50 be 42 12 10 3d ef ea f4 bd
       0.028339019 -0.20363279 0.035173662 -0.119588725
000030 4d fd 02 3d 08 52 48 3e 8d 31 17 be 2d ed 8e 3d
       0.031979848 0.19562542 -0.14764996 0.069788314
000040 47 8a 1c bd b9 26 ec bd 6c 78 dd bc f0 c5 3f 3e
       -0.03821781 -0.11530823 -0.02703496 0.18727851
000050 22 30 3e ba 4e 3e 24 3e 98 9c 98 bd 41 9b da bd
       -0.0007255097 0.16039392 -0.07451743 -0.106741436
000060 fd 43 09 3e d6 ca 1e 3e 86 bc 9e 3d 01 fe 85 3d
       0.13404842 0.15507063 0.07750802 0.06542588
000070 e8 f9 b6 3d d7 17 44 3e 6c ba 23 be 81 58 3f be
       0.089343846 0.19149719 -0.15989083 -0.18686105
000080 ad 7e 4a be cf 0f 94 ba 7d bb 50 be 23 78 04 be
       -0.19774885 -0.0011296215 -0.20384021 -0.12936454
000090 b4 7e 09 be db fd cc 3d 32 ff 1e 3d 4f 6a ac bd
       -0.1342724 0.100093566 0.038817592 -0.08418714
0000a0 f7 31 c6 bd 96 1b 38 be 8a 5a a6 bd d3 59 18 bd
       -0.09677499 -0.17979273 -0.08122738 -0.037195038
0000b0 60 e5 48 3e 14 6a 29 3e 27 ae 6e bb 9e 6c 51 be
       0.1961875 0.16544372 -0.003641972 -0.2045159
0000c0 bd 27 59 be ad 1b 4c 3e e0 8c 42 3d 1d 70 1e 3d
       -0.21206565 0.19932432 0.04749763 0.03868114
0000d0 03 ed 19 be 0b 6d b4 3d 28 13 c8 bd 79 dd 23 be
       -0.15031819 0.08809861 -0.09769279 -0.16002454
0000e0 a6 52 03 bd dc 6a bb 3d 3a 43 ac bd a1 b5 cd 3d
       -0.03206124 0.09151241 -0.0841126 0.100444086
0000f0 28 80 6c 3d a9 ce 3d bb ac fc 8d 3d ac 2d 47 be
       0.057739407 -0.002896229 0.06932959 -0.19451016
000100 82 20 5e be 62 a8 26 be 9a 0d 1b be 7e c1 a1 bc
       -0.21692088 -0.1627517 -0.15141907 -0.019745585
000110 46 71 85 bd d4 9e 6c 3d 83 90 33 bd 84 1b 3b bd
       -0.06515746 0.057768658 -0.04383899 -0.045680538
000120 fd b4 ec 3d f9 ce 37 3d 14 57 fd bd e6 10 1f be
       0.11557958 0.04487512 -0.123701245 -0.1553379
000130 cc 4f 28 3e 90 20 9c 3b f0 99 ff 3c 18 69 79 bd
       0.1643669 0.004764624 0.031201333 -0.06089124
000140 3a d0 b2 bc 92 2d 18 be 28 55 a9 bd 88 38 43 be
       -0.021827806 -0.14861134 -0.082681954 -0.19064534
000150 c8 ba 55 be bb 1d 83 3d 2f 43 97 bb 4a a9 fe 3d
       -0.20872033 0.06402155 -0.004616163 0.12434633
000160 a7 79 25 be b4 c5 85 3d 5a f4 1e be 33 39 e1 3d
       -0.16159688 0.065318495 -0.155229 0.10997238
000170 e4 57 ef bd 04 33 c7 3c 1f f9 99 3d 01 5f d6 3d
       -0.11686686 0.024316318 0.07518219 0.10467339
000180 fd d7 36 3e 31 e7 8c 3d a6 1f ff bd 80 88 7f 3d
       0.1785583 0.06880034 -0.12457208 0.062386036
000190 aa c8 c0 3b fe 57 e2 3d c6 13 90 bd a9 1f 39 be
       0.005883296 0.110519394 -0.070350215 -0.18078484
0001a0 d2 ae 39 be 6e b7 0f bc 7b ff db 3d 91 1c a5 3d
       -0.18133095 -0.00877176 0.107420884 0.08062089
0001b0 9e af b0 3d ab 2e 17 be c9 14 50 bb 7f 46 2d bd
       0.08627246 -0.14763896 -0.003175067 -0.04230356
0001c0 0b 5b 57 be 67 f1 31 3c 11 46 44 3e 98 24 76 bd
       -0.21030824 0.010860777 0.19167353 -0.060093492
0001d0 fb f2 78 bd f3 81 0c be a3 5a 2e 3e b8 04 e5 bc
       -0.0607786 -0.13721447 0.17026763 -0.027956352
0001e0 2f d9 24 3e e5 a6 36 be 9b 37 d9 bd 11 9d 0f be
       0.16098474 -0.17837103 -0.10606309 -0.1402476
0001f0 60 f0 ea 3d a3 47 95 bb b9 68 d3 bd ae 33 3f 3d
       0.11471629 -0.004555659 -0.10322709 0.046680145
000200 83 b4 d0 3d db ee 18 3e 6d 48 21 be 53 fd 09 3e
       0.1019068 0.14934866 -0.15750284 0.13475542
000210 fe 45 24 bd e6 d5 15 3e 90 d1 60 bd 8c ec 2a 3e
       -0.040105812 0.14632377 -0.054887354 0.16691798
000220 e6 01 29 be 7f 50 a8 bd c2 2a 48 3d 0a e5 47 3e
       -0.1650463 -0.082184784 0.048868902 0.19520965
000230 8a 1e 1e be 78 96 4e be a1 64 04 be 64 92 59 3c
       -0.15441337 -0.20174587 -0.12929012 0.013279531
000240 5d e6 b1 bd 58 c0 5d 3e 8b 16 3f 3e d7 6b 54 3e
       -0.086865164 0.21655405 0.18660943 0.20744263
000250 35 c4 28 3e 05 b0 32 3e 31 73 c9 bd 84 0a 8c bd
       0.16481097 0.17449959 -0.09836424 -0.06837943
000260 a8 ce c2 bc 00 76 06 be ed a1 51 be 39 c9 8d bd
       -0.023780182 -0.13130951 -0.20471926 -0.06923146
000270 ac 36 4b 3e 34 c6 46 3e 97 09 99 bd ae 85 df 3d
       0.19845074 0.19411546 -0.07472532 0.10914169
000280 e9 d1 1b bd e9 a7 db 3d e2 48 ea bd 5a 47 dd 3d
       -0.038041983 0.10725386 -0.114396825 0.10804625
000290 ff ca a6 3d 8b a5 3e 3d 50 fc 53 3e ce 26 31 be
       0.08144187 0.046544593 0.20701718 -0.17299959
0002a0 e6 cf 0d bd 7c f5 85 bd cb 70 64 bb 44 f9 a6 bc
       -0.034622096 -0.06540963 -0.003485727 -0.020382531
0002b0 cf 0d 33 bc 76 75 5c 3c 38 1e 31 be 79 78 b0 bc
       -0.010928585 0.013455739 -0.17296684 -0.02154182
0002c0 0d b7 81 3d d2 c1 1c bd 42 00 9c bd 78 37 24 be
       0.06333742 -0.03827078 -0.07617237 -0.16036785
0002d0 28 07 78 bc 0a e6 58 3e 82 bd 65 bd 1d 53 af 3c
       -0.015138425 0.21181503 -0.05608893 0.021401936
0002e0 d6 02 59 be 84 cb 13 3e 98 92 3e 3e a3 e4 bc 3d
       -0.21192488 0.14433104 0.18610609 0.092232965
0002f0 a6 9b 90 3d 5e 6c 2a be 6c ce f9 bd 0b bc b7 3d
       0.070609376 -0.16642901 -0.12197575 0.08971413
000300 89 33 3e 3e f4 f9 11 be b1 b9 ab 3d 40 08 14 3e
       0.18574347 -0.14255506 0.08385027 0.14456272
000310 35 82 9f bc c8 b5 fd 3d 16 2f 2f be a3 eb a4 bd
       -0.019471267 0.12388188 -0.17107806 -0.08052757
000320 a3 16 bd bd f7 e8 cb 3d 54 e4 8e 3d 4f ac 49 3e
       -0.09232833 0.09956544 0.06977144 0.19694637
000330 61 ac 3d be ac ae be 3c e4 86 3c be c4 ab f0 3c
       -0.18522789 0.02327665 -0.18410832 0.02937878
000340 34 3f 39 bb 8d d5 a5 bd 28 3d 28 3b dc 2e ca bc
       -0.0028266432 -0.08097372 0.0025671218 -0.024680547
000350 5a f1 24 3d f3 e6 14 3e 6c 85 13 be d7 ac aa bc
       0.040269233 0.14541225 -0.14406365 -0.02083437
000360 ce 27 4d be a9 f8 1a 3e c0 c7 a6 3d 4f 99 02 bc
       -0.20034716 0.15133919 0.08143568 -0.007971122
000370 0f 01 7a bd 52 a1 cd bd bb eb 19 be 2f ed 0c bd
       -0.061036166 -0.10040535 -0.1503133 -0.034405883
000380 aa da 37 be 26 ab 4e be 2e de a2 3d 1e 77 cc bd
       -0.17954507 -0.20182475 0.07952534 -0.09983657
000390 79 86 9e bd 93 2a ca bd 60 c5 a4 bc 92 82 3b 3e
       -0.077404924 -0.09871402 -0.020113647 0.18311527
0003a0 87 5a 4b 3c 35 29 02 be de 72 de 3d 17 60 86 bd
       0.01241172 -0.12711032 0.10861753 -0.065612964
0003b0 d7 4e 21 3d 68 49 f6 bd fa 9d ab bc 6d 02 8f 3d
       0.03938183 -0.1202572 -0.020949353 0.069828846
0003c0 78 d8 0f 3e 8a c0 0b be e4 6b 00 bd 8e 1f 4e be
       0.1404742 -0.13647667 -0.031352893 -0.20129225
0003d0 15 1f 0e 3e 83 ad 4c 3e c7 77 0e 3d 6a c2 59 3e
       0.13879044 0.19988064 0.034782197 0.2126557
0003e0 0a fb 40 be c4 e7 16 be a9 b8 07 be 36 06 0c bd
       -0.18845764 -0.14736849 -0.13254036 -0.03418561
0003f0 3b d8 04 3e e4 85 1e 3e e4 b2 5d bd 94 fd dc 3c
       0.1297311 0.15480763 -0.05412568 0.026976384

model.lstm.bias_ih_l0 f4 [80]
000000 61 a2 b7 be 0f 17 44 ba 14 70 0b 3d a3 45 11 3c
       -0.35866073 -0.00074802426 0.034042433 0.0088667
000010 34 eb b0 bd 55 43 03 3d 30 e1 b4 bd ec 8a 38 3d
       -0.086386114 0.032046635 -0.088320136 0.04505436
000020 a6 34 6c 3d 7e 2b 2e bd 57 35 b3 3c 66 9d 89 3d
       0.057667397 -0.042521946 0.02187602 0.067194745
000030 1b c9 04 3d e0 6b 88 3d 06 ce a8 3e 39 46 ef bd
       0.03241835 0.066612005 0.32969683 -0.11683316
000040 b8 33 e9 3d 69 18 23 3d 76 2f 82 be f3 46 09 3c
       0.11386818 0.0398182 -0.25426835 0.008378732
000050 11 bd 02 bd 3e 03 ae bd 7a 08 01 bd 2f c6 af bb
       -0.03191859 -0.08496712 -0.031502225 -0.0053642015
000060 dc 2d 21 be 7d bf 93 bd 19 88 0a 3e 0c 34 4b be
       -0.1574015 -0.07214258 0.1352848 -0.19844073
000070 aa 48 2c 3d 72 62 ee 3d 9c 90 3a be d7 42 0f 3e
       0.042061485 0.11639871 -0.18219227 0.13990341
000080 ae f7 56 3d 50 fc ba bd 3c 95 a4 3b a8 00 25 be
       0.0524823 -0.09130156 0.005022673 -0.16113532
000090 a9 19 29 3e a6 d5 ba 3d d1 8b 06 3e 26 e4 34 bd
       0.16513695 0.091227815 0.13139273 -0.04416289
0000a0 a8 79 59 be 26 41 2b be 87 b9 a0 be 10 45 da 3d
       -0.21237814 -0.16724071 -0.31391546 0.10657704
0000b0 93 50 b4 bb 1c 9e 25 3e 3f 95 3d 3e 32 32 87 3d
       -0.0055027693 0.16173595 0.18513964 0.06601371
0000c0 45 a2 e5 3c 52 49 76 3e 85 6b 27 be 9b 23 d1 bd
       0.028031478 0.24051407 -0.16349609 -0.10211869
0000d0 64 28 93 ba 0b 90 4c 3d 9f 73 4d 3d d5 48 51 3e
       -0.0011227247 0.049942058 0.050159093 0.2043794
0000e0 92 ad 31 be a0 27 9b 3d af d3 5b 3e bf 1f 27 3e
       -0.17351368 0.07575917 0.2146747 0.16320704
0000f0 46 78 77 3d 80 7f c9 3e bb 49 a8 3e 29 71 88 3d
       0.060417436 0.39355087 0.32868752 0.066622086
000100 06 82 1e 3e c0 93 9c 3d d1 55 c7 3e 31 75 76 3e
       0.15479288 0.076453686 0.3893266 0.24068142
000110 5a 90 9e 3e c2 53 f1 3c 7c 87 26 be 2b ba d4 bc
       0.30969507 0.029458884 -0.1626262 -0.025967678
000120 fe ea 1c bb 53 5d ab 3e 6a cf 5e 3e 3c 66 33 3e
       -0.0023943777 0.33469638 0.2175881 0.17519468
000130 0c 8a 8d 3e 43 25 54 be f1 9e 76 bd a2 6d 2a be
       0.27644384 -0.20717339 -0.060210172 -0.16643384

model.lstm.bias_hh_l0 f4 [80]
000000 0c 06 c3 bd 39 93 07 be ce 63 36 bd e0 ce 42 be
       -0.09522638 -0.13239755 -0.044528775 -0.19024229
000010 4a 47 19 3e b7 a8 3f 3e 70 d7 60 3e 4c f2 3a 3d
       0.14968601 0.18716703 0.21957183 0.04564123
000020 ad 65 8e 3d b7 66 57 3e a2 6c 7a be 15 74 14 bd
       0.06952987 0.21035276 -0.24455503 -0.036243517
000030 70 eb 23 3e cd 8f 77 3e 9b f5 9a 3e 65 5b e0 3d
       0.16007781 0.2417595 0.30265507 0.10954932
000040 e9 9c 03 3e 35 88 97 3b ed 66 cc bd b9 e0 93 3d
       0.12852825 0.0046243914 -0.09980569 0.07220597
000050 b4 0f db bd 98 e2 a5 3d cc a3 49 bc 80 b9 05 3e
       -0.106963545 0.0809986 -0.012307119 0.13059044
000060 50 bf 13 be ad 61 12 3e 4a bc 23 bd 8d aa 22 3d
       -0.14428449 0.14295073 -0.03997449 0.03971343
000070 c7 f8 f7 3d 13 78 d3 3c 2d 78 2f 3d e8 f1 18 3e
       0.121079974 0.025814092 0.042839218 0.1493603
000080 70 55 50 be 21 14 0b be 8f d6 07 be 21 0e a0 3d
       -0.20345092 -0.13581897 -0.13265441 0.07815195
000090 f7 04 07 3d 3d 71 07 be 54 59 16 3e bf 9b 3b 3e
       0.03296372 -0.1322679 0.14682513 0.18321131
0000a0 9c ca 41 3e 37 55 9f bc 55 f4 40 3c 05 46 f9 bd
       0.18924946 -0.019449813 0.011777003 -0.12171558
0000b0 b4 b9 44 be f2 9a 48 be b0 ae 2d be 49 8e 8f bd
       -0.19211465 -0.19590357 -0.16961169 -0.070095606
0000c0 9f 71 5e 3d 79 1e 56 3e a2 7d 4f bd 06 3a 2c 3e
       0.054307576 0.20910062 -0.050656922 0.16819009
0000d0 38 bd e7 bc 94 20 21 3c 3d 6c 3a 3e aa fc 2c 3d
       -0.028288469 0.009834427 0.18205352 0.042233147
0000e0 e2 12 04 bd 0c c2 bd 3d 1e b8 10 3e df b7 09 3e
       -0.03224457 0.09265527 0.14132735 0.13449048
0000f0 4c 33 d2 3d e5 1e 8d 3e 7e c2 cd 3e a5 f0 79 be
       0.1026369 0.27562633 0.40187448 -0.24408205
000100 6d 89 ad bb e9 47 05 be 79 f0 e3 3e 11 39 bb 3d
       -0.0052959234 -0.13015713 0.44519404 0.09141744
000110 44 73 5d 3c ac 50 e1 3d 26 08 83 be 6a b8 dd 3c
       0.013516251 0.11001715 -0.25592154 0.027065475
000120 f2 62 39 3e ce 6a 28 3e 33 0d 46 3e 22 0f 10 3e
       0.18104151 0.16446993 0.19340973 0.14068273
000130 6a 76 66 3e 36 09 24 3e 64 d0 04 3c f3 67 1c be
       0.22506109 0.16019139 0.008106325 -0.15274028

model.linear.weight f4 [1, 20]
000000 4d 1d cd 3d 02 6f 4e c0 d9 97 40 c0 46 7a 0e be
       0.10015354 -3.2255254 -3.009268 -0.13913831
000010 74 68 34 c0 32 d5 3e c0 d3 a9 48 c0 2d 95 3f 40
       -2.8188753 -2.9817624 -3.1353652 2.99348
000020 96 b5 43 40 27 88 44 40 3d b9 bb 3d be 4f f7 bb
       3.0579581 3.07081 0.09166191 -0.007547348
000030 b8 5d 3a 40 7c b2 41 c0 b0 44 3b 40 f5 af 27 40
       2.9119701 -3.0265188 2.9260674 2.6201146
000040 13 eb 42 c0 d2 df 10 3d 98 58 07 bd 82 c6 54 bd
       -3.0455978 0.0353697 -0.033043474 -0.051947124

exp_avg f4 [80, 1]
000000 73 83 84 38 04 00 00 80 63 87 9c b6 ad df db 36
       6.318735e-05 -6e-45 -4.6649234e-06 6.552748e-06
000010 1b 50 96 b9 04 00 00 80 69 03 00 80 3d 6e c5 bd
       -0.00028669913 -6e-45 -1.223e-42 -0.09640167
000020 fd de 5d bd fd 7f 52 b7 85 93 ff 3a 1b 55 e2 2f
       -0.054167736 -1.2546775e-05 0.001949892 4.1169632e-10
000030 04 00 00 80 6f 8a 9a b6 d9 95 69 bd 00 00 00 00
       -6e-45 -4.6056734e-06 -0.05702767 0.0
000040 33 03 c7 bd ac c5 34 2c 0a 0f 26 3c 1e ef d1 a4
       -0.09717407 2.5689268e-12 0.0101354215 -9.104438e-17
000050 00 00 00 00 00 00 00 00 00 00 00 00 00 00 00 00
       0.0 0.0 0.0 0.0
000060 00 00 00 00 00 00 00 00 00 00 00 00 00 00 00 00
       0.0 0.0 0.0 0.0
000070 00 00 00 00 00 00 00 00 00 00 00 00 00 00 00 00
       0.0 0.0 0.0 0.0
000080 00 00 00 00 00 00 00 00 00 00 00 00 00 00 00 00
       0.0 0.0 0.0 0.0
000090 00 00 00 00 00 00 00 00 00 00 00 00 00 00 00 00
       0.0 0.0 0.0 0.0
0000a0 00 00 00 00 04 00 00 00 20 76 e0 13 00 00 00 00
       0.0 6e-45 5.666203e-27 0.0
0000b0 00 00 00 00 83 1d 9b 36 00 00 00 00 00 00 00 00
       0.0 4.6227956e-06 0.0 0.0
0000c0 04 00 00 80 04 00 00 80 00 00 00 00 fe 7c 47 28
       -6e-45 -6e-45 0.0 1.10738225e-14
0000d0 04 00 00 80 04 00 00 00 00 00 00 00 00 00 00 00
       -6e-45 6e-45 0.0 0.0
0000e0 04 00 00 00 00 00 00 00 00 00 00 00 00 00 00 00
       6e-45 0.0 0.0 0.0
0000f0 37 21 82 38 8c f7 41 be 52 4c 80 bd d1 be db 36
       6.20507e-05 -0.18942088 -0.06264557 6.5489226e-06
000100 d5 09 59 bc 00 00 00 00 f9 a0 d2 bd 6d 9e 0a b7
       -0.013246973 0.0 -0.10284609 -8.262327e-06
000110 14 3e 33 ba ac e7 99 bd 6c 16 02 3b 00 00 00 00
       -0.00068375585 -0.07514891 0.001984979 0.0
000120 89 92 02 bd e5 59 be bd 4b f9 09 b7 00 00 00 00
       -0.031878028 -0.0929449 -8.223879e-06 0.0
000130 dd df 80 bb ac c5 34 2c 00 00 00 00 1e ef d1 a4
       -0.0039329366 2.5689268e-12 0.0 -9.104438e-17

exp_avg_sq f4 [80, 1]
000000 92 12 a0 3b 10 6a a4 2e 5c 51 be 37 46 29 52 38
       0.0048850263 7.476697e-11 2.2687651e-05 5.010634e-05
000010 b7 4c 50 3d ed a4 4a 30 12 fb 9f 30 db eb 9a 45
       0.05085441 7.3721546e-10 1.1640131e-09 4957.482
000020 d5 28 ca 44 9f 10 86 39 b9 0a 0d 44 1f da 03 2c
       1617.276 0.00025570855 564.16754 1.8737301e-12
000030 3b 2b 43 2f c8 74 ab 32 7c d8 d3 44 00 00 00 00
       1.7750505e-10 1.9960126e-08 1694.7651 0.0
000040 56 1d 9e 45 96 2c 11 1f 4e d9 cd 42 d9 d8 33 0f
       5059.667 3.0741825e-20 102.92442 8.867145e-30
000050 00 00 00 00 00 00 00 00 00 00 00 00 00 00 00 00
       0.0 0.0 0.0 0.0
000060 00 00 00 00 00 00 00 00 00 00 00 00 00 00 00 00
       0.0 0.0 0.0 0.0
000070 00 00 00 00 00 00 00 00 00 00 00 00 00 00 00 00
       0.0 0.0 0.0 0.0
000080 00 00 00 00 00 00 00 00 00 00 00 00 00 00 00 00
       0.0 0.0 0.0 0.0
000090 00 00 00 00 00 00 00 00 00 00 00 00 00 00 00 00
       0.0 0.0 0.0 0.0
0000a0 00 00 00 00 fb 05 46 2c 91 bb 09 36 00 00 00 00
       0.0 2.8140812e-12 2.0523769e-06 0.0
0000b0 00 00 00 00 1e ec 90 38 00 00 00 00 00 00 00 00
       0.0 6.910435e-05 0.0 0.0
0000c0 48 aa e7 2d 4a 42 0b 31 00 00 00 00 fb b2 35 1c
       2.633728e-11 2.0264843e-09 0.0 6.0119203e-22
0000d0 70 ce b0 30 40 58 54 2d 00 00 00 00 00 00 00 00
       1.2864358e-09 1.20704e-11 0.0 0.0
0000e0 91 9f d4 2d 00 00 00 00 00 00 00 00 00 00 00 00
       2.4172471e-11 0.0 0.0 0.0
0000f0 40 26 01 44 d6 00 95 46 76 73 05 45 0e 26 39 40
       516.59766 19072.418 2135.2163 2.8929477
000100 0b db ca 42 00 00 00 00 bf 4c b2 45 5a 41 c1 31
       101.42782 0.0 5705.5933 5.624469e-09
000110 21 c8 8c 3e ac 17 46 45 61 b4 aa 40 00 00 00 00
       0.27496436 3169.4795 5.334519 0.0
000120 cd 26 0f 44 08 9d 8b 45 d7 9f 42 39 00 00 00 00
       572.60626 4467.629 0.00018560827 0.0
000130 ee 0b 1d 41 92 2c 11 1f 00 00 00 00 da d8 33 0f
       9.8154125 3.0741812e-20 0.0 8.8671455e-30

exp_avg f4 [80, 20]
000000 00 00 00 00 00 00 00 00 00 00 00 00 00 00 00 00
       0.0 0.0 0.0 0.0
000010 00 00 00 00 00 00 00 00 00 00 00 00 00 00 00 00
       0.0 0.0 0.0 0.0
000020 00 00 00 00 00 00 00 00 00 00 00 00 00 00 00 00
       0.0 0.0 0.0 0.0
000030 00 00 00 00 00 00 00 00 00 00 00 00 00 00 00 00
       0.0 0.0 0.0 0.0
000040 00 00 00 00 00 00 00 00 00 00 00 00 00 00 00 00
       0.0 0.0 0.0 0.0
000050 00 00 00 00 00 00 00 00 00 00 00 00 00 00 00 00
       0.0 0.0 0.0 0.0
000060 00 00 00 00 00 00 00 00 00 00 00 00 00 00 00 00
       0.0 0.0 0.0 0.0
000070 00 00 00 00 00 00 00 00 00 00 00 00 00 00 00 00
       0.0 0.0 0.0 0.0
000080 00 00 00 00 00 00 00 00 00 00 00 00 00 00 00 00
       0.0 0.0 0.0 0.0
000090 00 00 00 00 00 00 00 00 00 00 00 00 00 00 00 00
       0.0 0.0 0.0 0.0
0000a0 00 00 00 00 00 00 00 00 00 00 00 00 00 00 00 00
       0.0 0.0 0.0 0.0
0000b0 00 00 00 00 00 00 00 00 00 00 00 00 00 00 00 00
       0.0 0.0 0.0 0.0
0000c0 00 00 00 00 00 00 00 00 00 00 00 00 00 00 00 00
       0.0 0.0 0.0 0.0
0000d0 00 00 00 00 00 00 00 00 00 00 00 00 00 00 00 00
       0.0 0.0 0.0 0.0
0000e0 00 00 00 00 00 00 00 00 00 00 00 00 00 00 00 00
       0.0 0.0 0.0 0.0
0000f0 00 00 00 00 00 00 00 00 00 00 00 00 00 00 00 00
       0.0 0.0 0.0 0.0
000100 00 00 00 00 00 00 00 00 00 00 00 00 00 00 00 00
       0.0 0.0 0.0 0.0
000110 00 00 00 00 00 00 00 00 00 00 00 00 00 00 00 00
       0.0 0.0 0.0 0.0
000120 00 00 00 00 00 00 00 00 00 00 00 00 00 00 00 00
       0.0 0.0 0.0 0.0
000130 00 00 00 00 00 00 00 00 00 00 00 00 00 00 00 00
       0.0 0.0 0.0 0.0
000140 00 00 00 00 00 00 00 00 00 00 00 00 00 00 00 00
       0.0 0.0 0.0 0.0
000150 00 00 00 00 00 00 00 00 00 00 00 00 00 00 00 00
       0.0 0.0 0.0 0.0
000160 00 00 00 00 00 00 00 00 00 00 00 00 00 00 00 00
       0.0 0.0 0.0 0.0
000170 00 00 00 00 00 00 00 00 00 00 00 00 00 00 00 00
       0.0 0.0 0.0 0.0
000180 00 00 00 00 00 00 00 00 00 00 00 00 00 00 00 00
       0.0 0.0 0.0 0.0
000190 00 00 00 00 00 00 00 00 00 00 00 00 00 00 00 00
       0.0 0.0 0.0 0.0
0001a0 00 00 00 00 00 00 00 00 00 00 00 00 00 00 00 00
       0.0 0.0 0.0 0.0
0001b0 00 00 00 00 00 00 00 00 00 00 00 00 00 00 00 00
       0.0 0.0 0.0 0.0
0001c0 00 00 00 00 00 00 00 00 00 00 00 00 00 00 00 00
       0.0 0.0 0.0 0.0
0001d0 00 00 00 00 00 00 00 00 00 00 00 00 00 00 00 00
       0.0 0.0 0.0 0.0
0001e0 00 00 00 00 00 00 00 00 00 00 00 00 00 00 00 00
       0.0 0.0 0.0 0.0
0001f0 00 00 00 00 00 00 00 00 00 00 00 00 00 00 00 00
       0.0 0.0 0.0 0.0
000200 00 00 00 00 00 00 00 00 00 00 00 00 00 00 00 00
       0.0 0.0 0.0 0.0
000210 00 00 00 00 00 00 00 00 00 00 00 00 00 00 00 00
       0.0 0.0 0.0 0.0
000220 00 00 00 00 00 00 00 00 00 00 00 00 00 00 00 00
       0.0 0.0 0.0 0.0
000230 00 00 00 00 00 00 00 00 00 00 00 00 00 00 00 00
       0.0 0.0 0.0 0.0
000240 00 00 00 00 00 00 00 00 00 00 00 00 00 00 00 00
       0.0 0.0 0.0 0.0
000250 00 00 00 00 00 00 00 00 00 00 00 00 00 00 00 00
       0.0 0.0 0.0 0.0
000260 00 00 00 00 00 00 00 00 00 00 00 00 00 00 00 00
       0.0 0.0 0.0 0.0
000270 00 00 00 00 00 00 00 00 00 00 00 00 00 00 00 00
       0.0 0.0 0.0 0.0
000280 00 00 00 00 00 00 00 00 00 00 00 00 00 00 00 00
       0.0 0.0 0.0 0.0
000290 00 00 00 00 00 00 00 00 00 00 00 00 00 00 00 00
       0.0 0.0 0.0 0.0
0002a0 00 00 00 00 00 00 00 00 00 00 00 00 00 00 00 00
       0.0 0.0 0.0 0.0
0002b0 00 00 00 00 00 00 00 00 00 00 00 00 00 00 00 00
       0.0 0.0 0.0 0.0
0002c0 00 00 00 00 00 00 00 00 00 00 00 00 00 00 00 00
       0.0 0.0 0.0 0.0
0002d0 00 00 00 00 00 00 00 00 00 00 00 00 00 00 00 00
       0.0 0.0 0.0 0.0
0002e0 00 00 00 00 00 00 00 00 00 00 00 00 00 00 00 00
       0.0 0.0 0.0 0.0
0002f0 00 00 00 00 00 00 00 00 00 00 00 00 00 00 00 00
       0.0 0.0 0.0 0.0
000300 00 00 00 00 00 00 00 00 00 00 00 00 00 00 00 00
       0.0 0.0 0.0 0.0
000310 00 00 00 00 00 00 00 00 00 00 00 00 00 00 00 00
       0.0 0.0 0.0 0.0
000320 00 00 00 00 00 00 00 00 00 00 00 00 00 00 00 00
       0.0 0.0 0.0 0.0
000330 00 00 00 00 00 00 00 00 00 00 00 00 00 00 00 00
       0.0 0.0 0.0 0.0
000340 00 00 00 00 00 00 00 00 00 00 00 00 00 00 00 00
       0.0 0.0 0.0 0.0
000350 00 00 00 00 00 00 00 00 00 00 00 00 00 00 00 00
       0.0 0.0 0.0 0.0
000360 00 00 00 00 00 00 00 00 00 00 00 00 00 00 00 00
       0.0 0.0 0.0 0.0
000370 00 00 00 00 00 00 00 00 00 00 00 00 00 00 00 00
       0.0 0.0 0.0 0.0
000380 00 00 00 00 00 00 00 00 00 00 00 00 00 00 00 00
       0.0 0.0 0.0 0.0
000390 00 00 00 00 00 00 00 00 00 00 00 00 00 00 00 00
       0.0 0.0 0.0 0.0
0003a0 00 00 00 00 00 00 00 00 00 00 00 00 00 00 00 00
       0.0 0.0 0.0 0.0
0003b0 00 00 00 00 00 00 00 00 00 00 00 00 00 00 00 00
       0.0 0.0 0.0 0.0
0003c0 00 00 00 00 00 00 00 00 00 00 00 00 00 00 00 00
       0.0 0.0 0.0 0.0
0003d0 00 00 00 00 00 00 00 00 00 00 00 00 00 00 00 00
       0.0 0.0 0.0 0.0
0003e0 00 00 00 00 00 00 00 00 00 00 00 00 00 00 00 00
       0.0 0.0 0.0 0.0
0003f0 00 00 00 00 00 00 00 00 00 00 00 00 00 00 00 00
       0.0 0.0 0.0 0.0

exp_avg_sq f4 [80, 20]
000000 00 00 00 00 00 00 00 00 00 00 00 00 00 00 00 00
       0.0 0.0 0.0 0.0
000010 00 00 00 00 00 00 00 00 00 00 00 00 00 00 00 00
       0.0 0.0 0.0 0.0
000020 00 00 00 00 00 00 00 00 00 00 00 00 00 00 00 00
       0.0 0.0 0.0 0.0
000030 00 00 00 00 00 00 00 00 00 00 00 00 00 00 00 00
       0.0 0.0 0.0 0.0
000040 00 00 00 00 00 00 00 00 00 00 00 00 00 00 00 00
       0.0 0.0 0.0 0.0
000050 00 00 00 00 00 00 00 00 00 00 00 00 00 00 00 00
       0.0 0.0 0.0 0.0
000060 00 00 00 00 00 00 00 00 00 00 00 00 00 00 00 00
       0.0 0.0 0.0 0.0
000070 00 00 00 00 00 00 00 00 00 00 00 00 00 00 00 00
       0.0 0.0 0.0 0.0
000080 00 00 00 00 00 00 00 00 00 00 00 00 00 00 00 00
       0.0 0.0 0.0 0.0
000090 00 00 00 00 00 00 00 00 00 00 00 00 00 00 00 00
       0.0 0.0 0.0 0.0
0000a0 00 00 00 00 00 00 00 00 00 00 00 00 00 00 00 00
       0.0 0.0 0.0 0.0
0000b0 00 00 00 00 00 00 00 00 00 00 00 00 00 00 00 00
       0.0 0.0 0.0 0.0
0000c0 00 00 00 00 00 00 00 00 00 00 00 00 00 00 00 00
       0.0 0.0 0.0 0.0
0000d0 00 00 00 00 00 00 00 00 00 00 00 00 00 00 00 00
       0.0 0.0 0.0 0.0
0000e0 00 00 00 00 00 00 00 00 00 00 00 00 00 00 00 00
       0.0 0.0 0.0 0.0
0000f0 00 00 00 00 00 00 00 00 00 00 00 00 00 00 00 00
       0.0 0.0 0.0 0.0
000100 00 00 00 00 00 00 00 00 00 00 00 00 00 00 00 00
       0.0 0.0 0.0 0.0
000110 00 00 00 00 00 00 00 00 00 00 00 00 00 00 00 00
       0.0 0.0 0.0 0.0
000120 00 00 00 00 00 00 00 00 00 00 00 00 00 00 00 00
       0.0 0.0 0.0 0.0
000130 00 00 00 00 00 00 00 00 00 00 00 00 00 00 00 00
       0.0 0.0 0.0 0.0
000140 00 00 00 00 00 00 00 00 00 00 00 00 00 00 00 00
       0.0 0.0 0.0 0.0
000150 00 00 00 00 00 00 00 00 00 00 00 00 00 00 00 00
       0.0 0.0 0.0 0.0
000160 00 00 00 00 00 00 00 00 00 00 00 00 00 00 00 00
       0.0 0.0 0.0 0.0
000170 00 00 00 00 00 00 00 00 00 00 00 00 00 00 00 00
       0.0 0.0 0.0 0.0
000180 00 00 00 00 00 00 00 00 00 00 00 00 00 00 00 00
       0.0 0.0 0.0 0.0
000190 00 00 00 00 00 00 00 00 00 00 00 00 00 00 00 00
       0.0 0.0 0.0 0.0
0001a0 00 00 00 00 00 00 00 00 00 00 00 00 00 00 00 00
       0.0 0.0 0.0 0.0
0001b0 00 00 00 00 00 00 00 00 00 00 00 00 00 00 00 00
       0.0 0.0 0.0 0.0
0001c0 00 00 00 00 00 00 00 00 00 00 00 00 00 00 00 00
       0.0 0.0 0.0 0.0
0001d0 00 00 00 00 00 00 00 00 00 00 00 00 00 00 00 00
       0.0 0.0 0.0 0.0
0001e0 00 00 00 00 00 00 00 00 00 00 00 00 00 00 00 00
       0.0 0.0 0.0 0.0
0001f0 00 00 00 00 00 00 00 00 00 00 00 00 00 00 00 00
       0.0 0.0 0.0 0.0
000200 00 00 00 00 00 00 00 00 00 00 00 00 00 00 00 00
       0.0 0.0 0.0 0.0
000210 00 00 00 00 00 00 00 00 00 00 00 00 00 00 00 00
       0.0 0.0 0.0 0.0
000220 00 00 00 00 00 00 00 00 00 00 00 00 00 00 00 00
       0.0 0.0 0.0 0.0
000230 00 00 00 00 00 00 00 00 00 00 00 00 00 00 00 00
       0.0 0.0 0.0 0.0
000240 00 00 00 00 00 00 00 00 00 00 00 00 00 00 00 00
       0.0 0.0 0.0 0.0
000250 00 00 00 00 00 00 00 00 00 00 00 00 00 00 00 00
       0.0 0.0 0.0 0.0
000260 00 00 00 00 00 00 00 00 00 00 00 00 00 00 00 00
       0.0 0.0 0.0 0.0
000270 00 00 00 00 00 00 00 00 00 00 00 00 00 00 00 00
       0.0 0.0 0.0 0.0
000280 00 00 00 00 00 00 00 00 00 00 00 00 00 00 00 00
       0.0 0.0 0.0 0.0
000290 00 00 00 00 00 00 00 00 00 00 00 00 00 00 00 00
       0.0 0.0 0.0 0.0
0002a0 00 00 00 00 00 00 00 00 00 00 00 00 00 00 00 00
       0.0 0.0 0.0 0.0
0002b0 00 00 00 00 00 00 00 00 00 00 00 00 00 00 00 00
       0.0 0.0 0.0 0.0
0002c0 00 00 00 00 00 00 00 00 00 00 00 00 00 00 00 00
       0.0 0.0 0.0 0.0
0002d0 00 00 00 00 00 00 00 00 00 00 00 00 00 00 00 00
       0.0 0.0 0.0 0.0
0002e0 00 00 00 00 00 00 00 00 00 00 00 00 00 00 00 00
       0.0 0.0 0.0 0.0
0002f0 00 00 00 00 00 00 00 00 00 00 00 00 00 00 00 00
       0.0 0.0 0.0 0.0
000300 00 00 00 00 00 00 00 00 00 00 00 00 00 00 00 00
       0.0 0.0 0.0 0.0
000310 00 00 00 00 00 00 00 00 00 00 00 00 00 00 00 00
       0.0 0.0 0.0 0.0
000320 00 00 00 00 00 00 00 00 00 00 00 00 00 00 00 00
       0.0 0.0 0.0 0.0
000330 00 00 00 00 00 00 00 00 00 00 00 00 00 00 00 00
       0.0 0.0 0.0 0.0
000340 00 00 00 00 00 00 00 00 00 00 00 00 00 00 00 00
       0.0 0.0 0.0 0.0
000350 00 00 00 00 00 00 00 00 00 00 00 00 00 00 00 00
       0.0 0.0 0.0 0.0
000360 00 00 00 00 00 00 00 00 00 00 00 00 00 00 00 00
       0.0 0.0 0.0 0.0
000370 00 00 00 00 00 00 00 00 00 00 00 00 00 00 00 00
       0.0 0.0 0.0 0.0
000380 00 00 00 00 00 00 00 00 00 00 00 00 00 00 00 00
       0.0 0.0 0.0 0.0
000390 00 00 00 00 00 00 00 00 00 00 00 00 00 00 00 00
       0.0 0.0 0.0 0.0
0003a0 00 00 00 00 00 00 00 00 00 00 00 00 00 00 00 00
       0.0 0.0 0.0 0.0
0003b0 00 00 00 00 00 00 00 00 00 00 00 00 00 00 00 00
       0.0 0.0 0.0 0.0
0003c0 00 00 00 00 00 00 00 00 00 00 00 00 00 00 00 00
       0.0 0.0 0.0 0.0
0003d0 00 00 00 00 00 00 00 00 00 00 00 00 00 00 00 00
       0.0 0.0 0.0 0.0
0003e0 00 00 00 00 00 00 00 00 00 00 00 00 00 00 00 00
       0.0 0.0 0.0 0.0
0003f0 00 00 00 00 00 00 00 00 00 00 00 00 00 00 00 00
       0.0 0.0 0.0 0.0

exp_avg f4 [80]
000000 60 cf 11 35 04 00 00 80 a2 a6 40 b3 d0 b2 77 33
       5.431848e-07 -6e-45 -4.4855035e-08 5.7671798e-08
000010 92 5b 2a b6 04 00 00 80 08 00 00 80 0d 3d 48 ba
       -2.5385275e-06 -6e-45 -1.1e-44 -0.0007638492
000020 36 9e e4 b9 97 9d fe b3 e9 5a 83 37 19 7f 84 2c
       -0.00043605425 -1.1856462e-07 1.565875e-05 3.7657763e-12
000030 04 00 00 80 3e 34 3e b3 f3 dd ec b9 00 00 00 00
       -6e-45 -4.4285336e-08 -0.00045178793 0.0
000040 3b 28 49 ba 62 e6 d7 28 5e 3a 9e 38 b8 3f 7f a1
       -0.00076735363 2.3969708e-14 7.544899e-05 -8.648169e-19
000050 00 00 00 00 00 00 00 00 00 00 00 00 00 00 00 00
       0.0 0.0 0.0 0.0
000060 00 00 00 00 00 00 00 00 00 00 00 00 00 00 00 00
       0.0 0.0 0.0 0.0
000070 00 00 00 00 00 00 00 00 00 00 00 00 00 00 00 00
       0.0 0.0 0.0 0.0
000080 00 00 00 00 00 00 00 00 00 00 00 00 00 00 00 00
       0.0 0.0 0.0 0.0
000090 00 00 00 00 00 00 00 00 00 00 00 00 00 00 00 00
       0.0 0.0 0.0 0.0
0000a0 00 00 00 00 04 00 00 00 53 21 8a 10 00 00 00 00
       0.0 6e-45 5.4482747e-29 0.0
0000b0 00 00 00 00 41 e9 3e 33 00 00 00 00 00 00 00 00
       0.0 4.4449965e-08 0.0 0.0
0000c0 04 00 00 80 04 00 00 80 00 00 00 00 fa e9 f0 24
       -6e-45 -6e-45 0.0 1.0447978e-16
0000d0 04 00 00 80 04 00 00 00 00 00 00 00 00 00 00 00
       -6e-45 6e-45 0.0 0.0
0000e0 04 00 00 00 00 00 00 00 00 00 00 00 00 00 00 00
       6e-45 0.0 0.0 0.0
0000f0 0b 19 0f 35 f6 f4 c0 ba 2c dc 03 ba 70 8c 77 33
       5.3308094e-07 -0.0014721442 -0.00050300616 5.7636896e-08
000100 ba a4 ea b8 00 00 00 00 9c c4 54 ba 9c 9b aa b3
       -0.00011188672 0.0 -0.0008116455 -7.944547e-08
000110 48 e2 c8 b6 14 aa 1f ba 0f e0 85 37 00 00 00 00
       -5.986807e-06 -0.0006090712 1.5959171e-05 0.0
000120 b7 24 8a b9 46 dd 41 ba 5d d0 a9 b3 00 00 00 00
       -0.00026348766 -0.0007395338 -7.907577e-08 0.0
000130 09 8a 0d b8 5a e6 d7 28 00 00 00 00 b8 3f 7f a1
       -3.3745575e-05 2.3969694e-14 0.0 -8.648169e-19

exp_avg_sq f4 [80]
000000 e6 51 b5 34 a5 0d f9 27 fa 76 ec 30 6d 66 83 31
       3.3773466e-07 6.9126177e-15 1.7205075e-09 3.8242463e-09
000010 ab d8 5b 36 b5 ee 94 29 4d f0 e3 29 cb 44 cc 3d
       3.275966e-06 6.6139294e-14 1.01225106e-13 0.09974059
000020 44 ea 30 3d eb be a2 32 45 7c db 3c 16 62 39 25
       0.043192163 1.8946102e-08 0.026792655 1.6079425e-16
000030 3d 78 93 28 eb 20 e0 2b f0 6b ff 3c 00 00 00 00
       1.6372424e-14 1.5925294e-12 0.031179398 0.0
000040 05 54 ce 3d f8 8c 58 18 cb 76 9c 3b 19 db 87 08
       0.10074619 2.7988517e-24 0.0047749034 8.176527e-34
000050 00 00 00 00 00 00 00 00 00 00 00 00 00 00 00 00
       0.0 0.0 0.0 0.0
000060 00 00 00 00 00 00 00 00 00 00 00 00 00 00 00 00
       0.0 0.0 0.0 0.0
000070 00 00 00 00 00 00 00 00 00 00 00 00 00 00 00 00
       0.0 0.0 0.0 0.0
000080 00 00 00 00 00 00 00 00 00 00 00 00 00 00 00 00
       0.0 0.0 0.0 0.0
000090 00 00 00 00 00 00 00 00 00 00 00 00 00 00 00 00
       0.0 0.0 0.0 0.0
0000a0 00 00 00 00 ec f9 95 25 55 f7 2b 2f 00 00 00 00
       0.0 2.6016733e-16 1.564023e-10 0.0
0000b0 00 00 00 00 2d 66 b7 31 00 00 00 00 00 00 00 00
       0.0 5.337617e-09 0.0 0.0
0000c0 ae 08 19 27 35 64 32 2a 00 00 00 00 70 dd 87 15
       2.123772e-15 1.5844342e-13 0.0 5.487543e-26
0000d0 a1 b3 f7 29 dd db 88 26 00 00 00 00 00 00 00 00
       1.1000164e-13 9.49649e-16 0.0 0.0
0000e0 82 1e 12 27 00 00 00 00 00 00 00 00 00 00 00 00
       2.0278109e-15 0.0 0.0 0.0
0000f0 6a cc d8 3c cb c6 9d 3e 83 17 1b 3d 2f 0e 4d 39
       0.02646466 0.3081573 0.03786422 0.00019555607
000100 10 5c 85 3b 00 00 00 00 dd d5 ef 3d af 5c 12 2b
       0.0040698126 0.0 0.11710713 5.1998244e-13
000110 7f ab 95 37 ea ca 83 3d 58 16 92 39 00 00 00 00
       1.7842043e-05 0.06435187 0.00027863937 0.0
000120 6b 82 a5 3c 0c 08 ab 3d c0 8c 6f 32 00 00 00 00
       0.02020379 0.08351144 1.3943634e-08 0.0
000130 f9 6c 96 39 e3 8c 58 18 00 00 00 00 19 db 87 08
       0.0002869142 2.7988475e-24 0.0 8.176527e-34

exp_avg f4 [80]
000000 60 cf 11 35 04 00 00 80 a2 a6 40 b3 d0 b2 77 33
       5.431848e-07 -6e-45 -4.4855035e-08 5.7671798e-08
000010 92 5b 2a b6 04 00 00 80 08 00 00 80 0d 3d 48 ba
       -2.5385275e-06 -6e-45 -1.1e-44 -0.0007638492
000020 36 9e e4 b9 97 9d fe b3 e9 5a 83 37 19 7f 84 2c
       -0.00043605425 -1.1856462e-07 1.565875e-05 3.7657763e-12
000030 04 00 00 80 3e 34 3e b3 f3 dd ec b9 00 00 00 00
       -6e-45 -4.4285336e-08 -0.00045178793 0.0
000040 3b 28 49 ba 62 e6 d7 28 5e 3a 9e 38 b8 3f 7f a1
       -0.00076735363 2.3969708e-14 7.544899e-05 -8.648169e-19
000050 00 00 00 00 00 00 00 00 00 00 00 00 00 00 00 00
       0.0 0.0 0.0 0.0
000060 00 00 00 00 00 00 00 00 00 00 00 00 00 00 00 00
       0.0 0.0 0.0 0.0
000070 00 00 00 00 00 00 00 00 00 00 00 00 00 00 00 00
       0.0 0.0 0.0 0.0
000080 00 00 00 00 00 00 00 00 00 00 00 00 00 00 00 00
       0.0 0.0 0.0 0.0
000090 00 00 00 00 00 00 00 00 00 00 00 00 00 00 00 00
       0.0 0.0 0.0 0.0
0000a0 00 00 00 00 04 00 00 00 53 21 8a 10 00 00 00 00
       0.0 6e-45 5.4482747e-29 0.0
0000b0 00 00 00 00 41 e9 3e 33 00 00 00 00 00 00 00 00
       0.0 4.4449965e-08 0.0 0.0
0000c0 04 00 00 80 04 00 00 80 00 00 00 00 fa e9 f0 24
       -6e-45 -6e-45 0.0 1.0447978e-16
0000d0 04 00 00 80 04 00 00 00 00 00 00 00 00 00 00 00
       -6e-45 6e-45 0.0 0.0
0000e0 04 00 00 00 00 00 00 00 00 00 00 00 00 00 00 00
       6e-45 0.0 0.0 0.0
0000f0 0b 19 0f 35 f6 f4 c0 ba 2c dc 03 ba 70 8c 77 33
       5.3308094e-07 -0.0014721442 -0.00050300616 5.7636896e-08
000100 ba a4 ea b8 00 00 00 00 9c c4 54 ba 9c 9b aa b3
       -0.00011188672 0.0 -0.0008116455 -7.944547e-08
000110 48 e2 c8 b6 14 aa 1f ba 0f e0 85 37 00 00 00 00
       -5.986807e-06 -0.0006090712 1.5959171e-05 0.0
000120 b7 24 8a b9 46 dd 41 ba 5d d0 a9 b3 00 00 00 00
       -0.00026348766 -0.0007395338 -7.907577e-08 0.0
000130 09 8a 0d b8 5a e6 d7 28 00 00 00 00 b8 3f 7f a1
       -3.3745575e-05 2.3969694e-14 0.0 -8.648169e-19

exp_avg_sq f4 [80]
000000 e6 51 b5 34 a5 0d f9 27 fa 76 ec 30 6d 66 83 31
       3.3773466e-07 6.9126177e-15 1.7205075e-09 3.8242463e-09
000010 ab d8 5b 36 b5 ee 94 29 4d f0 e3 29 cb 44 cc 3d
       3.275966e-06 6.6139294e-14 1.01225106e-13 0.09974059
000020 44 ea 30 3d eb be a2 32 45 7c db 3c 16 62 39 25
       0.043192163 1.8946102e-08 0.026792655 1.6079425e-16
000030 3d 78 93 28 eb 20 e0 2b f0 6b ff 3c 00 00 00 00
       1.6372424e-14 1.5925294e-12 0.031179398 0.0
000040 05 54 ce 3d f8 8c 58 18 cb 76 9c 3b 19 db 87 08
       0.10074619 2.7988517e-24 0.0047749034 8.176527e-34
000050 00 00 00 00 00 00 00 00 00 00 00 00 00 00 00 00
       0.0 0.0 0.0 0.0
000060 00 00 00 00 00 00 00 00 00 00 00 00 00 00 00 00
       0.0 0.0 0.0 0.0
000070 00 00 00 00 00 00 00 00 00 00 00 00 00 00 00 00
       0.0 0.0 0.0 0.0
000080 00 00 00 00 00 00 00 00 00 00 00 00 00 00 00 00
       0.0 0.0 0.0 0.0
000090 00 00 00 00 00 00 00 00 00 00 00 00 00 00 00 00
       0.0 0.0 0.0 0.0
0000a0 00 00 00 00 ec f9 95 25 55 f7 2b 2f 00 00 00 00
       0.0 2.6016733e-16 1.564023e-10 0.0
0000b0 00 00 00 00 2d 66 b7 31 00 00 00 00 00 00 00 00
       0.0 5.337617e-09 0.0 0.0
0000c0 ae 08 19 27 35 64 32 2a 00 00 00 00 70 dd 87 15
       2.123772e-15 1.5844342e-13 0.0 5.487543e-26
0000d0 a1 b3 f7 29 dd db 88 26 00 00 00 00 00 00 00 00
       1.1000164e-13 9.49649e-16 0.0 0.0
0000e0 82 1e 12 27 00 00 00 00 00 00 00 00 00 00 00 00
       2.0278109e-15 0.0 0.0 0.0
0000f0 6a cc d8 3c cb c6 9d 3e 83 17 1b 3d 2f 0e 4d 39
       0.02646466 0.3081573 0.03786422 0.00019555607
000100 10 5c 85 3b 00 00 00 00 dd d5 ef 3d af 5c 12 2b
       0.0040698126 0.0 0.11710713 5.1998244e-13
000110 7f ab 95 37 ea ca 83 3d 58 16 92 39 00 00 00 00
       1.7842043e-05 0.06435187 0.00027863937 0.0
000120 6b 82 a5 3c 0c 08 ab 3d c0 8c 6f 32 00 00 00 00
       0.02020379 0.08351144 1.3943634e-08 0.0
000130 f9 6c 96 39 e3 8c 58 18 00 00 00 00 19 db 87 08
       0.0002869142 2.7988475e-24 0.0 8.176527e-34

exp_avg f4 [1, 20]
000000 ac f0 b5 36 de 45 95 43 e7 45 95 43 c4 80 de b4
       5.4222382e-06 298.54584 298.5461 -4.1444412e-07
000010 eb 45 95 43 ec 45 95 43 e5 45 95 43 e5 45 95 c3
       298.54623 298.54626 298.54605 -298.54605
000020 e8 45 95 c3 e6 45 95 c3 3d c0 36 39 03 fc f9 af
       -298.54614 -298.54608 0.00017428487 -4.54719e-10
000030 ea 45 95 c3 e5 45 95 43 e8 45 95 c3 ec 45 95 c3
       -298.5462 298.54605 -298.54614 -298.54626
000040 e5 45 95 43 e3 98 3e 2b 54 86 15 bb d1 7f 99 23
       298.54605 6.7713733e-13 -0.0022815662 1.6642426e-17

exp_avg_sq f4 [1, 20]
000000 67 16 9a 40 4b ee 7a 47 d7 fe 7a 47 06 96 d6 3b
       4.8152347 64238.293 64254.84 0.006548646
000010 d7 03 7f 47 be 2e 7f 47 57 3e 7a 47 96 0d 7e 47
       65283.84 65326.742 64062.34 65037.586
000020 a2 95 7b 47 0c 76 79 47 cd 28 ed 40 a2 74 a1 28
       64405.633 63862.047 7.4112306 1.7925172e-14
000030 de 6b 7e 47 c5 5c 70 47 70 f2 7d 47 be 2e 7f 47
       65131.867 61532.77 65010.438 65326.742
000040 83 4f 7d 47 be 0b 11 1d 70 f0 2d 43 63 2d c2 0c
       64847.51 1.919666e-21 173.93921 2.991775e-31
