dl_computer_vision/assignments/1/checkpoints/best_checkpoint-v18.ckpt (torch, 75964 bytes, 27 tensors)

model.lstm.weight_ih_l0 f4 [80, 1]
000000 4e c3 26 3f a0 23 08 3f 18 1d 2e 3e 5a 37 24 3f
       0.6514176 0.5317936 0.17003286 0.6414696
000010 57 f7 0b 3f 93 1c 1c bf d4 4e cb be 2d 86 07 bf
       0.54674286 -0.609811 -0.3970858 -0.5293911
000020 8d 64 31 bf 67 f1 2b 3e 93 5d 5a 3e a0 ed 39 bf
       -0.69294053 0.16791306 0.21324758 -0.7262821
000030 e0 7c 2b bf 6b e3 3c 3f 61 81 31 bf 32 5b 13 3f
       -0.6698742 0.7378451 -0.6933804 0.5756103
000040 ae 20 26 3e fa 05 26 3e e4 14 28 3f d6 f9 3a bf
       0.16223404 0.16213217 0.65656877 -0.7303747
000050 7d e5 fa bd ad d4 23 be 44 8b 4f 3d 4c 9c 29 3e
       -0.12250803 -0.15999098 0.050669923 0.16563529
000060 d9 74 47 3e 43 6c 79 bc 76 f2 9a bd cb 5a 31 be
       0.19478168 -0.0152235655 -0.07565777 -0.17319791
000070 bd d8 43 be d6 5f 36 3e ae ba 73 bc 4f f6 9b bd
       -0.19125648 0.17809996 -0.014876051 -0.07615339
000080 49 a8 21 3e 5d 09 37 3c c3 11 52 3e b7 49 39 be
       0.15786852 0.011171666 0.20514588 -0.18094526
000090 e1 e7 41 be 70 05 99 bd b1 7e ba bd f4 da 4e 3d
       -0.18936111 -0.0747174 -0.09106196 0.05050178
0000a0 46 85 40 3e 28 18 fc be 9a c0 e0 bd 54 ce 4f be
       0.1880084 -0.4923718 -0.10974236 -0.20293552
0000b0 aa 88 4e 3e db 4b e4 bd ba 08 52 be 27 2d 2e 3e
       0.2016932 -0.11147281 -0.20511141 0.17009412
0000c0 fc 81 c7 3d 1f e4 d7 bd 2d 25 b9 3d 96 c6 eb 3d
       0.097415894 -0.105415575 0.09040294 0.11512487
0000d0 ee dd af 3d f1 fe 35 3e ca 7f 16 bf 12 6a 35 3e
       0.085872516 0.17773034 -0.5878874 0.17716244
0000e0 97 e4 a5 3e 81 81 62 be 75 6b 1d bf f4 c6 45 be
       0.32400963 -0.22119714 -0.6149209 -0.19314176
0000f0 ae e2 51 3e ad 61 53 3e 3c c7 22 3f b3 85 06 3f
       0.20496628 0.20642729 0.6358526 0.5254776
000100 82 34 14 3f 8f a0 6a be 1e 35 2a be 16 05 36 bf
       0.5789262 -0.2291281 -0.16621825 -0.7110151
000110 1c 40 d7 3d 3e a3 3b 3f 83 6f 18 3f 35 65 17 bf
       0.10510275 0.7329596 0.59545153 -0.59138805
000120 55 ba 57 3d 28 8d 34 3f d7 e0 11 bf a0 3c 33 3f
       0.052667934 0.7052789 -0.56983703 0.7001438
000130 d4 01 1f 3f 19 79 fa be b9 f9 5e 3e 8f 46 16 bf
       0.62112164 -0.48920515 0.21774949 -0.58701414

model.lstm.weight_hh_l0 f4 [80, 20]
000000 5f 4d 76 3d 28 3f 0b be 38 db 75 bd 8c f9 53 3e
       0.06013238 -0.13598311 -0.060023516 0.20700663
000010 23 42 d9 3d 78 e0 eb bd 24 d6 50 be 44 34 c5 bd
       0.10608318 -0.115174234 -0.20394188 -0.096291095
000020 be 8c 87 bd f2 d1 3f be 9d f7 d5 bb c3 c0 90 3d
       -0.06618641 -0.18732432 -0.006529762 0.070680164
000030 17 ab 12 3e 2b 7b 22 3d d0 d3 15 be d1 30 91 39
       0.14323078 0.039668243 -0.14631581 0.00027692926
000040 2f 91 a5 bd 01 0c d6 bd 15 fb c6 3d 9e 70 aa 3c
       -0.08084332 -0.10451508 0.09715859 0.020805653
000050 8a 43 bc 3c f4 be 62 bd 85 7c 5d be 5b fa 28 be
       0.022981424 -0.05535789 -0.21629532 -0.16501753
000060 64 5a 64 bd 98 61 16 3e 8d 10 26 3e 17 46 32 3e
       -0.055750266 0.14685667 0.16217251 0.1740955
000070 78 7d 08 3d 3b 48 69 bc 40 1c 42 be 58 2f b5 bd
       0.03332278 -0.0142384125 -0.18956089 -0.08846921
000080 db 1c 3d 3e 66 f4 32 3e af 9d cd 3d 9c 69 eb bc
       0.18468039 0.17476043 0.100398414 -0.028736882
000090 39 14 83 3a 43 f5 1d 3e a4 b4 24 3e d6 06 03 bd
       0.0010000534 0.15425591 0.16084534 -0.03198894
0000a0 81 40 85 3c 7e c6 81 bc 1e ab 17 be 2b 8d 07 be
       0.01626611 -0.015841719 -0.1481137 -0.13237445
0000b0 47 4e 33 3e e9 b1 1a 3d 28 b3 9c 3d de 34 af bd
       0.17510329 0.037767325 0.07651359 -0.085550055
0000c0 56 a7 52 3e 78 8c 3f be a8 98 22 3e d7 b5 45 be
       0.20571646 -0.18705928 0.15878546 -0.19307648
0000d0 22 e4 9f 3d e1 37 45 be 04 d5 5f be 67 c2 45 3e
       0.07807185 -0.19259597 -0.21858603 0.1931244
0000e0 92 c0 5f bd b5 61 5c 3e 5f 0a 37 3d 33 11 e3 bd
       -0.05462701 0.21521647 0.044687625 -0.11087265
0000f0 da a4 c5 bb b8 0f 2e bd 0d 80 19 3e a9 9e 49 be
       -0.0060316147 -0.04249546 0.14990254 -0.1968943
000100 c7 b1 00 bd 95 17 e1 3c 4d bf 51 3e 09 87 0d 3e
       -0.03141954 0.027477065 0.20483132 0.13821043
000110 f5 36 0d 3a 5a aa 3e be bc db 1f bc 65 4b 45 be
       0.00053869124 -0.18619671 -0.009756979 -0.19267042
000120 c2 df 2e bd 8d 06 0b 3e 48 b7 9d 3d c8 4b 1c be
       -0.04269386 0.13576718 0.07700974 -0.15263283
000130 c0 69 ae 3c 97 09 4b 3e d4 5e 04 3e 60 11 60 3d
       0.02129066 0.19827877 0.12926799 0.05470407
000140 4e 0e a4 bd 29 55 db bd 8f 63 27 bc 75 c1 30 3e
       -0.08010541 -0.107096024 -0.010216608 0.17261298
000150 31 29 b3 bd 8e 45 56 be d7 b7 42 3e 11 5f 27 3e
       -0.08748091 -0.2092497 0.19015442 0.16344859
000160 63 a1 18 be 89 e8 36 be c9 30 98 3d 03 6c e3 3d
       -0.14905314 -0.17862143 0.0743118 0.11104586
000170 57 3b 62 3e f8 c0 1f be c3 f7 2a 3d 49 25 b6 bc
       0.22092949 -0.15600955 0.04174019 -0.022234576
000180 b6 85 87 3c 67 a3 48 3e ff e5 aa 3d 0a 2b 62 bd
       0.01654325 0.19593583 0.083446495 -0.055216826
000190 c4 6f 00 be d1 21 b6 3c 5f 45 18 bb e0 00 69 3d
       -0.12542635 0.022232922 -0.0023234708 0.0568856
0001a0 42 7d 3d 3b 87 73 0d be 0a f7 8f bd 58 69 fa 3d
       0.002891377 -0.13813601 -0.07029541 0.12227124
0001b0 6e 9e 00 be 33 a6 57 3e e9 a5 95 bd a9 cd 2f 3e
       -0.12560436 0.21059494 -0.073070355 0.17168297
0001c0 70 ee 29 be 77 4c 93 3d f5 cb 99 3d 3f 9e 34 be
       -0.16594863 0.07192319 0.07509605 -0.17638491
0001d0 50 9b 5f 3d 92 ad ad 3d 5c 8d 49 3e 1c ea 1c 3e
       0.054591477 0.084803715 0.1968283 0.1532368
0001e0 83 03 31 3d 37 8c 4e 3e 37 26 0a be e2 ee 03 be
       0.04321624 0.20170675 -0.1349114 -0.12884095
0001f0 93 8f d9 3d 42 83 56 3d 74 a7 1d be 0f 11 e3 3d
       0.10623088 0.05237127 -0.1539591 0.11087238
000200 77 9a 6a 3d e5 ee c6 bc 97 ac 19 be 7c 5c db 3d
       0.057276215 -0.024283836 -0.15007244 0.10710999
000210 8b 9b 12 3e 29 e8 44 3e 1e ec 6e 3d 48 5e 5b be
       0.14317147 0.19229187 0.058330648 -0.21422684
000220 00 4f f3 3d 52 bb f9 3d 17 d0 9f 3d 4a 28 23 be
       0.118803024 0.12193932 0.07803362 -0.15933338
000230 fb 29 b7 3d eb 7a 50 3e b0 61 47 be a7 6a 14 3e
       0.08943554 0.2035939 -0.19470859 0.1449381
000240 0a 92 54 3e 09 1b ac bc bc 1e 54 3e fa 23 2a 3d
       0.20758834 -0.021008985 0.20714849 0.041538216
000250 ac 44 a6 3b 67 8b 2f be 95 92 0e be cb e0 01 3d
       0.0050741043 -0.17143022 -0.13923104 0.03170852
000260 08 9d 3d be 64 da cd bd 36 73 90 bd ef 33 d6 bd
       -0.18516934 -0.1005142 -0.07053225 -0.10459124
000270 21 34 61 be 14 22 4d be 8d 7d 08 bd 8c b6 98 bd
       -0.21992542 -0.20032531 -0.03332286 -0.07456693
000280 9c d9 0c be f6 ca d4 3d 04 f2 a3 bd 6f d8 b6 3d
       -0.13754886 0.10390274 -0.08005145 0.08928
000290 6c b0 44 be 65 07 56 be 59 37 36 be 3c de cd 3d
       -0.19207925 -0.20901258 -0.17794551 0.100521535
0002a0 f0 81 b3 bc d0 2f e0 3d 2b a9 bd 3d 71 57 01 3e
       -0.021912545 0.109466195 0.09260782 0.12631012
0002b0 a5 69 c8 3d 52 bb 37 be 55 e4 d7 bd 78 36 51 3d
       0.09785775 -0.17942551 -0.10541598 0.051077336
0002c0 68 1f 50 3d 2b ba 5f 3e e2 1e cc bd 14 70 0b 3e
       0.0508112 0.21848361 -0.09966828 0.13616973
0002d0 a9 58 ec bd 95 20 14 3d 92 88 f6 3d 30 d5 3b 3c
       -0.11540348 0.036163885 0.120377675 0.011464402
0002e0 01 9e 08 be 2a 9d fa 3d ab a5 14 3e 82 c0 4d be
       -0.13341524 0.12237008 0.14516322 -0.20092967
0002f0 85 a2 be 3c 8c c2 da bd 76 cb 1d 3d 37 da 9b bd
       0.023270855 -0.10681638 0.038524114 -0.076099806
000300 34 9f 31 3e 04 71 36 3e f8 ab 20 3d f1 b9 2e be
       0.17345887 0.1781655 0.039226502 -0.17063119
000310 bd 8b 0f bd 6b c7 7e bd 7c 44 59 3d 92 ca 96 3d
       -0.035045374 -0.0622019 0.053043827 0.07362856
000320 76 b5 1e be c5 cf 0f be 45 83 3a be 04 ef 4e 3e
       -0.1549891 -0.14044102 -0.18214138 0.20208365
000330 d4 82 4d be ab 77 1f 3d db 87 57 be 15 7e 34 3e
       -0.20069438 0.038932484 -0.21047918 0.17626221
000340 cf fb 82 bd af fd 1e be d8 28 85 bd 15 70 09 bd
       -0.06395685 -0.1552646 -0.06501931 -0.033554155
000350 02 f3 07 be 3d 6c 04 3e dd e4 15 be 13 98 b4 3d
       -0.13276294 0.12931915 -0.14638086 0.08818068
000360 81 89 37 3e 7f 33 ec 3d 17 be b6 3d 9e f5 c7 bd
       0.17923547 0.115332596 0.089229755 -0.09763645
000370 73 d9 0c be a5 46 36 be e8 ac 19 be be ce 40 3c
       -0.13754825 -0.17800386 -0.15007365 0.011768041
000380 01 0c 3e 3e 62 c0 50 3e 47 f7 54 3e b7 70 84 3c
       0.18559267 0.20385888 0.20797454 0.016167028
000390 70 b6 25 3e 88 42 3b bd ac a7 db 3d fb e0 26 3e
       0.16182876 -0.045717746 0.1072534 0.1629676
0003a0 fc 68 35 3e 27 41 11 be 22 8b bc bd c7 00 53 bd
       0.1771583 -0.1418501 -0.09206225 -0.051514413
0003b0 03 75 6b bc 24 cc 2c 3e d7 64 a5 3d 10 a3 c6 3d
       -0.0143711595 0.16874748 0.08075874 0.096990705
0003c0 c5 af a0 3d 30 50 45 3d 63 d0 b6 bd a7 cc f2 bb
       0.078460254 0.048172176 -0.08926465 -0.0074096504
0003d0 db 05 20 3e 3e df 27 bd 96 bc 28 3c 36 0d 59 be
       0.15627234 -0.040984385 0.010298869 -0.21196446
0003e0 8d 33 32 be 8d d0 34 3e 52 71 4e 3e cc da 58 be
       -0.17402478 0.17657681 0.20160416 -0.21177214
0003f0 a7 40 83 3d d5 f3 21 3b 4d b9 37 3e 31 6c 62 be
       0.06408816 0.0024711986 0.1794178 -0.22111584

model.lstm.bias_ih_l0 f4 [80]
000000 6c 8f 22 3f 4d 42 1b 3f a9 9a 96 3d 5a 55 1e be
       0.63500094 0.6064804 0.07353718 -0.15462247
000010 39 e6 a0 3e a1 31 17 bf 43 79 90 bd fe 75 2c bd
       0.31425646 -0.590601 -0.07054379 -0.042104714
000020 a3 78 40 bf 5e 0d 0e bd e3 ac 26 be 86 5c 37 bf
       -0.7518408 -0.034680717 -0.16276889 -0.71625555
000030 23 39 d4 be 3e 50 96 3e dd bb 7c bf c1 91 10 3f
       -0.41449842 0.29358095 -0.98724157 0.564724
000040 7b 44 65 3d 48 a7 08 3e c7 f9 19 3f 0f 7c 1e bf
       0.05597351 0.13345063 0.60146755 -0.6190805
000050 2c 05 20 3e 1f d3 ea 3b da 3e a2 bd 7d 18 26 3e
       0.15626973 0.007166281 -0.07922144 0.16220279
000060 8c 6d 9c bd 20 d2 e8 bd 9c 4d 08 3e ca b9 56 3d
       -0.07638082 -0.11368203 0.13310856 0.052423276
000070 62 67 d2 bd 96 68 4e be f6 13 49 bc bb b3 11 3e
       -0.10273625 -0.20157084 -0.012272825 0.14228718
000080 52 8b 1f 3e b3 ca 5a be d7 40 e1 3d 90 61 ed 3c
       0.1558049 -0.21366386 0.10998695 0.028977185
000090 ff d6 81 bd 20 f3 a6 bd f1 37 bd 3b 4e 4d ab bd
       -0.063398354 -0.08151841 0.005774491 -0.08364354
0000a0 6d 3b 8b 3c ba 35 c7 bc 5c 20 0c 3e 91 7c d1 3c
       0.01699611 -0.024317611 0.13684219 0.025572093
0000b0 55 28 fc 3d 29 57 1d bd ce 04 2a be 95 84 41 3e
       0.1231238 -0.0384132 -0.16603395 0.18898232
0000c0 94 de 64 be 97 08 15 3e 11 53 16 3d c0 03 e7 bd
       -0.22350532 0.14554058 0.036700312 -0.11280012
0000d0 bd 65 2a 3e c4 32 3b be 71 1c 0c bf 21 db 07 3d
       0.16640373 -0.18281084 -0.547309 0.033167962
0000e0 9e ff 01 be 55 ca 53 3e 5b 23 44 bf 02 59 05 be
       -0.12695166 0.20682652 -0.7661645 -0.13022235
0000f0 b1 86 1f 3e a3 d3 2c 3e d2 2c 26 3f 4f b9 04 3f
       0.15578724 0.16877608 0.6491214 0.5184526
000100 17 49 2a 3f 07 43 f7 be ad e4 b1 3d 9b 3d 2d be
       0.66517776 -0.48293325 0.086861946 -0.16918032
000110 4b e7 02 3e 86 9d 8f 3e 19 7b 4f 3f 51 7b 16 bf
       0.12783544 0.28049868 0.8104721 -0.58781916
000120 88 a3 a3 bd e4 a6 29 3f d9 51 11 bf de 6c 1d 3f
       -0.079901755 0.6627028 -0.56765515 0.61494243
000130 55 02 31 3f 32 2a a0 be a0 c9 22 3e 27 8a 39 bf
       0.69144183 -0.31282192 0.15897226 -0.7247643

model.lstm.bias_hh_l0 f4 [80]
000000 b0 44 3e 3f 32 b6 3d 3f 80 cf 06 bd 85 75 41 3e
       0.7432356 0.74106133 -0.03291273 0.18892486
000010 e5 44 2b 3f 76 78 12 bf eb 20 1d 3e 25 53 82 be
       0.66902 -0.5721506 0.15344588 -0.2545406
000020 f7 29 30 bf 4f f1 1a be 23 ba fb 3b bc c9 04 bf
       -0.68814033 -0.15131114 0.0076821013 -0.5187032
000030 8c 66 4d bf bb 64 cd 3e ef 14 2a bf 2d 7b 54 3f
       -0.802346 0.40115914 -0.6643819 0.8300045
000040 40 17 b4 3a 8c 38 9b 3c 64 81 26 3f 81 5a 1b bf
       0.0013739839 0.018947862 0.65041184 -0.60684973
000050 f5 4d d8 bd 48 ce b1 bd ef 33 9a bc 5a f0 19 3c
       -0.10561744 -0.08681923 -0.018823592 0.009395683
000060 0d 8b 06 bb c2 24 c9 bd 80 e8 93 3d 14 a2 51 be
       -0.0020529658 -0.09821464 0.0722208 -0.20471984
000070 c3 06 37 3e 07 a7 16 3e a8 a9 2c be 94 9b d0 bd
       0.17873673 0.14712153 -0.16861594 -0.10185924
000080 d7 67 30 3e b5 37 40 3e 9d 26 06 3e 98 40 20 be
       0.17227112 0.1877125 0.13100667 -0.1564964
000090 18 1e e7 3d 1c 9f de 3c a3 fe 1b bd ca d8 40 be
       0.11285037 0.027175479 -0.038084637 -0.18832698
0000a0 1c 83 e0 3d d6 6a 2e 3e 0c 02 0c bd 34 aa 4c bc
       0.10962507 0.17032942 -0.03418164 -0.012491751
0000b0 8b 48 be 3d 54 b5 b6 3d a0 04 36 be b8 63 6f bd
       0.0929118 0.08921304 -0.17775202 -0.05844471
0000c0 fb 87 b0 bd 03 2c 50 3d 2f 2f 66 bd ae ba a6 3c
       -0.08619686 0.050823223 -0.05619734 0.020352688
0000d0 f2 7b 5b bd 3e 0f 95 3d df 0a 27 bf 36 9f 1a be
       -0.053585 0.07278298 -0.6525096 -0.15099797
0000e0 27 c3 45 be fe 2b 74 3d d9 b1 1e bf f1 0e 22 be
       -0.19312726 0.059612267 -0.61990124 -0.15826012
0000f0 51 72 98 3d 93 47 42 be 64 f8 11 3f 7c 47 50 3f
       0.07443679 -0.18972616 0.5701964 0.81359076
000100 42 ca 00 3f 80 96 8e be d4 a9 7e 3d c6 0a 38 3c
       0.5030862 -0.27849197 0.06217368 0.011233037
000110 df 5b 38 3d dd 12 77 3d d1 4e 10 3f ef a5 10 bf
       0.04500949 0.060320724 0.56370264 -0.56503195
000120 31 a1 57 3e 72 49 2b 3f 5c 38 ce be 81 1e d6 3e
       0.21057583 0.66908944 -0.40277374 0.41820148
000130 5c 5c 22 3f ec d6 ba be 6d db 09 3e 2d e6 e4 be
       0.6342218 -0.36492097 0.1346261 -0.4470686

model.lstm.weight_ih_l1 f4 [80, 20]
000000 29 8c b5 3f 4d de 92 bf 08 08 86 bf 09 b7 8d bf
       1.4183398 -1.1474091 -1.0471201 -1.1071483
000010 08 10 ad 3f d4 d3 0a bf 50 ea 53 3e c9 79 c2 3e
       1.3520517 -0.54229474 0.20694852 0.3798354
000020 bc 2e c9 3e 72 f9 ab bf 0c a9 ad 3f cf 9a 33 3f
       0.39293468 -1.34355 1.3567214 0.70158094
000030 d6 e4 1c 3f 98 17 c1 3f 13 86 c5 3e 51 54 a4 3f
       0.61286676 1.5085325 0.38578853 1.2838231
000040 8a 23 9d 3f fc 1c 2c bf f2 82 99 bf 32 f1 e6 be
       1.2276471 -0.67231727 -1.1993086 -0.45105892
000050 d7 ba 9b 3f 02 49 a0 bf a0 01 8c bf f0 c3 ad bf
       1.2166394 -1.252228 -1.0937996 -1.357542
000060 4e 8b 98 3f 44 aa 21 3f 46 dd 3d be d0 1a 8f be
       1.1917512 0.6315043 -0.1854144 -0.27950144
000070 7f 11 27 bf 22 56 7c bf d3 dc 88 3f 70 af c0 be
       -0.6526107 -0.9856893 1.069239 -0.37633848
000080 55 15 2f bf bb 2b a6 3f 56 e6 e9 be 60 9b c7 3f
       -0.68391925 1.2982095 -0.45683545 1.5594292
000090 fa a3 ab 3f c9 8b 1a 3f 23 0a 74 bf 2a 9f 28 3f
       1.3409417 0.60369545 -0.9532797 0.65867865
0000a0 6e c8 bd 3f ff 2e 01 c0 79 db 03 c0 8a b9 eb bf
       1.4826791 -2.0184934 -2.0602705 -1.8415997
0000b0 5e 42 aa 3f 5c 2f d8 3e 4e 1b 58 3e 50 24 53 be
       1.3301504 0.42223632 0.21104166 -0.20619321
0000c0 5c 8e 1d bf a7 e4 a3 bf 44 79 8a 3f aa 24 fe be
       -0.6154535 -1.2804154 1.0818257 -0.49637347
0000d0 32 be d1 be eb fc 96 3f 2a 00 29 bf a7 06 a2 3f
       -0.4096542 1.1795934 -0.66015875 1.265828
0000e0 3e d2 eb 3f f4 be fd 3e 5a 80 a6 bf 2a 0e 9c 3e
       1.8423536 0.49559748 -1.300792 0.30479556
0000f0 f2 d4 ab 3f 8f ef 8a bf b4 86 9d bf 21 e2 9b bf
       1.3424361 -1.0854357 -1.2306733 -1.2178384
000100 88 bb a1 3f 6d 7a 1f 3f cc 9b 36 be 74 7d b9 3d
       1.2635355 0.6229618 -0.1783287 0.090571314
000110 26 1b 37 bf d1 4c a5 bf 5f 59 95 3f ff 42 26 bf
       -0.715258 -1.2914068 1.1667899 -0.6494598
000120 ce a4 fd be b6 fd a6 3f e1 d5 2d bf ba 06 bd 3f
       -0.49539798 1.3046176 -0.6790448 1.4767678
000130 12 db b2 3f 85 ed 15 3f d5 2c 84 bf fb c0 cf 3e
       1.3973105 0.5856555 -1.0326182 0.4057692
000140 0b c7 98 3f cf 53 bb bf ad 4a 97 bf d6 3c 9f bf
       1.1935743 -1.4634951 -1.1819664 -1.2440441
000150 41 a3 73 3f 09 82 01 3f 0c af 38 be 04 03 4c bd
       0.9517098 0.5058904 -0.18035525 -0.049807563
000160 7a 74 2f bf 5f cc 90 bf a4 13 9d 3f dd 00 04 bf
       -0.68537104 -1.1312369 1.2271619 -0.5156382
000170 7e 66 14 bf e4 cf 8b 3f 65 21 c2 be d3 eb 90 3f
       -0.5796889 1.0922818 -0.37916103 1.1321968
000180 d5 46 9d 3f a5 e1 52 3f 1e 6b 98 bf 59 8c a6 3e
       1.2287241 0.82375556 -1.190769 0.32528952
000190 a8 4f 9d 3f 17 e5 ab bf e8 92 95 bf 88 de b8 bf
       1.2289934 -1.3429288 -1.1685457 -1.4442911
0001a0 89 82 ae 3f 73 14 c2 3e 5e 73 10 be 10 31 30 be
       1.3633586 0.37906227 -0.14106509 -0.17206216
0001b0 03 01 04 bf 5b 49 7c bf 1a 6a ad 3f 6c 35 af be
       -0.51564044 -0.9854943 1.3548005 -0.34220445
0001c0 1a ee 37 bf 39 ce 9d 3f e2 f9 2d bf 37 83 88 3f
       -0.7184769 1.2328559 -0.67959416 1.0665044
0001d0 8f 92 ac 3f 25 96 4b 3f be e7 78 bf 91 9e f2 3c
       1.3482226 0.7952598 -0.9722861 0.029616626
0001e0 09 ba c5 3f a1 28 96 bf ca 69 8b bf 32 ef 79 bf
       1.5447398 -1.1731149 -1.0891659 -0.9763061
0001f0 9b 7d 98 3f 76 c2 fb be cd 31 80 bd 41 18 53 3e
       1.1913332 -0.491718 -0.06259499 0.20614721
000200 5e f6 49 3f 6a eb c7 bf 9e 37 99 3f c7 41 29 3f
       0.7889155 -1.5618718 1.1970098 0.66115993
000210 76 c2 fc 3e 5a 3c a7 3f 4a b6 3c 3f da 23 ca 3f
       0.49367112 1.3065293 0.7371565 1.5792191
000220 73 52 b5 3f 8d f1 ee be 5c 3e a7 bf 72 d6 07 bf
       1.4165787 -0.46668664 -1.3065906 -0.5306159
000230 7a a9 bb 3f 12 09 88 bf 82 9b 5e bf a0 d8 7f bf
       1.4661095 -1.0627768 -0.86956036 -0.9993992
000240 d9 bc a8 3f 30 fb ee be 51 3a 85 bd d2 b6 23 3d
       1.3182632 -0.46676016 -0.065052636 0.039969273
000250 e7 b5 e5 3e ba 44 d0 bf 09 8a ab 3f 5c 08 26 3f
       0.44865343 -1.6270974 1.34015 0.64856505
000260 66 96 02 3f fa d6 ad 3f af 0b e0 3e eb 56 b7 3f
       0.5101074 1.3581231 0.43758914 1.43234
000270 29 d9 8d 3f 61 a8 34 bf ae 99 b7 bf ca 6c d5 be
       1.1081897 -0.70569426 -1.4343774 -0.41684562
000280 c5 2d 95 3f 81 9c b2 bf 1a 68 98 bf 4a 9b aa bf
       1.1654593 -1.3954011 -1.1906769 -1.332864
000290 3f 61 a6 3f 0e 76 49 3f 27 93 59 be 5d 26 e8 3d
       1.2998427 0.7869576 -0.2124754 0.11335442
0002a0 f4 83 39 bf 1d fe 8c bf d4 4c 8f 3f d9 8a 26 bf
       -0.7246697 -1.1015049 1.1195321 -0.65055615
0002b0 1a b3 51 bf 6f 68 a0 3f 47 b2 f7 be c3 8d bf 3f
       -0.8191391 1.2531871 -0.48378202 1.4965137
0002c0 7e 7a 91 3f ac fe 4f 3f 76 16 86 bf f8 90 98 3e
       1.1365507 0.81247973 -1.0475605 0.29798102
0002d0 c5 c3 b0 3f 2e a4 8f bf 9b 6f a0 bf 35 cf 82 bf
       1.3809744 -1.1221979 -1.2534059 -1.0219485
0002e0 14 3e bb 3f e5 95 1e bf f1 b7 db bd bc 85 b9 3d
       1.462832 -0.6194747 -0.107284434 0.09058711
0002f0 a5 a5 d5 3e fe de 9a bf c2 16 b4 3f e3 ac cf 3d
       0.4172794 -1.2099302 1.4069445 0.101403974
000300 08 d7 2b 3f 51 87 99 3f 82 38 14 3f c0 7a 98 3f
       0.67124987 1.199442 0.57898724 1.191246
000310 f9 46 8e 3f 10 97 50 bf 69 0c cf bf 17 47 ae be
       1.1115409 -0.81480503 -1.6175662 -0.34038612
000320 4e ef b0 3f 9d dd b8 bf fd 51 dc bf d9 15 e3 bf
       1.382303 -1.4442631 -1.7212521 -1.7741042
000330 8c d6 a5 3f 8c ae 06 3f 10 d2 04 be 76 22 c6 3d
       1.29561 0.5261009 -0.12970757 0.09674542
000340 de e4 e3 be 26 1c 97 bf 21 ec 87 3f 01 03 34 bf
       -0.4451055 -1.1805465 1.0618936 -0.70317084
000350 6b 2a 07 bf 1d 3d 90 3f 67 35 ea be 76 e4 bf 3f
       -0.527991 1.126865 -0.45743868 1.4991596
000360 6d ee b6 3f 22 8b 39 3f 5c 07 84 bf ea dd 16 3f
       1.4291512 0.72477925 -1.0314746 0.58932364
000370 c4 25 93 3f ae 4d 97 bf bb ba 90 bf 76 e6 79 bf
       1.14959 -1.1820581 -1.1306986 -0.9761728
000380 90 f7 b3 3f 52 35 0c bf cb 58 09 3e 5c 67 93 3c
       1.4059925 -0.5476886 0.13412778 0.017993622
000390 61 ab 01 3f 53 9e ab bf f0 6e b6 3f b2 48 28 3f
       0.5065213 -1.3407692 1.4252605 0.65735924
0003a0 9b 97 19 3f a1 75 99 3f c4 07 1d 3f 5a c7 98 3f
       0.59996957 1.1989022 0.61339974 1.1935837
0003b0 96 ee a8 3f 10 98 d2 be d2 c0 c3 bf 6a bf a9 be
       1.3197811 -0.4113164 -1.5293219 -0.3315385
0003c0 f6 b2 af 3f a9 6c a5 bf be b1 8d bf fc 83 8a bf
       1.372649 -1.2923785 -1.1069868 -1.0821528
0003d0 37 94 96 3f c9 ad 2a bf 10 fb 56 3e 64 85 5d 3e
       1.1763982 -0.66671425 0.2099421 0.21632916
0003e0 cf c3 e9 3e 13 96 a1 bf d1 4b 90 3f 32 98 33 3f
       0.45657203 -1.2623924 1.1273137 0.70154107
0003f0 aa 6e c3 3e 4c 2b a6 3f 69 45 49 3f 0f d1 a8 3f
       0.38170367 1.2981963 0.78621536 1.31888

model.lstm.weight_hh_l1 f4 [80, 20]
000000 3a b1 5d be 96 52 51 be 40 d5 be 3d 0b 7e 4a be
       -0.21649638 -0.2044166 0.09318018 -0.19774644
000010 39 1f 03 3e a0 dc 3d be 98 15 c0 bb 53 d6 05 be
       0.12804879 -0.18541193 -0.005861949 -0.1307004
000020 f7 18 1c bd 39 a4 7a bd b1 dd 4d bd c2 3d dd bc
       -0.038109746 -0.06119177 -0.05026025 -0.027006987
000030 be ad 0e 3e 49 e2 86 bd 89 5c 2f be ab 16 4f 3e
       0.13933465 -0.06586129 -0.17125143 0.20223491
000040 c2 fd da bd c0 92 3c 3e 3d ae ff bc 3d b5 ab bc
       -0.10692932 0.18415356 -0.031211013 -0.020960445
000050 6a 3e 19 bd b2 71 f0 bd f5 9c 14 be 80 f6 e7 3d
       -0.03741304 -0.11740436 -0.14513 0.11326313
000060 23 82 ec bd 8f 76 23 bc 94 9f 79 bd c4 71 1c 3c
       -0.11548259 -0.009976997 -0.0609432 0.009548608
000070 30 0c a9 bb 73 d0 36 be 41 a7 1b 3e 0d 01 9b bd
       -0.0051589236 -0.17852955 0.15200521 -0.0756856
000080 b4 67 0d 3c 62 e8 af 3d 51 32 84 bd 1a 0e 4e bd
       0.008630682 0.085892454 -0.064549096 -0.050306417
000090 df c5 55 3e 28 ac ac bb 25 63 c1 3d a3 22 60 3e
       0.20876263 -0.005269546 0.094427384 0.21888213
0000a0 6e 1a 1a 3e c3 26 cb bd 70 a3 ea 3c 2b 38 82 3d
       0.15049145 -0.099195026 0.028642386 0.063583694
0000b0 c5 56 ae 3d c4 7c f9 bd 95 28 54 3d 55 1c 55 be
       0.08512644 -0.12182 0.051796515 -0.20811589
0000c0 a5 c5 2f 3e fa 71 4f be db 5a a2 3d e3 0f 26 be
       0.17165239 -0.20258322 0.079274856 -0.16216998
0000d0 09 86 3d be 75 66 41 bc bd 44 20 3e e2 5c 99 3c
       -0.18508162 -0.011804213 0.15651222 0.018721048
0000e0 43 af 4d be e3 d4 4e 3d 4d 63 11 3e a4 d6 51 3e
       -0.20086388 0.050495993 0.14198036 0.20492035
0000f0 7e 27 27 3d 28 99 ce 3c b5 e5 4a 3d 6a 00 a6 3d
       0.040809147 0.025219515 0.049535472 0.08105548
000100 a6 d4 2c be fa 65 09 be 64 a4 dd 3d f6 63 44 3e
       -0.16877994 -0.13417807 0.10822371 0.19178757
000110 fb 26 93 3d f8 ee 58 3e f1 7a 91 3d ab 3a dd 3d
       0.07185169 0.2118491 0.07103527 0.10802206
000120 9c 40 06 be 55 63 19 3e d8 ad 2e 3e 38 e7 87 bd
       -0.13110584 0.14979298 0.17058504 -0.06635898
000130 f3 22 5b bd e0 c8 e9 bd 7a 84 3a be ea b5 db 3d
       -0.053500127 -0.11415267 -0.18214598 0.10728057
000140 52 2f 75 39 76 6d 00 be 80 50 93 bd 37 bc 07 3e
       0.00023382649 -0.12541756 -0.071930885 0.13255392
000150 2f 4c ee 3b 17 93 ae bd 9b af 93 bd 83 bb 53 3e
       0.0072722654 -0.08524149 -0.072112285 0.20676999
000160 e7 3d c1 3d be f6 7f 3c 2c 9f 42 3a 0c ce 9d bd
       0.09435635 0.015622793 0.0007424231 -0.07705316
000170 5a 6f 48 3e 88 e4 01 3e 18 6a 36 3e cb 40 0c be
       0.19573727 0.12684834 0.17813909 -0.13696592
000180 12 d2 1c 3e c1 8a 5d be fe 13 c2 bd 61 a6 4f bd
       0.1531451 -0.21634962 -0.094764695 -0.05069578
000190 e5 58 81 bd fd 22 31 3e af e9 4e be bd 28 33 3e
       -0.063157834 0.17298503 -0.2020633 0.17496009
0001a0 54 5f 3f 3d c6 68 7b 3d 61 0e b7 3d 9c 01 39 3e
       0.04672177 0.061379217 0.089382894 0.1806702
0001b0 ea 4e 9d bd 0d 22 69 3d 9e 16 ef bd 4a 9b 57 3e
       -0.07681067 0.05691724 -0.11674236 0.21055332
0001c0 c4 85 ff bd 84 fa 61 be e7 6a 22 3d 62 f7 e8 3d
       -0.12476686 -0.2206822 0.03965273 0.113753095
0001d0 5e c9 5c be 48 39 9e bd 10 bd 4c be b6 72 4f 3e
       -0.2156119 -0.07725769 -0.19993997 0.20258602
0001e0 d0 d2 d9 3d 8e cd 55 3e a9 d6 33 3e 62 9b 58 3d
       0.106359124 0.20879194 0.17562355 0.05288256
0001f0 76 b3 13 3c 29 3e 80 3d 46 fe 4a 3e a9 5e 2b 3e
       0.009014955 0.06261856 0.1982356 0.16735329
000200 d9 74 3e be f5 10 a4 bd f5 ae 43 be 77 bb 99 3d
       -0.18599261 -0.08011047 -0.1910971 0.07506459
000210 a6 dc 1f be d7 e2 93 bd 81 26 44 3e ed c9 1e 3d
       -0.15611514 -0.07221001 0.19155313 0.03876679
000220 a8 b8 6c bd 4e f7 1f 3e 59 9d f4 bd 44 b3 a3 3d
       -0.05779329 0.15621683 -0.11944074 0.079931766
000230 e5 e0 0e be 03 7d b1 bc 02 e2 e4 bd 70 6c fe bd
       -0.13952978 -0.021666056 -0.1117592 -0.124230266
000240 5a e7 13 3e 62 e8 ed bd bb 91 1d 3e 2d e6 d7 bd
       0.14443722 -0.11616589 0.15387623 -0.105419494
000250 4f 6f 79 bd b6 b7 ef bd 41 4f 3b be 43 af cc bd
       -0.060897168 -0.11704962 -0.18291952 -0.09994366
000260 00 82 5d be 4b 92 3e 3e aa 6e 55 3e 5d 9f f5 bd
       -0.21631622 0.18610494 0.20842996 -0.11993287
000270 13 7d 30 3e 80 38 64 be 38 21 01 3e fa a9 a4 bd
       0.17235212 -0.22287178 0.12610328 -0.08040233
000280 71 70 97 bc e6 5a 21 3e 1e a2 a9 3d 49 c3 d9 bd
       -0.018486233 0.15757331 0.082828745 -0.10632951
000290 9e 3a 2a bd 30 f5 57 3e 16 c2 a5 bc ab 86 47 bd
       -0.041559808 0.21089625 -0.020234149 -0.048712414
0002a0 e7 c3 fa 3d 16 51 24 be c8 cb 24 bd 0e 70 55 be
       0.12244397 -0.16046557 -0.040233403 -0.20843527
0002b0 48 92 dd 3c d7 50 78 3c ae 1f ae bc a5 68 a7 bc
       0.027047291 0.0151559925 -0.02125534 -0.02043564
0002c0 70 9c 90 bd 5e 4f 53 3e 93 60 c2 bd 63 18 ec 3d
       -0.07061088 0.20635745 -0.09491076 0.11528089
0002d0 60 b8 eb bc 9b 9b f7 3c 38 e6 07 be 22 f1 8a bb
       -0.02877444 0.030225566 -0.13271415 -0.004240171
0002e0 76 1d 06 3e da cf 00 3e ed 3d 02 3e b8 40 58 3e
       0.13097176 0.12579289 0.12718935 0.21118438
0002f0 62 52 55 3e 53 b5 5a 3d c6 76 a7 bd 6c 37 06 be
       0.20832208 0.05339558 -0.08176951 -0.1310708
000300 db e5 03 3e 87 3f 9e 3d 9d c4 3e be d2 56 d2 bd
       0.12880652 0.07726961 -0.1862969 -0.10270466
000310 11 f6 d6 bd 23 4d 0a be f0 93 37 3e 4e 04 e5 bc
       -0.10496152 -0.13505988 0.17927527 -0.027956154
000320 1a 97 fb 3d c9 cc 1b be f7 85 22 be 0f ab c7 bd
       0.1228468 -0.15214838 -0.15871416 -0.09749424
000330 b3 a5 f8 bc bf 60 6a 3c 08 35 a4 bd 01 63 d7 3d
       -0.030352449 0.014305293 -0.080179274 0.1051693
000340 7f cf 21 3c 2d 2b 5c be c3 c7 9f 3d 0f bf b0 bc
       0.009876131 -0.21500845 0.078017734 -0.021575479
000350 37 32 19 3e a8 e4 f7 bd 86 3c 1f 3e b6 33 76 3c
       0.14960562 -0.121041596 0.15550432 0.015026977
000360 84 e6 41 3e e7 8b 3c bd 3f 7a e7 3d 4e 09 59 3e
       0.18935591 -0.04603186 0.113026135 0.21194956
000370 12 2e b3 3d 20 9f a9 bd 3b 41 25 bd 0c 81 13 3e
       0.087490216 -0.08282304 -0.04034541 0.14404696
000380 22 0c 62 3e a6 7a 21 be ba 2c 3a bd 33 93 cd 3d
       0.22074941 -0.15769443 -0.04545281 0.10037842
000390 c0 07 8d 3d 9c cb 50 bd c1 4f f2 bd 5a 0c 04 3e
       0.06886244 -0.050975427 -0.11831618 0.12895337
0003a0 f1 ea ce 3d 4f ca 30 3e 73 b2 04 3e c5 87 11 3e
       0.10103405 0.17264675 0.12958698 0.14211948
0003b0 32 ea 06 3e 11 74 1d 3e ae 30 63 be c8 07 50 3e
       0.13175276 0.15376307 -0.22186539 0.20315468
0003c0 ae 3e 6d bd 54 61 a9 bd 61 b0 3c bd 1c 92 31 3e
       -0.057921104 -0.08270517 -0.046066646 0.17340893
0003d0 55 7f 38 be fa 82 98 bd 0e 76 2b be 20 20 db bc
       -0.18017323 -0.07446857 -0.16744253 -0.026748717
0003e0 5e 6a 89 bd 24 72 12 3d 05 cc 0d 3e 44 0b a8 bd
       -0.06709741 0.035753384 0.13847359 -0.08205274
0003f0 f7 25 11 3e c5 65 d7 bc 59 d9 17 3e 19 d0 1b be
       0.14174639 -0.026293645 0.14829005 -0.15216102

model.lstm.bias_ih_l1 f4 [80]
000000 d7 a8 ac 3f 81 83 a2 3f 65 8b 9f 3f 3a c3 83 3f
       1.3489026 1.2696382 1.2464415 1.0293953
000010 ce 7a 8a 3f 98 cf b0 3f ec 31 a8 3f 02 e1 c2 3f
       1.0818727 1.3813353 1.3140235 1.5224917
000020 9f c9 8e 3f 91 9d 97 3f 0b 98 b3 3f f3 f2 9f 3f
       1.115528 1.184496 1.4030775 1.2496017
000030 33 02 c5 3f e9 7c 99 3f a0 73 a3 3f 79 41 bd 3f
       1.5391296 1.1991245 1.2769661 1.4785606
000040 21 85 a5 3f cd 32 95 3f c0 f8 cf 3f 2c cc c0 3f
       1.2931253 1.1656128 1.6247787 1.5062308
000050 fb 60 08 3e c1 93 61 be 3d 56 cc bd 36 1d 84 bd
       0.13318245 -0.2202902 -0.09977386 -0.06450884
000060 a2 f6 26 3d 14 a3 11 3e e8 85 16 3d 85 49 5f 3e
       0.04076255 0.14222366 0.036748797 0.21805389
000070 a1 92 08 3d 87 f0 6a bc 00 b3 b8 3d 6f 71 2e 3d
       0.03334296 -0.014339573 0.090185165 0.042588647
000080 16 a9 b5 3d 3c 21 48 bc 66 ac 35 bd 52 fc db 3d
       0.08870141 -0.012214955 -0.044353865 0.10741486
000090 dc e5 f0 3c d7 b6 be 3d b6 8b a0 bc e8 d7 42 be
       0.02940648 0.09312218 -0.01959787 -0.19027674
0000a0 c5 24 9a bf 21 f6 78 bf 37 96 38 3f 41 b9 85 3f
       -1.2042471 -0.9725056 0.7210421 1.044716
0000b0 b3 d9 60 bf 14 94 8a bf 9f 04 77 bf 1f d5 7a 3f
       -0.8783218 -1.082644 -0.96491426 0.97981447
0000c0 95 87 1a bf 63 d1 9b bf 87 8a 5e 3f 05 f2 85 bf
       -0.6036313 -1.2173275 0.86930126 -1.0464483
0000d0 91 3f 83 bf 5e 24 5a 3f 4e b5 6e 3f 86 cf 53 bf
       -1.0253774 0.8521174 0.932454 -0.8273853
0000e0 0e d6 97 3f c2 8b 57 bf 59 2c 92 bf 27 3a 60 bf
       1.1862199 -0.8419763 -1.1419784 -0.87588733
0000f0 a9 14 c3 3f 04 2b a8 3f 47 68 ad 3f 76 a0 83 3f
       1.524068 1.3138127 1.3547448 1.0283344
000100 85 50 85 3f b2 fb 9f 3f 8c e7 c4 3f 49 de bd 3f
       1.0415198 1.2498686 1.5383162 1.4833461
000110 6b ce bc 3f f1 43 b2 3f 1b 4a 94 3f a4 31 c6 3f
       1.4750494 1.3926984 1.1585115 1.5483899
000120 5e 81 cf 3f 5f e1 9a 3f 84 44 9e 3f 72 b2 8e 3f
       1.6211355 1.2100028 1.2364659 1.1148207
000130 35 9e c2 3f b1 07 a9 3f 1c c5 9e 3f 09 bb bc 3f
       1.5204531 1.3205472 1.2403903 1.4744579

model.lstm.bias_hh_l1 f4 [80]
000000 04 2f c2 3f 40 22 9c 3f b2 74 76 3f 34 45 ae 3f
       1.5170598 1.2197952 0.9627181 1.3614869
000010 0b 44 af 3f 8f 3c 9c 3f 29 b6 ad 3f 58 26 b4 3f
       1.369264 1.2205981 1.3571216 1.4074202
000020 c0 46 b1 3f 8c 02 c5 3f b1 f5 a9 3f 0c cb b9 3f
       1.3849716 1.5391402 1.3278104 1.451509
000030 5c 77 9f 3f 23 38 b1 3f 06 c1 89 3f 6c 7b 95 3f
       1.24583 1.3845257 1.0762031 1.167829
000040 9e 13 a0 3f f0 e3 8c 3f 0a 53 bc 3f 8c 82 ca 3f
       1.2505987 1.1007061 1.4712842 1.582109
000050 c4 1a 26 3e 3d d9 17 3e c9 99 55 be 24 5a a1 3d
       0.16221148 0.14828964 -0.20859446 0.07878521
000060 6e 2c a1 3c 80 db 58 3e 38 9d d3 3d 43 df 13 be
       0.019674506 0.21177483 0.103327215 -0.14440636
000070 99 91 28 3e 8a 9a 05 3e ba d9 22 3e 9d 55 ce bd
       0.16461791 0.13047233 0.15903369 -0.10074923
000080 0b 31 41 bd 6f f0 a9 3d 54 c2 cf 3d e4 08 c0 bd
       -0.04716591 0.08297812 0.10144487 -0.09376696
000090 f0 5b b4 3d a5 73 3d bd c6 c1 1b 3e 9c ca ea 3d
       0.08806598 -0.046252865 0.15210637 0.11464426
0000a0 16 c5 93 bf 1b c0 3d bf e9 88 16 3f 66 01 3e 3f
       -1.1544521 -0.74121255 0.5880266 0.74220884
0000b0 68 cb 25 bf 73 0c 81 bf f8 3f 85 bf 9e a4 8f 3f
       -0.647635 -1.0081924 -1.0410147 1.1222112
0000c0 37 0d 24 bf 26 17 63 bf 6a b4 58 3f d4 f9 9b bf
       -0.64082664 -0.88707197 0.8465029 -1.2185616
0000d0 4b c7 9c bf 63 05 79 3f ea f4 75 3f 6c 22 2e bf
       -1.2248319 0.97273844 0.96076834 -0.68021274
0000e0 3b 25 89 3f 51 8e 1e bf b0 cd 6c bf 6c 98 98 bf
       1.0714487 -0.6193591 -0.92501354 -1.1921515
0000f0 85 c4 9e 3f e2 9d 7b 3f fe 0d a8 3f c6 f0 b1 3f
       1.2403723 0.98287785 1.312927 1.3901603
000100 ab 60 b5 3f 05 5a 8f 3f 47 8e ac 3f 94 a4 b4 3f
       1.4170126 1.1199347 1.348092 1.4112725
000110 3c 80 92 3f ae c2 a1 3f ab 53 9a 3f 0e f1 b4 3f
       1.1445384 1.2637537 1.2056783 1.4136064
000120 6c ce aa 3f 02 69 a1 3f 1e 25 7c 3f 38 ac 8c 3f
       1.3344245 1.2610171 0.98494136 1.0990057
000130 64 e7 ab 3f ac 5e a8 3f 1a f9 bc 3f 59 44 af 3f
       1.342999 1.3153892 1.476352 1.3692733

model.linear.weight f4 [1, 20]
000000 1e e7 53 c1 0a 21 54 c1 95 e5 5b 41 d7 42 54 41
       -13.243925 -13.258066 13.74355 13.266318
000010 0f f8 55 c1 e1 30 58 c1 9e 77 52 c1 bb b8 53 41
       -13.373061 -13.511933 -13.154203 13.2326
000020 b7 09 56 c1 57 34 52 c1 34 a9 57 41 61 6f 53 c1
       -13.377372 -13.137778 13.478809 -13.214692
000030 06 e2 54 c1 93 2e 55 41 e9 54 5e 41 61 ed 55 c1
       -13.3051815 13.323871 13.89573 -13.370454
000040 4e eb 52 41 6c 41 55 c1 45 1f 53 c1 28 af 53 c1
       13.182447 -13.328472 -13.195134 -13.230263

exp_avg f4 [80, 1]
000000 04 00 00 80 04 00 00 80 00 00 00 00 04 00 00 80
       -6e-45 -6e-45 0.0 -6e-45
000010 04 00 00 80 38 32 00 80 bc 77 64 11 04 00 00 00
       -6e-45 -1.8015e-41 1.8022925e-28 6e-45
000020 7c 74 2c 87 00 00 00 00 00 00 00 00 04 00 00 00
       -1.2974073e-34 0.0 0.0 6e-45
000030 f6 a3 1d 89 04 00 00 80 04 00 00 00 04 00 00 80
       -1.8975282e-33 -6e-45 6e-45 -6e-45
000040 00 00 00 00 00 00 00 00 04 00 00 80 04 00 00 00
       0.0 0.0 -6e-45 6e-45
000050 00 00 00 00 00 00 00 00 00 00 00 00 00 00 00 00
       0.0 0.0 0.0 0.0
000060 00 00 00 00 00 00 00 00 00 00 00 00 00 00 00 00
       0.0 0.0 0.0 0.0
000070 00 00 00 00 00 00 00 00 00 00 00 00 00 00 00 00
       0.0 0.0 0.0 0.0
000080 00 00 00 00 00 00 00 00 00 00 00 00 00 00 00 00
       0.0 0.0 0.0 0.0
000090 00 00 00 00 00 00 00 00 00 00 00 00 00 00 00 00
       0.0 0.0 0.0 0.0
0000a0 00 00 00 00 04 00 00 00 00 00 00 00 00 00 00 00
       0.0 6e-45 0.0 0.0
0000b0 00 00 00 00 00 00 00 00 00 00 00 00 00 00 00 00
       0.0 0.0 0.0 0.0
0000c0 00 00 00 00 00 00 00 00 00 00 00 00 00 00 00 00
       0.0 0.0 0.0 0.0
0000d0 00 00 00 00 00 00 00 00 04 00 00 00 00 00 00 00
       0.0 0.0 6e-45 0.0
0000e0 04 00 00 80 00 00 00 00 04 00 00 00 00 00 00 00
       -6e-45 0.0 6e-45 0.0
0000f0 00 00 00 00 00 00 00 00 04 00 00 80 04 00 00 80
       0.0 0.0 -6e-45 -6e-45
000100 04 00 00 80 38 32 00 80 bc 77 64 11 04 00 00 00
       -6e-45 -1.8015e-41 1.8022925e-28 6e-45
000110 85 25 15 80 04 00 00 80 04 00 00 80 04 00 00 00
       -1.942005e-39 -6e-45 -6e-45 6e-45
000120 a6 17 13 85 04 00 00 80 04 00 00 00 04 00 00 80
       -6.91625e-36 -6e-45 6e-45 -6e-45
000130 04 00 00 80 5f 34 ed 96 00 00 00 00 04 00 00 00
       -6e-45 -3.8322466e-25 0.0 6e-45

exp_avg_sq f4 [80, 1]
000000 8b e8 c3 3a 96 26 0c 3e 00 00 00 00 06 06 0f 24
       0.0014946623 0.13686594 0.0 3.1013284e-17
000010 b2 51 b0 42 61 d1 87 40 20 49 3a 1f 1f 69 43 23
       88.15956 4.244309 3.944752e-20 1.05932314e-17
000020 c3 b0 3c 2f 00 00 00 00 00 00 00 00 5a e2 e9 2c
       1.7161299e-10 0.0 0.0 6.6473884e-12
000030 2f 55 06 32 84 98 ab 26 f9 5b ce 34 75 65 c9 3b
       7.819195e-09 1.1906848e-15 3.843741e-07 0.006146128
000040 00 00 00 00 00 00 00 00 4b 3d 1b 36 64 43 c4 2b
       0.0 0.0 2.3132477e-06 1.3945342e-12
000050 00 00 00 00 00 00 00 00 00 00 00 00 00 00 00 00
       0.0 0.0 0.0 0.0
000060 00 00 00 00 00 00 00 00 00 00 00 00 00 00 00 00
       0.0 0.0 0.0 0.0
000070 00 00 00 00 00 00 00 00 00 00 00 00 00 00 00 00
       0.0 0.0 0.0 0.0
000080 00 00 00 00 00 00 00 00 00 00 00 00 00 00 00 00
       0.0 0.0 0.0 0.0
000090 00 00 00 00 00 00 00 00 00 00 00 00 00 00 00 00
       0.0 0.0 0.0 0.0
0000a0 00 00 00 00 be c7 ab 22 00 00 00 00 00 00 00 00
       0.0 4.656113e-18 0.0 0.0
0000b0 00 00 00 00 00 00 00 00 00 00 00 00 00 00 00 00
       0.0 0.0 0.0 0.0
0000c0 00 00 00 00 00 00 00 00 00 00 00 00 00 00 00 00
       0.0 0.0 0.0 0.0
0000d0 00 00 00 00 00 00 00 00 4d 56 0d 3f 00 00 00 00
       0.0 0.0 0.5520981 0.0
0000e0 52 75 1b 20 00 00 00 00 c5 72 82 3c 00 00 00 00
       1.3167829e-19 0.0 0.015923867 0.0
0000f0 00 00 00 00 00 00 00 00 59 98 40 3d 26 02 0a 42
       0.0 0.0 0.04702029 34.502098
000100 f0 cc b3 3d 0f 5c 15 29 18 07 a9 1e 90 21 2e 24
       0.08779323 3.3164494e-14 1.7896505e-20 3.7758664e-17
000110 df 4a 1b 1b 09 4e 3a 25 1f 3c 9d 3b a8 e9 0e 2b
       1.2845492e-22 1.6159368e-16 0.0047984268 5.07728e-13
000120 f3 ea 35 22 3d 83 c0 2e c2 47 28 3b 97 7b f5 2a
       2.4654455e-18 8.754462e-11 0.0025677537 4.36065e-13
000130 66 c7 13 3e 91 9d 99 3a 00 00 00 00 8a e5 9b 29
       0.14431533 0.0011719932 0.0 6.9232014e-14

exp_avg f4 [80, 20]
000000 00 00 00 00 00 00 00 00 00 00 00 00 00 00 00 00
       0.0 0.0 0.0 0.0
000010 00 00 00 00 00 00 00 00 00 00 00 00 00 00 00 00
       0.0 0.0 0.0 0.0
000020 00 00 00 00 00 00 00 00 00 00 00 00 00 00 00 00
       0.0 0.0 0.0 0.0
000030 00 00 00 00 00 00 00 00 00 00 00 00 00 00 00 00
       0.0 0.0 0.0 0.0
000040 00 00 00 00 00 00 00 00 00 00 00 00 00 00 00 00
       0.0 0.0 0.0 0.0
000050 00 00 00 00 00 00 00 00 00 00 00 00 00 00 00 00
       0.0 0.0 0.0 0.0
000060 00 00 00 00 00 00 00 00 00 00 00 00 00 00 00 00
       0.0 0.0 0.0 0.0
000070 00 00 00 00 00 00 00 00 00 00 00 00 00 00 00 00
       0.0 0.0 0.0 0.0
000080 00 00 00 00 00 00 00 00 00 00 00 00 00 00 00 00
       0.0 0.0 0.0 0.0
000090 00 00 00 00 00 00 00 00 00 00 00 00 00 00 00 00
       0.0 0.0 0.0 0.0
0000a0 00 00 00 00 00 00 00 00 00 00 00 00 00 00 00 00
       0.0 0.0 0.0 0.0
0000b0 00 00 00 00 00 00 00 00 00 00 00 00 00 00 00 00
       0.0 0.0 0.0 0.0
0000c0 00 00 00 00 00 00 00 00 00 00 00 00 00 00 00 00
       0.0 0.0 0.0 0.0
0000d0 00 00 00 00 00 00 00 00 00 00 00 00 00 00 00 00
       0.0 0.0 0.0 0.0
0000e0 00 00 00 00 00 00 00 00 00 00 00 00 00 00 00 00
       0.0 0.0 0.0 0.0
0000f0 00 00 00 00 00 00 00 00 00 00 00 00 00 00 00 00
       0.0 0.0 0.0 0.0
000100 00 00 00 00 00 00 00 00 00 00 00 00 00 00 00 00
       0.0 0.0 0.0 0.0
000110 00 00 00 00 00 00 00 00 00 00 00 00 00 00 00 00
       0.0 0.0 0.0 0.0
000120 00 00 00 00 00 00 00 00 00 00 00 00 00 00 00 00
       0.0 0.0 0.0 0.0
000130 00 00 00 00 00 00 00 00 00 00 00 00 00 00 00 00
       0.0 0.0 0.0 0.0
000140 00 00 00 00 00 00 00 00 00 00 00 00 00 00 00 00
       0.0 0.0 0.0 0.0
000150 00 00 00 00 00 00 00 00 00 00 00 00 00 00 00 00
       0.0 0.0 0.0 0.0
000160 00 00 00 00 00 00 00 00 00 00 00 00 00 00 00 00
       0.0 0.0 0.0 0.0
000170 00 00 00 00 00 00 00 00 00 00 00 00 00 00 00 00
       0.0 0.0 0.0 0.0
000180 00 00 00 00 00 00 00 00 00 00 00 00 00 00 00 00
       0.0 0.0 0.0 0.0
000190 00 00 00 00 00 00 00 00 00 00 00 00 00 00 00 00
       0.0 0.0 0.0 0.0
0001a0 00 00 00 00 00 00 00 00 00 00 00 00 00 00 00 00
       0.0 0.0 0.0 0.0
0001b0 00 00 00 00 00 00 00 00 00 00 00 00 00 00 00 00
       0.0 0.0 0.0 0.0
0001c0 00 00 00 00 00 00 00 00 00 00 00 00 00 00 00 00
       0.0 0.0 0.0 0.0
0001d0 00 00 00 00 00 00 00 00 00 00 00 00 00 00 00 00
       0.0 0.0 0.0 0.0
0001e0 00 00 00 00 00 00 00 00 00 00 00 00 00 00 00 00
       0.0 0.0 0.0 0.0
0001f0 00 00 00 00 00 00 00 00 00 00 00 00 00 00 00 00
       0.0 0.0 0.0 0.0
000200 00 00 00 00 00 00 00 00 00 00 00 00 00 00 00 00
       0.0 0.0 0.0 0.0
000210 00 00 00 00 00 00 00 00 00 00 00 00 00 00 00 00
       0.0 0.0 0.0 0.0
000220 00 00 00 00 00 00 00 00 00 00 00 00 00 00 00 00
       0.0 0.0 0.0 0.0
000230 00 00 00 00 00 00 00 00 00 00 00 00 00 00 00 00
       0.0 0.0 0.0 0.0
000240 00 00 00 00 00 00 00 00 00 00 00 00 00 00 00 00
       0.0 0.0 0.0 0.0
000250 00 00 00 00 00 00 00 00 00 00 00 00 00 00 00 00
       0.0 0.0 0.0 0.0
000260 00 00 00 00 00 00 00 00 00 00 00 00 00 00 00 00
       0.0 0.0 0.0 0.0
000270 00 00 00 00 00 00 00 00 00 00 00 00 00 00 00 00
       0.0 0.0 0.0 0.0
000280 00 00 00 00 00 00 00 00 00 00 00 00 00 00 00 00
       0.0 0.0 0.0 0.0
000290 00 00 00 00 00 00 00 00 00 00 00 00 00 00 00 00
       0.0 0.0 0.0 0.0
0002a0 00 00 00 00 00 00 00 00 00 00 00 00 00 00 00 00
       0.0 0.0 0.0 0.0
0002b0 00 00 00 00 00 00 00 00 00 00 00 00 00 00 00 00
       0.0 0.0 0.0 0.0
0002c0 00 00 00 00 00 00 00 00 00 00 00 00 00 00 00 00
       0.0 0.0 0.0 0.0
0002d0 00 00 00 00 00 00 00 00 00 00 00 00 00 00 00 00
       0.0 0.0 0.0 0.0
0002e0 00 00 00 00 00 00 00 00 00 00 00 00 00 00 00 00
       0.0 0.0 0.0 0.0
0002f0 00 00 00 00 00 00 00 00 00 00 00 00 00 00 00 00
       0.0 0.0 0.0 0.0
000300 00 00 00 00 00 00 00 00 00 00 00 00 00 00 00 00
       0.0 0.0 0.0 0.0
000310 00 00 00 00 00 00 00 00 00 00 00 00 00 00 00 00
       0.0 0.0 0.0 0.0
000320 00 00 00 00 00 00 00 00 00 00 00 00 00 00 00 00
       0.0 0.0 0.0 0.0
000330 00 00 00 00 00 00 00 00 00 00 00 00 00 00 00 00
       0.0 0.0 0.0 0.0
000340 00 00 00 00 00 00 00 00 00 00 00 00 00 00 00 00
       0.0 0.0 0.0 0.0
000350 00 00 00 00 00 00 00 00 00 00 00 00 00 00 00 00
       0.0 0.0 0.0 0.0
000360 00 00 00 00 00 00 00 00 00 00 00 00 00 00 00 00
       0.0 0.0 0.0 0.0
000370 00 00 00 00 00 00 00 00 00 00 00 00 00 00 00 00
       0.0 0.0 0.0 0.0
000380 00 00 00 00 00 00 00 00 00 00 00 00 00 00 00 00
       0.0 0.0 0.0 0.0
000390 00 00 00 00 00 00 00 00 00 00 00 00 00 00 00 00
       0.0 0.0 0.0 0.0
0003a0 00 00 00 00 00 00 00 00 00 00 00 00 00 00 00 00
       0.0 0.0 0.0 0.0
0003b0 00 00 00 00 00 00 00 00 00 00 00 00 00 00 00 00
       0.0 0.0 0.0 0.0
0003c0 00 00 00 00 00 00 00 00 00 00 00 00 00 00 00 00
       0.0 0.0 0.0 0.0
0003d0 00 00 00 00 00 00 00 00 00 00 00 00 00 00 00 00
       0.0 0.0 0.0 0.0
0003e0 00 00 00 00 00 00 00 00 00 00 00 00 00 00 00 00
       0.0 0.0 0.0 0.0
0003f0 00 00 00 00 00 00 00 00 00 00 00 00 00 00 00 00
       0.0 0.0 0.0 0.0

exp_avg_sq f4 [80, 20]
000000 00 00 00 00 00 00 00 00 00 00 00 00 00 00 00 00
       0.0 0.0 0.0 0.0
000010 00 00 00 00 00 00 00 00 00 00 00 00 00 00 00 00
       0.0 0.0 0.0 0.0
000020 00 00 00 00 00 00 00 00 00 00 00 00 00 00 00 00
       0.0 0.0 0.0 0.0
000030 00 00 00 00 00 00 00 00 00 00 00 00 00 00 00 00
       0.0 0.0 0.0 0.0
000040 00 00 00 00 00 00 00 00 00 00 00 00 00 00 00 00
       0.0 0.0 0.0 0.0
000050 00 00 00 00 00 00 00 00 00 00 00 00 00 00 00 00
       0.0 0.0 0.0 0.0
000060 00 00 00 00 00 00 00 00 00 00 00 00 00 00 00 00
       0.0 0.0 0.0 0.0
000070 00 00 00 00 00 00 00 00 00 00 00 00 00 00 00 00
       0.0 0.0 0.0 0.0
000080 00 00 00 00 00 00 00 00 00 00 00 00 00 00 00 00
       0.0 0.0 0.0 0.0
000090 00 00 00 00 00 00 00 00 00 00 00 00 00 00 00 00
       0.0 0.0 0.0 0.0
0000a0 00 00 00 00 00 00 00 00 00 00 00 00 00 00 00 00
       0.0 0.0 0.0 0.0
0000b0 00 00 00 00 00 00 00 00 00 00 00 00 00 00 00 00
       0.0 0.0 0.0 0.0
0000c0 00 00 00 00 00 00 00 00 00 00 00 00 00 00 00 00
       0.0 0.0 0.0 0.0
0000d0 00 00 00 00 00 00 00 00 00 00 00 00 00 00 00 00
       0.0 0.0 0.0 0.0
0000e0 00 00 00 00 00 00 00 00 00 00 00 00 00 00 00 00
       0.0 0.0 0.0 0.0
0000f0 00 00 00 00 00 00 00 00 00 00 00 00 00 00 00 00
       0.0 0.0 0.0 0.0
000100 00 00 00 00 00 00 00 00 00 00 00 00 00 00 00 00
       0.0 0.0 0.0 0.0
000110 00 00 00 00 00 00 00 00 00 00 00 00 00 00 00 00
       0.0 0.0 0.0 0.0
000120 00 00 00 00 00 00 00 00 00 00 00 00 00 00 00 00
       0.0 0.0 0.0 0.0
000130 00 00 00 00 00 00 00 00 00 00 00 00 00 00 00 00
       0.0 0.0 0.0 0.0
000140 00 00 00 00 00 00 00 00 00 00 00 00 00 00 00 00
       0.0 0.0 0.0 0.0
000150 00 00 00 00 00 00 00 00 00 00 00 00 00 00 00 00
       0.0 0.0 0.0 0.0
000160 00 00 00 00 00 00 00 00 00 00 00 00 00 00 00 00
       0.0 0.0 0.0 0.0
000170 00 00 00 00 00 00 00 00 00 00 00 00 00 00 00 00
       0.0 0.0 0.0 0.0
000180 00 00 00 00 00 00 00 00 00 00 00 00 00 00 00 00
       0.0 0.0 0.0 0.0
000190 00 00 00 00 00 00 00 00 00 00 00 00 00 00 00 00
       0.0 0.0 0.0 0.0
0001a0 00 00 00 00 00 00 00 00 00 00 00 00 00 00 00 00
       0.0 0.0 0.0 0.0
0001b0 00 00 00 00 00 00 00 00 00 00 00 00 00 00 00 00
       0.0 0.0 0.0 0.0
0001c0 00 00 00 00 00 00 00 00 00 00 00 00 00 00 00 00
       0.0 0.0 0.0 0.0
0001d0 00 00 00 00 00 00 00 00 00 00 00 00 00 00 00 00
       0.0 0.0 0.0 0.0
0001e0 00 00 00 00 00 00 00 00 00 00 00 00 00 00 00 00
       0.0 0.0 0.0 0.0
0001f0 00 00 00 00 00 00 00 00 00 00 00 00 00 00 00 00
       0.0 0.0 0.0 0.0
000200 00 00 00 00 00 00 00 00 00 00 00 00 00 00 00 00
       0.0 0.0 0.0 0.0
000210 00 00 00 00 00 00 00 00 00 00 00 00 00 00 00 00
       0.0 0.0 0.0 0.0
000220 00 00 00 00 00 00 00 00 00 00 00 00 00 00 00 00
       0.0 0.0 0.0 0.0
000230 00 00 00 00 00 00 00 00 00 00 00 00 00 00 00 00
       0.0 0.0 0.0 0.0
000240 00 00 00 00 00 00 00 00 00 00 00 00 00 00 00 00
       0.0 0.0 0.0 0.0
000250 00 00 00 00 00 00 00 00 00 00 00 00 00 00 00 00
       0.0 0.0 0.0 0.0
000260 00 00 00 00 00 00 00 00 00 00 00 00 00 00 00 00
       0.0 0.0 0.0 0.0
000270 00 00 00 00 00 00 00 00 00 00 00 00 00 00 00 00
       0.0 0.0 0.0 0.0
000280 00 00 00 00 00 00 00 00 00 00 00 00 00 00 00 00
       0.0 0.0 0.0 0.0
000290 00 00 00 00 00 00 00 00 00 00 00 00 00 00 00 00
       0.0 0.0 0.0 0.0
0002a0 00 00 00 00 00 00 00 00 00 00 00 00 00 00 00 00
       0.0 0.0 0.0 0.0
0002b0 00 00 00 00 00 00 00 00 00 00 00 00 00 00 00 00
       0.0 0.0 0.0 0.0
0002c0 00 00 00 00 00 00 00 00 00 00 00 00 00 00 00 00
       0.0 0.0 0.0 0.0
0002d0 00 00 00 00 00 00 00 00 00 00 00 00 00 00 00 00
       0.0 0.0 0.0 0.0
0002e0 00 00 00 00 00 00 00 00 00 00 00 00 00 00 00 00
       0.0 0.0 0.0 0.0
0002f0 00 00 00 00 00 00 00 00 00 00 00 00 00 00 00 00
       0.0 0.0 0.0 0.0
000300 00 00 00 00 00 00 00 00 00 00 00 00 00 00 00 00
       0.0 0.0 0.0 0.0
000310 00 00 00 00 00 00 00 00 00 00 00 00 00 00 00 00
       0.0 0.0 0.0 0.0
000320 00 00 00 00 00 00 00 00 00 00 00 00 00 00 00 00
       0.0 0.0 0.0 0.0
000330 00 00 00 00 00 00 00 00 00 00 00 00 00 00 00 00
       0.0 0.0 0.0 0.0
000340 00 00 00 00 00 00 00 00 00 00 00 00 00 00 00 00
       0.0 0.0 0.0 0.0
000350 00 00 00 00 00 00 00 00 00 00 00 00 00 00 00 00
       0.0 0.0 0.0 0.0
000360 00 00 00 00 00 00 00 00 00 00 00 00 00 00 00 00
       0.0 0.0 0.0 0.0
000370 00 00 00 00 00 00 00 00 00 00 00 00 00 00 00 00
       0.0 0.0 0.0 0.0
000380 00 00 00 00 00 00 00 00 00 00 00 00 00 00 00 00
       0.0 0.0 0.0 0.0
000390 00 00 00 00 00 00 00 00 00 00 00 00 00 00 00 00
       0.0 0.0 0.0 0.0
0003a0 00 00 00 00 00 00 00 00 00 00 00 00 00 00 00 00
       0.0 0.0 0.0 0.0
0003b0 00 00 00 00 00 00 00 00 00 00 00 00 00 00 00 00
       0.0 0.0 0.0 0.0
0003c0 00 00 00 00 00 00 00 00 00 00 00 00 00 00 00 00
       0.0 0.0 0.0 0.0
0003d0 00 00 00 00 00 00 00 00 00 00 00 00 00 00 00 00
       0.0 0.0 0.0 0.0
0003e0 00 00 00 00 00 00 00 00 00 00 00 00 00 00 00 00
       0.0 0.0 0.0 0.0
0003f0 00 00 00 00 00 00 00 00 00 00 00 00 00 00 00 00
       0.0 0.0 0.0 0.0

exp_avg f4 [80]
000000 04 00 00 80 04 00 00 80 00 00 00 00 04 00 00 80
       -6e-45 -6e-45 0.0 -6e-45
000010 04 00 00 80 79 00 00 80 f4 63 0c 0e 04 00 00 00
       -6e-45 -1.7e-43 1.7304458e-30 6e-45
000020 38 28 d4 83 00 00 00 00 00 00 00 00 04 00 00 00
       -1.2469474e-36 0.0 0.0 6e-45
000030 6d e9 c1 85 04 00 00 80 04 00 00 00 04 00 00 80
       -1.823538e-35 -6e-45 6e-45 -6e-45
000040 00 00 00 00 00 00 00 00 04 00 00 80 04 00 00 00
       0.0 0.0 -6e-45 6e-45
000050 00 00 00 00 00 00 00 00 00 00 00 00 00 00 00 00
       0.0 0.0 0.0 0.0
000060 00 00 00 00 00 00 00 00 00 00 00 00 00 00 00 00
       0.0 0.0 0.0 0.0
000070 00 00 00 00 00 00 00 00 00 00 00 00 00 00 00 00
       0.0 0.0 0.0 0.0
000080 00 00 00 00 00 00 00 00 00 00 00 00 00 00 00 00
       0.0 0.0 0.0 0.0
000090 00 00 00 00 00 00 00 00 00 00 00 00 00 00 00 00
       0.0 0.0 0.0 0.0
0000a0 00 00 00 00 04 00 00 00 00 00 00 00 00 00 00 00
       0.0 6e-45 0.0 0.0
0000b0 00 00 00 00 00 00 00 00 00 00 00 00 00 00 00 00
       0.0 0.0 0.0 0.0
0000c0 00 00 00 00 00 00 00 00 00 00 00 00 00 00 00 00
       0.0 0.0 0.0 0.0
0000d0 00 00 00 00 00 00 00 00 04 00 00 00 00 00 00 00
       0.0 0.0 6e-45 0.0
0000e0 04 00 00 80 00 00 00 00 04 00 00 00 00 00 00 00
       -6e-45 0.0 6e-45 0.0
0000f0 00 00 00 00 00 00 00 00 04 00 00 80 04 00 00 80
       0.0 0.0 -6e-45 -6e-45
000100 04 00 00 80 79 00 00 80 f3 63 0c 0e 04 00 00 00
       -6e-45 -1.7e-43 1.7304456e-30 6e-45
000110 0a 34 00 80 04 00 00 80 04 00 00 80 04 00 00 00
       -1.8668e-41 -6e-45 -6e-45 6e-45
000120 60 f9 b4 81 04 00 00 80 04 00 00 00 04 00 00 80
       -6.6479393e-38 -6e-45 6e-45 -6e-45
000130 04 00 00 80 c9 8b 91 93 00 00 00 00 04 00 00 00
       -6e-45 -3.6740985e-27 0.0 6e-45

exp_avg_sq f4 [80]
000000 b0 ad d8 33 87 4e 93 36 00 00 00 00 72 f9 2a 1d
       1.00898774e-07 4.390083e-06 0.0 2.2628273e-21
000010 c9 17 65 3b ea 29 89 39 b4 bf 81 18 e7 b2 82 1c
       0.0034956804 0.00026161905 3.353929e-24 8.648924e-22
000020 c9 9f 68 28 00 00 00 00 00 00 00 00 63 65 16 26
       1.2913235e-14 0.0 0.0 5.217911e-16
000030 d2 03 22 2b 42 02 f7 1f 5e 9b d4 2d 43 0d da 34
       5.7559263e-13 1.04612304e-19 2.4170606e-11 4.0615313e-07
000040 00 00 00 00 00 00 00 00 7b 32 31 2f 53 86 fd 24
       0.0 0.0 1.611599e-10 1.09948814e-16
000050 00 00 00 00 00 00 00 00 00 00 00 00 00 00 00 00
       0.0 0.0 0.0 0.0
000060 00 00 00 00 00 00 00 00 00 00 00 00 00 00 00 00
       0.0 0.0 0.0 0.0
000070 00 00 00 00 00 00 00 00 00 00 00 00 00 00 00 00
       0.0 0.0 0.0 0.0
000080 00 00 00 00 00 00 00 00 00 00 00 00 00 00 00 00
       0.0 0.0 0.0 0.0
000090 00 00 00 00 00 00 00 00 00 00 00 00 00 00 00 00
       0.0 0.0 0.0 0.0
0000a0 00 00 00 00 2d cc d0 1b 00 00 00 00 00 00 00 00
       0.0 3.454266e-22 0.0 0.0
0000b0 00 00 00 00 00 00 00 00 00 00 00 00 00 00 00 00
       0.0 0.0 0.0 0.0
0000c0 00 00 00 00 00 00 00 00 00 00 00 00 00 00 00 00
       0.0 0.0 0.0 0.0
0000d0 00 00 00 00 00 00 00 00 9c 63 16 38 00 00 00 00
       0.0 0.0 3.5855555e-05 0.0
0000e0 f8 ea 5b 19 00 00 00 00 a6 ef 8b 35 00 00 00 00
       1.1369486e-23 0.0 1.0426054e-06 0.0
0000f0 00 00 00 00 00 00 00 00 64 b1 5d 35 4f 3e 80 3a
       0.0 0.0 8.2587053e-07 0.0009784194
000100 5e f9 8a 36 39 15 45 22 90 fa ea 17 e3 21 69 1d
       4.1417507e-06 2.6709714e-18 1.5185146e-24 3.0854812e-21
000110 dd c2 5b 14 3f 1b 8d 1e a8 04 9f 34 02 66 39 24
       1.10951045e-26 1.4940224e-20 2.9619446e-07 4.0201884e-17
000120 a2 9f 6a 1b ee a1 f0 27 c3 60 37 34 ae ef 1f 24
       1.9407606e-22 6.6788946e-15 1.7078405e-07 3.4680646e-17
000130 f3 f1 9d 36 68 d2 a7 33 00 00 00 00 39 f9 cb 22
       4.707131e-06 7.814816e-08 0.0 5.5287135e-18
