dl_computer_vision/assignments/1/checkpoints/best_checkpoint.ckpt (torch, 168892 bytes, 27 tensors)

model.lstm.weight_ih_l0 f4 [128, 1]
00000000: afc7 f83d 34f3 aa3d ce2d b8bd a811 033d
00000010: 35f3 bc3d 215c 2b3c 74ea 283e 466a 3ebd
00000020: b7d8 26be 12d1 ee3c ed07 92bd a0eb 9dbd
00000030: 10ef 11be 1558 ef3d fed0 25bd f58e d03d
00000040: 3b10 e6bc 547a 4b3b b78b a23d 2bd0 803d
00000050: adc9 9a3d 7016 27bd 5974 bb3d ab9d 19be
00000060: 72b3 d5bd f58f 1abe d6b3 f73d 159a dc3d
00000070: f250 303e d8a8 173e 2b52 23be 4a6d 2fbe
00000080: 7dca 3b3d a0b1 593d 07e5 0c3d f863 c13d
00000090: e522 743d 8250 903d 5152 013e ca24 21be
000000a0: 1145 a5bd 74ba ec3d a9ca ea3c 142f 293d
000000b0: 37c2 093e 75e5 573d e46b abbd 817b 10be
000000c0: c5cc c73c c0c6 0d3e 3d74 1e3e 6b1b 01be
000000d0: 4eb7 8dbd 3f40 00be 5227 84bd b251 e0bc
000000e0: e62b 9f3d 4406 07be a9f4 22bd c208 343e
000000f0: 5ea5 5abd 2374 f5bd 18cd 0cbe f8b5 843c
00000100: 0797 09bd bb38 c6bd 6ff9 bcbd 0fde 463c
00000110: 1c50 c83d 7149 c5bd 2775 7f3d 8a51 ccbd
00000120: b368 173e 79e5 7d3d a89d a33c d268 f03d
00000130: a071 f0bd 670d 873d adf7 243e 039f 5d3d
00000140: 9f8b a13d 552c 903d 9ceb b7bc ec66 a9bc
00000150: 48d3 34be 1f04 c5bd 9f89 f33c f392 013e
00000160: 6e5e b93b 3536 7bbd ef84 91bd 4290 0abd
00000170: f04a 10be 5b81 f5bd 6e5c 183e 41c7 083e
00000180: c038 6dbd d433 01be ccb1 b1bb 47e9 0b3d
00000190: 420b fa3d 2708 86bd c256 96bd 6103 753d
000001a0: ce49 d1bd f79e 8ebd a98e a1bd 4587 0fbe
000001b0: 10bc 8f3b e436 24be 71d3 243d 35ac 143e
000001c0: 5686 0bbe dca4 163e 2230 08be 6211 42bd
000001d0: afe9 773c 60cc 95bd 0f3e 22be 6de9 22be
000001e0: c19f ff3d e94d 92bd a2fd f4bd 5c3f 433d
000001f0: f341 04be b674 033d 9f87 e53d b18b e73d
0.121474616 0.083471686 -0.089931116 0.03199926 0.092260756 0.010458977 0.16495687 -0.04648807
-0.16293608 0.029152427 -0.07130418 -0.077109575 -0.14251351 0.11686722 -0.040482514 0.10183517
-0.028083911 0.0031048255 0.07936805 0.06289705 0.07557998 -0.040792882 0.09153051 -0.15001552
-0.10434617 -0.15093978 0.12094848 0.10771576 0.17218378 0.14810503 -0.15949313 -0.17131534
0.045847405 0.053147912 0.034398105 0.09442896 0.05960359 0.07046606 0.12629057 -0.1573669
-0.08069814 0.115590006 0.028661089 0.041304663 0.13452993 0.05270906 -0.08370188 -0.14109613
0.024389634 0.13845348 0.15474029 -0.12608115 -0.06919728 -0.12524508 -0.06452812 -0.027382705
0.07772045 -0.13185984 -0.039784107 0.17581466 -0.053380363 -0.11985042 -0.13750112 0.01620005
-0.033591297 -0.09678789 -0.09227263 0.012137904 0.09780905 -0.096331485 0.062367585 -0.0997649
0.14786033 0.06198642 0.019972637 0.11738743 -0.11740422 0.06594353 0.16110106 0.054106724
0.07887959 0.07039706 -0.022451214 -0.02067896 -0.17658722 -0.09619927 0.029728709 0.12653713
0.005657009 -0.061330993 -0.07105433 -0.03382898 -0.14091086 -0.11987563 0.14879009 0.1335726
-0.05791545 -0.12617427 -0.0054228064 0.034158017 0.122091785 -0.06544524 -0.073407665 0.059817676
-0.10219155 -0.06963914 -0.078885384 -0.14016445 0.0043864325 -0.16036564 0.04024071 0.14518817
-0.13625464 0.14711326 -0.13299611 -0.04737986 0.015131398 -0.07314372 -0.15843986 -0.15909357
0.124816425 -0.071437664 -0.11962439 0.047667846 -0.12915783 0.032093726 0.11207508 0.11305941

model.lstm.weight_hh_l0 f4 [128, 32]
00000000: 92c8 c43d 0b75 1cbe 99c8 553d 5b89 dc3d
00000010: e519 f7bd f78f 1e3e 3ba6 34be b6c8 8f3d
00000020: d148 343d 0b86 f2bd d1da 0cbd 5891 c13d
00000030: 1900 f13d ec22 923d c6c9 ce3d 4a53 873d
00000040: 835d 16bd 565b 083e 1cbe 163e 5f66 0dbe
00000050: d4cc cebc 8611 1e3d ebb6 f53d b642 8cbd
00000060: a39b 103c d8ca bebd bdd4 28bd f221 04be
00000070: e1ab 0cbe df49 0b3e 7284 213e 8b5d cbbd
00000080: 8553 623d 99fb 513d 0249 bd3d b763 c63b
00000090: 5ba0 8fbd 3324 11bc 237a 6b3d 335f 1dbd
000000a0: dcb8 9bbc 8217 4a3d 8797 cdbd 9b2b 73bd
000000b0: f467 10bd aba6 9cbc 878b 92bd 1271 2dbe
000000c0: 343f d23d 876c 57bd c93a 5bbd 3c8e 463d
000000d0: 12f0 aa3d 169a bb3d d830 ea3d db10 b0bd
000000e0: dc98 17be ea85 6bbd a537 ffbc 1c38 2fbe
000000f0: ad76 033d 9a8e d1bc ae38 053e 2018 f9ba
00000100: 5248 17be c32c 563d ef19 ffbd a361 1bbd
00000110: 329c e63a cfca 1e3a 9873 0abd 51d9 f83c
00000120: 664c 07be a154 8cba 5579 d33d 1c9f 1c3c
00000130: 1bf0 a8bd 8a30 8f3c 4fd4 113e 4e34 e63d
00000140: 5a49 2e3e 3838 51bd 446b 8bbc 79fb d7bd
00000150: e611 1d3d 13a7 033e dcc8 f8bd f5d6 02be
00000160: ad6b 99bd ebdf 14be 57b7 3ebd 12aa 503c
00000170: 47ef 22be 117a f2bd 3172 01be e7fa b3bd
00000180: 96ae 18bd 34d5 9a3d d9db 9f3b 2b59 443d
00000190: a0cb 913d 9cd9 0a3d 14d8 88bc 1269 f03d
000001a0: bc5a b73d fd6c c0bd c389 70ba 826c ca3a
000001b0: 7647 713d eddd bebd 89eb e53d 5a91 033e
000001c0: 1bf3 283e 9a74 0dbe f516 d5bc 85fb 0dbe
000001d0: 10c2 a63d 884c b8bd 7c3b 3abb 1b37 2e3d
000001e0: 35f4 00bd c840 f9bd d608 c3bc 1952 1b3e
000001f0: 5f28 c53b fcb9 e4bd f6dd f9bd 5a79 2b3e
00000200: b7be 2dbd bfd2 17be 418d 41bd 692f 183e
00000210: af73 8cbd bab1 2dbe 569c afbd bc6c a53d
00000220: 0610 953b 8624 ee3d 6cf2 ff3d d187 a23d
00000230: fbb8 bebd a23c 06be 8792 ee3d c1d6 fe3d
00000240: 4782 263e 04e5 16be 5fb5 8f3d 177f 19be
00000250: 176b 1f3e 676d f4bd de1a 6d3d 6894 f4bc
00000260: d5f9 f2bd a410 d93d d374 303e c8c9 08bd
00000270: 9fc6 ca3d e29f fa3d 0a26 f5bd e5b8 1fbe
00000280: c767 1abe 7722 c93b 6491 093e 7a77 2a3d
00000290: 6708 5fbd 0df6 be3b 2eaf 043e 0a89 333e
000002a0: 5870 01bd 265b 08bd 77b8 043e 9098 3c3c
000002b0: eecd 1b3e 5d33 313e 0a9c 0cbe 8068 c7bd
000002c0: 59f5 893d d478 ff3d b584 5a3d 9302 1bbe
000002d0: 0515 8e3d 0b39 03be 8b6c 253d 90bf 64bd
000002e0: 21e1 fbbd 35f7 babd 143b e6bd 6cf9 33be
000002f0: 3bd1 f53c 7c20 00be 7547 b43b 9067 623d
00000300: 135f 30be fee4 353d cae3 8f3a 40b4 6bbc
00000310: b313 19be fcf0 08be 5a1d cdbd 2109 e43d
00000320: e136 2d3e 9ad2 42bd 6941 39bd 2adc 193e
00000330: f5bc 34bd a911 ae3d c0ab eabd 4250 0e3d
00000340: 9d81 95bd a805 bdbd 2242 3abd c32f 2abe
00000350: d2e0 1fbe 1438 123e 2512 4cbd aed3 1f3e
00000360: d3d1 d93d 7e64 c6bb 03b2 653d a08f 793b
00000370: 2058 31be e1b1 a63c c553 0dbe aa49 cebd
00000380: 48d3 c5bd e0cf 163e aabf d73c 8cc5 16be
00000390: 6e54 06be 3367 eb3d 2709 f1bd 7ccb 043e
000003a0: 764c a9bc 4c5d fc3d 6346 923c d86c dd3c
000003b0: 1a56 b1bd 5fdb 1dbe aaeb 08be 581a d33d
000003c0: fcd5 28be 2cb8 c13d 4e58 f33d b88b 983d
000003d0: ee5e 2cbe 02fb 76bd 5804 9c3d 0a1b f6bd
000003e0: 3ea0 a73d 68c3 133e 1d2f 283e 8efc 17be
000003f0: e053 253e 0809 013e b40b 69bd 380f 1c3e
0.09608568 -0.15279023 0.052193258 0.10768386 -0.12065486 0.15484606 -0.17641537 0.070207044
0.044014756 -0.11841973 -0.034388367 0.0945155 0.11767597 0.07135567 0.10097079 0.06607683
-0.036710273 0.13316092 0.14720958 -0.13808583 -0.025244154 0.03859093 0.119977795 -0.068486616
0.008826169 -0.09316033 -0.041218508 -0.12903574 -0.13737442 0.13602398 0.1577318 -0.09929951
0.05525543 0.051265333 0.09242441 0.0060543674 -0.07013007 -0.008858728 0.057489526 -0.038420867
-0.019009046 0.049338825 -0.10038667 -0.059367757 -0.035255387 -0.019122442 -0.07155519 -0.16937664
0.10265961 -0.052593734 -0.05352286 0.04847549 0.08346571 0.09160249 0.114350975 -0.08596965
-0.14804405 -0.057500757 -0.031154463 -0.17111248 0.0320956 -0.025580693 0.13009903 -0.0019004382
-0.14773682 0.05228878 -0.12456118 -0.03793491 0.0017594157 0.00060574425 -0.033801645 0.030377062
-0.13212737 -0.0010706374 0.103258766 0.009559419 -0.082489215 0.0174792 0.14241146 0.11240445
0.17020169 -0.051079005 -0.017018922 -0.105460115 0.038347147 0.12856703 -0.12147686 -0.12777312
-0.07491241 -0.14538543 -0.046561565 0.01273586 -0.1591159 -0.118396886 -0.12641217 -0.0878809
-0.037275873 0.075601965 0.004878503 0.0479366 0.071189165 0.033898935 -0.016704597 0.117387906
0.08952853 -0.09395788 -0.00091758015 0.0015443715 0.05890604 -0.09319673 0.112265654 0.12848416
0.16498987 -0.13814011 -0.026011923 -0.13865478 0.08142483 -0.08998972 -0.0028416803 0.04253302
-0.031482894 -0.12170559 -0.023807924 0.15168037 0.0060167755 -0.11168286 -0.12200539 0.1674551
-0.042418208 -0.14826487 -0.04725385 0.14861836 -0.068580024 -0.16962329 -0.085747406 0.0807738
0.0045490293 0.1162806 0.1249741 0.07936061 -0.09312626 -0.13109067 0.116490416 0.12443305
0.16260634 -0.147358 0.07017016 -0.14989887 0.15568195 -0.11934929 0.05788695 -0.029855922
-0.11864058 0.10598877 0.17232065 -0.03339556 0.09901165 0.122375265 -0.11970146 -0.15597875
-0.1507865 0.0061381417 0.13434368 0.041617848 -0.054451372 0.0058276714 0.12957451 0.17532745
-0.03160128 -0.03329005 0.12960993 0.011510983 0.15215275 0.1730475 -0.13731399 -0.09736729
0.067362495 0.12474218 0.053349216 -0.151377 0.06937603 -0.12814729 0.040386718 -0.05584675
-0.12298799 -0.09129182 -0.11241737 -0.17575616 0.030006995 -0.12512392 0.0055016824 0.055274546
-0.17223768 0.044407837 0.0010977921 -0.014386237 -0.14948921 -0.13373178 -0.10015364 0.11134554
0.16915466 -0.047564127 -0.045228396 0.15025392 -0.044125516 0.08499462 -0.1145854 0.03474451
-0.073001124 -0.092295945 -0.045473225 -0.16619782 -0.15613106 0.14279205 -0.04982199 0.15608093
0.10635724 -0.00605446 0.05607797 0.0038079992 -0.17318773 0.020348491 -0.13801487 -0.10072644
-0.09659439 0.14727736 0.02633651 -0.14723796 -0.13118145 0.11494293 -0.11769324 0.12968248
-0.020666342 0.123224825 0.017855829 0.02702944 -0.08659001 -0.15415715 -0.13371149 0.10307759
-0.16487879 0.09458956 0.11882077 0.07448524 -0.16833088 -0.060297973 0.07618016 -0.12016876
0.08184861 0.1443001 0.16424222 -0.14842436 0.16145277 0.12601101 -0.056895927 0.1524018

model.lstm.bias_ih_l0 f4 [128]
00000000: d381 a1bd bd87 f23d 662a 313e da4f 113e
00000010: f17e b4bc cf04 8cbd 1f2e 2e3e 0712 a4bd
00000020: 987b 14bd 462c da3b 73b1 c03d cd6b 08bd
00000030: 8f45 cbbd 758e ca3d 5171 13be f5cd 1bbe
00000040: 11f2 a2bd 0a16 843d 6e71 8d3d 3e9c 01be
00000050: d2af a83d ff70 ed3d 5fa6 24be ec35 343e
00000060: 7d42 a4bd 5014 8e3c 688b 263e ad8b debd
00000070: 1c66 05be 10d2 d43d 1352 0c3e d222 6b3b
00000080: d87c 2b3e 8b8e c83c 0265 9c3d e307 c63d
00000090: cfe4 ea3c a232 003e b125 df3d f748 e1bd
000000a0: 4762 c3bd f615 b33d b469 1abe ffe1 06be
000000b0: f9a8 0bbd 8c95 00be 6a75 b9bd e54f 1bbe
000000c0: 0bec f8bd 2b8b 3abc 5262 adbd c44f d23d
000000d0: c21f f7bd d5be 22be 9525 9e3c e381 163d
000000e0: 3cf0 1fbe eaaf aa3d a8f8 093e 158e 96bd
000000f0: 84da 2abe 4a5e efba 3ee1 cabd 2492 3138
00000100: ccfe 71bc 8177 603d 305d f8bb 72b6 c43d
00000110: 128c f53c 7dfa e93c f2de 153e 9e84 a73d
00000120: 2979 da3d 5ac4 063d 019c dfbd 6943 abbd
00000130: fa34 0a3e 4861 d5bd 0b88 113e f607 2bbc
00000140: fb6c 25be ef41 0bbe 8e74 05be 5d57 bdbd
00000150: 4f26 2b3c ebca 0d3e af9a 5cbd 2f94 223e
00000160: 251a e8bd a7f4 2b3e 6af8 f43c 319a aebb
00000170: b54f 13be 7c0b adbd 84f1 04be 8e02 253e
00000180: 6505 f13c e65a 7e3c 3246 1dbd e50f 8ebd
00000190: 4529 1fbe 1577 f9bd 3a56 c2bd 839e f2bc
000001a0: c4ce 88bb 37d1 043e 305e 42bd 114a a5bd
000001b0: 67b6 193c 5e54 f73d 22d3 cd3c 9d6b 2b3e
000001c0: 18c6 0dbe 8345 e63d c4aa 0b3e 2e38 e1bd
000001d0: 12dd a33c 95d6 103e d4c6 33bd 3b81 0a3e
000001e0: 5e75 2a3e c531 e2bd ab16 b0bd db34 b0bd
000001f0: 24e9 0f3d 8c87 e0bd b699 26be ee7c 16be
-0.0788609 0.11842296 0.1730133 0.14190617 -0.022033187 -0.06836855 0.17009781 -0.08011251
-0.03625068 0.00665811 0.09408846 -0.03330593 -0.099253766 0.09890453 -0.14398696 -0.15215285
-0.07956327 0.06449516 0.069064006 -0.12657258 0.0823666 0.11593818 -0.1607909 0.17598695
-0.08020494 0.01734367 0.16264117 -0.10866485 -0.13027233 0.10391629 0.13703184 0.0035878909
0.16746843 0.024482032 0.07636453 0.09669473 0.028673558 0.12519315 0.10895861 -0.11000245
-0.09540229 0.08744423 -0.15079385 -0.13172148 -0.03409669 -0.12557048 -0.09055598 -0.15167196
-0.121543966 -0.011385719 -0.08466019 0.1026912 -0.12066604 -0.15893109 0.01930503 0.036744963
-0.15618986 0.08334334 0.13473761 -0.07351319 -0.1668492 -0.0018262353 -0.09906243 4.2336193e-05
-0.014770221 0.054801468 -0.007579468 0.09605111 0.029974017 0.028561825 0.14635828 0.081795916
0.10667641 0.0329021 -0.10918427 -0.08362467 0.13496771 -0.104189456 0.14212053 -0.01043891
-0.16154854 -0.1359937 -0.13032743 -0.09245179 0.010446145 0.13846938 -0.053858455 0.1587684
-0.11333112 0.16792546 0.02990361 -0.0053284396 -0.14385875 -0.08449456 -0.12982756 0.16114256
0.029421518 0.015524602 -0.03839702 -0.069366254 -0.15543087 -0.12180916 -0.09489103 -0.0296166
-0.004175039 0.12970434 -0.047453105 -0.08070768 0.009381867 0.12076639 0.02512509 0.1674027
-0.13845098 0.11243727 0.1363936 -0.109970436 0.020002875 0.14144357 -0.04389079 0.1352586
0.16646335 -0.11044649 -0.085980736 -0.086038314 0.03513445 -0.109633535 -0.16269574 -0.14696094

model.lstm.bias_hh_l0 f4 [128]
00000000: 0a82 333d 4dc4 79bd 8980 d0bd 4785 71bd
00000010: 92dc 883d 3850 0bba dc30 a33d bcd4 903d
00000020: b62c d53c 8f73 d43d fcaf 903d 3970 24be
00000030: b9b9 d3bd 695f 2e3e b63c 163e 814d 1dbd
00000040: 2e5c 14be 9f36 1ebe 1a0c 54bd 60d9 9e3d
00000050: 70d9 023d 378d eebd 5102 ca3d c931 843d
00000060: 7060 e0bd 657a c03d 3c55 073e 164d 1cbe
00000070: af9d 17be 5cd3 1cbd 6f5a adbd ad55 15be
00000080: 5fbb 91bd ef6f 203e 67fd 93bd f622 6b3b
00000090: c58f adbd 791e b6bd 55c0 f5bd 65d8 e13c
000000a0: f415 083e bd12 ad3d 2973 06bc a22a d8bd
000000b0: da0c 97bd 21ad 0a3e f39c 12be 9d52 1d3c
000000c0: 59e0 ad3d 1c2d 48bd 11c9 3c3d b01b 4a3d
000000d0: 5041 08bd 2c0f 843d 0f9c 92bd d945 09be
000000e0: abc2 b6bc 5cef 68bd d389 4d3d 6930 2e3d
000000f0: 4f10 9bbc 6a42 30be b859 d63d 4ace 8c3d
00000100: 9c06 8ebb cdd3 053e 28d2 233e 3c2c 0cbe
00000110: 6712 ef3d b7ff f53d c347 46bd 5796 e63b
00000120: 7f78 c53b b192 b23d 2053 7ebd ad57 46bc
00000130: a6fc a33d 23af 9bbd 2599 1ebe 1dde a0bd
00000140: 5254 a2bd 2827 333e 8a49 4fbd bfc1 c93d
00000150: 4bf4 983c 0bb1 5c3d c87b 34be e4e0 ddbd
00000160: 15a2 ca3d 6e33 3f3d dbcd 72bd 5ed3 0f3e
00000170: b8d6 bbbd a2cb 5b3d d744 29be b036 0dbe
00000180: 2c3a 203e 34ed 293e 6661 f6bd 4f1f 8f3c
00000190: f66a abbd 5aef 183e 5475 2bbe ccc7 0cbe
000001a0: 8936 bd3d 267f f0bd 4ff2 b5bd 1285 ecbc
000001b0: c357 65bd 7421 2ebe de70 0bbe bfe7 253e
000001c0: 7bc9 05be b700 17bd cf4d 06bd fb98 43bd
000001d0: bfa9 13be 3b7e 083e d4fe a6bd 1645 213e
000001e0: 059e b63d a80b fdbd 9ae5 183d 7dcc a23d
000001f0: 3f0b 3ebc 7d72 2bbc 3414 19be d9e4 94bc
0.043825187 -0.060978223 -0.10180766 -0.058964994 0.066826954 -0.0005314383 0.079683036 0.07071826
0.026022296 0.103736036 0.07064816 -0.16058435 -0.10338158 0.17028584 0.14671597 -0.03840399
-0.14488289 -0.15450524 -0.051769353 0.07756305 0.031945646 -0.11648028 0.09863723 0.06454808
-0.10955894 0.09398345 0.13216108 -0.15263781 -0.14806245 -0.038287506 -0.084645145 -0.14583464
-0.07115816 0.156677 -0.07226067 0.0035878993 -0.084746875 -0.08892531 -0.11999575 0.027569005
0.13289624 0.0845084 -0.008206167 -0.105550066 -0.07375498 0.13542606 -0.14317684 0.009602216
0.084900565 -0.048871145 0.04609019 0.04934281 -0.03326541 0.06448206 -0.07158672 -0.13405551
-0.022309622 -0.056868896 0.050180268 0.042526636 -0.018928675 -0.17212835 0.10466331 0.06875284
-0.004334284 0.13069077 0.15998137 -0.13688749 0.11673432 0.12011664 -0.04840828 0.007036965
0.006026327 0.087193854 -0.062090993 -0.0121058645 0.08007173 -0.07601764 -0.15488108 -0.07854865
-0.07926239 0.17495406 -0.05060724 0.09851407 0.018671175 0.05387978 -0.17625344 -0.1083391
0.09894196 0.046679907 -0.05927835 0.14045474 -0.09171814 0.053660996 -0.16530167 -0.13790393
0.15647191 0.16594392 -0.12030296 0.017470984 -0.083700106 0.14935055 -0.16743976 -0.13748091
0.092389174 -0.11743002 -0.08884107 -0.028872047 -0.0559919 -0.17004949 -0.13617274 0.16201685
-0.1306514 -0.036865916 -0.032789048 -0.047753315 -0.14420222 0.13329403 -0.08154073 0.1574901
0.089168586 -0.12355739 0.03732834 0.07949159 -0.011599361 -0.010464308 -0.14949113 -0.01817553

model.lstm.weight_ih_l1 f4 [128, 32]
00000000: 9a57 b93d 6689 133e b584 07be 4300 28be
00000010: c109 6bbc 2c7a b2bd 90ce e6bc 0aa6 06be
00000020: 1de8 7f3d 1e1d d7bd a4e9 4abc 6a5b a5bd
00000030: 49ef 5dbd db0c 44bd 3414 dd3d 42a0 193c
00000040: 1fa4 10be dfc6 00bd 6b61 2ebe c966 2b3e
00000050: a013 e6bc fcc8 0b3e e274 1fbd c8e0 1a3e
00000060: 37db 013e 27fa 01be 967c 56bd dba9 2b3e
00000070: 4137 133e ba5d b8bc 79b5 6d3d 459b ff3d
00000080: 7b26 133e 1f6d 553d 76c8 1dbe 8346 6f3d
00000090: c2a0 043e a188 063e 5632 233e 1d2d 0abe
000000a0: d7b8 ba3c 8b84 ec3c 9c9c 1dbe bfed 493d
000000b0: 7d2f 043c 4824 58bd aa7e edbd 23d4 9b3d
000000c0: 94fd 003b 637b ddbc ed36 983d b8cf 033d
000000d0: d4eb b9bc 715d 9bbd 27c6 f53d 3367 09bd
000000e0: 48ae d73d 256f 1d3e 76da 11be 484c e3bc
000000f0: 9846 07be 3fb6 f3ba 10dd 013e 1dbb 0e3e
00000100: d23b 643a ddcc a53d 2f8f 0d3e a3bd 36be
00000110: 0953 bbbd 4349 b03d fc9d 023e 578c cd3a
00000120: c4de 813d e1ff d6bc ac8e b33d 462f 163e
00000130: d69c a8bd 5d0a 273e e929 4ebd b60e a23d
00000140: 5d24 ac3d 96c1 af3b 7358 20be 708f 313d
00000150: 88c6 0cbe b778 213e e532 f0ba 7a76 93bd
00000160: a86b b0bd 1967 033e 81cd 24be 4402 a7bd
00000170: edeb aa3d 2ac7 21bd 3571 c3bd d6ce 96bd
00000180: 7e38 633c 0b5e 21be b1ab e3bd 1425 273d
00000190: ce71 323e e56f 073e 29f3 bc3c be2f 02be
000001a0: 6b48 f9bd 3b78 a83d 9b58 94bd 6cf3 8aba
000001b0: b2a3 56bc 2d7c 313d 2a50 033e 7b1f edbd
000001c0: 34ab 67bd 1711 253a 0a80 11be 4b90 29bd
000001d0: c615 1cbe 17be 61bd f798 a7bd fdd6 873d
000001e0: d853 773d e93b 173e e84a 1fbe b56e 4b3d
000001f0: ddca 093e 6043 363c d1c1 6a3d fad5 0c3d
00000200: 35a7 8fbd 8edf 71bd e343 eebd a1e7 a33d
00000210: 8f06 633d 0d12 91bc fa29 4c3d 0d35 eabd
00000220: ed4b ac3d ce58 233e be94 0c3e 665d 96bb
00000230: ee78 ea3d 9792 053e 2739 1c3d 0444 e9bd
00000240: 5310 bd3c 8beb ebbd 554d 10be a07e 2abd
00000250: 8c87 10be f438 273e d47b a33b d807 96bd
00000260: 4bcf 823c 228a 893d af68 0fbd 8cbf d2bd
00000270: df71 cdbd 9dec 293d f790 dbbb 160e f23d
00000280: 0d36 103d 2cd6 1cbe 2a0a 303d aeca 023b
00000290: 47a8 e53c 5cdd 9e3d 8e16 e6bd d79f 8e3b
000002a0: 116c a33d 4255 263e 1414 173d 5730 e43d
000002b0: 77bb 143e 8d1e 293e 395e 143e fd78 dd3d
000002c0: 2340 2dbe d62f 4e3d 3177 0e3d 12a2 90bc
000002d0: f5a9 b7bd 9102 6abd b22c 4f3d e8fb 593c
000002e0: d71f b13d 6cd5 42ba 04f1 413d 8d76 a53d
000002f0: 5ada 17bd 951e 2bbd 8246 fd3d 1fc8 0fbc
00000300: fec1 4ebc 958d 14be aaa3 07be 7b66 453c
00000310: 984b 12be 8daa 2d3e a7ff 04be f026 203e
00000320: a3e4 3d3d abbf 70bd 0fe5 0d3e 4e0b 5d3d
00000330: a767 303e 4e85 2bbe bdec d9bd 64ad 893c
00000340: f8b2 4ebd ba99 2e3e 3fad c93d e011 ddbd
00000350: 547a dfbd f7c5 2abe 71de f93d 3795 bb3d
00000360: d56a 1dbe 3666 d53d 2116 723d 2a7c 08be
00000370: c2e8 21be 2a51 b7bd bee6 aabd ed2b 21be
00000380: 8e72 9dbd a372 023d 46b7 fdbd 8960 883d
00000390: bf18 883c 082a c8bc fabc 1f3e cc6e 8a3c
000003a0: 9956 003e 1043 bcbd fe58 cdbc db40 223d
000003b0: fc95 643d be3e 30bd 8326 7bbc e8bd dabd
000003c0: 59c3 0f3e 13ab 19be 1362 0dbe 96a8 983c
000003d0: aa10 c2bd f92f 313e 7a0b 9d3d 3a85 d03c
000003e0: 5af1 2c3e 4789 e5bc 7b47 a93d ce74 acbd
000003f0: 2764 0b3d c740 cdbd 96cb 703d 80ce da3d
0.09049912 0.14407882 -0.13234217 -0.1640635 -0.014345587 -0.08714709 -0.028174669 -0.13149276
0.06247722 -0.105036005 -0.012384806 -0.080740765 -0.05418328 -0.047863822 0.10794869 0.009376587
-0.14125107 -0.03143966 -0.1702935 0.16738428 -0.02808553 0.13650888 -0.038929828 0.1512481
0.1268128 -0.12693082 -0.05236491 0.16764013 0.14376546 -0.02250563 0.058034394 0.12480787
0.14370148 0.05210602 -0.15408501 0.058416855 0.12951949 0.13138057 0.1593717 -0.13493772
0.022793217 0.028871795 -0.15391773 0.049298998 0.008067963 -0.052768975 -0.11596425 0.07608821
0.0019682394 -0.027036374 0.07432351 0.032180518 -0.02269546 -0.07586182 0.12000685 -0.033545684
0.105312884 0.1537443 -0.14243492 -0.027746335 -0.13210523 -0.0018593742 0.12681985 0.13938566
0.00087064237 0.08095715 0.13824151 -0.17845778 -0.09146697 0.086077236 0.12755579 0.0015682083
0.06341317 -0.02624506 0.08767447 0.14666471 -0.08233039 0.16312547 -0.050332937 0.07912962
0.08405373 0.0053636534 -0.1565874 0.043349683 -0.13747609 0.15768705 -0.0018325715 -0.07200332
-0.08614284 0.12832297 -0.16094019 -0.08154729 0.083457805 -0.03949658 -0.09543077 -0.073636696
0.013868449 -0.15758531 -0.11116732 0.040806845 0.17426226 0.13226278 0.023065167 -0.12713525
-0.12172016 0.08226057 -0.07243463 -0.001060111 -0.013100551 0.043331314 0.12823549 -0.1157827
-0.056559756 0.0006296797 -0.14209 -0.041397374 -0.15242681 -0.055112924 -0.081834726 0.06632803
0.060382694 0.14768948 -0.15555918 0.049666125 0.13456292 0.011124462 0.057313744 0.03438375
-0.07014314 -0.05905109 -0.11634042 0.08003164 0.055426177 -0.017708803 0.04984472 -0.114359
0.08412919 0.15951845 0.13728616 -0.0045887707 0.11448847 0.13044201 0.038140442 -0.11389926
0.023079073 -0.11519536 -0.14092 -0.041624665 -0.14114207 0.1633032 0.0049891267 -0.07325715
0.015967986 0.067158 -0.035011943 -0.10290441 -0.10031485 0.041485418 -0.0067006308 0.11819093
0.035207797 -0.15316075 0.042978443 0.0019957232 0.028034342 0.07757065 -0.11234771 0.0043525505
0.079795964 0.16243461 0.036884382 0.111420326 0.14524637 0.1651556 0.14489068 0.10814092
-0.16918997 0.05033859 0.03478164 -0.017655406 -0.089679636 -0.057131354 0.050579734 0.013304688
0.08648651 -0.0007432315 0.04734899 0.080792524 -0.03707347 -0.041777212 0.12366964 -0.00877574
-0.0126194935 -0.14507134 -0.13246027 0.012048359 -0.14286649 0.16959591 -0.12988149 0.15639853
0.046360623 -0.05877654 0.1385691 0.05396586 0.1722704 -0.1675007 -0.10640857 0.016806312
-0.050463647 0.1705083 0.09847497 -0.10794425 -0.10912004 -0.1667708 0.122006305 0.0915932
-0.15372784 0.10419886 0.059103135 -0.13328615 -0.15811446 -0.08951028 -0.08344792 -0.15739413
-0.07687865 0.031847607 -0.12388472 0.066590376 0.016613362 -0.024434105 0.15599433 0.016898535
0.12533034 -0.09192479 -0.025066849 0.039612632 0.0558071 -0.043028586 -0.015329006 -0.10680753
0.14039363 -0.15006666 -0.13806944 0.018635076 -0.09475835 0.17303456 0.076682046 0.025454152
0.16888943 -0.02801956 0.08265587 -0.08420716 0.03403106 -0.10022121 0.058787905 0.10683918

model.lstm.weight_hh_l1 f4 [128, 32]
00000000: 29eb 0f3d 9676 093c a7c4 7f3d cf41 9c3d
00000010: 7d1e 043e e96c e23d e1cd 373d 9554 943d
00000020: 846a b33d 8af2 92bd 8e44 4a3d ee90 cb3d
00000030: 0ba9 223e 2518 263e d2ce fb3c 9d87 223d
00000040: ba73 b2bd cd2b 0e3e aa4b 463d 77b0 cbbd
00000050: 024a 52bd 5ec0 9b3c fce3 41bd 20fb c43d
00000060: d2d9 15be 0174 22be e8f4 14be 5ab0 b73d
00000070: 995a 1bbe 41d7 5e3d cd97 123e 87c7 103e
00000080: 2276 31bd 3331 e0bd 3c34 3d3d 8ba5 e43d
00000090: 7368 3d3d a115 c73d 674e fb3c eb15 9fbd
000000a0: 5cda a7bd 23ae 2f3d ba99 b1bc b321 a6bd
000000b0: c978 af3d 8ccc e6bd 781d 513d d272 c1bd
000000c0: 6a06 e9bd 5c4e 973d b95b a33d bd65 423d
000000d0: a17d eabd bcd0 463d c3d1 0cbe d87a a6bd
000000e0: 1da9 d13d 8e79 e6bc 7e13 f2bd b6f5 18be
000000f0: df60 8b3d e81d d0bd 520a b4bd 1c35 d0bd
00000100: f886 163e e699 de3d 8488 07be b140 2b3d
00000110: a937 01bd 974b 143d 1ec7 e03d 312a d83d
00000120: 8097 d6bd 0045 c4bd a3e6 a8bd 3c8a e23c
00000130: 90f7 eebd 7769 b8bd 7da4 fe3d 3cbf bf3d
00000140: e646 0abe eb93 1abc ceb4 a8bd 1efd dabd
00000150: 770b a83d fb14 903d 73e6 b83d 93f6 313e
00000160: 50f2 a93c bd53 8e3d f1ee 2a3e cd40 2ebe
00000170: 6bcc 0d3e bef2 2fbd 2ace 8e3d 42e4 983d
00000180: 7f0a cc3d 7148 fc3d cf43 05be c8e0 1c3e
00000190: bd26 a5bd d46b b33c 8b39 dcbb 31b1 94bd
000001a0: 5d10 cfbd ec17 263e eb63 e3bd ffd1 24bd
000001b0: 518a bdbd b8eb 293e b03d 2ebc bf36 8c3d
000001c0: 5746 aa3d 3c3a bfbd 0ae2 2c3e 302f 2dbc
000001d0: b910 db3d 0ba9 df3d 549a 0abc 9215 2d3e
000001e0: 26fe 53bd 1f88 e6bd 8484 18be 98d0 d03d
000001f0: 6445 23be 9ba9 29be 523b 50bd b59d 0e3e
00000200: 535d 8ebc 03a4 c93d bfdb 91bd a7dc a33d
00000210: 9e27 f93d 4410 d73d 3bb4 ecbd 89df 053e
00000220: 3a7a d2bd e771 1abe 241a d9bd c01d 503d
00000230: bd14 e83d 10ca 30be 4b22 6e3c 2200 2d3d
00000240: f543 0fbe 1422 303e a1f4 0ebd 605a 2dbe
00000250: 46cb ce3d 7c66 743d eda3 ef3d 7cd7 1abe
00000260: bce2 4d3d a8b0 2dbe f294 f93d a69c a4bd
00000270: 92fd cf3c 6b76 58bd cd18 7e3c 29b7 523d
00000280: a5cc 543d 089b 503c 8e1f 223c 0770 c63d
00000290: 0aea aebd 91ce 0fbe b0ed 98bd cff7 113b
000002a0: d153 053d 0f39 113e e86d 08be 7e70 9cbd
000002b0: 3e2b 16bd 0387 21be a59a cabd 0b4a 13bd
000002c0: eecd 55bc f2c8 5d3d f769 a43c ed15 143e
000002d0: e6f0 16be 1859 023d dd24 103e 6cd6 35be
000002e0: 6c68 9a3d fb95 8e3d 523d 193e fa89 afbd
000002f0: ca1f 3f3d d8d7 f63d 1c10 fdbd 8a2f 4c3d
00000300: 8849 143e a892 383d c74c bdbd 873a bdbd
00000310: e431 f8bd 4f45 fdbc 2379 f8bd c0da 193e
00000320: 3c94 c3bd 18d1 193b db5c 903d 7937 b83c
00000330: a31a eabd 02bc f7bd de9f d0bc 355b a33c
00000340: 2184 8b3d 3bb2 263e f988 463d 8feb 1bbe
00000350: 8658 5abd c041 0e3c a368 c03d 49e4 143e
00000360: ba7f f53d bb73 bfbc 7c0b 723d deea 36bc
00000370: 5ec2 8eb9 a6cc 97bd 97a0 a7bd bced 30be
00000380: d41b f3bd b772 f23d 0c81 d63b ef70 253e
00000390: 4750 b9bd f915 1ebe 3ce8 703d 6647 15bc
000003a0: dfb7 313e c8ae 113e acc4 d8bd 765f 3b3d
000003b0: 18b5 8b3d f07d f93d b63f b0ba 900b 1d3d
000003c0: ebd5 093e 7600 eebd cdf5 3ebd b07d 213e
000003d0: cb14 e13d 8829 0b3e f30c 9cbd 0382 2ebe
000003e0: 4916 94bc 9527 29be 55c5 af3d 23ba a5bd
000003f0: 3ce2 35be ca8f 993d c1d0 21be df46 a83d
0.035136376 0.0083900895 0.0624434 0.076297395 0.12902255 0.11055929 0.044874076 0.07242695
0.087605506 -0.07175167 0.049381785 0.099397525 0.15884797 0.16220148 0.030738268 0.039680112
-0.08713479 0.13883896 0.048412003 -0.099457674 -0.05134011 0.019012626 -0.047336563 0.09618211
-0.14633873 -0.15864564 -0.1454655 0.08969183 -0.15171279 0.0544045 0.1431572 0.14138614
-0.04332555 -0.10946884 0.046192393 0.11164387 0.04624219 0.09720922 0.030677034 -0.077678524
-0.081959456 0.04289068 -0.021679748 -0.08111896 0.0856796 -0.11269483 0.051053494 -0.09445728
-0.113781765 0.07387993 0.07976479 0.047460306 -0.11449743 0.04853891 -0.13751893 -0.08128899
0.10237334 -0.028134134 -0.11820124 -0.14937481 0.06805586 -0.10161954 -0.08791031 -0.1016638
0.14699924 0.108691975 -0.1323567 0.04180974 -0.031547222 0.0362049 0.109754786 0.10554922
-0.10478115 -0.09583473 -0.082471155 0.027653806 -0.116683125 -0.09004491 0.124337174 0.09362647
-0.13503608 -0.00943468 -0.08237611 -0.106928095 0.08205312 0.07035252 0.0902833 0.17379217
0.020745426 0.069495656 0.16692711 -0.17016907 0.1384751 -0.042956106 0.069729164 0.07465412
0.099629395 0.123185046 -0.13014148 0.15320122 -0.08064029 0.021902002 -0.006720727 -0.07260359
-0.10110543 0.16220063 -0.11103042 -0.04023933 -0.092548974 0.16593826 -0.010634825 0.068463795
0.083141975 -0.09337279 0.16883102 -0.010570332 0.10696549 0.10920914 -0.008459646 0.1690276
-0.051756047 -0.11256432 -0.148943 0.10196036 -0.15944439 -0.16568606 -0.050837822 0.13927348
-0.017378485 0.09845736 -0.07121991 0.080010705 0.121657595 0.10501149 -0.11557814 0.13073553
-0.10277219 -0.15082513 -0.10600689 0.05080962 0.113320805 -0.1726458 0.014534543 0.042236455
-0.13990767 0.172005 -0.034901265 -0.16929007 0.10097365 0.05966805 0.11701188 -0.15121263
0.05026506 -0.1696192 0.12186612 -0.08037691 0.025389466 -0.052847307 0.015508843 0.051444206
0.051952977 0.012732275 0.009895219 0.09689336 -0.08540733 -0.14043643 -0.0746721 0.002227295
0.032550637 0.14181922 -0.13323176 -0.07638644 -0.036662333 -0.15774159 -0.09892777 -0.035959285
-0.013049586 0.054146715 0.02007006 0.14461489 -0.14740333 0.031823248 0.14076562 -0.17757577
0.07539448 0.069622 0.14964798 -0.08571239 0.046661176 0.12052888 -0.12356588 0.049850024
0.14481175 0.045061737 -0.0924316 -0.09239679 -0.12118891 -0.030916838 -0.1213248 0.15024853
-0.09549758 0.0023470577 0.07048961 0.022487389 -0.11430862 -0.120964065 -0.025466856 0.019940952
0.06812311 0.16278927 0.04847047 -0.15226577 -0.05330708 0.008682668 0.09394958 0.14540209
0.119872525 -0.023370614 0.059092984 -0.011164395 -0.00027229165 -0.074120805 -0.08184927 -0.17278188
-0.11870542 0.11838286 0.0065461453 0.16156362 -0.09048515 -0.1543807 0.058815226 -0.009111261
0.17355298 0.1422683 -0.10584387 0.045745336 0.0682165 0.12182224 -0.0013446722 0.038341105
0.1346051 -0.11621182 -0.046621133 0.15770602 0.10990294 0.13590062 -0.07619657 -0.17041783
-0.018077033 -0.16519006 0.0858256 -0.080921434 -0.17762083 0.07498129 -0.1580229 0.082166426

model.lstm.bias_ih_l1 f4 [128]
00000000: 4732 04be f178 1d3c 7549 2abe 2cf2 4bbd
00000010: 8086 113e b32d d1bd 93f6 1bbd 36e9 31be
00000020: f3ec fa3d 25cf 883d 6b86 2c3e df72 3f3d
00000030: 3522 1e3e b231 15be d3ff 3cbd f8a5 62bd
00000040: d9f9 1fbe dd25 d03d 9639 27be e497 293e
00000050: 0c1d 7fbd 9a95 12be 595d 293e a412 633d
00000060: f6e8 abbd 5501 ea3d 696a 21be 5dc6 d1bd
00000070: 1306 f8bd 7dee 133c 28db c4bd 2608 1c3d
00000080: b20b e73d 46df 333e bbd5 a2bd 0dba c2bd
00000090: d95b d7bb 3eb8 93bd 30de c83d 82e2 053d
000000a0: 4579 1f3e f200 b9bd 66c0 10be 7ae9 2c3e
000000b0: 4988 8fbd 83e2 cfbd d868 31bd 5610 87bd
000000c0: 7624 793d 0df7 02bd 375e 0cbd 62cc 18be
000000d0: 1485 c93d 1a06 d2bd a313 013e e872 963d
000000e0: 6854 aebd d8a6 2a3e f4dd cd3d 8d30 2abe
000000f0: 56c4 233e 542f a33d cfb0 0a3e 1dbe 0b3e
00000100: a76a 053c bf54 c33d 30f5 30be 615b 9ebd
00000110: 878e c2bd 72eb a33d 038b 553d 1b37 02be
00000120: 3989 30be 57ee cb3d 57a8 12bc c909 933d
00000130: 59d8 0d3e e724 08be c3be ebbb c947 2cbe
00000140: 8027 1b3c e0c9 083e 8622 9b3d 8c03 09be
00000150: 5e2d 6dbc e613 da3d 1d32 84bd 7ecc f8bd
00000160: fd83 a9bd 84a7 0ebe c670 d23d ffae e83d
00000170: 29a8 8d3d 1d4e a9bd 1571 303e 5ef6 233e
00000180: 91e7 16bd c95d 0f3e a330 a8bd 0301 323e
00000190: 5dfc b5bd a3aa 89bd 6530 06bd 6d76 173e
000001a0: da5a cb3d e514 6dbc ccdf 2a3c cfe2 303e
000001b0: e8d1 d8bd 9c7b 703d 6ccd d03d 591c 1fbe
000001c0: 6b09 b73d d68b 9cbd 2528 db3b 1bdc bebc
000001d0: e7b7 a6bd 2a34 44bc da21 1ebd a5ff dd3d
000001e0: 8189 bbbd fe96 0bbd f7e8 113e f04e da3d
000001f0: 8e4a ff3c 46ec 57bd 2bc4 fdbb eb93 2f3e
-0.12909804 0.009611354 -0.16629584 -0.0497915 0.14211464 -0.102137946 -0.03807695 -0.17374119
0.12252226 0.06680135 0.16848151 0.04674041 0.15442736 -0.14569739 -0.04614241 -0.05533406
-0.15622653 0.10163472 -0.16330561 0.16561848 -0.06228356 -0.14314881 0.16539516 0.0554377
-0.08394043 0.11426035 -0.15763249 -0.10242913 -0.121105336 0.009029028 -0.09612113 0.03809371
0.112815276 0.17565641 -0.07950922 -0.095081426 -0.0065722284 -0.07212876 0.09808004 0.032686718
0.15573604 -0.090333834 -0.14135894 0.16885939 -0.07008416 -0.101506256 -0.043312877 -0.06594913
0.060825787 -0.031973887 -0.034269538 -0.14921716 0.09839836 -0.1025507 0.12605147 0.073461354
-0.08512193 0.16665208 0.100521 -0.16620083 0.15992865 0.079680115 0.1354401 0.13646741
0.008143104 0.095376484 -0.17281032 -0.07732273 -0.09499841 0.08003892 0.052134525 -0.12716334
-0.17239846 0.09957569 -0.008951268 0.07179601 0.13852061 -0.13295327 -0.0071943714 -0.16824259
0.009469867 0.13358259 0.07574944 -0.1338026 -0.014476148 0.106483266 -0.06454871 -0.12148379
-0.08277128 -0.1393109 0.10275416 0.11361503 0.0691684 -0.08266852 0.17230637 0.1601195
-0.036841933 0.1400062 -0.08212402 0.17383198 -0.08886025 -0.067219995 -0.032760996 0.1479127
0.09929438 -0.014470314 0.010429334 0.1727402 -0.105869114 0.058711633 0.10195431 -0.15538158
0.08937343 -0.07643859 0.006688135 -0.023298314 -0.08140545 -0.0119753275 -0.038606502 0.10839776
-0.09157086 -0.034079544 0.14249025 0.106595874 0.03116348 -0.052715562 -0.0077443323 0.1714627

model.lstm.bias_hh_l1 f4 [128]
00000000: a026 25bc c3f1 85bd d9b0 d7bd b4c0 2e3e
00000010: 7508 153e e972 253e 2ed6 eebd d2b0 96bd
00000020: b8a3 27be 5d7b e03c e736 543a 0f2e 613a
00000030: d644 f13d 78fa 303e b91f eabd 3323 25bd
00000040: 13a7 ea3d 69a8 efbd 69e8 193e 928c d23d
00000050: e09c 8c3d a0c3 c1bd 45db 2ebe 7975 0c3d
00000060: 6d64 febd 5258 05be e0c8 b43d a81f 0c3e
00000070: e4dd e83d 6011 5fbd 337b c03c 5b9a 2d3d
00000080: c74f 8a3d c854 b1bd b1f9 8c3d 0128 d83d
00000090: 1c62 6fbd a05f 26bd 1fb6 7cbd cbcb 1fbe
000000a0: ee46 89bc 78c1 ac3d 783f 683c 734c cfbd
000000b0: 9704 e2bd cc9d ddbd 1fc4 443d bf76 593c
000000c0: e324 23be 7377 9bbd 538e a03d b6fc ef3d
000000d0: 926a 2abe 544b 49bd 6064 b33c 421c 2e3e
000000e0: c4e7 293e dffb 98bd 03b9 2b3e 74e2 a5bd
000000f0: e34e cc3d 8c3e dcbc 81d3 8cbb f2c8 a73d
00000100: 4f62 0f3e 2377 36be c83f 123e 1fb0 053e
00000110: 1b22 493a 0248 bd3c 51fa e63d ff92 193d
00000120: 83ad dbbd 4dd9 bebd 1d59 f83c 1318 223e
00000130: 465b 303d 3f1f ff3b 7b08 82bc d4f7 e73d
00000140: 10aa e8bd 7c46 f4bd 8676 e5bd b3be b5bd
00000150: a6d3 253e 7279 40bd 214f 31bc 59b4 553c
00000160: 6da1 df3d e6b5 2b3b 8d8b 95bd cdae 743c
00000170: 4f43 d9b9 fd04 343e 03e7 b6bd f1c8 d3bd
00000180: 82e1 d7bd ca3f df3d d03b 24be 3dbf 1dbe
00000190: 0ba4 14be ed8a 013c 66c5 233e ec12 fabd
000001a0: ef26 c33c d6c2 ff3d 4ad7 bebc 36e4 043d
000001b0: e166 e83d a98e 893d 8210 183e 54c2 03be
000001c0: 2ca5 d43d 53a9 b53d c4c6 56bc f0c0 113c
000001d0: 9de3 18bc ae0e 1abe 1769 e1bd d0ab ab3d
000001e0: f918 133e c20d a33d 53d9 803d 6e67 1b3e
000001f0: 5814 3d3c 58ff 02be 5f74 923d b065 a5bc
-0.01008001 -0.06540253 -0.10531778 0.17065698 0.14554007 0.16157116 -0.11661945 -0.073579445
-0.16371047 0.027402574 0.0008095339 0.0008589932 0.117807075 0.17283046 -0.11431832 -0.04031677
0.11457648 -0.117020436 0.15030064 0.10280718 0.06865859 -0.09461141 -0.17075832 0.03429172
-0.124214984 -0.13021973 0.08827376 0.13683951 0.11370447 -0.05445993 0.023496246 0.042383533
0.067534976 -0.08658749 0.06883562 0.10554505 -0.058443174 -0.04061854 -0.06169712 -0.15605085
-0.016757455 0.08435339 0.014175288 -0.101220034 -0.11036032 -0.10821113 0.0480386 0.01327294
-0.1593204 -0.075911425 0.07839646 0.11718123 -0.16642216 -0.049144104 0.021898448 0.17002967
0.16592318 -0.074699156 0.16769795 -0.08099833 0.09975984 -0.026885293 -0.004297674 0.08192624
0.14002346 -0.17818885 0.14282143 0.13055466 0.00076726236 0.023105625 0.11278213 0.037493702
-0.10726454 -0.093187906 0.03031593 0.15829496 0.043055795 0.0077857072 -0.015873184 0.11326566
-0.11360562 -0.11927506 -0.11204247 -0.088742636 0.16194019 -0.04699082 -0.010822088 0.0130434865
0.109194614 0.002620095 -0.07302008 0.014934254 -0.00041439614 0.17580028 -0.08930781 -0.10341061
-0.10541059 0.10900839 -0.16038442 -0.15404983 -0.14515702 0.007906658 0.1599327 -0.1221064
0.023822276 0.12488334 -0.023296017 0.0324442 0.113477476 0.067166634 0.14850047 -0.12867099
0.103830665 0.08870187 -0.013108913 0.008896098 -0.009331611 -0.15044662 -0.110063724 0.0838238
0.14364995 0.079616085 0.06291451 0.15176174 0.011540495 -0.12792718 0.07151102 -0.02019009

model.linear.weight f4 [1, 32]
00000000: 9f0d e53d 4ddc 07be 4a32 f2bd c3a7 f23d
00000010: 2d8d f23d 092c 2c3e 30c2 febd 361c 81bd
00000020: 1460 133e 9516 b1bd 326b 18be d3f7 3cbd
00000030: 5026 bebd 5182 b73c b1fb 1eb6 a49e 24be
00000040: 604b b43d d4a5 e7bd cbde c1bc 00d5 52bd
00000050: daa6 4c3a fa0d 143e de23 063e 2901 2dbe
00000060: f141 1ebc 6334 00be 3544 0c3e 00b3 e33d
00000070: ece4 4b3d 20cf 4f3b 3830 a53c 03cd 58bd
0.11184239 -0.13267632 -0.11825998 0.11848404 0.118433334 0.16813673 -0.12439382 -0.06304209
0.1439212 -0.08646885 -0.14884642 -0.04613478 -0.09284651 0.022401007 -2.3690338e-06 -0.16076142
0.08803439 -0.11310926 -0.023665806 -0.051472664 0.0007806845 0.14458457 0.1309962 -0.16894974
-0.009659276 -0.12519984 0.13697894 0.11118126 0.049778864 0.003170915 0.020164594 -0.05292989

exp_avg f4 [128, 1]
00000000: d20f 5cb2 bfee dcae 598c ba38 ba3e 463d
00000010: 3976 2039 6c1c a0ba 0000 0000 a566 713f
00000020: 29ca 14ac 59f5 62b8 8149 3e35 e6fb 45af
00000030: 7a5f a2b6 1f35 d529 91d2 8e3e 714a 8db9
00000040: 8030 8033 caef ce42 2118 8c2f f60e 0238
00000050: 595e 8aba dd19 3bb7 41b1 f92b 91a9 8f29
00000060: 5ac1 f8b9 25fe 122f 3447 ea2e 1c63 94b7
00000070: 0000 0000 23eb d132 82a1 c8b3 f7b5 4131
00000080: b3c8 97b7 4252 07ae a749 8635 1bb8 0237
00000090: d5c9 7c3b c158 d2b4 af66 4d30 78d6 8d31
000000a0: 1705 d5a4 2373 73b0 0856 2b32 6065 2dac
000000b0: 074d 13ab 3bef ca2d edba 3736 c2db 81b5
000000c0: e0fc c930 c969 bf34 5fbd 2d28 b576 2c33
000000d0: aae4 e4ba e0be 1ead f8ca 6b2c 2091 4b26
000000e0: 4c75 25b3 c836 9e23 5471 5135 0000 0000
000000f0: 2f1b 9d32 2703 2337 b1cb a2a7 2562 d430
00000100: 9c42 ac37 0000 0000 0000 0000 16b4 3a3f
00000110: 0000 0000 0000 0000 6317 4432 0000 0000
00000120: 0000 0000 f804 8bb1 5af7 5733 0000 0000
00000130: 0000 0000 9595 1e2a 0000 0000 b7c5 29ba
00000140: c06d 2828 476b 4736 8e6b e9b2 6cde c1ba
00000150: 0000 0000 0000 0000 158f bf2f 0000 0000
00000160: 01b6 59ba d93c c5a6 fa70 4bae d0ca 023c
00000170: 0000 0000 0000 0000 0000 0000 0000 0000
00000180: b18d f0bd 6098 7f34 062f 6a38 db7f 243e
00000190: 2ec1 5138 c28a 80bc f69a 4b3d 18b7 3e3a
000001a0: 98c9 14ac 1681 92bc 8870 4135 d869 43af
000001b0: 3a2f 21b6 6667 5b34 6d15 ce3a 0f30 aab5
000001c0: f399 8133 e285 8134 0f33 0537 b79c 253e
000001d0: 8e17 afc1 c7b0 3cb7 3074 8733 dcb0 8f29
000001e0: d0da 47af 9ef1 122f da14 1139 bee4 46be
000001f0: 0ae0 ac37 64ac c43f 4bca 79ab b5e9 ffa7
-1.28092825e-08 -1.00468515e-10 8.895313e-05 0.048399664 0.0001530283 -0.0012215502 0.0 0.9429725
-2.1144286e-12 -5.4111097e-05 7.088748e-07 -1.8006538e-10 -4.839091e-06 9.468315e-14 0.27895024 -0.0002694908
5.9692866e-08 103.46834 2.5482996e-10 3.100835e-05 -0.0010556682 -1.115209e-05 1.7741712e-12 6.379891e-14
-0.00047446304 1.3368913e-10 1.0653736e-10 -1.7689126e-05 0.0 2.443773e-08 -9.342604e-08 2.8188631e-09
-1.809406e-05 -3.0768506e-11 1.0005214e-06 7.791469e-06 0.003857245 -3.9180125e-07 7.472449e-10 4.1280224e-09
-9.238265e-17 -8.8566504e-10 9.973071e-09 -2.4641053e-12 -5.233179e-13 2.3070981e-11 2.737793e-06 -9.675207e-07
1.4696546e-09 3.565349e-07 9.6444925e-15 4.0154834e-08 -0.0017463167 -9.023643e-12 3.3508179e-12 7.0626454e-16
-3.8523737e-08 1.7153595e-17 7.802348e-07 0.0 1.8289567e-08 9.716291e-06 -4.5184875e-15 1.5452924e-09
2.0535015e-05 0.0 0.0 0.7293104 0.0 0.0 1.1414019e-08 0.0
0.0 -4.0459973e-09 5.0283553e-08 0.0 0.0 1.4085116e-13 0.0 -0.00064763
9.349672e-15 2.9715754e-06 -2.717368e-08 -0.0014791018 0.0 0.0 3.4844364e-10 0.0
-0.0008305014 -1.3686114e-15 -4.62572e-11 0.007982925 0.0 0.0 0.0 0.0
-0.117457755 2.380416e-07 5.583374e-05 0.16064398 5.0009396e-05 -0.015691165 0.04970833 0.0007275208
-2.1143972e-12 -0.017883819 7.206186e-07 -1.777275e-10 -2.401836e-06 2.043358e-07 0.0015722938 -1.2679974e-06
6.035034e-08 2.4125535e-07 7.939306e-06 0.16173063 -21.886501 -1.1246832e-05 6.307562e-08 6.381156e-14
-1.8176682e-10 1.3364462e-10 0.00013836045 -0.19423196 2.0608324e-05 1.536511 -8.874331e-13 -7.1030103e-15

exp_avg_sq f4 [128, 1]
00000000: e7c7 0e24 c982 2c1d f0e9 9731 7264 5139
00000010: 4475 8631 6211 6834 0000 0000 26e8 b93d
00000020: ef56 8f17 9e05 0a30 f9df 112a 0df2 141e
00000030: 4d6d 872c dbc6 a313 3a58 d63b 1139 5232
00000040: 9d6e c526 68c2 8043 e28d 911e b879 3d2f
00000050: 5fc8 0734 7c73 c02d 9cb0 6217 b8b4 2013
00000060: 4ad8 1033 378f 5b1d 04e6 441d c93b 502e
00000070: 0000 0000 60be 0927 2890 0527 5d15 bb23
00000080: 6dda 7b2e abcd 0c1d c786 242b 0530 8e2d
00000090: c2e2 0d36 8744 e428 e898 0f20 25c0 9e22
000000a0: 90a7 1e09 d579 9a20 2ddb da23 8f85 ca17
000000b0: 00f6 9d15 1017 101b 6759 092c c996 332a
000000c0: d49a c221 b64b c428 db03 a710 8d3c db25
000000d0: ce10 af34 4cdf aa19 10fe 841a c62a 7d0c
000000e0: a902 b025 dad6 9e06 34ee 0f2a 0000 0000
000000f0: 3213 a124 a020 ef2d 537a be0e 34a1 6121
00000100: d719 9e2e 0000 0000 0000 0000 819d 023d
00000110: 0000 0000 0000 0000 dcc2 e523 0000 0000
00000120: 0000 0000 9756 8622 72e3 4726 0000 0000
00000130: 0000 0000 59f2 3b14 0000 0000 2faa a033
00000140: 1819 5310 028c df2b 1c07 2e25 987f bb34
00000150: 0000 0000 0000 0000 511c 001f 0000 0000
00000160: 7045 f933 c353 fe0c 1201 171c fda5 0537
00000170: 0000 0000 0000 0000 0000 0000 0000 0000
00000180: ed60 dc3a e6d4 0f2b 1d8c 0731 2ba9 293b
00000190: 287a 0e30 a244 f637 511f c339 18b3 c733
000001a0: c255 8f17 c3a0 4638 04d6 142a 31ac 0f1e
000001b0: bc49 862b ce03 3328 f0e1 db34 4616 ab2a
000001c0: ffc2 c826 4062 6928 699f 662d 5fe0 363b
000001d0: 7669 4e41 12cc c32d b758 7026 e4aa 2013
000001e0: f271 f11d dc66 5b1d 930c 7c31 1f69 873b
000001f0: cdb6 b02e 27dc 313e d4a5 6916 acde a411
3.0960666e-17 2.2831625e-21 4.421274e-09 0.00019969212 3.913245e-09 2.1613008e-07 0.0 0.09077482
9.263104e-25 5.021209e-10 1.2956293e-13 7.88511e-21 3.8490656e-12 4.134307e-27 0.006541279 1.2236584e-08
1.3699603e-15 257.5188 1.5411154e-20 1.7232693e-10 1.264575e-07 2.1879158e-11 7.324745e-25 2.028394e-27
3.3724326e-08 2.905845e-21 2.60593e-21 4.7346824e-11 0.0 1.9115772e-15 1.8535605e-15 2.0283628e-17
5.7264794e-11 1.8635174e-21 5.8451545e-13 1.6164856e-11 2.1142628e-06 2.5342804e-14 1.2163164e-19 4.3029427e-18
1.9097346e-33 2.6169236e-19 2.3728432e-17 1.3087659e-24 6.3799915e-26 1.1918853e-22 1.95185e-12 1.5950708e-13
1.3186934e-18 2.1793206e-14 6.5875826e-29 3.8031475e-16 3.2608517e-07 1.7667777e-23 5.500438e-23 1.9503283e-31
3.0532936e-16 5.974869e-35 1.2783595e-13 0.0 6.985514e-17 2.7185643e-11 4.695641e-30 7.6446316e-19
7.189598e-11 0.0 0.0 0.03188849 0.0 0.0 2.4910756e-17 0.0
0.0 3.6412453e-18 6.935024e-16 0.0 0.0 9.488882e-27 0.0 7.481537e-08
4.1631744e-29 1.5883963e-12 1.5094503e-16 3.49243e-07 0.0 0.0 2.7128477e-20 0.0
1.1607597e-07 3.9185309e-31 4.996309e-22 7.966065e-06 0.0 0.0 0.0 0.0
0.0016813554 5.109926e-13 1.972473e-09 0.0025888185 5.1832894e-10 2.9357445e-05 0.0003721663 9.2992366e-08
9.262807e-25 4.73566e-05 1.3219292e-13 7.605965e-21 9.541738e-13 9.937321e-15 4.095632e-07 3.0391157e-13
1.3930642e-15 1.2955403e-14 1.31093825e-11 0.0027904732 12.900747 2.2259559e-11 8.338696e-16 2.0279095e-27
6.3909986e-21 2.9037586e-21 3.6677974e-09 0.0041324045 8.036025e-11 0.17369138 1.8873916e-25 2.601187e-28

exp_avg f4 [128, 32]
00000000: 7622 b228 ebc4 0023 05ce 6225 2af4 8ead
00000010: 9e48 9aad d19e c127 7d42 24a7 d41a c629
00000020: 4729 d697 c8b1 91a7 5782 1fa1 65f9 689b
00000030: 3a28 2521 aa9e 06a0 189a 4eaa d835 96ad
00000040: 6756 919f eb7f 5fad e250 5d22 218c 7229
00000050: ca53 7a2d 8306 1d24 0291 1ba0 59a9 cb94
00000060: 07bf 36a4 cde3 151b 3a3d 5b23 8db2 992d
00000070: c825 9a22 9c04 932d 1a80 3fa0 39a2 459f
00000080: c3ee b523 14d7 811e f59b 7820 2db0 12a9
00000090: 014c 2ea9 ac85 9723 398c 51a2 b827 9825
000000a0: 559b 5d93 4585 d2a2 bb57 a39c 6711 5996
000000b0: 3dc1 a11c 068f 899b dcd4 09a6 4aeb 5ba9
000000c0: a3b1 0c9b 154e aaa8 2007 0a1e c062 e724
000000d0: dd7d 3429 0fad 1620 a136 8e9b 5407 998e
000000e0: 978c ee9f 6ea3 a416 a5f0 2a1f d148 2d29
000000f0: fbe9 881e 7031 5729 6156 eb9b 2bc3 6f9a
00000100: 312c b8af 5804 28aa 3322 a9ac 2f5e 5c34
00000110: 42b4 6c34 1af2 b5ae 5332 312e cdde aeb0
00000120: e36d 891f 1c12 9a2e 9089 8128 1368 0123
00000130: cd61 a2a8 1931 5127 6650 3631 6664 5c34
00000140: ca08 eb26 dc57 3434 413e 93a9 bac0 65b0
00000150: 403e 35b4 fcfd 35ab d53c 7027 91ea 931c
00000160: 24bd 882b f06b a0a2 db88 85aa ebab 6bb4
00000170: f9c9 c2a9 0f1c 57b4 ca4b 9427 11ea e726
00000180: 656e 9fb3 60bf 17ae 5342 6cb0 f8a4 9d38
00000190: eae4 a738 624f b2b2 c315 1932 219f afb4
000001a0: 6a50 6723 0d09 8732 aed0 512c 92e5 ce26
000001b0: 322d 5aac 6d1b 3b2b 7a97 3535 9119 a538
000001c0: 58e5 cb2a 1cf6 7438 b605 87ad 5109 55b4
000001d0: 3437 8db8 81ce 33af 4998 552b 3481 6620
000001e0: 6132 472f 52a5 8ba6 e495 7cae 795e a7b8
000001f0: 152e bbad b648 a2b8 5d8c 872b 1e59 922a
00000200: 2cc7 c6af 1d59 1faa 1713 85ac 7997 9f34
00000210: 92f0 aa34 f801 cfae 8287 372e 75b6 ceb0
00000220: b151 421f 3214 a32e f231 5028 2bce be22
00000230: 30ff 55a8 ff2e 3727 162f 5931 ec20 a334
00000240: 40fd c626 c54b 7d34 75bd 89a9 7738 82b0
00000250: 45c6 88b4 8172 38ab 1a5f 5327 051f 4b1c
00000260: 3b46 552b 80c1 75a2 9911 82aa f354 aab4
00000270: 525f baa9 f8c5 9fb4 2719 8327 0a1f 8a26
00000280: d043 df30 9c1e 342b eca5 932d 5560 c6b5
00000290: 0ff9 d4b5 f078 f42f 6013 4daf 636d f531
000002a0: c10a 5aa0 a738 b8af 2d23 6aa9 27e2 d2a3
000002b0: b32a 7529 641f 4ea8 bf2b 80b2 1fc0 cfb5
000002c0: 29f0 dea7 eb61 9ab5 48bc 9c2a caa6 9531
000002d0: 3503 af35 4b36 5a2c ea06 6da8 ef79 5b9d
000002e0: 5f8d 77ac f793 8a23 a13b 962b f23e d435
000002f0: aef7 d82a 25b3 cb35 8bab 95a8 095a 9ba7
00000300: 0000 0000 0000 0000 0000 0000 0000 0000
00000310: 0000 0000 0000 0000 0000 0000 0000 0000
00000320: 0000 0000 0000 0000 0000 0000 0000 0000
00000330: 0000 0000 0000 0000 0000 0000 0000 0000
00000340: 0000 0000 0000 0000 0000 0000 0000 0000
00000350: 0000 0000 0000 0000 0000 0000 0000 0000
00000360: 0000 0000 0000 0000 0000 0000 0000 0000
00000370: 0000 0000 0000 0000 0000 0000 0000 0000
00000380: 2d79 b9b6 4103 feb0 d8b6 86b3 567a a93b
00000390: b1cc af3b 4ee3 91b5 27f7 2235 5072 92b7
000003a0: c8e6 ef25 db68 8f35 7fc6 2b2f 1771 aa29
000003b0: c392 36af 16ce 0f2e 1bf4 2538 23a7 953b
000003c0: 1c48 a12d 17a3 903b d683 4bb0 4207 5bb7
000003d0: 7548 81bb e67b dbb1 7bbb 2b2e 2198 3923
000003e0: f2e6 3432 669b 27a9 6e8b 2db1 9465 afbb
000003f0: 2a5a 62b0 5711 93bb f9bb 3d2e ae9f 752d
1.9776915e-14 6.980593e-18 1.9672177e-16 -1.6251962e-11 -1.7540022e-11 5.374045e-15 -2.2795615e-15 8.79762e-14
-1.3839846e-24 -4.0438335e-15 -5.40438e-19 -1.9271174e-22 5.5957414e-19 -1.1402739e-19 -1.8349937e-13 -1.7076937e-11
-6.155283e-20 -1.2704486e-11 2.9993904e-18 5.3856337e-14 1.422946e-11 3.4049464e-17 -1.317699e-19 -2.0564558e-26
-3.9626766e-17 1.2398598e-22 1.1884979e-17 1.7473379e-11 4.1781786e-18 1.6714012e-11 -1.6220715e-19 -4.185056e-20
1.9725179e-17 1.374736e-20 2.1058019e-19 -3.257132e-14 -3.8701684e-14 1.6428065e-17 -2.8399015e-18 2.639471e-16
-2.7970706e-27 -5.706172e-18 -1.0809113e-21 -1.7534612e-25 1.0704037e-21 -2.2757176e-22 -4.78199e-16 -4.883185e-14
-1.1637926e-22 -1.8907654e-14 7.3071326e-21 1.0034757e-16 4.0077198e-14 1.2762754e-19 -2.3527232e-22 -3.772447e-30
-1.0102951e-19 2.6598768e-25 3.6197957e-20 3.8476875e-14 1.4496332e-20 4.778247e-14 -3.893331e-22 -4.9581697e-23
-3.3500805e-10 -1.4922904e-13 -4.8070658e-12 2.052336e-07 2.204479e-07 -8.273933e-11 4.0289837e-11 -1.272349e-09
5.820355e-20 7.006326e-11 1.4381535e-14 7.0151426e-18 -1.8028027e-14 2.9031192e-15 2.6530187e-09 2.0525621e-07
1.6308783e-15 1.679577e-07 -6.538911e-14 -8.3583596e-10 -1.6879585e-07 -6.465659e-13 3.3339668e-15 9.788278e-22
9.715878e-13 -4.348237e-18 -2.3720509e-13 -2.1948624e-07 -8.6503673e-14 -2.0033643e-07 4.1160423e-15 1.6092289e-15
-7.424095e-08 -3.45034e-11 -8.595055e-10 7.517071e-05 8.005819e-05 -2.0758026e-08 8.91072e-09 -3.2712072e-07
1.25395634e-17 1.5720184e-08 2.9816527e-12 1.4356347e-15 -3.1004752e-12 6.6473807e-13 6.764818e-07 7.872575e-05
3.6219183e-13 5.840334e-05 -1.535026e-11 -1.984056e-07 -6.733686e-05 -1.635332e-10 7.588414e-13 1.9524508e-19
1.8116843e-10 -9.689873e-16 -5.7431296e-11 -7.9807774e-05 -2.1279903e-11 -7.7383054e-05 9.631286e-13 2.5996647e-13
-3.615751e-10 -1.4152954e-13 -3.7822068e-12 2.972627e-07 3.1840005e-07 -9.41362e-11 4.1729738e-11 -1.504033e-09
4.114867e-20 7.415969e-11 1.155715e-14 5.171789e-18 -1.187921e-14 2.5421828e-15 3.1604421e-09 3.038507e-07
1.3807653e-15 2.3590026e-07 -6.116888e-14 -9.474793e-10 -2.5476234e-07 -6.552884e-13 2.9333687e-15 6.720716e-22
7.5770266e-13 -3.330613e-18 -2.310485e-13 -3.1726776e-07 -8.276595e-14 -2.97601e-07 3.6387074e-15 9.584087e-16
1.6244659e-09 6.3991325e-13 1.678565e-11 -1.4780186e-06 -1.5867716e-06 4.4469273e-10 -1.8651525e-10 7.1428743e-09
-1.8468876e-19 -3.350966e-10 -5.1988948e-14 -2.2864025e-17 5.4437964e-14 -1.1442104e-14 -1.4921055e-08 -1.5478616e-06
-6.187776e-15 -1.1502392e-06 2.7841813e-13 4.3554325e-09 1.3039449e-06 3.1009802e-12 -1.3157642e-14 -2.9047447e-21
-3.5179288e-12 1.5024656e-17 1.0674691e-12 1.581355e-06 3.854117e-13 1.5176817e-06 -1.6616718e-14 -4.311876e-15
0.0 0.0 0.0 0.0 0.0 0.0 0.0 0.0
0.0 0.0 0.0 0.0 0.0 0.0 0.0 0.0
0.0 0.0 0.0 0.0 0.0 0.0 0.0 0.0
0.0 0.0 0.0 0.0 0.0 0.0 0.0 0.0
-5.5275364e-06 -1.8481857e-09 -6.27312e-08 0.0051720543 0.0053649773 -1.0869496e-06 6.0709357e-07 -1.7457787e-05
4.1616275e-16 1.0684847e-06 1.562288e-10 7.5691345e-14 -1.6604944e-10 3.2697477e-11 3.9566406e-05 0.0045670434
1.8335604e-11 0.004413973 -7.403832e-10 -1.3055107e-05 -0.003945405 -6.3878245e-09 3.9047415e-11 1.0061085e-17
1.052989e-08 -3.7216236e-14 -2.525407e-09 -0.005352685 -8.234645e-10 -0.004488151 4.3140578e-11 1.3962094e-11
