advanced-DL/assignments/assignment3/best_model.pt (torch, 17559 bytes, 26 tensors)

input_net.self_attn.o_proj.weight f4 [10, 10]
000000 4b 69 f3 3c 59 59 bf be c5 a3 30 bd 7a 2b e8 be
       0.029713294 -0.37372854 -0.043124933 -0.4534567
000010 59 27 c3 bd 8c a7 ca 3e b5 80 5e 3e b2 bd 07 bf
       -0.09528989 0.39580953 0.21728785 -0.5302383
000020 9d 8b a8 be ab e0 6e 3d b0 a1 90 3e 08 6e 4e 3e
       -0.32919016 0.05831973 0.28248358 0.20159161
000030 05 96 a2 be 97 cb 34 be 4e 8b 1b 3e 4f 7b 81 bd
       -0.3175508 -0.17655788 0.1518986 -0.063223474
000040 78 96 af bc eb e8 85 bd 0c 82 e7 be d9 22 9d 3e
       -0.021434054 -0.06538566 -0.45216405 0.3069065
000050 a6 9f 4c 3c 7e 10 05 bf 73 12 2b be 3f f7 58 be
       0.012489235 -0.5197829 -0.16706257 -0.21188067
000060 78 88 85 bd bc 62 7a 3e af 58 bd 3e f9 b3 36 bd
       -0.0652017 0.24451727 0.36981723 -0.04460523
000070 bd 6f b8 3e 05 1e 82 be 82 09 c3 be fb a3 2b bf
       0.3602275 -0.25413528 -0.3809319 -0.6704709
000080 1a 73 7a 3e 99 54 14 bf d3 6c c4 3c 52 75 00 3d
       0.2445797 -0.57941586 0.023977673 0.031361885
000090 59 ff f4 3e 80 f7 60 be fe 78 3d be 14 35 42 be
       0.47851065 -0.21969414 -0.18503186 -0.1896556
0000a0 1c 49 26 bf d9 48 0f 3f 5a ff 21 3f 95 12 e1 bd
       -0.64955306 0.5597053 0.6328026 -0.10989872
0000b0 bb c4 71 3f b2 b9 10 be f3 f8 e5 bd 49 fe d5 bc
       0.9444081 -0.14133337 -0.11229124 -0.02612223
0000c0 e3 1b 2a 3f f2 dc fe be 96 0f 8b 3d c9 01 d0 be
       0.664488 -0.49777943 0.06790082 -0.40626362
0000d0 47 cb e5 be 5b 66 9a 3e a2 2a 7d bf 2d 7e c5 3e
       -0.4488165 0.30156216 -0.9889318 0.38572827
0000e0 c9 6a 0c bf eb e1 9d 3e 90 5e 29 bf 8e a7 69 be
       -0.5485044 0.30836424 -0.66159916 -0.22817823
0000f0 a4 1b 4d 3f 66 c2 76 3d c6 c7 f4 be 06 2b cb 3e
       0.801203 0.060243987 -0.47808665 0.39681262
000100 83 2a 0d 3e 88 c3 52 3e 2e 03 be 3e 9d 9e 93 be
       0.13785748 0.20582402 0.371118 -0.2883195
000110 b1 6d 14 bf cd 48 20 be f1 23 0a bf e6 50 2c 3f
       -0.57979876 -0.15652771 -0.5396109 0.6731094
000120 87 30 1f bf 1e 87 39 3f 7a 0d 24 3e 46 d4 81 3e
       -0.6218342 0.724718 0.16020766 0.25357264
000130 2e 87 d6 bd 19 86 05 be bb 82 5e 3e 60 78 35 3f
       -0.10475002 -0.13039435 0.21729557 0.708868
000140 86 27 62 bf 25 ee 41 3f bc 06 e9 3d 88 05 24 bf
       -0.8834156 0.75754005 0.113782376 -0.6407094
000150 4d 56 93 3f 36 a4 6b 3c 55 18 d6 3c 5f 7a 3b bf
       1.1510712 0.014382413 0.02613465 -0.732336
000160 b0 cf 26 3f 9f a2 6e 3f cd 94 91 3e f1 f2 28 bf
       0.65160656 0.9321689 0.28433838 -0.659957
000170 37 0b 13 3e d4 be 46 be 62 e5 10 be aa 4d 4d bf
       0.14359747 -0.19408733 -0.14150003 -0.8019663
000180 b6 e9 e5 3d 5e dd 1c 3f 31 87 72 bf dc 25 f5 be
       0.112262174 0.6127528 -0.94737536 -0.47880447

input_net.self_attn.o_proj.bias f4 [10]
000000 5f fa 7c 3c 1c a1 96 bd db 65 b1 bd 49 4f 46 3b
       0.0154405525 -0.07354948 -0.086620055 0.003025966
000010 e5 b6 1e 3e cb b4 48 3d f5 27 50 bd 29 a6 25 bd
       0.15499456 0.049000543 -0.050819356 -0.040441666
000020 8c 41 6a bd 92 27 1a 3d
       -0.057191417 0.037635393

input_net.self_attn.qkv_proj.weight f4 [30, 10]
000000 14 27 8f 3e 58 2a 47 be b4 f7 80 be ee bb 08 3f
       0.27959502 -0.19449747 -0.25188982 0.5341176
000010 ae 86 a5 3d a1 44 cb 3e 75 62 2a be ef b3 1d 3f
       0.08082329 0.39700797 -0.16639121 0.6160268
000020 4d 60 81 bf 4e 3f a4 3e 5e df d6 3e 23 15 e9 3e
       -1.0107514 0.32079548 0.4196729 0.4552394
000030 9e f8 83 3e 5b 1c af 3e 60 14 59 bd 38 69 0c 3f
       0.25775617 0.3420132 -0.052997947 0.5484805
000040 ec 1b d5 3e 2f 03 cc be 9d f8 68 bf ff c1 2e 3e
       0.41622865 -0.3984618 -0.91004354 0.17066191
000050 2e bc a9 be b2 f3 df bc d1 ee 50 3e d5 7f aa be
       -0.33151382 -0.027337883 0.20403601 -0.33300653
000060 ef 91 c8 be 96 e0 57 bf 05 ef c7 be 79 0d 0a bf
       -0.39173838 -0.84327066 -0.39049545 -0.5392681
000070 cd 60 fb 3e 7c 4b 9b be c5 78 11 bf be 6b b1 bb
       0.4909729 -0.30331028 -0.56824905 -0.005414455
000080 1f 0d 2f 3e 12 5a 34 3e d7 71 54 be 39 3d 0e 3f
       0.17094849 0.17612484 -0.20746551 0.5556217
000090 d7 80 99 3e bd ed 2d bf 71 da 3c bf 36 39 25 3e
       0.2998111 -0.67940885 -0.73770815 0.16135105
0000a0 5a 2d ba 3e 1f cf e0 3d 72 4b fa be dc 5c cb 3e
       0.36362725 0.10977005 -0.48885685 0.39719284
0000b0 6c a9 36 3e ea 9b 91 3e 92 c1 f3 be 75 0b 0a 3f
       0.17838067 0.28439265 -0.4760862 0.5392373
0000c0 3e 56 77 3f da b0 8b 3e 53 3a fa be b3 cd 12 3d
       0.9661597 0.27283365 -0.48872623 0.0358407
0000d0 7c a1 75 3e 42 98 85 be dd 2a c6 3e 42 a5 37 be
       0.23987383 -0.26092726 0.38704577 -0.17934135
0000e0 6b eb bf be 48 6e a2 bd 9e 8e a4 3e 21 a6 c9 3d
       -0.37484297 -0.07931191 0.32140058 0.0984614
0000f0 7c a0 99 bd 9a 40 40 bd 8e 77 af 3e db 4f c7 bd
       -0.07501313 -0.04693661 0.342709 -0.09732028
000100 db 23 a7 be c8 25 0d 3e cf a4 eb 3e 70 71 0a 3f
       -0.32644543 0.13783944 0.46024176 0.5407934
000110 4e 87 d6 be bf 7b e2 be 19 60 ac bd 48 0f 00 bf
       -0.41900104 -0.44235036 -0.08416767 -0.5002332
000120 a3 94 7a 3e 4e 77 1e bc 4c 5f 5e bd 9e 96 17 39
       0.24470763 -0.009671999 -0.0542901 0.00014456591
000130 b1 01 b7 bd 1d 37 0b bf 71 d3 48 3f 8d d9 58 be
       -0.089358695 -0.5438097 0.78447634 -0.21176739
000140 29 16 2a 3e 26 52 e5 3e 2c 07 c4 bc e4 bc 0f 3e
       0.16610016 0.44789237 -0.023929201 0.140369
000150 b0 70 b7 3d 76 0c 2d 3f 5d b9 08 3e 72 fe 2a bf
       0.0895704 0.6759714 0.1335196 -0.667945
000160 ce 7c 82 bf ad fd b9 3e 3e d4 fa 3e fc 96 cc 3e
       -1.0194337 0.36326352 0.48990053 0.39958942
000170 0f 6c 5c be e5 a4 a0 3e b4 47 fe 3e d3 ba c6 3d
       -0.21525596 0.31375805 0.4966408 0.09703603
000180 81 df 57 3d 69 37 22 3f 64 84 f3 3e b8 82 9a be
       0.052703384 0.633658 0.47561944 -0.30177855
000190 93 0d 29 3e b8 76 e7 3d 39 01 9d 3c 0a 9d 47 bc
       0.16509084 0.11301941 0.019165622 -0.012183437
0001a0 d2 b5 28 3e c5 ef 94 be 3e ae 92 bd c5 3c dd be
       0.16475609 -0.2908918 -0.0716214 -0.43210426
0001b0 7f 24 36 bf fc a7 f7 bd 3c e1 de be b1 ba 7d be
       -0.7114944 -0.12092587 -0.43531215 -0.24778248
0001c0 21 72 61 3e be f9 16 be 56 9b 86 be fb 2b 1f bf
       0.22016193 -0.14743707 -0.26290387 -0.62176484
0001d0 1a dd e7 be 12 34 50 3f 72 66 2d bf 30 5e 46 3d
       -0.45285875 0.81329453 -0.67734444 0.048429668
0001e0 0f 76 0c 3e 12 b5 b7 bd 24 0f 8b be 73 55 af 3e
       0.13716911 -0.08970083 -0.2715999 0.3424488
0001f0 0a 61 b8 3c 77 9b f6 3e aa cf d0 3e a2 d8 f1 3e
       0.02250721 0.48165485 0.40783435 0.4723559
000200 c2 fb 5e 3e a6 f1 61 3e 77 ef a4 3e 8a a8 d6 3d
       0.21775725 0.22064838 0.32213947 0.10481365
000210 3e e3 2e 3e 95 b2 b8 3e 1e 14 81 3e 4c 0b 2b bf
       0.17078874 0.36073747 0.2521066 -0.6681411
000220 78 d6 ae be b5 29 be bd 86 e2 7d bf d7 f8 21 be
       -0.34148002 -0.09285299 -0.9917377 -0.15817581
000230 21 da 2d bf e5 5e c5 be d7 c4 cf bd 66 82 d2 be
       -0.67910963 -0.3854896 -0.10144966 -0.4111511
000240 b0 06 c2 3d 6c 66 36 bd a8 d3 d4 bc 69 ba 19 bf
       0.09473932 -0.04453127 -0.025979832 -0.60050064
000250 f6 d6 63 3f 41 cf 69 be a6 d9 a2 3e 9f 7e 5b 3e
       0.8899988 -0.22832967 0.31806678 0.21435021
000260 57 be 0a be e2 b3 a0 3e e8 9e 11 3d f8 3d aa 3e
       -0.13549171 0.3138724 0.035551935 0.33250403
000270 7b 7c b9 3e bb 39 79 be 17 07 17 bd 4c 67 06 be
       0.36227784 -0.24338429 -0.036871996 -0.13125342
000280 aa fc c4 3d 37 42 24 3e 6e e1 ca be 49 a9 5c bd
       0.09618504 0.16040884 -0.39625114 -0.05387238
000290 6b 51 39 be 88 94 2e bd 98 07 b3 be 8e fc 01 bf
       -0.18097465 -0.04262212 -0.3496673 -0.5077599
0002a0 e6 26 0a be 91 d8 09 3e 0a 1d 29 3e 5b 19 08 be
       -0.13491401 0.1346152 0.16514984 -0.13290922
0002b0 c5 31 8b 3e 58 84 99 3e 53 4a 71 be e4 d2 76 3e
       0.2718641 0.29983783 -0.23563509 0.24103886
0002c0 b9 93 9b bd 11 83 1b 3f e6 ec 80 3f 82 be ec 3d
       -0.07596535 0.60746866 1.0072296 0.11559774
0002d0 52 31 99 bd 6d 09 03 3e e2 84 a6 3e 0b c2 07 3e
       -0.0748011 0.12796564 0.32523257 0.13257615
0002e0 f7 c7 15 3f 85 4f 11 bf 3b be ab 3d 65 57 f4 3e
       0.5850825 -0.5676196 0.08385893 0.47722927
0002f0 e7 69 34 bf 55 1d e8 be cf 2d 24 bf c5 25 08 bf
       -0.70474094 -0.4533488 -0.641324 -0.5318263
000300 46 aa 32 be fc 29 66 3c 43 2b a5 be 3d 2a 88 bd
       -0.17447767 0.014048096 -0.3225957 -0.06648681
000310 eb 6c d7 be 8b d3 fd be d2 d9 62 3f 77 e4 06 3c
       -0.42075285 -0.49575457 0.8861362 0.008233181
000320 13 e3 b7 3e 9e ae 83 3e 71 12 54 3f c8 eb 5e 3f
       0.3591543 0.2571916 0.8284064 0.87078524
000330 88 f2 04 3f 13 cf 3d 3f d4 39 ec 3c 65 b9 c7 3d
       0.51932573 0.74144095 0.028836168 0.09752158
000340 b8 bc 65 bd 8d 6b 1b 3f a4 8e ec be c6 62 24 bf
       -0.05608818 0.60710984 -0.46202576 -0.64213216
000350 d2 ac dd be d9 ff 04 bf 44 fe 7f bf 08 fb 3b bf
       -0.43295914 -0.5195289 -0.99997354 -0.7342992
000360 8e 2b c5 be 92 17 ec be 5c 47 27 3f ed 82 a3 be
       -0.38509792 -0.46111733 0.6534326 -0.31935826
000370 60 f7 19 bf ba 38 d8 be 5b 0c 18 3e db d1 24 be
       -0.6014309 -0.4223078 0.14848463 -0.16095679
000380 30 9d 54 be 69 23 0c be b2 00 9f bd 54 1e 30 be
       -0.20763087 -0.13685383 -0.077638045 -0.1719907
000390 1c b3 e5 be e7 37 89 3d 14 b7 30 3f f1 b8 77 be
       -0.44863212 0.06700116 0.69029355 -0.24191643
0003a0 25 1e b3 be 2a 8d 5e be 24 a3 2c 3f dd d5 25 3f
       -0.34983936 -0.21733537 0.6743643 0.64779454
0003b0 b4 12 10 3f 1e 31 56 3e 77 20 a5 3e 97 8b e0 3e
       0.5627854 0.20917174 0.3225133 0.438565
0003c0 49 2d 02 bf ec 5f c7 be c6 f7 86 be 08 97 96 be
       -0.5085035 -0.3894037 -0.2636091 -0.29412103
0003d0 26 e3 63 bf f4 32 2e bf de eb 5a bf 61 d0 0a bf
       -0.89018476 -0.680465 -0.85516155 -0.5422421
0003e0 59 da 69 3e 3e 39 f0 be ae a2 ef be fb 0a f9 3e
       0.228372 -0.46918672 -0.46803802 0.4864119
0003f0 7e 33 fb be 8f 9d 98 be e9 cb bf 3e 15 ea f2 be
       -0.49062723 -0.29807708 0.3746026 -0.47444215

input_net.self_attn.qkv_proj.bias f4 [30]
000000 cf 01 c0 be e2 cd ba be b5 e9 29 be 80 1f 8b be
       -0.3750138 -0.364852 -0.16593058 -0.2717247
000010 22 e0 16 3f af 26 bc be 1e 60 3f 3e 73 21 ab 3e
       0.5893575 -0.36748263 0.1868901 0.33423957
000020 7c 8c 85 be b8 44 05 3f 2a 8c fe be 10 78 e8 be
       -0.26083744 0.5205798 -0.49716312 -0.454041
000030 52 83 ea 3e c3 9d c0 be 3d 8d 95 3e ab fc 45 3e
       0.45803314 -0.37620363 0.2920932 0.19334666
000040 7d 72 a3 be 75 71 e3 3e ea 68 f9 be 3f 7c 4e 3d
       -0.31923285 0.44422498 -0.48712856 0.05041146
000050 03 37 4c 3e 38 91 c6 be 1e 62 e5 bd b3 92 6f 3d
       0.1994286 -0.38782668 -0.11200355 0.058489513
000060 df 8e 5b be 75 7d 66 bc 9d ca 94 bd 7d c0 2d 3e
       -0.2144122 -0.014067997 -0.07265208 0.1696796
000070 2d 0f 7b be 01 05 05 be
       -0.24517508 -0.1299019

input_net.ffn.0.weight f4 [32, 10]
000000 3e 11 9d bd 5c 1e 9a be b1 f0 b7 be 9c 9b 91 3e
       -0.07669304 -0.30101287 -0.3592582 0.28439033
000010 dd f8 94 3e 37 6a bb 3e 86 69 0d 3e cf b4 bf 3e
       0.29096118 0.36604473 0.13809785 0.37442634
000020 60 06 15 be 0e e3 cf bd 78 cc da bc 86 9d 22 3e
       -0.14553213 -0.10150729 -0.026708826 0.15880403
000030 5c c9 27 3e f9 93 e0 be b1 99 d6 3d 78 88 6f bf
       0.16385406 -0.43862894 0.10478533 -0.9356761
000040 de 28 5f bd 3e e8 0f bc c9 b1 73 bc 32 20 95 3e
       -0.054482333 -0.008783398 -0.01487393 0.29126126
000050 8c c1 e2 3d 81 47 c5 be 9b d0 db 3e a8 44 82 be
       0.110720724 -0.38531116 0.4293259 -0.25443006
000060 01 07 f1 bd 7e 47 af 3e 16 00 db be d6 39 d5 be
       -0.11768914 0.34234232 -0.42773503 -0.41645688
000070 9d 24 ec 3d 78 48 12 bf ed ea c2 be 9d 6a c0 bd
       0.11530421 -0.5714183 -0.3806986 -0.09395335
000080 8b d2 11 be 0c c7 c7 bd 48 9c 81 bd f8 99 45 bf
       -0.14240472 -0.09754762 -0.063286364 -0.7718806
000090 41 a9 c3 be 0b 11 d3 3d fd d6 ca bd 7f f2 e2 3e
       -0.38215068 0.10305985 -0.09904287 0.44325635
0000a0 84 8b 9c be f3 5c b4 3e 55 44 01 3f 88 3c 08 3e
       -0.30575192 0.35227165 0.5049489 0.13304341
0000b0 e8 f7 50 3c f9 e7 e3 3d 52 d5 b4 be 39 d2 85 3e
       0.012754418 0.1112823 -0.35319 0.2613695
0000c0 61 61 92 3c b7 e7 be be ca 9c 80 3e cd e7 b2 be
       0.0178687 -0.3728616 0.2511962 -0.34942475
0000d0 82 5c b6 be b9 6c 59 be 5c 56 b2 3e a1 f2 6b be
       -0.35617453 -0.2123288 0.34831512 -0.23041774
0000e0 d2 67 77 3e fc 11 c8 3e 3f b4 4c be c6 25 f3 bd
       0.24160698 0.3907622 -0.19990633 -0.11872439
0000f0 00 3b 71 3e 04 6c 44 3e 5c fe 88 be e4 03 59 3c
       0.23557663 0.1918183 -0.2675656 0.0132455565
000100 95 e1 a6 3e df 4c ab 3e f2 56 ea bd 30 27 2d be
       0.3259398 0.33457085 -0.11442365 -0.1690948
000110 f5 39 3a bd 6b 98 4a bd 68 8f 15 be 3b 7d da be
       -0.04546543 -0.049461763 -0.14605486 -0.42673668
000120 59 ef ad be dd 62 8c be f1 be b1 3e 8c 30 32 3e
       -0.3397167 -0.27419177 0.3471599 0.17401332
000130 86 91 69 be 3a 24 68 3e e4 c0 b5 be 2e 7b 7e 3e
       -0.22809419 0.2267007 -0.35498726 0.24851677
000140 b6 f8 47 3e b6 c9 5f be 74 0f ce be ca 87 9a 3e
       0.1952847 -0.2185429 -0.40246165 0.30181724
000150 10 4a 76 be 13 37 6c bd 02 9c 1e 3e a3 81 c8 3e
       -0.2405169 -0.05766971 0.154892 0.39161405
000160 04 7f 83 bd 93 28 68 be e2 17 13 be 48 05 6f be
       -0.06420711 -0.22671728 -0.1436458 -0.23341858
000170 7b e5 56 be 75 e4 04 be a8 a3 6e be b5 5d cb 3e
       -0.20985977 -0.12977774 -0.23304617 0.3971993
000180 2f 7c af 3e 75 68 25 be f5 a3 9c bd 93 33 d7 3e
       0.34274432 -0.16153128 -0.0764846 0.42031536
000190 24 6e 66 be 11 d6 f3 bd 6b e9 f5 bc 7f 5d 4d 3e
       -0.22502953 -0.11906064 -0.030018529 0.20055197
0001a0 50 04 2e 3e e3 13 49 3e 4f 0f b5 3e b3 61 cd 3d
       0.16993833 0.19636492 0.35363242 0.100284
0001b0 98 9f cd 3e 6f 03 00 bf 86 15 6b 3d 6d 03 29 be
       0.40160823 -0.5000524 0.057393573 -0.16505213
0001c0 94 1a 79 be 71 9f 5e 3d 39 b2 83 bd 26 4d 8a 3e
       -0.24326545 0.054351274 -0.06430478 0.27011985
0001d0 85 46 97 3e f8 83 02 be 0c 5e 5f 3e ce 51 78 be
       0.2954599 -0.12745655 0.2181322 -0.24249956
0001e0 51 6b a8 3e 0e ac b2 bd a2 02 93 3e 8f 94 1c 3f
       0.32894376 -0.08724223 0.28712946 0.6116418
0001f0 56 19 c9 3d 6b 83 c6 be 8d e1 d2 be 27 3a 9a be
       0.098192856 -0.3877214 -0.41187707 -0.30122492
000200 9c 97 ac 3d a4 bd 51 3d 79 ee a4 be 28 f1 b8 be
       0.08427355 0.051206246 -0.3221319 -0.36121488
000210 95 c9 c1 be 63 70 03 3c f0 23 3f 3e f0 be c6 be
       -0.37849107 0.008022401 0.18666053 -0.3881755
000220 0a 01 aa 3e 66 51 9d 3e 22 a2 8a bd 66 e6 ec 3e
       0.33203918 0.30726165 -0.06769206 0.4626953
000230 8f 25 83 3d 83 65 90 bd 9d 5a 67 bd 15 aa 40 bd
       0.06403648 -0.07050612 -0.0564829 -0.047037203
000240 76 3d f8 3d 91 d5 e9 3e c9 f9 b7 bd f5 c3 d2 3e
       0.12121098 0.4567075 -0.089831896 0.41165128
000250 c7 8b 5d be d7 74 d9 bd 13 2a e3 3e a3 8c 06 bf
       -0.21635352 -0.106179886 0.44368038 -0.52558345
000260 0a ee 57 3e 42 af a8 be 77 2c b5 be 37 10 5e 3e
       0.21086898 -0.3294621 -0.35385486 0.21685873
000270 a1 64 69 3e 3e ce 52 be 87 ad 46 bc 19 39 5e 3e
       0.22792293 -0.20586488 -0.012126333 0.21701469
000280 4d 10 96 be 41 77 9b be 93 c7 4f 3e 9f f4 a2 3d
       -0.29309312 -0.3036442 0.20290975 0.07956814
000290 dd b5 b8 3e a2 96 4e 3e 7a f1 db be dd 92 d9 bd
       0.3607625 0.2017465 -0.4295767 -0.10623715
0002a0 5b 15 07 3e b0 30 a4 3e 68 e6 80 be 83 98 89 3d
       0.1319174 0.32068396 -0.25175786 0.067185424
0002b0 c8 12 87 be 28 8a 86 be 9f b0 aa be e9 b3 08 3d
       -0.26381516 -0.2627728 -0.33337876 0.0333747
0002c0 f4 93 4f 3e c1 a0 2e be e0 3d 42 be 55 ef 18 be
       0.20271283 -0.1705351 -0.18968916 -0.14935048
0002d0 a7 83 14 3f f0 bb 89 bd f6 5b cd be 0a 5a 79 3e
       0.58013386 -0.06725299 -0.40109223 0.24350753
0002e0 b9 5b 28 be 87 a9 a0 3e 62 4a 2e be 70 1c fe be
       -0.1644124 0.3137934 -0.17020562 -0.4963107
0002f0 f0 e2 41 be 85 58 92 3e a1 dd 0a 3e c9 61 09 3d
       -0.18934226 0.2858316 0.13561107 0.03354052
000300 23 d5 dd be cd 74 6c 3e 62 06 7a be 80 1b 2e 3e
       -0.43326673 0.23091431 -0.24416497 0.17002678
000310 2d 97 e1 3d ac d9 94 be 17 df 77 3e d8 99 4e 3e
       0.110151626 -0.2907232 0.24206196 0.20175874
000320 5a 6d 04 3d ad a8 20 3d ed ff 75 3c 00 0b cc bc
       0.03233085 0.03922336 0.015014631 -0.024907589
000330 e8 bb 80 bd 97 e3 fa be 8a 8e 88 3e 8e 56 aa 3e
       -0.0628584 -0.49001762 0.2667125 0.3326916
000340 93 4b 22 be 8f 44 03 bf 20 1b b2 3e d4 b3 0d bf
       -0.15849142 -0.5127649 0.3478632 -0.5535252
000350 d1 7d 98 3e a7 eb d3 be b7 65 4a be cb 17 25 bf
       0.2978349 -0.41390726 -0.19765364 -0.6448943
000360 ae 7c c0 3d 7d 45 91 3e c0 af aa be 08 8a 05 3e
       0.09398781 0.28373328 -0.33337212 0.13040936
000370 e9 f6 d6 be 7b 3b 96 3e d1 43 cd 3e a3 89 02 bf
       -0.41985252 0.29342255 0.40090802 -0.50991267
000380 e4 49 8b 3d bd ea 43 be 55 71 e5 be e5 43 e8 bc
       0.06801203 -0.19132514 -0.44813028 -0.028352687
000390 7a e1 da be de 5d 13 bf e6 1c f1 3d 66 46 8d 3e
       -0.4275015 -0.57565105 0.1177309 0.27592772
0003a0 8f 2b 96 be fe a2 0e be 03 b4 a1 be 9c c2 01 3f
       -0.29330108 -0.13929364 -0.3158265 0.50687575
0003b0 d5 11 59 be 9c 30 b0 3e fb 21 45 be 0e f7 da bd
       -0.21198209 0.34412086 -0.19251244 -0.10691653
0003c0 3e 53 48 be ae aa 5a 3e 68 a1 36 be 3e ea 0e 3d
       -0.19563004 0.21354172 -0.17835009 0.03489136
0003d0 3d 9c 21 bc a4 79 1b 3e 90 85 c0 3e 97 40 bd be
       -0.00986391 0.15183121 0.376019 -0.3696334
0003e0 f5 c3 23 bf 2e a9 99 bd 29 5a a1 be 3c 88 ea be
       -0.6397088 -0.075029716 -0.315141 -0.45807064
0003f0 7c 56 10 3e e1 c9 ba be c5 65 84 3e 48 8e c1 3e
       0.14095491 -0.36482146 0.25858894 0.37803864

input_net.ffn.0.bias f4 [32]
000000 04 78 db 3d 1d 82 d8 3e 46 aa 65 3e be b7 47 be
       0.107162505 0.4228677 0.22428235 -0.19503686
000010 9b 7e 88 be 90 c0 7c 3e 0b d3 7f bd cc 11 3e be
       -0.26659092 0.24682832 -0.062457126 -0.18561476
000020 2c bd 19 3e 63 62 5a be 56 d4 5e 3e 58 cc 05 be
       0.1501357 -0.21326594 0.21760687 -0.13066232
000030 8c 08 a3 3e 6d ac 94 bd ec a4 e0 3d 94 19 8b 3e
       0.31842458 -0.0725945 0.10968956 0.27167952
000040 37 bf bf 3e 17 a5 dd 3d 55 15 8f 3e 4d f5 ca 3e
       0.37450573 0.10822504 0.27945963 0.39640275
000050 2e 99 d1 3a 00 42 7b 3d d3 5d 98 bd 1a 75 13 3e
       0.0015991086 0.06134224 -0.074397705 0.1440014
000060 aa 62 2d 3e f0 63 f0 3d 50 23 8d 3e 98 80 56 bd
       0.16932169 0.117378116 0.27566004 -0.05236873
000070 3d 32 d4 bd 22 3d fc 3d 7b 86 9d 3e b4 74 9e 3d
       -0.10361145 0.12316348 0.30766663 0.07737103

input_net.ffn.2.weight f4 [10, 32]
000000 45 47 0a bd c4 e5 19 3e cd b9 ab bc a2 56 92 3d
       -0.033759374 0.15029055 -0.02096262 0.0714543
000010 2f 93 7f 3e c6 d5 83 be 57 93 3e bd 16 fa a6 3d
       0.2495849 -0.25749034 -0.046527233 0.08153169
000020 85 7e d8 bd 41 a6 31 3e 0f 0d b1 3c 68 b6 9b 3b
       -0.10571007 0.17348577 0.021612672 0.004751969
000030 3c 0f 8d bd 27 73 24 3e 01 d0 37 3e 10 03 96 be
       -0.06887671 0.16059552 0.17950441 -0.29299212
000040 1c 51 2a 3e 2c 5d 81 3c 56 fa d6 be 60 9e be bd
       0.16632503 0.015791498 -0.41987866 -0.093075514
000050 13 8c b8 3c c8 f5 72 be 4f c7 42 3e 46 01 0b bd
       0.02252773 -0.2372657 0.19021343 -0.03393676
000060 2b 70 bd bd d4 33 8a 3e 78 7f 24 be 8f c3 9c 3c
       -0.0924991 0.26992667 -0.1606425 0.019136218
000070 1c f6 66 bd f6 9e 2b be 59 c6 3e 3d 34 45 f0 bd
       -0.056387052 -0.16759858 0.046575878 -0.117319494
000080 43 52 0d bd 48 65 77 be e8 b3 6d 3b da 83 21 3e
       -0.03450228 -0.2415973 0.0036270563 0.15772954
000090 ef cb 03 3d d7 97 2f 3e 09 1b 86 bd b0 9a 03 3d
       0.032176908 0.17147766 -0.06548125 0.032129943
0000a0 d1 56 e5 3d 6a 40 61 3d 46 32 4b 3e 7d 4b e4 3b
       0.111981995 0.05499307 0.19843397 0.0069670067
0000b0 0b e5 e1 bc 8d 26 ab bb 9e a6 8f 3b 85 51 6f 3d
       -0.027575037 -0.0052231015 0.004383876 0.058427352
0000c0 c8 c6 09 be 60 28 41 be 01 a6 19 3d d9 25 17 3e
       -0.13454735 -0.18863058 0.03751183 0.14760531
0000d0 aa 4b 3b 3e ca f2 e3 3d 48 95 fe be f7 fa ae bd
       0.18290582 0.11130293 -0.49723268 -0.085439615
0000e0 02 df d2 bd 93 c9 3c bd f6 ad 98 be 33 6c 61 be
       -0.102964416 -0.046090674 -0.29820222 -0.22013931
0000f0 be fb 2f be 53 47 95 bd 4f 57 ab bd 4c 59 60 be
       -0.17185876 -0.07288995 -0.08366262 -0.21909064
000100 68 a1 e1 3d 6b 8e 66 be 27 e8 d8 be e8 ee 5f bd
       0.11017114 -0.22515266 -0.42364618 -0.054671198
000110 80 41 63 be ba 67 89 3e 2d f7 96 3e 39 31 23 3e
       -0.22192955 0.2683695 0.29485455 0.15936746
000120 2d 3f cf bd 6d 6b b4 3c 7a af 03 be 86 75 58 3c
       -0.10119472 0.02202388 -0.12859908 0.0132116135
000130 69 d7 ab bd f3 a6 df 3d 6b a7 b9 3d 0d e5 52 be
       -0.083906956 0.10920515 0.090651356 -0.20595188
000140 e8 b0 e8 bd 38 88 3f bd 4e 07 ac 3e b7 71 59 be
       -0.11361867 -0.046760768 0.33599323 -0.21234785
000150 5e 20 a2 bd 02 45 03 be 1c 6c 8a be a4 ca f9 bc
       -0.0791633 -0.12819293 -0.27035606 -0.030492134
000160 c8 9e 39 3e e2 ed b3 bd 9a 9d 34 3e 6c 6b ba bd
       0.18126976 -0.08785607 0.17638245 -0.0910252
000170 36 f1 7c be 2c 36 9d 3e 88 ce 06 3e 97 0f a4 3e
       -0.2470139 0.30705392 0.13164723 0.32043144
000180 81 15 89 bd 71 84 96 3e e6 a2 9e 3d 57 19 56 3e
       -0.06693555 0.2939792 0.07745914 0.20908104
000190 96 6f 1e 3e 98 4e 02 3e 72 48 4a 3e 99 f9 9a 3e
       0.15472254 0.12725294 0.19754198 0.30268553
0001a0 ea 2d 5f bd 25 1c 82 3e 7d 41 93 bd 19 33 cf bd
       -0.054487146 0.25412098 -0.07190225 -0.10117168
0001b0 7c de 22 be d3 af 14 3e 85 f4 1e 3e c5 1a 75 3e
       -0.15905184 0.14520197 0.15522964 0.23935993
0001c0 c8 79 92 3d c6 ee fb 3d 96 95 c5 3d aa 47 6f bd
       0.07152134 0.12301402 0.09647672 -0.058417954
0001d0 4b 20 70 3e 66 dd b8 3e a5 c8 88 3e 13 b7 f8 3d
       0.23449819 0.36106414 0.2671558 0.12144294
0001e0 b1 7a 9a 3d 93 a0 2c 3c 7b 52 a9 3d f5 cc ce bd
       0.07542933 0.010536331 0.08267685 -0.10097686
0001f0 a0 53 3f 3d 19 61 0f 3f 32 93 f4 3c 94 b9 81 3c
       0.04671061 0.56007534 0.029855344 0.01583556
000200 77 9a c5 3c c5 d3 b7 3e e6 3a a9 3e 41 cb 2a 3e
       0.024121506 0.35903755 0.33052748 0.16679098
000210 26 42 7f 3e 34 3c 1b be 27 ab 33 3e e2 ad 93 3d
       0.24927577 -0.15159684 0.17545758 0.072109
000220 98 6e 99 3e d8 e6 5a 3e 03 dd bd 3d f3 57 64 3d
       0.2996719 0.21377122 0.0927067 0.055747937
000230 92 45 34 3e 96 b6 95 3e 55 43 e6 bc 4a 26 76 3e
       0.17604664 0.29240865 -0.028108278 0.24038044
000240 76 f3 e3 3d 05 84 33 3d 3f ae a2 3e f5 df ae 3e
       0.11130421 0.043827076 0.31773564 0.3415524
000250 20 d4 1b 3e 64 ef 37 3e 2e ff 0d 3e 34 67 60 3e
       0.15217638 0.17962414 0.13866875 0.21914369
000260 1c 84 e4 bc f1 9e 91 3d 15 39 24 3d 5b 00 07 3e
       -0.027895026 0.07110394 0.0400935 0.1318373
000270 a2 24 24 ba 67 71 96 3c 93 d2 91 3d 19 bb 95 3e
       -0.0006261562 0.018364621 0.07120242 0.29244307
000280 69 cc 80 be f0 53 8c 3e 8e 28 2c 3d cd e1 76 3e
       -0.25155953 0.2740779 0.042030863 0.24109574
000290 44 b2 33 3e c4 66 53 3e 76 36 e5 bc cc 20 f9 bd
       0.17548472 0.2064467 -0.02798007 -0.12164459
0002a0 48 d9 5e 3d 5d 65 2d be 64 a0 8a 3e b5 77 cc 3d
       0.054406434 -0.16933198 0.27075493 0.0998377
0002b0 c9 b6 23 3e 6f fb 7a 3e d7 ae 83 be 30 97 ba bd
       0.15987696 0.24509977 -0.2571933 -0.09110868
0002c0 12 44 cc bd dc c6 c7 bd 70 2e 0b bd 45 6a e0 3d
       -0.09973921 -0.09754726 -0.033979833 0.10957769
0002d0 5c 7e ec 3d 97 3a e7 3c a0 67 25 3d 36 95 93 be
       0.11547539 0.02822618 0.040382028 -0.28824776
0002e0 81 c9 8c 3d 8c 9b 77 be e7 7c 11 3d 2e 94 72 3d
       0.06874371 -0.2418043 0.035519507 0.059223346
0002f0 4e dc a9 3d cc b7 89 be 0b f4 3d 3e 73 df 09 3e
       0.08293973 -0.26898038 0.18550126 0.13464145
000300 4b 61 08 bd ae e8 ea 3a 3a 74 b5 3c da c7 12 bd
       -0.03329591 0.0017922127 0.022150148 -0.035835125
000310 83 72 a1 3d 15 36 c3 be ce 3b 28 bc da 6a a4 3d
       0.078831695 -0.381272 -0.010268165 0.08028193
000320 f6 6f dd bc ec 8a c4 be 5e 73 33 be 4d 0b 85 bd
       -0.027030926 -0.3838724 -0.17524478 -0.06496296
000330 f0 30 db bd 6e d6 0a be f9 89 59 3d 14 2a 8d be
       -0.107026935 -0.13558361 0.053110097 -0.27571166
000340 44 2f c4 ba b1 92 59 be 0f 63 b8 3c 44 5a bc bd
       -0.00149677 -0.21247365 0.022508172 -0.09196904
000350 9b dc 5f be 0e 00 84 bc f1 0b 83 3e 28 4f 40 3e
       -0.21861498 -0.016113307 0.25595048 0.18780196
000360 84 cb 24 be c1 a4 92 bd 4a 6e d2 3d 84 fd 05 bf
       -0.1609326 -0.071603306 0.10274942 -0.5233996
000370 22 61 29 be f6 93 66 bd 86 39 75 3d dc ca 81 3d
       -0.1654096 -0.05629345 0.05986931 0.063375205
000380 5c df b5 be 4e f4 b3 bd 15 48 49 3c 32 48 05 be
       -0.35521972 -0.08786832 0.012285252 -0.13015822
000390 c9 17 b0 bd 6b 0a d2 be cb 9c c3 bc 38 8a 00 bf
       -0.08598287 -0.41023573 -0.023878476 -0.50210905
0003a0 b4 69 86 be 8a 6e 1b be f1 50 64 3e 0f 12 71 3d
       -0.2625252 -0.15178886 0.22296502 0.058855113
0003b0 27 94 8c be 57 8e 91 be 5f 82 a5 be b5 a6 aa 3c
       -0.2745678 -0.2842891 -0.32326028 0.020831445
0003c0 2f 5c 39 bc 01 7f d8 3d 64 cd 75 be 40 56 dd 3d
       -0.011313482 0.10571099 -0.24004132 0.108074665
0003d0 76 dd b6 be 58 0d ab be 4b f0 dd bd d9 a2 d9 bd
       -0.35715836 -0.33408618 -0.10836848 -0.10626764
0003e0 3f 71 8b be a4 4f 0b 3e 78 48 4e be 22 b9 8f bd
       -0.27234837 0.13604599 -0.20144832 -0.07017733
0003f0 26 98 8d 3e b7 b9 c2 be 1e f5 85 be 95 0b 12 be
       0.27655143 -0.38032314 -0.26163572 -0.1426223

input_net.ffn.2.bias f4 [10]
000000 fb 00 87 bd 08 39 1d 3d 44 0f 3f be 6c 87 32 bd
       -0.06591984 0.038384467 -0.18658167 -0.04358618
000010 f5 de aa 3e e0 fb 35 3d 71 38 17 be f3 ca e6 bd
       0.33373228 0.04442966 -0.14767624 -0.11269178
000020 fb 0f 43 3e 78 38 25 3e
       0.19049065 0.16134822

input_net.layer_norm_self_attn.weight f4 [10]
000000 ee 0e 45 3f c9 26 4d 3f 92 2a 59 3f 18 75 4e 3f
       0.76975906 0.80137306 0.8483058 0.8064742
000010 7c 5c 31 3f 08 fb 64 3f d9 b8 13 3f 41 e9 81 3f
       0.69281745 0.89445543 0.5770393 1.0149308
000020 e9 a4 a2 3f e4 df 81 3f
       1.2706577 1.0146451

input_net.layer_norm_self_attn.bias f4 [10]
000000 4d 32 2c bb e8 3a c8 bd 5c ab c6 bd de 5a 00 bd
       -0.0026275099 -0.097768605 -0.09700653 -0.031336658
000010 f5 80 10 3e 2c b4 57 3d 1f 1c bf bd 79 64 93 bd
       0.14111693 0.05266206 -0.093315355 -0.07196898
000020 27 9e 69 bd cc 4f 53 3d
       -0.05703559 0.051589772

input_net.layer_norm_ffn.weight f4 [10]
000000 2a 9c 33 3f f3 f6 40 3f 9e ea 85 3f 0d 69 99 3f
       0.7016016 0.75376815 1.0462224 1.1985184
000010 f4 02 8e 3f b7 4b 5b 3f fe 12 68 3f 27 a0 91 3f
       1.1094651 0.85662407 0.9065398 1.1377
000020 09 1e 8c 3f f3 5c 98 3f
       1.0946666 1.1903366

input_net.layer_norm_ffn.bias f4 [10]
000000 6f ec b3 bd 0f c4 a8 bc ba ef 02 bd 38 4a 0d 3e
       -0.087853305 -0.0206013 -0.031966902 0.13797843
000010 65 d3 2f 3e 40 ed 04 3e 62 bc aa bd ba 8e ee bd
       0.17170484 0.12981129 -0.083367124 -0.11648317
000020 56 bf fb 3d 75 d5 f8 3d
       0.12292354 0.12150089

transformer.layers.0.self_attn.o_proj.weight f4 [10, 10]
000000 a7 38 83 be a8 10 0b 3f 27 bb 53 be 58 07 aa 3e
       -0.2562916 0.5432229 -0.20676862 0.33208728
000010 bf 68 ea be ba 16 6f bf 73 4a 12 bf 0c db a9 be
       -0.4578304 -0.93394053 -0.5714485 -0.33174932
000020 18 a7 28 3e a2 99 05 3f f8 6c 46 3f ab 8c 10 3f
       0.16469991 0.5218755 0.77510023 0.5646464
000030 ff 83 33 bf 95 e5 d0 3f 30 d1 7a bf 5e 14 64 bf
       -0.70123285 1.6320063 -0.97975445 -0.8909358
000040 f8 7d a2 bf 8e 6e 6b bf f5 ab 96 be f3 3a 1c bf
       -1.2694693 -0.9196557 -0.29428068 -0.6102745
000050 04 a5 49 3f 3d 7f 03 be 2c 51 58 bf 54 ed 6c 3f
       0.7876742 -0.12841506 -0.8449886 0.92549634
000060 be 7b be bb 24 ac 65 be fd 23 4f bf ad c2 55 bf
       -0.005813091 -0.22428948 -0.8091429 -0.83500177
000070 aa 59 f5 be 1b cb b0 be 5c d1 da bd 78 46 3b 3d
       -0.4791997 -0.34529957 -0.106844634 0.0457215
000080 a8 8d 14 bf dd 32 e4 3e 6e bb 0b bf 91 c5 9d bd
       -0.5802865 0.44570056 -0.5458287 -0.077036984
000090 ae d3 e5 be 67 8c 21 bf 65 8a 35 bf cd 3f bb be
       -0.4488806 -0.6310486 -0.709143 -0.36572114
0000a0 78 db 8b bf 74 db bf 3e b2 48 ac 3f 3b bb bb bf
       -1.0926352 0.37472117 1.3459685 -1.4666513
0000b0 78 a0 33 3f 78 9c 7a 3f e9 d9 54 3f 40 10 d9 b9
       0.7016673 0.97895 0.83145005 -0.00041401573
0000c0 25 e5 81 3f 4b 87 21 3f a3 4a d2 3d 0d 7f 59 be
       1.0148054 0.63097066 0.10268142 -0.21239872
0000d0 86 ea ec 3e 93 05 50 be 28 0d 14 3f fd 80 9b 3e
       0.46272677 -0.20314626 0.57832575 0.30371848
0000e0 62 fd 8e 3f 6f 1f 03 3f 13 ed 3f be 6a f0 51 3f
       1.1171076 0.5121984 -0.1874278 0.8200747
0000f0 76 fa cf be 1e 8f aa bd b7 9b 05 bf ca 31 90 3e
       -0.40620774 -0.08328079 -0.52190727 0.28162986
000100 a2 69 28 bf ed 62 93 bd c4 2d b4 3e e0 41 65 3e
       -0.6578618 -0.07196603 0.35191166 0.2238841
000110 1f a6 09 3f d8 89 b5 3e 40 3b a2 be ea 3a db be
       0.53769106 0.3545673 -0.3168583 -0.42818385
000120 94 ea a3 3c c7 f5 33 bf 5c b9 62 3e 8e 10 4a 3f
       0.020009317 -0.702969 0.22141021 0.7893151
000130 eb 77 ac 3e f6 b9 c3 bd 66 d6 07 3f f4 50 47 3e
       0.3368524 -0.095569536 0.5306152 0.19464475
000140 53 03 69 3e fe 51 1f bf 0f f5 e1 be aa e3 40 3f
       0.22755174 -0.62234485 -0.44132277 0.7534739
000150 c4 aa 0e bf bc 5d a0 3d b1 25 36 be db 7b f7 3d
       -0.5572932 0.078303784 -0.17787816 0.120841704
000160 3e 69 b3 be d6 91 a6 be e4 91 71 be 42 d0 c6 bb
       -0.3504123 -0.3253314 -0.23590809 -0.0060673067
000170 d7 6a 08 bf b8 7c 17 3f e8 25 b9 3d 47 5b 93 3d
       -0.53288025 0.5917468 0.09040433 0.07195144
000180 5c 7c 29 be 77 ed da bc ff e7 a2 be 12 ea ab bc
       -0.16551346 -0.02672456 -0.31817624 -0.020985637

transformer.layers.0.self_attn.o_proj.bias f4 [10]
000000 fd 6b 14 bd 0d e7 e1 3d 3c a3 bf bd f7 0a 8f 3d
       -0.0362358 0.110303976 -0.09357306 0.06984513
000010 19 21 26 3d 98 48 50 bc b2 f4 27 bd f6 9a ef 3c
       0.040558908 -0.01271262 -0.041004844 0.029248696
000020 9b 1a f0 3d 09 9c 21 bd
       0.117238246 -0.039455447

transformer.layers.0.self_attn.qkv_proj.weight f4 [30, 10]
000000 02 30 55 3e a8 a8 bf 3e 8b 9b a1 3e 51 89 e3 be
       0.20819095 0.37433362 0.31563982 -0.44440702
000010 91 24 87 3e 56 d6 d4 3d 0a 33 50 bd 2f 0b 80 3e
       0.26395085 0.10392444 -0.050829925 0.25008532
000020 5e ed 40 be 1d 3a b6 3e 2b 74 cb 3e c9 96 6e be
       -0.18840548 0.35591212 0.39737067 -0.23299707
000030 ab f3 6e 3c 23 83 bc 3e e2 cf b4 3e e9 10 a3 be
       0.014584462 0.368188 0.35314852 -0.3184884
000040 a9 89 07 3e d8 8c 35 be 04 72 1f 3e c5 53 f9 3e
       0.13236107 -0.17729509 0.15570837 0.48696724
000050 00 e5 a2 3e 77 89 a4 3e 22 47 1c be f8 46 6d 3e
       0.31815338 0.32136127 -0.1526151 0.23171604
000060 86 df c0 be 04 ef a7 be fc df a8 bd 7d 44 8a 3e
       -0.37670535 -0.32799542 -0.08245847 0.27005377
000070 16 9f d4 be 18 aa da be ed 46 06 be 28 88 ec be
       -0.41527623 -0.42707896 -0.13112994 -0.4619763
000080 51 63 a3 3e f5 27 b9 3d 7e eb 2f bc bd 81 e1 3c
       0.3191171 0.09040824 -0.010737298 0.027527684
000090 30 0d e6 be ae 72 ac be 61 07 8a be fa 72 1e bd
       -0.44931936 -0.33681244 -0.26958755 -0.03868387
0000a0 88 9b fe be 17 9c a3 3c fc d6 eb 3e 67 fc cb 3d
       -0.49728036 0.01997189 0.46062458 0.09960251
0000b0 a5 18 94 3d 8f 69 c9 be 58 a6 23 3e fb 4a 7a 3d
       0.07231263 -0.39338347 0.15981424 0.061106663
0000c0 37 b0 a2 be f8 39 4d bd a7 d4 ec 3e ae c2 34 bb
       -0.31775066 -0.05010411 0.4625599 -0.0027581858
0000d0 fb 11 04 bf fa 5d 64 be ef c4 59 bd 0c bb 45 bd
       -0.51589936 -0.22301474 -0.053166326 -0.048274085
0000e0 7e ea 08 be 09 7d 63 be 9e ee e2 3d 43 ad 44 bd
       -0.13370702 -0.22215666 0.11080669 -0.048016798
0000f0 75 6f 73 3e b4 1e 0f 3e ba fa 93 be 03 5c ab 3d
       0.23772986 0.13976556 -0.28902227 0.08367159
000100 a1 4a ea 3e c0 01 5c 3e d2 e3 fb 3d 4e 1b cb 3d
       0.45760062 0.21485043 0.12299313 0.09917317
000110 4e 0d 27 3b fd 1c 92 3e 48 a1 1f 3e 5b 58 9b 3e
       0.0025490108 0.2853774 0.15588868 0.30340847
000120 f9 75 fa 3d c9 50 09 bf 92 a8 11 be e8 77 8b 3d
       0.12229533 -0.53638893 -0.1422446 0.0680998
000130 a8 c2 cc be 45 4f 82 be 72 87 76 be 39 aa 80 be
       -0.3999226 -0.25451103 -0.24075106 -0.2512987
000140 5e 35 21 3e 36 6e 87 3e c6 da 3b 3e dc eb bb 3e
       0.15743014 0.26451272 0.18345174 0.36703384
000150 37 ec d4 bd 88 49 47 be 3d 77 9c 3d 4e 07 09 bf
       -0.10396617 -0.19461644 0.076399304 -0.5352677
000160 29 78 09 bf d0 73 39 be 32 57 ce be 3f fa 36 be
       -0.53698975 -0.18110585 -0.403009 -0.17868899
000170 7f 7b 7c 3e d1 27 05 bd 13 13 c1 be 04 9f 09 bf
       0.24656485 -0.032508675 -0.37709865 -0.53758264
000180 88 ff b9 3e c6 29 df 3a 8f 4c c3 be 23 45 73 bd
       0.36327767 0.0017025999 -0.38144347 -0.059392106
000190 20 96 f0 bd d9 e7 ba bc 12 60 3a be b2 1a 07 be
       -0.11747384 -0.022815632 -0.1820071 -0.13193777
0001a0 6c 3b 54 3e d7 fc 1b 3e c7 4c 84 bd 54 d6 3a 3e
       0.20725793 0.1523317 -0.064599566 0.18245822
0001b0 af da 0f 3f f7 f2 be be 9d b5 05 be f7 12 ae 3d
       0.5619306 -0.37294742 -0.13057561 0.08499711
0001c0 c8 e1 fd be bb 16 be 3e f4 dc d8 3e 7c 48 2b 3b
       -0.4958632 0.37126717 0.42356074 0.0026135733
0001d0 05 48 59 be 83 ca 8d bd 70 93 a9 3d d1 b6 a3 3d
       -0.2121888 -0.06923392 0.082800746 0.07993854
0001e0 31 91 00 bf ed b9 3e be 54 0d ba 3e ef 03 b0 3e
       -0.50221545 -0.18625613 0.36338294 0.34378
0001f0 39 48 0a 3e b2 90 72 3e fb 6e 9b be 15 6a 59 be
       0.13504113 0.2368801 -0.3035811 -0.21231873
000200 4b a6 48 be 0d 40 1b 3e 78 17 39 3e c8 e7 46 3e
       -0.19594686 0.15161152 0.18075359 0.19424355
000210 ad 47 4d be 5b 9c 77 3e 2f 2f aa be 06 26 ca 3d
       -0.20046873 0.24180739 -0.33239123 0.09870534
000220 28 88 82 be de 4e a4 3c 62 2d 48 be db 32 07 be
       -0.25494504 0.020057138 -0.19548562 -0.13202994
000230 74 b3 e1 be 1c ff 93 be 7b b0 4a be ad 68 06 be
       -0.44082224 -0.2890557 -0.19793884 -0.13125868
000240 86 ef d7 bd 32 80 bc bd be 49 c2 bd 11 3c c9 bd
       -0.10543732 -0.09204139 -0.094867215 -0.0982591
000250 69 ad b9 be 50 2b 70 be 65 4b ed bc 7f e1 79 3e
       -0.36265114 -0.23454022 -0.028966615 0.24402426
000260 3f 11 75 3e 66 2a dc bc 50 8e b0 3d 64 9b 76 3e
       0.2393236 -0.026875686 0.08620894 0.24082714
000270 bd 99 14 3e 12 a0 81 3e cf 05 63 3e 2e de f1 3e
       0.14511772 0.25317436 0.22170185 0.47239822
000280 7c 7a 23 3f 6a c2 25 3e 53 fb 63 bd af bb ef bd
       0.6385877 0.16187444 -0.055659603 -0.1170572
000290 9b cf d8 3e 0e 09 98 be 00 b6 16 3e 96 6f 90 be
       0.4234589 -0.29694408 0.14717865 -0.28210133
0002a0 f8 61 a5 3e a3 02 97 3d b2 f1 cd be 06 42 87 3d
       0.32301307 0.0737355 -0.4022346 0.0660439
0002b0 37 6e 9e be 37 57 93 be 3f ee 68 be c5 f1 d5 3e
       -0.30943462 -0.28777477 -0.22747134 0.41786018
0002c0 9f cb 75 be ab ef f0 3e e1 c7 89 3e 70 7e e8 3d
       -0.24003457 0.47057852 0.26910308 0.11352241
0002d0 6b 98 89 be 67 9c 16 be 69 cb 97 be cc 1d 21 3f
       -0.26874098 -0.147081 -0.29647377 0.6293609
0002e0 be 5c dd bd 25 f5 9e bd d7 88 82 3d ad de 0d 3e
       -0.10808705 -0.07761601 0.063737564 0.13854475
0002f0 03 3e 85 be d8 e0 d9 bd 85 c5 fa be 24 c1 6e be
       -0.26023874 -0.10638589 -0.4897882 -0.23315865
000300 c2 61 ec 3e 20 c7 63 3e 45 fa 78 bd 0a 17 95 bd
       0.46168333 0.22243929 -0.06078555 -0.07279785
000310 c6 a1 a5 3e 8e a1 fb 3e c9 47 08 be 89 df af bd
       0.32349986 0.49146694 -0.13308634 -0.08587558
000320 c7 ae 7c 3e 96 d3 23 be 51 24 e4 3c 19 f8 59 3f
       0.24676047 -0.15998682 0.027849348 0.8514419
000330 bd 0c ee 3e e9 ca 18 3f 37 f0 a5 be 30 e1 f7 be
       0.46494094 0.59684616 -0.32409832 -0.48413992
000340 62 d4 04 3e 19 21 7f 3f bd 14 09 be 94 10 59 be
       0.12971643 0.9965988 -0.13386817 -0.2119773
000350 13 e1 89 3d 71 86 81 3d 1e aa 24 be 71 87 92 bc
       0.067323826 0.06324471 -0.1608052 -0.01788685
000360 08 56 c2 3e cd 27 c3 be 27 1b 84 be 2b 23 b2 bd
       0.37956262 -0.38116303 -0.25801966 -0.08698114
000370 be 46 f0 3c 9f ca bc 3d f6 58 26 be 92 a9 cb be
       0.029330608 0.092183344 -0.16244873 -0.3977781
000380 b6 63 42 bf 65 a8 92 be 06 b1 39 be d3 68 f5 3e
       -0.75933397 -0.286441 -0.18133935 0.47931537
000390 48 05 ff 3e 8b e0 5d bf ce 64 03 be da 31 b0 be
       0.49808717 -0.8667075 -0.12831423 -0.34413034
0003a0 ce b0 df 3e 9a 7a 52 3f 59 67 22 3f ac 45 d3 3e
       0.4368958 0.82218325 0.63438946 0.41264093
0003b0 d0 6e 0c bd 05 93 37 bf 21 86 27 bf c4 c7 66 3f
       -0.034285367 -0.7170871 -0.6543904 0.9014857
0003c0 46 ea e3 be 0c 01 7d be e0 37 a2 be 14 a6 52 bf
       -0.44514674 -0.2470743 -0.31683254 -0.82284665
0003d0 a9 e9 1a bd d3 b4 c3 be fe 62 47 3e 10 7e 18 3e
       -0.037820492 -0.38223895 0.19471356 0.14891839
0003e0 bf 83 1b 3f 48 7d 24 bf 55 b4 57 3c f3 95 4c 3e
       0.60747904 -0.64253664 0.013165553 0.19979076
0003f0 4c 1b 0a bf a5 14 68 bf a1 1a 04 bf 24 cd 09 bf
       -0.539479 -0.906565 -0.5160313 -0.53828645

transformer.layers.0.self_attn.qkv_proj.bias f4 [30]
000000 dc fd 9c 3c b4 09 1c 3d b1 8a 09 be d0 e4 5f 3e
       0.019164018 0.03809519 -0.13431813 0.21864629
000010 a9 38 16 be 16 92 ae bd 17 1c 8a 3e 68 7c bf 3c
       -0.14670052 -0.085239574 0.26974556 0.023374751
000020 f3 fe 38 bc 0d 7f 8c be 5e 4c 3d 3d 8c bc 72 3d
       -0.011291253 -0.27440682 0.046215408 0.059261844
000030 da fb dc 3d 31 23 f8 bd e4 8b 06 be a9 79 67 3e
       0.107902244 -0.12116087 -0.13139302 0.22605003
000040 a9 03 2d 3d 14 db 5b 3d 1a 6c 30 bc c4 8b 03 be
       0.04223982 0.053675726 -0.010767961 -0.12846285
000050 ff 31 a1 3e b8 8f 2e be be e0 7a be 7a 6b e7 3e
       0.31483456 -0.17047012 -0.24499795 0.45199186
000060 62 16 de bd 1f 95 49 be 9b 09 a8 be 3b 0f 84 be
       -0.10844113 -0.19685791 -0.32819828 -0.2579287
000070 03 d5 8b be 28 ae 00 bf
       -0.27310953 -0.5026574

transformer.layers.0.ffn.0.weight f4 [32, 10]
000000 59 1f 2b be 07 c1 b1 bd eb c4 a7 be f7 25 a6 be
       -0.16711177 -0.08679395 -0.32767424 -0.3245084
000010 77 57 13 3f 87 b8 a9 ba 39 db 25 be 8d fd b2 be
       0.57555336 -0.001294867 -0.16196908 -0.3495907
000020 45 89 03 3f 87 46 99 bd 70 84 9f be 29 a7 2b be
       0.5138133 -0.07484155 -0.3115573 -0.16762985
000030 d6 e4 a7 3d f8 e2 70 be 7f 94 34 bd c7 12 aa 3e
       0.08197944 -0.23524082 -0.04408693 0.3321745
000040 f1 54 85 be d7 a4 94 3d 0c e2 4c 3e 6a c6 98 bd
       -0.26041368 0.07258003 0.20008105 -0.074597195
000050 96 90 f9 3c 71 f1 63 be 30 43 40 be 94 b6 a6 3e
       0.030464452 -0.22260071 -0.1877563 0.3256117
000060 b0 f1 ba 3e ca 1a 06 3e b8 8d 83 be 82 b2 9b be
       0.36512518 0.13096157 -0.2569406 -0.30409628
000070 37 71 42 be 58 63 09 be 46 86 86 be ea b9 0a 3e
       -0.189885 -0.13416803 -0.26274318 0.13547483
000080 c5 ed b9 bd e1 50 a9 3e e9 dd 64 3e dd 92 50 3e
       -0.09078554 0.33069518 0.22350277 0.20368524
000090 56 01 4d 3e b8 ed 56 be ba c5 3c 3e 8c ac 6c be
       0.20020041 -0.2098912 0.18434802 -0.23112696
0000a0 17 24 b1 be 8a a3 8c 3e c5 3f b6 3e e2 6d 1d be
       -0.34597847 0.2746852 0.35595527 -0.15373948
0000b0 d5 f3 18 be 62 74 24 3e fe 9d 27 bd 62 03 15 be
       -0.14936765 0.16060022 -0.040922157 -0.14552072
0000c0 a1 a7 23 3e 15 c6 65 3e 37 91 45 bc 86 24 e9 bd
       0.15981914 0.22438844 -0.012058548 -0.113839194
0000d0 cc a1 0a bf 91 ba ac be 91 ac 23 3f c4 d1 13 3e
       -0.5415313 -0.3373609 0.6393519 0.14435488
0000e0 33 c6 16 be e0 af 8a 3e d6 e3 89 3d 74 79 83 bd
       -0.14724045 0.27087307 0.067329094 -0.0641965
0000f0 73 37 a9 bd db 87 8b 3e 84 4f 14 3f c2 46 4e bd
       -0.08262529 0.27252087 0.5793383 -0.05036045
000100 7d 66 40 bf e1 34 fe bd df e4 57 bd ca 05 75 be
       -0.75156385 -0.124124296 -0.052708503 -0.2392799
000110 cf 31 07 be 83 4a 22 3e e7 38 58 3e e9 b3 52 be
       -0.13202594 0.15848736 0.21115457 -0.20576443
000120 02 f1 ee bd 9f 0b 56 3e ec 89 01 3f ca d5 43 3e
       -0.11667062 0.2090287 0.5060108 0.19124523
000130 55 d0 b1 be 6e a0 10 be fc e8 56 be c4 0c 5c be
       -0.34729257 -0.14123699 -0.20987314 -0.21489245
000140 78 47 d1 bd 34 ca e1 bd dc c1 e8 bd 96 fe 71 be
       -0.1021871 -0.11024895 -0.11365101 -0.23632273
000150 3e be 18 be b4 b8 1c 3c 9a f3 2a be dc 70 20 bd
       -0.14916322 0.009565521 -0.16694489 -0.03917013
000160 dc 9c 58 be 00 66 47 be 27 9c 9a bc 77 64 89 be
       -0.21153587 -0.19472504 -0.018873287 -0.2683446
000170 bc c6 d8 be 7a 62 16 be 47 62 bb 3e 4c d2 bf 3d
       -0.42339122 -0.14686003 0.36598417 0.09366283
000180 e0 5e ad 3e 7e 1b 14 bd b2 02 d6 be b6 4e 68 be
       0.33861446 -0.03615903 -0.4179893 -0.22686276
000190 6e dc cc 3d 14 37 c2 be c6 41 1f 3e e8 fb e7 3c
       0.10002981 -0.37932646 0.15552434 0.02831836
0001a0 58 af 08 3e bc 7f 0e 3e a6 0d 0f bd 69 56 27 3d
       0.13348138 0.13915914 -0.034925126 0.04085389
0001b0 80 5c 5e 3e c4 cf a8 3e b7 c2 3f be a8 21 4f be
       0.21714973 0.32971013 -0.18726622 -0.20227683
0001c0 ba 77 99 3e 11 4a 94 3c 64 26 96 bd 88 b6 3b bd
       0.29974157 0.018101724 -0.07331541 -0.045828372
0001d0 a6 30 a9 3e ea 29 88 3d ce d4 dc bd 8f 0b cb 3e
       0.33044928 0.066486195 -0.10782777 0.39657256
0001e0 77 8b 93 bc da fe 40 be 50 46 29 bc 42 81 89 3e
       -0.018010838 -0.18847218 -0.010331705 0.26856428
0001f0 65 61 11 3f ac 62 40 3e 30 44 f8 bd 2a 07 74 3c
       0.5678924 0.1878764 -0.12122381 0.014894286
000200 f0 7b 5a be 9e 54 80 be 14 bc 28 be 78 fd 88 3e
       -0.21336341 -0.25064558 -0.16477996 0.2675588
000210 50 ad fd bd a9 be 3b 3d b2 fd 06 3e 3b 83 3e bd
       -0.12386572 0.045836125 0.13182715 -0.04651187
000220 36 7a 86 be 32 fe c2 be 51 7b 89 3c 97 00 aa 3d
       -0.26265115 -0.3808456 0.016782435 0.08300894
000230 64 f4 8c be 94 79 8e 3e a7 ca 1c 3f be e9 a2 bd
       -0.27530205 0.27827132 0.6124672 -0.07954739
000240 27 1f 2a bf d8 90 06 be a6 0c ff 3d 81 01 20 3e
       -0.66453785 -0.13141191 0.124535844 0.15625574
000250 7e 52 ca be 4d 17 9a 3e 40 5a 9a 3e ab 64 85 be
       -0.39516062 0.30095902 0.3014698 -0.26053366
000260 87 f0 aa bd 13 cd 7a 3e 34 84 38 3e 65 5f 8a 3d
       -0.08346658 0.24492292 0.18019181 0.06756476
000270 7d 8f 9f 3e dc 43 12 3e 8f 36 33 be 9a 2b 2a bd
       0.3116416 0.14283699 -0.17501281 -0.041545488
000280 7b 61 0f 3e 34 ad 1a 3e ea 73 ac 3e c8 dc 0a 3e
       0.1400203 0.15105134 0.33682185 0.13560784
000290 97 e7 63 3e a9 d9 de 3d bb fc 9a be d7 1d 4b be
       0.22256313 0.10881359 -0.30270943 -0.19835602
0002a0 44 a5 02 be 69 43 a7 3e 38 e4 97 3d 64 9b 0a 3d
       -0.12758356 0.32668617 0.07416576 0.0338396
0002b0 6c 86 d9 be a6 02 83 be 7f ef b4 3e ad b2 80 bd
       -0.42485368 -0.25587958 0.3533897 -0.0628408
0002c0 29 fd ad 3d c3 2f 6f 3e e8 bf 99 be 5c a4 8c 3e
       0.08495552 0.23358063 -0.30029225 0.27469146
0002d0 52 d6 56 bb 8f e5 f2 3e 6a be 07 3e ce 20 22 be
       -0.0032781553 0.47440764 0.13256231 -0.15832826
0002e0 c9 76 01 bf f3 a3 c6 be 3a 77 44 3e 2f 81 dc be
       -0.50571877 -0.38796958 0.19186106 -0.4306731
0002f0 c9 e6 b4 bd 93 c0 82 3d 1b 28 aa be 5e 5e 85 be
       -0.08833081 0.06384387 -0.33233723 -0.2604856
000300 c6 f9 ae bd f9 55 25 3e 20 86 6e 3e 5f 37 85 be
       -0.08543734 0.16146077 0.23293352 -0.26018807
000310 30 9c ad be 9b f4 d8 be 12 55 10 3e 53 9e 1b be
       -0.33908224 -0.4237412 0.14094952 -0.15197115
000320 4a 31 84 3d b7 3c 14 3e 7f d3 83 be 11 a3 01 3c
       0.06454714 0.14476286 -0.25747296 0.007912413
000330 89 bd be be f4 75 16 3e 10 42 31 3d 6a de 4c 3e
       -0.3725398 0.14693433 0.043275893 0.20006719
000340 36 ba 83 be a5 57 a6 3d 76 0b 6f 3e 1f 2c 1d be
       -0.25728005 0.081221856 0.23344216 -0.15348862
000350 2e bf d3 3e f7 2b 01 3f 66 0e e9 be e9 2d 64 3e
       0.41356796 0.5045771 -0.45518798 0.22283138
000360 5d 34 2c be f6 6d a9 be 46 f8 1c be 64 43 23 3d
       -0.1681685 -0.33091706 -0.15329084 0.03985919
000370 1a b0 88 be 9a d9 29 be c2 b1 b5 be 30 b7 e3 bd
       -0.26696855 -0.16586915 -0.3548718 -0.111189246
000380 4d de 83 bd 46 96 68 bd c2 71 65 3e e6 2d d0 be
       -0.06438885 -0.056783937 0.22406676 -0.40660018
000390 4f 0e a6 3e b9 14 71 3c 75 74 a9 be 7a ad 6d bd
       0.32432792 0.014714413 -0.33096662 -0.05802677
0003a0 81 b2 6b 3e 98 d2 f3 3d 8e e3 33 bc 21 be 8f be
       0.23017313 0.11905402 -0.010979546 -0.28074744
0003b0 d3 94 a9 3e a1 41 b5 be 95 1d 3d 3e 96 7e 67 3e
       0.33121356 -0.35401633 0.18468316 0.22606882
0003c0 20 f3 34 be 6b 94 86 3e 5c 74 d9 bc b7 1b 41 3d
       -0.1767087 0.2628511 -0.026544742 0.04714557
0003d0 0a 32 be bd db e3 39 be 7e 28 5c be 9f f9 56 be
       -0.09286888 -0.18153326 -0.21499822 -0.2099366
0003e0 d7 39 9d be 93 ad 2b be f8 cf bd be 99 2e 24 3e
       -0.3070819 -0.16765432 -0.3707273 0.160334
0003f0 6d 0c b0 3e 4e 3a 99 be 32 45 b7 be 44 42 c9 bd
       0.3438448 -0.29927295 -0.3579498 -0.09827092

transformer.layers.0.ffn.0.bias f4 [32]
000000 be d3 6d bd 07 0e 84 3d f3 c7 f9 bd 55 2b 42 be
       -0.05806326 0.06447988 -0.121963404 -0.18961842
000010 29 7f 2b 3d 2f 19 fd 3d 4d 2a 35 be c0 b7 74 be
       0.041869316 0.12358319 -0.17691918 -0.2389822
000020 a6 5d 8c be 3d 7c 2e 3e 39 6b 98 bd 33 32 83 bd
       -0.27415198 0.1703958 -0.07442326 -0.06406059
000030 f1 a2 22 be bc 60 e8 bc 79 9f cc bd ec 1d 0b 3c
       -0.1588247 -0.028366439 -0.099913545 0.008491021
000040 6c a1 82 3d 24 9a 0a be 3c d8 3b bd 10 c2 f5 bd
       0.06378445 -0.13535362 -0.045860514 -0.11999905
000050 50 f2 40 bc 55 5d 8e 3e c9 01 58 3e 76 52 d7 3d
       -0.011776522 0.27805582 0.21094431 0.10513775
000060 8e a3 91 3e e0 54 58 3e 6c aa 25 3d d2 06 86 be
       0.28445095 0.21126127 0.04044573 -0.26177078
000070 eb 06 4e 3e 30 29 9c bd dd 2a 13 3e 3a d0 9f 3e
       0.20119826 -0.076250434 0.1437182 0.31213552
