advanced-DL/assignments/assignment3/best_model.pt (torch, 38703 bytes, 18 tensors)

input_net.0.weight f4 [32, 10]
00000000: 2682 573e 345b 06be f474 3abd be74 11be
00000010: 1125 46be ebc9 6b3e f0bb b7bd 5974 4b3c
00000020: 9515 283e f8fe 60be 1a9e 723d 2638 93be
00000030: 7cb3 7f3d d7ef 913d 1768 99bd 7741 2ebd
00000040: 8ec3 95be 09bd e7bd 7cd6 863d 208f 57be
00000050: 297d ab3d 47bd 14bd 7e4f 67be 432f a2bd
00000060: 1906 67be 4e90 253e 7347 a0be e0ef 393e
00000070: 3294 d13e 8d23 1a3e e394 1e3d 5b18 433e
00000080: 3649 bbb9 42b1 913e f985 7bbe 2da4 29be
00000090: a323 cd3d 37e8 1f3d ff3b 81be 5040 e1bd
000000a0: 96ef 12be 3308 893e 975c 893c 1455 a73e
000000b0: 9e12 0abe 4c3b a73e 9340 d5be 00ac 453c
000000c0: 73ad 823e 6301 e2bd a18f a43e 8ffd 77bd
000000d0: 3fc0 663b 17bd 5d3e 70db b83d 808f ac3d
000000e0: 4a07 403e ea52 cebd 2a57 a4be 6495 d3bd
000000f0: 7fb6 c93e 216a 84be 53da 94bd 3a9d 8c3d
00000100: 981e 99bd b3f8 56be a850 d7bd 68f8 5f3e
00000110: b63d 363e f285 843e 2629 183e c497 0f3d
00000120: fde8 813e 969a 2fbe 27b2 8abe 595f 81be
00000130: a6f5 a13e 5073 f43e 7abc 00be 827a bdbd
00000140: 6709 8b3e 1c24 42be 7f9f 97be 5567 a93e
00000150: 588f 52be ffe0 803c e982 b4be 168d 333e
00000160: 3444 54bd 72a2 653d 208d 193e dbdd 59be
00000170: 9e43 e7bc 7c43 f9bd b798 6ebe 4b21 67be
00000180: b8ed 893d 63e0 283e 1039 79bd ec6a 203d
00000190: 9a67 dabd ffd3 9ebd d6dd c23e e025 3f3e
000001a0: f975 9dbe b667 3abe efbf 68be bd80 443e
000001b0: 7d37 413d c937 aebe c94f 343e 36ce 3d3e
000001c0: 54ec f7be d6e0 653e e754 303e c8d5 b23e
000001d0: 3113 c43d 5e4a 00be da8b 8b3c 95d2 ce3c
000001e0: 60e5 bc3e b8cb 933c 24ae 14be 060b 193d
000001f0: 0cb0 8dbe 0e14 283d aea4 ab3e 0ea5 9c3e
00000200: f78b 64bd ff96 023d fa68 bbbd 4d5b 443e
00000210: aa63 6c3e 8bfb bdbe 5a3e e73e 5d9c 69be
00000220: 95a9 863d 15f4 a1be 2b17 35be 59aa aebe
00000230: 0951 2fbd 84a1 3a3d ebfb 1f3d bd93 94be
00000240: 7890 6cbe dcdc 343e 83a8 6c3e 19dd 34bb
00000250: 9de0 bdbe 60be e9be 1219 c3be 4616 08bd
00000260: f051 7bbc 432f a5be fa6f 8f3e af87 f03d
00000270: e7a6 6bbe ddde 863d a394 cf3e 5d16 a03e
00000280: da39 95be d9b4 e83e b3c6 9bbe eba9 3ebe
00000290: dc91 27be fa86 fabd 335f 813e ee9b 4c3e
000002a0: 7d46 10bf c162 ab3e 2bea 25be a1df 95bd
000002b0: aa6b 113e ec56 823e a543 55bd 05b9 babe
000002c0: 660f 89bd bd03 163e af4e c23d 04bc 553e
000002d0: 8994 603e c4f8 0b3c 3c4d a6bd ad36 af3e
000002e0: 3660 943d e228 a4be 4365 ef3d 3c4c f23d
000002f0: 471d cbbc c11a ca3e 10d7 f23c 3191 a4be
00000300: 5ac5 64be 51c0 273e 1ff8 293e 9cf3 943e
00000310: a097 95be 5111 4c3d 5936 493e b4b8 053e
00000320: 40ce bebe 8971 b33e 28e6 863d fbec 023e
00000330: 708c 6d3e f858 3b3e 6086 a63e 0f26 3cbe
00000340: a393 8b3d b9b6 9c3e f174 003d cc58 6d3e
00000350: 2a95 4b3e 559d 51bd 7573 08be 2507 323e
00000360: bc76 2b3e ad1f b6bc 17ea e73d 2b58 5abc
00000370: 2cc8 f53c 781f ddbe 7d61 1bbe 6eaf d0be
00000380: d967 5fbe 0c32 1d3e bc92 b93e 6d51 ebbc
00000390: b4fe 4a3e df40 783e cce0 0e3e 154e b7be
000003a0: f8ca 783e 8727 ba3e e881 1cbd 207c 923e
000003b0: 19ee d93e d88f aebe a825 84bc f6f3 4abd
000003c0: e9e1 7b3e 09c2 673d 26be 91be 8cb2 d0bd
000003d0: a9e0 1b3e 4037 8c3e 820d 90be af6c 0e3e
000003e0: ee0e df3e 70d5 22bd 3b02 5bbe 2b1f a6bc
000003f0: a215 1e3c 8065 aabb 016e 563e 2f74 663e
0.21045741 -0.13120729 -0.04552169 -0.1420469 -0.19350077 0.23026244 -0.08971393 0.012417876
0.16414483 -0.21972263 0.05923281 -0.28753775 0.06242703 0.07125824 -0.07490557 -0.0425429
-0.2925076 -0.113153525 0.065838784 -0.21050692 0.08373482 -0.03631332 -0.22588918 -0.07919171
-0.2256092 0.16168329 -0.3130451 0.18157911 0.40933377 0.15052624 0.03871621 0.1905226
-0.00035721966 0.2845555 -0.24562825 -0.16566534 0.10016563 0.039039817 -0.25241086 -0.10998595
-0.14349207 0.26764068 0.016767783 0.32682097 -0.13483664 0.32662427 -0.4165083 0.012064934
0.25522956 -0.11035421 0.3214083 -0.060544547 0.0035209802 0.21654163 0.090262294 0.08425808
0.1875278 -0.10074408 -0.3209775 -0.103312284 0.39397046 -0.2586222 -0.072682045 0.06865926
-0.074765384 -0.20993309 -0.10513431 0.21872103 0.17796978 0.25883442 0.14859447 0.035056844
0.25373068 -0.17148814 -0.27089044 -0.25268057 0.31632727 0.47744226 -0.12571898 -0.09251882
0.2715561 -0.18959087 -0.29613873 0.3308665 -0.20562494 0.015732286 -0.35256127 0.17534289
-0.051822856 0.056063123 0.14995241 -0.21276037 -0.028230485 -0.12171075 -0.23300444 -0.22571294
0.067347944 0.16491847 -0.060845435 0.03916447 -0.10664292 -0.07755279 0.38059872 0.18666792
-0.30754068 -0.18203625 -0.22729467 0.19189735 0.04717206 -0.34026936 0.1760856 0.18535694
-0.48422492 0.2244905 0.17219888 0.34928727 0.09573973 -0.12528369 0.01703446 0.025246898
0.3689375 0.018041477 -0.14519554 0.03736403 -0.27673376 0.04103475 0.33524078 0.30594677
-0.055797543 0.031882282 -0.09150882 0.19175453 0.23084894 -0.37105975 0.45164758 -0.22813554
0.06575314 -0.31631532 -0.17684619 -0.3411434 -0.04280189 0.04556419 0.039058607 -0.29018965
-0.23101985 0.17662376 0.23111157 -0.0027597605 -0.3708543 -0.45653057 -0.38105065 -0.033224367
-0.01533936 -0.3226262 0.2801512 0.117446296 -0.23012887 0.065854765 0.40543088 0.31267062
-0.291457 0.45450476 -0.30425033 -0.18619506 -0.16364235 -0.12232776 0.25267944 0.19981357
-0.56357557 0.3347378 -0.16202609 -0.073180445 0.14201227 0.2545694 -0.052066464 -0.36469284
-0.0669239 0.14649864 0.09487664 0.20872504 0.21931662 0.008543197 -0.081202 0.34221402
0.07244913 -0.3206244 0.11689236 0.11830947 -0.024794234 0.39473537 0.029643565 -0.32142022
-0.22340909 0.16381957 0.16598557 0.2909211 -0.29217243 0.0498212 0.19649638 0.1305874
-0.3726673 0.35047558 0.065868676 0.12785713 0.23198104 0.18295658 0.32524395 -0.18373893
0.06815269 0.30608156 0.031361524 0.23178405 0.1988112 -0.051175434 -0.13325293 0.17385538
0.16744512 -0.022231901 0.11323946 -0.013326685 0.030002676 -0.4318807 -0.15173908 -0.40758842
-0.21816958 0.15351123 0.36244762 -0.02872535 0.19823724 0.24243496 0.1395294 -0.3580176
0.24296176 0.36358282 -0.038209826 0.28610325 0.42564467 -0.3409412 -0.016131237 -0.049549066
0.24597897 0.05658153 -0.28465384 -0.10190305 0.1522242 0.27385902 -0.28135306 0.13908647
0.43566078 -0.03975433 -0.2138757 -0.020278534 0.009648712 -0.005200088 0.209404 0.22505258

input_net.0.bias f4 [32]
00000000: c6c2 83be 520c 1fbe 96a0 7a3e e9bf 953d
00000010: f08f 913c 9176 7e3d 5f9b 87bb 4323 d53d
00000020: 5cce 2abd 0775 87be cc20 1abe 4c32 68be
00000030: 9d8b a33c fc8b a03d ab89 b73d ed90 1dbe
00000040: a6ee f33d 7047 683e 8ec8 853e e46b a23d
00000050: 535d 99be ea9a 053e fb0b 99bc c3c9 9fba
00000060: 993e 24be 6d0d a73c 9969 513e 73a7 fe3d
00000070: 26a1 8e3c 5de4 eb3d d580 823e c246 e93d
-0.25734538 -0.15532044 0.24475321 0.073119946 0.01776883 0.062124792 -0.0041383947 0.10407116
-0.041700706 -0.26456472 -0.15051574 -0.22675437 0.019964034 0.078392 0.08961805 -0.15387316
0.11910753 0.22683501 0.26129574 0.07930735 -0.29954013 0.13047376 -0.01868247 -0.0012190867
-0.16039504 0.020392144 0.20450439 0.12434282 0.017410826 0.11518166 0.25488916 0.11390449

transformer.layers.0.self_attn.o_proj.weight f4 [32, 32]
00000000: 2ac4 a2be d0fd 87bd 136e 903e 692c 843d
00000010: a051 aabd 6cfd 34be bd7a af3e 8e54 f73a
00000020: 7569 3a3e f221 05be 5258 aebd 010e 03be
00000030: 19ae f3bc a751 ef3d a7c6 873d ae50 3b3e
00000040: 374a 6b3e 6b41 57be 4e32 223e ac0d dfbd
00000050: a79d 6f3e 1c9b d03c 0a86 83be 5638 fa3d
00000060: c5ed 06be f0f9 d33e 65ba 4b3e ea03 8ebe
00000070: 32d6 c3bd 3597 dd3d 9e50 fcbd 8f34 183d
00000080: 0ece b03c c2a7 8e3d 2ab3 0fbe 0642 a93e
00000090: 22f3 193e 4b5f 61be 5c5b a53e b732 84be
000000a0: cc2b 9bbe 4a1b 19be 1bb9 5fbe 2e78 303e
000000b0: e781 40be 51ca b3be ab23 c93d b4ba 35bd
000000c0: 981b 29be 56ab 18be 7ed5 703e b3ed 96bd
000000d0: 1a21 0ebe 03f8 bf3e ddca cd3c 42ec 4c3e
000000e0: f741 893e 76f6 343e 7990 183e 9068 9a3e
000000f0: 269b 513e 8620 a7be c54f 2bbe 0dfe bfbb
00000100: d956 763d 4522 57be 65b6 3abe 4dde 9d3d
00000110: 509c bcba 1ba9 7c3e 9659 9d3e 2f91 eebd
00000120: 91fe 95bd 59d7 ac3d f0ad c03e cf0a 343e
00000130: ce72 193c 2b87 99be 23f4 233e cd3b 263e
00000140: 75e6 5f3e 1877 b6be d01d b5bd 6b8c 163e
00000150: 39fa 7c3e 3a0d 493e ec18 253e c688 0ebd
00000160: 1f20 3cbd 8a36 753d 7e31 693e 5b71 c03e
00000170: ce95 fcbe 7cdd a23d 96ba 0bbe 673b 593e
00000180: ffb4 64be 0269 71be 6835 67be d81b 1d3e
00000190: 9e83 31be ca94 dfbd a958 0a3e 0524 213c
000001a0: c4b6 bbbe 3140 293d 8016 e6bd e489 11be
000001b0: 4aae b3bd e725 edbd a072 6f3e 5299 423e
000001c0: f5c6 443e 96b3 00be 3281 8cbe 5971 79be
000001d0: fa3d 763e 50ae 073d ac6d 54bc 278f 9d3e
000001e0: 1755 b63e 8b7b 1c3d e5cb 8cbe 0e8c 773e
000001f0: f0a2 ab3e abd8 753e c442 273e 684d 6bbe
00000200: 69c7 ef3d d660 ab3e c50f 0c3e a86f 1d3e
00000210: 0dc9 1a3d 07d5 c8bd 9aba b2be 1c27 243d
00000220: 25f4 943c 2473 86be 396a 693e 4c1c 013e
00000230: 1b65 c03d 3421 5d3e 7fdd 673e cee0 a3be
00000240: 3de9 8d3d 73b4 cbbc 1dc4 ccbc df99 dc3d
00000250: 7d94 7dbe a1b4 a8be 1b97 f5bc 88af ddbd
00000260: f134 64be 2d77 13be 6ee3 1e3d f471 88be
00000270: e663 053e 3649 fcbe cb56 e13c 7b83 b73e
00000280: 78e8 83bd 70da 3dbe d902 2e3e 70a2 22be
00000290: b168 c4be 45ff 2eba 3774 833e 14b6 b83d
000002a0: dd05 7ebe 9345 95be b117 22be 19a5 8b3e
000002b0: 0c93 e73d 9875 d33d f962 74be 43ff 8b3e
000002c0: bfba febd ad16 a63e d055 98bd 0d8f 51be
000002d0: ff53 623e 3cdf 9c3e 2ce1 973d 4175 053e
000002e0: 8653 56be 34b0 803e 2eae 613e fbb1 743e
000002f0: e3f5 0bbe 47aa c73c 1704 203e d6b8 cbbe
00000300: 89e0 08be bd96 a5be 709b 26be aed5 39be
00000310: 93f9 b0bd 346b 26be 027e 263b 2d42 af3d
00000320: 9946 103c 0001 4ebd a33b 69be b863 afbd
00000330: 07e8 2fbe d4bd af3e 4422 28be 741c 9abe
00000340: bce7 43be eeca 533e b7bb de3d 8982 9b3e
00000350: a111 2cbd 9c95 7ebe ef0c 0d3b 4d26 0b3e
00000360: cfd6 153d f7c5 20be 53c3 abbd 03b9 8bbe
00000370: 6333 b93b 6b69 b83d 1f34 99be 9402 933e
00000380: dbdb 07be b007 173e 5df5 78bd cb6c d03e
00000390: 6a52 ac3e 2d2f 493d 88f7 0e3d d614 50be
000003a0: 6da9 9bbe c843 29be 84bc 8f3e 6af5 01be
000003b0: 8937 2ebe 6909 7a3e 3c3e fd3d 5ed6 063d
000003c0: 325d 23be 38d1 b03e f9e7 563e 2cac 93be
000003d0: 5b2f ea3d 1f0d a03d 1a31 713e 54ca 5b3e
000003e0: c7e5 303e 1b4c b63e c316 e3bd 488f b73c
000003f0: 23d9 a63d b035 a2bd b9b7 cdbd 455d 3fbe
-0.31790286 -0.06640208 0.2820898 0.06453783 -0.0831635 -0.17674798 0.3427333 0.0018869804
0.18204291 -0.1300123 -0.085129395 -0.12798311 -0.029746102 0.11685496 0.06629687 0.18292496
0.2297753 -0.21021049 0.15839502 -0.108912796 0.23399983 0.025464587 -0.256882 0.122177765
-0.1317664 0.41401625 0.19895323 -0.2773736 -0.09562339 0.10819856 -0.12320064 0.0371595
0.02158263 0.06965591 -0.1403319 0.33058184 0.15034154 -0.22009008 0.32296264 -0.25819942
-0.30306852 -0.14951816 -0.21847956 0.17233345 -0.18799554 -0.35115293 0.09821256 -0.044367507
-0.16514432 -0.1490911 0.23518941 -0.07369556 -0.13879815 0.37493905 0.025121147 0.20012
0.2680814 0.17672142 0.14898862 0.301579 0.2046934 -0.32642 -0.16729648 -0.0058591426
0.060141418 -0.21009167 -0.1823364 0.07708416 -0.0014389846 0.24673884 0.3073241 -0.11648785
-0.07323945 0.08439512 0.37632704 0.17582248 0.0093657505 -0.29985937 0.160111 0.1623375
0.21865256 -0.35637736 -0.08843577 0.14702003 0.24704827 0.19633952 0.16122788 -0.034798406
-0.04592907 0.059866466 0.22772786 0.37586483 -0.49333042 0.07952401 -0.13645396 0.21214066
-0.2233467 -0.23575214 -0.22578967 0.15342653 -0.17335364 -0.10917051 0.13510384 0.009835248
-0.36662877 0.041320983 -0.1123476 -0.14212757 -0.087734774 -0.11579495 0.2338357 0.190038
0.19216521 -0.12568507 -0.27442318 -0.24359645 0.2404708 0.03312522 -0.012965601 0.3077328
0.35611793 0.038203757 -0.2749931 0.2417452 0.3352275 0.24008434 0.16334063 -0.22978747
0.11707956 0.33472317 0.1367789 0.15374625 0.037789393 -0.09806257 -0.3490799 0.04007636
0.018182823 -0.2625972 0.22794427 0.1260845 0.09394284 0.21594697 0.22643088 -0.3200745
0.06929252 -0.024866318 -0.024995858 0.10771536 -0.24763675 -0.3295031 -0.02997928 -0.108244956
-0.2228582 -0.1440093 0.038791113 -0.2664944 0.1302639 -0.49274606 0.027507206 0.358425
-0.06440824 -0.18540359 0.16993274 -0.15882277 -0.38361123 -0.00066756114 0.25674602 0.09019104
-0.24806924 -0.29154643 -0.1582935 0.27274397 0.11307344 0.103251636 -0.2386588 0.27343187
-0.12437963 0.32439175 -0.074382424 -0.20464726 0.22102354 0.30639064 0.07415995 0.1303301
-0.20930299 0.25134432 0.220391 0.23896019 -0.13668017 0.024373187 0.1562656 -0.39789456
-0.13366903 -0.32341567 -0.16270232 -0.18147919 -0.086413525 -0.16251832 0.0025404696 0.08557544
0.008805894 -0.050293922 -0.22776656 -0.08563942 -0.17178355 0.34324515 -0.16419321 -0.30099833
-0.19131368 0.2068288 0.108756475 0.30373028 -0.042009 -0.24861759 0.0021522602 0.1358883
0.03658181 -0.15700518 -0.083868645 -0.2728959 0.0056518777 0.09004482 -0.29922578 0.28712904
-0.13267462 0.14749026 -0.06078087 0.40708002 0.33656627 0.049117256 0.034904033 -0.20320448
-0.304027 -0.16529763 0.28073514 -0.12691274 -0.17013372 0.24417652 0.12365386 0.03291928
-0.1595352 0.3453462 0.20986928 -0.28842294 0.114348136 0.07815003 0.23553887 0.21463901
0.17275153 0.3560494 -0.11088326 0.022407189 0.08146884 -0.07920396 -0.10044808 -0.18687923

transformer.layers.0.self_attn.o_proj.bias f4 [32]
00000000: f2e1 b3bc 1a4d 5e3b 7e3f 44bc 4c45 d23c
00000010: ae11 b3bc 9b9a 423d 76d0 8dbc 5c4c 9b3c
00000020: 8a7a 483c 62e3 ae3c 3011 813c 751f d5bc
00000030: 6da7 42bc ad02 833b 41b6 943c 0ded 27ba
00000040: 4fed 493c e5c7 cbbb d4d3 613c 9486 dcba
00000050: 5941 f2bc 9599 09bb b942 a8bc 6576 e53b
00000060: 2f3a 06bc b1a5 2fbd 9047 1e3d 84b9 223b
00000070: 4a68 ce3b 9c6c b4bc 662e a8bb 5006 bfbc
-0.021958325 0.0033920468 -0.011978028 0.025667809 -0.021859016 0.047510725 -0.017311316 0.01895731
0.012236247 0.021348659 0.015755266 -0.026015976 -0.011880738 0.0039981217 0.018153312 -0.0006405868
0.012324645 -0.0062188976 0.013783414 -0.0016824775 -0.029572176 -0.0020996083 -0.020539628 0.007002639
-0.008192583 -0.042882625 0.038642466 0.0024829814 0.0062990533 -0.022024445 -0.0051324842 -0.02331844

transformer.layers.0.self_attn.qkv_proj.weight f4 [96, 32]
00000000: 7794 233f 2235 133e 339d b7be 19a1 09bf
00000010: a251 44be 72d3 99be 9901 883e de72 dcbe
00000020: 92bf 363e 05a9 9cbe 94be cc3e 2267 c93a
00000030: f081 953e 5dad 623d 5a4e d3bc 35f5 37be
00000040: 815c bd3e 72a9 2c3e e32e ca3d cf67 673e
00000050: 3d5a 163e 7fe8 8fbd 9700 2e3d 25b3 0abd
00000060: 712b 30be dffd f6bd c5a9 8fbe 6d43 093e
00000070: 51a9 0a3e 6b18 193e 4e93 4d3e 0cf7 843d
00000080: c0a7 283f 778b 95be 13e0 663e 70e4 e1be
00000090: c410 f6be 9b60 803e 037a 883d 1a52 f6be
000000a0: ab9f 103e e958 2cbe 2292 cd3e b020 b5bd
000000b0: ecbc 293e cce9 233e 3ba4 c0bd e837 8b3d
000000c0: 89fd 6e3e a00b dc3d 0371 093e d40c e5bd
000000d0: bc5c 853e 5927 a63c f70f 0a3d cf5d ea3c
000000e0: 3534 c63d 0ace b3bd 5f2d 40be 9c43 3b3e
000000f0: 5849 473c eabf 7a3c 9da9 143e 62ac 8cbd
00000100: 07a6 2c3f 3d8b b8be 2433 b03e efef 2e3e
00000110: 250a 123e d86f ad3e 4386 82be fc7a 203e
00000120: 0b7e 90be b001 6e3e a568 49be 3813 7c3d
00000130: fa28 583d b12e 34bd 8d30 3cbe a7f3 663e
00000140: 51d4 64bd fc7e 113e 97fb 513d 3296 febd
00000150: d7f1 ef3d 673f f1bb 0d38 90bc e761 8abd
00000160: 9311 bcbe da81 08be e39a 2cbd c159 19be
00000170: 8aa2 e4bd 1762 02be b4ee 4a3e 7f51 af3d
00000180: 6ad5 243f 6cc8 153f a776 c7be a9d8 d5be
00000190: ae2b 1e3e 90d2 82be 7be6 13be 3288 2abd
000001a0: 4c22 02be 3b7a 093e 8d49 26be d3fe a2bd
000001b0: d361 68bd 5749 ae3d 799c 22be 17b5 b8bd
000001c0: 92d5 b23e b5ed 92bd 85f6 143e c85d 40be
000001d0: b45a 273e 64bf d83d b865 adbc 348e 5cbe
000001e0: 118c 0abd 8a48 48bd 99c1 50bd 0618 233e
000001f0: ee79 26be dcc4 1c3e 181b a23d 447f 82be
00000200: 924b ea3e 7eec a6be ad35 273f cd3f cc3e
00000210: 213d fabe 5c04 f13e c18e 4fbe 2b17 b1be
00000220: 8ca1 7cbe 2e75 30be e829 203e fd12 99be
00000230: 34d4 993d 3b1e 573d 82e1 0fbe 181d 32bd
00000240: 0c09 87be affe 103e 5506 223e 5827 16be
00000250: ed23 1a3e 5d25 813d fc19 52be d2f9 d7bd
00000260: e22f 493e 723c c73d a256 ccbd a6fd 12be
00000270: 1cc3 fd3a c6a6 d83c a062 353e 8316 33be
00000280: fbc5 ffbd 2310 103f 4e93 f93e beb1 b33e
00000290: b68f b4be 06a1 ea3e b968 84be 6313 5fbe
000002a0: 9387 83bd 610f f23d 6584 62be 8711 093c
000002b0: dd63 56bc 1388 6cbe 9a41 33bd c68b b8bd
000002c0: 13d7 b63d d610 8b3c c703 1a3e d808 a53d
000002d0: 08e7 513d e991 f73a 2042 6a3e bb8c eb3d
000002e0: f2e6 8e3e 42ad 5ebe 2881 ec3d 290f da3d
000002f0: 8e42 aebe de59 00be 8e46 bebc 8d76 76be
00000300: 8fd2 133f 9242 9fbe 1538 73be 4358 193f
00000310: afa9 213e f8b1 623e 58cb b1be 0279 c53e
00000320: 72e6 efbe 17fb b13e a3e3 bfbe ff1f 063d
00000330: 8d0e d3be a762 35be 9e30 cebe aec5 823e
00000340: a33e c0bd 83c6 243b d845 f8bd 9cf5 7a3e
00000350: cf45 10be b29b 06bd 4452 92bd 6672 4cbc
00000360: c385 76be f2b4 963d f827 333e 57b6 eabd
00000370: cf5e e5bc 7193 29be d1dc 413d 6be1 9a3d
00000380: d8d2 dcbe 7ee5 123f 8fb5 213f b6f5 643e
00000390: d708 81be 4883 57be 6fba 69be bc0e dfbe
000003a0: 118c 973e c776 a8be 065a 933e f53f 7ebe
000003b0: 1ff2 da3d faba 143d c181 813e e6d8 18be
000003c0: f660 a23d dba1 693d 8a8c 32be f00a 4fbe
000003d0: 1bc1 ee3d 1e9b 45be 27e4 9dbc 844f e1bd
000003e0: ce15 893e e014 463d 551a 0f3e 33c0 e43d
000003f0: fbfa e83c 8b49 ff3d 7006 b53d d316 1bbe
0.63898414 0.14375737 -0.3586212 -0.5376144 -0.19171765 -0.30044132 0.2656372 -0.43056387
0.17846516 -0.30597702 0.3998915 0.0015365819 0.29200697 0.055341113 -0.025794197 -0.17964633
0.36984637 0.16861513 0.09872224 0.22598194 0.1468286 -0.07026767 0.04248103 -0.03386225
-0.17204072 -0.12060141 -0.2805921 0.13404627 0.13541152 0.14950721 0.20075724 0.06492433
0.65880966 -0.29207966 0.22546415 -0.44119596 -0.48059666 0.25073704 0.06663897 -0.48109514
0.14123408 -0.16830792 0.40150553 -0.08844125 0.16575974 0.16007155 -0.094063245 0.06797773
0.23338903 0.10744405 0.13422017 -0.111840874 0.26047313 0.020282434 0.03370663 0.028609185
0.096779265 -0.08779533 -0.18767308 0.1828751 0.012163483 0.015304545 0.14517827 -0.06868817
0.6744084 -0.3604373 0.34414017 0.17083715 0.14261682 0.33874393 -0.2549306 0.15671915
-0.28221163 0.23242831 -0.19668825 0.061541766 0.052773453 -0.04398984 -0.18377896 0.22553883
-0.055866543 0.14208597 0.051265325 -0.12430991 0.11716049 -0.0073622945 -0.017604852 -0.06756955
-0.36732158 -0.13330784 -0.0421399 -0.14975645 -0.11163814 -0.12732731 0.1981762 0.08560466
0.64388144 0.58508945 -0.38957712 -0.4176686 0.1544635 -0.2555127 -0.1444339 -0.041633792
-0.12708396 0.13425533 -0.16238995 -0.0795876 -0.056733917 0.08510082 -0.15880002 -0.09018915
0.34928566 -0.07174245 0.14547165 -0.18785775 0.16343194 0.1058338 -0.021166667 -0.21538621
-0.033824984 -0.048897304 -0.05096588 0.15927133 -0.1625745 0.15309471 0.07915324 -0.2548772
0.4576078 -0.32602304 0.6531628 0.39892426 -0.48874763 0.47073638 -0.202693 -0.34587988
-0.24671 -0.172322 0.15640986 -0.298973 0.07511178 0.052519064 -0.14050868 -0.043484777
-0.2637409 0.14159654 0.15822728 -0.14663446 0.15052767 0.063059546 -0.20517725 -0.10545696
0.19647172 0.09728326 -0.099774614 -0.14354572 0.0019360515 0.026446711 0.17713404 -0.17489056
-0.12488934 0.5627462 0.48745197 0.35096544 -0.35265893 0.45825976 -0.25861147 -0.21784739
-0.06422343 0.118193395 -0.22120817 0.008365995 -0.013085333 -0.23098783 -0.043763734 -0.09011035
0.08927741 0.016975801 0.15040503 0.080583274 0.05124572 0.0018888089 0.22876787 0.115014516
0.27910572 -0.2174578 0.11548072 0.10647423 -0.34035152 -0.12534282 -0.023227002 -0.24068661
0.5774316 -0.31105477 -0.23751862 0.599003 0.15787385 0.22138202 -0.3472545 0.38568884
-0.46855503 0.3476188 -0.3747836 0.032745358 -0.4122204 -0.17713414 -0.40271467 0.25541443
-0.09386947 0.0025142736 -0.12122697 0.24507755 -0.1408913 -0.032863326 -0.07144597 -0.012478447
-0.24074464 0.07358731 0.17495716 -0.1146056 -0.02799931 -0.1656015 0.047329728 0.07562526
-0.4312961 0.5738143 0.6316766 0.22359356 -0.25202057 -0.21046174 -0.22825025 -0.4356593
0.2959905 -0.3290312 0.2877962 -0.24829085 0.10690712 0.036311127 0.25294307 -0.1492649
0.0792865 0.057039123 -0.17436424 -0.20219016 0.11657926 -0.19297454 -0.01927383 -0.110014945
0.26774448 0.04835975 0.13974889 0.111694716 0.02843999 0.12465199 0.088391185 -0.15145425

transformer.layers.0.self_attn.qkv_proj.bias f4 [96]
00000000: bb89 e83c 56dc 173d ada1 823d 1054 f3bc
00000010: 4978 93bc c60b 37bd d474 c73c 02d2 eeba
00000020: 5c60 5e3b 243b 403d 0787 aebd 42d8 383d
00000030: b8a1 f0bc 81ab 1ebc 1d71 443d c046 203d
00000040: f2e9 d63b 0174 abbc de53 f43c 767d 323d
00000050: 45ea 92bc 7eb3 97bc 8e6b 14bd b88d 6cbd
00000060: ac95 203d 355e 31bd dcdc 8dbc 5821 613c
00000070: f864 02bd d25d 0ebd 2bd1 763d 2ab9 8d3c
00000080: 8b9c 053a fe39 a2b9 6f21 463a 8ec8 993a
00000090: 310e c7ba 73dc 55ba e13d 073a 8f5e 05bb
000000a0: 587d 32ba b01a 2939 8f25 bcb9 c6f7 8f3a
000000b0: 37ef dfba a380 3dba 20bf 163a 5694 1e39
000000c0: 94f4 133b 93db 43ba 8ed1 81ba a252 dcba
000000d0: e7ff 0e3a 63ca 063b 3b9f 893a 8899 82ba
000000e0: 9e49 233b 3406 59ba f711 d4b9 f885 6dba
000000f0: 64c8 d4b9 1cef c43a 474e 6fb9 2153 e1ba
00000100: 9afc 48bc 78e9 01bb 996d b03c 1866 22bc
00000110: f8e5 9a3a a1e1 453a 8282 aa3c bbda 9fbc
00000120: 74f8 66bc 78d7 d2bc 58e6 663c 5257 9d3c
00000130: 1108 ccbb 74a7 8bbb f904 d53c 6788 c03b
00000140: 1921 dcbc d516 1c3c 38da e4bc 3f3c d5bc
00000150: 2de8 2c3c 4972 553c 2351 213c 62bb 603c
00000160: 00ef aabb d009 063d 14f0 f5ba e780 39bb
00000170: ae0d 5a3b 7821 1dbc e9f8 99bc 98e7 8dbc
0.028385988 0.037075363 0.063784935 -0.02970317 -0.018001692 -0.044688962 0.0243477 -0.0018220546
0.0033931946 0.0469314 -0.08521848 0.045128115 -0.029373989 -0.009684444 0.047959436 0.039129972
0.00655865 -0.020929338 0.029825147 0.04357668 -0.017933974 -0.018518206 -0.036235385 -0.05775234
0.03920524 -0.043302733 -0.017317228 0.01374086 -0.031834573 -0.034757443 0.060258072 0.017300207
0.0005096874 -0.00030942255 0.00075580826 0.0011732744 -0.0015186724 -0.00081581547 0.0005159062 -0.002035055
-0.0006808839 0.00016127038 -0.00035886138 0.0010983876 -0.0017084841 -0.0007228946 0.0005750526 0.00015123314
0.00225762 -0.0007471379 -0.0009904371 -0.0016809294 0.00054550025 0.002056741 0.0010499725 -0.0009963969
0.0024915705 -0.00082788174 -0.00040449176 -0.00090607954 -0.00040585094 0.0015024873 -0.00022821977 -0.0017190912
-0.012267256 -0.0019822996 0.021536635 -0.009912036 0.0011817804 0.0007548575 0.020814184 -0.019513479
-0.014097322 -0.02573751 0.014093004 0.019206677 -0.0062265475 -0.0042619053 0.026003348 0.0058756354
-0.026871251 0.009526928 -0.027936086 -0.026029704 0.010553402 0.013027736 0.009846005 0.013716551
-0.0052164793 0.0327242 -0.0018763565 -0.0028305592 0.0033272314 -0.009590499 -0.018795447 -0.017322347

transformer.layers.0.ffn.0.weight f4 [32, 32]
00000000: 9732 d2bd f6de 60be cdfa 8cbd 5c13 8dbd
00000010: 35c5 ebbd 38c9 913d d326 ba3c 55c4 25be
00000020: e95e debd 0b78 4f3e 920c 15be 78bf 30be
00000030: fa84 8bbc 835b 93bd bb5f 0b3e 4a7d e1b7
00000040: d779 29bd a45c acbd 3528 473e 165c e03d
00000050: c50f 733d bd79 913d b3ba 3abe 1dbc a23d
00000060: 8fc8 c8bc 78ac 823d 99be e03d 7e4f 91be
00000070: e4e5 15be 8cf8 acbd d457 423c cd60 373e
00000080: 3031 473e d92a 2cbe 046d 19be e9b3 9bbd
00000090: acfe 4cbd 9399 4e3e 259d 893d d00a 81be
000000a0: 3f5b 09be 8c9f 1f3e aa7f 853e 53ae 013d
000000b0: 62a3 a2bb cfec 0b3e d5be 70be 6a24 51be
000000c0: 1ece 5cbd 0caa c3bd 6f02 1a3e f0c7 b33d
000000d0: 163d 163c ee3c 643e e3a5 89be 703e 373d
000000e0: be3a 89be b9aa 893d f86b 01bd 2a49 833e
000000f0: a5b3 013e 3dd8 91bd 6937 3c3e b327 3e3d
00000100: 5cb7 1a3d 117d a53e 1a0c 1ebe 9848 cb3d
00000110: 600a 02be 9e9f aebc 42af 03be 13f8 c83d
00000120: cfeb 43be 55e4 36be 6f93 2ebe 6c48 e7bd
00000130: 9705 07be d413 063e b3b4 81bd 3268 fa3c
00000140: 697e 593d bca5 723d 9725 a03c 3fea 943d
00000150: e6f4 38be 0b3d 07be 2638 2a3e 34b3 2d3d
00000160: d9c7 e93c d310 d13d 682d 31bc ae03 65bd
00000170: 9eb0 77be 9911 7dbd 4002 92be bddf 9b3d
00000180: d46e 51be f91c 873d 829e 6dbd 542e b93d
00000190: 1b5a edbd 4a85 4ebe 27fb 113d 411e 4f3d
000001a0: 81e1 17bd 2969 963d 562d 9bbd db83 d53c
000001b0: cbb7 cb3c 4892 e73d 17b4 b33d b60e 923c
000001c0: a707 6fbe 037c 013e f4f0 e739 924d 603e
000001d0: 8533 04be 56f4 4fbe 79bd 2d3e 60dc 313e
000001e0: ed97 15be d0e0 17be e382 e73d 967f 2e3e
000001f0: d73b 4abe 78c0 f23d f039 2f3d 7142 f2bd
00000200: 071d 9fbe 7a8e b33c 6ae1 2a3e ef08 09bd
00000210: 52aa eabd 278b 173e 6978 183e 9ba2 653e
00000220: 9940 7d3c 4b52 2e3e 8f17 f73c 958e 013e
00000230: abd6 c6bc c810 c13d 6564 67be 6aee 1b3d
00000240: 4b24 85be 62b7 3a3e 6c42 aebd 8baa d73c
00000250: e02c 61be c2af 10be 9c63 1fbd 9ea5 033d
00000260: 1da7 403c 8886 bcbd 4f53 1fbe b4ef 4a3d
00000270: 97d8 99bd ceda a33d ceb9 22be 4766 48bc
00000280: c29e 15be 2127 273d c2e2 8b3c 2aba 443e
00000290: b797 86bc c0e7 9c3d 50ed 2bbe a98b fcbd
000002a0: 3567 8c3c 6392 d6bd 531a ccbd bcea 1abc
000002b0: 98e8 f93d 7b9d fc3d f75b 08be e91f 3a3e
000002c0: 8804 323e d8f1 433e 2816 2bbe 615c ff3d
000002d0: 2794 f2bd 6c44 9c3e 9c32 6b3d 6fcb 8f3d
000002e0: e99f 5c3e d4fb 4ebd a843 ab3d c6dc 54bc
000002f0: 1953 b8bd fe90 cb3d 14a2 27be 52ff 34bd
00000300: 4561 85be fbd7 61be d7d8 86bd f3a7 383e
00000310: 58f9 ecbd fe36 cdbc b77a 1dbd 2900 a23d
00000320: d4b0 013e 5d7a 9cbd 00e6 413e 4c6d 34be
00000330: 5835 063e 79ef f63c be6b 5c3d 8337 0bbe
00000340: ab48 0c3d 9325 11be bc23 863d ee7e 2f3d
00000350: 7596 10be 40c7 173e b12e 56bd f047 f33d
00000360: 5a72 d6bc 00a1 c73d ea09 dcbd c6fe d13c
00000370: 64a6 54be 153c ac3c e3bd 18be 1173 b23d
00000380: 298f 1b3e bbf3 8c3d d45c 8f3d 044d 523d
00000390: acd5 8dbe 5ee3 533e 1251 51be c7d8 6cbe
000003a0: 3c64 cbbd 5b28 b1be 5d39 0b3d e4fb 34be
000003b0: 3064 393c c1ae c4bd 12ba a33c fc81 093e
000003c0: c9e5 833d f3c6 d1bd 170e 1abe 2b4f 263d
000003d0: 6d01 1fbe 1fe7 8bbc 73ca 67be 7f68 8b3d
000003e0: fc06 2b3e 626a f2bc b537 2ebd 56eb 153b
000003f0: d7b0 6cbd 0be5 08bd e1b0 9f3a 7624 073d
-0.102635555 -0.21960053 -0.06883774 -0.06888458 -0.11512224 0.071184576 0.022723591 -0.16188176
-0.108579464 0.20260637 -0.14555576 -0.1726054 -0.017031182 -0.07195189 0.13610737 -2.6880432e-05
-0.04137596 -0.08416107 0.19448932 0.10955064 0.05934121 0.07103298 -0.18235283 0.07946036
-0.024509696 0.06380552 0.109738536 -0.2838096 -0.14638478 -0.08445844 0.01186176 0.1790802
0.19452357 -0.1681322 -0.14982992 -0.076026745 -0.05004756 0.20175771 0.06719426 -0.25203562
-0.13413714 0.15588206 0.26073962 0.03166039 -0.0049633244 0.13664554 -0.23510297 -0.20424047
-0.053907506 -0.09553918 0.15039991 0.087783694 0.009169837 0.22288868 -0.26884374 0.04473728
-0.2680263 0.06722016 -0.031597108 0.25641757 0.12666185 -0.07121322 0.18380512 0.04642458
0.03777252 0.3232198 -0.15434304 0.099259555 -0.1269927 -0.021316346 -0.12859824 0.098129414
-0.19132923 -0.1786054 -0.17048429 -0.1129311 -0.13185726 0.13093501 -0.06333294 0.030567262
0.05309907 0.059240088 0.019549174 0.072712414 -0.18062171 -0.1320688 0.16622981 0.04240723
0.028537678 0.10208287 -0.010814048 -0.055911712 -0.24188468 -0.06178436 -0.28517342 0.07611034
-0.20452434 0.06597323 -0.058012493 0.090420395 -0.11589452 -0.20168033 0.03563991 0.05056596
-0.03708029 0.073442765 -0.075770065 0.02606385 0.024867913 0.11307198 0.08774584 0.01782928
-0.23342763 0.12644963 0.00044239277 0.2190459 -0.12910278 -0.2030805 0.1696681 0.17369223
-0.14608736 -0.14831853 0.113042615 0.17040858 -0.1974939 0.11853117 0.042779863 -0.11829079
-0.31076834 0.021918524 0.16687551 -0.033455785 -0.11458267 0.14799176 0.14889683 0.2242531
0.015457296 0.1702358 0.0301626 0.12652047 -0.024272284 0.09427029 -0.22596891 0.038069166
-0.26004252 0.18234017 -0.08508763 0.026326438 -0.21989775 -0.14129546 -0.038913354 0.032140367
0.011758593 -0.09205347 -0.15559123 0.049545005 -0.07512014 0.08000718 -0.15891191 -0.012231416
-0.14611343 0.0408088 0.0170759 0.19211641 -0.016429765 0.0766139 -0.16789746 -0.123313256
0.017139057 -0.1047714 -0.099659584 -0.009455379 0.12202567 0.123347245 -0.13316332 0.18176235
0.17384541 0.19135225 -0.1670767 0.12468792 -0.11844664 0.30520952 0.05742131 0.07021224
0.21545376 -0.05053313 0.08362514 -0.01299209 -0.090002246 0.099397644 -0.16370422 -0.044188805
-0.26050773 -0.22055046 -0.06584328 0.18032818 -0.11570996 -0.025050636 -0.038447108 0.07910187
0.12665111 -0.076405264 0.18935394 -0.17619818 0.13106287 0.030143486 0.05381369 -0.13595395
0.03424899 -0.1417449 0.065497845 0.04284566 -0.14119895 0.14822102 -0.052290622 0.11878955
-0.026177574 0.09747505 -0.107440785 0.02563418 -0.20766598 0.021024743 -0.14916186 0.087133534
0.1519133 0.068824254 0.070001274 0.05134298 -0.2770208 0.20692202 -0.20441082 -0.23129569
-0.099312276 -0.346011 0.033990253 -0.17674214 0.0113153905 -0.09603644 0.019986186 0.13428491
0.064403124 -0.10243025 -0.15044437 0.040602844 -0.15527888 -0.01707798 -0.22635822 0.068070404
0.16701883 -0.029591743 -0.042533595 0.0022875867 -0.057785835 -0.033421557 0.0012183451 0.032993756

transformer.layers.0.ffn.0.bias f4 [32]
00000000: 00d0 273e 876d 1d3d e03e ec3d 9f6d e1bd
00000010: de93 4a3e 1319 e8bd 4bbc 483e d7e3 343d
00000020: 5c2e d93d 8fd3 823d 417f 5ebd af7d b13d
00000030: bec0 dd3d b7b9 66bd f71a 1b3e 8705 983c
00000040: 67d4 0cbe c91f 893d aede 0f3e f5f7 3e3e
00000050: b8a8 f83c 2a95 f63b b17f b6bd 79ab 25bd
00000060: f4f7 40bd 96ea ff3c 37e6 f6bc c2c8 023e
00000070: db75 a83d 8e42 813d e643 0abd 9c7a 323e
0.1638794 0.03843453 0.1153543 -0.11007237 0.1978297 -0.113329075 0.19603078 0.044162598
0.106045455 0.06388008 -0.054320578 0.0866655 0.10827778 -0.056329455 0.15147005 0.018557323
-0.137529 0.06695516 0.1404979 0.18649276 0.030353889 0.007525106 -0.08911074 -0.040446732
-0.047111467 0.031239789 -0.030139072 0.12771896 0.08225604 0.063115224 -0.03375616 0.17429584

transformer.layers.0.ffn.2.weight f4 [32, 32]
00000000: a5d1 6e3e 8462 2ebe ecfd 45bd 037d 9fbd
00000010: 93ef 0b3e b696 cabc aa49 993e 2cd1 0b3d
00000020: 6594 82bc 506c 7fbe dad0 b83d 51ea 8ebe
00000030: f9a7 8f3e 050c 633e 0b6d 83be 16a6 61bd
00000040: 1847 06be 6d19 92bd 2e71 1fbe d803 363e
00000050: 6793 8bbd f4ff a43c c0af 5c3d 538f 05be
00000060: 7015 76ba 21ef 333e c38c 2ebe 18cb 293e
00000070: 50ef 1d3e d956 5c3d 3ad3 e23c 8d6c 083e
00000080: c16d f3bd 8540 93be 37b4 b9bd e9b1 023e
00000090: 5ad0 d0bc 0954 4c3e 71d2 e93d d375 46bd
000000a0: f918 7d3d 755f c2bd 30cf 673e f96f 9b3c
000000b0: 4489 fc3d 244a 97bd c617 e13d 1027 7f3d
000000c0: 3474 0ebe 4a19 8bbd e23e 863d 0d74 5e3e
000000d0: 01d7 21be 71bc 2f3e 6cf9 2fbe 4a8b cd3d
000000e0: 3160 213c 6e32 9c3d ce49 ea3c 9c61 9cbd
000000f0: c5d4 f7bc 6269 20be 8875 083e b89b 42be
00000100: 34ca 81bc b4a8 90bd 5cec 793e 4b63 4a3e
00000110: eb6c fe3c f708 513e a5b1 753d d277 193d
00000120: d3bb c4bd 2093 0abe 5928 6c3e 22f8 9c3c
00000130: 2227 e73d fbe2 39be 53af 59be 9189 5fbe
00000140: 8e83 e6bd 5ce7 bf3c dd74 483e 8758 d2bd
00000150: 23af 963d 04ec 1f3e 0c71 94be 7245 713d
00000160: c09f 16be 083f 293e e7ea e53c 8ac2 ab3d
00000170: 29cd 16bd cf45 75bd d231 8e3c dc80 fb3c
00000180: 4c6f 69be 8bae 883d 72a2 a9bc a51c 5dbd
00000190: c3de 783d e6f5 c3bd bf91 99be ac54 8b3e
000001a0: 8464 163d 4567 563d ca91 f23d ca4d 223d
000001b0: c6fe 1ebe 6425 1abe 43ef 2bbe 58ba 70be
000001c0: 4138 7b3d e7a7 84bd 6f35 0a3e 80bc 31be
000001d0: 1976 183e 3bef 413d 1480 843d 072e 10be
000001e0: 3f9a 9bbd ab59 4a3e d718 42be 109f 09be
000001f0: 8a45 c03d ea7d 723d da5c 05be e7f3 75be
00000200: 6c23 ccbd 5c9e 97be 6995 123e 54e6 693e
00000210: f0e8 f2bb 3967 afbd cfaa 543e 9a25 9d3d
00000220: 2ea2 4e3e 967d e4bd 16c4 873e 2c7a 0a3e
00000230: 578a ce3d 7904 233e 506d febc cf3b 31be
00000240: e395 c83d 5645 0f3c ad8f b53d 32bc 443e
00000250: a549 58bd facb 0e3e dc33 89bd 72ca d2bd
00000260: d116 fe3d be6f 0ebe 8319 a33d 5342 20be
00000270: e63c c5bd c12e 97bc 76a7 193e 991e 3bbd
00000280: 6cc0 143e f34a 7d3e 50ca 34be bfa9 4ebd
00000290: d536 bdbd cfed a53d 3b46 02be f6c4 473c
000002a0: d8b4 48bd 582e 2ebd 4a5a 17bd 3846 983e
000002b0: 017b 423c 7204 5b3e 0c3e 81bd 96f7 6a3d
000002c0: 9d56 f1bb 40a7 fc3d 5c28 553e e90b 5fbd
000002d0: 23a2 36be 979d 813d 1ff5 39be 8e29 113e
000002e0: a80e ac3c 3b43 d73d f5a2 80bd a4c8 2ebe
000002f0: 87d8 e83d 1e3e ea3d 4fea b1bd 9615 b63d
00000300: 7195 043e 10fd e53c d8e2 483d 2fa2 ed3d
00000310: 9ca6 3fbe 2b44 9b3d 4631 7a3d 64dd e0bc
00000320: 1df1 aa3d e344 53bc ea7f b23c a21d 2abd
00000330: d296 8abd abee 7a3d a406 b8bd 7ab6 6f3e
00000340: 8522 a13d eb83 19be 5909 ca3d 5c4f 13be
00000350: ad04 fcbc 469b 39be df08 773d de3c d03d
00000360: ba48 8b3e f978 d6bd f2fc d7bd 7a29 91bc
00000370: 7c84 6cbe df42 fcbd 6fb7 a93d c0ab 8d3e
00000380: 1ae6 c4bd 869b 833d 9937 5c3e 3141 04bc
00000390: 75e1 27be f2c3 f13d 4031 ab3d adb4 7a3e
000003a0: efa7 78bd 3be8 3c3e d150 c8bc 24fd 993d
000003b0: 4bf5 38bd d4c5 5d3e 3d1e 9cbd 24d8 24be
000003c0: c99d 4e3e 3058 933c a961 56be bd46 acbd
000003d0: 9e26 b93d c42c 233d 613a 10bd 1ab5 bdbc
000003e0: 5699 c03d c595 45be a034 04be 5c04 ddbd
000003f0: 56ce 453e 8afe 95bd 17fa f8bd 2158 993d
0.2332216 -0.17029768 -0.048337862 -0.07787516 0.13665609 -0.024730068 0.29939014 0.03413503
-0.0159399 -0.24943662 0.0902421 -0.27913144 0.2805784 0.22172554 -0.2566913 -0.055090033
-0.13113058 -0.07133756 -0.15570518 0.17774904 -0.06815224 0.02014158 0.053878546 -0.13042955
-0.000938735 0.17571689 -0.17045884 0.1658138 0.15423322 0.053793762 0.027688611 0.13322659
-0.11886168 -0.28760162 -0.090675764 0.1276318 -0.025489975 0.19953932 0.11417092 -0.04845221
0.061791394 -0.09490863 0.2263763 0.018974291 0.12330869 -0.07387188 0.109908625 0.062293112
-0.13911515 -0.06791933 0.06554963 0.21723957 -0.15804674 0.17161728 -0.1718499 0.10036333
0.009849594 0.07626806 0.028599646 -0.07635805 -0.030252824 -0.156652 0.13326085 -0.19004714
-0.015843488 -0.070634276 0.2440657 0.1976444 0.031057796 0.20413576 0.05998387 0.037467785
-0.09606137 -0.13532686 0.23062266 0.019161288 0.11286761 -0.18152992 -0.21258287 -0.21829821
-0.11255561 0.02342575 0.1957583 -0.102707915 0.073576234 0.15617377 -0.28992498 0.05890412
-0.14709377 0.16527951 0.028066112 0.08386715 -0.03681675 -0.059881028 0.01735774 0.030701093
-0.22796363 0.066739164 -0.020707343 -0.053982396 0.060759317 -0.09568386 -0.29994008 0.27213037
0.036716953 0.05234458 0.11844213 0.039624967 -0.15526876 -0.15053326 -0.1679049 -0.23508584
0.061332945 -0.06477337 0.13496946 -0.17357063 0.148888 0.04734729 0.064697415 -0.14080058
-0.075977795 0.19760768 -0.18954788 -0.13439584 0.093882635 0.059202112 -0.13023701 -0.24018823
-0.09967694 -0.29613006 0.14314808 0.2284177 -0.007413022 -0.0856461 0.20768283 0.076731876
0.20179054 -0.11156766 0.2651679 0.13523167 0.1008498 0.15919675 -0.031057984 -0.17307971
0.097942136 0.008744558 0.088652946 0.19212416 -0.052804608 0.13944998 -0.066993445 -0.1029252
0.12406696 -0.13909814 0.0796385 -0.156503 -0.09630756 -0.018454911 0.15005288 -0.045683477
0.14526528 0.24735622 -0.17655301 -0.05045485 -0.09238974 0.08101999 -0.12722103 0.012192955
-0.04900059 -0.042524666 -0.03695134 0.29741073 0.011870147 0.21388415 -0.063106626 0.057365023
-0.0073650614 0.12336588 0.20816177 -0.054454718 -0.17835288 0.06328886 -0.18159913 0.14176008
0.021003082 0.1051087 -0.062810816 -0.17068726 0.11369424 0.11437629 -0.08687269 0.08890836
0.12947632 0.028074771 0.04904446 0.116032 -0.187159 0.075813614 0.061082147 -0.027449317
0.0834677 -0.012894842 0.02178951 -0.041532166 -0.06767048 0.061262768 -0.089856416 0.23409453
0.07867912 -0.14991729 0.09865064 -0.14385742 -0.030763948 -0.18125638 0.060311195 0.101678595
0.27203923 -0.104722925 -0.10546292 -0.017719973 -0.23097414 -0.12317442 0.0828694 0.27670097
-0.09614201 0.06426148 0.21505584 -0.0080721835 -0.16394599 0.11804952 0.08359003 0.24482985
-0.06070703 0.18447964 -0.024452599 0.07518986 -0.045155805 0.21657497 -0.07622955 -0.16098076
0.20177378 0.017986387 -0.20935692 -0.0841193 0.09040569 0.039837614 -0.035211924 -0.023157645
0.094042465 -0.19295414 -0.129107 -0.10791847 0.19316992 -0.0732394 -0.12157076 0.074875124

transformer.layers.0.ffn.2.bias f4 [32]
00000000: 1fb3 af3d 1e52 ad3d 0af6 cd3d f3ab 5d3d
00000010: 57e7 ea3d f138 1a3b 35af 98bd 2062 0c3e
00000020: 2c83 16be 62bf 193e 5b42 253e 1891 fd3d
00000030: 670a f03d 34ca 2abd dfc2 bdbd 6f40 453d
00000040: 8199 353e 5e8c 193d de38 9ebc a6b6 07be
00000050: f447 0c3e 9978 1f3e 34df d13b 96a8 0bbe
00000060: 1760 00be 0e05 2bbe c483 09bd a45a c93d
00000070: 04ac 323e 4f52 28be a2b3 ef3d e86b 1c3e
0.085790865 0.08462928 0.10056694 0.05411906 0.11469906 0.0023532475 -0.07455293 0.13709307
-0.14698476 0.15014413 0.16138594 0.1238119 0.11720734 -0.041696742 -0.09265684 0.04815715
0.17734338 0.03748738 -0.019314226 -0.13253269 0.13699323 0.15573348 0.0064047817 -0.13638529
-0.12536655 -0.16701147 -0.033572927 0.098317415 0.17448431 -0.16437648 0.11704184 0.15275538

transformer.layers.0.layer_norm_self_attn.weight f4 [32]
00000000: d169 7d3f f567 723f eaa9 5c3f 7235 5d3f
00000010: e605 6e3f 3f91 5d3f 3f51 893f 8301 673f
00000020: 416a 583f 8b68 8c3f b9d7 713f 830a 7e3f
00000030: d716 9b3f e367 6b3f 1f28 873f b7c0 853f
00000040: d983 6f3f 0793 743f 120e 883f 19a5 8c3f
00000050: 89e0 743f f460 903f 7391 813f 0e1e 6f3f
00000060: 68ce 803f 1668 823f d6a4 843f 1e62 893f
00000070: c92f 853f 4c05 7b3f 7856 933f 6f97 8c3f
0.9898959 0.94689876 0.8619677 0.86409676 0.9297775 0.8654975 1.0727919 0.9023668
0.8453713 1.0969404 0.9446979 0.9923479 1.2116345 0.91955394 1.0559119 1.0449437
0.9356056 0.95536846 1.0629294 1.0987884 0.95655113 1.1279588 1.0122513 0.93405235
1.006299 1.0188015 1.0362804 1.0733068 1.0405208 0.9805496 1.1510763 1.0983714

transformer.layers.0.layer_norm_self_attn.bias f4 [32]
00000000: 7d09 bdbc 7fed 983a 81ef babc 3de0 2d3c
00000010: 8fb1 6cbb 24a4 003d 1abd 62bc 31fc a23c
00000020: 33d7 37bc ddac c03c 7b46 313c 96b8 aabc
00000030: 470b 74bc 915e 8f3b cc94 aa3b 13fc 84bc
00000040: 91f9 f23b 28fa 9dba 9678 9dba c3a5 1e3c
00000050: b0b1 debc 650a 013b 432d 9bbc 48f7 1639
00000060: 5298 13bc 6abe 17bd 7e80 253d ddff 3cbb
00000070: e9c2 273b 29c3 a0bc 0570 003c 1de4 8fbc
-0.023075813 0.0011667459 -0.022819282 0.010612545 -0.0036116575 0.031406537 -0.013839031 0.019895645
-0.011220741 0.023519928 0.0108200265 -0.02083997 -0.014895267 0.004375287 0.0052057263 -0.01623348
0.0074150045 -0.0012052702 -0.0012014087 0.009683075 -0.027184337 0.0019690034 -0.01894248 0.00014397234
-0.009008484 -0.037046827 0.040405743 -0.002883903 0.0025598353 -0.01962431 0.007839208 -0.017564828

transformer.layers.0.layer_norm_ffn.weight f4 [32]
00000000: 150c a43f 282a a13f e435 a63f 6975 a33f
00000010: f382 a33f 96fd 973f cd16 a63f 664b 983f
00000020: 62bb a53f f569 ab3f b057 ad3f cd1e a03f
00000030: 4e20 b43f 795e aa3f eccc aa3f e113 ad3f
00000040: 39e4 a93f d0ca a13f 7db6 ad3f 6a71 ae3f
00000050: ae70 a23f 4e3b ad3f bc58 ae3f f44a a93f
00000060: 62f4 a63f 32b2 aa3f 3b5d ab3f 5459 ac3f
00000070: e0b0 af3f a0aa a83f 34cd b33f f523 b03f
1.2816187 1.259099 1.2985196 1.2770206 1.2774338 1.1874263 1.2975708 1.189801
1.294781 1.339171 1.3542385 1.25094 1.4072359 1.3310081 1.3343787 1.3521692
1.3272773 1.2640018 1.3571316 1.3628361 1.2690637 1.3533723 1.362083 1.3225999
1.304333 1.3335631 1.3387827 1.3464761 1.3725853 1.3177071 1.4046998 1.3760973

transformer.layers.0.layer_norm_ffn.bias f4 [32]
00000000: c29a 8cbe d6cb 23be f801 e93d c8fb ba3d
00000010: 84a4 89be c220 7d3e e145 7d3c ef2e df3d
00000020: 9f86 eebd 9e00 2fbe 4e34 1e3c afa3 74be
00000030: 5ed2 9e3c 04a9 6fbd 76f6 7ebe 34af 7b3e
00000040: bd57 1abe 52d0 973e f404 7f3e 9528 d43d
00000050: b7c8 8fbe e45b 663e 63e9 52be 70fc 13be
00000060: eb52 ccbd e088 c93c 77c4 fe3c ff30 513e
00000070: 3ce4 5e3e ca44 e1bd 75b1 1b3d e32b e63d
-0.2746182 -0.15995726 0.11377329 0.09130055 -0.26883328 0.24719527 0.015458555 0.10897624
-0.11646771 -0.17090079 0.009656025 -0.23890565 0.01938742 -0.058510795 -0.24898705 0.24578553
-0.15072532 0.29651123 0.24904233 0.10359303 -0.2808282 0.22495991 -0.20596842 -0.14451766
-0.09976753 0.0246014 0.031099541 0.20428847 0.21766752 -0.109994486 0.038011033 0.112388395

output_net.0.weight f4 [32, 32]
00000000: 138e 313c b7be 0d3e b0e1 733e bc53 36be
00000010: d3ad 32bd f43b 00be e455 e3bd 1415 603c
00000020: 1917 11be 96d8 7e3e 1b49 313d 8496 f13d
00000030: c5e4 a3bc cfce 993c 596f 063e feb7 c2be
00000040: affc 3ebe 19b4 64bd 4828 9d3e 2503 6e3e
00000050: 1c54 ba3d 74bf 263b bfe5 663c ea42 9fbd
00000060: 853d 5ebe 43bd 643e 07b3 813e 30d4 4a3d
00000070: 55eb 5cbe 8205 94bd ce6f f1bd 055b 57be
00000080: 5cd8 b73c f64a 86be fa58 9bbd 615b ab3c
00000090: 9ab8 0abe c2b7 983e 512a b13d c6e0 febd
000000a0: e340 e83d 036f 413d e994 903e b5a2 36be
000000b0: 7306 b63e e397 ed3e 1f4c 24bd 412e 133e
000000c0: c228 7dbe a3a9 5b3d d9f8 063d 8773 703d
000000d0: 8934 ac3d a4a7 36bd ebf8 e3bd b29e a6be
000000e0: d706 afbe 421b 803e 92f1 6b3e 27d8 a03c
000000f0: 3ba4 aebe 1901 b0be ad62 e7bd cb67 edbc
00000100: 270c 24bd 378b 74be 19f9 3bbd d932 253d
00000110: 3501 65be 79ed cf3d f720 ae3e 23e3 6cb9
00000120: 6ed2 173e 3b22 b6be 303f 7c3d 8a54 81be
00000130: 9d9e 9a3e 1fde 783d f0dd 4ebe 8e1d e43e
00000140: 544e 13be b15e 753e 3787 71be 7f73 cebc
00000150: 7f7c 6fbd e079 a13e 2ec0 e63d ae86 0fbe
00000160: 1fcb fe3c 438b 43be b1ac d03b 498b 923e
00000170: 3574 8f3e 321b 69be c7ed 5a3e 734d b1bd
00000180: 8f7c b2bd c825 a7ba 9519 59be 1a3b a23e
00000190: e0d6 73be 3bb2 06be 1fc7 21be 6ebe 17be
000001a0: 211a 663e 2753 0dbe 085d 723d c4ca 5dbe
000001b0: 6857 0b3e 7ca1 a0be 0c11 3ebe 9e22 8c3e
000001c0: e8e6 a43e fb24 b0bc f6bd 7fbe 8570 7bbe
000001d0: 9c89 d8bd b07c aebd f05e 38be e10d 30bc
000001e0: ff42 bd3d de2c 08bd a3b0 673d 653e 86be
000001f0: 8732 a83e 73d2 1fbd b9f2 433e 79d0 9cbe
00000200: 338a 0a3e 3864 70bd f054 e13d 5a08 78be
00000210: cf43 d5be b114 3a3e 95e8 aebe 8386 83be
00000220: 5be6 d83e 2cf9 d53c cb19 0b3e 54e6 7bbe
00000230: 2e26 fb3e 9e0b 1cbe d36c 6cbe 9935 b13b
00000240: fbdf 22bd 7d87 ed3d 2cf2 413e a1ca be3b
00000250: 5062 d03d 19ae a33e 517e 32be 48c4 83be
00000260: f13b 14bd bdd6 4fbd a41e bdbe 18e7 1abd
00000270: c17d 2ebe 5d14 e2be ea03 87be a2d5 70be
00000280: 933a 1f3d a333 8abb 5dca 103e 968f be3c
00000290: 66e8 b93c 27a0 a63d 3533 823e a2fe babd
000002a0: 8c9c 9dbe 84f2 423e b9b8 603e c1a8 853d
000002b0: 0a2d 04be cb12 583e fd75 4a3e b6e9 3abd
000002c0: 193a 33be 8d5b 243e 62f8 503e 2844 4dbe
000002d0: 7047 1cbc 8b23 e5be 42b8 31bd 6b9c 9dbe
000002e0: cf34 8dbe 2bad c33e 0f3d dc3e 1880 943c
000002f0: 8091 cf3c 45c8 5b3d f4f2 fdbd 7989 d1bc
00000300: 1948 83be b258 973d e012 8f3e fc3b 133e
00000310: a56a 85be 6c1a 3bbd d303 a0be 7029 c33d
00000320: 8373 0c3e 01bf 81be 9678 edbd e217 c8bd
00000330: 37c9 6fbd c1bc 9cbd cc93 40bd 4a5c 1abd
00000340: 162d 983e 549f 6b3e a831 853e 1e8b 893e
00000350: 906a 11be 6723 cc3e a1f8 92bd 3b42 4fbd
00000360: fc5e 2cbc 0b18 81bd bb15 4abe 713c bf3d
00000370: 1280 133e acb1 46be 8986 4abe 9248 0ebe
00000380: 56b5 8e3e 11a9 f93c 4cf6 b53d c0de b43d
00000390: c7bb 8e3d 5cf1 e6bd dbaa 983c d608 a83e
000003a0: 983f 183e 7d3f f8bd 7ed7 593e 70c7 a5be
000003b0: 1baf 7c3e 4d0b 24bd ffbf ac3c ed8c bb3e
000003c0: 84d6 9c3d f90f db3d 5e18 933e a9b7 bcbe
000003d0: 7b73 8abe 8106 04be 6745 4fbe 2336 40be
000003e0: e6b4 3ebe 14d9 62be 763f e2bd 4cfb 8e3d
000003f0: a7d4 283e 339c 4d3d 0ba4 7dbe 7083 68be
0.010837096 0.13842283 0.23816562 -0.1780538 -0.043622803 -0.1252287 -0.11100367 0.0136769
-0.14168967 0.24887308 0.04328261 0.11796287 -0.020006547 0.018775372 0.13128413 -0.38031
-0.18651079 -0.055835817 0.30694795 0.23243387 0.09098074 0.0025443705 0.014092862 -0.07776435
-0.21703155 0.22337823 0.253319 0.049518764 -0.21574147 -0.07227613 -0.11788903 -0.21030815
0.022442035 -0.26229066 -0.0758533 0.020917596 -0.13546982 0.29827696 0.08650649 -0.12445216
0.11340501 0.04722501 0.2823861 -0.17835505 0.35551795 0.46404943 -0.040111657 0.14373113
-0.24722579 0.053628575 0.032952163 0.058703925 0.08408458 -0.04459347 -0.11131462 -0.3254295
-0.34184906 0.25020796 0.2304137 0.01963432 -0.34109673 -0.34375837 -0.11298118 -0.028980156
-0.040050652 -0.23881231 -0.045891855 0.040331695 -0.22363742 0.10152716 0.34009525 -0.00022591329
0.14826366 -0.3557299 0.061583698 -0.2525981 0.30199137 0.060758706 -0.2020185 0.44553798
-0.14385349 0.23961903 -0.23586737 -0.025201557 -0.058468338 0.31538296 0.11267124 -0.1401622
0.031102715 -0.19096093 0.0063682427 0.2862189 0.28018346 -0.2276428 0.21379767 -0.086573504
-0.08715164 -0.0012752349 -0.21201165 0.31685716 -0.23812437 -0.13153927 -0.15798615 -0.14818737
0.22470905 -0.13801251 0.059170753 -0.2165938 0.13607562 -0.31373203 -0.1856119 0.2737016
0.32207417 -0.021502009 -0.24974808 -0.24554642 -0.10573122 -0.08519876 -0.18004966 -0.0107454965
0.09241294 -0.033245914 0.05656494 -0.26219478 0.3285105 -0.03901906 0.1913556 -0.30627802
0.13529281 -0.058689326 0.11002529 -0.24221936 -0.41653296 0.18171956 -0.3416182 -0.25688562
0.42363247 0.026119791 0.13584058 -0.24599582 0.49052566 -0.15238807 -0.23088388 0.0054080007
-0.039764386 0.11598108 0.18940037 0.005822495 0.101750016 0.31968763 -0.17430998 -0.25735688
-0.036189977 -0.0507419 -0.3693744 -0.037818044 -0.17040159 -0.4415616 -0.26370174 -0.23518994
0.03887422 -0.0042175814 0.14139695 0.023261826 0.022693824 0.081360154 0.25429693 -0.091305986
-0.30783498 0.19037825 0.21945466 0.06526328 -0.12907806 0.21100919 0.19771571 -0.04563304
-0.17502631 0.16050549 0.2040725 -0.20045531 -0.009538516 -0.4475368 -0.043388613 -0.307834
-0.27579352 0.38218054 0.43015334 0.018127486 0.025337934 0.05365779 -0.12399855 -0.025578247
-0.25640944 0.07389964 0.27944088 0.14378351 -0.26057926 -0.045679495 -0.31252918 0.09529388
0.13715939 -0.25341037 -0.115952656 -0.0977018 -0.058541503 -0.076531895 -0.04701595 -0.03768567
0.29721898 0.23009998 0.26014447 0.2686395 -0.14200807 0.3987076 -0.071763285 -0.05060027
-0.010520693 -0.06303414 -0.19734852 0.093377 0.14404324 -0.19403714 -0.19777884 -0.13894871
0.27872723 0.030476125 0.08884868 0.08831549 0.069694094 -0.112765044 0.018636158 0.3281924
0.14868009 -0.121214844 0.2127361 -0.3237872 0.24676172 -0.04004984 0.021087645 0.36630955
0.07658103 0.10696406 0.28729528 -0.36858872 -0.2704123 -0.12893106 -0.20241319 -0.18770652
-0.18623695 -0.22153121 -0.110472605 0.06981525 0.1648737 0.05019779 -0.24769609 -0.2270639

output_net.0.bias f4 [32]
00000000: 594e eebc bc89 013b b1da a9bc 6992 b6bd
00000010: d742 69bc a4a1 db3c b9e8 2a3e c0b1 0c3e
00000020: ef9a 833e 452e b43d d416 113e 6608 d83d
00000030: 13eb 8b3d 1b4a 2d3e abe0 8c3e 56f8 9e3e
00000040: 3ea6 9e3e 42cc 093e 3496 663e 584c 0a3e
00000050: 51d3 213e c69b 5b3e 561d a63e 0e08 ad3e
00000060: b2bf f13d 8900 1d3c 098d 003e f5b3 b6bd
00000070: e8a6 273d 0a6f 9b3c ac1a df3d b288 aebc
-0.029090093 0.0019765934 -0.020734163 -0.08914644 -0.014237127 0.026810475 0.16690339 0.13739681
0.25704142 0.08797888 0.14168864 0.10548477 0.06831946 0.169228 0.27515158 0.3104884
0.30986208 0.13456824 0.22518235 0.13505685 0.15803267 0.21446142 0.32444257 0.33795208
0.11804141 0.009582647 0.125538 -0.08921043 0.04093066 0.018973846 0.10893759 -0.021305416
