advanced-DL/assignments/assignment3/best_model.pt (torch, 47023 bytes, 18 tensors)

input_net.0.weight f4 [32, 10]
0	0x3e9769bc	0.29572856
1	0xbd298ca7	-0.041393902
2	0xbc9d91d1	-0.01923457
3	0xbe17038a	-0.14747444
4	0xbdfd3d9e	-0.12365268
5	0x3e624f8e	0.2210066
6	0xbe142da6	-0.14470538
7	0xbd96d6a5	-0.07365159
8	0x3e4590c2	0.19293502
9	0xbe8dd930	-0.27704763
10	0x3e4dc05d	0.20092912
11	0xbe6a4874	-0.22879201
12	0x3d81a0f6	0.06329529
13	0x3e8b6e56	0.27232617
14	0xbdfcbca2	-0.12340666
15	0x3d470dda	0.048597194
16	0xbea401eb	-0.32032713
17	0xbe8cedac	-0.2752508
18	0xbdc4836d	-0.0959538
19	0xbe97dfc3	-0.29662904
20	0x3e3a012a	0.18164507
21	0xbcf1289d	-0.029438311
22	0xbe9a6c55	-0.30160776
23	0x3ddcb77a	0.10777183
24	0xbe22e547	-0.15907775
25	0x3e80dd9c	0.25169075
26	0xbe3c8446	-0.18409833
27	0x3dd531d1	0.10409892
28	0x3e1d151e	0.15340087
29	0x3e31a55b	0.17348234
30	0x3dc55c32	0.096367255
31	0x3e0b77a1	0.13619854
32	0x3a6d7de6	0.0009059593
33	0x3e4cb58c	0.1999113
34	0xbe1bb1ef	-0.15204595
35	0xbe811245	-0.2520925
36	0x3dfec8ae	0.1244062
37	0xbd19cabe	-0.037546866
38	0xbe29d82e	-0.16586372
39	0xbe042287	-0.12903796
40	0xbe300172	-0.17188051
41	0x3e62025c	0.22071213
42	0x3db839dd	0.089954115
43	0x3e01cb26	0.12675151
44	0xbda3cadf	-0.07997679
45	0x3e6562c3	0.22400956
46	0xbe9c063a	-0.304735
47	0xbd819a12	-0.06328215
48	0x3e066419	0.13124122
49	0xbe066c84	-0.13127333
50	0x3e8ccfa3	0.27502164
51	0xbcec7202	-0.028862957
52	0xbdf91b9d	-0.1216347
53	0x3d556411	0.052097384
54	0x3e1488b9	0.1450528
55	0x3dfa8c00	0.12233734
56	0x3e06039b	0.13087313
57	0xbd14912d	-0.036271263
58	0xbe686461	-0.22694542
59	0xbd628e7d	-0.05531167
60	0x3e686147	0.22693358
61	0xbd9cdfca	-0.07659872
62	0x3ac9e798	0.0015404103
63	0x3dc2b250	0.09506667
64	0x3ab8b5a5	0.001409222
65	0xbe58a7f1	-0.21157815
66	0xbdbc830e	-0.09204684
67	0x3e3a4f1e	0.18194243
68	0x3e4a6302	0.19764331
69	0x3e6f1f84	0.23351866
70	0x3d6519be	0.055932753
71	0x3d495fd4	0.049163654
72	0x3e5584f2	0.20851496
73	0xbdc96159	-0.09833021
74	0x3a25a0cf	0.0006318213
75	0xbdd0b34d	-0.10190449
76	0x3e95dc7e	0.29269785
77	0x3e9997fc	0.29998767
78	0xbe4e5afd	-0.20151897
79	0xbda2e445	-0.07953695
80	0x3e49b5c0	0.19698238
81	0xbe6fe714	-0.23427993
82	0xbe095cda	-0.13414326
83	0x3e789634	0.24276048
84	0xbe696753	-0.22793321
85	0x3d6ae164	0.057343856
86	0xbe82e3ce	-0.25564426
87	0x3e13106c	0.14361733
88	0xbc52d00a	-0.012866983
89	0xbda68d61	-0.08132435
90	0x3b6acc2a	0.0035827258
91	0xbdecdd17	-0.11565607
92	0xbddb963c	-0.10722014
93	0xbe70f44f	-0.23530696
94	0xbe08c960	-0.13358068
95	0xbdf2c121	-0.11853243
96	0x3c49f1a5	0.012325679
97	0x3e1a0125	0.15039499
98	0x3c8cb2c1	0.01717508
99	0x3da2c1d9	0.0794713
100	0xbe156079	-0.14587583
101	0xbd1225f1	-0.035680715
102	0x3e4fc918	0.20291555
103	0x3e5afee5	0.21386297
104	0xbe7649cc	-0.24051589
105	0xbcde268a	-0.027117986
106	0xbe2a842e	-0.16651985
107	0x3e09a3a7	0.13441335
108	0xbdeb10df	-0.11477827
109	0xbe2ab2c5	-0.16669758
110	0x3e322156	0.17395529
111	0x3cb86ac0	0.02251184
112	0xbe840d8e	-0.2579159
113	0x3e46fdc9	0.19432749
114	0x3e294f3c	0.16534132
115	0x3ea17794	0.31536543
116	0x3e11fe6d	0.14257212
117	0xbe1f121f	-0.15534256
118	0xbc76c864	-0.015062425
119	0xbe13fe32	-0.14452437
120	0x3e774f24	0.24151284
121	0x3e112849	0.14175524
122	0xbde1ab64	-0.11019018
123	0x3dac1a9f	0.08403515
124	0xbe530e65	-0.2061096
125	0x3c11ab1b	0.008890892
126	0x3e991671	0.29899934
127	0x3e9bcd44	0.30430043
128	0x3ba29643	0.0049617602
129	0x3d6fa96c	0.058511183
130	0xbd8d153f	-0.06888818
131	0x3e0fb2fa	0.14033118
132	0x3e8c819d	0.27442637
133	0xbe8eb588	-0.27872872
134	0x3e83df15	0.25756136
135	0xbddf7e62	-0.109127775
136	0x3d8dcfc8	0.06924397
137	0xbe7e230c	-0.24818057
138	0xbe936d8a	-0.2879451
139	0xbe96b3f4	-0.29434168
140	0xbda03bda	-0.07823916
141	0x3d31b945	0.043389577
142	0xbd94e659	-0.07270498
143	0xbd974fb5	-0.0738825
144	0xbe9e3def	-0.30906627
145	0x3c5e6f69	0.013576367
146	0x3e08cef6	0.133602
147	0x3d537636	0.051626407
148	0xbe931deb	-0.28733763
149	0xbe710f9d	-0.23541112
150	0xbe7084f4	-0.23488218
151	0xbe0c1b65	-0.13682325
152	0x3b1dfec2	0.0024108146
153	0xbe5d45e1	-0.21608688
154	0x3e6105c9	0.21974863
155	0x3e8f97c0	0.28045464
156	0xbe9aeb52	-0.3025766
157	0x3e2ef5bd	0.17085929
158	0x3e10e68d	0.14150448
159	0x3e511090	0.20416474
160	0xbe45df55	-0.19323476
161	0x3ea0534f	0.3131356
162	0xbe36f20b	-0.1786577
163	0xbe53662f	-0.20644449
164	0xbdef066b	-0.11671146
165	0xbe5a5295	-0.21320565
166	0x3de761aa	0.11297925
167	0x3e1bc377	0.15211283
168	0xbea0dfc7	-0.3142073
169	0x3e57a7c3	0.2106009
170	0xbe0c4ef0	-0.13701987
171	0xbdbb789e	-0.09153865
172	0x3e41c725	0.18923624
173	0x3dbcc566	0.09217338
174	0xbe46c822	-0.19412282
175	0xbe9bbef0	-0.3041911
176	0x3bedfd08	0.0072628297
177	0x3e1ac1e2	0.15113023
178	0x3e44631b	0.1917843
179	0x3e94e413	0.29080257
180	0x3e8ed168	0.2789414
181	0x3d416f69	0.04722539
182	0xbdbf46d9	-0.09339685
183	0x3e8ab29b	0.2708939
184	0x3bf8f96c	0.007598093
185	0xbe6c9195	-0.2310241
186	0x3e64c14a	0.22339359
187	0x3de0b5eb	0.10972198
188	0x3e82c23b	0.2553881
189	0x3e5dbad7	0.21653305
190	0x3ce25f83	0.027633434
191	0xbe6b7cf4	-0.22996885
192	0xbe4438d8	-0.19162309
193	0x3e85c40a	0.26126128
194	0x3e82c760	0.25542736
195	0x3dd716fc	0.10502431
196	0xbe82ce37	-0.25547954
197	0x3d6ab39c	0.057300195
198	0x3dca5b37	0.09880679
199	0x3de920b8	0.11383194
200	0xbe73c46d	-0.23805399
201	0x3e8219e2	0.25410372
202	0x3e1e82bb	0.15479557
203	0x3e60d29b	0.2195534
204	0x3d873d36	0.06603472
205	0x3deff21e	0.11716102
206	0x3e9dad08	0.30796075
207	0xbd2f152a	-0.042744793
208	0x3dab4232	0.08362235
209	0x3e70a54d	0.23500557
210	0xbd6f0b65	-0.058360476
211	0x3e824b85	0.25448242
212	0x3d946f49	0.072477885
213	0xbd741b4e	-0.059596352
214	0xbcde0b06	-0.027104866
215	0x3d6d5597	0.057942953
216	0x3e2a452d	0.16627951
217	0xbcdbc050	-0.0268251
218	0x3e49e562	0.19716409
219	0x3e4301ad	0.19043608
220	0xbe1a53c9	-0.15071024
221	0xbe8533fb	-0.2601622
222	0xbac0619c	-0.0014677527
223	0xbcca1e9b	-0.024672797
224	0xbe0a39a0	-0.13498545
225	0xbda804d3	-0.08204045
226	0x3e901b30	0.28145742
227	0xbe362389	-0.17786993
228	0x3d68015b	0.056641918
229	0x3e8919ce	0.267775
230	0x3b8ad85e	0.0042372188
231	0xbe1c4d66	-0.152639
232	0x3e0791e3	0.13239245
233	0x3e5333c2	0.20625213
234	0xbde6fbed	-0.1127852
235	0x3e25e23a	0.1619958
236	0x3e8db93e	0.2768039
237	0xbe77c3fb	-0.24195854
238	0x3e8a84cb	0.27054438
239	0x3e08f550	0.1337483
240	0x3e6f3a26	0.23362026
241	0x3d54605b	0.051849704
242	0xbe3762e9	-0.17908825
243	0xbd540282	-0.051760204
244	0x3e4c8aad	0.19974776
245	0x3df94338	0.12171024
246	0xbe40257c	-0.18764299
247	0x3db6249e	0.08893703
248	0x3e908909	0.2822955
249	0xbe0c5e03	-0.13707738
250	0xbe11c1dd	-0.14234109
251	0xbe1466bf	-0.1449232
252	0x3dd650e2	0.10464646
253	0xbda81175	-0.08206455
254	0x3e8fd17b	0.28089508
255	0x3ea78ed3	0.32726154

input_net.0.bias f4 [32]
0	0xbe772e34	-0.24138719
1	0xbe2b9635	-0.16756518
2	0x3e9aa561	0.302043
3	0x3d74abf4	0.0597343
4	0xbb96713d	-0.004591136
5	0x3cda1c6e	0.026624884
6	0x3d2d02a8	0.04223886
7	0x3de9b70d	0.11411867
8	0xbcec239f	-0.02882558
9	0xbe84b19e	-0.2591676
10	0xbe0c4627	-0.13698636
11	0xbe694da0	-0.22783518
12	0x3d87bd64	0.0662792
13	0x3dbc14cf	0.091836564
14	0x3dba8ac9	0.091085024
15	0xbe2d5425	-0.1692663
16	0x3dd1d2e4	0.10245302
17	0x3e6eb7b3	0.23312263
18	0x3e99707b	0.29968628
19	0x3dc236d3	0.09483113
20	0xbe924f83	-0.28576288
21	0x3e114931	0.14188077
22	0x3ba70238	0.0050967
23	0x3d0d49d4	0.034494236
24	0xbe2a68d7	-0.16641556
25	0x3de611c2	0.11233856
26	0x3e5cc53f	0.21559618
27	0x3ded6b64	0.11592749
28	0x3c8949be	0.016758796
29	0x3e278264	0.16358334
30	0x3e861d8f	0.26194426
31	0x3e39be66	0.18139037

transformer.layers.0.self_attn.o_proj.weight f4 [32, 32]
0	0xbe298b3b	-0.16557018
1	0x3e061273	0.13092975
2	0x3e94e467	0.29080507
3	0x3e14d691	0.14534976
4	0x3da000ab	0.078126274
5	0xbe034abe	-0.1282148
6	0x3e2bf52e	0.16792747
7	0xbc10f793	-0.008848089
8	0x3dcb89d8	0.09938401
9	0xbe0479e8	-0.12937129
10	0xbd47a3b3	-0.0487401
11	0xbe057979	-0.1303462
12	0xbc8a1bb5	-0.016858915
13	0x3d8d7d89	0.069087096
14	0x3d97a03f	0.074036114
15	0x3e4f1b2f	0.20225213
16	0x3e563256	0.20917639
17	0xbe58ddab	-0.2117831
18	0x3dc0e6eb	0.09419044
19	0xbe15d728	-0.14632857
20	0x3d35fed9	0.044432495
21	0xbd2400e0	-0.040039897
22	0xbe0fa795	-0.14028771
23	0x3e14385d	0.14474626
24	0x3dba89ea	0.09108336
25	0x3e83bb2a	0.25728732
26	0x3e39331b	0.18085901
27	0xbe8e4cc0	-0.2779293
28	0xbe49fe00	-0.197258
29	0x3cfbd8df	0.03074306
30	0xbda84fa6	-0.08218317
31	0x3da30681	0.07960225
32	0xb832c9dc	-4.2626503e-05
33	0x3cede5e7	0.02904029
34	0xbe08a202	-0.13343051
35	0x3e2f455e	0.17116305
36	0x3dc5b72b	0.09654077
37	0xbe5a442e	-0.21315071
38	0x3e87edb9	0.26548555
39	0xbe8203b9	-0.25393465
40	0xbe6d818e	-0.23193952
41	0xbe24317b	-0.160345
42	0xbe897f85	-0.26855102
43	0x3dedf597	0.11619108
44	0xbdad56f2	-0.08463849
45	0xbe89b25d	-0.26893893
46	0x3d95ac12	0.073082104
47	0xbd5db31f	-0.0541259
48	0xbe2e5743	-0.17025475
49	0xbdd997ac	-0.10624632
50	0x3e6d3158	0.23163354
51	0xbb4c078f	-0.0031132435
52	0xbe44e723	-0.19228797
53	0x3e9a913b	0.30188927
54	0x3daa8b57	0.08327358
55	0x3e06f4db	0.13179342
56	0x3e39b4ec	0.18135422
57	0x3e6c74c1	0.23091413
58	0x3e221c68	0.15831149
59	0x3e6257ba	0.22103778
60	0x3e6a8348	0.22901642
61	0xbe9a7667	-0.3016846
62	0xbe35b717	-0.17745624
63	0xbd5faebd	-0.054610003
64	0xbc4bc3d1	-0.012436823
65	0xbe685d02	-0.2269173
66	0xbe8b7595	-0.27238145
67	0xbd2cd45a	-0.0421947
68	0x3d727e06	0.059202217
69	0x3e1de73c	0.1542024
70	0x3e093ce6	0.13402137
71	0xbd43ad77	-0.04777285
72	0xbd12b50e	-0.0358172
73	0x3bf6b5ae	0.007528982
74	0x3e7d4f55	0.24737294
75	0x3e6146ec	0.21999711
76	0xbc3c6c50	-0.011500433
77	0xbe4d9ca8	-0.20079291
78	0x3e06ac15	0.13151582
79	0x3e1c821b	0.15284006
80	0x3e200947	0.15628539
81	0xbe9d5b11	-0.3073354
82	0xbd16217b	-0.036653023
83	0x3e2f6e44	0.17131907
84	0x3e5c79b4	0.21530801
85	0x3e1a91a2	0.15094617
86	0x3e3f26c2	0.18667129
87	0xbc044611	-0.008073346
88	0xbe1ca830	-0.15298533
89	0x3dd2c789	0.102919646
90	0x3e480203	0.19532017
91	0x3e95ab6b	0.29232344
92	0xbe8ac5af	-0.27103946
93	0xbd416633	-0.047216605
94	0xbe4d05ad	-0.20021696
95	0x3e24bf4a	0.16088596
96	0xbe45ba54	-0.1930936
97	0xbe6b33de	-0.22969005
98	0xbe2501fb	-0.16114037
99	0x3db4ca83	0.088276885
100	0xbe68971d	-0.22713895
101	0xbc89bedd	-0.016814644
102	0x3da45cdb	0.08025523
103	0xbb277516	-0.0025551966
104	0xbe4652aa	-0.19367471
105	0x3d848592	0.06470789
106	0xbdb5c16e	-0.088747844
107	0xbe297445	-0.1654826
108	0xbd9702fc	-0.07373616
109	0xbd58506d	-0.052811075
110	0x3e76ed5a	0.2411398
111	0x3e047110	0.12933755
112	0x3df76a9c	0.12080881
113	0xbd72735a	-0.05919204
114	0xbddda1a0	-0.10821843
115	0xbe8c8e1c	-0.2745217
116	0x3e75f943	0.24020867
117	0x3b6b9d3f	0.003595188
118	0x3d76d38b	0.060260337
119	0x3e876237	0.2644212
120	0x3e7678f2	0.24069574
121	0xbc8db6c5	-0.017299065
122	0xbe607c57	-0.21922432
123	0x3e53aac7	0.20670615
124	0x3e8f28fd	0.2796096
125	0x3e451962	0.19247964
126	0x3d960928	0.07325965
127	0xbe512d7a	-0.20427504
128	0x3d0e4cba	0.03474114
129	0x3e3dd411	0.18537928
130	0x3e012332	0.12611082
131	0x3d677109	0.056504283
132	0xbdce318c	-0.10068044
133	0xbe05574e	-0.13021585
134	0xbe335118	-0.17511404
135	0x3d1e1b87	0.03860047
136	0x3da1afa9	0.07894833
137	0xbe8980dc	-0.26856124
138	0x3e29f63c	0.16597837
139	0x3d7b9c01	0.061428074
140	0x3e6a2b6d	0.22868128
141	0x3e647d4e	0.22313425
142	0x3e5c3b03	0.21506886
143	0xbe9a0f04	-0.3008958
144	0x3dc44791	0.09583963
145	0xbd72e2fa	-0.059298493
146	0xbd2271df	-0.039659377
147	0x3e562ed4	0.20916301
148	0xbe34b34d	-0.17646523
149	0xbe89e70a	-0.2693408
150	0xbd2e7a7a	-0.04259727
151	0xbe0597b8	-0.13046157
152	0xbe8fb4d8	-0.2806766
153	0xbdcc7887	-0.09983926
154	0x3d036b6a	0.03208486
155	0xbe85cbec	-0.26132143
156	0x3e80f300	0.25185394
157	0xbea382d5	-0.31935754
158	0xbbb808ba	-0.0056162747
159	0x3e96f0a0	0.29480457
160	0xbe053e67	-0.13012086
161	0xbe5224af	-0.20521806
162	0x3e8b4563	0.27201375
163	0xbe23c44b	-0.15992849
164	0xbeaaf221	-0.33387855
165	0x3b1ee7ca	0.0024247044
166	0x3eaaeca4	0.33383667
167	0xbd208cb0	-0.03919667
168	0xbe0fe72a	-0.14053026
169	0xbe3ab80c	-0.18234271
170	0xbdfb051b	-0.12256833
171	0x3e987a81	0.29780963
172	0x3e846941	0.25861552
173	0x3e0eda2b	0.13950412
174	0xbe084597	-0.13307796
175	0x3e1e81aa	0.1547915
176	0xbe3847fb	-0.17996208
177	0x3ea81e1f	0.3283548
178	0xbeb82516	-0.35965794
179	0xbe97c5b4	-0.29643023
180	0x3ea7678e	0.32696193
181	0x3e976944	0.295725
182	0x3df88d0f	0.1213628
183	0x3dc89770	0.097945094
184	0xbc49f26c	-0.012325864
185	0x3e828c92	0.25497872
186	0x3e99de0a	0.30052215
187	0x3e04ae49	0.1295711
188	0x3d828114	0.06372276
189	0xbdfe6f3d	-0.12423561
190	0x3c5871d7	0.013210735
191	0xbe8c1fa8	-0.27367902
192	0xbdc9fe05	-0.098629035
193	0xbe6f673e	-0.23379228
194	0xbe37901c	-0.17926067
195	0xbdde683c	-0.10859725
196	0xbe2ff0d2	-0.1718171
197	0xbe124ddc	-0.14287513
198	0x3d88de16	0.066829845
199	0x3ddcc301	0.107793815
200	0xbdc3707b	-0.09542938
201	0xbdaf1d82	-0.0855055
202	0xbe3df961	-0.18552162
203	0xbe4cd452	-0.20002869
204	0xbe2be3cd	-0.16786118
205	0x3e7279d9	0.23679294
206	0xbe4c7b6f	-0.19968961
207	0xbe50dddb	-0.20397131
208	0xbdff3547	-0.12461334
209	0x3e0b3c69	0.13597263
210	0x3e333231	0.17499615
211	0x3ea139a6	0.31489295
212	0xbe184f73	-0.14874057
213	0xbe137c2b	-0.14402835
214	0x3c3c7d11	0.0115044275
215	0x3e36ce4d	0.17852135
216	0xbc5eba9c	-0.013594296
217	0xbe0e0ed7	-0.13872848
218	0xbe05b3fe	-0.13056943
219	0xbe274ce8	-0.16337931
220	0xbd55bd6b	-0.052182596
221	0x3e83ea62	0.25764757
222	0xbe5222aa	-0.20521036
223	0x3e61c39f	0.2204728
224	0xbe489060	-0.19586325
225	0x3ce676f6	0.028132897
226	0xbe1e942d	-0.15486212
227	0x3e8845ca	0.26615745
228	0x3e67aa54	0.22623569
229	0xbc9ac7aa	-0.018894035
230	0x3dfe04ec	0.124032825
231	0xbe597fe9	-0.212402
232	0xbe658734	-0.22414857
233	0xbe1536d7	-0.14571701
234	0x3e2a0ca8	0.1660639
235	0xbe166d99	-0.14690246
236	0xbdb65b24	-0.089041024
237	0x3e6702d4	0.22559673
238	0x3dec9bcb	0.11553153
239	0x3d92af86	0.07162385
240	0xbddac193	-0.106814526
241	0x3e6f79d0	0.23386312
242	0x3db86dff	0.09005355
243	0xbdbaf773	-0.091292284
244	0x3e440a8e	0.19144651
245	0x3dc00bde	0.093772635
246	0x3e45f802	0.19332889
247	0x3e7e0637	0.24807058
248	0x3e978e06	0.29600543
249	0x3e83be51	0.25731137
250	0xbe16c630	-0.1472404
251	0x3cdf4876	0.027256232
252	0x3e439fea	0.19103971
253	0x3dc37056	0.09542911
254	0xbe2aa758	-0.16665399
255	0xbe693958	-0.22775781

transformer.layers.0.self_attn.o_proj.bias f4 [32]
0	0xbbf4920f	-0.0074637006
1	0xbc1bc3de	-0.009507148
2	0x3c544ea1	0.0129582
3	0xbc579208	-0.013157375
4	0xbce95fb0	-0.02848801
5	0xbd4feac1	-0.05076099
6	0x3cdea89b	0.027180007
7	0x3c80d917	0.015728517
8	0x3c467759	0.012113416
9	0x3b75fa6a	0.0037533292
10	0x3bc08264	0.005874919
11	0xbcf3919f	-0.029732523
12	0x3c6c40b3	0.014419722
13	0xbad9c38e	-0.0016614066
14	0xbbb88b86	-0.005631867
15	0xbd15da24	-0.03658499
16	0xbc319399	-0.010838413
17	0xbc1ccb30	-0.009569928
18	0x3d0d1caa	0.034451164
19	0x3baf135d	0.0053428845
20	0x3c0069b2	0.0078377
21	0xbc915d1e	-0.017744597
22	0x3d148f32	0.036269374
23	0xbb7c6dc8	-0.0038517583
24	0xbcb7e4c0	-0.022447944
25	0x3c34a8bb	0.011026557
26	0x3b9e5e06	0.004832986
27	0xbca200e8	-0.019775823
28	0xbb26d43f	-0.0025456098
29	0x3bad6f23	0.0052927895
30	0x3bf6b432	0.007528805
31	0x3ccd5e49	0.025069373

transformer.layers.0.self_attn.qkv_proj.weight f4 [96, 32]
0	0x3df1e811	0.11811841
1	0x3dad2bbf	0.084556095
2	0xbe09fb5b	-0.13474791
3	0xbe166366	-0.14686355
4	0xbe365485	-0.17805679
5	0xbc190e06	-0.009341722
6	0x3de835fb	0.11338421
7	0xbdb44835	-0.08802835
8	0xbd516011	-0.051117007
9	0xbc387c83	-0.011260155
10	0x3e294733	0.16531067
11	0x3d8154dc	0.06315014
12	0x3e0aff34	0.13573915
13	0x3c22b819	0.009931588
14	0xbe1327d0	-0.14370656
15	0xbe55dc44	-0.20884806
16	0x3da21dda	0.0791585
17	0x3e02b68a	0.12764946
18	0xbd48a7e3	-0.048988234
19	0x3e4c8982	0.1997433
20	0xbd3e1c60	-0.04641378
21	0xbdb8bf77	-0.09020894
22	0x3e0fcfae	0.14044067
23	0xbd09e7fb	-0.0336685
24	0xbd0bf57d	-0.034169663
25	0xbe1df8a1	-0.15426876
26	0xbe02f24d	-0.12787743
27	0x3dfc5c82	0.12322332
28	0x3dc7933b	0.09744879
29	0x3e1a7d6f	0.15086912
30	0x3e4239b5	0.18967326
31	0x3d678a4c	0.056528375
32	0x3e0d0f3c	0.13775343
33	0x3e2abf96	0.16674647
34	0x3d338988	0.043832332
35	0xbda7a4ec	-0.08185753
36	0xbdf77e4c	-0.12084636
37	0x3e06e0f5	0.13171752
38	0x3d88b977	0.066759996
39	0xbdd5cfba	-0.10440011
40	0xbd9384e9	-0.07203085
41	0x3e3dba09	0.18527998
42	0x3e458050	0.19287229
43	0x3c1a6b56	0.009425005
44	0x3ce10b96	0.027471345
45	0x3ddc3d61	0.107538946
46	0xbe0f6035	-0.14001544
47	0x3ba10c0c	0.004914766
48	0xbda12f70	-0.07870376
49	0x3d382eb7	0.044966426
50	0xbd2fbd70	-0.04290527
51	0xbe1ee5cc	-0.15517348
52	0x3d2a07fb	0.041511517
53	0x3b3d1cdf	0.002885632
54	0x3e0ef918	0.13962209
55	0x3d254cfd	0.040356625
56	0x3e5a35e6	0.21309623
57	0xbe105ac1	-0.1409712
58	0x3ab7e8ce	0.0014031173
59	0x3e3a6b59	0.18205012
60	0xbcab5f61	-0.020919504
61	0x3cb89139	0.022530185
62	0x3df173c8	0.11789662
63	0xbd9674d0	-0.07346499
64	0x3e1b0a20	0.15140581
65	0x3d8c7496	0.068581745
66	0x3dcd2c78	0.10018247
67	0xbc79834b	-0.015229057
68	0x3d6cbb99	0.057796095
69	0xbdd24002	-0.10266115
70	0xbdab4413	-0.083625935
71	0xbdb52aa3	-0.08846023
72	0xbe1031f9	-0.14081563
73	0x3d4dcebb	0.05024598
74	0xbbce6754	-0.0062989388
75	0xbd05e777	-0.032691445
76	0x3e4adb68	0.1981026
77	0xbe22d279	-0.15900601
78	0x3d249a61	0.04018629
79	0x3e1b594a	0.1517078
80	0xbe08e664	-0.13369137
81	0x3d6baacb	0.057535928
82	0xbcc23cc6	-0.02371062
83	0xbe3b6ce4	-0.18303257
84	0x3d760909	0.06006721
85	0xbd5482ae	-0.05188244
86	0x3e4b7f51	0.19872786
87	0xbde438cf	-0.11143648
88	0xbe216f44	-0.157651
89	0xbe4282d6	-0.18995222
90	0x3e01178e	0.12606642
91	0xbe4240bb	-0.18970005
92	0xbe151a2b	-0.14560764
93	0xbe1ce261	-0.15320732
94	0x3dc4db27	0.096121125
95	0x3d55b5d0	0.052175343
96	0x3df5b0b9	0.11996598
97	0x3daa0f2c	0.08303675
98	0xbdcfdad3	-0.10149159
99	0xbbb6b52d	-0.005575797
100	0x3d01cfa1	0.03169215
101	0xbe42e6cf	-0.19033359
102	0xbdd138a6	-0.10215883
103	0xbe2f9d7a	-0.17149916
104	0xbd341251	-0.04396278
105	0x3d963e55	0.07336108
106	0x3d6232f2	0.055224366
107	0xbd7497ea	-0.05971519
108	0xbd31e2bb	-0.043429118
109	0x3e0328c4	0.1280852
110	0x3c2ee495	0.010674615
111	0xbd924417	-0.07141893
112	0x3bb542b5	0.0055316337
113	0xbdbdbd9d	-0.092646815
114	0xba8d0c29	-0.001076107
115	0xbe22f823	-0.15914969
116	0xbd01f5ae	-0.03172844
117	0x3e189e86	0.14904222
118	0x3b332d99	0.002734041
119	0xbe0ef360	-0.13960028
120	0x3e299a4c	0.16562766
121	0xbd2fa689	-0.04288343
122	0x3e2731f8	0.16327655
123	0x3e510c1c	0.20414776
124	0xbd306b66	-0.043071173
125	0x3e561e97	0.20910107
126	0x3d896f9f	0.06710743
127	0xbe4cfb05	-0.20017631
128	0x3e1f049b	0.155291
129	0x3e109075	0.14117606
130	0x3e540550	0.20705152
131	0xbd0a3df7	-0.0337505
132	0xbdc10a66	-0.094258115
133	0x3c950d38	0.01819478
134	0x3e17aa04	0.1481095
135	0xbe2a34a5	-0.16621645
136	0xbdb7d91c	-0.08976957
137	0x3dcc0465	0.09961776
138	0x3e22dcfe	0.15904614
139	0xbe260ba2	-0.16215375
140	0x3e3f7730	0.1869781
141	0x3d741d4e	0.05959826
142	0xbd24f64a	-0.040273942
143	0xbdb02a9d	-0.08601878
144	0xbe4b4814	-0.19851714
145	0x3e1a55f0	0.15071845
146	0x3e4ce6ca	0.20009914
147	0xbe11abab	-0.14225642
148	0x3e18ec1b	0.14933817
149	0x3daccee2	0.08437897
150	0xbe012022	-0.12609914
151	0xbd48997e	-0.048974507
152	0x3dd497f4	0.10380545
153	0x3dc4c238	0.09607357
154	0xbd4d151e	-0.050068967
155	0xbd951b98	-0.07280654
156	0x3c01fc4a	0.007933686
157	0x3d8239d2	0.063586846
158	0x3e0ded99	0.13860168
159	0xbe24805e	-0.16064593
160	0x3dabb598	0.08384246
161	0x3d804ffc	0.06265256
162	0x3e2d0a6e	0.1689851
163	0xbd8fb1a7	-0.07016306
164	0x3da8af33	0.082365416
165	0x3e373c89	0.17894186
166	0x3d262896	0.04056605
167	0xbdef2eb8	-0.11678833
168	0x3e1e92a7	0.15485631
169	0x3e43493d	0.19070907
170	0x3c9518d8	0.018200323
171	0x3d6b2dd1	0.05741674
172	0x3e002605	0.12514503
173	0xbe26e269	-0.16297306
174	0x3e043aed	0.12913103
175	0xbdeb6c1e	-0.11495231
176	0x3b806f7b	0.0039195395
177	0x3d340bab	0.04395644
178	0x3e4ed6fb	0.20199196
179	0x3dd0e7bf	0.10200452
180	0xbdc2baf3	-0.09508314
181	0x3d250b7f	0.040294167
182	0x3e15b2e6	0.14619026
183	0x3e4b5c84	0.1985951
184	0x3e381ef2	0.17980555
185	0xbe508b1c	-0.20365566
186	0x3deae302	0.114690796
187	0x3e3ad0d6	0.18243727
188	0xbe443ec1	-0.19164564
189	0xbdc30c25	-0.09523801
190	0x3d0522f6	0.032504044
191	0xbe57b3c0	-0.21064663
192	0x3ddb55ce	0.10709725
193	0xbd6aad37	-0.057294097
194	0x3d5bf403	0.053699505
195	0x3e40d427	0.1883093
196	0x3db1f3fd	0.08689115
197	0xbe155117	-0.14581715
198	0xbe1d4433	-0.15358047
199	0x3daedd08	0.08538252
200	0xbe5367a5	-0.20645006
201	0x3d798993	0.060922217
202	0xbc95a699	-0.018267917
203	0xbdc1900f	-0.09451305
204	0xbe26130c	-0.16218203
205	0xbe46651b	-0.19374506
206	0xbd824635	-0.06361047
207	0x3e4bd2e8	0.19904673
208	0xbd5f417d	-0.054505814
209	0xbd39b303	-0.045336735
210	0xbe16f802	-0.14743045
211	0x3e436213	0.19080381
212	0xbdbd53cf	-0.09244501
213	0xbd1c8fdb	-0.03822313
214	0x3c2de240	0.010613024
215	0xbc9348fd	-0.01797914
216	0xbe593e8d	-0.21215267
217	0x3d390834	0.04517384
218	0x3e499a66	0.19687805
219	0xbdf9bb88	-0.12193972
220	0x3be87a97	0.007094692
221	0xbe3d56ad	-0.18490095
222	0x3cb664ad	0.022264803
223	0x3d7c308a	0.061569728
224	0x3d6b6aa9	0.057474766
225	0x3dfdee07	0.12398916
226	0x3e3c427c	0.18384737
227	0x3d9f657d	0.07783029
228	0x3e267472	0.16255358
229	0xbd7520c0	-0.059845686
230	0xbe3990da	-0.18121663
231	0xbdf38a49	-0.1189161
232	0x3e27126f	0.16315626
233	0xbd5f4a98	-0.054514498
234	0x3cf57bf5	0.029966334
235	0xbe2a1923	-0.16611151
236	0xbc8f9a3a	-0.017529596
237	0x3d372d48	0.044720918
238	0x3d2869c2	0.041116484
239	0xbe354737	-0.17702948
240	0x3cf71700	0.030162334
241	0x3d8a77b1	0.067611106
242	0xbe0378f7	-0.12839113
243	0xbe45d106	-0.19318017
244	0x3d3b5cf0	0.04574293
245	0xbe50f3dd	-0.20405526
246	0xbde78e35	-0.11306421
247	0xbdbef68b	-0.09324368
248	0x3e149a17	0.14511906
249	0x3d012379	0.03152797
250	0x3d958403	0.0730057
251	0x3e050f06	0.12994012
252	0x3da92a01	0.08259965
253	0x3df3993a	0.1189446
254	0x3dc30f84	0.09524444
255	0xbe28b06b	-0.16473548

transformer.layers.0.self_attn.qkv_proj.bias f4 [96]
0	0x00000000	0.0
1	0x00000000	0.0
2	0x00000000	0.0
3	0x00000000	0.0
4	0x00000000	0.0
5	0x00000000	0.0
6	0x00000000	0.0
7	0x00000000	0.0
8	0x00000000	0.0
9	0x00000000	0.0
10	0x00000000	0.0
11	0x00000000	0.0
12	0x00000000	0.0
13	0x00000000	0.0
14	0x00000000	0.0
15	0x00000000	0.0
16	0x00000000	0.0
17	0x00000000	0.0
18	0x00000000	0.0
19	0x00000000	0.0
20	0x00000000	0.0
21	0x00000000	0.0
22	0x00000000	0.0
23	0x00000000	0.0
24	0x00000000	0.0
25	0x00000000	0.0
26	0x00000000	0.0
27	0x00000000	0.0
28	0x00000000	0.0
29	0x00000000	0.0
30	0x00000000	0.0
31	0x00000000	0.0
32	0x00000000	0.0
33	0x00000000	0.0
34	0x00000000	0.0
35	0x00000000	0.0
36	0x00000000	0.0
37	0x00000000	0.0
38	0x00000000	0.0
39	0x00000000	0.0
40	0x00000000	0.0
41	0x00000000	0.0
42	0x00000000	0.0
43	0x00000000	0.0
44	0x00000000	0.0
45	0x00000000	0.0
46	0x00000000	0.0
47	0x00000000	0.0
48	0x00000000	0.0
49	0x00000000	0.0
50	0x00000000	0.0
51	0x00000000	0.0
52	0x00000000	0.0
53	0x00000000	0.0
54	0x00000000	0.0
55	0x00000000	0.0
56	0x00000000	0.0
57	0x00000000	0.0
58	0x00000000	0.0
59	0x00000000	0.0
60	0x00000000	0.0
61	0x00000000	0.0
62	0x00000000	0.0
63	0x00000000	0.0
64	0x3b97d86b	0.0046339533
65	0xbc5dc005	-0.013534551
66	0xbcef29b9	-0.0291947
67	0x3ca3e8a5	0.020008394
68	0x3caf8ac3	0.021428471
69	0x3cc849dd	0.024449283
70	0xbd071ddd	-0.032987464
71	0x3d0fcd2c	0.035107777
72	0xba92106a	-0.0011143808
73	0xbc6cc09e	-0.01445022
74	0x3c99d06b	0.01877614
75	0xbd0ece2b	-0.034864586
76	0xbc2db47d	-0.010602114
77	0xbc82f176	-0.015984278
78	0xbb17fc45	-0.0023191136
79	0x3c947554	0.018122353
80	0xbccdb047	-0.02510847
81	0xbb677c32	-0.003532183
82	0x3d6462ac	0.055758163
83	0x3c996edf	0.018729625
84	0xbcc9cceb	-0.024633845
85	0xbce3e2f4	-0.02781818
86	0xb9f6b810	-0.00047057914
87	0x3cfb8ed2	0.03070775
88	0x3b8cf347	0.004301462
89	0x3c4d8858	0.012544714
90	0xbcc5d8e7	-0.024151279
91	0x3cd1997f	0.025585888
92	0x3c0206a8	0.007936157
93	0x3cc23fff	0.023712156
94	0xbca19692	-0.019725118
95	0x3cafb225	0.02144725

transformer.layers.0.ffn.0.weight f4 [64, 32]
0	0xbe27198b	-0.16318338
1	0xbd9cdbc1	-0.07659102
2	0xbdf9f6ee	-0.12205301
3	0x3c6be71e	0.014398364
4	0xbe1a3026	-0.1505743
5	0x3dbe2a40	0.09285402
6	0x3cc8a6dc	0.024493627
7	0xbe034b64	-0.12821728
8	0xbd8d025f	-0.06885218
9	0x3e41a930	0.18912196
10	0xbdc6ec1c	-0.09713003
11	0xbe1a96ae	-0.15096542
12	0x3d2bd40a	0.041950263
13	0xbdd3c37c	-0.1034002
14	0x3da180b0	0.07885873
15	0xbbe10931	-0.006867551
16	0x3d5ade31	0.053434554
17	0xbdd69750	-0.10478079
18	0x3dcad758	0.09904355
19	0x3d81febd	0.063474156
20	0x3df36bd6	0.118858024
21	0x3d9a403e	0.075317845
22	0xbe18bca8	-0.14915717
23	0x3d10fcfe	0.035397522
24	0x3d0aaa7d	0.033853997
25	0xbce464c0	-0.027880073
26	0x3df98f60	0.1218555
27	0xbe1a6c40	-0.15080357
28	0x3b830cbb	0.0039993203
29	0xbe1d23a9	-0.15345635
30	0x3c7477e4	0.014921162
31	0x3d932fc6	0.071868464
32	0x3e34f011	0.17669703
33	0xbda60adc	-0.0810754
34	0x3baea314	0.005329499
35	0xbd8db588	-0.0691939
36	0x3d2aea2b	0.041727226
37	0x3ddb429a	0.107060626
38	0x3e2660fc	0.16247934
39	0xbdec8d60	-0.11550403
40	0xbd173ab9	-0.036921237
41	0x3de5df32	0.11224212
42	0x3e44f4b0	0.19233966
43	0xbb897fe8	-0.004196156
44	0x3b0524c3	0.00203161
45	0x3e6bb024	0.23016411
46	0xbd99b826	-0.07505827
47	0xbe29f640	-0.16597843
48	0xbc4529c2	-0.012033882
49	0xbe23cfae	-0.15997192
50	0x3e015491	0.12629916
51	0xbcd92771	-0.026508065
52	0x3cc81f90	0.024429113
53	0x3e00bfac	0.12573117
54	0xbe07e073	-0.13269214
55	0xbccbfb9b	-0.024900248
56	0xbe2e888c	-0.17044276
57	0xbda85b7c	-0.08220574
58	0xbdc74260	-0.09729457
59	0x3de2e697	0.11079138
60	0x3e2b86fd	0.16750713
61	0xbe31978c	-0.17342967
62	0x3de0f99b	0.109851085
63	0xbd80a4db	-0.06281444
64	0xbd4167f1	-0.047218267
65	0x3ded1a08	0.11577231
66	0xbe02c0c8	-0.12768853
67	0xbc696e5c	-0.014247503
68	0xbd9b3ad6	-0.075795814
69	0xbd2006ca	-0.039068975
70	0xbd762f23	-0.060103547
71	0x3de0032c	0.10938105
72	0xbd907147	-0.07052856
73	0xbdb62461	-0.088936575
74	0xbe1a15b7	-0.15047346
75	0xbdc5bbb4	-0.09654942
76	0xbdb1e519	-0.08686275
77	0xbda274ea	-0.07932456
78	0xbdd9fc50	-0.10643828
79	0x3d4f5f4c	0.05062799
80	0x3df52983	0.11970808
81	0x3da1bbab	0.07897123
82	0x3cd9897b	0.026554814
83	0x3d98b7cb	0.07456931
84	0xbe33237e	-0.17494008
85	0xbdc75497	-0.09732931
86	0x3e035a23	0.12827353
87	0x3c067f71	0.008209095
88	0x3e1bb0b9	0.15204133
89	0x3e280f8c	0.1641218
90	0xbd63a3ba	-0.055576064
91	0xbdd46641	-0.10371066
92	0xbe0f4aaf	-0.13993333
93	0xbd9e1c91	-0.07720292
94	0xbdfa2e5d	-0.12215874
95	0x3de9f9c2	0.11424591
96	0xbdde2bbf	-0.10848188
97	0x3dd15d99	0.102229305
98	0xbe19beb2	-0.1501415
99	0xbd6a4741	-0.05719686
100	0xbe07c7ab	-0.13259761
101	0xbe46eaf7	-0.1942557
102	0x3d2d670a	0.042334594
103	0x3d45499f	0.048165914
104	0x3d0a45b1	0.03375787
105	0x3d5a56a2	0.053305276
106	0x3bcfe19e	0.0063440343
107	0xbce78d8e	-0.02826574
108	0x3e01c0ec	0.1267125
109	0x3cc9306d	0.024559224
110	0x3dbae027	0.09124785
111	0xbcd12062	-0.025528137
112	0xbddf0858	-0.10890263
113	0x3dfab0f2	0.12240781
114	0x3d1610ff	0.036637302
115	0x3e2e21f1	0.17005135
116	0xbd93c4bf	-0.07215261
117	0xbdfca695	-0.123364605
118	0x3e1c9b1f	0.15293549
119	0x3e30c499	0.17262496
120	0xbe0d55bb	-0.13802235
121	0xbe1384f4	-0.14406186
122	0x3c530f4c	0.012882065
123	0x3cff3f86	0.03115822
124	0xbdd855f7	-0.105632715
125	0x3d82d414	0.06388107
126	0x3e022043	0.1270762
127	0xbda37af2	-0.07982434
128	0xbe0918c5	-0.13388355
129	0xbe064dda	-0.13115636
130	0x3dcbcb0d	0.09950838
131	0xbe0b5735	-0.13607486
132	0xbdb5d189	-0.08877856
133	0x3dcfa7ae	0.10139404
134	0x3e04ab33	0.12955932
135	0x3e05b1f5	0.13056166
136	0x3dc244e5	0.09485797
137	0x3e1d96ad	0.1538951
138	0x3dd17b7a	0.102286294
139	0x3e2eeee5	0.17083319
140	0xbba498e8	-0.0050231107
141	0x3cdf809a	0.027283002
142	0xbddfed6e	-0.10933958
143	0x3dcb63a1	0.09931112
144	0xbe24c83d	-0.1609201
145	0x3de1d4d9	0.110269256
146	0xbdb7e72f	-0.08979642
147	0xbd6a4412	-0.057193823
148	0xbe0bd323	-0.13654761
149	0xbdef6d41	-0.116907604
150	0xbca42d23	-0.020041054
151	0xbd05150c	-0.032490775
152	0x3d8e9fcb	0.06964072
153	0xbdb57e64	-0.08861998
154	0xbe1c08eb	-0.15237777
155	0xbc328dee	-0.0108980965
156	0xbdce5370	-0.10074508
157	0x3cab9914	0.020947017
158	0xbe354fd7	-0.17706238
159	0x3d78073d	0.060553778
160	0xbcc9c4d4	-0.024629988
161	0x3cf3859c	0.029726796
162	0x3dae0fcd	0.084991075
163	0x3e2bbdef	0.16771673
164	0xbbb6ad0f	-0.0055748294
165	0x3dbc56e3	0.0919626
166	0xbe0319a3	-0.12802748
167	0xbde99721	-0.11405779
168	0x3c085996	0.00832214
169	0x3bd49497	0.00648744
170	0xbdd20a1f	-0.10255837
171	0x3d970c37	0.07375377
172	0x3c849a93	0.016186988
173	0xbd83a443	-0.06427815
174	0xbde2cc02	-0.11074068
175	0x3e0d82df	0.13819455
176	0x3dcf2820	0.10115075
177	0x3dfd0032	0.12353553
178	0xbe07a3ea	-0.13246122
179	0x3d582d89	0.0527778
180	0xbde4af2b	-0.11166223
181	0x3e1e29e2	0.15445665
182	0x3c5fd5e8	0.013661839
183	0x3d9883b0	0.074469924
184	0x3df336ca	0.118756846
185	0xbd4cdf5d	-0.050017703
186	0x3e0b9e43	0.13634591
187	0xbd867726	-0.065656945
188	0xbe19ec89	-0.15031637
189	0x3d9283f6	0.07154076
190	0xbe2bfa1d	-0.1679463
191	0x3c427642	0.011869015
192	0xbe2054e1	-0.15657379
193	0xbd2aa5d4	-0.041662052
194	0xbdbf5eab	-0.09344228
195	0x3df7e13e	0.121035084
196	0xbdb72760	-0.08943057
197	0xbcf640de	-0.030060228
198	0xbc0f9a67	-0.00876484
199	0x3dd3e7c0	0.10346937
200	0x3d887d56	0.06664531
201	0x3d606b76	0.054789983
202	0x3e4e2c0b	0.20133989
203	0xbdea2ceb	-0.11434349
204	0x3e159ecd	0.14611359
205	0xbdff1eed	-0.124570705
206	0xbdceae8b	-0.10091885
207	0xbe1b9daf	-0.1519687
208	0x3df9e27d	0.12201402
209	0xbe2df494	-0.1698783
210	0xbd2d44a4	-0.04230179
211	0xbe03729c	-0.12836689
212	0xbd6bb857	-0.057548847
213	0x3d7e76e8	0.062125117
214	0x3c6c66e9	0.014428833
215	0x3d66f8df	0.056389686
216	0xbd9f744a	-0.07785852
217	0x3dd95f2c	0.10613856
218	0xbdc543d7	-0.0963208
219	0x3d4e5044	0.050369516
220	0xbdf9dccb	-0.12200316
221	0xbdafddbd	-0.08587215
222	0xbe058ae0	-0.13041258
223	0xbc0f46b4	-0.008744884
224	0xbcb77b61	-0.022397699
225	0xbd9ee3a6	-0.07758264
226	0x3d4e75ed	0.05040543
227	0x3dfc523a	0.12320371
228	0xbdd2c566	-0.10291557
229	0x3e18de86	0.14928636
230	0xbdaf1d5e	-0.08550523
231	0xbcb2ac27	-0.021810604
232	0xbd8f1009	-0.0698548
233	0xbe240ffe	-0.16021726
234	0x3c90ae0d	0.017661119
235	0xbdbf81b0	-0.09350908
236	0x3d445127	0.047928955
237	0xbdffb6b8	-0.12486023
238	0x3e0506ec	0.12990922
239	0x3dd17ddb	0.10229083
240	0x3d94673d	0.07246254
241	0xbe27f81a	-0.16403237
242	0xbe053dbd	-0.13011833
243	0x3b8d95dc	0.004320843
244	0xbe23feb5	-0.16015132
245	0xbdf2e09a	-0.118592456
246	0xbe221394	-0.15827781
247	0xbc69bab8	-0.014265709
248	0x3dd23241	0.102634914
249	0xbd852745	-0.06501631
250	0x3c1e7dd7	0.009673557
251	0xba645fd8	-0.00087117916
252	0xbdeb32b5	-0.11484281
253	0xbd7a2bba	-0.061076857
254	0x3d5a9d80	0.05337286
255	0xbd1256ea	-0.03572742

transformer.layers.0.ffn.0.bias f4 [64]
0	0x3cf484fc	0.029848568
1	0x3d18b108	0.037278205
2	0x3d75dd02	0.060025223
3	0x3d2c8dd7	0.042127457
4	0xbd62974d	-0.055320073
5	0xbdf5c9c3	-0.120013736
6	0x3b826504	0.003979327
7	0xbe2cbd90	-0.16869187
8	0xbb9dd920	-0.004817143
9	0xbda6bfd3	-0.08142056
10	0xbe177940	-0.14792347
11	0x3e4e7959	0.20163478
12	0xbe3e84a3	-0.18605284
13	0xbe1f87eb	-0.15579192
14	0x3e0d0da6	0.13774738
15	0xbdd2ee03	-0.102993034
16	0xbde94309	-0.11389739
17	0xbe0ffb8e	-0.14060804
18	0x3e1d5d04	0.15367514
19	0xbdd975d2	-0.106181756
20	0x3d87818a	0.066165045
21	0x3e1544c9	0.1457702
22	0x3dc6a11d	0.09698699
23	0x3cfcc8dc	0.030857496
24	0xbda86795	-0.08222882
25	0xbd48f517	-0.04906186
26	0x3d0b3131	0.03398246
27	0xbe0156ad	-0.1263072
28	0xbd7373de	-0.05943667
29	0x3c511bc2	0.012762966
30	0xbd33c250	-0.043886483
31	0xbe145432	-0.14485243
32	0x3de60d70	0.11233032
33	0x3d8e13a9	0.069373436
34	0x3dae9a61	0.08525539
35	0x3d4c043f	0.049808737
36	0x3dd08159	0.10180921
37	0xbd48be97	-0.049009886
38	0xbd327611	-0.04356963
39	0x3ddb1802	0.106979385
40	0xbe15107c	-0.1455707
41	0x3e126b89	0.14298834
42	0x3e04fd08	0.12987149
43	0x3db444ee	0.0880221
44	0x3e0e9f29	0.13927902
45	0xbd7c7f55	-0.06164487
46	0xbddc2fd9	-0.10751314
47	0x3dd2c009	0.10290534
48	0x3e259961	0.1617179
49	0x3d9efac0	0.077626705
50	0xbbeb854f	-0.0071875225
51	0xbdec6207	-0.11542135
52	0x3de3b317	0.11118143
53	0x3e056de6	0.13030204
54	0xbc76b699	-0.015058183
55	0xbdf6aa22	-0.12044169
56	0xbe09339f	-0.13398598
57	0xbdf0dd1f	-0.117609255
58	0xbdb189e7	-0.08668881
59	0x3e14b701	0.14522935
60	0x3e286508	0.1644479
61	0xbde65492	-0.11246599
62	0x3dc52407	0.09626012
63	0x3e435cdb	0.1907839

transformer.layers.0.ffn.2.weight f4 [32, 64]
0	0x3da935e6	0.082622334
1	0xbbf251e5	-0.0073950165
2	0x3d002c4c	0.031292245
3	0xbdedc50e	-0.11609851
4	0xbca83f2e	-0.020537939
5	0xbdf9b1d5	-0.12192122
6	0x3d2d8802	0.042366035
7	0x3cd1a360	0.025590599
8	0xbc333458	-0.010937773
9	0x3c8ce51f	0.017199097
10	0xbcc3d8ed	-0.02390715
11	0x3c742fc5	0.014903967
12	0x3e09afd1	0.13445975
13	0xbd50c1f2	-0.05096621
14	0x3d62d75f	0.055381175
15	0xbda8cba5	-0.08241967
16	0xbda6c23f	-0.08142518
17	0xbd31159f	-0.04323351
18	0x3d8825c5	0.06647829
19	0x3d6aa9a3	0.057290684
20	0x3d8d67de	0.06904577
21	0x3c82072c	0.01587256
22	0xbcfb55bf	-0.030680535
23	0x3db1d525	0.08683232
24	0x3dad53c2	0.08463241
25	0x3ddce432	0.10785712
26	0x3cd0a494	0.025469102
27	0xbc859d20	-0.016310275
28	0xbda54fd3	-0.08071866
29	0xbd6d9c5a	-0.058010437
30	0x3c3c33f4	0.011486996
31	0xbd030389	-0.031985793
32	0xbde87d74	-0.11352053
33	0xbde57fc6	-0.112060115
34	0xbc910f69	-0.017707543
35	0x3dd47556	0.103739426
36	0xbbc635d2	-0.0060488963
37	0x3dcca699	0.099927135
38	0xbd146c4a	-0.036236085
39	0xbd9e9c75	-0.077446856
40	0x3deb5665	0.11491088
41	0x3d3956c9	0.04524878
42	0xbd298a90	-0.04139191
43	0xbda4f652	-0.08054794
44	0x3dfb2d9e	0.1226456
45	0x3dbd8453	0.092537545
46	0x3d4671b2	0.048448272
47	0xbd8042f9	-0.06262774
48	0x3ced863f	0.028994678
49	0x3d2736bd	0.040823687
50	0xbc2964a7	-0.010338939
51	0x3cdeb002	0.027183536
52	0x3dd1202b	0.10211214
53	0xbd30a600	-0.04312706
54	0x3d703b59	0.05865035
55	0xbd87c20d	-0.06628809
56	0xbddb22c2	-0.10699989
57	0x3d8bc262	0.06824185
58	0xbd28c6d9	-0.04120526
59	0xbde13852	-0.1099707
60	0xbdb821a4	-0.089907914
61	0xbde4b003	-0.11166384
62	0x3c8d4985	0.01724697
63	0xbd22cffc	-0.03974913
64	0xbd25bded	-0.04046433
65	0xbd2d7351	-0.042346302
66	0x3d2f1769	0.042746935
67	0xbd788292	-0.060671397
68	0xbdd8a560	-0.10578418
69	0x3d8899d6	0.06669967
70	0x3ddc0678	0.10743421
71	0xbc29c65c	-0.010362234
72	0x3dc8dbff	0.09807586
73	0xbd9180e3	-0.07104661
74	0xbca6d464	-0.020364948
75	0xbd5b6b47	-0.053569105
76	0x3d9534f9	0.07285494
77	0xbc92fc2b	-0.017942509
78	0xbd26e23c	-0.040743098
79	0x3df626f5	0.12019149
80	0xbd856156	-0.06512706
81	0x3dc47de7	0.095943265
82	0xbd682b80	-0.05668211
83	0x3c49d8a5	0.0123197185
84	0xbcc1962e	-0.023631182
85	0x3d94e37a	0.0726995
86	0x3d90938c	0.07059392
87	0xbd13756d	-0.036000658
88	0xbd249644	-0.040182367
89	0xbcaae373	-0.02086041
90	0x3c304f01	0.0107610235
91	0x3ddbc6da	0.10731287
92	0x3d7724cc	0.060337827
93	0xbd88b9ab	-0.06676038
94	0x3d53820a	0.051637687
95	0x3cf97d1b	0.030455163
96	0xbd17d026	-0.03706374
97	0xb8ccf516	-9.773129e-05
98	0xbd861d33	-0.06548538
99	0x3d5df69f	0.054190274
100	0xbdc82e6a	-0.09774478
101	0xbdf10275	-0.11768047
102	0xbde2b8ff	-0.110704415
103	0xbda90c87	-0.082543425
104	0x3cfd67c4	0.030933268
105	0xbd80943c	-0.062782735
106	0x3d893b1c	0.06700727
107	0xbdf5f482	-0.12009527
108	0xbd1af6f7	-0.03783318
109	0xbdb1ee1b	-0.08687993
110	0xbdac861a	-0.08424015
111	0x3e009926	0.12558421
112	0x3d9f95b4	0.077922255
113	0xbdcb633c	-0.09931037
114	0xbdece9bf	-0.11568021
115	0x3b0bcfeb	0.0021333646
116	0xbd18b2ff	-0.03728008
117	0xbd63409f	-0.05548155
118	0xbdf27cee	-0.11840235
119	0xbd7b173d	-0.06130146
120	0xbd9a820d	-0.075443365
121	0xb8f4eea0	-0.00011679274
122	0x3c2c75c5	0.010526125
123	0xbe0ec30e	-0.13941595
124	0x3d56e34f	0.052462872
125	0x3cc46628	0.023974493
126	0xbd05779a	-0.032584764
127	0xbe00fb63	-0.12595896
128	0xbd334d0c	-0.04377465
129	0xbbbece52	-0.005822935
130	0x3c28eac6	0.010309881
131	0xbdb54905	-0.08851818
132	0xbdd6c27d	-0.104863144
133	0xbcc38830	-0.02386865
134	0xbd5c3368	-0.053759962
135	0xbdd2659c	-0.10273287
136	0x3dbe38b5	0.0928816
137	0x3dfe4e55	0.124172844
138	0xbd78cff2	-0.060745187
139	0xbc3eb9f5	-0.011641015
140	0x3dfc7294	0.123265415
141	0xbdaefbef	-0.08544146
142	0xbbc9939c	-0.0061516296
143	0xbd786f55	-0.06065305
144	0xbb64df1e	-0.0034923027
145	0x3d9ad806	0.075607345
146	0x3d9035c9	0.07041509
147	0xbdc43454	-0.09580293
148	0x3df08d1c	0.117456645
149	0x3dd60a02	0.104511276
150	0x3cd3327c	0.025780909
151	0xbd8cb58e	-0.06870566
152	0xbd9eec1a	-0.077598765
153	0xbdc25649	-0.09489114
154	0xbdd936a0	-0.10606122
155	0xbd4cf2fc	-0.050036415
156	0xbdc08c39	-0.09401745
157	0xbda2a77d	-0.07942102
158	0xbd0ccceb	-0.034375113
159	0x3b06514b	0.0020495232
160	0x3dd0c819	0.101944156
161	0x3dc375a9	0.09543926
162	0x3d8bb831	0.06822241
163	0x3d32a1c4	0.043611303
164	0x3bf8b86f	0.0075903456
165	0x3d5c4fc3	0.053787004
166	0x3deaf4d1	0.11472476
167	0x3d974c74	0.07387629
168	0xbd96a825	-0.0735629
169	0x3dcf0151	0.10107673
170	0x3de1f3a8	0.11032802
171	0xbb5d2258	-0.0033742394
172	0xbd426d4b	-0.04746751
173	0x3cc487d9	0.023990558
174	0x3e0ee0ea	0.13952985
175	0xbda5fb18	-0.08104533
176	0x3d029607	0.03188136
177	0xbd58d81a	-0.052940466
178	0x3d9baa10	0.07600796
179	0xbd8b225a	-0.067936614
180	0x3d9deb38	0.0771088
181	0xbda66b53	-0.08125939
182	0xbcb43dda	-0.02200215
183	0xbd228e58	-0.03968653
184	0x3b0e36af	0.0021700074
185	0x3dad52d0	0.08463061
186	0x3dddf1fb	0.1083717
187	0xbd59e074	-0.05319257
188	0x3cf9d798	0.03049831
189	0xbdbab83f	-0.091171734
190	0xbc24369b	-0.010022785
191	0x3da7c524	0.081918985
192	0xbdb9640d	-0.09052286
193	0xbc9e3c71	-0.01931593
194	0x3d3f7802	0.046745308
195	0x3d99b3df	0.07505011
196	0xbdffbb14	-0.12486854
197	0xbd0cd05a	-0.034378387
198	0xbdf73262	-0.12070157
199	0x3c6b9698	0.014379166
200	0x3d53fd8c	0.051755473
201	0xbdddcbcb	-0.10829886
202	0xbce33ffc	-0.027740471
203	0x3b7830cd	0.0037870884
204	0x3c695da1	0.014243514
205	0x3d94ed41	0.07271815
206	0x3ce7ceb4	0.028296806
207	0x3ca4d177	0.020119412
208	0x3de86bd8	0.113486946
209	0x3d83c321	0.06433702
210	0x3db177a5	0.086653985
211	0x3ca22a1a	0.019795466
212	0xbd3e84b7	-0.046513285
213	0x3da71bbc	0.08159587
214	0xbb236ca1	-0.0024936574
215	0xbcb468a1	-0.022022547
216	0xbdadce0d	-0.08486567
217	0x3d18f43c	0.037342295
218	0xbd4e9b73	-0.050441217
219	0x3c8a6766	0.016895007
220	0xbcded0f7	-0.027199252
221	0xbd6da429	-0.058017883
222	0xbdca1287	-0.09866815
223	0x3c92dd53	0.017927801
224	0x3ccf26f3	0.025287127
225	0xbddf2250	-0.108952165
226	0x3ba27920	0.004958287
227	0x3cdfba9a	0.027310658
228	0x3dbe72c6	0.09299235
229	0xbdb7bf3a	-0.089720204
230	0x3da5d8db	0.080980025
231	0x3dd93059	0.10604925
232	0xbd87d8ea	-0.0663317
233	0x3d931009	0.07180793
234	0x3dec9318	0.115514934
235	0xbdc2c976	-0.09511082
236	0x3ba556b4	0.005045736
237	0xbd4fc070	-0.050720632
238	0xbd2018fc	-0.039086327
239	0x3db8c60d	0.0902215
240	0x3d8e843c	0.069588155
241	0xbc1d88c0	-0.009615123
242	0x3cba2a68	0.022725299
243	0xbd9b78f2	-0.07591428
244	0xbdca9f14	-0.09893623
245	0xbd6b01ef	-0.05737489
246	0x3cee04ae	0.029054966
247	0xbdfa52e4	-0.122228414
248	0xbdbaf666	-0.09129028
249	0xbdb426df	-0.087964766
250	0xbd36eb67	-0.04465809
251	0xbdae4322	-0.08508898
252	0x3d400c47	0.04688671
253	0x3d6282c3	0.055300485
254	0x3d20340e	0.039112143
255	0xbdd85380	-0.10562801

transformer.layers.0.ffn.2.bias f4 [32]
0	0x3dc6e59e	0.09711765
1	0xbb300e07	-0.002686383
2	0x3ddd52af	0.10806786
3	0xbe07d5f5	-0.13265212
4	0xbd1391bb	-0.03602765
5	0xbd64cacd	-0.05585747
6	0x3d0ec288	0.03485349
7	0xbd8054c9	-0.062661715
8	0xbd3f2d1f	-0.04667389
9	0x3daa8fa3	0.08328178
10	0xbde97a2e	-0.11400257
11	0x3d9df95b	0.077135764
12	0xbbcd0a0d	-0.0062573017
13	0xbde063a0	-0.10956502
14	0x3bf1810e	0.007370121
15	0xbcb55301	-0.022134306
16	0xbdd36759	-0.103224464
17	0xbc8655c0	-0.01639831
18	0x3e0afc49	0.13572802
19	0x3d5a0ee4	0.053236857
20	0x3d8810b7	0.06643813
21	0x3db59eda	0.08868189
22	0x3ccd34ff	0.025049685
23	0xbdde58d2	-0.10856785
24	0x3cfb4443	0.030672198
25	0xbd921d54	-0.071345
26	0xbae9cb01	-0.0017836989
27	0xbd1f2b21	-0.03885949
28	0xbe06eaff	-0.13175581
29	0x3cf5c222	0.029999796
30	0x3deec7ca	0.116592005
31	0x3dcd3671	0.100201495

transformer.layers.0.layer_norm_self_attn.weight f4 [32]
0	0x3f76ca0b	0.96402043
1	0x3f75b4e2	0.9597913
2	0x3f694a29	0.91128784
3	0x3f722d8a	0.9460074
4	0x3f782e1c	0.9694536
5	0x3f8684d6	1.0509288
6	0x3f809008	1.0043955
7	0x3f77d1a0	0.9680424
8	0x3f757b97	0.9589171
9	0x3f7583df	0.95904344
10	0x3f71f8fe	0.94520557
11	0x3f827c84	1.0194249
12	0x3f7aa905	0.97914153
13	0x3f72b726	0.9481071
14	0x3f778516	0.9668745
15	0x3f820483	1.0157627
16	0x3f744bf2	0.95428383
17	0x3f791a67	0.9730591
18	0x3f8177f3	1.0114731
19	0x3f79f3a0	0.9763737
20	0x3f7586ed	0.95909005
21	0x3f757223	0.95877284
22	0x3f8155c8	1.0104303
23	0x3f72eb2f	0.9489011
24	0x3f80d9bd	1.0066448
25	0x3f7ecbac	0.9952953
26	0x3f758cd5	0.9591802
27	0x3f7b6fb0	0.98217297
28	0x3f78d713	0.9720318
29	0x3f7c4c77	0.98554176
30	0x3f7b222a	0.98099005
31	0x3f820358	1.015727

transformer.layers.0.layer_norm_self_attn.bias f4 [32]
0	0xbbc926c2	-0.0061386535
1	0xbc136363	-0.008995864
2	0x3c4e64b2	0.01259725
3	0xbc78f260	-0.015194505
4	0xbd0bb1bc	-0.034105048
5	0xbd77f605	-0.060537357
6	0x3cf93a28	0.030423239
7	0x3c8a5714	0.016887225
8	0x3c48e192	0.012260811
9	0x3bb33313	0.005468735
10	0x3b8f5cbf	0.00437507
11	0xbd174568	-0.036931425
12	0x3c6982a9	0.014252343
13	0xb9e2e7c2	-0.00043278752
14	0xbb5a5116	-0.003331249
15	0xbd24b76e	-0.040213995
16	0xbc1f2c91	-0.009715215
17	0xbbdce6f1	-0.0067413975
18	0x3d22ba91	0.039728705
19	0x3ba23a69	0.0049508107
20	0x3bc97c04	0.006148817
21	0xbca58c53	-0.020208513
22	0x3d2bc4dc	0.041935787
23	0xbb4d0cd7	-0.003128817
24	0xbcd2bb44	-0.02572406
25	0x3c95d629	0.018290596
26	0x3ba6688c	0.005078381
27	0xbc9fe9b7	-0.019520624
28	0xbb0833c3	-0.0020782806
29	0x3c180d58	0.009280525
30	0x3bd1da25	0.0064041787
31	0x3cf20510	0.02954343

transformer.layers.0.layer_norm_ffn.weight f4 [32]
0	0x3f718d77	0.94356483
1	0x3f706b73	0.93913954
2	0x3f69e319	0.9136215
3	0x3f6e7d9d	0.9316042
4	0x3f73e512	0.9527141
5	0x3f758bd9	0.95916516
6	0x3f747621	0.9549275
7	0x3f75be2f	0.9599332
8	0x3f737880	0.95105743
9	0x3f702766	0.9381012
10	0x3f6f20a1	0.9340916
11	0x3f7bc3b8	0.9834552
12	0x3f74ea7f	0.9567031
13	0x3f70fd31	0.9413634
14	0x3f72905c	0.94751525
15	0x3f7b6d28	0.98213434
16	0x3f74ea4b	0.9567
17	0x3f77dc2b	0.96820325
18	0x3f7a4b3c	0.9777105
19	0x3f73feac	0.95310473
20	0x3f754d76	0.9582132
21	0x3f741bea	0.95355093
22	0x3f72930d	0.9475563
23	0x3f6e4e42	0.9308816
24	0x3f77b8f6	0.96766603
25	0x3f7493ca	0.9553801
26	0x3f6fa3c5	0.9360927
27	0x3f73f83c	0.9530065
28	0x3f74bd45	0.956013
29	0x3f764e72	0.9621345
30	0x3f7546fa	0.95811427
31	0x3f7cd576	0.98763216

transformer.layers.0.layer_norm_ffn.bias f4 [32]
0	0x3bb83d0b	0.0056225113
1	0x3b4d3502	0.0031312113
2	0x3bba73e3	0.0056900843
3	0xbc806efc	-0.015677921
4	0xbc8521d8	-0.01625149
5	0x3c7424ce	0.014901353
6	0xbc1369df	-0.00899741
7	0x3c5b70b7	0.0133935725
8	0x3ae93099	0.0017790972
9	0xba193620	-0.0005844552
10	0x3b9f3694	0.004858801
11	0xbc15d2dc	-0.009144511
12	0xbb45ec13	-0.0030200526
13	0x3c4c0971	0.012453423
14	0xbc59a3af	-0.013283654
15	0xbc721572	-0.014775621
16	0xba2e14f9	-0.00066406984
17	0xbc8de106	-0.017319214
18	0x3c319a55	0.010840018
19	0xbbe446bc	-0.00696644
20	0x3c440c8d	0.011965883
21	0xbc3b1d70	-0.011420593
22	0xbbd7f5c5	-0.0065905773
23	0xbc224d6a	-0.009906152
24	0xbbed15ac	-0.0072352495
25	0xbcd0ee05	-0.025504122
26	0x3b4cc371	0.0031244422
27	0x3b54c9fa	0.003246902
28	0xbc585a68	-0.013205148
29	0xbc8bd583	-0.017069584
30	0xbb8f4f36	-0.0043734564
31	0x3be0e277	0.006862934

output_net.0.weight f4 [32, 32]
0	0x3d8eca88	0.069722235
1	0x3c3df9d3	0.011595207
2	0x3d76d360	0.060260177
3	0xbe0c5938	-0.13705909
4	0xbe17430d	-0.14771672
5	0x3de6d36f	0.112707965
6	0xbd2099cc	-0.039209172
7	0xbde6ba4b	-0.11266001
8	0x3d91ef7e	0.07125758
9	0xbd01fc40	-0.031734705
10	0xbe157832	-0.14596632
11	0x3d8e8f3e	0.06960915
12	0xbd7c54a3	-0.061604153
13	0x3d69d2e8	0.0570859
14	0x3d55ab7b	0.05216549
15	0x3d733e19	0.059385393
16	0xbdffa5dc	-0.12482807
17	0xbe09cfdb	-0.13458197
18	0x3d74094c	0.05957918
19	0xbdd6888b	-0.10475262
20	0xbe080cbe	-0.13286111
21	0x3ddc6f64	0.107634336
22	0xbdff6104	-0.12469676
23	0x3d9bd828	0.07609588
24	0x3e2a6b16	0.16642413
25	0xbe2ec5b8	-0.17067611
26	0x3d0c0b9e	0.034190767
27	0x3cb4bf6c	0.022063933
28	0x3db19cfb	0.0867252
29	0x3cf87749	0.030330317
30	0xbd1a28eb	-0.03763668
31	0xbd2e214a	-0.042512216
32	0xbdcdee32	-0.10055198
33	0x3d60509e	0.054764383
34	0xbdb9052a	-0.09034188
35	0x3cf98786	0.03046013
36	0x3d5726b4	0.052527145
37	0x3e167ce2	0.14696077
38	0xbe2c8570	-0.16847777
39	0xbd306552	-0.043065377
40	0x3dec1208	0.11526877
41	0x3e1b5402	0.15168765
42	0xbdafbeb7	-0.08581298
43	0xbdcbd46a	-0.09952624
44	0x3ce6536e	0.028115954
45	0xbe0404ef	-0.12892507
46	0x3caeaf82	0.021323923
47	0xbe1a98fb	-0.1509742
48	0xbd548c87	-0.05189183
49	0x3d65a0ec	0.05606167
50	0xbdd8aca0	-0.105798006
51	0x3d2dbe3e	0.042417757
52	0x3e11c1c6	0.14234075
53	0x3d1690a2	0.036759026
54	0xbd012296	-0.031527124
55	0xbde1d75e	-0.11027406
56	0x3da61fd2	0.08111538
57	0xbc963a71	-0.018338414
58	0x3de4ea5d	0.11177514
59	0x3d914353	0.07092919
60	0x3d9ef554	0.077616364
61	0xbda6fa8f	-0.08153259
62	0x3d4f8c63	0.050670993
63	0xbc51bf07	-0.012801892
64	0x3ccab334	0.024743654
65	0x3dc732dd	0.09726498
66	0xbdf5ad7a	-0.11995979
67	0x3e09d681	0.13460733
68	0xbe069e89	-0.13146414
69	0xbdd00c40	-0.101585865
70	0x3d858ddd	0.06521199
71	0xbbef37ca	-0.0073003517
72	0xbd0acad8	-0.033884853
73	0x3e02da11	0.12778498
74	0xbe139fdd	-0.14416452
75	0x3dc2c847	0.09510856
76	0xbba66cff	-0.0050789113
77	0x3e17e4b4	0.14833337
78	0xbcbd43a6	-0.023103546
79	0x3d921d65	0.07134513
80	0x3e27a6b4	0.16372186
81	0x3dc9fb24	0.098623544
82	0xbde8b954	-0.113634735
83	0xbc50161b	-0.012700583
84	0xbda1e71c	-0.07905409
85	0xbd340d6a	-0.043958105
86	0xbd990471	-0.0747155
87	0xbde6156e	-0.11234556
88	0x3e22a519	0.15883292
89	0x3d8b8eed	0.0681437
90	0x3dd85542	0.10563137
91	0x3d983b0b	0.074331366
92	0xbd0182e5	-0.03161897
93	0xbd15a92b	-0.036538284
94	0x3dab851d	0.08374999
95	0xbcf2e1b8	-0.029648647
96	0xbd6e18fa	-0.05812929
97	0xbd55c281	-0.052187447
98	0xbc99e120	-0.018784106
99	0x3de65ebd	0.11248539
100	0x3da8eb53	0.082480095
101	0x3cda8bfc	0.026678078
102	0x3e12d117	0.14337574
103	0xbd92cc0c	-0.07167825
104	0x3b463bbf	0.0030248014
105	0xbb2f2b91	-0.0026728848
106	0xbdc38a94	-0.09547916
107	0x3e3f95fc	0.18709558
108	0x3dc98f6f	0.09841811
109	0xbc8b190c	-0.016979717
110	0x3e17e17b	0.14832108
111	0x3d89ad38	0.06722492
112	0x3d249ca9	0.040188465
113	0xbd5a80e2	-0.05334557
114	0xbda589b2	-0.08082904
115	0x3e183e39	0.14867486
116	0x3d81c62d	0.06336627
117	0xbc9fecbd	-0.019522065
118	0x3d5227fe	0.05130767
119	0x3db8f26d	0.09030614
120	0x3e0279a4	0.12741715
121	0x3dd62338	0.10455936
122	0xbc864860	-0.016391933
123	0xbd8a0c3e	-0.06740616
124	0x3dab0da2	0.0835221
125	0x3e093bd7	0.13401733
126	0x3d0f0186	0.034913562
127	0xbd4f3682	-0.050589092
128	0x3ded56cf	0.11588823
129	0x3d90ab6e	0.070639476
130	0x3e1309b3	0.14359169
131	0x3e1156d5	0.1419328
132	0x3de03b27	0.109487824
133	0x3da211da	0.07913561
134	0x3d744419	0.059635255
135	0xbe221cb8	-0.15831268
136	0xbdeb1b3c	-0.11479804
137	0xbdcfc7f6	-0.101455614
138	0x3e1d67cd	0.15371628
139	0xbd232193	-0.03982694
140	0xbe2dac04	-0.1696015
141	0xbbe04eaf	-0.0068453173
142	0xbd7b8682	-0.061407574
143	0xbcdc86d6	-0.026919764
144	0x3d5747f2	0.052558847
145	0x3cdfc952	0.027317677
146	0xbdf8a50a	-0.12140854
147	0x3e048f0f	0.12945198
148	0xbcfed9fa	-0.031109799
149	0x3d2b26a3	0.041784894
150	0x3d89ae04	0.06722644
151	0x3e02193a	0.12704936
152	0xbd1b3758	-0.037894577
153	0x3d316cd3	0.043316673
154	0x3e16d188	0.14728367
155	0x3dc0cc65	0.09413985
156	0xbc8a586c	-0.016887866
157	0x3cdef1eb	0.027214965
158	0x3ddb7df1	0.10717381
159	0x3ddc076e	0.107436046
160	0xbd239d5c	-0.03994499
161	0x3e0b4038	0.13598716
162	0xbe03fcf1	-0.12889458
163	0xbe0e9528	-0.13924086
164	0x3d390ba8	0.045177132
165	0x3e193cac	0.1496455
166	0xbe068735	-0.13137515
167	0xbe2f311c	-0.17108577
168	0xbdbe7591	-0.09299768
169	0x3cae0f02	0.02124739
170	0x3d84aab9	0.06477875
171	0xbd9f2e02	-0.07772447
172	0x3d92ecac	0.07174048
173	0x3d1f26a4	0.03885521
174	0xbd7e0923	-0.062020432
175	0xbd0fdf87	-0.03512528
176	0x3dd2b222	0.102878824
177	0xbe2b1d49	-0.1671039
178	0x3cb3618f	0.021897106
179	0x3cc22aa8	0.02370198
180	0xbdb6b36f	-0.08920943
181	0x3dcf1295	0.10110966
182	0xbd1b26e1	-0.037878875
183	0xbd8bd579	-0.06827826
184	0x3cfb4ead	0.030677164
185	0x3dfbd0d3	0.122956894
186	0x3d05f034	0.03269978
187	0xbcdb045e	-0.02673548
188	0xbe110778	-0.14163005
189	0xbe0a6643	-0.13515572
190	0x3de68aeb	0.11256965
191	0xbd8fc07c	-0.07019135
192	0xbdf77721	-0.12083269
193	0x3db6bee7	0.089231305
194	0xbe1f07b2	-0.1553028
195	0xbc8dd807	-0.017314924
196	0x3d7835c4	0.06059815
197	0xbd1eceec	-0.038771555
198	0x3d249f5a	0.040191032
199	0x3e27fc7b	0.16404907
200	0x3cc84b33	0.02444992
201	0xbe24d998	-0.1609863
202	0x3de32e7c	0.110928506
203	0xbd5eae9a	-0.05436573
204	0x3e00fb84	0.12595946
205	0x3d40a2df	0.047030326
206	0x3d299c5d	0.041408885
207	0x3e330f3b	0.17486279
208	0xbdaa18b0	-0.0830549
209	0x3c1d1d29	0.009589472
210	0x3db4c7dd	0.088271834
211	0xbd9d626c	-0.07684788
212	0xbdf1ea7a	-0.11812301
213	0x3dcad104	0.09903148
214	0xbd8c03e6	-0.06836681
215	0x3de05b56	0.10954921
216	0xbc49c921	-0.012316019
217	0xbc927af7	-0.0178809
218	0xbd0539cd	-0.032525826
219	0x3db31883	0.087449096
220	0xbd843bec	-0.06456742
221	0xbe00c607	-0.12575541
222	0x3dd1dc38	0.102470815
223	0xbe094680	-0.134058
224	0x3cc61e47	0.02418436
225	0x3e095f1e	0.1341519
226	0xbe1cdf71	-0.15319611
227	0x3d621601	0.055196766
228	0xbd6f95ae	-0.058492355
229	0xbd5c2aef	-0.053751882
230	0x3cb33604	0.021876343
231	0x3e34c038	0.1765145
232	0x3cf45c15	0.029829064
233	0x3caa0068	0.020752147
234	0xbdd90e3a	-0.105984166
235	0x3d904156	0.07043712
236	0x3e097c5a	0.13426343
237	0xbdc89371	-0.09793747
238	0xbda194dd	-0.078897215
239	0x3bb5f2c7	0.005552623
240	0x3dd2e128	0.102968514
241	0x3e0362bb	0.12830631
242	0x3d3629cd	0.044473458
243	0xbe33b1d2	-0.17548302
244	0x3e3ced21	0.18449832
245	0x3d825989	0.06364734
246	0x3da15f98	0.07879561
247	0xbd91ad7a	-0.07113166
248	0x3e2d4858	0.16922128
249	0x3d0ada7e	0.033899777
250	0x3c22fe18	0.009948276
251	0xbdb0afe5	-0.08627299
252	0xbd16509b	-0.036697965
253	0x3c9dc306	0.019258033
254	0xbd2da877	-0.04239699
255	0xbe05d115	-0.1306804
