advanced-DL/assignments/assignment3/best_model.pt (torch, 17623 bytes, 26 tensors)

input_net.self_attn.o_proj.weight f4 [10, 10]
0	0xbdb54a81	-0.08852101
1	0xbe9f9784	-0.31170285
2	0xbe2961ed	-0.16541262
3	0xbeeadaab	-0.45869955
4	0x3d80e327	0.06293326
5	0x3e81ec8e	0.2537579
6	0x3e11b33d	0.1422853
7	0xbf051265	-0.5198119
8	0xbe5e2c17	-0.21696506
9	0x3e23ebb2	0.1600788
10	0x3e4fa57a	0.20277968
11	0x3d42d356	0.047564827
12	0xbdef3b27	-0.11681204
13	0xbe99cc4f	-0.30038688
14	0x3db76911	0.08955587
15	0x3d6b152e	0.057393245
16	0x3e3e599b	0.1858887
17	0xbe536612	-0.20644405
18	0xbf022711	-0.5084086
19	0x3e140312	0.14454296
20	0xbde3d684	-0.111249
21	0xbec701b4	-0.38868487
22	0xbe15158e	-0.14559004
23	0xbe976f2f	-0.29577014
24	0x3ee28e32	0.4424911
25	0x3e84174a	0.25799018
26	0x3e93124b	0.28724894
27	0xbe211fba	-0.15734759
28	0x3ef53e15	0.47898927
29	0xbe7be3f7	-0.2459868
30	0xbeeddaeb	-0.46456084
31	0xbed91a4f	-0.42402884
32	0x3da09a50	0.07841933
33	0xbf0fc41c	-0.56158614
34	0x3ef20bc6	0.47274607
35	0x3dc176ca	0.09446485
36	0x3eb5668a	0.35429794
37	0xbe24d62f	-0.1609733
38	0x3e28ce3c	0.16484922
39	0x3d89b67d	0.0672426
40	0xbecbeb3c	-0.39827907
41	0x3ed18577	0.40922138
42	0x3ef9cf04	0.48790753
43	0xbe04d25e	-0.12970874
44	0x3f0c2c70	0.54755306
45	0xbdaaf890	-0.08348191
46	0xbe649688	-0.22323048
47	0x3e3ae1db	0.1825022
48	0x3edfebdf	0.43734643
49	0xbf006a90	-0.501626
50	0xbd01ac2a	-0.03165833
51	0xbeaf2afa	-0.34212476
52	0xbeb52340	-0.35378456
53	0x3e60dae9	0.21958508
54	0xbf1414db	-0.5784432
55	0x3ef4539f	0.47720048
56	0xbef1454a	-0.47123176
57	0x3dd7d6f2	0.105390444
58	0xbee917d4	-0.45525992
59	0xbe2db37f	-0.16963004
60	0x3eacca30	0.33748007
61	0x3e2ade50	0.16686368
62	0xbf017813	-0.50573844
63	0x3efb07a2	0.4902926
64	0x3e8f0359	0.27932242
65	0x3e66c895	0.22537453
66	0x3ea3fe11	0.32029775
67	0xbea2eb2d	-0.3182005
68	0xbe751c98	-0.23936689
69	0x3d318f07	0.043349292
70	0xbe5e6bb3	-0.21720771
71	0x3f02a002	0.510254
72	0xbf0196e5	-0.5062087
73	0x3f0149c9	0.5050321
74	0x3d9518be	0.0728011
75	0x3dd8c6b8	0.105847776
76	0x3cc1506e	0.023597922
77	0xbe6c3471	-0.2306688
78	0x3cfacc48	0.030614987
79	0x3ef23b1c	0.47310722
80	0xbebd5d45	-0.36985222
81	0x3e880d97	0.26572868
82	0x3e66343d	0.22480865
83	0xbeff43c2	-0.49856383
84	0x3e639d07	0.2222787
85	0xbebd9426	-0.3702709
86	0x3d2535b6	0.040334426
87	0xbec84086	-0.39111727
88	0xbe0ab7c8	-0.1354667
89	0x3f0780d0	0.5293093
90	0xbe142784	-0.14468199
91	0xbecb3f58	-0.39696765
92	0xbcc0526c	-0.023476802
93	0xbdb312d4	-0.087438256
94	0x3eb8b49f	0.36075303
95	0xbeca1650	-0.39470148
96	0x3d3f9f82	0.046782978
97	0x3efbed63	0.4920455
98	0xbead8a7b	-0.33894715
99	0xbe200f55	-0.15630849

input_net.self_attn.o_proj.bias f4 [10]
0	0x3bbf059a	0.005829525
1	0x3d1eab11	0.03873736
2	0x3b1fb87c	0.0024371436
3	0x3d6e30a4	0.058151856
4	0xbcc7feb3	-0.024413442
5	0x3bfcb43d	0.0077119158
6	0xbcba07ba	-0.022708762
7	0x3c975169	0.018471437
8	0xbd882e71	-0.06649483
9	0xbca8c4c9	-0.020601647

input_net.self_attn.qkv_proj.weight f4 [30, 10]
0	0x3ea07a9b	0.3134354
1	0xbeb6b458	-0.35684466
2	0xbeb1a166	-0.3469345
3	0x3ea9b650	0.33146906
4	0xbc414268	-0.011795618
5	0x3d4b151b	0.049580675
6	0xbe929087	-0.2862589
7	0x3db359d2	0.08757366
8	0xbe4fb421	-0.20283557
9	0x3e6af13f	0.2294359
10	0x3e2ace6d	0.16680308
11	0x3e8fccd5	0.28085962
12	0x3e41ba25	0.18918665
13	0x3e7719e7	0.24130975
14	0xbd234404	-0.039859787
15	0x3da4e601	0.08051682
16	0x3e9f327a	0.31093198
17	0xbd1ee91c	-0.03879653
18	0xbe0b6911	-0.13614298
19	0x3e881e3e	0.26585573
20	0xbe0f22e3	-0.13978152
21	0x3e3020cc	0.17200011
22	0x3e842906	0.25812548
23	0xbe7775a7	-0.24165975
24	0xbe6b46ca	-0.22976223
25	0xbe8edc18	-0.27902293
26	0xbe9100a2	-0.28320795
27	0xbd1225ee	-0.035680704
28	0x3e736ea9	0.23772682
29	0xbe424e41	-0.18975164
30	0xbea88a6d	-0.3291811
31	0xbe2af568	-0.16695178
32	0x3e269c8f	0.1627066
33	0x3e503909	0.20334257
34	0xbeb78095	-0.35840288
35	0x3e0058db	0.12533896
36	0x3e48636e	0.1956918
37	0xbea9ee5b	-0.33189663
38	0xbbef6d9c	-0.0073067676
39	0x3ddae287	0.10687738
40	0x3e12eb94	0.14347678
41	0xbc7930a5	-0.015209352
42	0xbebe3207	-0.37147543
43	0x3ea20ba8	0.31649518
44	0x3e185657	0.14876686
45	0x3e98c66e	0.2983889
46	0xbea4a516	-0.321572
47	0x3e7ecf48	0.24883759
48	0x3eb50697	0.3535659
49	0x3e65fc8f	0.22459625
50	0xbd3b4ddc	-0.04572855
51	0x3e462482	0.19349864
52	0x3e9dc297	0.30812523
53	0xbe308eea	-0.17242017
54	0x3eabef57	0.3358104
55	0x3e122b86	0.14274415
56	0xbe903261	-0.28163436
57	0xbe8894af	-0.26675937
58	0x3e008835	0.12551959
59	0xbd32dad0	-0.043665707
60	0xbeb861f7	-0.3601224
61	0xbe48b64e	-0.19600794
62	0x3e7ba4ec	0.24574631
63	0xbe819657	-0.25310013
64	0xbe94f57d	-0.29093543
65	0xbe72ef64	-0.23724133
66	0x3eb93a72	0.36177403
67	0x3e188e8c	0.14898127
68	0xbeae1a8f	-0.34004638
69	0xbe9720af	-0.29517123
70	0x3de4f435	0.11179391
71	0xbe9e0094	-0.30859816
72	0x3e9eced1	0.31017163
73	0x3d785050	0.060623467
74	0x3db34b78	0.08754629
75	0x3e751667	0.23934327
76	0x3d305b66	0.043055914
77	0xbe8dd2b7	-0.27699825
78	0x3e233554	0.15938312
79	0xbe232bf0	-0.1593473
80	0xbd9134b8	-0.070901334
81	0x3e7ed135	0.24884494
82	0xbdf48fc6	-0.11941485
83	0x3d376ea9	0.044783268
84	0x3d90fea1	0.070798166
85	0x3e38f08f	0.18060516
86	0xbc92faa9	-0.01794179
87	0xbe0dfa6a	-0.13865057
88	0xbe99a57d	-0.3000907
89	0x3e8c7d92	0.27439553
90	0x3e8bba42	0.2729054
91	0x3e803ecd	0.25047913
92	0xbe8d545b	-0.2760342
93	0x3eaddd04	0.33957684
94	0x3ead8487	0.33890173
95	0x3e5d3273	0.21601276
96	0xbd55fdfe	-0.05224418
97	0x3e8d9e15	0.2765967
98	0xbdc32349	-0.095282145
99	0xbe99c1b8	-0.30030608
100	0x3e92c7b6	0.28667992
101	0xbd4d6b90	-0.050151408
102	0xbd05b88f	-0.032646712
103	0x3d9fc74b	0.07801684
104	0x3dc859c6	0.09782748
105	0x3df15156	0.11783092
106	0xbe397068	-0.18109286
107	0x3d41698d	0.0472198
108	0xbc9acd75	-0.018896798
109	0xbca26515	-0.01982359
110	0xbe6fdb00	-0.23423386
111	0xbe0f968c	-0.14022273
112	0x3e1f6007	0.15563975
113	0xbe8c390b	-0.2738727
114	0xbe5759b2	-0.2103031
115	0xbe18d462	-0.14924768
116	0xbebe4a67	-0.3716614
117	0x3e7a380b	0.24435441
118	0x3d505424	0.050861493
119	0x3de56787	0.11201387
120	0xbdf4a742	-0.119459644
121	0xbe8cd896	-0.27508992
122	0xbe658ff9	-0.22418202
123	0x3e7e0b80	0.24809074
124	0xbcbcbf8b	-0.023040554
125	0x3d313a4e	0.043268494
126	0x3e9e4f20	0.30919743
127	0xbbed52a0	-0.0072425157
128	0xbe73de19	-0.23815192
129	0x3df3cc65	0.119042195
130	0x3de49fed	0.11163316
131	0xbd89905a	-0.06716986
132	0x3e2310e3	0.1592441
133	0x3eb245d3	0.34818897
134	0x3e73ed10	0.23820901
135	0xbe4ca92b	-0.19986407
136	0xbe88aa88	-0.26692605
137	0xbdd5889b	-0.10426446
138	0xbddd1db8	-0.10796684
139	0xbe32ace5	-0.17448767
140	0xbeb9ed34	-0.36313784
141	0xbe596401	-0.21229555
142	0xbc4defb9	-0.012569361
143	0xbea66749	-0.32500675
144	0x3d8fe40e	0.0702592
145	0x3e8ddaa3	0.2770587
146	0x3c14aba1	0.009074123
147	0xbe93fa0f	-0.28901717
148	0x3e83cc36	0.25741738
149	0xbe3435f3	-0.17598705
150	0xbd037618	-0.032095045
151	0x3d669b09	0.056300197
152	0x3ca17f92	0.01971415
153	0x3e37e052	0.17956665
154	0xbcbcb3ec	-0.023035012
155	0x3e7b361a	0.24532357
156	0x3e85c310	0.26125383
157	0xbea37b3b	-0.31929955
158	0xbe3f1bd1	-0.18662955
159	0xbe260d19	-0.16215934
160	0xbcef6d9c	-0.02922707
161	0x3ebc4f60	0.36779308
162	0xbe99b292	-0.3001905
163	0x3d9c1e09	0.07622916
164	0xbe2c75fe	-0.16841885
165	0xbd352675	-0.04422613
166	0xbe7daeec	-0.24773759
167	0xbdfdacff	-0.12386512
168	0x3eaa84f0	0.33304548
169	0x3db5be80	0.088742256
170	0x3e3c7140	0.18402576
171	0xbe8b0063	-0.27148733
172	0x3ea580cf	0.32324836
173	0x3eb0a396	0.34499806
174	0xbe7e1850	-0.24813962
175	0x3e6e90e0	0.23297453
176	0x3d578144	0.05261351
177	0x3e9c03ae	0.30471557
178	0x3eb7202e	0.3576674
179	0x3df878e6	0.121324345
180	0x3d9285ba	0.071544126
181	0x3e8718e9	0.26386192
182	0x3e6af06e	0.22943279
183	0xbdfb1a22	-0.12260844
184	0x3ebb6f81	0.36608508
185	0xbdf96f2d	-0.12179408
186	0xbc328e1a	-0.010898137
187	0x3da16aff	0.07881736
188	0xbd97a4fd	-0.07404516
189	0xbea3ee80	-0.320179
190	0xbec4a692	-0.38408333
191	0xbeb7c1b5	-0.35889974
192	0xbe10778e	-0.14108106
193	0x3daf89a7	0.08571177
194	0xbe9034f8	-0.28165412
195	0x3e83e286	0.2575876
196	0xbea7c6c5	-0.32768837
197	0xbe3e4e08	-0.18584454
198	0x3ec28c9f	0.3799791
199	0x3cdecf8d	0.027198577
200	0xbdb3735c	-0.087622374
201	0x3c98c23d	0.018647308
202	0x3e8e8505	0.2783586
203	0x3ebe16b6	0.37126702
204	0x3e2aec48	0.16691697
205	0x3dc08103	0.09399607
206	0xbe73d9df	-0.2381358
207	0xbe242054	-0.16027957
208	0xbca92e6d	-0.02065202
209	0x3e6b5b8f	0.22984146
210	0x3e23ee65	0.16008909
211	0xbe865f4d	-0.26244584
212	0x3e02de98	0.12780225
213	0xb85038d3	-4.9643986e-05
214	0xbecf160b	-0.40446505
215	0xbdc2d8fe	-0.09514044
216	0x3e617654	0.22017795
217	0x3d813ed9	0.06310815
218	0x3e9e942c	0.3097242
219	0x3e8c8ce5	0.27451244
220	0xbe5c20b7	-0.21496855
221	0xbe3b4711	-0.18288828
222	0x3e76624d	0.24060936
223	0x3d45d4ac	0.048298523
224	0x3eafda5f	0.3434629
225	0x3d540238	0.05175993
226	0x3d598872	0.05310864
227	0xbcc4189e	-0.02393752
228	0xbe9ed186	-0.3101923
229	0x3e9fc9e7	0.31208727
230	0x3e3017eb	0.17196624
231	0xbe899c18	-0.26876903
232	0xbea5b12a	-0.32361728
233	0xbeb67e5f	-0.35643288
234	0x3e8410f3	0.2579418
235	0x3e88f109	0.26746395
236	0x3eb17240	0.34657478
237	0x3d855ed8	0.06512231
238	0x3e4f5b90	0.20249772
239	0x3e465f8f	0.1937239
240	0x3d1614bd	0.03664087
241	0xbe0fc494	-0.14039832
242	0x3c2a0f5a	0.010379637
243	0x3e28dc25	0.16490228
244	0xbeae879d	-0.3408784
245	0xbe75994d	-0.23984261
246	0xbec0baca	-0.3764251
247	0x3e23e355	0.16004689
248	0x3eca7f2d	0.39550152
249	0x3e2085c3	0.15676026
250	0xbeb5ae7c	-0.35484684
251	0x3ea5cd74	0.3238331
252	0xbd2927a4	-0.04129757
253	0xbe2889f5	-0.16458876
254	0x3d8ced30	0.068811774
255	0xbe9299cc	-0.28632963

input_net.self_attn.qkv_proj.bias f4 [30]
0	0x00000000	0.0
1	0x00000000	0.0
2	0x00000000	0.0
3	0x00000000	0.0
4	0x00000000	0.0
5	0x00000000	0.0
6	0x00000000	0.0
7	0x00000000	0.0
8	0x00000000	0.0
9	0x00000000	0.0
10	0x00000000	0.0
11	0x00000000	0.0
12	0x00000000	0.0
13	0x00000000	0.0
14	0x00000000	0.0
15	0x00000000	0.0
16	0x00000000	0.0
17	0x00000000	0.0
18	0x00000000	0.0
19	0x00000000	0.0
20	0xbb3f2aac	-0.0029169722
21	0xbd388672	-0.045050092
22	0xbc61f02a	-0.01379017
23	0xbc32cdf1	-0.010913358
24	0xbc50af27	-0.012737072
25	0x3d366725	0.04453196
26	0x3c8c9c9b	0.017164519
27	0xba2813f9	-0.00064116676
28	0xba0b84ba	-0.0005322207
29	0xbbc2930e	-0.0059379404

input_net.ffn.0.weight f4 [32, 10]
0	0xbb54aa70	-0.0032450221
1	0xbe6430ce	-0.22284243
2	0xbe86947f	-0.2628517
3	0x3e8602f0	0.26174116
4	0x3e365ae2	0.17808107
5	0x3e616c53	0.22013979
6	0x3e1051be	0.14093682
7	0x3e926b12	0.28597313
8	0x3da0b4c9	0.07846982
9	0xbe5cceaf	-0.21563219
10	0x3d876650	0.066113114
11	0x3e27bde1	0.16381027
12	0x3e3fd337	0.18732916
13	0xbe5e0b50	-0.21684003
14	0x3da0203f	0.078186505
15	0xbe8aece1	-0.2713385
16	0xbd781da9	-0.06057516
17	0xbb9bd5dc	-0.0047557186
18	0xbd93c6fa	-0.07215686
19	0x3e37b90a	0.1794168
20	0x3d84fe80	0.064938545
21	0xbdeb39d7	-0.114856414
22	0x3e957162	0.29188067
23	0xbe68ea26	-0.2274557
24	0xbd9a271c	-0.07526991
25	0x3ea00e13	0.31260738
26	0xbe4a5ecd	-0.19762726
27	0xbea269a8	-0.31721234
28	0x3e3fda43	0.18735604
29	0xbe4d0e44	-0.20024973
30	0xbe93eb11	-0.2889028
31	0x3c91034a	0.017701764
32	0x3da87737	0.082258634
33	0xbb4b8fc4	-0.0031061033
34	0xbe83916f	-0.25696895
35	0xbe92a7fd	-0.2864379
36	0xbe8a499d	-0.27009287
37	0x3d18b611	0.037283007
38	0xbe3cc507	-0.18434535
39	0x3e306bfd	0.17228694
40	0xbe97f7e3	-0.2968131
41	0x3e9f767e	0.3114509
42	0x3eb15115	0.34632173
43	0x3debb0a5	0.11508302
44	0xbe066688	-0.1312505
45	0x3e50a334	0.20374757
46	0xbea76785	-0.32696167
47	0x3e8a80b5	0.2705132
48	0x3dc1756b	0.09446224
49	0xbe8f3b90	-0.2797513
50	0x3da03e56	0.0782439
51	0xbe19209a	-0.14953843
52	0xbe879713	-0.26482448
53	0xbdd3fc24	-0.103508264
54	0x3dcb62f6	0.09930985
55	0xbe2ad35b	-0.16682188
56	0x3dbaebdd	0.091270186
57	0x3e99453f	0.29935643
58	0xbd13cd79	-0.036084626
59	0xbdee7134	-0.116426855
60	0x3df46650	0.11933577
61	0x3e09711f	0.13422059
62	0xbe72b6cf	-0.23702548
63	0xbd5d6b98	-0.054057688
64	0x3e965d13	0.29367885
65	0x3e96d387	0.29458258
66	0xbe02ede4	-0.1278606
67	0x3d4cb189	0.049974
68	0x3e3f309e	0.1867089
69	0xbe9b4476	-0.3032567
70	0xbd681002	-0.05665589
71	0xbe8ddbd7	-0.27706787
72	0xbe5a7574	-0.21333867
73	0xbe49299d	-0.1964478
74	0x3e8b9209	0.27259853
75	0x3df21098	0.11819571
76	0xbdf86d92	-0.12130274
77	0x3c076faf	0.008266374
78	0xbdbfb309	-0.0936032
79	0x3e2b3e4d	0.16722985
80	0x3e8188f2	0.25299793
81	0xbd79b31c	-0.060961828
82	0xbe5b46fc	-0.21413797
83	0x3e396cdb	0.18107931
84	0xbe96c11f	-0.29444215
85	0xbcc8b5a7	-0.024500681
86	0x3e43ece6	0.19133338
87	0x3e9e6468	0.3093598
88	0x3d0fcecd	0.03510933
89	0xbd86d8c9	-0.06584317
90	0xbde0f95f	-0.10985064
91	0xbd589ec0	-0.05288577
92	0x3d6b4240	0.057436228
93	0xbdb3399f	-0.08751225
94	0xbe9fb441	-0.3119221
95	0x3e8b926c	0.2726015
96	0x3db3a753	0.08772149
97	0x3cf00a04	0.02930165
98	0x3dd68dd9	0.10476274
99	0x3ea34e09	0.31895474
100	0xbd7be8a0	-0.061501145
101	0x3dae44a9	0.0850919
102	0x3e3b33cd	0.18281479
103	0x3e892c41	0.26791576
104	0x3e17a810	0.14810205
105	0x3dc07f86	0.09399323
106	0x3e53a966	0.20670089
107	0x3e383771	0.17989899
108	0x3e555caa	0.2083613
109	0xbe8ba4a9	-0.27274063
110	0x3d6dcea3	0.058058392
111	0xbe064775	-0.13113196
112	0xbe906260	-0.28200054
113	0x3d9a9ea4	0.075497895
114	0xbe95906b	-0.29211745
115	0x3ea20be2	0.3164969
116	0x3e879a72	0.2648502
117	0xbddc4341	-0.10755015
118	0x3e6ee82e	0.23330757
119	0xbe80ab5a	-0.2513073
120	0x3e6dbc50	0.23216367
121	0xbcdfa88e	-0.027302053
122	0x3e988bf5	0.2979428
123	0x3e5de9c7	0.2167121
124	0x3e9291ca	0.28626853
125	0xbe0cd5e9	-0.13753475
126	0xbe85ad9a	-0.2610901
127	0xbe350ada	-0.17679921
128	0x3dcfe6fe	0.1015148
129	0x3e11bb85	0.1423169
130	0xbe7baa43	-0.24576668
131	0xbe58265d	-0.21108384
132	0xbe912b19	-0.28353193
133	0x3d42f8c1	0.04760051
134	0x3db8d655	0.090252556
135	0xbdec1915	-0.115282215
136	0x3e5d3ff8	0.21606433
137	0x3e6bb89f	0.23019646
138	0x3e017b3a	0.12644663
139	0x3e358a27	0.17728482
140	0x3e735edc	0.23766655
141	0x3ddf79ba	0.109118894
142	0x3ddbcc98	0.107323825
143	0x3ddc5755	0.10758845
144	0xbaf71088	-0.0018849531
145	0x3e9b890b	0.30377993
146	0x3d62846f	0.05530208
147	0x3e243438	0.16035545
148	0x3a243b03	0.0006264897
149	0xbe2f13f2	-0.17097452
150	0x3e8bcdf2	0.2730556
151	0xbe9b3af0	-0.30318403
152	0x3e6effda	0.23339787
153	0xbe938115	-0.2880942
154	0xbdca2b96	-0.098715946
155	0x3e078ead	0.1323802
156	0x3d8cbfd5	0.068725266
157	0x3d92fc4f	0.0717703
158	0x3dd36599	0.103221126
159	0x3e1bceda	0.15215626
160	0xbe9b68fe	-0.3035354
161	0xbe0e3276	-0.13886437
162	0x3e98c6fa	0.29839307
163	0x3d8ff89f	0.070298426
164	0x3e9f9ff9	0.31176737
165	0x3dcf8a5a	0.1013381
166	0xbe85759a	-0.26066285
167	0xbe07400a	-0.13208023
168	0x3e9c223f	0.30494878
169	0x3e14ae90	0.14519715
170	0xbe2ba4c7	-0.16762076
171	0xbd181571	-0.037129823
172	0xbe7b0b08	-0.24515927
173	0xbe4600fa	-0.1933631
174	0xbe86bd3f	-0.26316258
175	0xbd119d6b	-0.035550516
176	0x3e47a98f	0.19498275
177	0xbe6e0330	-0.23243403
178	0xbe8e8a70	-0.27839994
179	0xbd626a1c	-0.055276975
180	0x3e8ebee1	0.27880004
181	0xbbd26441	-0.0064206426
182	0xbde897b4	-0.1135706
183	0x3e4bb1c9	0.19892038
184	0xbd857848	-0.065170825
185	0x3e311fd8	0.17297304
186	0xbdbf1e0d	-0.093319036
187	0xbe1db65b	-0.15401594
188	0x3dbd1914	0.09233299
189	0xbd23c97e	-0.03998708
190	0x3e094453	0.1340497
191	0x3df4e201	0.11957169
192	0xbe895d75	-0.26829115
193	0x3e1686a3	0.14699797
194	0xbd1df29d	-0.038561452
195	0x3e84b6b6	0.25920647
196	0x3cc5b620	0.024134696
197	0xbe5affe7	-0.21386681
198	0x3e94a30e	0.2903065
199	0x3e193168	0.14960253
200	0x3df0d358	0.117590606
201	0x3dae27a4	0.085036546
202	0x3e0200ac	0.12695569
203	0xbd34f2d8	-0.044176906
204	0xbe0df4e2	-0.13862947
205	0xbe549d8a	-0.20763221
206	0x3e853ee3	0.2602454
207	0x3e16165f	0.14656971
208	0xbd05f941	-0.03270841
209	0xbe964437	-0.2934892
210	0x3e8951cf	0.26820228
211	0xbe8d847b	-0.27640137
212	0x3d899d29	0.06719429
213	0xbe511b57	-0.20420586
214	0xbe40865e	-0.18801257
215	0xbe5e8622	-0.21730855
216	0x3e84a35a	0.25905877
217	0x3e670d59	0.22563685
218	0xbdd086ff	-0.101819985
219	0x3e0076c4	0.12545305
220	0xbe553585	-0.20821197
221	0x3e45667b	0.19277374
222	0x3e05ef5b	0.13079588
223	0xbe9002e0	-0.28127193
224	0x3d6920da	0.056916095
225	0xbd8637b6	-0.06553595
226	0xbe690923	-0.22757392
227	0xbc572be2	-0.013133021
228	0xbe87c982	-0.26520926
229	0xbe8b1a63	-0.2716857
230	0x3e5ab5f7	0.21358477
231	0x3e60c27e	0.21949193
232	0xbdcd1e9c	-0.10015604
233	0x3bd9ac65	0.0066428655
234	0xbe2b95f1	-0.16756417
235	0x3e9b6a30	0.30354452
236	0xbd434345	-0.047671575
237	0x3e95be09	0.29246548
238	0xbe04dc3c	-0.12974638
239	0xbd037487	-0.03209355
240	0xbe242866	-0.16031036
241	0x3e49d795	0.19711144
242	0xbe67e687	-0.22646533
243	0xbd05c5cb	-0.032659333
244	0xbddd94ed	-0.10819421
245	0x3e63da19	0.22251166
246	0x3e6e9038	0.23297203
247	0xbd626029	-0.055267487
248	0xbe6e3220	-0.23261309
249	0xbdbbcbfd	-0.09169767
250	0xbe2617b5	-0.16219981
251	0xbeb0e141	-0.34546855
252	0x3d948187	0.07251268
253	0xbe7f3dfb	-0.24925987
254	0x3e55a459	0.20863475
255	0x3e39e69b	0.18154375

input_net.ffn.0.bias f4 [32]
0	0x3c828858	0.015934154
1	0x3e6ff1a1	0.23432018
2	0x3dbd7885	0.09251503
3	0xbe7f9e84	-0.24962813
4	0xbe8c137f	-0.27358624
5	0x3dfb56d2	0.12272419
6	0xbddcab1d	-0.10774825
7	0xbea9972b	-0.33123145
8	0xbc7338f2	-0.01484512
9	0xbe693787	-0.22775088
10	0x3d3a8c78	0.045544118
11	0xbdd7707d	-0.10519502
12	0x3e7603c6	0.24024877
13	0xbe3d6315	-0.18494828
14	0xbd82684f	-0.063675515
15	0x3de470f4	0.111543566
16	0x3eb7051c	0.35746086
17	0x3e171df5	0.14757521
18	0x3d9e445e	0.07727884
19	0x3e8ef810	0.27923632
20	0xbd84ea44	-0.06489995
21	0xbe452ca6	-0.19255313
22	0xbe8e4ca5	-0.2779285
23	0x3c685c7f	0.014182209
24	0x3e054e03	0.1301804
25	0xbdb38561	-0.087656744
26	0x3e2e9361	0.17048408
27	0xbe3d5104	-0.18487936
28	0xbe452a1c	-0.19254345
29	0xbd318466	-0.043339156
30	0x3e32ac6b	0.17448585
31	0xbd58ba94	-0.05291231

input_net.ffn.2.weight f4 [10, 32]
0	0xbe289b78	-0.16465557
1	0x3dc423c1	0.09577132
2	0xbc0aeddd	-0.008479563
3	0xbd4fcb50	-0.050731003
4	0x3cfbeba0	0.030752003
5	0xbdf61335	-0.12015382
6	0x3d304ff9	0.043045018
7	0xbdb38028	-0.08764678
8	0xbd6b1ea7	-0.05740228
9	0x3e1ee10b	0.15515535
10	0x3d86b6e1	0.0657785
11	0x3caedfab	0.021346888
12	0xbd140bbc	-0.036144003
13	0x3d6acd29	0.057324562
14	0x3de7c7de	0.113174185
15	0xbceb8153	-0.02874819
16	0x3d099480	0.033588886
17	0xba199474	-0.0005858608
18	0xbe09ce22	-0.1345754
19	0x3d2c9e74	0.0421433
20	0xbcb91e0b	-0.022597333
21	0xbd560a0d	-0.05225568
22	0x3d637244	0.055528894
23	0xbd5688af	-0.052376445
24	0xbd5f1c3d	-0.05447029
25	0x3e4c4d1c	0.1995129
26	0xbdcefe9c	-0.10107157
27	0x3d049fea	0.03237907
28	0xbd3f6bad	-0.046733547
29	0xbdcbf338	-0.099585
30	0xbd385cf7	-0.045010533
31	0x3d06f5a3	0.0329491
32	0xbcee6c55	-0.029104391
33	0x3bdc18ad	0.006716809
34	0x3c5604c1	0.013062657
35	0x3dd60160	0.10449481
36	0x3d8e4d5d	0.069483496
37	0x3e084bfd	0.13310237
38	0x3c4befdd	0.012447325
39	0xbd88eb5f	-0.066855185
40	0x3dbbf0b0	0.09176767
41	0xbcb51afb	-0.022107592
42	0x3db43f8c	0.08801183
43	0xbda55528	-0.08072883
44	0x3da0fc3e	0.078606114
45	0xbdf3103b	-0.1186833
46	0xbdaf0e45	-0.085476436
47	0x3d473291	0.04863221
48	0xbde96b29	-0.11397392
49	0xbd881057	-0.066437416
50	0x3db48f77	0.08816426
51	0x3e1e2004	0.154419
52	0x3e1a3c86	0.1506215
53	0x3dd94567	0.106089406
54	0xbe277a45	-0.16355236
55	0xbb4d8210	-0.003135804
56	0x3e102dae	0.14079925
57	0xbce197bf	-0.027538178
58	0xbe16b502	-0.14717487
59	0xbdd87875	-0.1056985
60	0xbd9e1c30	-0.0772022
61	0x3e1a4525	0.15065439
62	0x3d3a8d33	0.045544814
63	0xbd9e2910	-0.07722676
64	0x3cf878fe	0.030331131
65	0xbdd9a238	-0.10626644
66	0xbd33ce59	-0.04389796
67	0xbc0696dc	-0.008214679
68	0x3d7e311e	0.06205856
69	0x3dee1748	0.11625534
70	0x3e2109dd	0.15726419
71	0xbdd428b9	-0.1035933
72	0xbe483e67	-0.19555055
73	0x3d356d7a	0.044293858
74	0x3db7d9d6	0.08977096
75	0x3dccacac	0.09993872
76	0xbc72ecb6	-0.014826944
77	0x3e076f1c	0.13225979
78	0xbc1e60a0	-0.009666592
79	0xbdd2534a	-0.102697924
80	0x3d3fe94b	0.046853345
81	0xbdc56d41	-0.09639979
82	0x3de7e923	0.11323764
83	0xbe05d9d6	-0.13071379
84	0xbe18ae12	-0.14910153
85	0xbe3cbf54	-0.18432361
86	0xbd4e3b51	-0.050349537
87	0xbe015e40	-0.1263361
88	0x3db9eb4d	0.09078083
89	0x3ca16438	0.019701108
90	0x3dc592ff	0.09647178
91	0xbdd282e5	-0.102788724
92	0xbe08affa	-0.1334838
93	0x3e31c9dd	0.17362161
94	0x3d76dd45	0.060269613
95	0x3e0c6611	0.1371081
96	0xbe0117fb	-0.12606804
97	0x3e316952	0.17325333
98	0x3d64eb70	0.055888593
99	0x3e1070de	0.14105555
100	0x3d838f99	0.064238735
101	0xbdc7a7cf	-0.09748804
102	0xbe16e9cb	-0.14737622
103	0xbdf1f8f8	-0.11815065
104	0xbd12c595	-0.03583296
105	0x3e28a531	0.16469266
106	0x3dc62d58	0.096766174
107	0xbd005140	-0.031327486
108	0xbdaaa7e3	-0.08332803
109	0x3db2c165	0.08728293
110	0xbd278fe2	-0.0409087
111	0xbc56f4a8	-0.013119854
112	0x3dfb83a5	0.122809686
113	0x3e046b40	0.12931538
114	0x3dce83f3	0.10083761
115	0x3d24c9a9	0.04023138
116	0x3e040000	0.12890625
117	0x3d889ad6	0.066701576
118	0x3d970d13	0.073755406
119	0x3cfe2ad9	0.03102629
120	0x3d3b734c	0.045764253
121	0xbd18beff	-0.037291523
122	0x3b9983d4	0.0046849046
123	0xbdd730fd	-0.10507391
124	0x3dde91b9	0.10867638
125	0x3e4852f7	0.19562899
126	0x3b6b7e56	0.0035933456
127	0x3d19febd	0.037596453
128	0xbd3607d7	-0.04444107
129	0x3de50d08	0.11184126
130	0x3e2e927d	0.17048068
131	0xbdfbe73e	-0.12299965
132	0x3dace71a	0.084425166
133	0xbe1f0f92	-0.15533283
134	0x3df6998e	0.12041007
135	0x3d0fc260	0.03509748
136	0x3e392a95	0.1808265
137	0xbdf2fe75	-0.1186494
138	0xbc7d7120	-0.015468866
139	0xbd4be0b8	-0.049774855
140	0xbd457247	-0.048204686
141	0x3e14ed8d	0.14543743
142	0xbd81d3c3	-0.063392185
143	0x3d89d8d2	0.06730808
144	0xbda72fb2	-0.08163394
145	0xbdf841e7	-0.12121945
146	0x3e40deb1	0.1883495
147	0x3df8b84c	0.12144527
148	0x3d6803d2	0.05664427
149	0x3e137688	0.14400685
150	0x3cfdb6af	0.0309709
151	0x3e1e64a5	0.1546808
152	0xbd48ee41	-0.04905534
153	0xbc886792	-0.016650949
154	0xbcfa87fa	-0.030582417
155	0xbe0d44d9	-0.13795795
156	0xbd72d2a1	-0.059282903
157	0xbcdac1fb	-0.026703825
158	0x3d336f39	0.043807242
159	0x3d586164	0.052827254
160	0xbe21e1b2	-0.15808752
161	0x3e527407	0.20552073
162	0x3e262776	0.1622599
163	0x3e390773	0.18069248
164	0x3e3f575d	0.1868567
165	0x3d37e644	0.044897333
166	0x3e1c9f7c	0.15295213
167	0x3c839607	0.01606275
168	0xbc3daa89	-0.011576303
169	0xbd0789a8	-0.033090264
170	0x3dcfc894	0.10145679
171	0x3d529455	0.05141099
172	0x3e0fecad	0.14055128
173	0x3ddf7572	0.10911073
174	0xbd0c930a	-0.034319915
175	0xbdc161fe	-0.09442519
176	0xbdd54828	-0.10414153
177	0xbd1b950c	-0.03798394
178	0x3d615774	0.055015042
179	0x3d89b7d5	0.06724516
180	0x3cb3151d	0.021860654
181	0xbde4404f	-0.111450784
182	0x3d8feefd	0.07028005
183	0xbdd8b949	-0.10582215
184	0x3e583437	0.21113668
185	0xbd8e6821	-0.06953455
186	0x3dbd837b	0.092535935
187	0xbcd2638a	-0.02568223
188	0xbd295bad	-0.041347194
189	0xbd35f29c	-0.044420823
190	0x3df79ce1	0.12090469
191	0xbc346e51	-0.01101263
192	0x3d1e2d99	0.038617704
193	0x3c915e47	0.01774515
194	0xbd6f5b3f	-0.05843663
195	0xbe4cbd5d	-0.19994111
196	0xbb71fc90	-0.003692422
197	0xbdebe98f	-0.11519157
198	0x3da201bc	0.07910487
199	0xbc4e57d8	-0.012594186
200	0x3d8e4378	0.069464624
201	0xbe21973d	-0.15780349
202	0xbd5f3863	-0.054497134
203	0x3e1816a6	0.1485239
204	0xbe15a422	-0.14613393
205	0x3ce53b93	0.027982509
206	0xbdc5e240	-0.096622944
207	0xbdd10a6c	-0.10207066
208	0xbd81af19	-0.06332225
209	0x3d863ea0	0.065549135
210	0x3d37db6a	0.044886984
211	0x3d8aa1f6	0.06769173
212	0x3da119f8	0.07866281
213	0x3dbe5e51	0.09295333
214	0x3dca0a8e	0.098652944
215	0x3da2066b	0.079113804
216	0xbcec0abb	-0.02881371
217	0xbd797df6	-0.06091114
218	0x3d97ab47	0.074057154
219	0xbdf3f085	-0.1191111
220	0xbe1e3146	-0.15448484
221	0xbdec34bc	-0.11533496
222	0x3e00ffaf	0.12597536
223	0x3dfec9ca	0.12440832
224	0xbca1e41e	-0.019762095
225	0x3db2f66e	0.08738409
226	0xbd1a917f	-0.037736412
227	0x3da7ff61	0.082030065
228	0x3dfb6916	0.12275903
229	0xbd7b7faa	-0.061401047
230	0xbc1c01da	-0.009521926
231	0xbe26a82e	-0.16275093
232	0x3dbde67d	0.09272478
233	0xbe50b5ef	-0.20381902
234	0x3e1aafd5	0.15106137
235	0x3ccdfdcb	0.025145432
236	0xbe084013	-0.13305692
237	0xbdd9fd2f	-0.10643994
238	0x3c35519e	0.011066822
239	0x3d9407bf	0.0722804
240	0xbd025c9a	-0.031826593
241	0x3d9b4dea	0.0758322
242	0xbdd4be80	-0.103878975
243	0x3d6bebcb	0.057597917
244	0xbdf1e243	-0.11810734
245	0xbda519ef	-0.08061587
246	0x3d8cbef4	0.06872359
247	0x3e0b1657	0.1358274
248	0xbe2b9d09	-0.16759123
249	0x3db2c8eb	0.08729728
250	0x3c7da3cb	0.015480946
251	0xbd253f3e	-0.040343516
252	0x3e389d44	0.18028742
253	0xbe319899	-0.17343368
254	0x3b9983cf	0.0046849023
255	0xbde4f1d7	-0.1117894

input_net.ffn.2.bias f4 [10]
0	0xbbf41110	-0.007448323
1	0x3e0e0cc5	0.13872059
2	0xbdecf2e6	-0.11569767
3	0xbc36a602	-0.011147978
4	0x3e17d520	0.14827394
5	0xb9ec260d	-0.00045041778
6	0xbd8851a6	-0.06656198
7	0xbb0a514a	-0.002110558
8	0x3ddf87e4	0.10914591
9	0x3d969c2c	0.07354006

input_net.layer_norm_self_attn.weight f4 [10]
0	0x3f7e2ae6	0.9928421
1	0x3f799bc0	0.9750328
2	0x3f7f13a4	0.99639344
3	0x3f807960	1.0037041
4	0x3f727a43	0.94717807
5	0x3f82e30f	1.0225543
6	0x3f7c7341	0.98613364
7	0x3f822485	1.0167395
8	0x3f79c76d	0.97569925
9	0x3f7f300c	0.9968269

input_net.layer_norm_self_attn.bias f4 [10]
0	0x3b23572a	0.002492378
1	0x3d0ae340	0.03390813
2	0x3b81ded6	0.0039633317
3	0x3d8056d1	0.06266559
4	0xbce2fbbe	-0.02770793
5	0x3c36cf41	0.011157812
6	0xbcb28355	-0.02179114
7	0x3c4fc387	0.012680895
8	0xbd8795e1	-0.06620384
9	0xbce097b8	-0.027416095

input_net.layer_norm_ffn.weight f4 [10]
0	0x3f7ced79	0.98799855
1	0x3f7549b3	0.9581558
2	0x3f766aa9	0.962565
3	0x3f7ef396	0.9959043
4	0x3f7327c9	0.9498258
5	0x3f8179ef	1.0115336
6	0x3f7adcc3	0.97993106
7	0x3f7e5d0b	0.9936072
8	0x3f78797f	0.9706039
9	0x3f7dea5f	0.99185747

input_net.layer_norm_ffn.bias f4 [10]
0	0x3d2ca1a3	0.042146336
1	0x3d1c742e	0.038196735
2	0x3c31b90d	0.010847342
3	0x3d74f3f9	0.059802983
4	0x39a7f13b	0.00032032453
5	0x3d198c94	0.03748758
6	0x3c07ddf8	0.008292668
7	0x3d818312	0.06323828
8	0xbd6b7dfc	-0.057493195
9	0xbc893d9c	-0.01675301

transformer.layers.0.self_attn.o_proj.weight f4 [10, 10]
0	0xbe7cca74	-0.24686605
1	0x3eea37fa	0.45745832
2	0x3e9a2713	0.30107936
3	0xbe241ca6	-0.16026554
4	0xbdab3d23	-0.0836127
5	0xbf0dfbb4	-0.55462193
6	0xbdd10fdc	-0.10208103
7	0xbeff1498	-0.498204
8	0x3f0f5f8d	0.56005174
9	0x3efc77d7	0.4931018
10	0xbddd4294	-0.108037144
11	0x3efc66ec	0.49297273
12	0x3f08aeff	0.5339202
13	0x3e44670e	0.19179937
14	0xbdde2455	-0.108467735
15	0x3da43d70	0.08019531
16	0xbd382328	-0.044955403
17	0xbec21296	-0.37904805
18	0x3ef56d1b	0.47934803
19	0xbd02b3c2	-0.03190971
20	0x3f022d16	0.50850046
21	0xbe72c92a	-0.2370955
22	0xbe5c74fd	-0.21529002
23	0x3e8e98c5	0.2785093
24	0x3e6d2f7e	0.23162648
25	0x3de54d92	0.11196436
26	0xbe141cbf	-0.14464091
27	0xbf0e9677	-0.5569834
28	0xbe4ff8fe	-0.20309827
29	0xbddb8893	-0.10719409
30	0xbea04848	-0.31305146
31	0xbcdbbfff	-0.02682495
32	0x3b9a14d3	0.0047021895
33	0xbc5fd59b	-0.013661767
34	0xbe07800e	-0.13232443
35	0x3ebba65f	0.3665037
36	0x3d1ae4c7	0.037815835
37	0xbeaca12a	-0.33716708
38	0xbecb91c2	-0.39759642
39	0xbe2204e8	-0.15822184
40	0xbf0147cf	-0.50500196
41	0x3f00b21c	0.50271773
42	0x3ec66382	0.38747793
43	0xbee3e8c8	-0.44513535
44	0x3e145866	0.14486846
45	0x3eb48a9e	0.35262007
46	0xbe86dfca	-0.26342613
47	0xbed5db21	-0.41768745
48	0x3ee3c96d	0.44489613
49	0x3e172e0b	0.14763658
50	0x3ef5cc98	0.48007655
51	0xbe734254	-0.23755771
52	0xbd6e2360	-0.058139205
53	0x3ede23ee	0.43386787
54	0x3e099132	0.13434294
55	0x3d8e56b7	0.06950133
56	0x3ef03046	0.4691183
57	0x3e85a2d8	0.26100802
58	0xbef9d85d	-0.48797885
59	0x3f05551a	0.5208298
60	0xbebaac8f	-0.36459777
61	0xbe0cdebb	-0.1375684
62	0xbee22111	-0.44165853
63	0x3e0642ac	0.13111371
64	0xbf050d44	-0.51973367
65	0xbe82e16a	-0.25562602
66	0x3f089e50	0.53366566
67	0x3e6cfb82	0.23142818
68	0x3ed9f81e	0.4257211
69	0x3e9756ed	0.29558507
70	0xbd43759c	-0.047719583
71	0xbe8d8f0f	-0.27648208
72	0xbefcf66e	-0.4940676
73	0xbdea409c	-0.114381045
74	0xbe9c0b4e	-0.30477375
75	0x3ea782d3	0.32716998
76	0xbe955f89	-0.2917445
77	0xbea2b747	-0.31780455
78	0x3ecd979b	0.40154728
79	0x3dfbb539	0.12290425
80	0x3d6e5b8f	0.058192786
81	0xbefb604f	-0.49096915
82	0xbe7f2b29	-0.24918808
83	0x3f021c5b	0.50824517
84	0xbeadccfa	-0.33945447
85	0x3e952bad	0.29134884
86	0x3e4ad72f	0.19808649
87	0x3e47d80a	0.19516006
88	0xbe9b8210	-0.30372667
89	0xbe450d43	-0.1924334
90	0xbeb86b5d	-0.36019412
91	0xbe0de7fd	-0.13858028
92	0xbeb0400f	-0.34423873
93	0x3ebb02f7	0.365257
94	0x3de4f46d	0.11179433
95	0x3dba977a	0.09110923
96	0xbd2c23c2	-0.04202629
97	0x3d6ba7b5	0.057532985
98	0xbed87a23	-0.42280683
99	0x3d999f65	0.07501105

transformer.layers.0.self_attn.o_proj.bias f4 [10]
0	0x3d29db3f	0.041468855
1	0x3b80dadb	0.0039323396
2	0x3d04340d	0.032276202
3	0x3c8368e9	0.016041236
4	0xbc9f092b	-0.019413551
5	0xbd10138a	-0.035174884
6	0x3babd024	0.005243318
7	0x3d3aced7	0.045607414
8	0xbd7b68e9	-0.061379347
9	0xbd0b9e3a	-0.034086443

transformer.layers.0.self_attn.qkv_proj.weight f4 [30, 10]
0	0x3e2fd647	0.17171584
1	0x3e8ef0bc	0.2791804
2	0xbd55faa7	-0.052240994
3	0xbcad9697	-0.02118997
4	0x3e7e429b	0.24830095
5	0x3d8cc142	0.068727985
6	0xbe2762e7	-0.16346322
7	0x3e924d60	0.28574657
8	0xbe65717c	-0.22406572
9	0x3eaafe3a	0.33397084
10	0x3e2de094	0.16980201
11	0xbeb04fa9	-0.34435776
12	0x3d9c4053	0.07629456
13	0x3e88cd08	0.26718926
14	0x3e90d4ba	0.28287297
15	0xbea5a8f3	-0.3235546
16	0x3e0b82d8	0.13624132
17	0x3d680abc	0.056650862
18	0x3e0b3716	0.13595232
19	0x3ea6b219	0.32557753
20	0x3e80ab67	0.2513077
21	0x3ebf9ac7	0.37422773
22	0x3c4b17b3	0.012395787
23	0x3dfac9d1	0.12245525
24	0xbeb05032	-0.34436184
25	0xbe3970a5	-0.18109377
26	0xbdeb1c9d	-0.11480067
27	0x3eb40438	0.3515947
28	0xbe7e9490	-0.2486136
29	0xbeb88036	-0.36035317
30	0xbe266e28	-0.16252959
31	0xbe9d051a	-0.30667955
32	0x3e8764f8	0.2644422
33	0xbe2212a7	-0.15827428
34	0xbe50ce72	-0.20391253
35	0xbe52a69d	-0.2057137
36	0xbe9e1b5b	-0.30880246
37	0xbe62e303	-0.2215691
38	0xbe92e9bd	-0.28693953
39	0xbe6eb301	-0.23310472
40	0xbdd2e246	-0.102970645
41	0x3dc86c4f	0.09786283
42	0x3e97fd36	0.29685372
43	0x3d948e35	0.07253686
44	0x3e55fa9e	0.20896384
45	0xbe8fc151	-0.28077176
46	0x3e3c373a	0.18380442
47	0xbdb763e2	-0.08954598
48	0xbe961add	-0.2931737
49	0x3dde6f4a	0.108610705
50	0x3df31cbd	0.11870716
51	0x3dc7c757	0.09754818
52	0xbd9622f3	-0.07330885
53	0xbe9fa5a4	-0.3118106
54	0x3d71cc7a	0.059032895
55	0x3d60d50f	0.05489069
56	0xbe36b95b	-0.17844145
57	0xbeb55257	-0.35414383
58	0xbde7524f	-0.11294996
59	0x3d457936	0.0482113
60	0xbddfdd40	-0.10930872
61	0x3e8de5fd	0.2771453
62	0xbeb9856c	-0.36234605
63	0x3e60063e	0.21877381
64	0x3e9da9ed	0.30793706
65	0xbcb0f196	-0.021599572
66	0x3ead081b	0.33795246
67	0xbde211cc	-0.11038551
68	0xbe3aebc3	-0.18253998
69	0x3e6b270e	0.22964117
70	0x3d3bbd07	0.045834567
71	0x3e819dc2	0.25315672
72	0x3b6d7791	0.0036234597
73	0xbd8c266d	-0.06843267
74	0xbe1e41b6	-0.15454754
75	0x3d523e8b	0.051329177
76	0xbeb2868c	-0.34868276
77	0xbe37a02e	-0.17932197
78	0xbeb9a8fd	-0.3626174
79	0xbe94c01d	-0.2905282
80	0x3ead17e2	0.33807284
81	0x3eb947f2	0.36187702
82	0x3d18fc5e	0.03735005
83	0xbdc1e224	-0.09466961
84	0xbdc31f40	-0.09527445
85	0xbe7fb1c0	-0.2497015
86	0xbd3f8ba8	-0.046764046
87	0xbea034b2	-0.31290203
88	0xbea65ba6	-0.32491797
89	0xbea7097b	-0.3262442
90	0xbe25ea91	-0.16202761
91	0xbc5c4f48	-0.0134466365
92	0x3da0d8f2	0.07853879
93	0x3df08909	0.117448874
94	0xbe72e83b	-0.23721401
95	0xbe6780a0	-0.2260766
96	0x3e984618	0.29740977
97	0x3ac0aed3	0.0014700539
98	0xbe653eeb	-0.22387283
99	0x3e58f26f	0.21186231
100	0xbe943305	-0.28945175
101	0x3da06790	0.07832253
102	0x3d84e3b6	0.06488745
103	0xbe24fff2	-0.1611326
104	0x3e25a59c	0.16176456
105	0x3e0c024e	0.13672754
106	0x3dfc091a	0.123064235
107	0x3e0d5961	0.13803627
108	0x3ea8d8c6	0.32977885
109	0xbea7ffa8	-0.32812238
110	0xbeb5295e	-0.35383123
111	0xbd5df94b	-0.054192822
112	0xbeb468f9	-0.35236338
113	0x3e6eb26b	0.23310249
114	0x3eadcfd1	0.33947614
115	0x3bd4d2b6	0.0064948453
116	0xbe4d7428	-0.20063841
117	0x3d015e89	0.031584296
118	0x3dae4f74	0.08511248
119	0x3c2a59c0	0.010397375
120	0xbebe9bec	-0.37228334
121	0xbd0b799c	-0.034051523
122	0x3e7e530c	0.24836367
123	0x3ec1d1dd	0.37855425
124	0x3def2da7	0.11678629
125	0x3d3d2115	0.046174128
126	0xbea0e196	-0.31422108
127	0xbe5679ac	-0.20944852
128	0xbde4d279	-0.11172957
129	0x3dcc516c	0.099764675
130	0x3eaab52b	0.33341345
131	0x3e11e9c5	0.14249332
132	0xbe7b8f5b	-0.24566405
133	0x3defff1d	0.11718581
134	0xbe558a43	-0.20853524
135	0x3e216961	0.15762855
136	0xbe8fb964	-0.2807113
137	0xbda7660b	-0.0817376
138	0xbd7073fd	-0.058704365
139	0x3ce5dce0	0.028059423
140	0xbe6373ab	-0.22212093
141	0xbcc9272b	-0.02455481
142	0xbe1dd1e8	-0.15412104
143	0xbe85c1a2	-0.26124293
144	0xbd84db9f	-0.06487202
145	0x3c03ae78	0.008037202
146	0xbe1e8571	-0.15480591
147	0xbe9aab09	-0.30208614
148	0xbea6dfb9	-0.32592562
149	0xbd30a9a3	-0.04313053
150	0xbd1afcf8	-0.037838906
151	0x3e978cca	0.295996
152	0x3e3c633e	0.18397233
153	0x3d9bcefb	0.07607838
154	0xbdf01ce4	-0.117242604
155	0xbc915cef	-0.01774451
156	0x3e8debf9	0.27719095
157	0x3df6ca74	0.120503336
158	0xbcc666fa	-0.024219025
159	0x3ec247f2	0.37945515
160	0x3eaafaf8	0.333946
161	0x3e198bb4	0.14994699
162	0x3e4ad139	0.19806375
163	0xbe96d0aa	-0.29456073
164	0x3eae464a	0.34038
165	0xbea0fc76	-0.31442612
166	0x3e327063	0.17425685
167	0xbe6acae9	-0.22928967
168	0x3e7d26fc	0.24721903
169	0x3d87211c	0.06598112
170	0xbd946fff	-0.07247924
171	0x3ea88b37	0.32918712
172	0xbe74afab	-0.23895137
173	0xbea4d773	-0.32195625
174	0xbe4656a7	-0.19368993
175	0x3ea30fb8	0.3184793
176	0xbe54aaac	-0.20768231
177	0x3eae6db7	0.3406808
178	0x3e81f911	0.25385335
179	0x3e17a56a	0.14809194
180	0xbdb2bb46	-0.08727126
181	0x3dce8d31	0.10085524
182	0xbe9ec441	-0.31009105
183	0x3e97cf44	0.2965032
184	0xbd9e75d0	-0.07737315
185	0xbe0ac6a3	-0.13552336
186	0x3db2b04e	0.08725034
187	0x3cf0644e	0.029344704
188	0xbe50cc7c	-0.20390505
189	0xbdb7cbb8	-0.08974403
190	0xbd2272c8	-0.039660245
191	0xbda83062	-0.08212353
192	0x3ea08c3c	0.3135699
193	0x3e59281e	0.2120671
194	0x3d30e776	0.04318949
195	0x3c99043b	0.018678775
196	0x3e99db16	0.30049962
197	0x3eb8b7d4	0.3607775
198	0xbd8a96fb	-0.067670785
199	0x3e1e3d15	0.15452988
200	0x3eace4a6	0.33768195
201	0xbdced9f7	-0.10100167
202	0x3cad9bd5	0.02119247
203	0x3e918aaf	0.2842612
204	0x3d775cc6	0.06039121
205	0x3e9160e8	0.28394246
206	0xbe9fd5bf	-0.31217763
207	0xbe591eba	-0.21203128
208	0x3eab4e7b	0.33458313
209	0x3ec2c136	0.38038033
210	0xbe801adf	-0.250205
211	0x3c82bd6f	0.01595947
212	0xbe130596	-0.143576
213	0x3e0f8686	0.1401616
214	0x3d5700c8	0.05249098
215	0x3e672537	0.2257279
216	0x3eb4bc19	0.35299757
217	0xbe999f18	-0.3000419
218	0xbe6e44e1	-0.23268463
219	0x3de49e4b	0.111630045
220	0x3abef036	0.0014567438
221	0x3e8041bb	0.25050148
222	0xbda2d808	-0.07951361
223	0xbc03972c	-0.008031648
224	0xbec60181	-0.38673022
225	0x3c4a60ed	0.0123522105
226	0xbe5a388a	-0.2131063
227	0x3e726180	0.23670006
228	0x3e74d37d	0.23908801
229	0xbe8a529b	-0.27016148
230	0xbcb0cd32	-0.02158222
231	0xbeb343d4	-0.35012686
232	0x3e2fe327	0.17176495
233	0x3e1f4a24	0.15555626
234	0x3da4e003	0.08050539
235	0xbe08e5aa	-0.1336886
236	0x3dce2616	0.10065858
237	0xbeb8034f	-0.35940024
238	0xbe9dedbc	-0.3084544
239	0x3d2d856f	0.04236358
240	0xbeab105f	-0.33410928
241	0xbd1e2955	-0.038613636
242	0xbe010020	-0.12597704
243	0xbe75b184	-0.23993498
244	0x3e3f9358	0.18708551
245	0xbe825941	-0.2545872
246	0x3bdc8b2d	0.0067304582
247	0xbe594e33	-0.21221237
248	0x3e8d4d23	0.27597913
249	0xbe08716d	-0.13324519
250	0xbd7f9b3a	-0.062403895
251	0x3e807ecb	0.25096735
252	0xbe4e4530	-0.2014358
253	0xbe88aa4d	-0.2669243
254	0xbe099ae0	-0.13437986
255	0xbece3623	-0.40275678

transformer.layers.0.self_attn.qkv_proj.bias f4 [30]
0	0x00000000	0.0
1	0x00000000	0.0
2	0x00000000	0.0
3	0x00000000	0.0
4	0x00000000	0.0
5	0x00000000	0.0
6	0x00000000	0.0
7	0x00000000	0.0
8	0x00000000	0.0
9	0x00000000	0.0
10	0x00000000	0.0
11	0x00000000	0.0
12	0x00000000	0.0
13	0x00000000	0.0
14	0x00000000	0.0
15	0x00000000	0.0
16	0x00000000	0.0
17	0x00000000	0.0
18	0x00000000	0.0
19	0x00000000	0.0
20	0xbbe0f532	-0.006865167
21	0x3d2372c0	0.039904356
22	0x3c17119c	0.009220507
23	0xbd7aba94	-0.06121309
24	0x3ae4d80c	0.0017459407
25	0xbd1757e1	-0.036949042
26	0xbd25abb0	-0.040446937
27	0xbd44fc2c	-0.048092052
28	0x3d8c1068	0.06839067
29	0x3d0a5af6	0.033778153

transformer.layers.0.ffn.0.weight f4 [32, 10]
0	0xbdafa6f9	-0.085767694
1	0xbcd4885a	-0.025943924
2	0xbd71b27c	-0.059008107
3	0xbdf5cd3c	-0.12002036
4	0x3dd23833	0.102646254
5	0xbe9b3ba1	-0.3031893
6	0xbd0037bd	-0.031303156
7	0xbe092b88	-0.13395512
8	0x3e8186bd	0.2529811
9	0xbbfb9e07	-0.0076787504
10	0xbe0990cf	-0.13434146
11	0xbc8b4efe	-0.01700544
12	0x3d048b96	0.032359682
13	0xbe072f9e	-0.13201758
14	0xbea6fde1	-0.3261557
15	0x3e75f079	0.24017514
16	0xbe5a8449	-0.21339525
17	0x3ca1b038	0.019737348
18	0x3df69e84	0.12041953
19	0xbe0317ef	-0.12802099
20	0x3ca95659	0.020671057
21	0xbe893480	-0.26797867
22	0xbe3851d5	-0.17999966
23	0x3e88560f	0.26628157
24	0x3eaabbf6	0.33346528
25	0x3e246be5	0.16056783
26	0xbe93a7c7	-0.2883894
27	0xbe6db6bd	-0.2321424
28	0xbe7cf746	-0.24703702
29	0xbcd11c6e	-0.025526252
30	0xbe0ad4a9	-0.13557686
31	0x3ea720bc	0.32642162
32	0xbd88d339	-0.066809125
33	0x3e89b62b	0.26896796
34	0x3d7324ee	0.05936139
35	0xbb7de6f6	-0.00387424
36	0x3e49035d	0.19630189
37	0xbde203b1	-0.1103586
38	0x3e1f1ea1	0.15539028
39	0xbe98e84f	-0.29864737
40	0xbe82ab6f	-0.25521418
41	0x3e887815	0.26654115
42	0x3e7812c7	0.24225913
43	0x3e18d2c7	0.14924155
44	0xbe3160cd	-0.17322083
45	0xbc8360a8	-0.0160373
46	0x3d177307	0.036974933
47	0xbe866b0d	-0.26253548
48	0x3e349ba0	0.17637491
49	0x3e519b75	0.20469458
50	0xba2918ff	-0.0006450563
51	0xbcf817ed	-0.030284846
52	0x3e29270d	0.16518803
53	0xbe719083	-0.23590283
54	0x3ec0a035	0.37622228
55	0xbdb418e3	-0.08793809
56	0xbe37e5a8	-0.179587
57	0x3e33b834	0.17550737
58	0x3d922fea	0.07138045
59	0x3ca991af	0.02069935
60	0x3e6d4631	0.23171307
61	0x3d92f05f	0.071747534
62	0x3dd37b6a	0.10326274
63	0xbe64ce6b	-0.22344367
64	0xbe9d8bf1	-0.3077083
65	0x3d944e71	0.07241524
66	0xbcb946e3	-0.02261681
67	0xbe51402f	-0.2043464
68	0xbde92f0d	-0.11385927
69	0x3d9a7048	0.07540947
70	0x3e8da13f	0.27662084
71	0xbdbe7d38	-0.09301227
72	0x3cf3962f	0.029734699
73	0x3e110c5e	0.14164874
74	0x3e92fa8f	0.28706786
75	0x3d324a56	0.043527924
76	0xbe8de1ab	-0.27711233
77	0xbdbcf728	-0.09226829
78	0xbe5b22e5	-0.2140003
79	0xbe929604	-0.28630078
80	0xbdffa993	-0.124835156
81	0xbe4b7c6c	-0.19871682
82	0xbddb4e1c	-0.107082576
83	0xbe8043ed	-0.25051823
84	0xbe1d0c57	-0.15336739
85	0x3d6a79e5	0.057245154
86	0xbe249b1c	-0.16074795
87	0xbdf86e37	-0.12130397
88	0xbe48134c	-0.19538611
89	0xbdf828d4	-0.12117162
90	0xbe11440c	-0.14186114
91	0xbdb0d0e2	-0.08633591
92	0x3d413996	0.04717406
93	0xbd4556fc	-0.048178658
94	0x3dbd8b28	0.092550576
95	0xbd099bc4	-0.033595815
96	0x3e89446c	0.26810014
97	0xbdf90e29	-0.12160904
98	0xbe6af068	-0.2294327
99	0xbe59cc54	-0.21269351
100	0x3e00d078	0.12579525
101	0xbe2fdd7b	-0.17174332
102	0x3e02df0a	0.12780395
103	0x3d5824b2	0.05276937
104	0x3e3f2e80	0.18670082
105	0x3dc25deb	0.0949057
106	0x3b9e531a	0.004831684
107	0xbd207870	-0.03917736
108	0x3e6c4551	0.23073317
109	0x3e41256a	0.18861929
110	0xbe57be1a	-0.21068612
111	0xbe26ad76	-0.16277108
112	0x3e77bbb1	0.24192692
113	0x3e523e73	0.20531635
114	0xbe019d62	-0.12657693
115	0x3af3ac78	0.0018590828
116	0x3e952197	0.2912719
117	0x3d992fde	0.07479833
118	0x3c8850be	0.016640063
119	0x3e7cdf4e	0.24694559
120	0xbbac8f16	-0.0052660806
121	0xbe270dd0	-0.16313863
122	0x3e021f92	0.12707356
123	0x3e87ec81	0.26547626
124	0x3e591401	0.21199037
125	0x3da2728c	0.07932004
126	0xbd85c829	-0.06532318
127	0x3e46f314	0.19428664
128	0xbe4c5dfb	-0.19957726
129	0xbe977d4f	-0.2958779
130	0xbdb55d89	-0.08855731
131	0x3e15e41a	0.14637795
132	0xbc9a8a25	-0.0188647
133	0xbdff681b	-0.124710284
134	0x3e09fa0a	0.13474289
135	0xbdcad462	-0.0990379
136	0xbe9a3fc1	-0.30126765
137	0xbe356675	-0.17714866
138	0x3d171f59	0.03689513
139	0x3d8094ad	0.06278358
140	0xbe56eec0	-0.20989513
141	0x3ea58d49	0.32334355
142	0x3b803b1a	0.0039132955
143	0x3bb0c50d	0.005394584
144	0xbe8d1b74	-0.27560008
145	0xbc970b4c	-0.018438004
146	0x3d5ffa60	0.054682136
147	0x3e427a97	0.18992077
148	0xbe91d107	-0.28479788
149	0x3d9c0840	0.07618761
150	0x3e2fb67f	0.1715946
151	0xbe918d5f	-0.2842817
152	0x3e0c77bf	0.13717555
153	0x3e1930d2	0.1496003
154	0x3e3a69fd	0.18204494
155	0x3dbbf961	0.091784246
156	0x3e72a2ef	0.23694967
157	0x3e67dbcb	0.22642438
158	0xbd9f62ad	-0.07782493
159	0xbdacbe42	-0.08434726
160	0x3e4b8c84	0.19877821
161	0x3dc9f9bd	0.09862087
162	0x3e8487a1	0.25884727
163	0xbd075a60	-0.033045173
164	0x3e9e2182	0.3088494
165	0x3e5ca824	0.21548516
166	0xbe90ff81	-0.28319934
167	0x3d0fefe2	0.03514088
168	0xbe85ad09	-0.26108578
169	0x3e71d58e	0.23616621
170	0x3e15a6ac	0.14614362
171	0x3c998e90	0.018744737
172	0xbe3a2f98	-0.18182218
173	0x3dc11c64	0.09429243
174	0x3dfecd20	0.12441468
175	0xbe5475a2	-0.20747998
176	0x3d0ae660	0.03391111
177	0xbc44bf41	-0.012008489
178	0xbe32d181	-0.17462732
179	0x3e81a339	0.25319842
180	0x3e118104	0.14209372
181	0x3e92ea4b	0.28694376
182	0xbd57957a	-0.052632786
183	0xbe1437cf	-0.14474414
184	0xbe5a9ca9	-0.21348824
185	0xbe9ae853	-0.30255374
186	0x3e6d9da4	0.23204666
187	0xbe7425e6	-0.23842582
188	0xbd055714	-0.032553747
189	0xbe1023cc	-0.14076155
190	0xbe885f9e	-0.2663545
191	0xbe063924	-0.13107735
192	0xbe42f870	-0.19040084
193	0x3e0e5af4	0.13901883
194	0x3ddb4c8e	0.10707961
195	0xbe9bff8d	-0.30468407
196	0xbe7b0c4a	-0.24516407
197	0xbe43c295	-0.19117196
198	0x3c438021	0.011932404
199	0xbe8ea325	-0.27858844
200	0x3de9d12e	0.11416851
201	0x3cdcf8ec	0.026974164
202	0xbea5cc42	-0.323824
203	0xbacddb0e	-0.0015705542
204	0x3da22756	0.07917659
205	0x3e1d4154	0.15356952
206	0x3da35501	0.079751976
207	0x3b35da81	0.0027748647
208	0xbe0f8bfe	-0.14018247
209	0x3c4773d0	0.012173608
210	0x3dfe7254	0.1242415
211	0xbd59fd16	-0.053219877
212	0x3e5ba5be	0.21449944
213	0x3e6fb36d	0.23408289
214	0xbdc6c0b2	-0.097047225
215	0x3e4ce2a6	0.20008335
216	0xbde73dc1	-0.112910755
217	0xbe959bbd	-0.2922038
218	0x3da8a1b1	0.08233965
219	0xbdc87401	-0.09787751
220	0xbd2ad68a	-0.041708507
221	0x3d4440b5	0.047913272
222	0xbea01931	-0.3126922
223	0xbdf3cf45	-0.11904768
224	0xbe92108e	-0.28528255
225	0xbe654fc4	-0.2239371
226	0x3e3df7a8	0.18551505
227	0xbe893fa3	-0.26806363
228	0x3dd1542a	0.10221131
229	0xbd536002	-0.051605232
230	0xbe67a166	-0.22620162
231	0x3dad8625	0.08472852
232	0x3e7c95cf	0.24666522
233	0x3e069747	0.13143645
234	0xbd2df331	-0.042468254
235	0xbe84e3e2	-0.2595511
236	0x3e83279a	0.2561615
237	0xbeab2254	-0.33424628
238	0x3e0f404d	0.13989373
239	0x3e0268f4	0.12735349
240	0xbe05d46e	-0.13069317
241	0x3e446f05	0.19182976
242	0xbc98729b	-0.018609336
243	0xbc0fe4e0	-0.008782595
244	0xbd022a0a	-0.031778373
245	0xbe0cdcac	-0.13756055
246	0xbebce2b9	-0.36891726
247	0xbdf1196b	-0.11772426
248	0xbe9c5015	-0.30529848
249	0xbe2d0ede	-0.16900203
250	0xbe8165c7	-0.25272962
251	0x3dc57531	0.09641493
252	0x3e41005b	0.18847792
253	0xbe901d0b	-0.28147158
254	0xbe03a336	-0.12855229
255	0xbe326662	-0.17421868

transformer.layers.0.ffn.0.bias f4 [32]
0	0xbe110a0e	-0.14163992
1	0xbc870182	-0.016480211
2	0xbd7df5e0	-0.062002063
3	0xbe36778e	-0.17819044
4	0xbd2cdff9	-0.042205784
5	0x3e30d0f5	0.17267211
6	0xbe8c0318	-0.2734611
7	0xbe8904a3	-0.2676135
8	0xbe96b9ce	-0.29438633
9	0x3dd6ff5d	0.104979254
10	0xbe5ea2e8	-0.21741831
11	0xbddeaa5d	-0.10872338
12	0xbe453bdd	-0.19261117
13	0xbc3a71ce	-0.011379672
14	0xbe790be6	-0.24320945
15	0x3b36e881	0.002790958
16	0x3dcb1008	0.09915167
17	0xbe34d15b	-0.17657988
18	0xbe847b44	-0.25875294
19	0xbe6a1f76	-0.22863564
20	0xbe210404	-0.15724188
21	0x3e50a77e	0.20376393
22	0x3df61ad2	0.12016834
23	0x3d043558	0.032277435
24	0x3e9cc715	0.30620638
25	0x3dac1fc0	0.08404493
26	0xbe1d906b	-0.15387122
27	0xbe8a3d63	-0.2699996
28	0x3e453cd7	0.1926149
29	0x3da71f9a	0.081603244
30	0x3dfa6e47	0.12228065
31	0x3ec09aa9	0.37617996

transformer.layers.0.ffn.2.weight f4 [10, 32]
0	0xbdae81c5	-0.08520845
1	0x3d364c78	0.04450652
2	0x3dc0662a	0.09394486
3	0xbe22dd2b	-0.15904681
4	0xbd7fccc4	-0.06245114
5	0x3dfc903b	0.12332197
6	0xbd68bbbd	-0.056819666
7	0x3db38066	0.087647244
8	0x3dbc0edd	0.091825224
9	0xbd25b94f	-0.040459927
10	0x3db176b7	0.08665221
11	0xbd70d4db	-0.058796745
12	0xbcc1090c	-0.023563884
13	0xbde94562	-0.11390187
14	0xbcf7e19e	-0.03025895
15	0x3dcbc62e	0.09949909
16	0x3e15ed85	0.14641388
17	0x3dba47b2	0.09095706
18	0xbd03cffd	-0.032180775
19	0x3e1ff5ff	0.15621184
20	0xbdc3197f	-0.09526347
21	0x3d8a9641	0.0676694
22	0x3dc8194a	0.097704485
23	0x3d93590d	0.071947195
24	0x3dbef67c	0.09324357
25	0x3e22aad9	0.15885486
26	0xbdf52b27	-0.11971121
27	0x3df43152	0.119234696
28	0x3dda01e8	0.10644895
29	0x3dcf13fe	0.10111235
30	0x3c781e14	0.01514389
31	0xbd8063fa	-0.06269069
32	0xbe12dd9a	-0.14342347
33	0x3ced3f7e	0.02896094
34	0xbd592571	-0.053014223
35	0xbe22765f	-0.15865467
36	0xbd75c6a5	-0.060003895
37	0xbddb4d8a	-0.10708149
38	0xbcffc6d6	-0.031222742
39	0xbda4ce99	-0.08047218
40	0x3dde11b9	0.10843224
41	0x3e0824e8	0.13295329
42	0x3dd1b438	0.10239452
43	0xbdbcda7c	-0.0922136
44	0xbd9eef45	-0.07760481
45	0xbde9d92d	-0.11418376
46	0xbd570cfb	-0.052502614
47	0x3e38c445	0.18043621
48	0x3d9f1722	0.07768084
49	0xbcdad1ee	-0.02671143
50	0xbbb534bb	-0.0055299676
51	0x3e242678	0.160303
52	0x3e36209e	0.1778588
53	0x3df83d7e	0.12121104
54	0x3ce56382	0.02800155
55	0xbc3878e8	-0.011259295
56	0xbd684680	-0.05670786
57	0x3e136f33	0.14397888
58	0x3cb1db6f	0.02171108
59	0x3b8be972	0.004269772
60	0x3df0fa02	0.11766435
61	0x3e1c1390	0.15241838
62	0xbe38a6a4	-0.18032318
63	0xbe33db83	-0.17564206
64	0xbc989727	-0.018626763
65	0x3d5ffb78	0.05468318
66	0x3cc7ba9f	0.02438098
67	0x3c35c339	0.011093908
68	0xbc95d351	-0.01828924
69	0x3dfac9d8	0.1224553
70	0xbe08b9e2	-0.13352159
71	0x3cf6dd72	0.03013489
72	0xbd9ce5f6	-0.07661049
73	0x3de355d0	0.11100352
74	0xbd78fdc5	-0.06078889
75	0xbe0c54f2	-0.13704279
76	0xbdaa83cb	-0.08325919
77	0x3e211dfd	0.15734096
78	0xbd3249a5	-0.043527264
79	0x3d427010	0.047470152
80	0x3e4a230c	0.19739932
81	0x3a28c3bc	0.0006437858
82	0xbe2bdc16	-0.16783175
83	0xbd2f7a1b	-0.04284106
84	0x3dd6d77c	0.10490319
85	0x3cba92a3	0.022775
86	0xbe29fce0	-0.1660037
87	0x3d1d43cf	0.038394745
88	0x3e2d025e	0.16895434
89	0x3dc0916a	0.094027355
90	0xbe06c49a	-0.13160935
91	0xbdc8b611	-0.098003514
92	0xbe6860c5	-0.22693165
93	0xbd36b28b	-0.044603866
94	0x3d0e262c	0.034704372
95	0x3e231b51	0.15928389
96	0x3d8ab46e	0.067726955
97	0x3e30242b	0.17201297
98	0xbde4b28f	-0.1116687
99	0xbe1a4159	-0.1506399
100	0x3e2ae3ff	0.16688536
101	0xbde84d67	-0.11342888
102	0xbdf9e7e8	-0.12202436
103	0x3cb6119f	0.0222252
104	0x3d4a15b6	0.04933711
105	0x3d55ecde	0.052227847
106	0x3d7ac103	0.061219227
107	0x3e2244d7	0.15846573
108	0xbe3442d7	-0.17603622
109	0xbe200510	-0.15626931
110	0x3df8477d	0.1212301
111	0xbd501b6d	-0.050807405
112	0xbcaccc4b	-0.021093508
113	0x3de1fe5f	0.110348456
114	0x3e1f5bf9	0.15562429
115	0xbdf74bbe	-0.120749936
116	0x3dfb03fb	0.122566186
117	0x3989a1b2	0.0002625115
118	0xbc6d26e8	-0.014474608
119	0xbda72146	-0.08160643
120	0xbd020c50	-0.031750023
121	0x3e39c8cc	0.18143004
122	0x3d64d62c	0.055868313
123	0xbd3a0eb0	-0.045424163
124	0xbe3c338c	-0.18379039
125	0xbd93368c	-0.07188138
126	0x3c404f7f	0.011737703
127	0xbc8159a3	-0.015789812
128	0x3e004069	0.1252457
129	0xbc48adcc	-0.012248468
130	0xbcb47407	-0.022027982
131	0x3df0b230	0.117527366
132	0x3dc091f5	0.09402839
133	0xbdb40784	-0.08790496
134	0x3e0bbd35	0.13646396
135	0x3de84941	0.11342097
136	0xbe03dafd	-0.12876506
137	0x3d50aa62	0.05094374
138	0xbc328ba9	-0.010897555
139	0xbe315db0	-0.17320895
140	0xbe0bb60d	-0.13643666
141	0xbd37bd23	-0.04485811
142	0xbdd8f7d5	-0.10594145
143	0xbe060a0e	-0.13089773
144	0xbe32e26c	-0.17469186
145	0x3d26b59f	0.04070055
146	0x3e435aa9	0.19077553
147	0xbe1efb01	-0.15525438
148	0xbdb54359	-0.08850736
149	0x3e0c7120	0.13715029
150	0x3dd699d3	0.104785584
151	0x3b115b52	0.0022179675
152	0xbe68d291	-0.22736575
153	0xbcf78544	-0.030214913
154	0xbbbef653	-0.005827704
155	0x3da6699b	0.081256114
156	0xbd8fce24	-0.0702174
157	0xbc3ac4eb	-0.011399488
158	0xbe1a849b	-0.15089647
159	0xbdea776a	-0.11448558
160	0xbd5d8cc8	-0.054089338
161	0xbd5482c9	-0.05188254
162	0x3d97dffd	0.07415769
163	0xba3efd50	-0.00072856713
164	0x3d4e3442	0.050342806
165	0x3ca37702	0.019954208
166	0xbd465737	-0.04842302
167	0x3d58fe27	0.052976754
168	0xbe058396	-0.13038477
169	0xbd55d6ea	-0.05220691
170	0xbdcef04c	-0.10104427
171	0x3e4d2836	0.2003487
172	0x3dd3166a	0.103070095
173	0xbcbc754d	-0.023005152
174	0x3e4a389a	0.19748154
175	0xbdc5e8bd	-0.09663532
176	0x3dd3adbb	0.10335871
177	0xbcdb8a5b	-0.026799371
178	0xbd8bb7b7	-0.0682215
179	0x3e287f67	0.1645485
180	0x3d05fe86	0.032713436
181	0xbd01ee30	-0.031721294
182	0x3dda8d54	0.106714875
183	0x3e2133e1	0.15742446
184	0x3d9fecab	0.07808813
185	0xbdb236b8	-0.08701843
186	0x3da12798	0.0786888
187	0xbd25330d	-0.04033189
188	0x3d47b062	0.048752196
189	0x3d0210ce	0.031754307
190	0x3e0c7172	0.13715151
191	0xbdbf4b88	-0.09340578
192	0xbdf38467	-0.11890488
193	0xbde99ac2	-0.11406471
194	0x3e5e8cb7	0.21733366
195	0x3dc8a653	0.09797349
196	0xbde2ac1f	-0.11067986
197	0xbc3281d2	-0.010895209
198	0x3db4c09d	0.088258006
199	0x3e52958d	0.20564862
200	0xbdb315d0	-0.08744395
201	0x3dfb4f1c	0.12270948
202	0xbcf2700b	-0.029594442
203	0x3e23acef	0.15983938
204	0xbce80245	-0.028321395
205	0x3e2f5c2d	0.17125006
206	0x3dd522f3	0.10407057
207	0xbd6a747e	-0.05724
208	0x3e14f757	0.14547478
209	0x3dc55828	0.09635955
210	0xbe12ce14	-0.14336425
211	0xbd07d263	-0.033159625
212	0xbddeca57	-0.10878437
213	0x3e4931b8	0.19647872
214	0xbda22d6c	-0.0791882
215	0x3c373127	0.011181152
216	0xbbbb9cfd	-0.0057255016
217	0xbdf4f3df	-0.11960577
218	0x3e0f2cee	0.13981983
219	0xbda6d688	-0.08146387
220	0x3dc9abea	0.09847243
221	0xbd3b4338	-0.0457184
222	0x3e4b9be4	0.19883686
223	0x3d2f9d93	0.042874884
224	0x3e367204	0.17816931
225	0xbd800f63	-0.06252935
226	0x3db9c581	0.09070874
227	0x3e467464	0.19380337
228	0x3d547210	0.05186659
229	0xbd30454d	-0.04303484
230	0xbdf49dc1	-0.11944152
231	0x3d373d0f	0.044735964
232	0x3e34de91	0.17663027
233	0xbd387804	-0.04503633
234	0xbdd21717	-0.1025831
235	0xbe13c94d	-0.14432259
236	0x3da373a3	0.0798104
237	0x3de495aa	0.11161359
238	0xbd6ae990	-0.05735165
239	0x3cce1b81	0.0251596
240	0x3dccec26	0.10005979
241	0xbb98bb8d	-0.0046610297
242	0x3bb2c7ca	0.0054559456
243	0x3df9abbf	0.12190961
244	0xbe460523	-0.19337897
245	0xbdf98495	-0.12183491
246	0x3acb2d64	0.0015501198
247	0xbdfcbe36	-0.12340967
248	0x3e3df588	0.18550694
249	0xbdd9ee20	-0.10641122
250	0x3d2a3e9d	0.04156362
251	0xbd991405	-0.074745215
252	0xbd2b70ad	-0.041855503
253	0x3e27878d	0.16360302
254	0x3e207848	0.15670884
255	0x3e0b6ef1	0.1361654
