semester3/advanced_DL/practice/03-best_model.pt (torch, 3623 bytes, 2 tensors)

lin.weight f4 [10, 64]
0	0xbdaca908	-0.08430678
1	0x3bcaf1e3	0.006193386
2	0xbd9981ef	-0.07495486
3	0x3f08796e	0.53310287
4	0xbd8fbbe4	-0.07018259
5	0xbf624f72	-0.88402474
6	0xbf27fcba	-0.65620005
7	0xbc44149d	-0.011967805
8	0xbd99f22e	-0.07516895
9	0xbe8b50ac	-0.27209985
10	0x3e2a06da	0.16604176
11	0x3f1ee576	0.6206888
12	0x3f1133a5	0.5671943
13	0x3f68dcde	0.90962017
14	0xbe6bf2f4	-0.23041898
15	0xbd84c97f	-0.06483745
16	0xbdf5968d	-0.11991606
17	0x3eaf56a5	0.34245792
18	0x3f4558f0	0.7708883
19	0xbe99a3fe	-0.3000793
20	0xbfc52927	-1.5403184
21	0x3fa14302	1.2598574
22	0x3eed42ea	0.46340114
23	0x3aab68a5	0.0013077451
24	0x3c2cc540	0.010545075
25	0x3f594400	0.84869385
26	0x3f40a087	0.75244945
27	0xbfbc1aed	-1.4695717
28	0xc0328f1c	-2.7899847
29	0xbd751383	-0.05983306
30	0x3f806854	1.0031838
31	0x3de9a748	0.114088595
32	0x3d9b4058	0.07580632
33	0x3f88c5cc	1.0685363
34	0x3f855925	1.041783
35	0xbfe01d58	-1.7508955
36	0xc01fc869	-2.496607
37	0xbe2f45c7	-0.17116462
38	0x3f4f814a	0.81056654
39	0xbdb4502a	-0.088043526
40	0x3d98cfca	0.074615076
41	0x3e844549	0.2583411
42	0x3fcf6aae	1.6204431
43	0xbf6608e1	-0.898573
44	0xbf9f3b24	-1.2439923
45	0x3ec1b523	0.3783351
46	0x3f035441	0.51300436
47	0x3d89fd9e	0.06737827
48	0xbac269d2	-0.0014832562
49	0xbe81227b	-0.2522162
50	0x3f3bd170	0.7336645
51	0x3e153fd5	0.14575131
52	0x3f08e591	0.5347529
53	0x3f3f5e28	0.74753046
54	0xbed612d4	-0.4181124
55	0xbda87319	-0.08225078
56	0x3d03b06d	0.032150675
57	0xbcc3775b	-0.023860624
58	0xbeaee9a4	-0.3416263
59	0x3f05eb1c	0.52311873
60	0xbe048e6e	-0.12944958
61	0xbebdab95	-0.3704497
62	0xbe86a3e2	-0.26296908
63	0xbde220d4	-0.11041418
64	0x3d9bec46	0.07613425
65	0xbe65c0dc	-0.22436851
66	0xbf02ba57	-0.5106558
67	0x3d89d441	0.06729937
68	0xc026fd0d	-2.609195
69	0x3f99014c	1.1953521
70	0xbd669763	-0.056296717
71	0xbd94c457	-0.07264011
72	0x3d801e24	0.06255749
73	0xbf98f4f9	-1.194976
74	0xc0154f50	-2.3329659
75	0xbecbbf20	-0.39794254
76	0x3f45a1a2	0.7719976
77	0x3b4461e5	0.0029965576
78	0xbf5eb926	-0.87001264
79	0xbd51e565	-0.05124416
80	0xbcf0fba8	-0.029416874
81	0x3e86af71	0.26305726
82	0xbe883c59	-0.26608542
83	0x405cb8f9	3.4487898
84	0x402388a2	2.5552144
85	0xbe8a16ae	-0.26970428
86	0xbec89d84	-0.39182675
87	0xbd3dcfc6	-0.046340726
88	0x3d9c3ac6	0.07628398
89	0x3e401a4f	0.18760036
90	0x3eed77ad	0.46380368
91	0x3fb05604	1.377625
92	0x3f2cd97e	0.67519367
93	0x3ebd8b2d	0.37020245
94	0xbedd2825	-0.4319469
95	0x3d2f1e21	0.042753343
96	0x3ca24ad8	0.019811079
97	0xbdc55b7a	-0.096365884
98	0x3e85b356	0.26113385
99	0xbeadeec0	-0.33971214
100	0x3ef93859	0.48675802
101	0x3d6fa632	0.058508106
102	0xbf83e62d	-1.0304619
103	0x3d9e8174	0.07739535
104	0x3d4a33a7	0.049365666
105	0xbf5ab185	-0.85427123
106	0xbedbf19c	-0.4295777
107	0x3f6b8a16	0.9200758
108	0x3f609f1d	0.8774279
109	0xbf95fbae	-1.1717432
110	0xbfe620ee	-1.7978799
111	0xbdc0c3ec	-0.09412369
112	0xbd750105	-0.059815425
113	0xbefc31e2	-0.49256808
114	0xbef8245c	-0.4846524
115	0x3f133534	0.57503057
116	0x3f9902ba	1.1953957
117	0xbe779bf5	-0.24180587
118	0xbf4c0589	-0.79695946
119	0x3f19827e	0.5996474
120	0xbd1d0613	-0.03833587
121	0xbe3f0561	-0.18654396
122	0xbf7bf079	-0.9841381
123	0xbebf2800	-0.37335205
124	0x3e9f734f	0.3114266
125	0x3fad1473	1.3521866
126	0x3f75c02c	0.95996356
127	0x3f9a64d5	1.2062021
128	0x3c3ec930	0.0116446465
129	0x3d1acd59	0.03779349
130	0x3f3df97d	0.74208814
131	0x3ea119e6	0.3146507
132	0x3de4cc55	0.11171786
133	0xbe8f2888	-0.2796061
134	0xbe49d035	-0.19708331
135	0xbda248ca	-0.0792404
136	0xbdc7b66c	-0.09751591
137	0x3f6c8ad7	0.9239935
138	0x3f005f5b	0.501455
139	0xbe8738cf	-0.2641053
140	0x3f9013a1	1.125599
141	0xbe9b4d28	-0.30332303
142	0x3ce18023	0.02752692
143	0x3b37878a	0.0028004372
144	0x3dd005ea	0.10157378
145	0xbe1d0d71	-0.15337159
146	0xbf6476cd	-0.89243776
147	0xbf98467c	-1.189651
148	0x3f304ef7	0.6887049
149	0x3d587674	0.05284734
150	0x3e871c7a	0.26388913
151	0xbd957f21	-0.072996385
152	0xbde43cdd	-0.11144421
153	0xbf353e16	-0.7079786
154	0xc03c2bd2	-2.9401746
155	0xc02de578	-2.7171307
156	0xbec76230	-0.389421
157	0xbcd697f9	-0.026195513
158	0xbd4d070a	-0.05005554
159	0x3db3cd58	0.087794006
160	0xbddb5402	-0.107093826
161	0xbf1e5dc2	-0.61861813
162	0xbffb0f38	-1.9614019
163	0xbf34ae38	-0.70578337
164	0xbdc390fc	-0.09549138
165	0xbfcbc3af	-1.5919093
166	0xbf87d747	-1.0612572
167	0xbc425f10	-0.011863485
168	0xbdc4e424	-0.09613827
169	0x3e02961c	0.12752575
170	0x3ee9dd32	0.4567657
171	0x40176ec5	2.3661358
172	0xbf84c14c	-1.037149
173	0xc010af80	-2.2607117
174	0xbf699edd	-0.9125803
175	0xbd8dc281	-0.06921864
176	0xbd85322e	-0.06503712
177	0x3f078625	0.52939063
178	0x3f58663b	0.8453099
179	0x40162117	2.3457696
180	0x3fcde752	1.6086218
181	0x3fca6abc	1.5813823
182	0x3f507ab3	0.81437224
183	0x3e5d8908	0.21634305
184	0xbd3a00ea	-0.045411028
185	0x3e50ed6f	0.20403074
186	0x3f53a43d	0.8267248
187	0x3e9a8ad1	0.30184034
188	0x3efce25a	0.49391443
189	0x3ff98836	1.9494693
190	0x3ffb3d46	1.9628074
191	0x3f210de1	0.629118
192	0x3d8f9212	0.070102826
193	0x3e1cfb66	0.15330276
194	0x3d83b836	0.0643162
195	0x3f13514d	0.5754593
196	0x4002fc68	2.0466557
197	0x3f830fde	1.0239217
198	0x3dc0004a	0.09375055
199	0xbe129a6a	-0.14316717
200	0x3b9d75d8	0.004805308
201	0x3f171196	0.5901121
202	0x3f11ea28	0.5699792
203	0xbe22cbb5	-0.1589802
204	0x3e68f431	0.22749402
205	0x3f85c828	1.0451708
206	0x3f4ec5fa	0.8077084
207	0x3d8e671e	0.06953262
208	0x3bbda490	0.0057874396
209	0x3d6cd78a	0.05782274
210	0xc0281e68	-2.6268559
211	0xc005b17e	-2.0889583
212	0x3f87830c	1.0586867
213	0xbf6019d4	-0.8753941
214	0xbe675cdb	-0.22594015
215	0xbdff6ca1	-0.12471891
216	0xbcd5e1ea	-0.0261087
217	0xbf1f2db0	-0.6217909
218	0xc01e6a4b	-2.4752376
219	0xbe810f63	-0.25207052
220	0x3f998240	1.1992874
221	0xc016b2a9	-2.3546546
222	0xbfa145ac	-1.2599387
223	0xbdd6227a	-0.10455795
224	0xbd25cf1c	-0.040480718
225	0xbf0484da	-0.51765215
226	0xbf962255	-1.1729227
227	0xbdc0ea65	-0.09419707
228	0x3faf78b7	1.3708714
229	0x3c17b9cc	0.009260606
230	0xbe441df1	-0.19152047
231	0xbae53e00	-0.0017489791
232	0xbdb0eab3	-0.08638515
233	0xbe2fd67f	-0.17171668
234	0xbfc88200	-1.5664673
235	0xc019d1d4	-2.403432
236	0x3e4cf0e0	0.20013762
237	0x3fcfbb2a	1.6228993
238	0x3fbd94c0	1.481102
239	0x3d0b61c6	0.03402879
240	0x3ddded38	0.108362615
241	0xbb065b34	-0.0020501139
242	0xbe83280f	-0.256165
243	0xbf6f4757	-0.9346823
244	0x3e8c8a61	0.27449325
245	0x3f567ea8	0.8378701
246	0x3faa7666	1.3317382
247	0xbde24dc5	-0.110499896
248	0x3c3afe8b	0.011413227
249	0x3e5e0631	0.2168205
250	0x3f6c5f41	0.92332846
251	0x3f3a7f3f	0.7285041
252	0x3eec9e89	0.46214703
253	0x3e8b7122	0.2723475
254	0xbe2f68fd	-0.17129894
255	0xbee52d33	-0.44761047

lin.bias f4 [10]
0	0xbda38478	-0.07984251
1	0xbf7e11eb	-0.9924609
2	0xbc848b39	-0.016179668
3	0x3ece3c96	0.40280598
4	0x3f69c8b6	0.91321886
5	0xbd672072	-0.056427427
6	0xbdef675d	-0.11689637
7	0x3eadbbaf	0.33932254
8	0xbe8191c2	-0.25306517
9	0xbe9823ae	-0.2971472
