semester3/advanced_DL/practice/best_model.pt (torch, 107231 bytes, 4 tensors)

i2o.weight f4 [18, 180]
0.48410258 2.1815033 -1.4044125 0.7292721 -5.830782 1.2185363 -1.3541193 0.39155373
0.18244539 -0.5816863 -2.3424115 -0.9572313 0.2581874 -1.8300827 -5.2521877 -2.1187117
-0.2216598 0.093182966 0.35140973 -4.17724 -3.3984 -6.369696 -2.0218458 -1.4212735
0.039298512 -0.25367758 -0.05674028 -0.072009586 0.023505615 0.054364566 0.061911367 0.00096773746
0.029908681 -0.025786428 0.03234056 0.009477561 -0.068150714 -0.027504994 -0.041558128 0.046764962
-0.20883338 0.0058436366 0.0064196107 -0.03947651 0.014129364 0.023839436 0.022249566 -0.014079561
0.0141036585 -0.067657426 0.073380835 -0.03117892 0.01749299 0.06730867 0.021767356 -0.03753501
-0.058589112 0.05264631 -0.039494257 -0.011890561 0.043080218 0.10994666 0.7908214 0.107819214
0.04414881 -0.28641748 0.027719986 0.0039666505 -0.35082528 0.049606346 -0.074952945 -0.038892597
-0.022211473 0.0017885023 -0.056705285 -0.049928892 -0.12406519 -0.05426267 0.18397157 -0.03357061
-0.32796437 0.059141245 -0.11341907 -0.08548323 0.2634292 -0.058668695 -0.03745252 0.032998696
0.016245592 0.002995448 -0.013176161 -0.0068681077 0.10197567 0.04057244 -0.27110147 0.024525505
-0.48651883 -0.058239244 -0.084753916 0.00063610764 0.044746738 0.04116478 -0.54995793 0.0035681475
-0.010193149 -0.1085556 -0.4811571 -0.033567004 0.05712294 -0.020109512 1.3261415 -0.048306443
0.058294743 -0.04949184 -0.06860306 -0.05899707 0.017811142 0.059395 -0.0029642507 -0.06752241
0.07739751 -0.08101739 0.08571187 -0.007442744 0.07529274 0.04487702 0.048667032 -0.07025318
0.070209324 -0.12794802 0.060596615 0.115697816 -0.06298979 0.48133525 0.014674771 0.08679773
-0.03001902 -0.07873905 0.15640162 0.013896036 0.062733255 0.043440845 0.06621865 0.02896921
0.00934936 -0.08222847 0.06553713 -0.05301854 -0.014143089 0.050403796 0.5112017 0.07534294
0.05321963 0.30599687 -0.046279766 -0.016250089 -0.042857297 0.73914 0.05746226 0.052517828
0.021502221 -0.08544028 0.29837972 0.08985133 0.09311611 0.064287424 -0.105152495 0.7545223
-0.22182289 0.109528944 -0.031095041 0.23376612 0.07272657 0.06972957 0.013067348 -0.0033324647
0.042366326 0.0069751255 -0.010643372 0.002857742 -2.8044639 -3.5810413 -1.0058804 -4.5562325
-0.8880129 -3.2078497 1.4034057 -1.4036086 0.0074608433 -0.4846306 -2.0254927 -3.7495418
-1.4903955 -0.40534487 -0.29727188 -0.7976867 -0.11191327 -3.5309184 -4.6039386 -3.3266087
0.54362637 -5.401043 0.4040045 -1.195725 -2.7483373 -2.7290456 0.04671 -0.0670378
-0.042507306 -0.05441482 -0.03154584 0.049343895 0.03731101 0.039526604 0.049880676 0.033653744
0.013084892 -0.022543093 -0.053953785 -0.0003252655 -0.17640214 0.0074382434 0.011796136 0.04280132
-0.06234374 0.060378 -0.06821585 0.06986869 0.05869533 -0.014195924 0.04118727 0.013151763
-0.062012453 0.10836416 0.15157051 0.06091912 0.0106047625 -0.019806484 -0.17731737 0.020275788
0.049466535 0.71617573 -0.5926876 0.061508913 -0.050264508 -0.34402168 0.1033288 -0.03131765
-0.18642204 0.1144466 0.047987394 -0.0038445138 -0.0635725 0.092517935 -0.12604207 -0.00073027465
00000000: 4bdc f73e c09d 0b40 cac3 b3bf 94b1 3a3f
00000010: c495 bac0 fff8 9b3f c853 adbf bb79 c83e
00000020: f7d2 3a3e 65e9 14bf 12ea 15c0 1c0d 75bf
00000030: 2431 843e 2640 eabf ec11 a8c0 f998 07c0
00000040: c9fa 62be b6d6 be3d faeb b33e f3ab 85c0
00000050: 637f 59c0 8dd4 cbc0 ec65 01c0 4aec b5bf
00000060: 7af7 203d 07e2 81be 7f68 68bd c379 93bd
00000070: d98e c03c 61ad 5e3d c696 7d3d c3af 7d3a
00000080: 0d03 f53c 0f3e d3bc 8977 043d c647 1b3c
00000090: 9a92 8bbd 2752 e1bc db38 2abd 9e8c 3f3d
000000a0: 6bd8 55be fa7b bf3b 995b d23b 1fb2 21bd
000000b0: d97e 673c ec4a c33c b944 b63c f6ad 66bc
000000c0: 0813 673c fa8f 8abd b148 963d ef6a ffbc
000000d0: 754d 8f3c 21d9 893d 7451 b23c 50be 19bd
000000e0: 23fb 6fbd a8a3 573d bbc4 21bd a1d0 42bc
000000f0: e274 303d b72b e13d 4573 4a3f 52d0 dc3d
00000100: 62d5 343d 50a5 92be 0615 e33c adfa 813b
00000110: 5f9f b3be 0630 4b3d ee80 99bd d84d 1fbd
00000120: d6f4 b5bc 2e6c ea3a cd43 68bd 3d82 4cbd
00000130: e415 febd 8942 5ebd 0b63 3c3e 5681 09bd
00000140: f2ea a7be 173e 723d 4248 e8bd d511 afbd
00000150: 31e0 863e 964e 70bd d067 19bd a429 073d
00000160: 7a15 853c 474f 443b d3e0 57bc dd0d e1bb
00000170: 9fd8 d03d 492f 263d d0cd 8abe b6e9 c83c
00000180: ff18 f9be 468c 6ebd 7693 adbd 76c0 263a
00000190: 5b48 373d 669c 283d 0bca 0cbf 95d7 693b
000001a0: 2a01 27bc 6652 debd 395a f6be 8e7d 09bd
000001b0: bef9 693d b4bc a4bc 01bf a93f fadc 45bd
000001c0: 78c6 6e3d f5b7 4abd c37f 8cbd e9a6 71bd
000001d0: ace8 913c 2c48 733d e043 42bb 3049 8abd
000001e0: 9682 9e3d 72ec a5bd b489 af3d 43e2 f3bb
000001f0: 1433 9a3d f7d0 373d 1557 473d e6e0 8fbd
00000200: e8c9 8f3d ce04 03be 2834 783d faf2 ec3d
00000210: cb00 81bd 9371 f63e 736e 703c 02c3 b13d
00000220: 73ea f5bc f041 a1bd bf27 203e 33ac 633c
00000230: 4b7a 803d 07ef 313d a59d 873d d650 ed3c
00000240: 0f2e 193c 6667 a8bd 5538 863d f829 59bd
00000250: 6ab8 67bc 3674 4e3d 1dde 023f 664d 9a3d
00000260: d4fc 593d 9fab 9c3e da8f 3dbd e81e 85bc
00000270: 228b 2fbd 4738 3d3f 8c5d 6b3d ef1c 573d
00000280: 6d25 b03c 50fb aebd 3ac5 983e f903 b83d
00000290: a9b3 be3d 20a9 833d 315a d7bd 6028 413f
000002a0: 8a25 63be b650 e03d 07bb febc 6360 6f3e
000002b0: abf1 943d 60ce 8e3d 6e18 563c 7b65 5abb
000002c0: 5088 2d3d 988f e43b 8a61 2ebc f448 3b3b
000002d0: 567c 33c0 c82f 65c0 b0c0 80bf a8cc 91c0
000002e0: d054 63bf 694d 4dc0 cca2 b33f 72a9 b3bf
000002f0: 177a f43b 8121 f8be aca1 01c0 7ef8 6fc0
00000300: 48c5 bebf 5d89 cfbe 0534 98be 3235 4cbf
00000310: c932 e5bd 91fa 61c0 7753 93c0 28e7 54c0
00000320: 192b 0b3f 58d5 acc0 aed9 ce3e 840d 99bf
00000330: c2e4 2fc0 afa8 2ec0 fc52 3f3d 1d4b 89bd
00000340: 241c 2ebd 13e2 5ebd 3636 01bd d31c 4a3d
00000350: 6ed3 183d a6e6 213d ae4f 4c3d 82d8 093d
00000360: 0462 563c 4bac b8bc a5fe 5cbd 6588 aab9
00000370: c3a2 34be 82bc f33b 9544 413c 7050 2f3d
00000380: 265c 7fbd ec4e 773d c0b4 8bbd 5117 8f3d
00000390: 846a 703d 0596 68bc fcb3 283d 7e7a 573c
000003a0: c500 7ebd 07ee dd3d 4d35 1b3e 5486 793d
000003b0: 99bf 2d3c 3541 a2bc af92 35be 6919 a63c
000003c0: 6c9d 4a3d 4b57 373f 60ba 17bf c5f0 7b3d
000003d0: 28e2 4dbd 9c23 b0be 0d9e d33d f046 00bd
000003e0: 6be5 3ebe fb62 ea3d 6e8e 443d 3df4 7bbb
000003f0: 4d32 82bd 0b7a bd3d 2c11 01be e76f 3fba

i2o.bias f4 [18]
-0.49869594 -0.2951899 -0.21946055 -0.36490425 0.58778244 -0.24536061 0.07753934 -0.9232419
-0.04039744 -0.7031214 -0.33753395 -0.28755537 -0.75790256 -0.75432277 0.39385247 -0.5613667
-0.50963485 -0.33023056
00000000: 1355 ffbe 2123 97be 44ba 60be bbd4 babe
00000010: e978 163f d03f 7bbe f2cc 9e3d 9559 6cbf
00000020: c977 25bd c4ff 33bf 40d1 acbe 753a 93be
00000030: e705 42bf 4c1b 41bf 08a7 c93e bab5 0fbf
00000040: 6e77 02bf fb13 a9be

i2h.weight f4 [128, 180]
0.06028943 0.01752637 -0.13460813 -0.00217368 -0.06721737 0.06484155 -0.13360557 0.09685332
0.08856495 -0.06835442 0.102480695 -0.04748181 -0.0053198515 0.042230874 -0.0126667805 -0.12099352
-0.11545372 0.16881897 -0.051463805 0.013260216 -0.09426826 -0.025287244 -0.030163746 -0.09816425
-0.15329929 -0.09261354 0.12737496 -0.03500423 -0.028957382 0.14017642 -0.4938493 0.15965806
-0.043310348 0.013160818 -0.076131925 -0.3130587 0.09590905 0.05566375 0.045120116 -0.061521187
0.056712903 -0.08179091 0.25756222 -0.02717621 -0.12930536 -0.06964397 0.14304729 0.09186085
-0.1700817 -0.24553277 0.012572086 0.24160749 -0.17800432 -0.06580605 -0.051803824 0.019740123
0.028271722 0.038154095 -0.03826227 -0.014019645 -0.05537963 -0.05065692 0.022976607 0.020543305
-0.01882584 -0.0106615145 0.042912856 0.049940247 0.045411393 0.032682423 -0.009687678 -0.021155525
-0.043633793 0.021895746 0.045156717 0.018362273 0.079811245 0.003143436 0.03622041 -0.005177502
-0.04399258 0.05826369 0.027456967 -0.05138501 0.028428366 0.0059880316 -0.074229084 0.034966752
-0.011315358 0.0067981486 -0.0835105 -0.004453718 -0.013704992 -0.009312845 0.03147098 0.059260443
0.015127603 -0.017530184 0.049186062 0.015254143 0.043613937 0.072273195 -0.0019803601 -0.028177297
0.012036393 0.036366876 -0.029875435 -0.0003871554 0.008181138 0.044791404 0.019869594 -0.03436039
0.022698464 0.032461174 0.044311605 0.024920229 -0.0008609849 -0.03925528 -0.006247984 -0.04814152
-0.06812676 -0.0022299238 0.02513066 -0.016085498 0.11221654 0.054077674 0.010024843 0.018560562
0.024730507 -0.018447278 -0.019935666 -0.06786589 -0.019887475 -0.0118042175 -0.027598254 0.044078756
0.07062285 -0.016700726 0.0035214967 0.048227105 0.06580384 -0.08572257 -0.0074773706 0.01964858
-0.04791307 0.010215057 -0.021423198 -0.09344605 0.022938441 -0.01830149 0.025820551 -0.08359116
-0.027160762 0.0045900154 -0.03288782 0.034496006 0.024286356 0.022518542 -0.021265596 -0.008564809
0.031004153 0.07423527 -0.046928067 -0.01910858 0.0080270935 -0.007016226 -0.060671836 0.020548739
0.019429682 0.014173212 0.016745603 -0.054486092 -0.03278052 0.02807851 0.020673387 0.019006979
-0.0019095391 0.0028141625 -0.05554654 -0.034630332 0.105061516 0.15508443 0.08343157 0.10655689
-0.033721063 -0.24054153 -0.09577298 -0.032603532 0.092495695 0.00044435795 0.013986522 0.049941055
-0.22929406 0.040366337 0.00876758 0.0062392633 0.32042047 0.0039747157 -0.06995325 0.017025732
-0.04708113 -0.23889744 -0.24404047 0.29322198 -0.13404664 -0.07455971 -0.03825972 0.010502947
0.00045067832 -0.038830277 0.30585217 0.060100034 0.014058268 0.044252723 0.2459585 -0.05436831
-0.10744651 -0.033373088 0.05043247 -0.01006586 0.19275749 -0.2556578 0.16988948 0.17365956
-0.09884829 0.0075258375 -0.24482533 -0.11520393 0.07851837 -0.10027593 -0.24504481 0.007933056
0.06534614 -0.13777429 0.048047148 0.011944207 -0.03036298 0.037837237 -0.050553303 0.009974595
0.013724285 0.06410735 0.076531336 0.01384011 -0.051029764 0.0011933837 -0.016584625 -0.028841378
0.0010504911 0.051329903 -0.024604047 0.008405565 -0.031927817 -0.057532124 -0.030580932 0.04414046
00000000: 0df2 763d 7693 8f3c b7d6 09be 4d74 0ebb
00000010: 43a9 89bd a6cb 843d e6cf 08be 095b c63d
00000020: 8a61 b53d 67fd 8bbd 66e1 d13d 497c 42bd
00000030: 2652 aebb 48fa 2c3d 5488 4fbc 73cb f7bd
00000040: 0073 ecbd e1de 2c3e b6cb 52bd 6141 593c
00000050: b80f c1bd 3227 cfbc f619 f7bc 570a c9bd
00000060: 7dfa 1cbe 2bac bdbd 956e 023e 9860 0fbd
00000070: 0838 edbc 688a 0f3e d1d9 fcbe 677d 233e
00000080: 3166 31bd 79a0 573c 0eeb 9bbd 3b49 a0be
00000090: f76b c43d acff 633d dfcf 383d a4fd 7bbd
000000a0: ca4b 683d fe81 a7bd 32df 833e a5a0 debc
000000b0: a068 04be 7fa1 8ebd fd7a 123e 8b21 bc3d
000000c0: e629 2ebe f16c 7bbe 27fb 4d3c f467 773e
000000d0: c446 36be 53c5 86bd 3f30 54bd 0ab6 a13c
000000e0: 199a e73c 7847 1c3d e6b8 1cbd a7b2 65bc
000000f0: c0d5 62bd a17d 4fbd 7039 bc3c 6f4a a83c
00000100: a638 9abc a2ad 2ebc 64c5 2f3d 258e 4c3d
00000110: 4c01 3a3d 01de 053d 11b9 1ebc 5a4e adbc
00000120: 59b9 32bd b55e b33c 40f6 383d 7a6c 963c
00000130: 1474 a33d 1b02 4e3b da5b 143d 09a8 a9bb
00000140: 9031 34bd e8a5 6e3d 6fed e03c 1779 52bd
00000150: 9be2 e83c 4037 c43b 6b05 98bd 4c39 0f3d
00000160: 0d64 39bc 01c3 de3b 8e07 abbd 7ff0 91bb
00000170: e78a 60bc e794 18bc b7e7 003d 14bb 723d
00000180: c4d9 773c 769b 8fbc 5377 493d 83ec 793c
00000190: 87a4 323d f803 943d eec8 01bb 13d4 e6bc
000001a0: 4b34 453c 6ff5 143d 54bd f4bc 1efb cab9
000001b0: 2e0a 063c 3177 373d 8fc5 a23c 7bbd 0cbd
000001c0: 21f2 b93c 02f6 043d 1680 353d 8225 cc3c
000001d0: b8b3 61ba 25ca 20bd e3bb ccbb 0b30 45bd
000001e0: 0b86 8bbd ea23 12bb d0de cd3c bcc5 83bc
000001f0: c9d1 e53d 8d80 5d3d 3d3f 243c 520c 983c
00000200: a297 ca3c bf1e 97bc 1f50 a3bc 46fd 8abd
00000210: 0feb a2bc 7a66 41bc bc15 e2bc ed8b 343d
00000220: b6a2 903d f6cf 88bc e9c8 663b c989 453d
00000230: 2ac4 863d 518f afbd bb04 f5bb 0ff6 a03c
00000240: 7f40 44bd 0e5d 273c b47f afbc a560 bfbd
00000250: 66e9 bb3c 02ed 95bc 9f85 d33c d831 abbd
00000260: 3f80 debc d767 963b 61b5 06bd af4b 0d3d
00000270: 2ef4 c63c ce78 b83c 3035 aebc 6a53 0cbc
00000280: 6cfc fd3c a908 983d a537 40bd 9989 9cbc
00000290: 1284 033c 5fe8 e5bb 0883 78bd d455 a83c
000002a0: ff2a 9f3c c336 683c 132e 893c cf2c 5fbd
000002b0: de44 06bd e704 e63c 3c5b a93c 86b4 9b3c
000002c0: 8049 faba d06d 383b c584 63bd 89d8 0dbd
000002d0: 7e2a d73d 74ce 1e3e 2cde aa3d 803a da3d
000002e0: 191f 0abd 8550 76be a024 c4bd 488b 05bd
000002f0: 626e bd3d b7f8 e839 ba27 653c fe8e 4c3d
00000300: 10cc 6abe 2c57 253d e5a5 0f3c bc72 cc3b
00000310: 270e a43e 553e 823b a643 8fbd 8c79 8b3c
00000320: 25d8 40bd 88a1 74be bfe5 79be 3121 963e
00000330: 8643 09be c3b2 98bd 39b6 1cbd 8d14 2c3c
00000340: 0549 ec39 7f0c 1fbd a898 9c3e 742b 763d
00000350: a654 663c 5842 353d 8cdc 7b3e 4eb1 5ebd
00000360: ea0c dcbd 38b2 08bd 4792 4e3d 47eb 24bc
00000370: 3862 453e 94e5 82be 82f7 2d3e d0d3 313e
00000380: f970 cabd 4d9b f63b 7eb3 7abe 0af0 ebbd
00000390: 3dce a03d 775d cdbd 07ed 7abe a6f9 013c
000003a0: 32d4 853d b414 0dbe 16cd 443d a3b1 433c
000003b0: c9bb f8bc 38fb 1a3d fb10 4fbd 7c6c 233c
000003c0: d3db 603c b74a 833d 76bc 9c3d a1c1 623c
000003d0: 9604 51bd 506b 9c3a 7bdc 87bc c144 ecbc
000003e0: a2b0 893a 4e3f 523d 6d8e c9bc 7fb7 093c
000003f0: bec6 02bd cea6 6bbd dd84 fabc a1cc 343d

i2h.bias f4 [128]
0.0221672 -0.009289615 0.006308728 0.008774832 -0.025131872 -0.012635706 0.030567417 0.008330296
0.012246395 0.016287554 -0.05730156 0.041878935 0.014500334 -0.02640233 0.007407012 0.006988733
-0.0288005 0.0055468087 -0.0065566143 -0.011045221 -0.0103375595 0.086605944 -0.025112625 -0.025314357
-0.01553961 -0.039069567 0.0034569243 0.0039975154 -0.008788302 0.020185864 0.0019365852 -0.016421843
0.019359864 -0.039371222 0.012936519 0.016410958 -0.026834965 -0.016522821 0.025822805 -0.03578981
-0.0022823806 -0.017155828 0.036755957 -0.019398607 0.04633942 0.034459136 -0.019033425 0.01293082
-0.011120344 -0.05860688 0.056909613 -0.015976526 -0.0069074617 -0.031809542 0.020204924 -0.02883876
0.011635314 -0.08650414 -0.046452243 0.020309921 0.045011815 0.025950411 -0.01945497 -0.013257626
-0.021896072 0.012272893 0.024399718 0.0004837275 0.0068806615 0.012175757 -0.023193715 -0.013723419
-0.0069053844 0.05090141 0.021530066 0.027963525 -0.021427786 -0.0013277193 0.029412134 0.114712074
-0.006684682 -0.024856267 0.023521334 0.008204348 -0.025646206 -0.025841339 -0.012459869 -0.0043372624
0.022545863 -0.008243109 0.01868469 -0.00040762054 0.019635972 0.0110622225 0.0038067414 -0.0133961495
0.010466726 0.026207795 -0.056499563 0.019993467 0.043769144 0.0012055059 -0.010012861 0.006579705
-0.016483868 -0.11395505 -0.0054604635 0.011035506 0.039479174 0.034265608 -0.013220351 -0.021515667
0.025614789 0.041412767 -0.037783984 -0.094415404 0.082546055 0.06431483 -0.0038386057 0.007460412
-0.018328398 -0.012999083 0.008141092 0.020420942 0.01538271 -0.009962951 -0.008365436 -0.009441424
00000000: fd97 b53c 7833 18bc 72b9 ce3b 50c4 0f3c
00000010: 5be1 cdbc fe05 4fbc 8568 fa3c cb7b 083c
00000020: 1ba5 483c 7a6d 853c 0ab5 6abd 3f89 2b3d
00000030: cf92 6d3c b349 d8bc 85b6 f23b be01 e53b
00000040: 07ef ebbc 01c2 b53b ded8 d6bb 04f7 34bc
00000050: de5e 29bc 755e b13d feb8 cdbc 0e60 cfbc
00000060: d999 7ebc 6907 20bd 918d 623b 97fd 823b
00000070: cffc 0fbc d35c a53c 04d5 fd3a 1a87 86bc
00000080: 9498 9e3c b843 21bd b2f3 533c 4670 863c
00000090: 00d5 dbbc de5a 87bc 598a d33c 5698 12bd
000000a0: fe93 15bb 618a 8cbc 6a8d 163d d4e9 9ebc
000000b0: 67ce 3d3d 0625 0d3d fceb 9bbc cadb 533c
000000c0: 1a32 36bc c50d 70bd 0e1a 693d 34e1 82bc
000000d0: fd57 e2bb b94a 02bd cc84 a53c 433f ecbc
000000e0: 0ba2 3e3c 1529 b1bd b544 3ebd fe60 a63c
000000f0: 4f5e 383d f595 d43c 0760 9fbc 8436 59bc
00000100: 645f b3bc 3f14 493c ebe1 c73c ce9c fd39
00000110: 2c77 e13b d47c 473c bf00 bebc 31d8 60bc
00000120: 9046 e2bb ff7d 503d d25f b03c c313 e53c
00000130: 5389 afbc de06 aeba b7f1 f03c 2aee ea3d
00000140: 2d0b dbbb 5f9f cbbc d0af c03c 886b 063c
00000150: fe17 d2bc 37b1 d3bc 7a24 4cbc 981f 8ebb
00000160: 1ab2 b83c 1b0e 07bc a310 993c e7b5 d5b9
00000170: 9edb a03c 533e 353c 867a 793b 867b 5bbc
00000180: a17c 2b3c bbb1 d63c 166c 67bd 57c9 a33c
00000190: 4647 333d 1102 9e3a fc0c 24bc 919a d73b
000001a0: 2d09 87bc 4461 e9bd b0ed b2bb 44ce 343c
000001b0: eab4 213d 185a 0c3d 2c9a 58bc a041 b0bc
000001c0: 1bd6 d13c 6fa0 293d 61c3 1abd dd5c c1bd
000001d0: e80d a93d 7eb7 833d 1e91 7bbb 7976 f43b
000001e0: 7025 96bc 1bfa 54bc 3762 053c d249 a73c
000001f0: c307 7c3c a53b 23bc 2f0f 09bc 34b0 1abc
