semester3/advanced_DL/practice/temp_model.pt (torch, 5095 bytes, 2 tensors)

weight f4 [2, 512]
0	0x3d8dcbf9	0.0692367
1	0xbcbc76ee	-0.023005929
2	0xbc3a94e8	-0.011388041
3	0x3c36e60c	0.011163246
4	0x3d62b6a3	0.055349957
5	0xbd83854b	-0.06421908
6	0xbce7146b	-0.028207978
7	0xbcf7340f	-0.03017619
8	0xbd2f803f	-0.042846914
9	0x3c0900b2	0.008361982
10	0xbc859cfd	-0.01631021
11	0xbc16d4d9	-0.00920602
12	0xbc823265	-0.01589317
13	0xbc9fdd7f	-0.019514797
14	0x3c5a2922	0.013315471
15	0xbda515f4	-0.08060828
16	0xbd5a9ed7	-0.053374138
17	0xbcf1f23a	-0.029534448
18	0xbdb140e9	-0.08654959
19	0xbc7cc5ad	-0.015427989
20	0xbca99c97	-0.02070455
21	0xbc9d580c	-0.019207023
22	0xbd0f73fa	-0.035022713
23	0xbd6f4d3f	-0.058423277
24	0x3d282975	0.04105516
25	0x3db3aa9e	0.08772777
26	0x3c8995ea	0.016795117
27	0xbb68ed95	-0.0035542
28	0xbd9cb65e	-0.07651971
29	0x3d6350f6	0.055497132
30	0xbc585462	-0.013203712
31	0xbb494cca	-0.0030715936
32	0xbd3f047c	-0.046635136
33	0x3cfe991e	0.031078871
34	0xbd0722fc	-0.032992348
35	0x3be70711	0.007050403
36	0xbd5e34aa	-0.054249443
37	0x3cf5d7ca	0.030010123
38	0x3da48c15	0.08034531
39	0xbd0422a4	-0.0322596
40	0x3c9a6923	0.018848961
41	0xbb04a720	-0.0020241216
42	0x3d500b90	0.050792277
43	0x3d71c61e	0.05902683
44	0xbcbd21a8	-0.023087338
45	0x3c6f5559	0.014607751
46	0xbc0a474f	-0.008439853
47	0xbbf9935d	-0.007616444
48	0x3c86f766	0.01647539
49	0xbc4a9d28	-0.0123665705
50	0x3d7c0f1f	0.061537858
51	0x3bd23ef0	0.006416194
52	0x3d50e378	0.05099818
53	0x3d030658	0.03198847
54	0xbbbcf013	-0.0057659238
55	0x3b7ee2ba	0.0038892464
56	0x3c3bb2c1	0.0114561925
57	0x3d4e0c34	0.050304607
58	0xbb55ec5d	-0.0032642104
59	0xbca0df1f	-0.019637642
60	0xbd5b2871	-0.053505365
61	0xbb7f1358	-0.0038921442
62	0x3c462efb	0.012096162
63	0xba90b760	-0.0011040978
64	0x3d7faad9	0.062418792
65	0xbd26f693	-0.040762495
66	0xbc89107e	-0.016731497
67	0x3bd550fd	0.0065098987
68	0x3ccffa93	0.025388038
69	0xbd26ec2d	-0.04075258
70	0x3be6f161	0.0070478176
71	0x3be6be06	0.0070416955
72	0x3d2e3bb3	0.042537402
73	0xbca7e995	-0.020497123
74	0xbbeaa935	-0.0071612843
75	0xbc8b8a64	-0.017033763
76	0xbc10b03c	-0.00883108
77	0xbc8215eb	-0.015879592
78	0x3c0200d5	0.007934769
79	0x3da63948	0.08116394
80	0x3da995f1	0.08280552
81	0xbc891581	-0.016733887
82	0xbd10fd13	-0.0353976
83	0xbd279f64	-0.04092349
84	0xbd5b4dd3	-0.053541016
85	0xbd15e5b0	-0.036596
86	0xbd3fc6b9	-0.046820376
87	0xbc662ccb	-0.014048765
88	0x3c5393bd	0.0129136415
89	0xbd86c3d6	-0.065803215
90	0xbd893138	-0.06698841
91	0x3c95cc9a	0.018286038
92	0x3befe672	0.0073211724
93	0x3c9993ef	0.018747298
94	0xbc1de6ed	-0.0096375765
95	0xbc656958	-0.014002167
96	0x3cde4d59	0.027136492
97	0x3ca1494c	0.019688271
98	0x3ca6fac4	0.020383246
99	0x3d14424e	0.036196046
100	0xbd497b03	-0.04918958
101	0x3d17244c	0.03689985
102	0xbca8d0ef	-0.02060744
103	0x3d4686bc	0.048468336
104	0x3d610f67	0.05494633
105	0x3d925765	0.071455754
106	0xbcb0ac64	-0.021566577
107	0x3c568364	0.013092849
108	0x3cea31db	0.028588226
109	0xbad09bc9	-0.0015915568
110	0xbbced2d9	-0.006311756
111	0x3ca2f966	0.019894313
112	0x3cf25281	0.029580357
113	0x3d88012a	0.06640847
114	0x3d59baf6	0.053156815
115	0xbba35c40	-0.0049853623
116	0x3ccf861b	0.025332501
117	0x3cca3913	0.024685418
118	0x3c2177cb	0.009855221
119	0xbcdaf083	-0.026726013
120	0xbc352c36	-0.011057904
121	0x3c7af6cb	0.015317629
122	0xbb2ba31e	-0.0026189755
123	0xbac12752	-0.001473645
124	0x3c457792	0.012052434
125	0xbc9b4e67	-0.018958284
126	0x3cb2257c	0.02174639
127	0xbc18e7ae	-0.0093325805
128	0xbb2dfcea	-0.0026548454
129	0x3c36218c	0.011116397
130	0xbc71a766	-0.014749384
131	0xbb3812f8	-0.0028087478
132	0xbbda7edf	-0.0066679562
133	0x3c301f1a	0.010749603
134	0xbcc4f131	-0.02404079
135	0x3d083f19	0.0332633
136	0xbcc86910	-0.02446416
137	0xbdb59270	-0.08865821
138	0x3be9ffc9	0.0071410877
139	0xbd8ac031	-0.06774939
140	0x3c04504a	0.008075783
141	0x3b57362b	0.0032838683
142	0xbbd97c83	-0.0066371574
143	0x3cd3c72e	0.025851812
144	0x3ccf737f	0.025323628
145	0x3c140eb5	0.00903671
146	0xbda14eaa	-0.07876332
147	0xbb289a6b	-0.0025726806
148	0x3900d7e1	0.00012287452
149	0xbc1212e2	-0.008915635
150	0x3d2f25f4	0.042760804
151	0xbdb1fbb2	-0.08690585
152	0xbd0437d7	-0.032279816
153	0x3d07cc24	0.033153668
154	0xbc5c29e9	-0.013437727
155	0x3cf6ec7b	0.03014206
156	0x3ca0b659	0.0196182
157	0x3d050b08	0.032481223
158	0x3d871979	0.065966554
159	0x3b7e0810	0.003876213
160	0xbcfc6c1a	-0.030813266
161	0xbd073cbb	-0.0330169
162	0xbd33cc61	-0.043896083
163	0x3d430513	0.04761226
164	0x3d893fea	0.06701644
165	0x3d3b5a35	0.045740325
166	0xbc1fe84a	-0.009759972
167	0xbd0d56a1	-0.034506444
168	0x3d7986c1	0.060919527
169	0xbcca183a	-0.024669755
170	0xbd9e4c6b	-0.07729419
171	0xbc82fa7f	-0.015988586
172	0x3d504287	0.050844695
173	0xba3c657a	-0.0007186752
174	0x3d9f5a88	0.07780939
175	0xbd0f9012	-0.035049506
176	0x3d140895	0.036140997
177	0xbd302e8b	-0.043013137
178	0x3cb0e6e1	0.021594467
179	0xbd4d06c2	-0.050055273
180	0xbda12067	-0.078675084
181	0x3c26c918	0.01017978
182	0x3d3e861b	0.04651461
183	0x3cec121a	0.028817225
184	0xbcc06200	-0.02348423
185	0x3c9c0b37	0.019048316
186	0xbd2b23bf	-0.041782137
187	0xbd821a9c	-0.063527316
188	0xbd799adc	-0.0609387
189	0x3b3b993d	0.0028625273
190	0xbc328e18	-0.010898136
191	0xbdd00190	-0.10156548
192	0xbd4eb33d	-0.050463904
193	0xbd359f4b	-0.044341367
194	0xbd6d04a6	-0.05786576
195	0xbd413198	-0.047166437
196	0x3b2d71aa	0.0026465454
197	0x3ce3ff2a	0.027831633
198	0x3c8174a0	0.015802681
199	0x3d5b7379	0.05357692
200	0xbd1dd9ce	-0.038537793
201	0x3cf440fc	0.029816143
202	0x3c8fd740	0.017558694
203	0x3d428547	0.047490384
204	0x3cf022ac	0.029313408
205	0xbd902020	-0.07037377
206	0xbd2556f2	-0.04036612
207	0x3d4cee3f	0.050031897
208	0xbc5e7e46	-0.013579911
209	0x3cddbf17	0.027068658
210	0xbdb35a3f	-0.087574475
211	0xbc3be01e	-0.011467008
212	0x3cef3ff1	0.029205294
213	0xbd43f253	-0.04783852
214	0xbd9618c4	-0.073289424
215	0x3dbdcc13	0.0926744
216	0xbb6d9084	-0.0036249468
217	0xbd15cea5	-0.036574025
218	0xba135ce8	-0.0005621449
219	0xbcd1d1ed	-0.025612796
220	0x3cfb7218	0.030694053
221	0xbcb4fcf0	-0.022093266
222	0xbd73870d	-0.059454966
223	0x3d59d0c5	0.053177614
224	0x3cd2e184	0.0257423
225	0x3c1bcda3	0.009509477
226	0x3d854037	0.06506389
227	0x3d37a82c	0.044838116
228	0x3c42ba98	0.011885308
229	0x3c08f335	0.008358766
230	0xbc2d18f5	-0.010565032
231	0x3d3f698c	0.046731517
232	0xbce243e5	-0.027620265
233	0xbd143be7	-0.03618994
234	0x3dbd5e79	0.09246535
235	0xbc4d767b	-0.012540455
236	0x3da7f4c0	0.08200979
237	0xbcbb323f	-0.022851108
238	0x3d19db77	0.037562814
239	0xbc726205	-0.0147938775
240	0xbd688861	-0.056770686
241	0xbd137108	-0.035996467
242	0xbc941790	-0.018077642
243	0xbb4b6fb7	-0.003104193
244	0x3bbe9c43	0.0058169677
245	0xbd77eec1	-0.060530428
246	0x3d74af25	0.059737343
247	0x3d72b13a	0.059251048
248	0x3cc2f6a9	0.023799257
249	0x3d345614	0.044027403
250	0x3cb716bf	0.022349713
251	0x3d867ac5	0.06566385
252	0xbcf6ed13	-0.030142343
253	0xbd24d486	-0.04024174
254	0xbc52f268	-0.012875177
255	0xbc0fb2dc	-0.008770671

bias f4 [2]
0	0x3cef3d7e	0.029204126
1	0xbc68a3c0	-0.014199197
