advanced-DL/assignments/assignment3/assignment3_LIMONIER/best_model.pt (torch, 39529 bytes, 20 tensors)

input_net.0.weight f4 [32, 10]
0	0x3e2b346a	0.16719213
1	0xbe1b9333	-0.15192871
2	0xbd080373	-0.033206414
3	0xbe09560f	-0.13411735
4	0xbe3911bd	-0.18073173
5	0x3e3b1207	0.18268596
6	0xbd9d8e58	-0.076931655
7	0xbc1a8944	-0.009432141
8	0x3e1de396	0.15418848
9	0xbe625691	-0.22103335
10	0x3dadc75d	0.08485291
11	0xbe797556	-0.24361166
12	0x3cc4cfdd	0.024024898
13	0x3df39a0e	0.11894618
14	0xbd9961cf	-0.07489359
15	0xbcedfe85	-0.029052028
16	0xbe96c117	-0.2944419
17	0xbdc96189	-0.098330565
18	0x3c890953	0.016728079
19	0xbe526cb6	-0.20549282
20	0x3da6314d	0.08114872
21	0x3c40738c	0.0117462985
22	0xbe36dec8	-0.17858422
23	0xbd4270af	-0.047470745
24	0xbe251241	-0.16120245
25	0x3e2637e3	0.16232257
26	0xbe9bfd5c	-0.30466735
27	0x3e2e482e	0.17019722
28	0x3ec41571	0.38297608
29	0x3e09fabe	0.13474557
30	0x3db26ef6	0.0871257
31	0x3e056635	0.1302727
32	0x3d136b20	0.035990834
33	0x3e78a1a3	0.2428041
34	0xbe511177	-0.20416819
35	0xbde641a1	-0.112429865
36	0x3d6a8e0c	0.057264373
37	0xbb78e711	-0.0037979523
38	0xbe635f11	-0.22204234
39	0xbdf73e40	-0.1207242
40	0xbdce7e0a	-0.10082634
41	0x3e84c118	0.2592857
42	0xbbe4cc54	-0.0069823656
43	0x3e905c5f	0.28195474
44	0xbdd60937	-0.10450976
45	0x3e99d908	0.30048394
46	0xbecb2a19	-0.39680555
47	0xbd0f09fb	-0.034921627
48	0x3e52d33e	0.20588395
49	0xbdbf3573	-0.093363665
50	0x3ea1a6ba	0.31572515
51	0xbdb29663	-0.0872009
52	0x3d231c99	0.039822195
53	0x3e5508ed	0.20804186
54	0x3dc7bac5	0.0975242
55	0x3d5c724e	0.053819947
56	0x3e29aa2f	0.16568826
57	0xbda3c13a	-0.079958394
58	0xbe93d4ae	-0.288732
59	0xbdb27511	-0.08713735
60	0x3eb6eb86	0.35726565
61	0xbe5ccc3e	-0.21562287
62	0xbd42f6cb	-0.04759864
63	0x3daf3faa	0.08557065
64	0xbd87b6de	-0.06626676
65	0xbe0bb7b2	-0.13644293
66	0xbdfe46f0	-0.12415874
67	0x3e5c50f8	0.21515262
68	0x3e0f1674	0.13973409
69	0x3e438ac5	0.19095905
70	0x3e6ab03a	0.22918788
71	0x3d994c6c	0.074852794
72	0x3e96bd1d	0.29441157
73	0xbe078d38	-0.13237464
74	0xbe7faca6	-0.24968204
75	0xbe2c8e8f	-0.16851257
76	0x3e8c5141	0.27405742
77	0x3ed9e24b	0.4255546
78	0xbe4ade60	-0.19811392
79	0xbde3af50	-0.111174226
80	0x3e89f96b	0.26948103
81	0xbe822b3b	-0.25423607
82	0xbe526ca2	-0.20549253
83	0x3e9087ae	0.28228515
84	0xbdbf89e0	-0.093524694
85	0x3dc0916a	0.094027355
86	0xbec04479	-0.3755224
87	0x3e74edfc	0.23918909
88	0xbe192b55	-0.14957936
89	0xbb0e68c0	-0.0021729916
90	0x3d92688a	0.071488455
91	0xbe2ed6be	-0.17074105
92	0xbd87c259	-0.06628866
93	0xbe3b897d	-0.18314166
94	0xbe2e470a	-0.17019287
95	0xbe688563	-0.22707133
96	0x3db75bc6	0.08953051
97	0x3e7272fa	0.23676673
98	0x3ce8db5f	0.028424917
99	0xbda9081a	-0.082534984
100	0xbd6616db	-0.05617414
101	0xbd854d12	-0.065088406
102	0x3eae54ae	0.3404898
103	0x3e373dd0	0.17894673
104	0xbe9293a5	-0.2862827
105	0xbe3d609e	-0.18493888
106	0xbe5c65ab	-0.21523158
107	0x3e3dd4b0	0.18538165
108	0xbc7b8d2b	-0.015353481
109	0xbe92e227	-0.28688166
110	0x3e28ba92	0.16477421
111	0x3e080db3	0.13286476
112	0xbeda9259	-0.4268978
113	0x3e59358e	0.21211836
114	0x3e1d8ba9	0.15385307
115	0x3eacd126	0.33753318
116	0x3d8b1e22	0.06792857
117	0xbe0b252b	-0.13588397
118	0x3c9de937	0.019276245
119	0x3e08b780	0.1335125
120	0x3ecd125c	0.4005307
121	0x3d999da8	0.07500774
122	0xbe2e9313	-0.17048292
123	0x3d99a70e	0.07502566
124	0xbea1ad6b	-0.3157762
125	0x3d5fa44a	0.054600038
126	0x3ea8ec4e	0.32992786
127	0x3e84b3ba	0.2591837
128	0xbd5776d8	-0.052603573
129	0x3af74d80	0.0018867701
130	0xbdede24f	-0.116154306
131	0x3e7eb222	0.2487264
132	0x3df6e1d9	0.12054796
133	0xbead4f1b	-0.33849415
134	0x3ed6a5b0	0.41923285
135	0xbeb28931	-0.34870294
136	0x3e37f90a	0.17966095
137	0xbe72ac54	-0.2369855
138	0xbde99b88	-0.11406618
139	0xbef41031	-0.47668603
140	0xbba83ecf	-0.0051344405
141	0x3cae315d	0.021263773
142	0x3cb28389	0.021791236
143	0xbe84b2e2	-0.25917727
144	0xbe822457	-0.2541835
145	0x3e0bae87	0.13640796
146	0x3e488cfa	0.19585028
147	0xbc95de85	-0.018294582
148	0xbe973491	-0.29532292
149	0xbed7fdd4	-0.42185843
150	0xbe994148	-0.29932618
151	0xbd498cd9	-0.04920659
152	0xbd95c018	-0.073120296
153	0xbe920a50	-0.28523493
154	0x3e6e4b2f	0.23270868
155	0x3e25fa88	0.16208851
156	0xbe6f39a3	-0.2336183
157	0x3da5c2c5	0.0809379
158	0x3ebdb2a1	0.37050346
159	0x3ea25c9c	0.3171128
160	0xbe8dbd03	-0.27683267
161	0x3ec9b79a	0.3939789
162	0xbe69cb4e	-0.22831461
163	0xbe7aa936	-0.24478611
164	0xbe21c514	-0.15797836
165	0xbd9965b9	-0.07490105
166	0x3e6bdb1b	0.23032801
167	0x3e18dbe1	0.14927627
168	0xbf0b5148	-0.544209
169	0x3ec87567	0.3915207
170	0xbe1a588b	-0.15072839
171	0xbe558254	-0.20850497
172	0x3da74844	0.081680804
173	0x3e5d470e	0.21609136
174	0xbde1d889	-0.11027629
175	0xbe80e3c3	-0.25173768
176	0xbd1aecb8	-0.03782341
177	0x3e82f445	0.25576988
178	0x3e0d3598	0.13789976
179	0x3e2b13d3	0.16706781
180	0x3e875d64	0.2643844
181	0xbc6fe219	-0.014641308
182	0xbb9b18ec	-0.0047331955
183	0x3e95a168	0.29224706
184	0x3ce756ed	0.028239692
185	0xbe91a8da	-0.28449136
186	0x3dbfa60d	0.093578435
187	0x3d6c0686	0.05762341
188	0xbca32ea0	-0.019919693
189	0x3ef026c6	0.46904582
190	0x3cdf0487	0.027223838
191	0xbea04843	-0.3130513
192	0xbe329627	-0.17440091
193	0x3e3a600e	0.18200704
194	0x3e0ffa49	0.1406032
195	0x3e7ef67b	0.24898712
196	0xbe9df4d8	-0.30850863
197	0x3ca8e7b0	0.02061829
198	0x3e4f0687	0.20217334
199	0x3cc0d2e5	0.023538062
200	0xbea7894f	-0.32721946
201	0x3ec13946	0.3773901
202	0x3d12e251	0.035860363
203	0x3e6f4288	0.23365223
204	0x3e31988c	0.17343348
205	0x3e0ce799	0.13760222
206	0x3ec83f88	0.3911097
207	0xbe4c01cf	-0.19922565
208	0x3ddc4ea1	0.10757185
209	0x3e2db20b	0.16962449
210	0xbca89dac	-0.020582996
211	0x3e7061f3	0.23474865
212	0x3e415087	0.18878375
213	0xbd8d7d1e	-0.0690863
214	0xbdb93cbb	-0.090447865
215	0x3e0f8502	0.14015582
216	0x3debf77e	0.11521815
217	0x3b337baf	0.0027386954
218	0x3dc0e420	0.094185114
219	0x3d9734ac	0.07383093
220	0x3c808e6d	0.015692914
221	0xbebff661	-0.3749266
222	0xbd550d34	-0.052014545
223	0xbe9edef6	-0.3102948
224	0xbe412ae1	-0.18864013
225	0x3dc2d66f	0.09513556
226	0x3ec22840	0.37921333
227	0xbe4428cc	-0.19156188
228	0x3e2e7583	0.17037015
229	0x3dc917a1	0.0981896
230	0x3bcfcfad	0.0063418956
231	0xbea55466	-0.32290953
232	0x3e9654d3	0.2936159
233	0x3eae435f	0.34035775
234	0xbe1cd4c2	-0.15315536
235	0x3ea7e903	0.3279496
236	0x3eb541de	0.35401815
237	0xbea6a051	-0.32544187
238	0x3dd50bfd	0.10402677
239	0xbd12d211	-0.035844866
240	0x3e277426	0.16352901
241	0x3cebdb1d	0.028791005
242	0xbea2889f	-0.3174486
243	0xbdc0c49c	-0.094125
244	0x3e14eab2	0.14542654
245	0x3e622c8a	0.22087303
246	0xbe435c0f	-0.19078086
247	0x3e2adb36	0.16685185
248	0x3eee951b	0.46598133
249	0xbc335972	-0.010946618
250	0xbe8f9714	-0.2804495
251	0xbd85a86f	-0.06526267
252	0xbd4d2e91	-0.050093237
253	0x3cb04691	0.021518024
254	0x3e56b32c	0.20966786
255	0x3e93a3b3	0.2883583

input_net.0.bias f4 [32]
0	0xbe7f7eb9	-0.24950685
1	0xbe172a5c	-0.14762253
2	0x3e887bc8	0.26656938
3	0x3d9dbb66	0.07701759
4	0x3c4e445e	0.012589542
5	0x3d6f3a4a	0.0584052
6	0x39f4b94a	0.00046677358
7	0x3dcaa894	0.09895435
8	0xbd0daa23	-0.034586083
9	0xbe86d3d6	-0.26333493
10	0xbe17891f	-0.14798401
11	0xbe644291	-0.22291018
12	0x3c605ab1	0.0136934975
13	0x3d5c2ccc	0.05375366
14	0x3db7df78	0.0897817
15	0xbe241605	-0.16024025
16	0x3de4228c	0.11139402
17	0x3e682898	0.22671735
18	0x3e721379	0.2364024
19	0x3d88d88c	0.06681928
20	0xbe97bf9b	-0.2963837
21	0x3df865a1	0.12128759
22	0xbc974173	-0.018463826
23	0x3cd6aef2	0.026206467
24	0xbe224b8f	-0.15849136
25	0x3c29783f	0.01034361
26	0x3e463bfe	0.19358823
27	0x3e049b29	0.12949814
28	0xbbbe536f	-0.005808286
29	0x3dd2ff62	0.10302617
30	0x3e83428f	0.25636718
31	0x3dcfce3a	0.101467565

transformer.layers.0.self_attn.o_proj.weight f4 [32, 32]
0	0xbe3bd332	-0.18342283
1	0x3e0346a7	0.1281992
2	0x3e8fa513	0.2805563
3	0x3db45eb7	0.08807128
4	0x3d673924	0.056450978
5	0xbe0f2e14	-0.13982421
6	0x3e736744	0.23769861
7	0x3ba86385	0.005138817
8	0x3db3be36	0.08776514
9	0xbe1394ef	-0.14412282
10	0xbd7b9ba9	-0.061427746
11	0xbdd5f70b	-0.1044751
12	0xbd0d298e	-0.034463458
13	0x3da3499b	0.079730235
14	0x3d7770e0	0.06041038
15	0x3e5598cd	0.2085907
16	0x3e6e944d	0.2329876
17	0xbe5fbc75	-0.21849234
18	0x3e0439f9	0.1291274
19	0xbe1a725e	-0.1508269
20	0x3df452ec	0.119298786
21	0x3bc2531b	0.005930317
22	0xbe7039ff	-0.23459624
23	0x3e09b4bc	0.13447851
24	0xbc84d9dc	-0.016217165
25	0x3eb5f4db	0.35538372
26	0x3e42e4f9	0.19032659
27	0xbe8f5566	-0.2799484
28	0xbe827e26	-0.2548687
29	0x3ca4eaeb	0.020131549
30	0xbdb4fcc9	-0.088372774
31	0x3d700229	0.05859581
32	0x3d321083	0.043472778
33	0x3d902851	0.0703894
34	0xbe1c31f2	-0.15253428
35	0x3e941fbe	0.28930467
36	0x3e0a8c2a	0.13530031
37	0xbe805255	-0.25062814
38	0x3e9ae3f3	0.30252036
39	0xbe6d8f43	-0.23199181
40	0xbe9414cc	-0.28922117
41	0xbe3487f0	-0.17629981
42	0xbe854442	-0.2602864
43	0x3e07524e	0.1321499
44	0xbdb8431d	-0.08997176
45	0xbead7947	-0.3388159
46	0x3d67de34	0.056608394
47	0xbce44bbe	-0.027868148
48	0xbe17db1a	-0.14829674
49	0xbe1d9889	-0.15390219
50	0x3e8ef4e1	0.27921203
51	0x396bb82a	0.00022479953
52	0xbdf57dc8	-0.119868815
53	0x3eadddeb	0.33958372
54	0x3b425355	0.002965172
55	0x3e427b26	0.1899229
56	0x3e80527e	0.25062937
57	0x3e017114	0.12640792
58	0x3df133f9	0.11777491
59	0x3e8c92f5	0.2745587
60	0x3e1c62e6	0.15272102
61	0xbe750d49	-0.23930849
62	0xbe1ece87	-0.15508471
63	0xbd80275e	-0.06257509
64	0xbbc527cb	-0.0060167066
65	0xbe284ac1	-0.16434766
66	0xbe7d6c06	-0.24748239
67	0x3e077969	0.13229908
68	0x3d71b34b	0.059008878
69	0x3e30c46b	0.17262428
70	0x3e840fb8	0.25793242
71	0xbdbc36ee	-0.091901645
72	0xbd45b8f2	-0.04827208
73	0x3d7bed8a	0.06150583
74	0x3ea05c95	0.31320634
75	0x3e58de31	0.2117851
76	0x3d76bb05	0.06023695
77	0xbe8462bf	-0.25856587
78	0x3e1ae862	0.1512771
79	0x3e0ad3e9	0.135574
80	0x3e31e818	0.17373693
81	0xbead16d3	-0.33806476
82	0xbd00c031	-0.031433288
83	0x3e1b778c	0.15182322
84	0x3e96903f	0.29406926
85	0x3e09fd7e	0.13475606
86	0x3e0dcc4d	0.13847466
87	0xbc3bfbed	-0.011473638
88	0xbd274bdc	-0.04084383
89	0x3d057658	0.032583565
90	0x3e5d41fd	0.21607204
91	0x3ea1a469	0.31570747
92	0xbebcce39	-0.36876085
93	0xbc88e03b	-0.016708484
94	0xbe51f4f1	-0.20503594
95	0x3e56a335	0.20960696
96	0xbe3fa44d	-0.1871502
97	0xbe394c8c	-0.18095607
98	0xbe338bbf	-0.17533778
99	0x3ded7815	0.115951695
100	0xbe66a346	-0.22523221
101	0xbd115280	-0.03547907
102	0x3c912700	0.017718792
103	0x3bb9e861	0.0056734537
104	0xbe97a332	-0.29616696
105	0x3d6844e7	0.056706335
106	0xbdc30f2a	-0.09524377
107	0xbe482068	-0.19543612
108	0xbc44f96c	-0.012022357
109	0xbdc85677	-0.09782117
110	0x3e7bf107	0.24603663
111	0x3e367699	0.17818679
112	0x3e147879	0.14499082
113	0xbdd55876	-0.10417263
114	0xbe60f10d	-0.21966954
115	0xbe84472f	-0.2583556
116	0x3e05232e	0.13001701
117	0x3d705167	0.05867138
118	0x3d875712	0.06608404
119	0x3e9ed52a	0.31022006
120	0x3eb6e3ac	0.35720575
121	0xbc6fe8c0	-0.014642894
122	0xbe89725a	-0.26845056
123	0x3e7fef85	0.24993713
124	0x3ec61bb8	0.38693023
125	0x3e6fdd69	0.23424305
126	0x3e18e08e	0.14929411
127	0xbe6ec5c6	-0.23317632
128	0x3dcf5c13	0.10124984
129	0x3e9c14bf	0.30484578
130	0x3dd75239	0.105137296
131	0x3dc908ee	0.09816156
132	0x3ac8998a	0.0015304547
133	0xbdbcf248	-0.09225899
134	0xbe57d003	-0.21075444
135	0x3d82af79	0.06381125
136	0xbbd520f8	-0.0065041743
137	0xbe903422	-0.28164774
138	0x3e60dad5	0.21958478
139	0x3d8163a9	0.06317837
140	0x3e0be993	0.1366332
141	0x3e2b8092	0.16748264
142	0x3e48c6d3	0.19607095
143	0xbe89a143	-0.26880845
144	0x3e054109	0.1301309
145	0xbdaef99f	-0.08543705
146	0xbd77ef3b	-0.060530882
147	0x3e4145d7	0.18874298
148	0xbe3fe706	-0.18740472
149	0xbe661a98	-0.22471082
150	0xbdd4c828	-0.10389739
151	0xbdc38d1f	-0.09548401
152	0xbe4b3002	-0.19842532
153	0xbdcd1ea9	-0.100156136
154	0x3cb466cf	0.02202168
155	0xbe4fb915	-0.20285447
156	0x3e2dcbd5	0.16972287
157	0xbec1ab72	-0.37826115
158	0x3d2cc42f	0.042179283
159	0x3e9e2875	0.3089024
160	0xbd993b6d	-0.07482038
161	0xbe2ef1b3	-0.17084388
162	0x3e44bd2b	0.19212787
163	0xbe845305	-0.2584459
164	0xbe995428	-0.2994702
165	0x3ca1df03	0.01975966
166	0x3e43914f	0.190984
167	0x3d86d091	0.0658275
168	0xbe2d9746	-0.16952237
169	0xbe8d6fd3	-0.27624378
170	0xbe274f08	-0.16338742
171	0x3e680f84	0.22662169
172	0x3ddb833c	0.1071839
173	0x3dd27048	0.10275322
174	0xbe5813da	-0.21101323
175	0x3e7894da	0.24275532
176	0xbe116c97	-0.1420158
177	0x3e9782cc	0.29591978
178	0xbe596435	-0.21229632
179	0xbe846345	-0.25856987
180	0x3e55e61d	0.20888563
181	0x3ea3a709	0.31963375
182	0x3dcfe151	0.101503976
183	0x3e15728a	0.14594474
184	0xbe2bede7	-0.16789971
185	0x3e68dad8	0.22739732
186	0x3e729e77	0.23693262
187	0x3e53daae	0.20688888
188	0x3c1fe5b6	0.009759357
189	0xbda0f387	-0.07858949
190	0x3d942860	0.072342634
191	0xbead87ab	-0.3389257
192	0xbe0ad7c7	-0.13558875
193	0xbee516eb	-0.44744048
194	0xbe286baf	-0.16447328
195	0xbd88e2c3	-0.06683876
196	0xbe09f7b6	-0.134734
197	0xbe1dc75c	-0.15408081
198	0x3dad9d10	0.08477223
199	0x3dad7ffb	0.08471676
200	0xbc81f59e	-0.01586419
201	0xbd8b882a	-0.068130806
202	0xbe66cad0	-0.22538304
203	0xbd57a482	-0.05264712
204	0xbd00c31f	-0.031436082
205	0x3ea94763	0.33062276
206	0xbe3b1adb	-0.18271963
207	0xbe8e6b4f	-0.27816245
208	0xbe45f180	-0.19330406
209	0x3e51df4c	0.20495337
210	0x3e05d957	0.1307119
211	0x3eae7197	0.34071037
212	0xbd13b698	-0.036062807
213	0xbe803d22	-0.2504664
214	0x3c90f6bc	0.017695777
215	0x3e1af2c5	0.15131672
216	0xbb2b98e2	-0.0026183655
217	0xbe812516	-0.25223607
218	0xbdd76dc4	-0.10518983
219	0xbe84a6e8	-0.2590859
220	0xbd06c406	-0.032901786
221	0x3e8ac0f7	0.27100345
222	0xbe8dea32	-0.2771774
223	0x3e87b0b8	0.26502013
224	0xbe59fbc1	-0.21287443
225	0x3d87b587	0.066264205
226	0xbdd0ea11	-0.102008946
227	0x3ed12f75	0.4085652
228	0x3e5236a0	0.2052865
229	0x3c8f4e6e	0.017493453
230	0x3e12adcb	0.1432411
231	0xbe6316fd	-0.22176738
232	0xbe762389	-0.24036993
233	0xbe03d665	-0.12874754
234	0x3e838f00	0.25695038
235	0xbe2ac1b9	-0.16675462
236	0xbe3c897e	-0.18411824
237	0x3e75e176	0.24011788
238	0x3ddf0d6f	0.10891234
239	0x3d222406	0.039585136
240	0xbdf1e621	-0.11811472
241	0x3e9d8f31	0.3077331
242	0x3e67a812	0.22622707
243	0xbe36d506	-0.178547
244	0x3e3ac64f	0.18239711
245	0x3d836d16	0.06417291
246	0x3e1b7359	0.1518072
247	0x3e28be8f	0.16478942
248	0x3e0aaa75	0.13541587
249	0x3eca8ed0	0.39562082
250	0xbdd48892	-0.10377611
251	0x3ce930f1	0.02846572
252	0x3de24357	0.11048
253	0x3d059b7c	0.032618985
254	0xbe12ced5	-0.14336713
255	0xbe59b22d	-0.21259375

transformer.layers.0.self_attn.o_proj.bias f4 [32]
0	0xbb305c9f	-0.0026910675
1	0x3ce19046	0.027534615
2	0xbc276f3a	-0.01021939
3	0x3c63ec80	0.013911366
4	0x3b1e050b	0.0024111893
5	0x3cb848c6	0.022495639
6	0xbaf4976a	-0.0018660848
7	0xbb8645a6	-0.004097658
8	0x3d09f224	0.03367819
9	0x3cc3227b	0.023820153
10	0x3ce2464b	0.027621409
11	0x3b767cba	0.0037610964
12	0xbca80e58	-0.020514652
13	0xbc6d8249	-0.014496394
14	0x3c7a166c	0.015264135
15	0x3bb8b158	0.0056363754
16	0x3bc7522f	0.006082795
17	0xbc3329ef	-0.010935291
18	0xbbde77aa	-0.0067891674
19	0xbbf2579a	-0.007395697
20	0xbbb3e1ad	-0.005489549
21	0xbc41949b	-0.011815215
22	0xbc29eebb	-0.010371859
23	0x3c950f8f	0.018195895
24	0x38db088e	0.00010444327
25	0xbd34eb38	-0.044169635
26	0x3cb0eed6	0.02159826
27	0x3ac22b02	0.0014813843
28	0xbc2339f6	-0.009962549
29	0xbc951e0a	-0.0182028
30	0xbb8bd170	-0.0042669103
31	0xbc616f40	-0.013759434

transformer.layers.0.self_attn.qkv_proj.weight f4 [96, 32]
0	0x3f2fec50	0.6871996
1	0x3e29420a	0.16529098
2	0xbe874e7e	-0.26427072
3	0xbf17c24e	-0.5928086
4	0xbe45395e	-0.19260165
5	0xbe31f245	-0.17377575
6	0x3e6effbd	0.23339744
7	0xbed4f478	-0.41592765
8	0x3e186942	0.14883903
9	0xbe9fe079	-0.31225947
10	0x3ebecb05	0.37264267
11	0x3d090908	0.03345588
12	0x3e7e2b40	0.24821186
13	0x3d781e5e	0.060575835
14	0xbd713138	-0.05888483
15	0xbe3a2f15	-0.18182023
16	0x3ebedfa4	0.3728
17	0x3e2588eb	0.16165511
18	0x3dc47db6	0.0959429
19	0x3e67cfac	0.22637814
20	0x3de249f9	0.110492654
21	0xbd79cd13	-0.06098659
22	0x3b668622	0.0035175164
23	0xbce51d30	-0.02796802
24	0xbe2bb4cd	-0.16768189
25	0xbe003814	-0.12521392
26	0xbe91007b	-0.2832068
27	0x3e11b6cb	0.14229886
28	0x3e016f09	0.12640013
29	0x3e1e61c1	0.15466978
30	0x3e640758	0.22268426
31	0x3d76448c	0.060123965
32	0x3f33f921	0.70302016
33	0xbe79e40a	-0.24403396
34	0x3e1ef92b	0.15524738
35	0xbf0bdb9f	-0.5463199
36	0xbe98ccf8	-0.2984388
37	0x3e979266	0.2960388
38	0x3d47049e	0.048588388
39	0xbedb9fd1	-0.42895368
40	0x3d77a2b2	0.060457893
41	0xbe06e4c2	-0.13173202
42	0x3eb5217e	0.35377115
43	0xbd4d98fb	-0.05019472
44	0x3dc4f5fc	0.0961723
45	0x3e07a325	0.13245828
46	0xbddf7169	-0.10910303
47	0x3c3be2f3	0.011467683
48	0x3e613994	0.2199462
49	0x3d84defa	0.06487842
50	0x3db70584	0.08936599
51	0xbe1e1c9c	-0.15440601
52	0x3e572b27	0.21012555
53	0x3c0cee7c	0.008601781
54	0xba82b7d1	-0.0009972994
55	0x3ca582d2	0.020203982
56	0x3d9309d3	0.07179608
57	0xbe087e6f	-0.1332948
58	0xbe44a706	-0.1920434
59	0x3e322f4d	0.17400856
60	0xbcff5d33	-0.03117237
61	0xb9a72b64	-0.0003188505
62	0x3e1da0dd	0.15393396
63	0xbdc63d0c	-0.096796125
64	0x3f376cde	0.71650493
65	0xbebc2641	-0.36747935
66	0x3eaca38c	0.33718526
67	0x3e88fbbd	0.2675456
68	0x3c1ffd32	0.009764956
69	0x3eb2a361	0.34890273
70	0xbe98eca5	-0.29868045
71	0x3ddd37ed	0.108016826
72	0xbe96840b	-0.29397616
73	0x3e2d4e82	0.1692448
74	0xbe70f566	-0.23531112
75	0x3d498779	0.049201462
76	0x3b74607b	0.0037288952
77	0xbd898314	-0.06714454
78	0xbe5da659	-0.21645488
79	0x3e58d786	0.21175966
80	0xba2c551d	-0.0006573962
81	0x3de2cb98	0.11073989
82	0x3d34df09	0.044158015
83	0xbe14d657	-0.14534889
84	0x3e210e3b	0.15728085
85	0xbce4f48c	-0.02794864
86	0xbd0fda8d	-0.035120536
87	0xbdd4e0c1	-0.10394431
88	0xbec93a0e	-0.39302105
89	0xbe1f01c0	-0.15528011
90	0xbd86d493	-0.06583514
91	0xbe385d6b	-0.18004386
92	0xbe1b8013	-0.15185575
93	0xbe174304	-0.14771658
94	0x3e2cb931	0.1686752
95	0x3d48f5f3	0.04906268
96	0x3f2cab66	0.67449033
97	0x3f21f455	0.63263446
98	0xbed5cdbf	-0.41758534
99	0xbee5dec7	-0.44896528
100	0xbe366e47	-0.17815505
101	0xbe762b72	-0.2404001
102	0xbe6441ce	-0.22290727
103	0xbe8bc48e	-0.27298397
104	0xbe04422a	-0.12915865
105	0xbd0c131b	-0.034197908
106	0xbd66c7c9	-0.056342874
107	0xbdee59ff	-0.11638259
108	0xbdd085ae	-0.101817474
109	0x3dcbf31f	0.09958481
110	0xbdc031a9	-0.09384472
111	0xbdc5aa1e	-0.09651588
112	0x3ea1ce6a	0.31602794
113	0xbddc6554	-0.10761514
114	0x3d86a4a6	0.06574373
115	0xbe5e5797	-0.217131
116	0x3e46377a	0.193571
117	0x3def351f	0.11680054
118	0xbdee95d4	-0.11649671
119	0xbe5fedbc	-0.21868032
120	0xbd0979c0	-0.033563375
121	0xbd8c90d7	-0.068635635
122	0xbd596863	-0.053078067
123	0x3e15ee53	0.14641695
124	0xbe361d86	-0.177847
125	0x3e129cad	0.1431758
126	0x3d57da07	0.05269816
127	0xbe84b9cb	-0.25923
128	0x3efab1f8	0.48963904
129	0xbeb8d617	-0.36100838
130	0x3f31c32c	0.69438434
131	0x3ecd3429	0.40078858
132	0xbf0f0f5f	-0.5588283
133	0x3f011e61	0.5043698
134	0xbe686d15	-0.22697861
135	0xbee2cc54	-0.44296515
136	0xbe517b24	-0.2045713
137	0xbe7a161f	-0.24422501
138	0x3e61b27d	0.22040744
139	0xbe95fff2	-0.29296833
140	0x3de6f6df	0.11277556
141	0x3dd0cb9f	0.10195088
142	0xbd4c0a52	-0.04981453
143	0xbce20e67	-0.027594758
144	0xbe58365a	-0.21114483
145	0x3e2903a1	0.1650529
146	0x3e32794d	0.17429085
147	0xbe0cc69d	-0.1374764
148	0x3e1a669d	0.15078206
149	0x3dd0e5c0	0.10200071
150	0xbe66cf10	-0.22539926
151	0xbda3b3ac	-0.07993254
152	0x3e3bddbb	0.18346302
153	0x3df94509	0.121713705
154	0xbda8b94f	-0.0823847
155	0xbdd47678	-0.103741586
156	0xbca4c09f	-0.02011138
157	0x3d41fc4b	0.047359746
158	0x3e40f093	0.18841772
159	0xbe12b6ae	-0.143275
160	0xbe80dd90	-0.2516904
161	0x3f1cc17c	0.61232734
162	0x3f0a01eb	0.53909177
163	0x3ebd2d5c	0.3694867
164	0xbec157ab	-0.37762198
165	0x3eefe223	0.46852216
166	0xbe8ebb8e	-0.27877468
167	0xbe67150a	-0.2256662
168	0xbd9d8cfb	-0.076929055
169	0x3e0c26db	0.13686697
170	0xbe39cf91	-0.18145587
171	0x3c0671a9	0.00820581
172	0xbc054288	-0.008133538
173	0xbe3fb955	-0.18723042
174	0x39bff1b1	0.00036610433
175	0xbd666dff	-0.056257244
176	0x3da788e2	0.08180405
177	0x3d511ce2	0.051052935
178	0x3e01ca11	0.12674738
179	0x3db623e0	0.08893561
180	0x3d1b338c	0.037890956
181	0x3d34b4ce	0.04411774
182	0x3e59eb88	0.21281254
183	0x3e18ed18	0.14934194
184	0x3e989605	0.29801956
185	0xbe3900e4	-0.18066746
186	0x3e1c0b80	0.15238762
187	0x3e0bb72b	0.13644092
188	0xbec06b2f	-0.37581775
189	0xbdd4ec3a	-0.10396619
190	0x3c934489	0.017977016
191	0xbe4aadca	-0.19792858
192	0x3f2033f7	0.6257929
193	0xbe66eb11	-0.22550608
194	0xbe3cf390	-0.18452287
195	0x3f24d30d	0.6438454
196	0x3ce8349d	0.0283454
197	0x3e7712e6	0.24128303
198	0xbeccbe4e	-0.3998894
199	0x3ebc23a3	0.3674594
200	0xbefb31a3	-0.49061307
201	0x3ea4360a	0.3207248
202	0xbec41740	-0.38298988
203	0x3ced7c65	0.02898998
204	0xbee1dd13	-0.4411398
205	0xbe3ca391	-0.1842177
206	0xbed5cf72	-0.4175983
207	0x3e8509ae	0.25983948
208	0xbd9c215d	-0.07623551
209	0xbb2bddcf	-0.0026224738
210	0xbe0effa9	-0.13964714
211	0x3e6da2e5	0.2320667
212	0xbdec7d2b	-0.115473114
213	0xbd0f2611	-0.034948412
214	0xbdf00ec3	-0.117215656
215	0xbca155cd	-0.019694233
216	0xbe814bbd	-0.25253096
217	0x3d999974	0.07499972
218	0x3e13042d	0.14357062
219	0xbe007200	-0.12543488
220	0xbd1a1149	-0.03761414
221	0xbe2d3d7f	-0.1691799
222	0x3d04b8e7	0.0324029
223	0x3d82bd0d	0.06383715
224	0xbef51971	-0.47870973
225	0x3f1338ca	0.5750853
226	0x3f2e4354	0.68071485
227	0xbcf6fae4	-0.03014893
228	0xbe8b381c	-0.27191246
229	0x3d6c7e20	0.05773747
230	0xbe9e8ea8	-0.30968213
231	0xbed05ec0	-0.4069729
232	0x3e6b87ac	0.23000973
233	0xbe98b725	-0.29827228
234	0x3e8fee71	0.28111604
235	0xbe9228df	-0.28546807
236	0x3db5cbe3	0.08876779
237	0x3d348535	0.04407235
238	0x3e8b0d92	0.2715879
239	0xbe295a1d	-0.16538282
240	0x3d258bca	0.040416516
241	0x3d49c224	0.049257413
242	0xbe53a139	-0.2066697
243	0xbe6b7baa	-0.22996393
244	0x3da44a24	0.08021954
245	0xbe4a4738	-0.1975373
246	0x3b5a7d21	0.0033338743
247	0xbdf92ae7	-0.12166386
248	0x3e949428	0.29019284
249	0x3d05f4c2	0.032704122
250	0x3e2086c0	0.15676403
251	0x3dd26d09	0.10274703
252	0xbc0c68ff	-0.008569955
253	0x3dd2bb33	0.10289612
254	0x3deaacab	0.11458715
255	0xbe15cdee	-0.14629337

transformer.layers.0.self_attn.qkv_proj.bias f4 [96]
0	0x3d092900	0.033486366
1	0x3c2b3005	0.0104484605
2	0x3d23a653	0.03995354
3	0xbd15cc6e	-0.036571912
4	0x3c3d79e3	0.011564705
5	0xbc43028a	-0.011902461
6	0x3c915f9e	0.01774579
7	0xbc63c728	-0.013902463
8	0x3bec0947	0.0072032544
9	0x3c85d63f	0.016337512
10	0xbdae97a9	-0.08525021
11	0x3d5aab49	0.053386007
12	0xbb090c04	-0.0020911703
13	0x3c8fd2e5	0.017556617
14	0x3cba7806	0.02276231
15	0x3d3a876b	0.0455393
16	0xbbc4583f	-0.005991965
17	0xbd4e186b	-0.050316256
18	0x3d7bc171	0.061463777
19	0x3cece70d	0.028918767
20	0xbcf2cda0	-0.029639065
21	0xbcc9ffee	-0.02465817
22	0xbd0f236b	-0.034945887
23	0xbcc59327	-0.02411802
24	0x3d1e3ff2	0.0386352
25	0xbce3313a	-0.027733434
26	0xbc078f47	-0.008273906
27	0x3c4dcd3b	0.012561138
28	0xbd27442a	-0.04083649
29	0xbd9f3e83	-0.07775595
30	0x3d044f9b	0.03230248
31	0xbc541656	-0.012944778
32	0x38944694	7.070336e-05
33	0x3a88bea6	0.0010432794
34	0x39b1e688	0.0003393183
35	0x3a81edc1	0.0009912775
36	0xba0807ed	-0.00051891693
37	0x394380fd	0.00018644701
38	0xb8e670f9	-0.000109882974
39	0x3ab43ffc	0.0013751979
40	0xb9aa2784	-0.00032454368
41	0xb921a54a	-0.00015415731
42	0x3aa92023	0.0012903254
43	0xba32b033	-0.0006816417
44	0xb990cf4a	-0.00027620263
45	0xba2f13c4	-0.00066786655
46	0x38be42c2	9.0723406e-05
47	0x3a0f1f27	0.0005459659
48	0x3a98cbe5	0.0011657445
49	0x397305e7	0.00023176485
50	0x389f659f	7.600639e-05
51	0x3a9a7e49	0.0011786903
52	0x38f031bd	0.00011453356
53	0x39848e94	0.0002528323
54	0x39762a1a	0.00023476072
55	0xb9c0a001	-0.00036740306
56	0xbae21394	-0.0017248266
57	0x3a52afc5	0.0008037056
58	0x3aba2c2e	0.001420384
59	0xba08ebd1	-0.00052231277
60	0x3a649639	0.00087198947
61	0x3a7609f5	0.0009385639
62	0x37c82e41	2.3863397e-05
63	0x3a5a29ff	0.0008322298
64	0xbc55ec33	-0.013056803
65	0xbba06196	-0.0048944457
66	0x3c4fd491	0.012684957
67	0xbbed312e	-0.0072385287
68	0xbae11504	-0.0017172401
69	0xbc3bc293	-0.011459964
70	0x3c628ef5	0.013828029
71	0xbbe9eeb8	-0.007139053
72	0xbc9358b5	-0.017986635
73	0xbc8f3d71	-0.017485352
74	0x3c0aa950	0.008463219
75	0x3ca3a552	0.019976292
76	0x3b24cb5a	0.002514562
77	0xbb399263	-0.0028316013
78	0x3c973f52	0.01846281
79	0xbbae6879	-0.0053225127
80	0xbd081628	-0.033224255
81	0x3c69e5d9	0.014275991
82	0xbd01b6f1	-0.031668607
83	0xbc47f43a	-0.012204224
84	0x3b840c7e	0.0040298095
85	0x3bd48ff8	0.006486889
86	0x3c25b497	0.010113857
87	0x3b9ea104	0.004840972
88	0xbc33088a	-0.010927329
89	0x3c802a78	0.01564525
90	0x3c750292	0.014954226
91	0xba278b8e	-0.00063913397
92	0x3b5edf8d	0.0034007758
93	0xbc8c0162	-0.017090503
94	0xbc43e5fe	-0.01195669
95	0xbbaa9bd0	-0.0052065626

transformer.layers.0.ffn.0.weight f4 [32, 32]
0	0xbde5b353	-0.11215844
1	0xbe598fc6	-0.21246251
2	0xbd8d779b	-0.069075786
3	0xbd3febfb	-0.046855908
4	0xbe1fc0e4	-0.15600926
5	0x3d96c406	0.07361607
6	0x3d31320c	0.04326062
7	0xbe38a61d	-0.18032117
8	0xbd9ff682	-0.078106895
9	0x3e07adef	0.13249944
10	0xbdf059d0	-0.117358804
11	0xbe398316	-0.18116412
12	0xbd5128e3	-0.051064383
13	0xbd2560eb	-0.04037563
14	0x3df531fa	0.11972423
15	0x3cec88b5	0.02887378
16	0x3cb53513	0.022120034
17	0xbdaab408	-0.083351195
18	0x3e01ba7d	0.12668796
19	0x3dcc4bd7	0.09975403
20	0x3dc6ba86	0.09703545
21	0x3e232561	0.15932228
22	0xbe5109e0	-0.20413923
23	0x3d927a94	0.07152286
24	0xbcd30af4	-0.025762059
25	0x3ca05355	0.019570986
26	0x3e0ec9a3	0.13944106
27	0xbe8c3ede	-0.27391714
28	0xbda0006a	-0.07812579
29	0xbe097c72	-0.13426378
30	0x3d800071	0.06250084
31	0x3e0a85c0	0.13527584
32	0x3e5e36d7	0.21700607
33	0xbe54d65b	-0.20784895
34	0xbca35cc5	-0.019941697
35	0xbdcf9171	-0.101351626
36	0xbcb26238	-0.02177535
37	0x3dc6efc7	0.09713703
38	0x3e2f2fa0	0.17108011
39	0xbe513b24	-0.20432717
40	0xbdfb68c7	-0.12275844
41	0x3d49d004	0.049270645
42	0x3e79e9c3	0.2440558
43	0xbd255f1d	-0.04037391
44	0xbd0f4035	-0.034973342
45	0x3e0e7571	0.13911988
46	0xbe5822f1	-0.21107079
47	0xbe3a4f11	-0.18194224
48	0xbd1cd545	-0.038289327
49	0xbdaa6969	-0.08320887
50	0x3e0aabd4	0.1354211
51	0x3da22d17	0.079187565
52	0xbc47633e	-0.012169657
53	0x3dbc3f05	0.091917075
54	0xbe590d97	-0.2119659
55	0x3d2de228	0.042452008
56	0xbe6d06cf	-0.23147129
57	0x3cf28bf5	0.029607752
58	0xbb97e92c	-0.0046359506
59	0x3e5bfd9d	0.21483465
60	0x3e1b6a35	0.15177234
61	0xbd9bd761	-0.0760944
62	0x3e3b40cb	0.18286435
63	0x3c294be7	0.010333038
64	0xbd40131f	-0.046893235
65	0x3e633963	0.2218986
66	0xbdf8d24c	-0.12149486
67	0x3dad3890	0.08458054
68	0xbd2763ce	-0.040866666
69	0xbcdd2b64	-0.02699823
70	0xbd422fb0	-0.04740876
71	0x3de1e58f	0.11030113
72	0xbdab2037	-0.08355754
73	0xbccd6789	-0.025073783
74	0xbdfe20a3	-0.12408569
75	0xbd1c675f	-0.03818452
76	0xbd41701e	-0.047226064
77	0xbd12d6a5	-0.035849232
78	0xbdec4e5a	-0.11538382
79	0xbd47aa91	-0.04874665
80	0x3e22708f	0.1586325
81	0x3d219616	0.039449774
82	0x3af0950b	0.0018354965
83	0x3d88389d	0.06651423
84	0xbe1eb170	-0.15497375
85	0xbd8b97c3	-0.068160556
86	0x3dac2654	0.08405748
87	0xbc5cde1b	-0.013480688
88	0x3db6c334	0.08923951
89	0x3e1896b4	0.14901239
90	0xbd0dd567	-0.034627344
91	0xbe0b7a4f	-0.13620876
92	0xbe85cdc0	-0.26133537
93	0xbda2d3a3	-0.07950523
94	0xbe2087ce	-0.15676805
95	0x3db328c8	0.08748013
96	0xbe513fac	-0.20434445
97	0x3d3c98b0	0.04604405
98	0xbe05d430	-0.13069224
99	0x3d836347	0.0641542
100	0xbe1af48a	-0.15132347
101	0xbe28606e	-0.16443035
102	0x3d412f87	0.047164466
103	0x3ce3ffe2	0.027831975
104	0x3c806b94	0.015676297
105	0x3d827cfc	0.06371495
106	0xbd22c3e0	-0.039737582
107	0x3d51863c	0.051153407
108	0x3d6d9dc0	0.05801177
109	0x3d715f46	0.05892875
110	0x3d88cd46	0.06679778
111	0xbc85e5a2	-0.016344849
112	0xbe2ed258	-0.17072427
113	0x3e0bcaf2	0.13651636
114	0x3aeecc5a	0.001821886
115	0x3e5d9a47	0.21640883
116	0xbdccd2d9	-0.100011535
117	0xbe0f2238	-0.13977897
118	0x3e459211	0.19294001
119	0x3e2e95a4	0.17049271
120	0xbe16b9d9	-0.14719333
121	0xbdeebb2d	-0.11656795
122	0x3da58c82	0.0808344
123	0x3e021e2b	0.1270682
124	0xbe269c60	-0.1627059
125	0x3dc6ae5e	0.09701227
126	0x3dc422d4	0.095769554
127	0xbe018fe8	-0.12652552
128	0xbe80d352	-0.25161225
129	0xbdc2a667	-0.09504395
130	0x3e1dc45a	0.15406933
131	0xbd823959	-0.063585944
132	0xbda7d044	-0.081940204
133	0x3de2572a	0.110517815
134	0x3d833174	0.06405917
135	0x3e67b8cd	0.2262909
136	0x3c8ea31d	0.017411763
137	0x3e3b28b0	0.1827724
138	0x3d31dd7d	0.04342412
139	0x3df5da71	0.12004555
140	0xbdaff889	-0.08592326
141	0x3dedd995	0.11613766
142	0xbe0f55d6	-0.13997588
143	0xbc04e500	-0.0081112385
144	0xbe68bd04	-0.22728354
145	0x3e15b44c	0.14619559
146	0xbd6c32bd	-0.057665575
147	0xbacc5b9f	-0.001559127
148	0xbe41d11c	-0.18927425
149	0xbd7ba03f	-0.06143212
150	0xbc77f27d	-0.015133497
151	0xbb8b387c	-0.004248677
152	0x3d6abfca	0.05731181
153	0xbd882b7a	-0.066489175
154	0xbe35b8b0	-0.17746234
155	0x3c940bc3	0.018072015
156	0xbd78876e	-0.06067603
157	0x3d92a7ca	0.071609095
158	0xbe2fc08d	-0.17163296
159	0x3d87fd79	0.06640143
160	0xbdff4f87	-0.124663405
161	0xbb920ffe	-0.004457473
162	0xbd89d849	-0.06730706
163	0x3e5fec17	0.21867405
164	0x3c313cab	0.010817687
165	0x3c866591	0.016405853
166	0x3bc97f5b	0.006149215
167	0xbdc55277	-0.096348695
168	0x3d930704	0.071790725
169	0xbd612652	-0.054968186
170	0xbde87797	-0.11350935
171	0x3c1b9737	0.009496502
172	0x3e3310cb	0.17486875
173	0x3d4f82ff	0.050662037
174	0xbd583d8d	-0.052793074
175	0x3dcaf824	0.0991061
176	0x3e056f97	0.1303085
177	0x3e2d0f45	0.16900356
178	0xbdfe4ed1	-0.12417377
179	0x3dac7ced	0.08422265
180	0xbe221e0a	-0.15831771
181	0x3e78974a	0.24276462
182	0x3d81764f	0.06321394
183	0x3db59c55	0.088677086
184	0x3e952464	0.29129326
185	0xbcd3e25a	-0.025864769
186	0xbcce462c	-0.025179945
187	0xbdfe32c1	-0.12412024
188	0xbd9254f3	-0.07145109
189	0x3dd0deb9	0.10198731
190	0xbe0ace83	-0.1355534
191	0x3cb5d9dd	0.022198612
192	0xbe54c239	-0.20777215
193	0xbe0417cd	-0.12899704
194	0xbdfb8acd	-0.122823335
195	0x3e1cf82e	0.15329048
196	0xbdea2e66	-0.11434631
197	0xbd7ac33d	-0.06122135
198	0x3ca51115	0.020149747
199	0x3d1e3056	0.038620315
200	0x3dc2cab2	0.09511317
201	0xbdd1ee67	-0.1025055
202	0x3e5f8492	0.21827915
203	0xbe3b5808	-0.182953
204	0x3d8f0836	0.06983988
205	0xbd6c3cdb	-0.057675224
206	0xbd995629	-0.07487137
207	0xbdbea86e	-0.09309469
208	0x3d1236e8	0.035696894
209	0xbe10720e	-0.14106008
210	0xbc94e1e7	-0.018174125
211	0x3c5b0dc9	0.013369986
212	0xbdd76408	-0.10517126
213	0x3e09ac66	0.13444671
214	0xbdb84fd1	-0.08999599
215	0x3e17a043	0.14807229
216	0xbd9adef0	-0.07562053
217	0x3e221202	0.15827182
218	0xbda80fef	-0.08206164
219	0x3b4c4622	0.0031169732
220	0xbe3f441b	-0.18678324
221	0xbc375d0c	-0.011191618
222	0xbde9d50c	-0.114175886
223	0x3ce649ed	0.028111422
224	0x3dc7759d	0.0973923
225	0x3b072a82	0.0020624702
226	0x3d91c7d3	0.071181916
227	0x3df84aaa	0.12123616
228	0xbe57dbfb	-0.2108001
229	0x3e1db915	0.15402634
230	0xbd892347	-0.06696182
231	0xbe11d4d6	-0.14241347
232	0xbc69c0b8	-0.014267139
233	0xbe920d51	-0.28525785
234	0xbc1434c6	-0.009045785
235	0xbe051750	-0.12997174
236	0x3d0ce734	0.03440018
237	0xbe2c7e72	-0.1684511
238	0xbd6427d8	-0.05570206
239	0x3e00b075	0.12567313
240	0x3e18c861	0.14920188
241	0xbddbdab7	-0.10735076
242	0xbcdf1ec5	-0.027236352
243	0x3c391ee1	0.011298866
244	0xbe0c8170	-0.13721251
245	0xbe04587a	-0.12924376
246	0xbe92cd12	-0.2867208
247	0x3cb19c03	0.021680837
248	0x3df1c27a	0.118046716
249	0xbd3e9d74	-0.046536878
250	0xbe0cdc33	-0.13755874
251	0xbccc8434	-0.024965383
252	0xbd9e7c55	-0.07738558
253	0xbd1e2800	-0.038612366
254	0x3d547ba0	0.05187571
255	0xbc0c934c	-0.00858004

transformer.layers.0.ffn.0.bias f4 [32]
0	0x3e1f04aa	0.15529123
1	0x3d49b78f	0.04924732
2	0x3da940ba	0.08264299
3	0xbdf01ba6	-0.117240235
4	0x3e2f375e	0.17110965
5	0xbdefa892	-0.11702074
6	0x3e2f64bd	0.17128272
7	0x3cf2b5de	0.029627737
8	0x3d9010c1	0.070344456
9	0x3d8e7204	0.069553405
10	0xbd8335d4	-0.06406751
11	0x3d96b353	0.07358422
12	0x3df8b843	0.1214452
13	0xbdb7cee0	-0.08975005
14	0x3d8b48e5	0.06801013
15	0x3cd6896a	0.026188571
16	0xbe005427	-0.12532102
17	0x3e219153	0.15778093
18	0x3e16185b	0.14657728
19	0x3e3eb820	0.18624926
20	0x3c780aea	0.015139321
21	0xbc1b5a54	-0.009481985
22	0xbdda6897	-0.1066448
23	0xbdddaab7	-0.10823577
24	0xbdd25a45	-0.10271124
25	0xbd2a4641	-0.041570906
26	0xbd0dffab	-0.034667652
27	0x3dc2783b	0.094955884
28	0x3d8053ed	0.062660076
29	0x3d8d1f0f	0.068906896
30	0xbca4bb24	-0.020108767
31	0x3e303ca7	0.17210637

transformer.layers.0.ffn.3.weight f4 [32, 32]
0	0x3e3df07b	0.18548767
1	0xbe2de656	-0.16982397
2	0xbdfdea36	-0.12398188
3	0xbd4099eb	-0.047021788
4	0x3c34496b	0.011003832
5	0xbcff027f	-0.03112912
6	0x3e54c88f	0.20779632
7	0xbd4b1ef9	-0.049590085
8	0xbdba3e8e	-0.090939626
9	0xbdbd2300	-0.09235191
10	0x3dd80189	0.10547168
11	0xbe365e13	-0.17809324
12	0x3e319f7e	0.17345998
13	0x3e0e4fc1	0.13897611
14	0xbe20d192	-0.15704945
15	0xbe0f6057	-0.14001594
16	0xbd480d99	-0.048841093
17	0xbd06d628	-0.03291908
18	0x3c0b1dd6	0.008491
19	0x3e31938d	0.17341442
20	0xbdaffde2	-0.08593346
21	0x3d375fd3	0.04476912
22	0x3cb72fad	0.0223616
23	0xbe05c6a6	-0.1306406
24	0xbd362677	-0.044470277
25	0x3c84b38b	0.016198894
26	0xbcc6dfec	-0.024276696
27	0x3d10ff85	0.035399932
28	0x3dbf8ef1	0.09353436
29	0xbd8a4331	-0.06751097
30	0x3d1a2c37	0.037639823
31	0x3e03da67	0.12876283
32	0xbdf0be0b	-0.11754998
33	0xbe48c35a	-0.1960577
34	0xbd8ab417	-0.06772631
35	0x3e4e607f	0.20153998
36	0xbda51712	-0.08061041
37	0x3e21c930	0.15799403
38	0x3d707be2	0.058711894
39	0xbde8c16a	-0.11365016
40	0x3dba296a	0.0908993
41	0xbdbffefb	-0.093748055
42	0x3e18d1f5	0.14923842
43	0x3ca4a2e6	0.020097207
44	0x3e09cdae	0.13457367
45	0xbe1c82cb	-0.15284269
46	0x3e030a18	0.12796819
47	0x3c23d311	0.009999053
48	0x3d87f7d3	0.066390656
49	0xbd2d7b93	-0.042354178
50	0x3e02f0ef	0.12787221
51	0x3e14b92a	0.1452376
52	0xbd15e1f1	-0.036592428
53	0x3e278699	0.16359939
54	0xbddb037a	-0.106940225
55	0x3e2fe9f3	0.17179088
56	0xbd918f0f	-0.071073644
57	0xbb57cef3	-0.0032929748
58	0xbd7574e6	-0.059925936
59	0xbd793913	-0.060845446
60	0x3c46c950	0.012132958
61	0x3c73d268	0.014881708
62	0x3e397354	0.181104
63	0xbdfeb5af	-0.12436997
64	0xbb853441	-0.004065067
65	0xbd5ce9ef	-0.053934034
66	0x3e2f8dcb	0.17143933
67	0x3dedd605	0.116130866
68	0x3dd44883	0.10365393
69	0x3e03df53	0.1287816
70	0xbcfc4a59	-0.03079717
71	0x3d9890a5	0.07449464
72	0xbda3ebe4	-0.08003977
73	0xbd09f1b2	-0.033677764
74	0x3e2cbd14	0.16869003
75	0xbd6a8149	-0.057252202
76	0x3dbe6c3f	0.0929799
77	0xbe11ff72	-0.14257601
78	0xbe953d67	-0.2914841
79	0xbdddbdd7	-0.10827225
80	0xbe22dec2	-0.15905288
81	0x3d9f222f	0.07770192
82	0x3dd5953a	0.10428853
83	0xbe1eea34	-0.15519029
84	0x3dd99528	0.106241524
85	0x3df97e81	0.12182332
86	0xbe46cc6e	-0.19413921
87	0x3ca8dc03	0.020612722
88	0x3a7a0f32	0.00095390074
89	0x3e172b90	0.14762712
90	0x3d1fbd16	0.038998686
91	0x3e1b5e7f	0.15172766
92	0xbd435edc	-0.047697887
93	0x3e1d61a1	0.15369274
94	0xbcc423ee	-0.023942914
95	0x3db82c50	0.08992827
96	0xbe37471f	-0.17898224
97	0x3dde553e	0.108561024
98	0xbdb9ec8a	-0.09078319
99	0xbdd31d8c	-0.1030837
100	0xbcb15101	-0.021645071
101	0xbdcb87d3	-0.09938016
102	0xbe420ab5	-0.18949397
103	0x3e7180b0	0.23584247
104	0x3dabdf21	0.08392168
105	0x3ab37e65	0.0013694285
106	0x3ddba01e	0.10723899
107	0x3d3cc335	0.0460846
108	0xbe0b3882	-0.13595775
109	0xbdc241bd	-0.09485195
110	0x399109c9	0.00027663846
111	0xbe5e9572	-0.21736696
112	0x3daae33a	0.08344121
113	0xbd4a7530	-0.049428165
114	0x3da09510	0.078409314
115	0xbe402dae	-0.18767425
116	0x3e02dd01	0.12779619
117	0x3cbdd2b0	0.023171753
118	0x3c87344d	0.016504431
119	0xbdd3c172	-0.10339631
120	0xbd46de03	-0.04855157
121	0x3e304aae	0.17215988
122	0xbe4342bc	-0.19068426
123	0xbddcc0b6	-0.10778944
124	0x3d73408c	0.05938773
125	0x3e19b379	0.1500987
126	0xbdcf48be	-0.10121296
127	0xbe7a5b98	-0.24449003
128	0xbd9f91e6	-0.077915
129	0xbe72109d	-0.2363915
130	0x3d909e83	0.07061484
131	0x3e4154f1	0.18880059
132	0x3ca7c4b7	0.020479543
133	0xbd1d4af5	-0.038401563
134	0x3e412992	0.18863514
135	0x3da5aefc	0.08090016
136	0x3e086ff0	0.13323951
137	0xbdaa3fc0	-0.083129406
138	0x3e710920	0.23538637
139	0x3de40a0e	0.1113473
140	0x3dcc00dc	0.099611014
141	0x3e0616a6	0.13094577
142	0xbe12a601	-0.14321138
143	0xbe38df54	-0.18053943
144	0xbd9057b2	-0.070479766
145	0x3dd3488b	0.10316571
146	0x3de9b0d0	0.114106774
147	0x3e3b8110	0.18310952
148	0xbe07d575	-0.13265021
149	0x3dcc2947	0.099688105
150	0xbd7998bd	-0.06093668
151	0xbe670f9d	-0.2256455
152	0x3dd3c30f	0.10339939
153	0x3d2a306c	0.041550085
154	0x3d5d0a67	0.053965
155	0xbde0b0e8	-0.10971242
156	0xbdd27a23	-0.10277202
157	0xbe4435a7	-0.19161092
158	0x3e25eb9e	0.16203162
159	0xbd1e4fd0	-0.038650334
160	0x3e34a35a	0.17640439
161	0x3e662674	0.22475606
162	0xbe4dbff9	-0.20092763
163	0xbdde62df	-0.10858702
164	0xbd731a55	-0.059351284
165	0xbccb30c6	-0.02480353
166	0xbe28dc8f	-0.16490386
167	0x3bac0e89	0.005250756
168	0x3ddc7b1d	0.107656695
169	0xbdb06740	-0.086134434
170	0x3d8c9870	0.06865013
171	0x3e66064e	0.22463343
172	0xbb52a0bd	-0.0032139265
173	0x3da3c4d3	0.079965256
174	0x3dc18cb4	0.09450665
175	0x3e10d8c6	0.14145193
176	0xbdd01b01	-0.101614006
177	0x3d1d5de4	0.03841962
178	0x3e085c9f	0.13316582
179	0xbae23eb8	-0.0017261123
180	0xbe0a0154	-0.13477069
181	0x3ce1af32	0.02754936
182	0xbe4992f8	-0.1968497
183	0x3c91b7e2	0.017787877
184	0xbe8e2a47	-0.2776663
185	0x3df94bc5	0.12172655
186	0xbd8bcc61	-0.068260916
187	0xbdf77a4a	-0.12083872
188	0x3d7b63d8	0.061374515
189	0x3e0c3230	0.1369102
190	0xbe1d85da	-0.15383092
191	0xbc893e52	-0.01675335
192	0x3e280ba4	0.1641069
193	0x3c7b85bb	0.015351708
194	0x3df31c7f	0.118706696
195	0x3dfd6935	0.12373582
196	0xbe228d3f	-0.15874194
197	0x3e3aa72b	0.18227832
198	0x3dd7d4f5	0.10538665
199	0x3d043dec	0.032285616
200	0xbbe7a6fa	-0.0070694657
201	0xbc51ba5a	-0.012800777
202	0x3d0772dc	0.033068523
203	0xbd1decfc	-0.038556084
204	0xbdc6bc0d	-0.097038366
205	0x3d2aaa0a	0.041666068
206	0xbdd446a1	-0.10365034
207	0x3e4ded2c	0.20110005
208	0x3e1a050f	0.15040992
209	0xbdea506c	-0.114411205
210	0x3e06a277	0.13147913
211	0xbda8dfd3	-0.08245816
212	0xbd37be40	-0.04485917
213	0xbe0a853a	-0.13527384
214	0x3c826906	0.01591922
215	0x3d6bdd0c	0.057583854
216	0x3e0e2761	0.1388221
217	0x3d459e63	0.048246752
218	0xbda931ea	-0.082614735
219	0xbd3315d8	-0.043722004
220	0xbddd7fe5	-0.108154096
221	0xbeeb1230	-0.45912313
222	0x3e2da35d	0.1695685
223	0x3e86dd7a	0.26340848
224	0xbdda27ea	-0.10652144
225	0x3e805e62	0.25072008
226	0x3e27e15f	0.16394566
227	0xbdddc42b	-0.10828432
228	0xbdff113a	-0.124544576
229	0x3e0b90c2	0.1362944
230	0x3dd1373f	0.102156155
231	0x3e5d4049	0.21606554
232	0xbddcd17f	-0.10782146
233	0x3e1dece5	0.154224
234	0x3d1b6246	0.037935518
235	0xbdb9d8e0	-0.09074569
236	0x3ce430ce	0.027855303
237	0x3e293c53	0.16526918
238	0x3dc0f600	0.09421921
239	0xbd8d3576	-0.068949625
240	0xbd8bc453	-0.06824555
241	0xbdafa63e	-0.0857663
242	0xbe3512e1	-0.17682983
243	0xbd742189	-0.059602294
244	0x3d125971	0.03572983
245	0xbd16f818	-0.036857694
246	0xbbf16119	-0.0073663113
247	0xbd7dd063	-0.06196631
248	0x3d8e6506	0.069528624
249	0xbd9a27a0	-0.07527089
250	0xbdef0032	-0.11669959
251	0xbcfdc061	-0.030975522
252	0x3dcf7f4e	0.10131703
253	0xbe2939a3	-0.16525893
254	0xbdb3524e	-0.08755933
255	0xbd1cbeda	-0.038267948

transformer.layers.0.ffn.3.bias f4 [32]
0	0x3dcd0917	0.100114994
1	0x3da4e770	0.08051956
2	0x3dc76258	0.097355545
3	0x3d1ef2d8	0.038805813
4	0x3dfdf780	0.124007225
5	0xbc9f9f40	-0.019485116
6	0xbd5d1520	-0.053975224
7	0x3dd25780	0.102705956
8	0xbe11defa	-0.14245215
9	0x3e1c81bb	0.15283863
10	0x3e2ad225	0.16681726
11	0x3e0e9486	0.13923845
12	0x3de5c61f	0.11219429
13	0xbd421a94	-0.047388628
14	0xbdc91c64	-0.09819868
15	0x3d9b16b9	0.075726934
16	0x3e301474	0.17195302
17	0x3d16ad20	0.0367862
18	0xbc86394b	-0.016384741
19	0xbde191c1	-0.110141285
20	0x3e124200	0.1428299
21	0x3e067c85	0.13133438
22	0x3965c4d9	0.00021912473
23	0xbdd7cfa2	-0.1053765
24	0xbde47277	-0.11154645
25	0xbe3275b5	-0.17427714
26	0xbd4e9a1c	-0.05043994
27	0x3dc80c5f	0.097679846
28	0x3e0d50fd	0.13800426
29	0xbe1e8426	-0.15480098
30	0x3df22f22	0.11825396
31	0x3e0f0769	0.1396767

transformer.layers.0.layer_norm_self_attn.weight f4 [32]
0	0x3f7ce545	0.9878734
1	0x3f8065c9	1.0031062
2	0x3f6e7eec	0.9316242
3	0x3f6f1fd8	0.93407965
4	0x3f6f61bc	0.93508506
5	0x3f6e59a3	0.93105525
6	0x3f899dc9	1.0751277
7	0x3f6db9b0	0.9286146
8	0x3f65ef16	0.8981794
9	0x3f8440d4	1.0332284
10	0x3f6f45b1	0.93465716
11	0x3f7497f1	0.95544344
12	0x3f8c0de9	1.0941745
13	0x3f6bdd57	0.9213461
14	0x3f82e9e6	1.022763
15	0x3f82fcef	1.0233439
16	0x3f7ca29e	0.98685634
17	0x3f73d185	0.95241576
18	0x3f8441df	1.0332602
19	0x3f8ae61a	1.0851471
20	0x3f7bacdc	0.9831064
21	0x3f874a54	1.0569558
22	0x3f8a5a62	1.0808833
23	0x3f7fe530	0.9995909
24	0x3f8a300a	1.079591
25	0x3f7a5ac5	0.97794753
26	0x3f848569	1.0353214
27	0x3f8908ae	1.0705774
28	0x3f83eb52	1.0306189
29	0x3f78ccb0	0.9718733
30	0x3f85a6e5	1.0441557
31	0x3f821210	1.0161762

transformer.layers.0.layer_norm_self_attn.bias f4 [32]
0	0x3b007ca4	0.0019605542
1	0x3c800bd7	0.015630646
2	0xbc77d27f	-0.01512587
3	0xbb2503f5	-0.002517936
4	0x3c6e68fe	0.014551399
5	0x3c8d5f86	0.017257463
6	0xbafed6e6	-0.0019442707
7	0xbb01c436	-0.0019800789
8	0x3c262df4	0.010142792
9	0x3ccf41ce	0.025299933
10	0x3cc6ac24	0.024252005
11	0xba3f63b6	-0.000730093
12	0xbcc1d483	-0.023660904
13	0xbc65c2c5	-0.014023487
14	0x3c5e9b1b	0.013586785
15	0xbc6aa493	-0.014321464
16	0xbaa0aee3	-0.0012259152
17	0xbca387ce	-0.019962218
18	0xbbb44049	-0.0055008275
19	0x3bc4abf1	0.0060019423
20	0x3993ae9c	0.0002816812
21	0xbbf4b446	-0.0074677793
22	0xbc15e2cb	-0.00914831
23	0x3ae4cd72	0.0017456247
24	0xbb1306df	-0.0022434515
25	0xbd2f9de9	-0.042875204
26	0x3ccf10d7	0.025276585
27	0xbbc96fe6	-0.0061473725
28	0xbbcccced	-0.006250015
29	0xbc379e05	-0.011207108
30	0x3bb81af8	0.0056184493
31	0xbc40df6c	-0.011772018

transformer.layers.0.layer_norm_ffn.weight f4 [32]
0	0x3f649c09	0.8930059
1	0x3f80d56e	1.0065134
2	0x3f6a89ff	0.91616815
3	0x3f6b2fb8	0.9186969
4	0x3f6aa899	0.9166351
5	0x3f63c29c	0.88968825
6	0x3f8c57cb	1.0964292
7	0x3f6cff08	0.92576647
8	0x3f6579d0	0.89638996
9	0x3f7f33bc	0.99688315
10	0x3f686204	0.9077456
11	0x3f79c874	0.9757149
12	0x3f8a04b1	1.0782682
13	0x3f6aa353	0.91655463
14	0x3f8635b2	1.0485137
15	0x3f85e698	1.0460997
16	0x3f7d04f8	0.98835707
17	0x3f72989c	0.94764113
18	0x3f88dd59	1.069255
19	0x3f8f80e2	1.1211207
20	0x3f7e61cd	0.9936798
21	0x3f8788f5	1.0588671
22	0x3f860cca	1.0472653
23	0x3f87b91c	1.0603366
24	0x3f861238	1.047431
25	0x3f8460fc	1.0342097
26	0x3f820e72	1.0160658
27	0x3f8857c0	1.0651779
28	0x3f847518	1.0348234
29	0x3f7d0139	0.9882999
30	0x3f8672f9	1.0503837
31	0x3f851f95	1.0400263

transformer.layers.0.layer_norm_ffn.bias f4 [32]
0	0xbac7cd8e	-0.0015243755
1	0x3cea93dc	0.028634958
2	0xbbc95909	-0.006144647
3	0xbba8063b	-0.005127696
4	0x3c9af4d4	0.018915571
5	0x3cc0645b	0.023485353
6	0xbc1c0757	-0.009523234
7	0xbcaa97a9	-0.02082427
8	0xbb01287b	-0.0019707966
9	0x3cbdff43	0.023193007
10	0x3ccd0d39	0.02503072
11	0x3cd01aee	0.025403466
12	0xbcf43c5a	-0.029813934
13	0xbc06b38c	-0.008221518
14	0x3bb46ba2	0.005505995
15	0xbc9685f1	-0.018374415
16	0x3a10ef79	0.0005528848
17	0xbd008f47	-0.03138664
18	0x3bf6d330	0.0075324997
19	0xb83bdff7	-4.4792858e-05
20	0x3c1f374a	0.009717772
21	0xbbce09cc	-0.006287789
22	0xbbd30612	-0.0064399326
23	0x3c150876	0.0090962555
24	0x3c79c500	0.015244722
25	0xbca81841	-0.020519378
26	0x3c6d72b1	0.014492677
27	0xbca8eda1	-0.020621123
28	0xbc33383b	-0.010938699
29	0xbc9f1c9e	-0.019422825
30	0x3be5797c	0.0070030075
31	0xbc0705d4	-0.008241136

output_net.0.weight f4 [32, 32]
0	0xbaa06fad	-0.0012240313
1	0x3d5c13d2	0.05372984
2	0x3dc5b1f7	0.09653085
3	0xbcdc3b12	-0.026883636
4	0x3a773438	0.00094300834
5	0xbdc5d196	-0.09659116
6	0xbc92f570	-0.0179393
7	0x3ddaa97f	0.1067686
8	0xbb4f40ce	-0.003162432
9	0x3b0ef523	0.0021813593
10	0x3c365af5	0.011130084
11	0x3c8f5a6b	0.01749917
12	0xbc50a484	-0.012734536
13	0x3aa08604	0.0012246971
14	0x3d28cde4	0.041211978
15	0x3c9be7cb	0.019031426
16	0xbd978199	-0.07397766
17	0xbdbfc366	-0.09363441
18	0x3e042d7a	0.12907973
19	0x3c5c48ab	0.01344506
20	0x3dfd5613	0.12369933
21	0xbd987910	-0.07444966
22	0xbd0a68e8	-0.033791453
23	0xbce353ec	-0.027749978
24	0x3d316160	0.043305755
25	0x3d12706a	0.035751738
26	0x3d38b71f	0.045096513
27	0xbc8c2f0d	-0.01711228
28	0xba090329	-0.0005226606
29	0xbdef0ca3	-0.11672332
30	0x3d8f2840	0.06990099
31	0xbd9d7468	-0.07688218
32	0xbdb53c6e	-0.08849417
33	0xbd07a443	-0.033115637
34	0xbd125910	-0.035729468
35	0x3c9c85ef	0.019106833
36	0x3d28c154	0.041199997
37	0x3d875bf7	0.06609338
38	0xbcc952e3	-0.024575656
39	0xbd9a6cef	-0.07540309
40	0x3e03f2e2	0.12885621
41	0x3ddd8881	0.10817052
42	0xbddaa817	-0.10676592
43	0xbe1a364a	-0.15059772
44	0x3d9b93ee	0.07596575
45	0x3d08a0ca	0.033356465
46	0xbb0e100b	-0.0021677043
47	0x3ce5ee6c	0.02806779
48	0xbd1645b0	-0.036687553
49	0x3d92996c	0.07158169
50	0x3b88c2a5	0.004173594
51	0x3d60a917	0.054848757
52	0x3c256d7f	0.010096907
53	0xbc31fc3d	-0.010863361
54	0x3d05923d	0.032610167
55	0xbc871881	-0.016491177
56	0xbd720b6d	-0.059092928
57	0x3c91d26f	0.017800538
58	0xbcc409d7	-0.023930473
59	0xbba8ec63	-0.0051551326
60	0xbdaeb796	-0.0853111
61	0xbe0baa75	-0.13639243
62	0xbd293792	-0.04131276
63	0x3c4d39e4	0.012526009
64	0xbd0f3957	-0.034966793
65	0xbd03f68c	-0.032217547
66	0x3c66eb26	0.01409415
67	0x3da1bec3	0.07897713
68	0xbd8c2ee0	-0.06844878
69	0x3d8bee63	0.06832578
70	0x3dd9ebce	0.10640679
71	0xbcafdf8f	-0.021468906
72	0x3e01954d	0.1265461
73	0xbd802310	-0.06256688
74	0xbb9b5d3d	-0.0047413395
75	0xbd3df9ba	-0.046380736
76	0x3e0b48ca	0.13601986
77	0xbd3988f0	-0.04529661
78	0xbd8c977f	-0.06864833
79	0x3e241e89	0.16027273
80	0x3c9dd8ac	0.019268356
81	0x3e08cee2	0.1336017
82	0xbe2b7b95	-0.16746362
83	0x3ccacf35	0.024757007
84	0x3d21e372	0.03952355
85	0x3e36e4c7	0.17860709
86	0x3cef4839	0.029209243
87	0xbd2a0149	-0.041505132
88	0xbcb6dce9	-0.022322135
89	0xbc86f123	-0.016472405
90	0xbd0c9e11	-0.03433043
91	0x3e1a17ab	0.15048091
92	0x3e0fa057	0.14026009
93	0xbd63cc43	-0.05561472
94	0x3d87f54b	0.06638583
95	0x3d029fb9	0.031890605
96	0xbe2302a4	-0.15918976
97	0xbddd5518	-0.10807246
98	0xbd8d5e71	-0.06902779
99	0x3e27d5bc	0.16390127
100	0xbe0967de	-0.13418528
101	0xbe0872ed	-0.1332509
102	0xbc942843	-0.018085605
103	0xbde79535	-0.11307756
104	0x3d0e1bde	0.034694545
105	0xbd8aa5bb	-0.06769892
106	0x3d5f6d5d	0.054547656
107	0xbddef48f	-0.108864896
108	0x3d34d3d4	0.044147328
109	0xbdf0698c	-0.117388815
110	0xbdb361de	-0.08758901
111	0x3dc08232	0.09399833
112	0x3e1b3789	0.15157904
113	0xbdebd61b	-0.11515447
114	0xbe313aeb	-0.17307632
115	0xbe078afc	-0.13236612
116	0xbdbcc4f1	-0.09217251
117	0xbe22ee2a	-0.15911165
118	0x3c18153c	0.009282406
119	0xbd7a486c	-0.061104223
120	0xbd8ed03e	-0.06973313
121	0xbd3680a2	-0.044556268
122	0x3c7fc784	0.015611533
123	0xbe4a9255	-0.19782384
124	0x3e5ad041	0.21368505
125	0x3d13fe1d	0.036131013
126	0x3db1ab71	0.08675278
127	0xbe07c9fb	-0.13260643
128	0xbda054b4	-0.07828656
129	0xbd79656d	-0.060887743
130	0xbc5bbc95	-0.013411661
131	0xbdd0c6a4	-0.10194138
132	0xbe083f2f	-0.13305353
133	0xbc6b9f88	-0.014381297
134	0xbde63abb	-0.11241671
135	0xbe128b47	-0.14310943
136	0x3d97801b	0.07397481
137	0x3da79191	0.081820615
138	0xbe0c9b85	-0.13731201
139	0xbd4fd39d	-0.05073892
140	0x3d54b470	0.05192989
141	0xbd803ed3	-0.06261983
142	0xbdb4c63c	-0.08826873
143	0x3d11fd8a	0.035642184
144	0xbe24f5fb	-0.16109459
145	0x3db8bc1f	0.09020256
146	0xbd2c2ca3	-0.042034756
147	0xbd7fb0af	-0.062424358
148	0x3d8d1c03	0.068901084
149	0x3d385d8d	0.045011092
150	0xbd966c85	-0.07344917
151	0xbde3a895	-0.11116139
152	0xbe186ab2	-0.14884451
153	0xbe024220	-0.12720537
154	0xbcb1c5c1	-0.021700742
155	0xbc9a3076	-0.018821936
156	0xbd93ad2c	-0.07210764
157	0xbdf6697a	-0.12031837
158	0xbd671d8d	-0.056424666
159	0xbd0f58b3	-0.0349967
160	0xbddaf2b6	-0.10690825
161	0x3d9b1bcf	0.075736634
162	0x3dced4e4	0.100991994
163	0x3e1106bf	0.1416273
164	0x3d19793a	0.037469126
165	0xbc5ff976	-0.013670316
166	0x3eb67aaf	0.35640475
167	0xbda41397	-0.08011549
168	0xbcb807cd	-0.022464657
169	0x3e40f635	0.1884392
170	0xbc29c8b0	-0.010362789
171	0x3e4d5a3d	0.20053954
172	0xbddb113d	-0.10696647
173	0xbd184471	-0.037174646
174	0x3e251828	0.16122496
175	0xbda1c438	-0.07898754
176	0x3cb849cc	0.022496127
177	0xbcb9f8a5	-0.02270157
178	0xbcb684c9	-0.022280114
179	0xbe2ffc93	-0.17186193
180	0x3dc4f550	0.09617102
181	0xbe3f7b69	-0.18699421
182	0x3c0e9f2b	0.008704941
183	0xbd9e7e33	-0.07738914
184	0xbdbaa566	-0.091135785
185	0x3ea03239	0.31288317
186	0x3e41da49	0.18930925
187	0xbdd44c8a	-0.10366161
188	0x3d0cf115	0.0344096
189	0xbe169c7e	-0.14708135
190	0x3da316e5	0.07963351
191	0xbb8bf78a	-0.0042714523
192	0xbdc7152b	-0.09720834
193	0x3c471a64	0.012152288
194	0x3d71430f	0.058901843
195	0x3cf663dc	0.030076914
196	0xbdb20af8	-0.086934984
197	0xbd30dda4	-0.043180123
198	0xbe32d698	-0.17464674
199	0x3d94df6f	0.07269179
200	0x3d4905de	0.04907786
201	0xbd4c6487	-0.049900558
202	0x3dc2db9b	0.09514543
203	0xbd3b4c2e	-0.045726947
204	0xbb735477	-0.0037129202
205	0x3cf5bb4b	0.029996535
206	0xbd27d0d7	-0.04097065
207	0xbcb154dd	-0.021646911
208	0x3d40ef5c	0.04710327
209	0x3de22dc6	0.11043887
210	0x3da6e0b4	0.081483275
211	0x3c22138f	0.009892358
212	0xbd5c7ca7	-0.053829815
213	0x3d775a6b	0.060388964
214	0xbd1e4045	-0.03863551
215	0xbd37be69	-0.044859324
216	0xbc671d4e	-0.014106108
217	0x3d07ce36	0.033155642
218	0xbbd70459	-0.0065617976
219	0x3c144b16	0.009051105
220	0x3da09923	0.078417085
221	0xbd6e98c4	-0.058251157
222	0xbe122769	-0.14272846
223	0x3c03aa3a	0.008036191
224	0x3d67f242	0.05662752
225	0xbd05c446	-0.032657884
226	0x3d62eaf2	0.055399843
227	0x3c2f2d4f	0.010691955
228	0x3c288a7a	0.010286922
229	0xbcb04133	-0.021515464
230	0xbd4157f9	-0.047203038
231	0x3c86314b	0.016380927
232	0xbd936d3a	-0.07198568
233	0x3c9da676	0.019244414
234	0x3df3c74f	0.119032495
235	0xbdc3cf00	-0.095609665
236	0x3da4c1c0	0.080447674
237	0x3cd44fc9	0.02591695
238	0xbd535390	-0.051593363
239	0x3d68c324	0.056826726
240	0x3dce0972	0.10060395
241	0xbda800d8	-0.08203286
242	0x3dc209d5	0.094745316
243	0x3c0ce705	0.008600001
244	0xbd36c617	-0.044622507
245	0xbc65ec5a	-0.014033401
246	0x3c951a0b	0.018200895
247	0xbd677661	-0.05650938
248	0x3a2c899b	0.0006581784
249	0xbd0183fa	-0.031620003
250	0xbbc1735d	-0.005903645
251	0xbcbc1391	-0.022958549
252	0x3e05e9af	0.13077424
253	0x3d94dc42	0.07268573
254	0xbd2c8895	-0.042122442
255	0xbd95233b	-0.0728211
