dl_computer_vision/assignments/1/best_model.pt (torch, 837859 bytes, 13 tensors)

lstm.weight_ih_l0 f4 [400, 16]
00000000: 074e 293e 51cb 1f3e 33f1 f0bc 14a8 c8bd
00000010: beb6 84bd ecb1 b03d ea56 8dbc 2bac 863d
00000020: df6a 333d 640b a1bc ae58 453d 3262 b2bc
00000030: da7b dc3d 0b63 893b 201b 723d 1979 7bbc
00000040: d34d e43d aee4 b53d 7356 a23d 4171 4b3d
00000050: ceef c4bd 7498 663a 6e95 dd3d c9e8 04bc
00000060: a3dd 9dbb 62d6 97bd 2c1c d0bb 839b febb
00000070: 848f 613d c34c b33d 416d aa3d cb42 2ebd
00000080: 7fda 223d 1eb1 cc3d 3d2d 173c 23d7 cabc
00000090: d58f 993b 449e 56bd 6a01 cb3d b9b7 8d3c
000000a0: 728c 41bd b01f 05bd e0ab 5abd 00e1 1c3d
000000b0: c3e1 93bd 3cce e2bc 201d 753d 491d 66bd
000000c0: 51a1 4c3a e6f2 223e 77d4 9c3c 75c8 1bbd
000000d0: 2166 633d f2e5 c93d 6548 093e 09cd 513d
000000e0: 86cd 23bd 1ff8 9a3c cd02 d93d 2194 9d3d
000000f0: 90d2 0e3d 188c 153e 421d f03d 0e9d 3f3d
00000100: b62c 9b3b 7471 67bb bda7 91bd abd2 d53d
00000110: 414f 9d3c 217c 6ebc 72d0 ab3c 62d6 63bd
00000120: 308f 65bb 757b 0abd 8f44 d4bd 5c94 353d
00000130: 2e95 113d a32e 3abd 2c2e 95bd 948f 58bd
00000140: 69fb 6c3d 4444 d93d 0bf5 233d 6e5b 923d
00000150: 3453 373d ca33 0a3e ee27 b83c 4fcf b83d
00000160: 7bad ccbc 2d7b 813d 67b6 bb3c a0b6 c1bc
00000170: c044 803d f51a 8f3d 8f56 663d d5d8 b2bc
00000180: e61d c33d 7b40 c23c 685f 18bd 0634 9c3c
00000190: 234d b6bd fb90 933d b7ff 1e3e 9766 523c
000001a0: bafc f1bc 0ba2 62bc 9458 113d 7e39 37bd
000001b0: 9fad c53d b020 e13d c773 ab3b f92d ed3d
000001c0: e1a6 113e c702 383e 58ad bc3c 41a3 383d
000001d0: 4e9d 303d ae66 af3d fe3a cb3d e123 cc3c
000001e0: ead0 a73c abb1 ed3c d36c 083e e5c8 033d
000001f0: ce54 8cbd b004 d23d 1564 7bbc d4d5 9c3d
00000200: 2766 f13d ff45 303e 307e e23d 4432 873d
00000210: 7e96 713d 8ccd c7bb 33d1 c03d 7329 f43d
00000220: 8943 13bd 12e1 0d3d 67e7 5bbb 3485 543d
00000230: cb09 e33d f318 22bc ff46 3a3b b5bd 81bd
00000240: a992 ef3d be5a 513d 9c87 14bd a1ae eebd
00000250: 15b8 843d b215 893d 30ec ac3d dcb8 79bd
00000260: 0d0d 83bd 39d8 a53d 0571 5e3d 24b8 86bc
00000270: 6c55 373d af24 a1bd 5b54 46bd 7bb9 d6bc
00000280: 9fb6 39bc b46b 223e 2a44 4c3d 31f6 1c3b
00000290: 188b 4c3d 48d4 813d 9fc5 4c3d 77c7 003e
000002a0: a60b dbbc c5b0 78bd 7446 113d a843 d23d
000002b0: 5f8d 8f3c 9355 57bc 5ed4 393c 8397 a13d
000002c0: 3716 3f3e b6cc da3d 0b93 0b3e f757 6cbd
000002d0: f8e5 fc3d ee51 c03d 4af7 be3c 29e2 883d
000002e0: 828b 96bd dd86 bbbd e84f c3bb eb53 de3d
000002f0: ddeb b43d dddc cbbc bce1 833d 1ca1 12bd
00000300: dd3e 94bc a983 1b3e 0ff2 ac3d ab87 383d
00000310: 8a11 533d b009 33bd 9157 9a3c 4dc7 14bd
00000320: 0706 ffbd 8492 dd3c ca67 72bd 24ea 61bd
00000330: e3fa 3a3d 3171 9b3a 20fd cf3d 0a29 923d
00000340: f409 2a3e 1225 023c 165c f93d cc3f c63d
00000350: 41a6 103d 6991 14bd 838a ff3c fdb8 053d
00000360: 7fb2 3bbd 20e5 843d a65f 64bd 8d0e c03c
00000370: 1add 91bd f5c1 743d 2410 653d 22c3 8cbd
00000380: af0c 153c c8ef 053e 6c61 173e 32d4 54bc
00000390: c02c 0c3e 7875 5d3c 4356 fc3c 8b5e ba3c
000003a0: 5be6 213c 9a4e 1a3d 565e bcbc 43ae e93d
000003b0: 0f8b be3c 8b24 0f3e f705 5fbd 5146 c83c
000003c0: 0d6d cd3d 075d e63c 603d 69bd 299e 8cbd
000003d0: 47de a13d 5c6d 823d d4d0 3ebd 77f0 883d
000003e0: ad13 1b39 5eee a5bd 2fc8 7f3d 79fa 8a3d
000003f0: 7611 fcbc 85d2 82bd c81b 613d 5621 cdbd
0.16533671 0.15604903 -0.029411888 -0.09797683 -0.06480168 0.08627686 -0.017253358 0.06575807
0.043803092 -0.019658752 0.048180275 -0.021775339 0.1076581 0.004192715 0.0591079 -0.015348696
0.11147656 0.08881508 0.07926645 0.049668554 -0.096160516 0.0008796521 0.10819517 -0.008112141
-0.004817681 -0.07413937 -0.0063510146 -0.0077700033 0.055068508 0.087548755 0.0832162 -0.042544167
0.039759155 0.0999472 0.009227094 -0.024760788 0.0046863356 -0.052397028 0.09912379 0.01729952
-0.04725308 -0.032500923 -0.05338657 0.038300514 -0.07220795 -0.02768623 0.05984223 -0.056180272
0.00078060204 0.15912971 0.01914428 -0.038032968 0.05551732 0.09858312 0.13406523 0.051220927
-0.039990924 0.018917141 0.10596237 0.07694269 0.034868777 0.14604223 0.117243305 0.04678064
0.0047355546 -0.0035315426 -0.07112072 0.10440572 0.01920283 -0.014555962 0.020973418 -0.055624373
-0.0035027973 -0.033809144 -0.10364639 0.04433094 0.03554266 -0.045454632 -0.07284197 -0.0528713
0.05785695 0.10608724 0.040028613 0.07146345 0.044757083 0.13496318 0.022479977 0.09023916
-0.024985066 0.06322322 0.022914125 -0.023646653 0.06263113 0.069875635 0.056234892 -0.02183191
0.09527187 0.023712387 -0.03720036 0.019067775 -0.089014314 0.07205387 0.15527235 0.012841842
-0.029539455 -0.013832579 0.035484865 -0.044732563 0.09652256 0.10992563 0.0052323076 0.11581034
0.14223816 0.1796981 0.023031875 0.045077566 0.043118767 0.085645065 0.09923361 0.024919452
0.02048536 0.029015383 0.13322763 0.03217401 -0.06852113 0.102548 -0.015343686 0.07657972
0.11787062 0.17214201 0.110592246 0.06601384 0.05898141 -0.006097501 0.094149016 0.11921968
-0.03595308 0.034638472 -0.0033554675 0.051884845 0.11085852 -0.009893644 0.0028423665 -0.06335012
0.11697895 0.05111193 -0.03626214 -0.116544016 0.06480423 0.06693591 0.08443487 -0.06096731
-0.063989736 0.08097882 0.054307003 -0.016445227 0.0447592 -0.07868325 -0.04842029 -0.02621149
-0.011335044 0.15861398 0.049869694 0.0023950452 0.049937338 0.063393176 0.049993154 0.1257609
-0.026738953 -0.060715456 0.03546758 0.10266811 0.017523466 -0.013142961 0.011342136 0.07890227
0.18660818 0.10683577 0.13630311 -0.057701077 0.123485506 0.09390627 0.023311276 0.066837616
-0.07350828 -0.091565825 -0.0059604533 0.1085585 0.0883405 -0.02488559 0.0643954 -0.035798177
-0.018096382 0.15186943 0.084446065 0.045051258 0.0515304 -0.04371041 0.018840583 -0.03632288
-0.124523215 0.027047403 -0.059181012 -0.055154935 0.04564942 0.0011859295 0.10155702 0.07136734
0.1660536 0.007943409 0.12175767 0.09680137 0.035314802 -0.036271486 0.031193977 0.03264712
-0.045824524 0.064890146 -0.05575528 0.023444438 -0.0712225 0.059755284 0.055923596 -0.06873156
0.009097262 0.1307975 0.14783257 -0.012990044 0.13688946 0.013516776 0.030802852 0.02275016
0.009881581 0.037672617 -0.022994202 0.11410191 0.023259668 0.13978784 -0.054449048 0.024447592
0.100305654 0.02812053 -0.056943297 -0.06866104 0.07903724 0.06368515 -0.046585873 0.0668649
0.00014789282 -0.081021056 0.06244677 0.06786055 -0.030770045 -0.0638781 0.054958135 -0.10016124

lstm.weight_hh_l0 f4 [400, 100]
00000000: c479 5abd ac56 bb3d fc09 3e3d 05d6 903d
00000010: 41b1 9c3d 1905 293d 0994 cdbc 3352 d1bc
00000020: 9ca0 943d 35c6 8a3d 15b4 193d 467d e1bc
00000030: 1d7a 883d 9d45 5f3c 74c1 bdbd a36c 693d
00000040: 4aa9 2cbd 05d2 a83d 2f44 4fbd c5cc 0dbd
00000050: 3ab3 b4bd ffd4 c8bc 521b 2a3d 8706 b6bd
00000060: 10c2 543c 5209 243d 2f26 833d d2d5 a03d
00000070: 41a9 13bd fcf0 263d f553 2abc 62a1 933d
00000080: d6e1 6dbd 694d 9ebd ab69 053d 0eb6 73bd
00000090: 8240 033c a247 a63d 1c7f bfbd fef8 a9bd
000000a0: e705 7a3d 5dc9 ddbb de67 3cbd 6b99 c1bd
000000b0: f215 23bd 4599 87bd e0e3 4f3d 4089 62bd
000000c0: a62a e9bc 69b2 b53c 0fc0 173c 3ba1 04bc
000000d0: b702 a03d 9db2 debb 1ae2 8bbd 9449 73bd
000000e0: 658c 8bbd 3ad9 93bd e223 8cbc 4931 ccbd
000000f0: 4900 c7bc 932e ecbc 2da7 523d 91d0 a9bd
00000100: afc7 bf3c d9aa 8abd 6476 a63d f905 45bd
00000110: e9ec 4cbd 6929 ce3c dd19 d83c 234f 3a3d
00000120: 1c80 c43c ae83 b7bd 1c0c 343c 8d88 af3d
00000130: 4bae 84bc 16a5 b23d e159 b83d 5b2c 8c3c
00000140: b79c 813d 55a2 1c3d e92f a23c 4f39 263d
00000150: 591d c8bc 0f1e c03c 59d6 87bd 677c 7bbd
00000160: d5d1 97bd f3d7 e2bc 973e 88bd 5290 a13d
00000170: 29d5 60bb bfd8 0fbc a677 a0bd be05 a1bd
00000180: bf54 a43d ac91 2f3d 3efc c1bd 15f6 a63d
00000190: ce5c 53bd 6521 013d 9bb1 803b 2490 a43d
000001a0: e3b0 3cbc 9c62 303d bce5 253d 99b2 3abd
000001b0: dde7 d63b 9a5c f0bc 1009 f6bb 0b00 96bd
000001c0: f6c5 b4bc 7663 c5bd 4ba9 07bd 50e1 04bd
000001d0: 6361 c43d 79d3 dcbc 0f76 a33d 5c75 183c
000001e0: e27a 893c 2050 8dbd 4d3e 8fbd 2065 7c3d
000001f0: 42f6 27bd dcb4 1f3d 3431 89bd 374c 33bd
00000200: 9dd2 6dbd 9025 8f3d 7667 b93c f1b5 a0bd
00000210: 81ce 9d3d 26bd c3bc 8d19 a1bd 295e d2bc
00000220: 7b82 853d d0d8 863d d785 c93d c23b 2bbc
00000230: 7f5e 83bd 1575 a7bc c96b 653d a905 acbb
00000240: 4253 1d3d 3f3b cc3d 52dc b5bd d5a7 923c
00000250: 023e 293d 68a6 853b 9fde 22bd 1f5b 8abd
00000260: 9990 14bd 14b7 90bd 6ddf 633d a575 123d
00000270: 720e a1bd 029a 053c 15a4 2e3d 66c1 cbbc
00000280: 5c4a 173c 1f1b 8abd 2fe6 1c3d f755 80bd
00000290: d415 bc3d 97c2 b9bd 6bbd 043d 7a28 8a3d
000002a0: 61a5 abbd bcdc 273d b4b9 b7bd ba7d a2bd
000002b0: 8fcd bfbc 1974 393d d03b fe3b 691a 4e3c
000002c0: 5c22 ba3d 163a e43c fd89 523d 6c00 2dbd
000002d0: 6561 8f3d f693 d43a 6c74 a6bd 73aa e8bc
000002e0: df30 9dbd 0cab a03d e9f3 a0bb 764b 5fbc
000002f0: 8c05 463d b722 7e3c a812 0dbc e7cf 8d3d
00000300: dc8c bdbb 93e2 bdbc 36fe be3b 06bb c13d
00000310: 9f6c 8e3d 3090 7fbd 27aa ac3d a91b a73d
00000320: f294 6f3d cf28 263c 3926 97bd c644 ccbd
00000330: d32a 3d3d d022 a5bd 8754 08bd e311 e73c
00000340: 434d 51bc b66b ef3c 6f5b b13c efa0 003d
00000350: 4c5e 3b3d 4a51 953d bb16 8dbd c12e ca3d
00000360: c178 30bd b9ac 193d dcac 9b3c 7fd5 9e3d
00000370: c236 15bb 5fd5 9e3d 4958 49bd 2f8e 953c
00000380: 80cf 833d 7511 a23a 5a33 a43d 999d e4bc
00000390: ef6b 3ebc cfde 8b3c 1147 bebd d310 41bd
000003a0: 23b8 853d 43ce 5c3d 43d6 60bb b5fe b5bd
000003b0: af16 953c d143 86bd 0267 8f3c e880 8f3c
000003c0: a33d 75bc c701 a73d c2ce 17bd 35d4 8abc
000003d0: 63a6 54bd d543 18bc 0322 38bc 4ec1 a0bd
000003e0: 9965 6ebd dc52 9ebb fb64 8dbd 9389 c8bc
000003f0: 0a3a ab3d b290 a43d 792f 9c3d 60af 9abd
-0.05333878 0.09147391 0.04639624 0.07072071 0.07650996 0.041264627 -0.025095003 -0.025551891
0.07257196 0.06776086 0.037525255 -0.027525555 0.06663916 0.013627437 -0.09265414 0.05698837
-0.042153634 0.08243183 -0.050602134 -0.03461911 -0.08823247 -0.024515627 0.04152996 -0.08887964
0.012985721 0.04004795 0.06403767 0.07853283 -0.036050085 0.040757164 -0.0103959935 0.07208516
-0.058076702 -0.077296086 0.032571476 -0.059499793 0.008010985 0.081191316 -0.09350416 -0.082994446
0.061040785 -0.006768389 -0.045997493 -0.0945309 -0.03981585 -0.06621031 0.050754428 -0.055306673
-0.02846272 0.0221798 0.009262099 -0.008095081 0.07813018 -0.0067961947 -0.06830235 -0.05939634
-0.068138875 -0.07219167 -0.017106954 -0.09970338 -0.024292128 -0.028830802 0.051428962 -0.08291734
0.023410646 -0.06770868 0.0812805 -0.0481014 -0.050030623 0.02516623 0.02637952 0.045485627
0.023986869 -0.08960663 0.010989215 0.08570967 -0.01619639 0.08722894 0.09001518 0.017110994
0.06328719 0.03824075 0.019798236 0.040581997 -0.024428057 0.023451833 -0.066326804 -0.061397936
-0.07413069 -0.027690863 -0.06652563 0.07888855 -0.003430674 -0.008779704 -0.07835321 -0.07862423
0.080239765 0.042863533 -0.094719395 0.08152405 -0.051602177 0.031525988 0.003927422 0.08035305
-0.011516782 0.04306279 0.040502295 -0.04558048 0.006558402 -0.02934103 -0.0075084046 -0.07324227
-0.022067051 -0.09638111 -0.033120435 -0.032441437 0.095888875 -0.026956307 0.07981502 0.009305324
0.016782228 -0.06900048 -0.06994305 0.061619878 -0.041006334 0.03899084 -0.06698838 -0.043773856
-0.058062185 0.06989586 0.022632342 -0.078472026 0.07705403 -0.023893904 -0.078662015 -0.025679665
0.06519028 0.065843225 0.09839981 -0.010451259 -0.06414508 -0.020441571 0.056010995 -0.005249698
0.03840948 0.09972238 -0.088799134 0.017902294 0.0413189 0.004078675 -0.03976309 -0.06755661
-0.03627071 -0.070661694 0.055632997 0.035756726 -0.07864083 0.008154394 0.04263695 -0.024872493
0.009234037 -0.06743454 0.038305458 -0.062663965 0.09183851 -0.09070318 0.032407206 0.067460015
-0.08381153 0.040981993 -0.08970967 -0.07934137 -0.023413448 0.045276735 0.007758595 0.012579539
0.09088585 0.027859729 0.051401127 -0.04223673 0.070009984 0.0016218412 -0.081276745 -0.028401589
-0.07675337 0.078451246 -0.004911889 -0.013628831 0.048345134 0.015511206 -0.008610405 0.0692442
-0.005784614 -0.023179328 0.005828644 0.094595 0.069543116 -0.062393367 0.084308915 0.08159573
0.058491655 0.010141565 -0.07380337 -0.09974055 0.04618342 -0.080632806 -0.033283737 0.028206771
-0.012774768 0.029226165 0.021650044 0.03140348 0.045744225 0.07290895 -0.06889101 0.09872199
-0.04308391 0.037518237 0.019003324 0.07755565 -0.0022768234 0.07755541 -0.04915646 0.018256275
0.06436062 0.0012364822 0.08017607 -0.02790718 -0.011622413 0.017074017 -0.092908986 -0.047135185
0.06529262 0.053907644 -0.0034307397 -0.08886472 0.018199293 -0.06555904 0.017505173 0.017517522
-0.014968309 0.08154636 -0.037062414 -0.016946891 -0.05191649 -0.009293516 -0.011238578 -0.0784937
-0.05820236 -0.004831655 -0.06904026 -0.024479663 0.083606794 0.08035411 0.07626242 -0.075529814

lstm.bias_ih_l0 f4 [400]
00000000: 2d22 10bd e8cb 78bd 7730 cc3d ec64 bc3c
00000010: 92c6 583d d863 983d d43f b2bc f267 1ebd
00000020: 1bce 3ebc 8109 b6bd e9ba f0bc 229e 75bb
00000030: abde d6bd 87e0 623b fd28 6b3c 2665 b9bd
00000040: 081d 0b3e 82eb 393d c505 2f3b 0b91 5a3d
00000050: 909e 683c 524e a73d c1f8 1d3e bb46 d63d
00000060: 1eae 8bbd c5b6 243d 2c05 df3c bdf9 b83c
00000070: 4c6c 623d 8424 1bbd b582 2a3c 2645 ba3d
00000080: 8828 93bd 5417 ab3d d6dd d23d 538c 43bd
00000090: 6d22 f63d bb16 893d f374 a23d 3698 d43b
000000a0: e048 b13d 396b 41bd a161 8b3d e2d2 33bb
000000b0: ed79 ff3d 9987 94bb e4fd 063e f10b 583d
000000c0: 2056 4dbd a776 283e 10e5 eb3d c211 0e3d
000000d0: f01a f23d 9255 ae3d c7d9 c53d 3abd 493d
000000e0: 2f99 6c3b 415f 223d 7566 493d cfb1 17bd
000000f0: 1af9 d53d 672d f73d 3570 c13c a1ba 163c
00000100: b248 033d fe19 c43c 2f84 0d3e 7e0b 2c3d
00000110: 53a1 0d37 7379 8c3d 6c37 9e3d 0431 093d
00000120: 4734 9e3d 4d15 063e 798f 6d3d 78eb a4bc
00000130: 68dc ad3d 04ac 5c3d e01d be3d 5814 02bc
00000140: 79a1 0fbd b792 fd3d e626 7dbd ba56 d03d
00000150: 5eb4 103e 7ffb b5bc 6265 47bc 202d d53d
00000160: 8d9e 0e3d 6d4d 1c3e 08e6 513e b71f 86bc
00000170: b43d df3d 44f4 fcbb 0271 d33d ef55 823d
00000180: 2ce3 333d f653 d13d aee6 eb3a 1d9c 3a3c
00000190: 39aa 163d b5fd 18bc 2cb2 46bd 1f59 6abd
000001a0: 71d9 6fbd 8d27 24bd 7299 8b3d 6678 9ebd
000001b0: d977 2d3d 80fd 76bd cd4b 5c3d 9c37 7bbd
000001c0: cf9e 85bd aefd c93d 1256 98bd 4f60 313a
000001d0: f2f8 263d 83a8 423c 7894 b3bd a3d8 ebbc
000001e0: e9ca d0bb 1cc4 163c 8905 6f3d 93c7 643d
000001f0: 5fbe 4b3d 9237 283d 0962 b63c cd4d cabd
00000200: 4f85 853d 83b6 7c3d 34d6 b33d ee71 bebd
00000210: 9fcd 72bd e93b cbbb 73a0 9fbd 4f79 8b3c
00000220: 6865 9bbd 897f e03c e9ee 443c b236 223d
00000230: 2a4e 7f3d fadc 90bd 8fca c83d d56e 0d3d
00000240: f3cd dfbc 8b14 66bd 15b3 0d3d 2979 56bb
00000250: b24d bfbd 3da4 81bd dcef 233d 5781 f7bc
00000260: 5d3b dc3b cc9a bfbc 30d5 a6bd a79f cfbc
00000270: 4729 a7bd 4293 8c3d 88fe 01bc 7f9c 3cbd
00000280: e755 c93d c1b6 bc3d a6f5 95bd 2ff2 4c3d
00000290: 5a8c 9bbd 2ab3 893d bd7b 9c3d 5911 443d
000002a0: 1d54 763c 36a7 ebbc 055f 063d 6089 893d
000002b0: 3938 b73d 2e44 b73d 4185 2cbd 0835 01bc
000002c0: b134 a53d 4d49 773d 1c87 c33c 34f5 23bd
000002d0: 11e2 37bd a199 cabd cdc8 a4bd cfc7 453c
000002e0: ffec 483d f1f1 23bd cfe9 423d c342 673d
000002f0: 6f14 afbc ec10 bbbc bc35 86bd d7bd 2f3c
00000300: c26e 923d 1395 ecbc f0f2 0abd e0e1 8e3d
00000310: 6f25 a63c fec2 c03d 2919 58bc 49b2 47bc
00000320: fc21 d03d 680f afbd d744 773d 2059 33bd
00000330: c949 70bc 1b6b d33d ff8a b43d 224d 733d
00000340: a5dc 6ebd 6db3 c0bc e428 cf3d 7ede 8f3d
00000350: 36bc 113d 270c 7b3d 45c7 a8bc 588a 473d
00000360: ca43 ec3d cd5f 283d 1914 adbd 6bae 30bd
00000370: 918d b7bd 2720 593b d719 543d 4f5b 45bd
00000380: bb75 203d 1076 8fbc 24d5 073b ae56 7cbd
00000390: 16ab 313c dcd3 503d 4738 b7bd 991b e1bd
000003a0: 70b7 99bd 860b ca3d 2eba b3bd 369c 9e3d
000003b0: 17c1 123c a946 b2bb 0cdd d6bc 0926 23bc
000003c0: 79bf e0bb e4a5 83bd e78b 163d 83c3 873d
000003d0: 9483 b53c 56eb 643d da1f eabb 0d88 8a3b
000003e0: 2f2e d3bd ab5d 09bd f98e 853d d51c aebd
000003f0: 31c8 ee3d 21a1 2a3d 9315 393d 8a92 103d
-0.035188843 -0.060741335 0.099701814 0.022997342 0.052923746 0.07440919 -0.021758951 -0.03867335
-0.011645819 -0.088885315 -0.029386 -0.0037478288 -0.10491689 0.0034618692 0.014353034 -0.09052496
0.13585293 0.045390613 0.002670632 0.05336098 0.0141979605 0.08169235 0.15426923 0.104627095
-0.068203196 0.040213365 0.027224146 0.022580022 0.05527906 -0.03787662 0.01040714 0.0909522
-0.07185465 0.08354059 0.10296218 -0.047741245 0.12018285 0.066937886 0.079324625 0.0064878715
0.08656478 -0.047221396 0.068057306 -0.0027438928 0.12474427 -0.004532766 0.13182789 0.052745763
-0.050130963 0.16451512 0.115182996 0.034684904 0.11821544 0.08512415 0.09660678 0.049252726
0.0036102047 0.039641622 0.049169976 -0.037034806 0.10447903 0.12069207 0.023613075 0.009199769
0.03205175 0.023938175 0.13819955 0.042003147 8.441816e-06 0.06859102 0.07725415 0.03349401
0.07724815 0.13094063 0.057998154 -0.020131811 0.08489305 0.053874984 0.09283042 -0.007939421
-0.0350661 0.12381499 -0.061804675 0.10172792 0.14131305 -0.02221465 -0.012170168 0.104089975
0.034819175 0.1526391 0.20497906 -0.016372545 0.10900441 -0.0077195484 0.10324289 0.06364047
0.04391782 0.102210924 0.0017997825 0.011389759 0.03678343 -0.009337832 -0.04850976 -0.0572139
-0.058556978 -0.04007678 0.06816377 -0.07737808 0.042350624 -0.06030035 0.053783227 -0.06133233
-0.06524431 0.09862839 -0.074382916 0.0006766365 0.040764757 0.011880997 -0.087685525 -0.028789824
-0.006371845 0.00920203 0.058354888 0.05585439 0.0497421 0.04106862 0.022263544 -0.098781206
0.06519567 0.061697494 0.087810904 -0.09299074 -0.059278127 -0.00620221 -0.07794275 0.017025618
-0.07587701 0.027404564 0.012019851 0.039602943 0.062330402 -0.07073398 0.0980426 0.034529526
-0.027319884 -0.056171935 0.034594614 -0.0032726026 -0.09340991 -0.06330154 0.04002367 -0.030213041
0.006720944 -0.023389243 -0.08146131 -0.025344683 -0.0816217 0.06864025 -0.00793422 -0.046047684
0.09830838 0.09214545 -0.07322244 0.05003565 -0.07595129 0.06723626 0.07640789 0.047868107
0.015034703 -0.028766256 0.03280546 0.06715655 0.089462705 0.08948551 -0.04211927 -0.007886179
0.08066691 0.06037264 0.023868136 -0.040028766 -0.044893328 -0.09892584 -0.08046112 0.012071564
0.049054142 -0.040025655 0.04758626 0.056460153 -0.021372048 -0.022835217 -0.06553218 0.010726414
0.071500316 -0.028879678 -0.03392309 0.06976676 0.020281522 0.09412192 -0.013189592 -0.012188503
0.10162732 -0.085478604 0.060368385 -0.043786168 -0.014666029 0.10323163 0.08815574 0.05939973
-0.05831589 -0.023523057 0.10115221 0.07024859 0.035579883 0.061290886 -0.020602832 0.04871592
0.11536367 0.041106988 -0.08451099 -0.043135088 -0.089625485 0.0033130737 0.051782455 -0.04818278
0.039174777 -0.017512351 0.0020726407 -0.0616061 0.010844013 0.050983295 -0.08946281 -0.10991592
-0.07505691 0.09865479 -0.08775745 0.077446386 0.008957169 -0.0054405523 -0.02622845 -0.009957799
-0.006858763 -0.064281255 0.036754515 0.06629088 0.022157468 0.055888496 -0.0071449103 0.0042276443
-0.10311543 -0.033536594 0.065214105 -0.08501593 0.11659277 0.04165757 0.04518659 0.035296

lstm.bias_hh_l0 f4 [400]
00000000: 16e8 8ebd 81d8 41bc 81a4 14bd 5da1 e7bc
00000010: d1ad 6bbd a546 b93d 9dd4 45bd 15dc 373c
00000020: 78be 10bd 189f dabb 6d12 90bc aed6 1cbd
00000030: 348e 503d 0b24 c23d 345f 8bbc 6e56 72bc
00000040: fafc e6bc 4a00 cd3d bf21 b73c 9292 cc3b
00000050: 9e0d 9a3d 3ab7 50bd 34ed 163c bb9b de3d
00000060: 6142 84bd a8bc a33d b3cf f13d 7682 fe3d
00000070: 7eda 103d 7643 11bd 64dd 523d e6a5 e63d
00000080: 77d1 45bd fe13 9e3d 123d a63d 2a00 833d
00000090: 5cce dfbc e281 213e 4bb0 5bbd 2025 553d
000000a0: f72c 90bc 6b0a e03b 8a8b 6d3d 42bd 8d3d
000000b0: 11d6 0bbd ff25 423d b5b0 d5bc 04d9 c33d
000000c0: 9bbe bebc 3bd5 0b3e de29 c03b 9056 cfbc
000000d0: 1b1b 2ebc 0c58 d63d a2b4 b53d a3f9 003d
000000e0: 2e9d cd3d 77a6 d93c b7cf 863b 2f77 8bbd
000000f0: 2d81 013b 4d0a e53d e5f8 11bd 602a 923d
00000100: 581c 033d 0c27 573e 55f5 b63d 147f 80bd
00000110: 53d5 033d e53c e13c 31f9 1f3d f48d c93d
00000120: 6d41 0a3c 705f 353e 278b c63c 6ce8 ee3d
00000130: 3299 c93d 0979 df3d 49c3 b43c 944c 603c
00000140: 267e c6bc e800 0b3e 0533 bf3c 6a03 e63d
00000150: 88ba 683d 6bc3 a0bc 0527 c13d a777 013e
00000160: 5f83 a83d 45bb 003e fa44 4c3e 096a 663d
00000170: 8660 ea3c 14f5 e73d 9e88 39bd 2df2 fb3d
00000180: 6b6e 0f3d ceda 423d 28b8 113d 7d81 9f3d
00000190: af4d 18bc 4f78 42bb 5c04 9bbc 377f 34bd
000001a0: 69cf 7cbd a60d cb3d a5d7 8e3d 3db3 8e3d
000001b0: 13ea 8cbd 2fca 933c 6938 babd abae c03d
000001c0: f557 9abd e5de 163d 1cdc a13c 1c55 9fbc
000001d0: 1d67 d6bb d099 dbbb 0fb2 71bd 71a0 3abd
000001e0: f11a 9e3d ca24 04bd d6b3 bd3d 055b a7bc
000001f0: 49d6 0f3b 032f 543c c329 50bc f5dc 65bd
00000200: 29e3 59bc f498 80bd 5248 213d 6962 3abd
00000210: 2fb5 c73d 2fad 823c 03a6 f83a 83de babd
00000220: c3c9 e83c 4598 ae3d 7d37 5d3d a9be a03b
00000230: c7c5 b73d 7614 4a3c af74 cebc 4b4f c5bd
00000240: 5013 4dbd 833e 3f3b f50e 2f3c 3a06 8e3d
00000250: 2a80 903d c3ba bc3d 7483 38bd 5a4d 803d
00000260: 4f88 903d 43e8 3d3c 49ac e8bc 3303 8abd
00000270: 8e99 b8bd 7e93 b1bd e8b1 8a3d 3857 9bbd
00000280: 0fe0 a43c 1348 443d 5842 8cbc 8fd0 ae3d
00000290: 9609 61bc 4ab8 9dbd a9e2 bdbb bde2 6fbc
000002a0: 210b ab3d 854c 8abc 481b 853d 8212 02bb
000002b0: 830f 4eba 3d50 a4bd 23d8 bf3d 75f1 80bb
000002c0: 73be 803d c6ea 663d 031d 333d 49bd 5dbc
000002d0: c97a 69bc 903f d8ba b032 ee3c a979 223c
000002e0: 401f acbd 6a34 873d 02c9 94bb b045 04bd
000002f0: 117d b03d 8b4a bf3d 9168 ba3d ece2 91bc
00000300: 6a56 4fbd 0659 373d 4727 b5bd cfb6 003c
00000310: 9d21 fe3b 09ea 563d 862a 383d a9b7 2b3b
00000320: 097c 64bd 3d22 02bc f353 9e3a 343d c83c
00000330: 398a 4fbd d804 333d 06cf a3bc 5f99 af3d
00000340: c73d 48bd a0de 47bc 8eff a1bd cae9 7a3d
00000350: e1f1 a53d 0b7c 0d3d b74a 03bd 23c9 b1bd
00000360: 90bb 0bbc 9fbc 723d d992 d6bb ce5f 93bc
00000370: 4270 d3bd 815d 193d da3f 463c b730 5a3d
00000380: 45db ad3d f94b 30bd a70c 763d bd1c b83c
00000390: afdf f73c eb89 603d 9315 583d ccd9 e4bd
000003a0: c84f dbbd 6b0b 043d 1a53 c1bd beb8 f03c
000003b0: 5d70 42bd 70c2 98bc 5ee0 d0bd 7a17 2abc
000003c0: 9cca 96bd 06bd c4bb 56b5 273d 9cd7 d1bd
000003d0: 41eb 403d e7f5 903c e30d 2dbd 2c3a cabc
000003e0: 27c5 d0bc c40e a53d 5ab9 b13c 2fd2 97bd
000003f0: 21df 2ebd 43f9 d73d 846e a03c ab15 f83c
-0.06977861 -0.011831404 -0.036289696 -0.028275186 -0.05753881 0.090466775 -0.048298467 0.011221905
-0.035337895 -0.0066717975 -0.017586911 -0.038290672 0.050916865 0.09479531 -0.01701317 -0.014791114
-0.0281968 0.10009821 0.022354959 0.0062430585 0.075221285 -0.05095599 0.009211827 0.10869547
-0.06457973 0.07994968 0.118071936 0.12427227 0.03536462 -0.035464726 0.051480666 0.11262111
-0.048295464 0.07718657 0.08117117 0.06396516 -0.02732008 0.15772203 -0.053634923 0.05203736
-0.017599566 0.0068371794 0.057994403 0.06920864 -0.034139697 0.047399517 -0.026085237 0.09562877
-0.023284247 0.1365556 0.005864366 -0.02530983 -0.01062658 0.10466012 0.088723436 0.031488072
0.10039745 0.026568634 0.004114117 -0.06809842 0.0019760833 0.11183605 -0.035637755 0.07136989
0.032009453 0.21010989 0.08933512 -0.06274238 0.032185864 0.027494857 0.039056007 0.098415285
0.00843845 0.17712188 0.024236275 0.11665425 0.09843673 0.109117575 0.022065775 0.013690133
-0.024230074 0.13574564 0.023339758 0.1123112 0.056818515 -0.019624433 0.094312705 0.126433
0.08228182 0.12571438 0.19948187 0.056253467 0.02861048 0.11326042 -0.045296304 0.12302051
0.035017412 0.04757195 0.035576016 0.0778837 -0.009295865 -0.002967376 -0.018922977 -0.044066634
-0.06172124 0.099147126 0.06974725 0.06967781 -0.068805836 0.018040745 -0.09092791 0.09408315
-0.07536308 0.036833663 0.019758277 -0.019449763 -0.006543054 -0.0067016855 -0.0590077 -0.045563165
0.077199824 -0.032261647 0.092628166 -0.020429144 0.0021947792 0.012950662 -0.012705269 -0.056118924
-0.013298788 -0.062791735 0.03937561 -0.045504007 0.09751355 0.015951721 0.0018970374 -0.09124472
0.02841652 0.08525137 0.054007996 0.004905541 0.0897327 0.01233398 -0.025202123 -0.096342646
-0.050067246 0.0029181547 0.010684718 0.069347814 0.07055695 0.092153095 -0.04504724 0.06264754
0.07057249 0.01159102 -0.028402464 -0.067388915 -0.09013663 -0.0867071 0.06772214 -0.07584995
0.02012637 0.047920298 -0.017121479 0.08535873 -0.013735196 -0.07701166 -0.0057948423 -0.014641461
0.08351732 -0.01688219 0.06499344 -0.0019847457 -0.0007860588 -0.08023117 0.09367397 -0.003935034
0.06286325 0.05637624 0.04372884 -0.013533899 -0.014250466 -0.0016498435 0.029076904 0.009916701
-0.08404398 0.06601794 -0.0045405636 -0.03229302 0.086176045 0.0934039 0.09101976 -0.0178084
-0.05061952 0.044762634 -0.08845382 0.007856085 0.007755472 0.052469287 0.04496243 0.0026202
-0.05578235 -0.007942733 0.0012079462 0.024443246 -0.05066893 0.04370579 -0.019996177 0.08574175
-0.04888704 -0.012199074 -0.07910071 0.061258115 0.08102775 0.034542125 -0.032053676 -0.08680942
-0.008528605 0.059261914 -0.0065482673 -0.01799002 -0.10324146 0.037442688 0.012100184 0.053269114
0.08489088 -0.043041203 0.06007066 0.022474641 0.030258028 0.05481903 0.05275495 -0.11174354
-0.107085764 0.03223745 -0.094396785 0.029384967 -0.04747044 -0.018647403 -0.10199045 -0.010381574
-0.073628634 -0.0060039787 0.04094442 -0.10246202 0.047099356 0.01769538 -0.04224957 -0.024685942
-0.025484635 0.08059457 0.021694828 -0.07413136 -0.04269326 0.1054559 0.019583948 0.03028377

lstm.weight_ih_l1 f4 [400, 100]
00000000: c573 303d 5464 57bd 7a64 c63d b302 e8bd
00000010: 6b47 5abc 6840 113e 8cbc 6d3d cf66 453d
00000020: 0816 0cbe 7f6a d6ba 21e1 c13c 66f8 8a3d
00000030: 5273 073d 4158 ae3d da9c 803d 6ab9 abbd
00000040: aa91 1d3c 43e1 24bc f6f9 6bbd 718f 84bc
00000050: 7568 323d acf5 d9bd f27a d8bc 64b1 2a3b
00000060: 5fd5 3f3d ed1a 263d af4a a1bd af28 62bd
00000070: 6e27 1d3e f708 a9bc d737 3dbd 3610 113d
00000080: eced c6bd f9ba 8ebd 8fad b2bd ae01 3bbd
00000090: 2412 c1bd b506 fe3d 0948 a33b 04ae d43d
000000a0: af7e bbbd fe90 ee3c dc15 b8bc 3eb3 3fbd
000000b0: 7c0b 4b3d 352e 0f3c 3199 46bd 62ca a9bd
000000c0: 258c b9bd 4015 0abe b9f4 093d b9c4 aebc
000000d0: cddd 44bc 1d45 cebb 6093 c1bc 3e04 23bd
000000e0: 4304 a3bc e8df 43bd ce47 2dbc dcf9 70bd
000000f0: b081 113b dce1 cd3d 43ce 183d 65ef b2bb
00000100: 8f16 7f3d 41af 44bd 0c36 063d daba e5bc
00000110: 6732 c83d 6c9e 88bd 842d 813c 3473 fdbc
00000120: 6252 db3d d76a b8bd fe7b e73c ff12 f73c
00000130: 072c 403d ce51 9e3d 2f83 853d f711 6cbd
00000140: d51a 1abe e923 a3bd 9ddd cd3d d4f4 6e3c
00000150: 9cd4 513c 33ac 153e f482 29bc d500 babd
00000160: f134 a2bd 6043 893d 246f bebc dd28 f8bd
00000170: 0ac0 61bd b2aa a9bc a353 ee3d b26f a1b9
00000180: af2c 37bd 8e5d d83d 1398 bc3d 4d7a 18be
00000190: 36c0 ed3d 1469 963d 55ac 26bd 08cd 5bbd
000001a0: 1214 58bc e456 b13c 0eaf 55bd eda4 bf3d
000001b0: 872e f83c 13b7 5a3d 7f19 b63d 8239 ae3d
000001c0: 49e3 b1bd 5d1b 02bd e68f 17bc ca95 c73c
000001d0: bbc4 bb3c a5bf b1bc 38c6 423d 3e4f 023d
000001e0: b30b 65bd 0033 afbd 349d 16bc 5ad6 f1bc
000001f0: 9608 0b3d a137 91bd b8c9 ddbd 8f23 c93c
00000200: f7e4 d43c 4b1e 503d 5c10 89bc c902 4abd
00000210: 1d77 3cbb ce4a 9abd 8601 903c 3563 66bd
00000220: 253b 33bc b09b 70bd 52dd b33b f490 43bc
00000230: a94b 023d d8f9 d1bd 1e7a 6d3d 7d36 a2bd
00000240: d8ee bf3d 1d69 88bd 92c2 7cbd 4f48 673d
00000250: bd20 f7bb 6a54 1abe 69f6 9a3d 9b63 7abc
00000260: ebdf 173e dfaa aa3d 5731 973d 2adb 21be
00000270: ebcb 3f3d aa5a bfbd 4099 92bd 86cd 523d
00000280: cc5f f3bd ed0e 113d cbf9 4ebd f875 48bc
00000290: 6e79 173e e78b 673c 461f ddbd 6bcd 9e3b
000002a0: 0a21 973d f2ed 06be 8ee6 c93d da36 00bd
000002b0: 21ae 123e 3a35 9dbd 5261 be3d e050 9c3c
000002c0: 7f58 e0bc 32d5 b63d 001e bc3d dde5 b93d
000002d0: 7cf7 9dbd 40ca cdbd 33fe aa3c 28c2 1bbe
000002e0: 3f6c b43d dca4 383d 135a 043e 3466 12be
000002f0: 8c42 c73c 3e39 63bd 9be8 14be a6d9 80bc
00000300: 6a44 b93d 59e5 bdbb f6d5 a03d 867e c2bd
00000310: 19e2 15be ad85 0f3e 34a2 7b3d e6f3 07be
00000320: 5cb9 923a a938 d2bc 0279 7d3d 7719 16be
00000330: 10b8 36bd 9879 cb3d bc38 803c caca d83d
00000340: f374 b1bd 8c3d 7bbc 5de6 013e cd1e a43c
00000350: 50c4 d23d 5116 aebc 3eea 453d 2c83 893d
00000360: a54e 183e 2bf2 f83b 5215 453d 6372 9dbd
00000370: f3e8 923d 5499 97bc 0e45 18bd 22ea 92bc
00000380: bc00 39bd 13ff 78bd bce9 6bbd fca1 83bd
00000390: 7e33 2a3e 2325 bdbc c54c c2bd e85f 85bd
000003a0: 5ed9 7ebc 90c8 90bd 252b 94bc 37c7 bc3d
000003b0: e322 65bd a3b4 fe3d f8b8 a03c 105f ec3d
000003c0: 2507 db3c e203 bfbd 847a 7ebd e524 07bc
000003d0: fa41 3f3c 2ec8 383c eacb 94bd 21d9 e9bc
000003e0: 7afa 293d 527c 96ba db4f d83d 4dc7 36bd
000003f0: 434f 943d 68a5 053c c2db 153e 7949 18be
0.043079156 -0.052585915 0.09687133 -0.1132864 -0.013322691 0.14184725 0.05804114 0.04819375
-0.13680279 -0.0016358643 0.02366692 0.067856595 0.033068962 0.08512927 0.06279917 -0.08384974
0.009617249 -0.010063472 -0.05761143 -0.01618168 0.04355665 -0.10642561 -0.026425812 0.0026045674
0.046834346 0.040553022 -0.07875573 -0.05521458 0.15347072 -0.020634158 -0.04619583 0.03541585
-0.09713349 -0.06969256 -0.0872451 -0.0456559 -0.09427288 0.12403623 0.0049829525 0.10384753
-0.09155022 0.029121872 -0.02247136 -0.046801798 0.0495715 0.008739044 -0.04848594 -0.082905546
-0.090599336 -0.13484669 0.03368065 -0.021334039 -0.012015772 -0.00629486 -0.023629844 -0.039798968
-0.019899493 -0.047820956 -0.010576202 -0.058832034 0.0022202544 0.10052845 0.03730608 -0.005460667
0.062277373 -0.048018698 0.032766387 -0.0280432 0.097752385 -0.066708416 0.015768774 -0.030938722
0.10709073 -0.09004753 0.028257366 0.030160425 0.046916988 0.07730447 0.06519162 -0.05763432
-0.15049298 -0.07965834 0.10052035 0.014584739 0.012807038 0.1461647 -0.010346163 -0.0908219
-0.07920254 0.06702304 -0.023246355 -0.12117169 -0.055114783 -0.020711277 0.11637046 -0.00030791532
-0.044720348 0.10564719 0.09208693 -0.14890404 0.11608927 0.07344261 -0.040691692 -0.05366233
-0.013188379 0.021647878 -0.0521689 0.09357629 0.030295623 0.05339725 0.08891582 0.085070625
-0.08685929 -0.031764377 -0.009250617 0.024363417 0.022920957 -0.021697829 0.047552317 0.031813852
-0.05591936 -0.08554649 -0.009192754 -0.029521156 0.033943735 -0.070906885 -0.108294904 0.024553088
0.025988085 0.05081014 -0.016731434 -0.049319062 -0.002875752 -0.07533799 0.017578851 -0.056246955
-0.010939394 -0.058742225 0.00548903 -0.011936415 0.031810436 -0.10252732 0.05797779 -0.07920549
0.09371728 -0.06660674 -0.061708994 0.056465443 -0.0075417445 -0.15071264 0.0756653 -0.015282537
0.14831512 0.08333372 0.07382458 -0.1580626 0.04682533 -0.09343465 -0.07158136 0.051465534
-0.11883506 0.035414625 -0.05053119 -0.012235157 0.14792415 0.014132476 -0.107969806 0.004846265
0.073793486 -0.13176706 0.09858428 -0.03130231 0.14324237 -0.07676168 0.09295906 0.019081533
-0.027385948 0.089273825 0.091854095 0.09077046 -0.077132195 -0.10048342 0.020873165 -0.15210783
0.08809709 0.045079097 0.12924986 -0.142968 0.024323724 -0.055474512 -0.14541857 -0.015728783
0.09046252 -0.0057951626 0.0785331 -0.09496789 -0.1463703 0.14015837 0.061433986 -0.13276634
0.0011194157 -0.025661783 0.06188298 -0.14658152 -0.04460913 0.099353015 0.015652053 0.10585554
-0.086648844 -0.015334498 0.12685533 0.020034218 0.1029135 -0.021250876 0.048319094 0.06714472
0.1487375 0.007597228 0.048116036 -0.07687833 0.07173338 -0.01850573 -0.03717523 -0.017933909
-0.045166716 -0.060790133 -0.057595953 -0.064273804 0.16621205 -0.023088997 -0.09487299 -0.06512433
-0.015554754 -0.07069504 -0.01808698 0.09217685 -0.055941474 0.124367975 0.01961945 0.11541569
0.026736805 -0.093269125 -0.06212856 -0.008248542 0.011673445 0.011278195 -0.07265456 -0.028545918
0.04149864 -0.0011481142 0.10562106 -0.04462366 0.072416805 0.008157112 0.14634612 -0.14871778

lstm.weight_hh_l1 f4 [400, 100]
00000000: d18c aa3d 42a1 903b f0a6 8a3d 6782 c13d
00000010: 701c c0bd ffbe 283d dcd4 b0bb c3c7 5c3d
00000020: d2e0 953d 5076 7c3d c3eb 60bc 0fe5 8bbc
00000030: f736 fa3c f4cf 31bd 03ae 48bb 6938 a6bd
00000040: ccde 9d3d 43e1 4ebd feb8 a6bd 84c6 8fbd
00000050: 494d e73c 3df6 8b3d 12c2 c1bd 0f66 0d3d
00000060: 0b2c 6dbd dab6 4fbb 8e0a a7bd 737d bcbd
00000070: 352a 98bc 3564 8d3a b0dd 8cbd 4d6e a93d
00000080: 14c1 c6bd 5c1f a9bb 85c8 a73d aa35 8ebd
00000090: 29fb 1e3d 5fd2 803d 0a2d 03bd 1b1d c5bd
000000a0: 07ca a6bd 299d 573a 6d1f aa3d 5da7 9d3d
000000b0: c3f0 c4bc 980a cbbd 8091 5e3d e076 07bd
000000c0: 29b5 6e3d 1600 4bbc 1f3c cabc 6fdb 2dbc
000000d0: e0f3 0fbd 4fe3 903c 8348 adbd 8083 863d
000000e0: f759 2ebd b6b8 3d3d 97ac c23d f29e 0c3d
000000f0: 2c29 3f3d 3083 7cbc cf36 b2bb b6b0 483c
00000100: 4f4b ad3c 9c2d 43bb cc67 c63d f2c6 2e3d
00000110: 524e ab3d 0c89 1b3d f598 17bd 9d59 713b
00000120: a08f 663d 7ddd 96bd 372f b53d 238f d4bc
00000130: 325a a0bc c6f2 c5bd 2aaf a4bd 3629 3d3d
00000140: dd2a fbbb 8d88 873d fad0 febc 6f0f 99bd
00000150: 16a5 7abd e32e e13c 2194 84bd a04e e1bc
00000160: 7636 4dbd 1379 33bd 76db ee3b 3539 1f3c
00000170: b98c d0bc 0944 bd3c 8d16 8d3d a38b 6cbc
00000180: cb3d 81bc 056f 983d 25f9 183d 1015 60bc
00000190: a924 18bc 690a cc3b 8083 5c3d 8c14 203d
000001a0: ffc0 113d 6ccc 3f3d 15a5 21bc dced 123b
000001b0: 0380 c23c 237d d9bc f68f 643d b6fc 33bb
000001c0: 66f9 63bd 1516 803c 1cb0 10bc 5559 23bc
000001d0: d5ef c4bd c25c 80bc bf15 97bc 3580 0338
000001e0: 50b2 71bb 3524 84ba 6805 0fbd f09b 8abd
000001f0: e2d3 003d 630d f3bc 2905 a93b 0cf5 2c3d
00000200: 37c0 843d 43ee 393c f645 433c ad70 853d
00000210: 55e0 913d 5e8f 6dbd d46c c83d 82ad a0bc
00000220: a854 03bc 410d 9e3d e4a9 babd 1d1f f2bb
00000230: 0fca 88bb e843 5abd 5576 b7bd 246a a23d
00000240: b9ff 963d 5494 3abd 0776 ca3d 1ffc 08bd
00000250: 0f31 1fbd 6add f6ba a787 ac3d fe54 a1bd
00000260: 8dcb 71bd 1a88 713d f404 b63d 4f63 4e3d
00000270: 2c44 b5bc c5e8 b2bd ad8e 573d 4342 6a3d
00000280: 6607 85bd d7f3 fe3c 960e d13c af0b 933c
00000290: 4768 1cbd 90f1 d23c 8e8b b1bd 5e8e a0bd
000002a0: c3e9 623c 9761 3fbd c3a8 d8bc 631a 7abc
000002b0: e23a a2bd aeb4 4fbd bf0e 4dbd 5e92 4dbd
000002c0: 23c4 a4bd 9a5f 9fbd e3ee fabc 463f 523d
000002d0: 4bdc bd3d e28f 8e3d feaf c9bd f983 c6bd
000002e0: 0ade f7bc e7d9 9cbd 1e50 8bbd bf04 b0bc
000002f0: 44f1 11bd 8f74 17bb d5ee a23d f89d 0fbd
00000300: 89cd a73c e657 83bd 2fad 9bbc 6c91 a23d
00000310: 62d9 1cbd 7338 84bd 4f2f 893c a532 2f3d
00000320: b8fd 063d eb0f 3abd b717 953d 57a8 813d
00000330: 4311 3c3d 74ed 923d 84df adbd a58c 083d
00000340: 92e9 63bd f9ed 19bd e19d a13d 3f83 8c3d
00000350: f9f1 c0bd 58bc 8fbc 81f3 84bd cf20 053c
00000360: 095c e83c 9107 3dbd e1b2 17bd 43f6 4e3d
00000370: 06dc b4bd 4f03 913d 1d3c 12bd 56c2 5d3d
00000380: 8fd1 1e3c 482a b4bd 4f05 c93d bbb2 a9bd
00000390: 0de6 663d 53b8 383d 36f2 bf3b c26f 95bb
000003a0: b99a 373d 0380 ee3c 9bd9 803c b5c4 a0bc
000003b0: 1fb4 91bd b9d1 9dbd 24ea 8dbd 4a34 1cbd
000003c0: 5470 5abd ac7a 9e3d bf55 8abc 3967 3d3d
000003d0: cabd 93bd 5220 063d f939 2bbd d4bd bd3d
000003e0: e919 2c3d ce37 b63d 430f 30bc 1fed 79bd
000003f0: 42e2 153d 02cd 0638 6a2c 723b ffa0 373d
0.0832764 0.0044137547 0.06770122 0.094487004 -0.09380424 0.041197773 -0.0053964686 0.053901445
0.07318272 0.06163627 -0.013728085 -0.017076997 0.030543787 -0.04341121 -0.0030621297 -0.08116228
0.07708511 -0.050507795 -0.08140753 -0.07020286 0.028235095 0.068340756 -0.09460844 0.03452116
-0.05790333 -0.0031694681 -0.0815631 -0.09203615 -0.018574813 0.001078731 -0.06878221 0.08272991
-0.097047955 -0.005161209 0.08192543 -0.06943829 0.038813744 0.06290125 -0.032025374 -0.09624692
-0.081440024 0.0008225018 0.08306775 0.07697938 -0.024040585 -0.0991413 0.05433798 -0.033072352
0.058278237 -0.012390157 -0.024686871 -0.010611399 -0.035144687 0.017686514 -0.08461096 0.065680504
-0.042566266 0.046318732 0.09505575 0.03433127 0.046670124 -0.015412137 -0.0054386626 0.012249162
0.021154074 -0.0029781824 0.096877664 0.042670198 0.08364548 0.037972495 -0.037011106 0.0036827095
0.056289315 -0.07366464 0.08846896 -0.02594716 -0.019574258 -0.09665446 -0.080412224 0.04618188
-0.007665022 0.06617842 -0.031105507 -0.07473647 -0.061192594 0.027488178 -0.06473566 -0.027503312
-0.050100766 -0.043816637 0.0072893454 0.009718229 -0.025457727 0.02310373 0.06889067 -0.014437589
-0.015776535 0.0744305 0.037346978 -0.013676897 -0.009286084 0.006226827 0.053836346 0.039082095
0.035584446 0.04682581 -0.009866019 0.0022419607 0.023742681 -0.026548928 0.055801354 -0.002746386
-0.055657767 0.01563553 -0.00883105 -0.009970029 -0.09616057 -0.01566923 -0.018442987 3.1352236e-05
-0.0036879964 -0.0010081591 -0.034917265 -0.06768024 0.031452067 -0.02966947 0.005158086 0.042225882
0.064819746 0.01134831 0.011918535 0.06515632 0.07122866 -0.057998054 0.09786382 -0.019613985
-0.008015789 0.07717372 -0.09114435 -0.007388963 -0.004174478 -0.053287417 -0.08958117 0.07930401
0.07372994 -0.045551613 0.09885793 -0.033443566 -0.038865145 -0.0018834297 0.08424311 -0.07877539
-0.05903201 0.058967687 0.088876635 0.050387677 -0.022127233 -0.087358035 0.0526263 0.0571921
-0.06495552 0.031122131 0.02551965 0.017949907 -0.038185384 0.025749952 -0.08669196 -0.078396544
0.013849678 -0.04672393 -0.02644766 -0.01526508 -0.07921387 -0.05070942 -0.05006289 -0.050188415
-0.080452226 -0.077819064 -0.030631488 0.051329874 0.09270533 0.06961037 -0.09848021 -0.096931405
-0.030257244 -0.07658749 -0.068023905 -0.021486638 -0.03563048 -0.0023110246 0.0795571 -0.03506276
0.020483749 -0.0641325 -0.019003479 0.07937893 -0.03829325 -0.06456079 0.016746191 0.042772908
0.03295681 -0.045425337 0.07279914 0.063309364 0.0459149 0.07174197 -0.08489898 0.033337254
-0.055642672 -0.037580464 0.07891441 0.06860971 -0.094211526 -0.017545864 -0.06491757 0.008125498
0.028364198 -0.046149794 -0.037035827 0.050527822 -0.08831029 0.07080709 -0.03570186 0.05414041
0.009693517 -0.08797127 0.09815466 -0.08286043 0.056371737 0.04509766 0.005857731 -0.0045604417
0.04482529 0.029113775 0.015728762 -0.019625047 -0.071144335 -0.07706017 -0.069294244 -0.038135804
-0.05332978 0.077382416 -0.01688659 0.04624102 -0.07213934 0.032745667 -0.041803334 0.092647225
0.042016897 0.08897363 -0.010745826 -0.061017152 0.03659273 3.2139018e-05 0.0036952742 0.044831272

lstm.bias_ih_l1 f4 [400]
00000000: 2fdb 6a3d f701 9c3c 9aec 123c 5f45 303d
00000010: 8e7f 1b3c 20b4 2dbd 9904 54bd bd84 923d
00000020: e756 92bd 0dff c93c b4da b93b 1c8c 443d
00000030: 9c5d 6c3c 4a6b 9cbc ff18 cc3d 6c2d 053e
00000040: b303 903d e68c 5fbd 1748 f03d b3a1 67bd
00000050: 8e32 fe3b 3cd3 bbbc ceef e8bb 0edf 27bd
00000060: 6e36 d93d 269a 26bb 7954 683b 654e 8c3d
00000070: 0ecd 4a3d 1d0a 063e ccb4 fb3d 8981 58bc
00000080: 6e54 b73c 3b7f c4ba 3634 58bd fd9e 213c
00000090: 743b 1bbd 5c44 703d f194 e33d ee9d 2dbd
000000a0: c7cd 9e3d de48 a43d 739d 8ebc 9b50 96bc
000000b0: 8a36 1c3d d62c 913c 1cfd 113e de8e 23bd
000000c0: 237b 053c bc33 5b3d d7d1 9c3c 5ec6 9dbc
000000d0: 14f8 91bb e044 463d 114a 383d 3e0b a7bc
000000e0: 6434 063d dbd1 2c3c 76d0 6a3c c0c7 f23d
000000f0: bac8 493d cea6 f4bc d61f c13d 2a13 96bc
00000100: 1973 ed3d 4e14 8e3d 7081 943d 45c2 523d
00000110: d375 f53d a177 883c 263c 34bd 92e4 0f3c
00000120: 11ee 923d 4b2e f33d d0aa 97bc 5585 e4bc
00000130: 314e 7dbc f88e 6b3d 1930 5e3d 43ba cf3d
00000140: 0c44 cd3d 0359 03bd 581c d13d 2a14 13bd
00000150: d316 57bd 3e15 023e 3cea 6bbc aa96 d03d
00000160: a327 2a3d 7bfb 933d e6fa fd3d c418 33bd
00000170: ab3b 7ebd 3669 e5bb 7d0e cb3d 845d 65bd
00000180: 9798 82bd df0e 0cbd 49b7 d13d 49a9 c23d
00000190: 20d3 573d d07d f33b ac14 933d 6711 863d
000001a0: b687 b73b f892 843d 9374 54bd 9d56 7cbd
000001b0: 4db2 8c3d 81c1 ad3d 7f09 8e3d 2fe3 4a3d
000001c0: c942 943d 83a2 423d 7821 8bbc fdb6 54bc
000001d0: 3760 83bd 9f2b ab3d 94dc cabd e9e4 383d
000001e0: 7183 a7bd 10f4 ec3b 1263 163d 1c04 c63b
000001f0: d390 9dbd 095a 1abd f0e1 8f3d b2dc 89bd
00000200: fb47 31bd 0f35 afba 0fb9 9abd c7d0 a0bd
00000210: d735 b3bd 01bb 9b3d acd7 b43d bd9e 1bbd
00000220: dfe5 c83d 8a2b ccbd 492e b13d 6413 c1bd
00000230: e1eb 2fbd cd93 86bd 2634 b73d cdf6 7c3d
00000240: e775 ab3d 9254 c6bd d163 9dbd 9faf 67bd
00000250: 1cc8 4c3b 09a5 c93c 8c33 aebd b9c6 92bd
00000260: dbbb 0f3d bd4a 96bd f9ac cdbc 1ea2 b93d
00000270: 0266 ad3d 56cf 3c3d c008 acbd c93b 553d
00000280: 4e2d 7abd 1c68 163c 2933 a63b 9978 553d
00000290: 013d 98bd f6e9 6939 b61f b8bb bddc 893d
000002a0: 761b 453c 5c6e 36bc 0b3b 80bc 4f7c c93a
000002b0: f1f7 bc3d 5d6f efbc f1c9 c83d 49bc edbc
000002c0: ca6c 29bd 7fdf b2bd 1452 3fbd bfc0 3e3d
000002d0: 1356 01bd c434 42bd 622e 933d faa6 893d
000002e0: a252 a83d 65cd 853d 23af f13c 0676 353d
000002f0: 3b8e 04bd bd00 8f3d 13df 543d 05dd 8fbd
00000300: 7fd8 acbc 4284 adba 9bc7 c5bd 4250 a43c
00000310: 7677 55bd 26bd c9bd bda6 08bd 6f71 b63d
00000320: 7af7 b33d ef09 a93d 64df 8fbc 5143 52bd
00000330: 1779 6dbd 328f a33d 130c c0bc 545f b0bc
00000340: 39b0 24bd 6a07 133d 877f 9a3d f1a9 923d
00000350: 452d 07bd 04df 4c3d 77ba 8cbd 3e1f 0cbd
00000360: 4267 1a3d 96eb fdbc a66e f1bc 2dc0 7bbd
00000370: 793e 423d 3e59 bcbd 63ce 5b3d 38dd 3abd
00000380: 33f2 653d 43f7 5b3c 4ea4 7dbc 4b29 4c3d
00000390: 5e55 c23d 30fd 19bd edfa ce3c 1f1c 813b
000003a0: 5045 f13c 9bae 553d e594 9fbd 60c5 943d
000003b0: 5465 073d 2144 193d 119a 303c 96d9 953d
000003c0: 72d2 9bbd 4b1b 603b 0a01 ba3d 27f3 4cbd
000003d0: 00f9 07bb daa6 5dbd 011f a8bd da50 47bc
000003e0: 910f 54bd ac8a 3e39 79a0 e4bc 02f7 1fba
000003f0: 4f8e 14bd 5360 bdbb 02c8 3b3d 1d00 5cbd
0.057337936 0.019043906 0.008967543 0.043034907 0.009490861 -0.04240811 -0.051762197 0.07154224
-0.071454816 0.02465775 0.0056718234 0.04798518 0.014426615 -0.019094128 0.09965705 0.13005608
0.070319556 -0.05457773 0.117325 -0.056550693 0.0077574914 -0.022927873 -0.007108665 -0.040984206
0.10606085 -0.002542147 0.003545074 0.0685089 0.04951196 0.13089795 0.12290344 -0.013214477
0.022379126 -0.0014991531 -0.052784167 0.009864566 -0.037898496 0.058658943 0.11112393 -0.04238694
0.07754093 0.08021711 -0.017409062 -0.018348983 0.03813795 0.017721575 0.1425671 -0.03993117
0.008147034 0.053516135 0.019143028 -0.019259628 -0.004454622 0.048405528 0.04499251 -0.020391103
0.032764807 0.01054808 0.0143319275 0.118545055 0.049263693 -0.029864695 0.094299 -0.018319685
0.11594219 0.069374666 0.07251251 0.0514548 0.11985364 0.016658606 -0.044002675 0.008782523
0.07174314 0.11874064 -0.018514067 -0.027895609 -0.015460537 0.057509392 0.05424509 0.101429485
0.100227445 -0.03206731 0.10210484 -0.0359079 -0.052512 0.12703416 -0.014399108 0.10184987
0.041541707 0.072257005 0.12401371 -0.04372479 -0.062068623 -0.0070010675 0.09914873 -0.055997387
-0.063767605 -0.03419387 0.10240037 0.09504945 0.05269158 0.0074307695 0.07181677 0.06546288
0.005600895 0.064733446 -0.051868986 -0.06160604 0.06869946 0.084841736 0.06935405 0.049533065
0.07239301 0.047518265 -0.016983733 -0.012983081 -0.06414836 0.083579294 -0.09905353 0.04514018
-0.08179367 0.007231243 0.036715575 0.0060429703 -0.07693639 -0.03768352 0.07025516 -0.067315474
-0.043281537 -0.0013367253 -0.075548284 -0.07852321 -0.087505035 0.076040275 0.08830199 -0.03799318
0.098094694 -0.09969242 0.08651406 -0.094275266 -0.04294956 -0.065711595 0.089454934 0.061758805
0.083720975 -0.09684099 -0.07685054 -0.05656397 0.0031247204 0.024614828 -0.085059255 -0.071668096
0.035091262 -0.07338474 -0.025106894 0.090641245 0.08466722 0.04609617 -0.084001064 0.05205897
-0.061078362 0.009180095 0.0050720167 0.052116964 -0.074335106 0.00022307769 -0.0056190146 0.067315556
0.012030473 -0.01113471 -0.015653154 0.001537213 0.092269786 -0.029227907 0.09804142 -0.029020445
-0.041363515 -0.08734035 -0.046709135 0.046570536 -0.031576227 -0.047413602 0.07186581 0.067213014
0.08218886 0.065333165 0.029502457 0.04430201 -0.032362204 0.06982563 0.051970553 -0.07024578
-0.021099327 -0.0013238268 -0.09657212 0.020057801 -0.05211588 -0.0985053 -0.03336214 0.089083545
0.08787437 0.08253848 -0.017562576 -0.05133373 -0.05797681 0.07986297 -0.023443257 -0.021529831
-0.04020712 0.035895742 0.07543855 0.0716132 -0.033002157 0.05001737 -0.06871503 -0.034209482
0.03769613 -0.030996125 -0.029471707 -0.06146257 0.04742286 -0.09196709 0.053663623 -0.045621127
0.056139182 0.013425651 -0.015481068 0.049844068 0.09488939 -0.037594974 0.025266135 0.00394012
0.029451996 0.05216847 -0.07792071 0.07264209 0.03305562 0.03741849 0.01077892 0.07316892
-0.07608499 0.0034195955 0.090822294 -0.050036576 -0.002074778 -0.0541142 -0.082090385 -0.012165273
-0.051772658 0.00018171471 -0.02790855 -0.00061021757 -0.03626853 -0.005779305 0.04584504 -0.053711046
